Assets/IA/Pruebas/results/Pad03/PadBehavior/PadBehavior-130709.onnx (onnx, 75090 bytes, 5 tensors)

network_body._body_endoder.seq_layers.0.weight f4 [128, 7]
000000 65 e4 a1 3e 97 d0 65 3f 1d bf 9e 3a d0 b0 22 be
       0.31619564 0.8977141 0.00121114 -0.15887761
000010 89 33 94 bd 8a 94 9a bd 29 65 d6 be ea ef ad 3e
       -0.07236392 -0.07547863 -0.41874054 0.33972102
000020 87 fd 09 be 43 c2 2f be 15 b0 99 3e 13 3c a9 bd
       -0.1347562 -0.17163949 0.30017152 -0.082634114
000030 9a 17 19 be 7b 09 bd 3d 6a d5 fb 3d 8c c2 35 3f
       -0.1495041 0.09230324 0.12296565 0.7099998
000040 9e 03 a3 bb c7 0e 13 3f f6 e9 a3 3e 86 df c4 be
       -0.0049747964 0.57444423 0.32014436 -0.38451785
000050 d0 68 30 3e b0 fd e2 3e db 0d 18 3f e0 a2 65 be
       0.17227483 0.44334173 0.5939614 -0.22425413
000060 81 6f 54 be 25 fd 47 3f a0 3b 69 3e 36 05 67 be
       -0.2074566 0.7812064 0.22776651 -0.22560582
000070 ce 27 c5 be f6 88 46 bd cf ff e8 3d 8c 22 af 3e
       -0.3850693 -0.04847046 0.113769166 0.34206045
000080 21 61 a7 3e 34 1b c4 be c7 82 9e 3e 4e 71 45 3f
       0.3269129 -0.38302004 0.3095915 0.77126014
000090 c9 90 10 3e 21 ce 92 be 12 fc 60 3d 8a bb 9e 3e
       0.14117731 -0.2867289 0.054927893 0.31002456
0000a0 a0 10 12 bf a8 67 d9 bd fa f8 03 bf 0b fc 38 be
       -0.5705662 -0.10615474 -0.51551783 -0.18064897
0000b0 3b 4d d6 be db 5c 03 3f 38 b0 ca be b3 f1 98 bc
       -0.41855797 0.5131356 -0.3958757 -0.018669939
0000c0 c5 bb a2 3e 9f f3 8d 3d 1d bc f0 be e2 20 9a 3e
       0.31783882 0.06931233 -0.4701852 0.30103213
0000d0 84 f2 2f 3e 4e 75 49 3d 7a e3 11 3f 90 c7 fa bd
       0.17182356 0.049184136 0.56987727 -0.12245095
0000e0 0b ef 4d 3e 1e d0 2d 3f a6 26 7d be f8 f9 13 3d
       0.20110719 0.67895687 -0.24721774 0.03612706
0000f0 ef 47 6c 3d 8e 29 d8 be f1 d1 58 3e fc 72 d2 be
       0.05768579 -0.42219204 0.21173836 -0.4110335
000100 31 0c 90 3e 9d 88 aa 3d e0 ca 03 3f 82 dd 27 bf
       0.281343 0.08326838 0.5148144 -0.6557237
000110 e5 86 0f be 78 36 13 be cd 99 37 be 89 96 0f bf
       -0.14016302 -0.14376247 -0.17929764 -0.56089073
000120 ca 91 7a 3e 8c 76 96 3e 3d f7 22 bf 0f 6a 30 be
       0.24469677 0.2938732 -0.63658506 -0.17227958
000130 5d 0f d1 3c a3 b4 0c bf 6b c5 d3 be 73 5c af 3e
       0.025520021 -0.5496313 -0.41361555 0.3425022
000140 59 a5 07 3e 18 ce af 3e fb 21 49 3f 67 93 65 3e
       0.13246669 0.34336925 0.78567475 0.22419511
000150 90 12 99 3e 40 c5 b5 be 1b cb 3a 3f 07 4d ca bd
       0.29896975 -0.35502052 0.72966164 -0.09877973
000160 eb 5d 49 3e cc 3c 6e 3e 5a 99 33 3d d5 1c 11 bf
       0.19664733 0.2326538 0.04384742 -0.5668462
000170 6a a5 dd 3d c5 12 ed 3e 15 07 a4 be 55 57 ac 3e
       0.10822566 0.46303383 -0.32036653 0.3366038
000180 83 55 e3 be fb aa 7e bf 31 ee 56 3e cf 25 1a bf
       -0.44401178 -0.99479645 0.209893 -0.6021394
000190 b5 9c 33 3c b9 f6 a6 3e c2 df 54 3f bc 76 03 bf
       0.010962655 0.3261011 0.8315393 -0.5135305
0001a0 cb 27 14 bf 32 d0 1b 3f c3 da e9 be 16 5d 0a bf
       -0.5787322 0.60864556 -0.45674714 -0.5404829
0001b0 b4 b3 07 3e b7 37 a9 3e 57 60 63 be ff 79 c5 bc
       0.13252145 0.3305032 -0.2220472 -0.024106024
0001c0 58 6d 35 bd c7 82 1e bf a8 2e 1f be 45 9e 93 3f
       -0.04429373 -0.619183 -0.15545142 1.1532675
0001d0 e8 cc 0d bf 46 eb 36 bb 7f 9c 53 bd 6e 52 86 3f
       -0.5539079 -0.002791123 -0.05166292 1.0493906
0001e0 47 72 13 3f ae 89 e8 3e 01 9d b5 3e 4b 7c c6 be
       0.5759625 0.4541754 0.35471347 -0.38766703
0001f0 00 6e 05 bf 88 5f 32 bf ab 98 13 bf 83 78 8b be
       -0.5212097 -0.6967702 -0.5765483 -0.2724038
000200 74 18 13 3f 47 da 0c 3e 16 bc a5 be e1 2b c4 3d
       0.5745919 0.13755141 -0.3237006 0.09578682
000210 67 99 1c bc ae 70 81 3d 20 33 05 bf c6 67 7b 3d
       -0.009558058 0.0632032 -0.52031136 0.061378263
000220 27 e7 68 be d2 e6 38 3e 92 cc 9c 3d 66 20 47 be
       -0.22744428 0.18056801 0.07656206 -0.19445953
000230 b3 a3 4d 3f a6 bb 08 3f 0b 7c a8 3e 58 95 72 3e
       0.8032791 0.5341133 0.32907137 0.23689783
000240 29 0b 50 be 01 be 0d 3e 2f 83 8c bd e3 8b 09 3e
       -0.20316757 0.13842012 -0.06860959 0.13432269
000250 58 68 96 be 53 f0 54 3f f6 c4 81 3e 08 8b cf 3c
       -0.29376483 0.83179206 0.25345582 0.02533485
000260 0d 0e 4b be aa eb ee 3b 65 dd c3 be 40 51 18 3f
       -0.19829579 0.007291277 -0.38254848 0.5949898
000270 e0 f0 c1 3d 00 22 95 3e 13 1f 44 39 90 30 00 bf
       0.094697714 0.29127502 0.00018703593 -0.500741
000280 72 df c5 be ba 9a 9a 3e e4 5a 45 3f 66 c3 ab bd
       -0.38647038 0.30196172 0.77091813 -0.08386879
000290 bf 11 90 3e 38 6f 31 bf 97 fc 1d bf 56 5c 77 3e
       0.2813854 -0.6931033 -0.61713547 0.24156317
0002a0 22 ac 1b be ca 95 3f bd 1a 7a 34 3e c5 6b ee bd
       -0.15202382 -0.04677371 0.17624703 -0.11641649
0002b0 b1 f4 b6 3d 33 05 38 3f f1 8a 13 be 63 ae 58 3e
       0.0893339 0.71882933 -0.1440847 0.21160273
0002c0 86 7a 03 3e 7c e2 89 3d a4 9a 04 bf 24 d1 17 3f
       0.12839708 0.067326516 -0.5179846 0.593035
0002d0 ae f4 65 3f 41 d6 a7 3d 23 39 64 bf 75 6e c1 3e
       0.89826477 0.081951626 -0.89149684 0.37779585
0002e0 ed 21 10 3e a6 47 e1 3e f8 f8 00 be 55 7a 18 bf
       0.14075442 0.43999976 -0.12594974 -0.59561664
0002f0 51 63 bd bc 99 b0 11 bf fc 9f 95 3f 5a 7c e4 bd
       -0.023118647 -0.5691009 1.1689448 -0.11156531
000300 6a 05 d3 3e 32 8a 09 be 6a e3 31 3e 87 9b cd 3d
       0.41215068 -0.13431624 0.17371908 0.1003943
000310 1e 4e 4c 3f 4a a1 19 be 73 d1 37 bf 43 2f 83 3e
       0.798067 -0.15002933 -0.7180397 0.25621995
000320 c3 a9 8b be 55 ef a8 be 80 2f 58 3d ab 6b 67 3f
       -0.27277955 -0.32995096 0.052779675 0.90398663
000330 7c b7 48 be c9 9b 46 bf 0a 46 4c 3f f4 01 1c 3e
       -0.19601244 -0.7758146 0.7979437 0.1523512
000340 fc eb 09 bb ad 75 cf 3d 10 18 c2 3e 44 cd 5e be
       -0.0021045199 0.10129867 0.37908983 -0.2175799
000350 15 b1 8c be 22 2f 98 be 28 29 ed 3c 88 f5 65 bd
       -0.27478853 -0.2972346 0.028950289 -0.05614236
000360 c2 88 a3 be 60 99 04 bd 38 82 c4 3e 18 67 2f bf
       -0.31940275 -0.032372832 0.383806 -0.68516684
000370 06 36 aa be 6f 45 bf be 86 b0 23 3e 15 7e 69 3e
       -0.33244342 -0.3735766 0.15985307 0.22802003
000380 ca d8 08 3f 39 7b ea be ca e4 65 3d de d7 03 3f
       0.53455794 -0.45797136 0.056126393 0.5150126
000390 c3 3a 6c bd dd 40 b4 3e 45 01 8e be 6f 08 14 3f
       -0.057673227 0.35205737 -0.27735344 0.5782537
0003a0 dd 66 84 bb 73 d6 41 bf ac fb ad 3e 1f e4 eb 3e
       -0.0040405826 -0.7571785 0.33981073 0.4607248
0003b0 b4 54 1d 3f 36 9a 91 3e 05 68 c2 be da a5 1c 3f
       0.6145737 0.28437966 -0.37969986 0.6119057
0003c0 ca 17 73 3e f5 a1 c1 bb 12 9e 25 be 57 b1 cd be
       0.23739544 -0.0059091994 -0.1617358 -0.40174362
0003d0 e4 62 42 3e 0d 62 af 3e 10 cb 89 3e 1e 74 2a 3d
       0.18983036 0.34254494 0.26912737 0.041614644
0003e0 2d 34 09 bd da f0 85 bf b5 aa 95 3e 2e cb ab 3e
       -0.033497024 -1.0464127 0.29231802 0.3355345
0003f0 d2 41 08 be 81 36 3a be 79 01 90 be 42 a8 a6 3e
       -0.13306358 -0.18184854 -0.28126124 0.32550246

network_body._body_endoder.seq_layers.0.bias f4 [128]
000000 ea 2f 89 bb d3 d6 6c 3c 0a a8 29 bd 38 5f 39 3d
       -0.00418662 0.014455515 -0.04142002 0.045256823
000010 1e 87 a6 bc 36 d7 b7 bc ff ce 7a bd 21 2c 00 bd
       -0.0203281 -0.022441488 -0.061232563 -0.031292085
000020 cb 2b 29 3c 02 e9 eb bc 32 b3 85 bd a6 36 a4 bc
       0.010325382 -0.02879763 -0.065283194 -0.02004559
000030 8c 3d 0a bb bc f5 e2 bd 89 70 a6 bd 0a b7 68 3b
       -0.0021093814 -0.11082026 -0.08126933 0.003550949
000040 0d 3c 27 3d de a7 2f 3d 0e e3 c3 3b 9a bf 44 3c
       0.040828753 0.0428847 0.0059779948 0.012008572
000050 b7 e8 65 3d 77 d6 98 bd 71 7c e0 bd f0 cc 8f bd
       0.056130137 -0.07462781 -0.10961235 -0.070215106
000060 cc b9 90 bd d9 6f de bd b5 cf 90 bc b1 d1 54 bc
       -0.07066688 -0.10861177 -0.017677167 -0.012989447
000070 b8 a3 79 bb 3a c2 a9 3d 34 34 c9 3c 96 76 fe bc
       -0.0038091969 0.08288999 0.024561025 -0.031062406
000080 f7 c0 c1 3c 19 1b 19 3d 8b b2 7b bd 8f a8 33 bb
       0.023651583 0.037379358 -0.06144957 -0.0027413701
000090 09 7d b8 bd 3c 91 7a bd 93 b4 5f bd f2 3b e1 bc
       -0.090082236 -0.061173663 -0.05461557 -0.027494404
0000a0 1b 90 50 bd cc 5d 1f bd 43 56 21 bd 55 62 b4 3d
       -0.05091868 -0.03890781 -0.039388906 0.08807818
0000b0 2d ee b5 bd b3 30 24 3a 4d 10 2a bd e7 fc c5 bb
       -0.08883319 0.000626336 -0.041519452 -0.006042111
0000c0 56 69 79 3d e6 0c 26 bd ee e7 2f bc c8 7d 31 3d
       0.06089147 -0.040539645 -0.010736449 0.043332845
0000d0 a3 8c ed bc f7 c9 a4 3c 1b c5 ca 3d 26 62 6a bd
       -0.028997725 0.020115836 0.09900876 -0.057222508
0000e0 20 f2 db bd fb 8c 95 bd 73 fb c7 3c 2b 22 10 3e
       -0.10739541 -0.073022805 0.024411893 0.14075534
0000f0 ec 9f 01 bd 57 e9 69 bb 6a 09 95 bd 21 0d 89 3d
       -0.031646654 -0.003569206 -0.07277186 0.06691957
000100 95 4d 22 bd 3c f8 25 3d 39 b2 3e bd bf ca 32 be
       -0.03962477 0.040519938 -0.046556685 -0.17460154
000110 71 19 a3 3b 15 fb 05 bd 2e e2 89 bd 6e c4 e3 3c
       0.004977398 -0.032710154 -0.067325935 0.027803626
000120 1f 0f 0d bd 49 15 1a 3d 4b 28 b4 3c 09 cd a9 3c
       -0.03443825 0.037617955 0.02199187 0.020727651
000130 f1 8a ad ba b8 7b a4 bd 6a 0a 80 bd 10 66 60 3d
       -0.001324026 -0.0803141 -0.06251986 0.054784834
000140 23 aa a9 3d 7a 91 26 bd 53 90 fd bc 48 81 0e bc
       0.08284404 -0.04066608 -0.030952608 -0.008697815
000150 83 ff ca 39 8b f0 b5 3c b5 5c 48 bc 3c b7 2a bd
       0.00038718813 0.022209426 -0.012229134 -0.041678652
000160 ef 84 a3 bc 25 b7 19 3c 38 53 e1 3c 46 ea 2b bd
       -0.019960849 0.009382044 0.027505502 -0.041971467
000170 52 f4 95 bd 69 13 c4 3b b0 39 28 3d d6 c7 77 bd
       -0.07321991 0.005983759 0.04107064 -0.060493313
000180 24 df a4 3c 13 08 b9 bb 35 8d b0 bd fd 64 60 3d
       0.020125933 -0.0056467145 -0.08620683 0.05478381
000190 72 88 09 3d fa a8 d4 bc 3a 93 02 3c d4 34 24 bd
       0.03357739 -0.02595948 0.007969672 -0.040089443
0001a0 19 a9 ec bc 5b 65 a0 3c 10 eb ef bd 76 bc 78 3d
       -0.028889226 0.01957958 -0.117147565 0.060726605
0001b0 04 97 04 be d1 4d bf bc 91 49 d9 bc 07 8c ef bd
       -0.12948233 -0.023352535 -0.026524337 -0.1169663
0001c0 55 44 45 3d ca 34 13 bd 2b 84 99 3d ea 25 8f bd
       0.04816087 -0.035939015 0.07495912 -0.069896534
0001d0 2e 27 b9 bd a6 12 88 bc 84 06 ce bc 9a 92 ee bd
       -0.09040676 -0.016610455 -0.025149591 -0.11649056
0001e0 00 b3 f6 3c fe ab 74 bc 69 fa cb 3c 80 9f 5b bd
       0.03011465 -0.014933584 0.024899678 -0.053618908
0001f0 f8 a8 2e bb 04 7b 52 bc ec ff 10 bd bc a4 1c bd
       -0.0026651006 -0.012846712 -0.035400316 -0.03824304

network_body._body_endoder.seq_layers.2.weight f4 [128, 128]
000000 c3 c1 4e be 48 fc 9c 3d 00 f1 40 3e ce 31 86 3d
       -0.20191102 0.07665306 0.18841934 0.06552468
000010 5f e5 a3 bd f4 cb dd 3d 97 d0 0e be 7e 3b b6 3d
       -0.080027334 0.108299166 -0.13946758 0.08898066
000020 1d cb 6e 3d 82 6c e5 bb ae 0d a3 3d 77 69 32 bd
       0.058299173 -0.0070014605 0.079615936 -0.04355761
000030 c8 c3 5c 3e 56 a8 a3 3d 5a c5 da 3d aa 1e 4c 3e
       0.2155906 0.07991092 0.10682173 0.19933572
000040 02 37 ed 3d 89 47 e3 3c ba f3 d7 bd cc 84 9d 3c
       0.115827575 0.027744072 -0.10544534 0.019228362
000050 18 02 e6 3d 2e 02 2a be 1c 08 72 3d ca 99 bc bc
       0.11230868 -0.16602394 0.059089765 -0.023022551
000060 a1 c4 84 bc 49 df 15 be 5b 26 98 bd 17 b3 f0 bd
       -0.016207041 -0.14635958 -0.07429191 -0.11752909
000070 bc 57 5b bd 06 51 17 3e 35 0d 87 bc 4f e2 5a be
       -0.053550467 0.14777002 -0.01648579 -0.21375392
000080 40 da 06 3d 1a 13 97 3d 93 89 8e 3a cb d4 0a 3e
       0.032922983 0.0737669 0.001087474 0.13557737
000090 67 63 ef bd da 0b 01 be 85 6d 89 3d 9a 21 91 3d
       -0.11688881 -0.12602177 0.06710342 0.07086487
0000a0 48 ff 9e bd 97 c3 e2 bd ce 7d 97 3d b1 75 f2 3c
       -0.07763535 -0.11072462 0.07397042 0.029597135
0000b0 cc df 00 3e 04 40 83 3c 54 b9 b4 bd 9b d6 32 be
       0.12585372 0.016021736 -0.08824411 -0.17464678
0000c0 fa df 16 bc 4c 8b 0a bd 95 7d 67 bd 16 08 df 3d
       -0.009208674 -0.03382425 -0.05651625 0.10890214
0000d0 4b 31 45 bc 3d 31 9b bc ea d8 6e 3d f0 98 b4 bd
       -0.012035678 -0.018944377 0.058312334 -0.08818233
0000e0 11 52 ed bd 51 20 fd bd f0 ea 65 bd 2b 9b 19 3e
       -0.115879185 -0.123596795 -0.056132257 0.15000598
0000f0 27 d9 8d 3d b1 e1 ea bd 0a 90 d7 3d eb 8b 90 3d
       0.06926184 -0.114688285 0.1052552 0.07057937
000100 1a 77 53 bd de ac 2b be ac 7d e0 3d c2 62 8f bd
       -0.051627256 -0.16765162 0.1096147 -0.070012584
000110 dd 2f 92 3c 9e 18 d5 3d d0 88 1a bd f9 88 fc 3d
       0.017845089 0.10405086 -0.03772813 0.12330813
000120 75 be 1e 3e 44 bb e8 bd b5 7c a0 bb 39 97 39 bd
       0.15502341 -0.11363843 -0.0048976787 -0.045310233
000130 83 23 2f be e2 e7 85 bd 7b c3 df bd 1f 9f a6 3d
       -0.1710339 -0.06538369 -0.10925957 0.08135819
000140 3d 82 1d 3d ed 74 e3 3b 86 9b 65 bd ef 1c 93 bd
       0.038454283 0.006941429 -0.05605652 -0.07183253
000150 14 db 19 bd 8d e2 cf bd 48 a7 0c bd ed 44 20 be
       -0.037562445 -0.10150633 -0.03433922 -0.15651293
000160 71 93 25 3e e9 9c 94 bd 51 2c f1 3d 80 21 36 be
       0.16169526 -0.07256491 0.11776031 -0.17786217
000170 72 90 00 bd 9f fb 64 be 61 33 a9 bd 10 9c 4d be
       -0.031387754 -0.22361611 -0.08261753 -0.20079064
000180 1d 6c d0 3d 90 54 43 3d 7e f5 c9 3d ce 5e 0b 3e
       0.10176871 0.047688067 0.09861277 0.13610384
000190 4f 5d 16 be f7 cf 42 be 15 e8 ea ba 53 e1 32 3d
       -0.14684032 -0.19024645 -0.0017921949 0.043671917
0001a0 17 ac 88 bc 38 d9 85 3d 3c 8c cc bd d9 1f 4a 3e
       -0.016683621 0.06535572 -0.09987685 0.19738711
0001b0 8a a8 16 3d 91 6e f7 3b 8e 9d 84 3d 10 12 81 bd
       0.036781825 0.0075510223 0.06475364 -0.06302273
0001c0 78 de 1d 3e 0c 3f 02 3d cd 55 c4 3d 9d 34 4f bd
       0.15416896 0.031798407 0.09586678 -0.050587285
0001d0 aa 95 55 be c0 fc 95 3d de 50 46 3d a9 65 9e bb
       -0.20857874 0.07323599 0.048416965 -0.004833896
0001e0 f3 9e 52 3e 85 80 19 be db eb a7 3d ac 59 d6 3c
       0.20568447 -0.14990433 0.08199283 0.026165806
0001f0 1e 02 a3 3c 8f e7 a0 3d 3d 36 e0 ba 4d 3a 28 3c
       0.01989847 0.07856666 -0.0017106008 0.010267806
000200 be f2 6c 3d 32 cf f6 3d 05 d7 ee bd 9b 26 b2 3d
       0.057848684 0.12051238 -0.116621055 0.0869877
000210 d2 fb 06 3d e8 83 01 3e b1 93 7a bd d9 dc e3 3d
       0.032955 0.12647974 -0.061176006 0.11126108
000220 47 4c e4 bd cc 65 ed bd e7 81 d4 3c c4 19 ca bb
       -0.11147361 -0.11591682 0.025940849 -0.0061676223
000230 89 54 88 3d c6 9b 0d 3d 2f 0b 74 bc d0 13 06 bb
       0.06656749 0.034572385 -0.0148952445 -0.0020458587
000240 02 5e 81 3e 3f 71 c8 3c 81 73 71 bd 9b e7 b6 bd
       0.25267035 0.024468062 -0.058948044 -0.08930894
000250 93 6e d7 3d bc 63 bc 3d 1b 22 c2 3d b4 38 6b bb
       0.10519137 0.0919871 0.09479161 -0.0035891952
000260 d1 70 3e 3d e6 8a 10 3c f1 20 00 be da f0 16 3e
       0.04649431 0.0088221785 -0.12512566 0.14740315
000270 f9 f4 65 3c a5 29 91 3e 0a 98 f1 bc fd f7 c3 bb
       0.014035457 0.28352085 -0.029491443 -0.0059804902
000280 de cc 79 bc 56 b8 ff 3b b4 22 55 bd 0c bc 5c bc
       -0.015246598 0.007803957 -0.05203505 -0.013472568
000290 3f db 0c 3e 47 06 c3 bc 60 04 65 3c de 9b dd bd
       0.13755511 -0.023806704 0.013978094 -0.10820745
0002a0 46 63 b3 bb 06 4c 1f 3d 94 2f 09 3e bb 9f 70 3d
       -0.005474481 0.03889086 0.13397056 0.05874608
0002b0 cb 2e 89 bd 0c ce 4c 3e 37 36 b5 bd 58 af 28 bd
       -0.06698378 0.20000476 -0.08848231 -0.041182846
0002c0 19 70 4a bd b0 0b a4 bd 8d 25 3c bd 77 d6 c8 3d
       -0.04942331 -0.08010042 -0.04593425 0.09806531
0002d0 e5 7f 7e bd 4c f0 31 3e d9 2a 9b 3d fc 7d d8 bd
       -0.06213369 0.17376822 0.07576532 -0.105709046
0002e0 71 d0 95 bd 56 e8 b6 bd 40 69 9d bc a7 53 9f 3e
       -0.07315148 -0.08931033 -0.019215226 0.3111851
0002f0 48 58 c5 bc eb f3 d5 bd 9f d0 c7 bd d3 c9 9c bd
       -0.024089947 -0.10446914 -0.09756588 -0.076556824
000300 1c c8 6f 3d 33 a3 54 bd cd 77 39 bc a4 d4 ce 3b
       0.05854045 -0.05191345 -0.011320067 0.00631197
000310 45 fc d1 bd 94 94 db bc bb df 88 3d a2 84 5b 3d
       -0.10253195 -0.026804246 0.06683298 0.053593285
000320 c4 c4 b0 3c dd e0 ed bd 29 9b b0 3d 31 90 95 3d
       0.0215782 -0.11615155 0.086233445 0.07302893
000330 13 56 4a be e6 f5 ae bc 93 82 cb bd d5 a0 b8 3d
       -0.19759397 -0.021357488 -0.099370144 0.09015051
000340 97 c0 46 3d cf f3 bf 3c 5b ae 5f 3e ac ab 23 3e
       0.04852351 0.023431687 0.21843855 0.15983456
000350 35 30 1d bd be b4 7c be a6 56 ae 3d d5 af 3b bd
       -0.038376052 -0.24678323 0.08512621 -0.045821983
000360 ec 1d 56 3d 02 80 73 3d 42 ff 12 3e c3 b2 d1 bd
       0.05227463 0.05944825 0.14355186 -0.10239174
000370 10 8e 34 3e 87 4b 45 be 76 15 e0 bd 98 47 d1 bd
       0.17632318 -0.19267093 -0.10941593 -0.102187335
000380 fc 82 3e be e0 05 b1 3c e4 de 9d 3c 7d b0 33 3e
       -0.18604654 0.021609247 0.019271322 0.17547794
000390 7d 5f d9 bc 48 31 3f bd 50 1b 56 3c 4b 2e 1b 3e
       -0.02653479 -0.046677858 0.013068035 0.15154378
0003a0 4d 05 6c 3b 5b 80 47 3c 77 d5 0f 3d 43 e0 df 3a
       0.0036013902 0.012176598 0.035115685 0.0017080385
0003b0 97 50 86 39 80 ff 5f bc 38 98 72 bd 03 31 da 3a
       0.00025618516 -0.013671756 -0.0592272 0.0016646687
0003c0 70 48 3e be 08 f6 d7 bd c1 70 d7 3d 31 68 e6 bd
       -0.1858232 -0.105449736 0.10519553 -0.11250342
0003d0 1d 2c 0c bc cc 0f 24 3d 35 6e fe 3c dd 8f 48 3d
       -0.008555439 0.040054128 0.03105841 0.048965324
0003e0 82 31 0c bd e6 51 99 bc ca 6a 02 be 75 63 ac 3d
       -0.0342269 -0.01871581 -0.1273605 0.084174074
0003f0 8b 8a 93 3d 6d ff 2d 3e 0a b1 dd 3d 80 c8 0c be
       0.07204159 0.16991968 0.10824783 -0.1374836

network_body._body_endoder.seq_layers.2.bias f4 [128]
000000 1e 8d 82 3d b1 92 a1 3c 37 e8 49 3d 48 eb 05 bd
       0.06374572 0.019723268 0.049293723 -0.032695085
000010 92 2b 5b bd c3 69 2d 3d 2a 3b 01 bd 55 45 ff bc
       -0.05350835 0.04233719 -0.031550564 -0.03116099
000020 3b a4 08 3d 11 56 1b bd 88 d0 32 bc 32 9a 96 bc
       0.033359747 -0.037923876 -0.010913976 -0.018384073
000030 c0 32 01 bd c0 95 87 3c af 5c 92 3d 8d a4 0c bd
       -0.03154254 0.016550899 0.07146584 -0.034336615
000040 94 36 ab 3d e1 47 f4 bc e0 4f 1f bc e2 46 2a 3c
       0.08360019 -0.02981943 -0.0097236335 0.010392876
000050 74 92 cc bc 42 56 2d 3c e6 2a 07 bc be 67 85 bc
       -0.024972178 0.0105796475 -0.008249974 -0.01628482
000060 16 8b 53 bc 6d 32 e1 bc e1 46 32 bc 87 c3 f1 3b
       -0.012911579 -0.027489865 -0.010881157 0.007378045
000070 63 46 11 3c 4b 5e 64 3d 20 b9 27 3d 70 eb 14 bd
       0.008866879 0.055753987 0.040948033 -0.036357343
000080 ca 85 bd 3c 32 74 ba bc ca eb 8d bd 14 f2 8e bd
       0.023135085 -0.022760484 -0.06929739 -0.069797665
000090 59 ba 28 bd f4 6e 9e 3c de 7c 28 3c e1 56 2b bd
       -0.04119334 0.019340016 0.010283677 -0.0418309
0000a0 71 f7 07 3c d9 ae 66 bc eb 99 7b 3d 98 d2 cb bc
       0.008298741 -0.014079773 0.061426084 -0.024880692
0000b0 5b 33 85 3c 0b ed c0 bb 91 61 d2 bc c4 51 f1 3d
       0.01625984 -0.0058876327 -0.025681289 0.11783174
0000c0 1d b7 dd 3c 3a 32 b9 bc 53 bf e7 3c 68 85 c2 bd
       0.027064854 -0.022606958 0.028289473 -0.094981015
0000d0 e0 21 8d bc a2 7b 84 3d f8 25 55 3d a2 55 94 bc
       -0.017228067 0.064688936 0.052038163 -0.01810724
0000e0 83 1d e3 bc 26 f9 bb 3d 51 58 07 3d 95 bb 18 bc
       -0.027724033 0.09178381 0.03304321 -0.009322067
0000f0 02 ba ec 3c c6 85 65 3d d3 c6 1d 3c 83 66 d2 bc
       0.02889729 0.05603578 0.009629923 -0.025683647
000100 17 7e 85 3d 60 15 14 bc 36 8c 5f bc c6 89 05 3c
       0.0651819 -0.009038299 -0.013644269 0.0081505235
000110 db 8d 75 3d fa bb 8a bc 9e dc 2a bd f0 49 f5 bc
       0.059949737 -0.016935337 -0.041714303 -0.029942483
000120 05 9f 8d bd d2 b2 1f bd e6 29 81 bb b0 e3 4f bc
       -0.06915096 -0.038988896 -0.0039417623 -0.012688562
000130 21 b9 9e 3d 56 50 2e bd cb cf 28 3d 30 d5 7e bd
       0.07750154 -0.042557083 0.04121379 -0.06221503
000140 40 46 bb bc 3c 65 ad 3d 62 19 c6 bc 63 14 42 39
       -0.022860646 0.084665745 -0.024182025 0.00018508876
000150 2d c5 47 bc ed b2 29 bd be 84 5c bc cf 3c c4 bc
       -0.012193006 -0.041430403 -0.013459383 -0.023954777
000160 06 45 53 3d 58 aa 46 3d 53 6a 1e 3c 0b 16 49 bd
       0.051579498 0.048502296 0.009668904 -0.049093287
000170 80 89 74 3d 73 d7 55 3d 97 ca 9a 3c 18 28 83 bb
       0.059701443 0.05220742 0.01889543 -0.0040025823
000180 f9 76 56 3d e9 a8 39 bc ad 55 34 bd f0 22 6f 3d
       0.052359555 -0.011331775 -0.04402702 0.05838293
000190 1c 36 a9 bc 52 20 12 bc 74 9a 29 bb f7 fa f4 bc
       -0.020655684 -0.008918839 -0.0025879415 -0.029904826
0001a0 f1 81 48 3b 85 3f 57 bb df cd 9a ba b5 33 7c 3d
       0.003059503 -0.0032844257 -0.0011810622 0.06157275
0001b0 98 2e ac 3d 82 f8 a6 3c 82 90 7c 3c 7e 2a 9d bd
       0.084073246 0.02038217 0.015415313 -0.0767412
0001c0 04 63 ec bc ef 6d 2d bc 5c be 2f 3c f6 5b fb 3c
       -0.028855808 -0.010585292 0.010726538 0.030683499
0001d0 7c a1 85 bc b3 cf 17 bd 64 bf 47 bd f6 c4 86 bd
       -0.016312353 -0.03706331 -0.04876651 -0.06580536
0001e0 1f 3f 9b 3d e1 f4 f4 3c 6e 80 f4 3b df cb 91 bd
       0.07580399 0.029901924 0.007461599 -0.071189635
0001f0 79 ca cd bc e4 e8 83 3d e3 43 51 bc a0 58 c6 bc
       -0.02512096 0.06440905 -0.012772533 -0.024212182

action_model._continuous_distribution.mu.weight f4 [1, 128]
000000 44 dd 61 bd 0a 56 5d bd 46 24 8d bd 11 d3 41 3d
       -0.055142656 -0.05403713 -0.06891684 0.04732043
000010 28 92 6b 3c ba 57 aa bd 0e 6c b2 3d 69 cd a6 3d
       0.014378108 -0.08317514 0.08712016 0.08144648
000020 aa f5 97 3d 02 56 ff bc bc 63 b3 3d a7 5d af ba
       0.074199036 -0.031168941 0.08759257 -0.0013379351
000030 42 06 87 3a 92 c3 fe 3d 58 1e b8 bd 72 67 39 3a
       0.0010301548 0.12439646 -0.089901626 0.00070726045
000040 86 7b d8 bd 6c 21 8c 3d d6 ba 97 3d 7b d7 ac bc
       -0.10570435 0.06842312 0.07408683 -0.021098843
000050 1c 0e b3 ba 83 8e df bc 51 df 84 3d 53 bd ab 3d
       -0.0013660821 -0.027289635 0.06487907 0.0838572
000060 a8 60 aa bd ec d6 bd 3d c6 5d da bc 8a c8 1e bd
       -0.08319217 0.09269509 -0.026656043 -0.038765468
000070 11 bb a5 3d c0 99 9d bd 63 af bc bc 65 66 f1 3c
       0.08092321 -0.07695341 -0.02303285 0.02946777
000080 3a e9 10 bd 35 91 b4 bc 5f c2 0a 3d 7e b0 81 bd
       -0.035378672 -0.022041896 0.033876773 -0.06332491
000090 0e 33 93 3d 57 91 9e bc 94 91 9f 3d f5 e7 7a 3d
       0.07187472 -0.019356413 0.07791439 0.061256368
0000a0 47 6a 10 bd 7f 3f 73 3d 09 d2 86 bd ca 61 b6 3d
       -0.035257604 0.059386726 -0.0658303 0.089053705
0000b0 40 57 3d bc e4 10 77 3d d1 82 34 3d 28 98 b5 bd
       -0.011556447 0.060318843 0.04407007 -0.08866912
0000c0 41 03 99 bd 31 26 2a 3d 15 4f 0c bd 7c 32 ab 3c
       -0.07471324 0.04154033 -0.034255106 0.020898096
0000d0 7b c4 96 3d dd f7 3a bd 99 8c b0 bd ba 43 84 3d
       0.073616944 -0.045646537 -0.08620567 0.0645823
0000e0 6c ee 07 3e 17 a3 7c bd 1f f3 73 bd e0 a9 26 bd
       0.13274544 -0.061678972 -0.05955803 -0.04068935
0000f0 91 7b 94 bc 29 63 a8 bd b3 8c 7b bb f6 6d 90 bd
       -0.018125327 -0.08222038 -0.0038383424 -0.070522234
000100 db 04 6f bd e0 a3 d2 3d 9f d5 83 bd ab 30 e5 3d
       -0.05835424 0.10285163 -0.06437229 0.11190923
000110 66 79 3b bd ff f8 b1 3d 5f af b1 ba 28 1a 26 3d
       -0.04577007 0.0869007 -0.0013556293 0.04055229
000120 ac 88 5c 3d 21 60 80 3d d5 41 6e 3c 39 e0 77 3d
       0.053841278 0.06268335 0.014542063 0.06051657
000130 3d 78 41 bd b2 f6 0e 3d a9 60 ab bb e2 73 73 3d
       -0.04723381 0.034903236 -0.0052300286 0.059436686
000140 7c 59 49 3d 86 62 91 bd 0c c0 37 3d 55 6d 85 3d
       0.049157605 -0.0709887 0.044860885 0.06514994
000150 28 1b 5b 3d d9 33 6d bd 9e 37 97 3d c4 91 cb 3d
       0.053492695 -0.057910774 0.07383655 0.09939912
000160 bb a5 40 bd 01 c0 8f bd 33 4e 67 3d 9b ca 23 3d
       -0.047033053 -0.07019044 0.05647106 0.03998814
000170 87 b9 29 bd 2b d0 9a bd f5 b6 9e 3c e9 4b e3 3d
       -0.0414367 -0.07559236 0.01937435 0.11098463
000180 0f 9d 90 bd bd a9 c7 bb f9 60 97 3d 9f e6 3f bd
       -0.070612065 -0.0060932324 0.07391543 -0.046850797
000190 0d 61 52 3d ae fa 9e 3d e1 04 08 bd 19 c3 88 3d
       0.051362086 0.07762657 -0.033207778 0.06677837
0001a0 99 56 44 bc 10 c2 86 3d 99 d0 9f bc 00 55 85 bd
       -0.011983537 0.06579983 -0.019508647 -0.06510353
0001b0 e3 74 d4 bd fd d7 89 bc ee 7a 93 3d 6c 65 7b 3d
       -0.10373857 -0.016826624 0.07201181 0.06137602
0001c0 30 42 96 bb 88 a5 a6 3d de 43 b8 3d b1 8a d2 3d
       -0.004585527 0.08137041 0.0899732 0.102803595
0001d0 5d 70 9d 3d 43 8a 85 3c f3 c5 ac bd aa e2 35 3d
       0.07687447 0.01630128 -0.08436193 0.044405617
0001e0 ee e0 b2 bd 4f 6c 26 bd fd ce 2c bd 51 b3 5c 3d
       -0.08734308 -0.040630635 -0.042189587 0.053881947
0001f0 29 ee 6c 3d 89 ed a4 bd 29 99 c6 3d 93 27 b2 3d
       0.057844315 -0.08053119 0.09697182 0.086989544
