Assets/IA/Pruebas/results/Pads01/PadBehavior/PadBehavior-3968.pt (torch, 429179 bytes, 30 tensors)

network_body._body_endoder.seq_layers.0.weight f4 [128, 2]
00000000: 3eca 38bf 05a9 6b3e 4162 eb3e d1ca a3bf
00000010: e0b3 cb3d 6756 6bbf 954b 0fbe 9b30 c1bf
00000020: ccdb 23be e5db 7e3e 0258 463c 2541 e43f
00000030: b5cc 0bbe c3a0 153f 2d3c 44bb 492f efbe
00000040: 05ef b5bf 1632 32be aafd 8bbf d7b3 08bf
00000050: c22e de3f 78dd ac3e 0c0e 8fbe ee8c 6fbf
00000060: dbf9 15bf 2279 263f 2ac0 f6be 9476 20bf
00000070: 875c 1c3e 79bf 3fbe eb6b 64be 86cc 27be
00000080: 8c20 8d3f d467 03bf c0c0 05bf 6ca3 853f
00000090: b845 243f f6cf c4be 3749 e1be 92f3 103f
000000a0: 81a7 523e 0edb 2e3e 7610 943e d747 10bf
000000b0: 502b 713f 6ef9 113f 9108 90be 764e f73e
000000c0: 5523 6ebe cfd8 bb3e 02c5 583f 52f4 0fbf
000000d0: 09ad bb3e 1c54 3bbe 05df 0abf 1615 b13e
000000e0: df46 83bf c67b 6d3f e657 963f 8ada 873d
000000f0: 8d03 8c3f 3179 72bf 425f 263f ff55 283f
00000100: 40bc a3be 6014 9a3f e795 62bf 12af 773f
00000110: 58d4 253e 2cc9 f2be 95ea ecbe ef4c fc3e
00000120: 555a c3bf 8122 1c3e 1877 c1be 789a f2be
00000130: a40c 89bf c68e c13e 55f7 d0be ff5d 4bbe
00000140: 7f2e 4cbd 92fc b9bf fa59 203f 9736 23bf
00000150: 8797 333f e44f 473d 9c2e 47bf 1102 babf
00000160: 74b6 5e3e b76b 92bf 3d58 dbbe 889b 1dbf
00000170: 7646 0e3f 4d56 b23f ef97 e33e ca89 883f
00000180: 6f77 333f bccf ef3e 4edd e1be 31fa aabf
00000190: 0dac a73d 09e9 c7bf 8549 ae3e d28d a3bf
000001a0: ea13 5bbf 3065 893e 3da8 4abf f718 d2bd
000001b0: 2ca8 363e 52e9 473f c29a 263e 83dd f9be
000001c0: 6972 bcbe b62f 3d3f 8dbd d23d 9ad6 9fbe
000001d0: d829 1fbe cd91 1dbf c0e2 adbf f87e 963e
000001e0: 4520 f6bd e39a edbd b426 423e 9916 7ebf
000001f0: d2ea 593c f15a 55bf 6ba7 6abf 0403 10bf
00000200: 3c34 f1be f7ce f03d 32de e83e 13b5 cfbe
00000210: ab42 b2bf 2d18 40bf 32a4 f7bd a29e 163f
00000220: c432 513e c180 12bf 0500 423f 6c90 133f
00000230: c079 adbf af9c 17bf 4a9f e53e 2d54 00bf
00000240: 1386 163f a7a7 983f ea2a 5fbf 0eaf 993e
00000250: 97cb 5b3e f72b 893d 588e c93e e12e df3e
00000260: b2a2 36bf e1e2 92bd cb0f 0b3f 3104 46bf
00000270: eb2d d9be 8d59 e8be 48bc e83f a5f1 b9be
00000280: ab3d f8bd f292 a33f 3ece bd3e c61a af3f
00000290: 5187 cfbe 127c adbf 68f7 05bf a92f 093f
000002a0: a15e 2abf 5ea1 793c 2b7f c13e 0494 83bf
000002b0: 4303 663c 0152 0d3e 2f54 e53e be1a f23e
000002c0: 9017 d13e 2019 27bf 6d05 903d 89e4 3b3e
000002d0: 103e dabf 27f3 e43e d476 053f e6f1 993e
000002e0: badd 9b3f 7084 ebbe 47df aebc 4203 9a3e
000002f0: f6b0 59bf 1cb3 af3d 0541 c6bf 670a c5be
00000300: 4e17 ca3f c36e e7be 832b 1bbe fa51 3a3f
00000310: 739b bc3e cb47 b93e cbee 093f 59cd 073f
00000320: 5445 95bf 94e6 70bf 4b33 c6bf 6ea0 35bd
00000330: 7147 f83e b2cb 4a3e 479a 8fbe ae8a 453e
00000340: 2f92 c93d 9375 4dbe 47b2 603f 8927 21bf
00000350: 8025 80bf ab3a 153f 4086 68bf 7b21 eabe
00000360: 548c 86bf 8547 40bd 9566 6bbf 5167 4cbf
00000370: f739 87bf 49eb 8fbd 4ee0 fb3e b05a 66bf
00000380: 4323 3cbf 5372 003c 64c4 5ebf 9807 fc3e
00000390: 74e9 90be 8b85 c3bd 7bcb bcbe 66cc 373f
000003a0: 0dcf 36bf b59d 9f3d b2dc 343f 10d4 513f
000003b0: 5ad2 a5be 3ebf 1bbf a7a3 8cbe fbec 0fbf
000003c0: 24ed 0ebf c49c 9d3f 3b01 543f 96ee debe
000003d0: 7a01 c7bf 86e2 cc3e 67fa 8abe 0fe5 abbf
000003e0: 46ed 9c3f 59d7 32bf ab38 29bf 33d3 2a3f
000003f0: 248a 01bf 41f0 e93e 084c eebe d016 5abe
-0.721836 0.23013695 0.459734 -1.279627 0.09946418 -0.91928715 -0.13993676 -1.5092958
-0.16001815 0.2488857 0.012105944 1.783238 -0.13652308 0.5844843 -0.0029943094 -0.46715763
-1.4213568 -0.17401919 -1.0936787 -0.53399414 1.7358019 0.33762717 -0.27940404 -0.93574417
-0.58584374 0.65028584 -0.48193485 -0.62680936 0.15269671 -0.18725385 -0.22306792 -0.16386613
1.1025558 -0.51330304 -0.5224724 1.0440497 0.6416888 -0.38439912 -0.4400117 0.5662166
0.2057171 0.1707575 0.2891881 -0.5635962 0.94206715 0.57021224 -0.28131536 0.48302048
-0.23255666 0.3668885 0.8467561 -0.5623218 0.36655453 -0.18293804 -0.5424655 0.345864
-1.0256003 0.9276699 1.1745574 0.0663348 1.0938584 -0.94716173 0.649891 0.6575622
-0.3197956 1.2037468 -0.8850998 0.9675151 0.16194284 -0.47419107 -0.46272722 0.49277446
-1.5261942 0.15247537 -0.37786174 -0.47383475 -1.0706983 0.3780424 -0.408137 -0.19860075
-0.04984903 -1.4530203 0.62637293 -0.6375517 0.7015309 0.048660174 -0.77805495 -1.4531881
0.21749288 -1.1439122 -0.42840758 -0.61565447 0.55576265 1.3932587 0.44451854 1.066705
0.70104116 0.46838176 -0.44114155 -1.3357602 0.08187113 -1.5617992 0.34040466 -1.2777655
-0.8557726 0.26835012 -0.7916296 -0.10258668 0.1783759 0.78090394 0.16269973 -0.48801813
-0.36806038 0.73900926 0.1029006 -0.31218415 -0.15543306 -0.615506 -1.3584824 0.29393744
-0.12017874 -0.11601808 0.18960077 -0.9925323 0.013300614 -0.8334189 -0.9166171 -0.562546
-0.47110164 0.117582254 0.45482022 -0.40567836 -1.3926595 -0.7503689 -0.12091865 0.58835804
0.20429522 -0.5722771 0.7578128 0.57642245 -1.355278 -0.59223455 0.4484809 -0.5012844
0.5879833 1.1926163 -0.87174857 0.3001637 0.21464382 0.06697839 0.39366412 0.43590453
-0.71342003 -0.0717218 0.54320973 -0.77350146 -0.42417845 -0.45380822 1.8182459 -0.36317173
-0.12121137 1.2779219 0.37071413 1.3680046 -0.40532926 -1.3553488 -0.52330637 0.5358835
-0.6655064 0.015236227 0.37792334 -1.0279546 0.014038864 0.13800813 0.4479079 0.47286028
0.4083829 -0.6527271 0.07032285 0.18348898 -1.705019 0.4471676 0.5213444 0.30067366
1.217704 -0.4599948 -0.021346701 0.3008061 -0.85035646 0.08579084 -1.5488592 -0.384845
1.5788362 -0.45201692 -0.15153317 0.72781336 0.36837348 0.36187586 0.53879994 0.5304771
-1.1661782 -0.94101834 -1.5484403 -0.04434245 0.48492005 0.19804266 -0.28047392 0.19291183
0.098423354 -0.20064382 0.8777203 -0.6295095 -1.0011444 0.58292645 -0.9082985 -0.4572867
-1.0511575 -0.046943206 -0.919534 -0.7984515 -1.0564564 -0.07027299 0.49194568 -0.8998213
-0.73491305 0.007839757 -0.8701842 0.49224544 -0.2830311 -0.09546956 -0.36873993 0.7179626
-0.71409684 0.07793752 0.70649254 0.81964207 -0.32387048 -0.6083869 -0.27468607 -0.5622098
-0.558306 1.2313466 0.8281438 -0.43541402 -1.5547326 0.40016574 -0.27144167 -1.3429278
1.225991 -0.69859844 -0.66102093 0.66728514 -0.5060141 0.45691112 -0.46542382 -0.21297765

network_body._body_endoder.seq_layers.0.bias f4 [128]
00000000: 42a6 1bbc c3d2 54bc 6828 683c 4123 783c
00000010: 3cb5 c4bc d8d6 1e3c 5028 e6bc 7b3e d13b
00000020: 8ef5 65bc f051 e83c aff7 91bb 3a9f a3bc
00000030: a96c 81bc 37d3 bcbc 8b23 d8bb 6373 9f3c
00000040: df09 9039 0350 0abc 988f c2bc 12d5 73bc
00000050: d0f7 a7bc 497c 3c3c 0273 4cbc 43af b2bc
00000060: 9aa3 9a3c 8ac7 693c 7c73 6bbc bace 5bbc
00000070: 920b d83c 3c75 4dbc d9a6 ddbc 1c20 8ebc
00000080: 74ef 12bc 2a13 d63c f0cb e23b 0415 8e3b
00000090: 8c77 a83c 80df 793c 4329 c63c ce4f 703b
000000a0: e37c 8cbc 0f13 a7bb 4953 0ebc 49e0 063c
000000b0: b128 acbb 184c 44bc a6e5 d93b 0a9b 4ebc
000000c0: 86e3 9ebc a326 ef3b db11 a6bb 7a2d d93b
000000d0: 1a12 b53c 61e7 493c ef90 8abb 34c4 a3ba
000000e0: f58e bcbc 06e1 81bc b916 d7bc 59fc c13c
000000f0: d55b afbc 7481 ca3b 9c14 583b f949 c43c
00000100: 98d5 843b f5d2 b1bc 78d1 a8bc 8c91 8ebc
00000110: f2fa e93b 3169 d4bc 6945 cd3c 01ef 47bc
00000120: 5674 cebc 8db9 4dbb ee99 11bc b35b 8cbc
00000130: e585 69bc 0ebf fb3b f6e7 a5bc 4779 4bbc
00000140: 8f19 c4bc f71e cbbb 0b6d c5bc 75a6 bebc
00000150: 77be 17bb 568f 22bd 17ce 503c caff 9bbc
00000160: 74eb 053b 8bea 0e3b ed96 be3c eba7 adbb
00000170: 7c94 52bc 27e6 75bb 0c83 c83c d425 a03c
00000180: 4cfe a13a d1b9 cdbc d679 ecbb 7091 a4bb
00000190: 8d97 d23c 68b9 c03c fedc e8bc 1bc7 273c
000001a0: 76aa 75ba e493 2e3c 376b bc3c 1cc9 833c
000001b0: f016 be3c 27e3 71bc d367 c63c 7eca 07bc
000001c0: 881f 9cba cc4a dc3b 42d0 a5bc b22a a7bc
000001d0: 09da cd39 0aba 65bc 0068 c6bc 9a7a b1bc
000001e0: 714f 13bc 7447 0ebd f512 c73c ffa1 8b3c
000001f0: 0a46 87bc 16ec 6fbc 7fc2 e53b d945 433b
-0.009500088 -0.012989703 0.01416979 0.015145124 -0.0240122 0.009694777 -0.028095394 0.006385622
-0.014035596 0.028359383 -0.004454575 -0.019973386 -0.015798884 -0.023049934 -0.006596034 0.0194642
0.00027473175 -0.008441928 -0.023750111 -0.014882343 -0.020503908 0.011504241 -0.012478592 -0.021812087
0.01887684 0.014268765 -0.014370795 -0.013415987 0.026372705 -0.012540158 -0.027057098 -0.017349295
-0.008968223 0.026132185 0.006921284 0.0043360014 0.020564817 0.01525104 0.024189597 0.003666866
-0.017149394 -0.0050987075 -0.008686849 0.008232185 -0.005253874 -0.011981033 0.0066496907 -0.012610206
-0.019395601 0.007298307 -0.0050680465 0.0066277357 0.022103358 0.012323231 -0.004228703 -0.0012494386
-0.023017386 -0.01585437 -0.026255952 0.023679899 -0.021406094 0.006179983 0.0032971269 0.023961054
0.0040537827 -0.021707037 -0.020607695 -0.017403387 0.0071405107 -0.025929065 0.025057511 -0.012202979
-0.025201958 -0.0031391114 -0.008886797 -0.01713357 -0.014253114 0.0076826876 -0.02025221 -0.0124190515
-0.023937969 -0.0061987597 -0.024099847 -0.023272732 -0.0023154297 -0.039687477 0.012744448 -0.019042868
0.002043453 0.002180728 0.023265326 -0.0052995584 -0.012852784 -0.0037521215 0.02447655 0.019549288
0.0012359112 -0.025113018 -0.0072166724 -0.0050222203 0.02570703 0.023525909 -0.02842569 0.010240342
-0.0009371409 0.010655377 0.023000343 0.016087107 0.023204297 -0.01476363 0.02421943 -0.008288024
-0.0011911253 0.0067227837 -0.020240907 -0.0204061 0.00039263096 -0.014021406 -0.024219513 -0.021664906
-0.008991108 -0.03473611 0.024301032 0.01704502 -0.01651289 -0.01464369 0.007011711 0.002979627

network_body._body_endoder.seq_layers.2.weight f4 [128, 128]
00000000: 0309 40bd 5adc 98bd 6733 b53d 9b9a 13bc
00000010: bf4a 27bd 4002 333d 7ff8 5a3d 4176 4c3d
00000020: 0330 bdbd 575f 86bd 83ea a6bc 4462 ab3d
00000030: 78b8 10be 38c5 c73c 6f17 e7bd 8988 7b3d
00000040: 7eb6 a3bd d99e af3d 34c0 93bc 3bcc afbd
00000050: 6db0 f7b9 4c6a 2cbd e191 02be f945 b23d
00000060: e26d c8bc bb81 eabd 4c4d 15bd f506 5dbd
00000070: e532 683c 6715 a93d b9e6 9b3d 21b3 c1bd
00000080: 1477 393d 2579 293d 2d7d fabc f05e ae3d
00000090: 0305 63bb 5b81 a63d e3eb 91bb 4f8d 183e
000000a0: e02e f0bc 95a0 923d a02f 2abe cac4 a73b
000000b0: d91e 33bd c94a 8e3c 054d 913d 0c40 39be
000000c0: 52cb 7d3b e7fc 193c 8237 713a f424 9fbc
000000d0: 06a8 a0bd 5d0b 0c3d be07 1abe 70e9 453e
000000e0: c024 64be 1910 8b3d 11d8 223d 45cb f9bc
000000f0: a901 bd3d 5d11 5ebd fec3 cebd dc7a 8c3d
00000100: 3016 bfbd febd 473e 3b48 213e 8ad8 9f3d
00000110: 1d6f b0bd 9561 fdbc cf75 b3bd 9181 fabd
00000120: c132 1c3e 669e 05be 8f4c b83d 7d3f 993d
00000130: 68d1 90bc 9834 bdbd f648 f0ba 4dbe 0cbd
00000140: 4126 d5bd 4ca4 eabc 05fd 8d3c 66a1 dfbd
00000150: 5b6d 893c af01 e0bd 60c2 c5bd 4374 183e
00000160: 1c4a 9a3d 2689 1c3c 0dde c4bd 1b90 a3bd
00000170: 5688 3bbc 03d8 a53d 5197 663c 89ed 14bd
00000180: 99ec 5a3e 4648 1cbd 626b a3bd aef7 7fbd
00000190: d424 3e3d b203 9a3d 2edc 913c c601 923c
000001a0: a1ad 113d c8ee 95bc 6c9d 39bd bfa9 ad3d
000001b0: d34e 58bd 2042 c5bd ce62 2c3c 66bc 7c3d
000001c0: 1242 cbbd 5e34 e1bd 095a 13be c27e 7f3e
000001d0: 000e dc3b 5e6e a93d 3233 4a3d 5d23 d6bc
000001e0: c98b d2bd 399f c83d 8714 dfbc d291 0f3e
000001f0: cea0 d0bc 357a 3d3e 1095 55bd 8d72 77bd
00000200: 248b 4abd 6046 34bd fd31 bfbc f2d1 603d
00000210: 2501 93bd 1323 c6bd 58f1 d1bd d7bd 43bd
00000220: 3b60 9c3d 54f3 c43c 60d8 02be 0e3d e4bc
00000230: a770 153d ce45 a9bc e0d5 4e3e 3301 2b3e
00000240: af57 163d 3831 0dbd a2d3 31bc d2f0 d63d
00000250: 6180 6c3d 66dd a13d b2de e7bb 4078 f03c
00000260: 6242 c33d dca0 a2bd 3c7a 81bc cde8 f73d
00000270: fb62 3f3d 63b5 c1bd 433e 993d c911 50bc
00000280: 89ef 053d 4467 0f3c 7a61 dfbc 120d ab3c
00000290: e683 a13d 5435 9d3d 09cb 753d 0820 8c3d
000002a0: 5810 633c a520 e23b b667 3cbd 60ec 61bd
000002b0: 943e 01be 8378 3d3e 82b0 693d bdb9 d83b
000002c0: 9abc 203d 2c14 8bbd 1357 2ebe 035e b7bd
000002d0: a2a5 dd3d 9b25 573e 7044 29bd 6e7f 803e
000002e0: 9f5f 2cbd de8d 39be 667f 933e 530d 713d
000002f0: dae1 c3bd cc17 c53c b9f8 21be 022a b1bc
00000300: 4f50 9dbd 6e6e 46bc 2d40 473d 8f78 bebd
00000310: 6d0e a8bd e72e a3bd 19d5 e9bc 22cc 8dbd
00000320: ec68 aebc a26d f3bc 51ba 8abd ea30 133e
00000330: 664a 09be 1c3e 683c 5086 ea3d 8292 f83c
00000340: a5d9 083e fa90 42bd cc51 b0bd f81a c3bc
00000350: 11c8 0f3d 37cc 1fbe b527 1d3d 7981 42bd
00000360: 304a 54bd e4b5 c9bc 0e12 1d3d 8a57 bebc
00000370: 10b4 b53d e5ed a93d 59e4 fa3d 1fc8 773e
00000380: 79d2 f3bd 64da 09bd 5e3a 54bd e55f d03d
00000390: 252c 863b 9a4d fe3d e9e4 80bd e195 b7bd
000003a0: 2dbb e33c 864c c3bc 64e5 a23d 16f8 0b3e
000003b0: bbdf d23d b07e 89be a422 81bd 62cc cdbd
000003c0: ced6 c7bd 7211 a43d 2d3d abbd 8bff 6f3b
000003d0: 47e7 9b3d b517 febd beca 9d3d 1a40 cebc
000003e0: 6434 12be d2e2 ef3d b95f 9f3d a79b 99bd
000003f0: a00b 3ebd 3360 44be 869c b2bd 3cbf 81bc
-0.046883594 -0.07463904 0.08847695 -0.009009029 -0.040842768 0.043703318 0.05345964 0.049917463
-0.09237673 -0.065611534 -0.020375496 0.08368352 -0.14132869 0.024386033 -0.112837665 0.061409507
-0.07993792 0.0857522 -0.018035986 -0.08583876 -0.0004724296 -0.04209356 -0.12750961 0.087047525
-0.024466459 -0.114505254 -0.03645067 -0.053961713 0.01417229 0.08256035 0.07612366 -0.09457994
0.045279577 0.041375298 -0.030577267 0.08514202 -0.0034640438 0.08130141 -0.0044531687 0.14897655
-0.029319227 0.07159535 -0.1661973 0.0051198946 -0.04373059 0.017369645 0.070947684 -0.18090838
0.0038725925 0.0093986755 0.0009201692 -0.0194268 -0.07844548 0.034190524 -0.15042016 0.1932733
-0.22279644 0.0679018 0.03975684 -0.030492434 0.09228832 -0.054215778 -0.10095976 0.06859371
-0.09330404 0.1950607 0.1575021 0.078049734 -0.08614943 -0.03093032 -0.087627046 -0.12231744
0.15253736 -0.13048705 0.089989774 0.074828126 -0.017677978 -0.09238547 -0.0018332291 -0.034361172
-0.10407687 -0.028642796 0.017332563 -0.10919456 0.016775778 -0.10937821 -0.09656215 0.148881
0.075336665 0.009554183 -0.09612665 -0.0798647 -0.011446079 0.080978416 0.014074163 -0.036359344
0.21379317 -0.038154863 -0.07979466 -0.062492065 0.04642184 0.07520236 0.017805185 0.017823111
0.035565976 -0.018302336 -0.045316145 0.08479642 -0.052809548 -0.09631753 0.010521604 0.06170311
-0.09924711 -0.109963164 -0.14389814 0.24950698 0.006715536 0.08273004 0.04936523 -0.02613991
-0.10280568 0.09795994 -0.027231468 0.1402047 -0.025467303 0.1850365 -0.05214411 -0.06041198
-0.0494491 -0.044012427 -0.023339266 0.05488772 -0.07177953 -0.096746586 -0.10251111 -0.047788467
0.07635542 0.02404181 -0.12777853 -0.027861144 0.036484387 -0.020663168 0.20198774 0.16699676
0.036704715 -0.034470767 -0.01085368 0.104951516 0.05773962 0.079035565 -0.007076108 0.029354215
0.09534146 -0.07940838 -0.015805356 0.1210495 0.046725255 -0.09458425 0.074825786 -0.012699553
0.03269914 0.008752648 -0.02726816 0.020880256 0.07886486 0.07676187 0.060008083 0.06842047
0.013858877 0.006900864 -0.045997344 -0.055157065 -0.12621528 0.18503003 0.057053097 0.0066139386
0.039242364 -0.06790957 -0.17025404 -0.08953478 0.108226076 0.21010439 -0.041325033 0.2509722
-0.04208338 -0.18120524 0.28808135 0.058850598 -0.09564562 0.024059199 -0.15817536 -0.021626476
-0.07681333 -0.012111289 0.048645187 -0.093003385 -0.082058765 -0.0796793 -0.028543996 -0.06923701
-0.021290265 -0.029715363 -0.06773818 0.14374128 -0.13407287 0.014174964 0.11451399 0.030343298
0.13364275 -0.04750154 -0.086093515 -0.02381657 0.035102908 -0.15605246 0.038367946 -0.047486756
-0.051828563 -0.024622865 0.038347296 -0.023235101 0.08872235 0.08297328 0.12250585 0.24197434
-0.11905379 -0.03365554 -0.051813476 0.101745404 0.004094618 0.12417145 -0.06293661 -0.08964134
0.027799213 -0.0238402 0.07953909 0.13668856 0.102965795 -0.26854467 -0.06305435 -0.100487486
-0.097577676 0.0801114 -0.08361278 0.0036620821 0.07612472 -0.124068655 0.07704686 -0.02517705
-0.14277798 0.117131844 0.077819295 -0.075003915 -0.046397805 -0.19177322 -0.08721261 -0.015838258

network_body._body_endoder.seq_layers.2.bias f4 [128]
00000000: a7a9 5b3b ea6e 92bc 1b34 723b 230f 93bb
00000010: 9fbc 2bbb 6d00 41bb 1c4c 3fbc 1268 3bbc
00000020: e149 97bc c3e1 fbba a047 253c 675b 9cbc
00000030: 7952 a0bc 3d5a ba3b 5b61 23bc bf54 43bc
00000040: a121 07bc 6289 b23b 1723 8dbc 9c05 a3bc
00000050: 0f0a 823c 3c1e b33c a34a 763c a398 87bc
00000060: d29b 8dbc 5e87 4f3c 6eab 4abc 46bd 8abc
00000070: c142 8d3c 3618 6abc fb4c 2cbc 8515 b83c
00000080: 9ac3 64bc 3490 21b9 5983 58bc 76fa 2f3c
00000090: 77f2 4dbc e12f c03b b8ac eebb d013 b63c
000000a0: 6f83 39bc 3373 85bc 9c23 b33b c3b5 99bc
000000b0: f137 abbb 74c6 33bc e1ff a93b 1d7d abbc
000000c0: 6c28 0e3a 7823 5bbb 34d8 22bc 3ae8 a1bc
000000d0: 0650 82bc adc5 46bb abb4 f1bb dd3a 9fbc
000000e0: 3c96 84bc a662 f5b8 8172 a9bc 2275 eb3b
000000f0: 8b87 93bc 7a89 313b e23b 22bc 4294 b23c
00000100: d257 bb3c 0b74 933b 7a3b 133c 3fe8 80bc
00000110: 5c1b 94bc ca51 5fbc c0cf 61bb 793a 80bc
00000120: 29a7 dfbb a44d a6bc 2964 413c 443c 39bc
00000130: a449 803b f1c3 fb3b a7f7 79bc 8976 68bc
00000140: 84be 90bc 0de4 093c 3e17 03bc 097d 933b
00000150: f6b6 a0bc 9e84 4b3b d6ea a5bc c21b 413b
00000160: a422 92bc 1733 903c 0da2 a43c 0fb0 a13c
00000170: 9944 0e3c 6c0c 57bc bd0c 81bc 7551 4bbb
00000180: 48e0 9bbc c344 2abc 95cf 3d3b d054 a83c
00000190: d5a8 e03a 132c 18bc 8cd4 9ebb 93d2 00bd
000001a0: 2ddd a93c d575 3ebb a59d 8bbc d2c3 75bc
000001b0: a009 1dbc 9fce 5abc 2fb0 4cbc 7503 93bc
000001c0: 0738 90bc f6b2 3f3c ae0f ca3b eec1 e63b
000001d0: e911 2cbc aeb7 50bc 8799 84bc 9fbf b0bc
000001e0: 17cb 623b 482f 833b 9488 16bc dff8 2a3b
000001f0: 2c69 9dbc 6855 13bc d8e8 98bc e240 de3b
0.0033517869 -0.017875154 0.0036957327 -0.0044878884 -0.0026204956 -0.0029449717 -0.011675861 -0.0114383865
-0.018467845 -0.0019217063 0.0100878775 -0.019086553 -0.019570576 0.005687027 -0.009971942 -0.0119220605
-0.008247764 0.005448506 -0.017228646 -0.019900136 0.015873937 0.021865003 0.015032443 -0.016552275
-0.017286215 0.012666551 -0.012369974 -0.016935956 0.017243745 -0.014287999 -0.0105164 0.022471199
-0.013962651 -0.00015407876 -0.0132149095 0.010740867 -0.012570015 0.0058650826 -0.0072837733 0.022226244
-0.01132284 -0.016290283 0.0054668915 -0.018763429 -0.0052251746 -0.010972608 0.005187974 -0.020933682
0.00054228934 -0.003343789 -0.009939242 -0.019764055 -0.015907299 -0.0030330226 -0.0073762736 -0.019437248
-0.016184919 -0.00011700885 -0.020684483 0.007185594 -0.018008968 0.002709 -0.0099019725 0.02179921
0.022869024 0.0044999174 0.008986348 -0.015735744 -0.018079452 -0.01363034 -0.0034456104 -0.015652882
-0.006825347 -0.020300694 0.011803665 -0.011305872 0.0039150286 0.00768327 -0.015256799 -0.014188417
-0.01766897 0.008416188 -0.008001147 0.0045009893 -0.019618493 0.0031054388 -0.02025358 0.0029466008
-0.017838784 0.017602487 0.020096803 0.019737272 0.008683347 -0.01312552 -0.015753144 -0.0031023894
-0.019027844 -0.010392371 0.002896284 0.020548254 0.001714016 -0.009287852 -0.004847115 -0.03145082
0.020735348 -0.0029061933 -0.017042944 -0.0150003005 -0.009584814 -0.013354926 -0.012493177 -0.017945984
-0.01760484 0.011700382 0.00616642 0.007042161 -0.010502317 -0.012739105 -0.016186489 -0.021575747
0.0034605914 0.004003439 -0.009187836 0.002608828 -0.019215189 -0.00899253 -0.018665716 0.006782637

action_model._continuous_distribution.mu.weight f4 [1, 128]
00000000: 90a2 bebc 3b1f 233d decf 01bc 3f2d 393b
00000010: f8d7 83b7 f2d8 54b9 a973 a63a cd32 c33c
00000020: b6b3 4f3d 3353 01bb 309f 4e3b b858 d73c
00000030: 791a b03b 271d 8e3d 24f9 543c 1ff9 793b
00000040: f205 483d b04d acbb b299 0d3d d5cc 5e3d
00000050: bf3a f5bb 2634 67bc 357d 93ba f128 c03b
00000060: e53c da3c 0410 c9bb e5b6 243c 08c0 773b
00000070: d46b b5bb b9be 2b3d 6fe1 dd3c 6606 39bc
00000080: 8a1c 3b3d 3def 03bb 6b2b 5a3c cf6a 8cbc
00000090: 5bde ab3c a5a9 3dbc 2832 b13c c8c9 abbc
000000a0: acf6 f23b a45c 473b 09dd 79bc 0cc6 dc3c
000000b0: 9dc3 413d c15b 113c 032c 15bc bcc6 c33c
000000c0: 1cbd 8fb9 4669 19b9 34cd e63b 23ee 263d
000000d0: 9dac 16b9 800f 243a d7e8 653b 02e6 293d
000000e0: 5288 3e3d 2060 f5ba 3d2f e83c 1213 c6bc
000000f0: 66ed 9c3b 470c 7bbb 5942 cc3c 4652 cabc
00000100: a1fc d6bc ad6a d5ba 3263 96bc cac0 9c39
00000110: c77e 233d 2121 d43c 08eb b53c a05b 0c3d
00000120: be23 acb9 c430 103d 75ba 2b3b 7004 103c
00000130: b699 9f3c b9f5 65bc f5db e83c c915 053c
00000140: c059 bd3c 4c1a c7bc b8e7 bd3c 7443 06bc
00000150: 4236 653c 8aaa 68bb 8505 8bb9 9a42 7bbb
00000160: 8198 363b 5983 e9bb e98d 94bc 44d8 3dbd
00000170: 1123 55bc 373f e83b ab44 2f3d 4b66 393c
00000180: b810 033d d2d1 3f3c 5933 133c 1156 40bd
00000190: ac35 42bb 964d 583c bde5 bb3c 8a51 1f3a
000001a0: c5a4 ffbc 2373 6b3c 146f d33c fde6 683b
000001b0: d1b2 573c 6129 1b3d f576 ed3c 23d9 013d
000001c0: ffcc 1e3d e15c b1bc 7031 3cbc c358 88bc
000001d0: 8831 1b3c fb54 773c 6202 673d f63c a239
000001e0: 77ba 03bc 40c2 4cbb 1966 843c 1072 92bb
000001f0: 5cb6 233d 53cd 4a3c 9005 f53c 3fd8 f1bb
-0.023270875 0.039824706 -0.007923095 0.0028255729 -1.5716985e-05 -0.00020298714 0.0012699264 0.023827935
0.050708495 -0.0019733428 0.0031527989 0.026287422 0.0053742495 0.06939154 0.012998853 0.0038142873
0.048833795 -0.0052582845 0.034570403 0.05439456 -0.0074838097 -0.014111554 -0.0011252525 0.0058642556
0.026640365 -0.0061359424 0.010053371 0.0037803669 -0.0055365358 0.041929934 0.027085034 -0.011293029
0.045681514 -0.002013161 0.013316016 -0.017140774 0.02098005 -0.011576091 0.021630362 -0.02097024
0.0074146595 0.0030420208 -0.015250453 0.026949905 0.047305692 0.0088719735 -0.0091047315 0.023898475
-0.00027415983 -0.00014630434 0.007043505 0.04075445 -0.00014369418 0.0006258413 0.003508141 0.04147912
0.046516724 -0.0018720664 0.028342837 -0.024179015 0.0047890423 -0.0038306878 0.02493398 -0.024697434
-0.02624351 -0.0016282402 -0.018357847 0.00029898278 0.039915826 0.025894703 0.022206798 0.034267068
-0.00032833026 0.035202757 0.0026203666 0.0087901205 0.019482475 -0.014035636 0.028425196 0.00812287
0.023114085 -0.024304532 0.023181781 -0.008194793 0.013989987 -0.003550204 -0.00026516258 -0.0038339258
0.0027861896 -0.0071262536 -0.018134074 -0.046348825 -0.013008849 0.007087614 0.042790096 0.011315892
0.031998366 0.01170774 0.00898441 -0.04695708 -0.0029634042 0.013202092 0.022936696 0.0006077519
-0.031206498 0.014370712 0.025809802 0.003553807 0.013165192 0.03788126 0.028987387 0.03170122
0.03876972 -0.021650733 -0.011486396 -0.016643887 0.009472258 0.0150959445 0.056398757 0.00030944467
-0.008040062 -0.0031243712 0.016161965 -0.0044691637 0.039968833 0.012378055 0.029909879 -0.007380515

exp_avg f4 [128, 2]
00000000: a553 5eb5 0000 0000 d21f 10ba 0000 0000
00000010: 964d f9b9 0000 0000 496e e837 0000 0000
00000020: 6c11 0939 0000 0000 e78f d639 0000 0000
00000030: 257f 4a38 0000 0000 ce39 2839 0000 0000
00000040: 1733 8f37 0000 0000 21ca c937 0000 0000
00000050: 7b42 7fba 0000 0000 1ce6 7138 0000 0000
00000060: 22c9 d8b7 0000 0000 9492 15b8 0000 0000
00000070: 326a 0ebb 0000 0000 1788 35b8 0000 0000
00000080: 1d48 ce3a 0000 0000 cc85 9db7 0000 0000
00000090: 6fa5 18ba 0000 0000 7dc3 d5b7 0000 0000
000000a0: 6bb5 0c3a 0000 0000 1533 113b 0000 0000
000000b0: bc9e 46bb 0000 0000 fab6 5fb7 0000 0000
000000c0: 524f 17b9 0000 0000 f521 3b3b 0000 0000
000000d0: c160 dcba 0000 0000 b4a3 8bb7 0000 0000
000000e0: 425a 0538 0000 0000 a597 ebba 0000 0000
000000f0: cedb 70ba 0000 0000 24bf c0b8 0000 0000
00000100: 9f65 3ab7 0000 0000 0391 c337 0000 0000
00000110: b399 b23a 0000 0000 24ed 8cb7 0000 0000
00000120: 34ec 0b38 0000 0000 9cdf 5737 0000 0000
00000130: 5c0b 3438 0000 0000 3cf9 e0b7 0000 0000
00000140: 31e4 e9b9 0000 0000 3eee 373a 0000 0000
00000150: a5b7 99ba 0000 0000 5254 7336 0000 0000
00000160: 4408 0ebb 0000 0000 9afc fcb7 0000 0000
00000170: 4a07 f93a 0000 0000 b869 8cba 0000 0000
00000180: 4824 abb9 0000 0000 2694 98b7 0000 0000
00000190: 9c54 b9ba 0000 0000 1f16 7a3a 0000 0000
000001a0: 1fcc 7b37 0000 0000 d002 9736 0000 0000
000001b0: 1047 03bb 0000 0000 6111 de3a 0000 0000
000001c0: 97ab 86b8 0000 0000 d9d1 8639 0000 0000
000001d0: e7bc 37b6 0000 0000 1daa d437 0000 0000
000001e0: 1c35 f938 0000 0000 2b05 ce3a 0000 0000
000001f0: a9e4 883a 0000 0000 2845 d037 0000 0000
00000200: 327a aeb7 0000 0000 2ec5 2f3a 0000 0000
00000210: 386b 3db7 0000 0000 22d0 67b8 0000 0000
00000220: 97a4 18ba 0000 0000 1593 0b3a 0000 0000
00000230: f5bc 2538 0000 0000 65fc 31bb 0000 0000
00000240: c815 1eba 0000 0000 0858 2e37 0000 0000
00000250: e09e d6ba 0000 0000 a5ea 1fba 0000 0000
00000260: 7c14 f5b5 0000 0000 1066 933b 0000 0000
00000270: 2070 51b8 0000 0000 2011 dbba 0000 0000
00000280: b004 b138 0000 0000 e9c2 93ba 0000 0000
00000290: d39f 63b8 0000 0000 bca7 2ab8 0000 0000
000002a0: 0490 17b7 0000 0000 1ec3 7c39 0000 0000
000002b0: 3584 143a 0000 0000 e4a3 9eb9 0000 0000
000002c0: 05ac 1c3b 0000 0000 6564 003b 0000 0000
000002d0: d880 5538 0000 0000 bb58 53bb 0000 0000
000002e0: d432 54bb 0000 0000 033e 1e3a 0000 0000
000002f0: 663b cd37 0000 0000 36be 1538 0000 0000
00000300: 0a34 ae3a 0000 0000 6316 4137 0000 0000
00000310: 7418 faba 0000 0000 7fa1 a33a 0000 0000
00000320: dae9 2438 0000 0000 cd66 d837 0000 0000
00000330: fde4 0eb8 0000 0000 1030 46b8 0000 0000
00000340: 561e 84ba 0000 0000 0da6 e23a 0000 0000
00000350: 6146 3138 0000 0000 4100 8337 0000 0000
00000360: 0e23 dc37 0000 0000 80df 4337 0000 0000
00000370: 5f0b 3e38 0000 0000 570f d9ba 0000 0000
00000380: 3af5 4db4 0000 0000 3492 6237 0000 0000
00000390: b334 fdb6 0000 0000 f105 3ab8 0000 0000
000003a0: 16e2 58b5 0000 0000 bddf 90bb 0000 0000
000003b0: 3d55 e4b8 0000 0000 7e06 b837 0000 0000
000003c0: 785c 94b7 0000 0000 7ed2 b4b9 0000 0000
000003d0: 59d6 3838 0000 0000 724f ac37 0000 0000
000003e0: 6af2 e4ba 0000 0000 279c 12b7 0000 0000
000003f0: 4a41 91b6 0000 0000 84ae 13b8 0000 0000
-8.2823163e-07 0.0 -0.00054979057 0.0 -0.00047550787 0.0 2.770791e-05 0.0
0.00013071828 0.0 0.00040924476 0.0 4.8278966e-05 0.0 0.00016043262 0.0
1.7070719e-05 0.0 2.405519e-05 0.0 -0.00097373844 0.0 5.7673184e-05 0.0
-2.5842866e-05 0.0 -3.566088e-05 0.0 -0.0021730778 0.0 -4.3280506e-05 0.0
0.0015738044 0.0 -1.8778162e-05 0.0 -0.00058229914 0.0 -2.548261e-05 0.0
0.00053676096 0.0 0.0022155691 0.0 -0.0030307015 0.0 -1.3334438e-05 0.0
-0.00014430031 0.0 0.0028554176 0.0 -0.0016813503 0.0 -1.6646321e-05 0.0
3.179373e-05 0.0 -0.0017974271 0.0 -0.0009188027 0.0 -9.190876e-05 0.0
-1.1110124e-05 0.0 2.3313338e-05 0.0 0.0013626128 0.0 -1.6799728e-05 0.0
3.3360164e-05 0.0 1.2867062e-05 0.0 4.2925923e-05 0.0 -2.681894e-05 0.0
-0.0004461124 0.0 0.0007016397 0.0 -0.0011727704 0.0 3.6258903e-06 0.0
-0.0021672407 0.0 -3.0158368e-05 0.0 0.0018999365 0.0 -0.0010712659 0.0
-0.00032642693 0.0 -1.8188799e-05 0.0 -0.0014139595 0.0 0.00095400395 0.0
1.50082915e-05 0.0 4.500478e-06 0.0 -0.002003137 0.0 0.0016942435 0.0
-6.421579e-05 0.0 0.0002571482 0.0 -2.737908e-06 0.0 2.5351585e-05 0.0
0.000118831376 0.0 0.0015718093 0.0 0.0010444123 0.0 2.4827736e-05 0.0
-2.0799318e-05 0.0 0.0006705102 0.0 -1.1290242e-05 0.0 -5.526853e-05 0.0
-0.00058228656 0.0 0.0005324346 0.0 3.9515046e-05 0.0 -0.0027158496 0.0
-0.00060304673 0.0 1.0391705e-05 0.0 -0.0016374253 0.0 -0.00061003334 0.0
-1.8259884e-06 0.0 0.004498251 0.0 -4.9933908e-05 0.0 -0.0016713478 0.0
8.440891e-05 0.0 -0.0011273298 0.0 -5.4269865e-05 0.0 -4.0687373e-05 0.0
-9.033833e-06 0.0 0.0002410528 0.0 0.00056654523 0.0 -0.00030258216 0.0
0.0023906243 0.0 0.001959109 0.0 5.0903152e-05 0.0 -0.0032248932 0.0
-0.0032378929 0.0 0.0006036462 0.0 2.4465564e-05 0.0 3.5701516e-05 0.0
0.0013290655 0.0 1.1508909e-05 0.0 -0.0019080774 0.0 0.0012484043 0.0
3.931844e-05 0.0 2.5797077e-05 0.0 -3.40687e-05 0.0 -4.725164e-05 0.0
-0.0010079842 0.0 0.0017291919 0.0 4.2265634e-05 0.0 1.5616535e-05 0.0
2.6242367e-05 0.0 1.1674943e-05 0.0 4.531012e-05 0.0 -0.0016560358 0.0
-1.9181326e-07 0.0 1.350469e-05 0.0 -7.5461226e-06 0.0 -4.435139e-05 0.0
-8.079527e-07 0.0 -0.004421203 0.0 -0.00010887764 0.0 2.1937532e-05 0.0
-1.7686034e-05 0.0 -0.00034489104 0.0 4.4068645e-05 0.0 2.0540992e-05 0.0
-0.0017467265 0.0 -8.738635e-06 0.0 -4.3289374e-06 0.0 -3.521006e-05 0.0

exp_avg_sq f4 [128, 2]
00000000: 3692 1331 0000 0000 c803 9239 0000 0000
00000010: e23e ee38 0000 0000 1661 2334 0000 0000
00000020: d690 a037 0000 0000 e139 6d38 0000 0000
00000030: a8f4 1a37 0000 0000 75b9 3d37 0000 0000
00000040: 3dd9 5432 0000 0000 1b4c fd32 0000 0000
00000050: 34a2 6f3a 0000 0000 d0bb 1437 0000 0000
00000060: 9c6b a333 0000 0000 4800 f533 0000 0000
00000070: db8e d13a 0000 0000 e3ca f836 0000 0000
00000080: 4ce8 013a 0000 0000 abbd bc32 0000 0000
00000090: 7cd2 6639 0000 0000 386f 2234 0000 0000
000000a0: ac5b 2739 0000 0000 c2c1 803a 0000 0000
000000b0: ea8e 743b 0000 0000 ac19 1037 0000 0000
000000c0: 25bd b737 0000 0000 e4e7 e33a 0000 0000
000000d0: a0b7 a23a 0000 0000 aa8e 8033 0000 0000
000000e0: a626 3e33 0000 0000 91c0 363b 0000 0000
000000f0: c8fe 633a 0000 0000 7eb2 1a39 0000 0000
00000100: 68a8 6b34 0000 0000 4127 4d33 0000 0000
00000110: 91f9 1a3a 0000 0000 664d 1434 0000 0000
00000120: d440 2b33 0000 0000 6d97 8b34 0000 0000
00000130: 8aa0 1534 0000 0000 62e7 2e34 0000 0000
00000140: 20c8 3f38 0000 0000 199d 0c39 0000 0000
00000150: 0efa a43a 0000 0000 929c ac30 0000 0000
00000160: 08c1 dd3a 0000 0000 365f 6a33 0000 0000
00000170: 234d 223a 0000 0000 3f8f 713a 0000 0000
00000180: a9b5 0238 0000 0000 2ee7 8033 0000 0000
00000190: 5707 803a 0000 0000 f8d6 8a39 0000 0000
000001a0: 344d 2432 0000 0000 9d66 9930 0000 0000
000001b0: 8674 153b 0000 0000 19cd c53a 0000 0000
000001c0: 07aa 3035 0000 0000 d234 4438 0000 0000
000001d0: 1840 2236 0000 0000 bc6a 0133 0000 0000
000001e0: 34d4 6a37 0000 0000 8713 993a 0000 0000
000001f0: 8ca5 cd39 0000 0000 ff4e 0633 0000 0000
00000200: 1838 b133 0000 0000 abbc 3139 0000 0000
00000210: 9c5f 3d34 0000 0000 ee68 1335 0000 0000
00000220: 4d6c 8639 0000 0000 55a1 8837 0000 0000
00000230: 8950 ad33 0000 0000 c837 5e3b 0000 0000
00000240: 4f20 d639 0000 0000 705b 9431 0000 0000
00000250: 82cc ae3a 0000 0000 f0b1 2739 0000 0000
00000260: 5bc0 8731 0000 0000 0e05 c23b 0000 0000
00000270: cfb7 cd34 0000 0000 abf2 073b 0000 0000
00000280: c518 6837 0000 0000 f303 463a 0000 0000
00000290: 91ca 9234 0000 0000 5d4c 0434 0000 0000
000002a0: 11f8 0332 0000 0000 d55e 0937 0000 0000
000002b0: 52de d338 0000 0000 eecf 2738 0000 0000
000002c0: 9989 d33a 0000 0000 756d ae3a 0000 0000
000002d0: 6b29 5b34 0000 0000 c25a 993b 0000 0000
000002e0: e85a 853b 0000 0000 658d 4239 0000 0000
000002f0: 380e 5633 0000 0000 a12e 4833 0000 0000
00000300: 73c6 173a 0000 0000 933e 1d36 0000 0000
00000310: bcad 173b 0000 0000 13e0 243a 0000 0000
00000320: a166 9c33 0000 0000 5fcf 1033 0000 0000
00000330: ffa6 0638 0000 0000 e1b9 3a35 0000 0000
00000340: 71b0 e339 0000 0000 26cc 123a 0000 0000
00000350: 26be c433 0000 0000 44a6 3732 0000 0000
00000360: b6d6 4233 0000 0000 78d0 1b32 0000 0000
00000370: d6a9 6734 0000 0000 4d98 b83a 0000 0000
00000380: f7cf 1a32 0000 0000 07d8 0232 0000 0000
00000390: 2abc 7735 0000 0000 bac7 0936 0000 0000
000003a0: 4059 be32 0000 0000 f4a7 c93b 0000 0000
000003b0: c3e2 8635 0000 0000 15e2 9137 0000 0000
000003c0: d49e 8532 0000 0000 0cdc 0638 0000 0000
000003d0: 46e8 e033 0000 0000 b483 1435 0000 0000
000003e0: e4e8 b63a 0000 0000 a384 2d32 0000 0000
000003f0: 9945 a432 0000 0000 4810 5934 0000 0000
2.1474427e-09 0.0 0.00027850107 0.0 0.00011360437 0.0 1.5215878e-07 0.0
1.914093e-05 0.0 5.6559107e-05 0.0 9.236079e-06 0.0 1.1308458e-05 0.0
1.2389418e-08 0.0 2.9487685e-08 0.0 0.00091412966 0.0 8.865216e-06 0.0
7.609853e-08 0.0 1.1408753e-07 0.0 0.0015988009 0.0 7.414595e-06 0.0
0.00049555744 0.0 2.1972332e-08 0.0 0.00022012921 0.0 1.5127887e-07 0.0
0.00015960512 0.0 0.0009823369 0.0 0.0037316629 0.0 8.589046e-06 0.0
2.1903377e-05 0.0 0.0017387834 0.0 0.0012414344 0.0 5.986415e-08 0.0
4.4272973e-08 0.0 0.0027885775 0.0 0.0008697328 0.0 0.00014753078 0.0
2.1947346e-07 0.0 4.7765983e-08 0.0 0.0005911822 0.0 1.3811731e-07 0.0
3.9873e-08 0.0 2.6000944e-07 0.0 1.393511e-07 0.0 1.628919e-07 0.0
4.572433e-05 0.0 0.00013409964 0.0 0.0012586729 0.0 1.2559147e-09 0.0
0.001691849 0.0 5.4568964e-08 0.0 0.0006191304 0.0 0.0009214766 0.0
3.11636e-05 0.0 6.002516e-08 0.0 0.0009767812 0.0 0.00026481575 0.0
9.56361e-09 0.0 1.116138e-09 0.0 0.002280505 0.0 0.0015091031 0.0
6.581253e-07 0.0 4.6779234e-05 0.0 2.4177189e-06 0.0 3.0132227e-08 0.0
1.3996894e-05 0.0 0.0011678793 0.0 0.0003922399 0.0 3.1271153e-08 0.0
8.252408e-08 0.0 0.0001695032 0.0 1.7636779e-07 0.0 5.491446e-07 0.0
0.00025639162 0.0 1.628759e-05 0.0 8.0705895e-08 0.0 0.003390776 0.0
0.00040841333 0.0 4.317762e-09 0.0 0.0013336095 0.0 0.00015992648 0.0
3.9508854e-09 0.0 0.0059210127 0.0 3.8317964e-07 0.0 0.0020744007 0.0
1.3834045e-05 0.0 0.0007553689 0.0 2.7342006e-07 0.0 1.2321239e-07 0.0
7.681607e-09 0.0 8.187916e-06 0.0 0.000101026744 0.0 4.0009552e-05 0.0
0.001613903 0.0 0.0013307767 0.0 2.0411032e-07 0.0 0.0046800086 0.0
0.0040696748 0.0 0.00018553955 0.0 4.983869e-08 0.0 4.6608537e-08 0.0
0.0005789764 0.0 2.3431246e-06 0.0 0.0023144325 0.0 0.0006289493 0.0
7.282984e-08 0.0 3.3716216e-08 0.0 3.2103617e-05 0.0 6.956089e-07 0.0
0.00043428273 0.0 0.00055998785 0.0 9.161549e-08 0.0 1.0689806e-08 0.0
4.5364423e-08 0.0 9.069588e-09 0.0 2.1575337e-07 0.0 0.0014083475 0.0
9.0112655e-09 0.0 7.616115e-09 0.0 9.2288485e-07 0.0 2.0530847e-06 0.0
2.2159497e-08 0.0 0.006154055 0.0 1.0049774e-06 0.0 1.7390625e-05 0.0
1.5555464e-08 0.0 3.2153024e-05 0.0 1.0473063e-07 0.0 5.532595e-07 0.0
0.0013954905 0.0 1.0100083e-08 0.0 1.9123762e-08 0.0 2.0215623e-07 0.0

exp_avg f4 [128]
00000000: cb1c 12b5 e6a0 e6b8 bb6b e737 448b 31b3
00000010: c338 98b8 c31f 8a38 5558 77b8 ad12 8b38
00000020: a729 2537 e8ba 6837 c442 9eb7 1125 6bb8
00000030: fded 88b7 59f6 cbb7 24a5 85b9 a4c8 2837
00000040: 175d 3339 b834 52b7 99b7 29b9 1da4 bcb7
00000050: aff1 0db8 24b9 9939 d777 bab9 8e31 b1b8
00000060: b675 2937 28a1 ce39 c2c3 d8b8 f8b7 49b7
00000070: 28ca 9937 72b7 6bb8 6c32 b6b8 bdad cb37
00000080: ead3 a0b7 a158 6137 b595 e038 fa76 21b7
00000090: 1962 a137 749c 9036 3fa6 cf37 702f 94b7
000000a0: a4b1 d8b8 6e68 2838 01de cfb8 44cb 0a36
000000b0: 27ac 32b9 86de beb7 a963 6939 d669 48b9
000000c0: 6011 43b9 4503 4bb7 f20d 0cb9 5f43 d538
000000d0: 52f8 1037 168c 2b36 5686 54b9 c4b8 6e38
000000e0: 2b53 5db8 fc78 2cb8 580c 70b8 1d48 7537
000000f0: 9dfe 2db8 2069 ee38 a01b 9e38 51ff 6f37
00000100: e0ed 60b7 e3d1 d8b6 7778 dab6 0f36 4cb8
00000110: 2d29 a1b7 288d 3438 7728 bf37 3db4 b3b9
00000120: df65 9436 12e4 c836 1baa 06b9 f686 cdb8
00000130: cd14 95b5 e07b ec39 fa8c 20b8 3d0b b2b8
00000140: 0c26 41b8 7889 e4b8 d88a 15b8 e36c d7b7
00000150: 3553 b0b6 f40d 1cb7 e7e1 5838 dbd5 50b8
00000160: 7629 7639 8b25 3939 c53f f637 2e61 72b9
00000170: 2472 b6b9 a44c 8437 cb7c 6c37 afb5 ac37
00000180: eac1 0639 8592 36b8 76d5 0eb9 d8bf b338
00000190: c934 be37 8f97 7937 b22e 5437 7795 b8b7
000001a0: f93a 20b8 4cf6 5839 8072 cc37 eb07 1737
000001b0: 72e2 7d37 47f0 e136 9f2d db37 d3d7 03b9
000001c0: d38a 7bb4 1db7 0237 7fa1 0db8 dde4 6cb8
000001d0: 9ae3 f1b4 a931 23ba 4bc7 a1b8 60e0 d3b8
000001e0: aebd 3bb7 3af4 e8b8 c62f d537 7175 0236
000001f0: 2256 6bb9 e248 b7b6 b918 beb6 b24b 9cb7
-5.443114e-07 -0.00010997224 2.7587512e-05 -4.1337685e-08 -7.2584975e-05 6.586269e-05 -5.8971655e-05 6.631515e-05
9.844464e-06 1.3871795e-05 -1.8866158e-05 -5.6062887e-05 -1.6323285e-05 -2.43142e-05 -0.00025490776 1.0060296e-05
0.00017105449 -1.252925e-05 -0.00016185491 -2.2487768e-05 -3.3842105e-05 0.00029320375 -0.00035565972 -8.449248e-05
1.0100592e-05 0.00039411453 -0.00010336145 -1.2023367e-05 1.8333158e-05 -5.6199213e-05 -8.687828e-05 2.4280389e-05
-1.9172167e-05 1.3431681e-05 0.000107090375 -9.624049e-06 1.9238376e-05 4.309748e-06 2.4753737e-05 -1.7665065e-05
-0.00010332771 4.015158e-05 -9.9118806e-05 2.0681919e-06 -0.00017039535 -2.2753386e-05 0.00022257738 -0.00019112913
-0.00018603122 -1.2100504e-05 -0.00013356635 0.0001016918 8.640885e-06 2.5562526e-06 -0.0002026794 5.69157e-05
-5.2767962e-05 -4.112067e-05 -5.7231955e-05 1.4619928e-05 -4.148354e-05 0.000113683054 7.539173e-05 1.4304956e-05
-1.3406825e-05 -6.4617357e-06 -6.5109302e-06 -4.8687736e-05 -1.921187e-05 4.3046806e-05 2.2787817e-05 -0.00034275829
4.422603e-06 5.9870154e-06 -0.00012842605 -9.8003e-05 -1.1107419e-06 0.00045105722 -3.8278267e-05 -8.489795e-05
-4.605022e-05 -0.00010897493 -3.5653677e-05 -2.5680702e-05 -5.2548953e-06 -9.301573e-06 5.17088e-05 -4.9790233e-05
0.00023475834 0.0001765696 2.935518e-05 -0.0002311512 -0.00034798787 1.5771315e-05 1.4095752e-05 2.05886e-05
0.00012851474 -4.352864e-05 -0.00013621696 8.571119e-05 2.2674345e-05 1.4876844e-05 1.2647057e-05 -2.200411e-05
-3.8201895e-05 0.00020691118 2.4372013e-05 9.002145e-06 1.51326985e-05 6.7334945e-06 2.6128078e-05 -0.00012573534
-2.34267e-07 7.791238e-06 -3.3767425e-05 -5.647993e-05 -4.505535e-07 -0.00062253565 -7.7141995e-05 -0.00010103057
-1.1190232e-05 -0.00011108113 2.5413825e-05 1.943987e-06 -0.00022443433 -5.4623097e-06 -5.6653193e-06 -1.8631898e-05

exp_avg_sq f4 [128]
00000000: 84d2 d32e e42d fe35 310b 3c35 39bc 0331
00000010: 63de 5035 961b f934 d64e 8434 6f56 8b34
00000020: 4675 8d31 a04e 2832 5507 7136 4dea c334
00000030: 52b3 7b32 900d 0b33 bf10 1237 c705 8834
00000040: 9a50 1f36 e7c6 9f31 2129 3736 5bfe c132
00000050: e445 7f35 f769 f236 4a2b a637 cad6 3335
00000060: 5d0a f534 9087 7e37 2008 a236 7655 1f32
00000070: 1b22 7c32 788f 3237 719e ad36 59a5 1f35
00000080: 956f a832 a3be 8532 3165 2736 bd92 0532
00000090: 9dd3 6332 6b43 0033 e5c8 4533 f02f 2132
000000a0: a2b6 7a35 68d2 1735 aea6 ac36 a651 622f
000000b0: eb59 e636 2fee 6f32 777f 8236 ebea a836
000000c0: 7fc7 0836 a031 0b32 2ea5 8636 2e60 e035
000000d0: 988f 5931 01c4 bf2f d84d 2237 18f6 c636
000000e0: fd6a 1934 fbac d334 233b 6a34 6b2b 2c32
000000f0: f677 8634 13de 9c36 e5cc d735 24c5 2832
00000100: fb1b e131 db9b 5c35 cac7 7a33 6e9f 7033
00000110: f319 9035 66df af33 a78e e632 c8de a037
00000120: 2b69 d135 9050 9c30 6451 b036 71e4 6f35
00000130: c727 5f2f e0fc ec37 ec1d c433 4002 0f37
00000140: 0022 d434 46dd 4b36 da28 8a33 856f 2433
00000150: f8b2 6230 7aff 3334 2de2 0a35 19b5 c234
00000160: 1c36 f936 5b53 bd36 d2dd 9133 ba4d 9e37
00000170: 4002 b537 8200 5035 ee42 8b32 8928 8532
00000180: f6e6 4936 deb9 3734 382e 1b37 31a6 1e36
00000190: 450b d032 a3a8 4032 2bea 1034 8c76 5033
000001a0: 63f7 de35 9f80 7136 0abd 0133 f1e1 6931
000001b0: 4d8e 8132 07a7 1131 59ab 9833 7b43 bb36
000001c0: 7433 e62f b2c0 0031 861e 8833 830e 8834
000001d0: 8ed8 4b30 1a96 3038 5956 a534 48cb a235
000001e0: ee01 9e31 1458 8a35 338e 1533 7cfe 3233
000001f0: f385 1037 a975 1631 7d85 6631 9775 6e32
9.632564e-11 1.8937831e-06 7.0051743e-07 1.9170001e-09 7.7809653e-07 4.6399936e-07 2.4644277e-07 2.5953656e-07
4.1169725e-09 9.796764e-09 3.5916066e-06 3.6492057e-07 1.4650896e-08 3.2375794e-08 8.706177e-06 2.5336178e-07
2.3739763e-06 4.6501216e-09 2.7293065e-06 2.2583825e-08 9.5096607e-07 7.224498e-06 1.98089e-05 6.6995256e-07
4.5642346e-07 1.5171143e-05 4.828922e-06 9.27445e-09 1.4676085e-08 1.0643031e-05 5.174247e-06 5.947273e-07
1.9608516e-08 1.556993e-08 2.494384e-06 7.774983e-09 1.3261254e-08 2.986364e-08 4.605035e-08 9.382333e-09
9.3398023e-07 5.6558065e-07 5.1454035e-06 2.0583588e-10 6.865002e-06 1.3965788e-08 3.8891408e-06 5.034138e-06
2.0381701e-06 8.102148e-09 4.0127406e-06 1.6717293e-06 3.165928e-09 3.4881967e-10 9.674077e-06 5.929509e-06
1.4288158e-07 3.9427673e-07 2.1814462e-07 1.002159e-08 2.5046728e-07 4.675015e-06 1.607838e-06 9.823712e-09
6.551543e-09 8.2183186e-07 5.8389368e-08 5.6024355e-08 1.0736388e-06 8.1897085e-08 2.6840395e-08 1.9177227e-05
1.5602321e-06 1.1373391e-09 5.254684e-06 8.9366864e-07 2.0295864e-10 2.8251146e-05 9.132404e-08 8.523988e-06
3.9512815e-07 3.0378155e-06 6.4335566e-08 3.8285652e-08 8.247265e-10 1.6763616e-07 5.1738135e-07 3.6267082e-07
7.4270774e-06 5.642343e-06 6.7924375e-08 1.8871262e-05 2.157793e-05 7.748678e-07 1.6212166e-08 1.5501671e-08
3.008577e-06 1.7110821e-07 9.249481e-06 2.364057e-06 2.4219512e-08 1.12142144e-08 1.3496235e-07 4.853659e-08
1.6612288e-06 3.5986666e-06 3.0207083e-08 3.4034395e-09 1.5082287e-08 2.1195221e-09 7.1092195e-08 5.58089e-06
4.1873316e-10 1.8735986e-09 6.338546e-08 2.5342533e-07 7.415871e-10 4.2101463e-05 3.079647e-07 1.2129103e-06
4.5986246e-09 1.0307435e-06 3.4821095e-08 4.1675307e-08 8.614256e-06 2.1894755e-09 3.3545284e-09 1.388016e-08

exp_avg f4 [128, 128]
00000000: 646b 57b8 c245 793a fe60 3639 538a 33b8
00000010: a165 37b8 cb47 8c37 604f 3fb8 de49 feb5
00000020: a4c2 14b8 aea0 41b8 0af6 753b 8e39 29b8
00000030: 8333 52b8 5e7b 47b8 2366 9639 f964 20b8
00000040: 6393 1a3b f195 4bb8 3680 af3a d462 40b8
00000050: 6a21 d439 a60f 1c3a 34ed 023b fbc0 29b8
00000060: 5ae4 1fb8 80f7 eb3a 99e7 443a 3309 4eb8
00000070: 129e 48b8 6d86 243b 898d 183b 5630 b23a
00000080: cdd1 2bb8 3186 53b8 2bb0 a439 abbe 41b8
00000090: 7290 09b8 03e3 30b8 29ce 43b8 d2bb 38b8
000000a0: 3896 1fb8 2b3d ac3a 901f c13a a724 57b8
000000b0: ff44 e239 cf6c 3eb8 3cc1 983a 67bc 703a
000000c0: 1499 c03a 2ffc 3db8 e5b9 0a39 8476 383a
000000d0: 8bf5 54b8 c4ef 56b8 f605 b539 474f a439
000000e0: 6889 35b8 82fc 3839 168c 39b8 6315 20b8
000000f0: c75a 41b8 bce5 c439 490e 9137 348a 51b8
00000100: 7342 43b8 3d7d 763a 0593 17b8 31b3 40b8
00000110: 05ce d439 0b03 d13a 3899 20b8 1deb 723a
00000120: a547 a03a e964 53b8 3690 de39 ead6 533a
00000130: 6164 57b8 c134 953a b36c 3eb8 74da 803b
00000140: 9fba 41b8 72d6 473a f1da 3bb8 13ae 4cb8
00000150: 3247 56b8 bc4a 4a3a f06a a737 a619 723a
00000160: d73d 5e3a de3f ed38 b6e9 e5b7 972c 8e3a
00000170: 38bc 2a3b 166a a6b7 8138 55b8 2784 06b8
00000180: bf85 5f3b 9d3f 3ab8 a077 463a 7579 933a
00000190: 4a0c 39b8 f8cd 06b8 1f3b 833a b287 23b8
000001a0: e22f 3039 0ebd f43a 81b7 4ab8 aace 51b8
000001b0: d6cf 45b8 a5b5 4fb8 4c45 45b8 05cc 853a
000001c0: 046f 57b8 6fcc 53b8 d4bc 29b8 6216 35b8
000001d0: bb4e 57b8 8e40 c23a 1d0d 2fb8 3040 29b8
000001e0: 0283 4fb8 7134 e43a 6e07 06b8 1519 21b8
000001f0: 41dd 2b3b 2d5b 56b8 91f9 47b8 e472 42b8
00000200: bb15 8636 7734 e3b6 d85d aeb5 046e be35
00000210: b92f f535 bfd0 6db4 95ae db35 49c2 02b3
00000220: 7041 3936 b71d 7136 2779 1db8 540c 3736
00000230: fcad 8236 e8b2 7636 b468 f0b5 d5d8 0f36
00000240: e2d8 b5b7 908e 7c36 72bf 2db7 df6e 6c36
00000250: ca2e 21b6 e867 87b6 4c9f 92b7 a679 3836
00000260: 402c 1536 1a20 83b7 cb55 a9b6 b6d5 7f36
00000270: 61d1 7936 1213 c3b7 442f b0b7 59c4 32b7
00000280: 7774 4536 5db0 8336 2c07 0ab6 bcf0 6e36
00000290: b052 2b36 6486 5436 69d2 7336 ab12 6136
000002a0: 4ac3 3835 5b01 2db7 14ac 47b7 d2ed 8536
000002b0: 3875 36b6 2c76 6936 28ba 16b7 d797 d9b6
000002c0: 595b 44b7 bd6f 6936 0458 74b5 b082 a2b6
000002d0: ec94 8436 a8cd 8536 7e61 11b6 b54f 05b6
000002e0: f898 5936 da3e 90b5 6b2a f235 885b 4736
000002f0: 9b2f c135 7978 23b6 1a70 43b4 2475 8236
00000300: 371a 7136 dfea dcb6 a5b7 3c36 f746 c235
00000310: 7aea 31b6 0a9d 59b7 5aff 4736 1b59 dcb6
00000320: 7cab 1ab7 3b9c 8336 0260 31b6 de19 b8b6
00000330: 9110 8636 1078 12b7 b73b 6936 d791 25b8
00000340: b158 c435 88c8 aeb6 3fe5 6436 8cef 7d36
00000350: 5258 8536 8d85 a6b6 1ba4 8cb4 b127 d9b6
00000360: bdbf c9b6 998e 62b5 bf28 0f36 15bf 07b7
00000370: a901 ccb7 e4ab 8f34 03be 8436 e586 2736
00000380: b060 0db8 7f41 ec35 171c adb6 3311 0eb7
00000390: 1570 6636 94e1 2736 f109 eeb6 8afe 2f36
000003a0: 319c 9ab5 e7e1 88b7 766d 7c36 d69f 8236
000003b0: 1252 7636 3e51 8136 a0a4 7536 ab7e fab6
000003c0: 1519 8636 98dc 8336 9bfe 3836 210c 5936
000003d0: 0003 8636 5b0d 48b7 23b4 4a36 4977 3536
000003e0: 90ea 8036 8cc0 71b7 fbe9 2636 b42a 2936
000003f0: a644 cdb7 9c63 8536 eec0 7736 aaec 6f36
-5.136001e-05 0.0009508991 0.00017393005 -4.280575e-05 -4.372525e-05 1.6722732e-05 -4.5611872e-05 -1.8945973e-06
-3.5467223e-05 -4.616443e-05 0.0037530684 -4.0346342e-05 -5.0115876e-05 -4.7560192e-05 0.00028686327 -3.824101e-05
0.0023586384 -4.8538615e-05 0.001338965 -4.5868408e-05 0.00040460686 0.00059532595 0.001997781 -4.0472467e-05
-3.8121223e-05 0.0018002838 0.00075113174 -4.9122795e-05 -4.783093e-05 0.0025104538 0.002327772 0.0013594727
-4.096497e-05 -5.0431296e-05 0.00031411773 -4.619236e-05 -3.279787e-05 -4.217309e-05 -4.6683625e-05 -4.404394e-05
-3.8048456e-05 0.0013140788 0.0014734138 -5.129413e-05 0.00043157485 -4.5400866e-05 0.0011654268 0.00091833476
0.0014694058 -4.5295976e-05 0.00013229957 0.0007036703 -5.077342e-05 -5.1244875e-05 0.00034527451 0.00031339584
-4.3281732e-05 0.00017641674 -4.4237902e-05 -3.816689e-05 -4.609933e-05 0.000375552 1.7291999e-05 -4.9958195e-05
-4.655351e-05 0.0009402817 -3.6138128e-05 -4.5943252e-05 0.00040589288 0.0015946341 -3.828967e-05 0.0009266602
0.0012228383 -5.04003e-05 0.00042450585 0.0008081036 -5.135348e-05 0.001138352 -4.5400764e-05 0.0039322916
-4.618859e-05 0.00076232024 -4.478818e-05 -4.879951e-05 -5.108788e-05 0.0007716825 1.9957748e-05 0.00092353893
0.0008477843 0.00011312937 -2.7407757e-05 0.0010847029 0.0026052129 -1.9838142e-05 -5.083578e-05 -3.2071166e-05
0.0034106818 -4.44051e-05 0.0007570926 0.0011251407 -4.4118882e-05 -3.2139913e-05 0.0010012126 -3.8988605e-05
0.00016802506 0.0018672065 -4.8331454e-05 -5.0021954e-05 -4.7162022e-05 -4.9521816e-05 -4.7032998e-05 0.0010207897
-5.1363386e-05 -5.0496714e-05 -4.04686e-05 -4.317461e-05 -5.1333318e-05 0.0014820264 -4.1735464e-05 -4.035252e-05
-4.9474656e-05 0.0017410648 -3.195501e-05 -3.840875e-05 0.0026224407 -5.110649e-05 -4.7677724e-05 -4.6360205e-05
3.996041e-06 -6.771235e-06 -1.2991322e-06 1.4188122e-06 1.8267812e-06 -2.2148286e-07 1.6367582e-06 -3.0444685e-08
2.7605238e-06 3.5929095e-06 -3.754455e-05 2.72763e-06 3.8945564e-06 3.6760994e-06 -1.7911866e-06 2.1434873e-06
-2.1677875e-05 3.7633909e-06 -1.0356178e-05 3.5231276e-06 -2.4018104e-06 -4.03541e-06 -1.7478735e-05 2.7488945e-06
2.2228487e-06 -1.5631365e-05 -5.04658e-06 3.8122357e-06 3.7225766e-06 -2.3254692e-05 -2.1002845e-05 -1.06553425e-05
2.942308e-06 3.9246356e-06 -2.0567777e-06 3.560489e-06 2.5529116e-06 3.1668687e-06 3.6332297e-06 3.353848e-06
6.8829524e-07 -1.0311919e-05 -1.1901389e-05 3.991395e-06 -2.7188344e-06 3.478849e-06 -8.98404e-06 -6.4847804e-06
-1.1703779e-05 3.4784746e-06 -9.1025163e-07 -4.8431903e-06 3.9512433e-06 3.9876504e-06 -2.1663432e-06 -1.986494e-06
3.242456e-06 -1.0747128e-06 1.804275e-06 2.970659e-06 1.4393476e-06 -2.4359017e-06 -1.8201573e-07 3.887939e-06
3.5927058e-06 -6.5838535e-06 2.8121078e-06 1.447478e-06 -2.6511539e-06 -1.2970771e-05 2.9801945e-06 -6.566884e-06
-9.219042e-06 3.922292e-06 -2.643094e-06 -5.4866387e-06 3.99544e-06 -8.730232e-06 3.4754464e-06 -3.947489e-05
1.462895e-06 -5.208949e-06 3.4108086e-06 3.7839372e-06 3.9739907e-06 -4.962733e-06 -2.6196435e-07 -6.4717246e-06
-6.012588e-06 -8.439907e-07 2.1332378e-06 -8.091117e-06 -2.4319468e-05 2.6760893e-07 3.956027e-06 2.4963458e-06
-3.3707067e-05 1.7602432e-06 -5.159072e-06 -8.467864e-06 3.433791e-06 2.5016243e-06 -7.09411e-06 2.6225193e-06
-1.1519352e-06 -1.6317657e-05 3.761464e-06 3.8929093e-06 3.6704628e-06 3.8539574e-06 3.660367e-06 -7.4653267e-06
3.996431e-06 3.9297847e-06 2.7566336e-06 3.234258e-06 3.9938604e-06 -1.19240385e-05 3.02052e-06 2.7040535e-06
3.842004e-06 -1.440955e-05 2.4872122e-06 2.520782e-06 -2.4469871e-05 3.975305e-06 3.6918168e-06 3.5751532e-06
