Assets/IA/Pruebas/results/Pad10/PadBehavior/checkpoint.pt (torch, 438005 bytes, 30 tensors)

network_body._body_endoder.seq_layers.0.weight f4 [128, 5]
0	0x3e26b382	0.16279414
1	0x3d620ac3	0.055186044
2	0x3d0c447f	0.03424501
3	0x3f393ef0	0.7236166
4	0x3ed04689	0.40678814
5	0xbf46ec70	-0.77704525
6	0x3f9d9e4f	1.2313937
7	0xbe10f6ee	-0.14156696
8	0xbf6a8822	-0.9161397
9	0xbef1eabf	-0.4724941
10	0x3df08dde	0.11745809
11	0xbea1f846	-0.3163473
12	0x3f1e15ac	0.6175182
13	0x3eae7889	0.34076336
14	0xbf42ed4b	-0.7614333
15	0x3f5331cb	0.82497853
16	0xbe15c739	-0.14626779
17	0x3e3ec3d7	0.18629394
18	0xbf4a6f92	-0.7907649
19	0xbe16a6b6	-0.14712033
20	0xbf0448a8	-0.51673365
21	0x3daf8bc2	0.085715786
22	0xbe1d9c04	-0.15391546
23	0xbe6d9ee6	-0.23205146
24	0x3f02ff1a	0.51170504
25	0x3f2949c7	0.661282
26	0xbedec071	-0.43506196
27	0x3f7ac121	0.9795094
28	0xbf3064cd	-0.6890381
29	0x3f05d888	0.52283525
30	0x3e09ee1b	0.13469736
31	0x3f0efa25	0.5585044
32	0xbd9519a3	-0.072802804
33	0xbe9b4e00	-0.30332947
34	0x3e7f5aa3	0.24936919
35	0x3ebcbfcb	0.36865076
36	0xbf169d24	-0.5883353
37	0x3ef970e5	0.48718944
38	0xbf1dfcb1	-0.617137
39	0xbe10dde4	-0.14147145
40	0xbbccdf23	-0.006252186
41	0xbf015476	-0.505195
42	0x3f05d3f9	0.5227657
43	0xbeecc353	-0.4624277
44	0x3e1fecd6	0.1561769
45	0xbd2474d6	-0.040150486
46	0xbee57408	-0.44815087
47	0x3e5fa0cf	0.21838687
48	0xbee1d47d	-0.44107428
49	0xbeba75ea	-0.36418086
50	0x3c4bab5f	0.012430995
51	0xba0985e9	-0.00052460894
52	0x3ef16ac2	0.47151762
53	0xbdecebb3	-0.115683936
54	0x3f0c0609	0.5469671
55	0xbe8c4fdd	-0.2740468
56	0xbd9ea657	-0.077465706
57	0x3eaa2a3f	0.33235356
58	0xbf2385bc	-0.6387594
59	0x3eeb44eb	0.45951018
60	0xbbf758e0	-0.0075484365
61	0x3dfaf6e6	0.122541234
62	0xbf475e5b	-0.7787835
63	0x3db9153e	0.09037255
64	0x3de7fecb	0.11327895
65	0xbb2cec36	-0.002638591
66	0xbec07a55	-0.37593332
67	0x3f411665	0.75424796
68	0xbe4762c1	-0.19471265
69	0xbe847e11	-0.2587743
70	0xbec04511	-0.37552693
71	0x3f84fa36	1.0388858
72	0xbf2b369b	-0.66880196
73	0xbebd0f59	-0.36925772
74	0x3ec8dec3	0.39232454
75	0x3f2a4840	0.66516495
76	0x3d9d9da3	0.076960824
77	0xbea1d6c7	-0.31609175
78	0xbe524118	-0.20532644
79	0xbe89cca7	-0.2691395
80	0x3e8b4622	0.27201945
81	0x3ec1330d	0.3773426
82	0x3e90628b	0.28200182
83	0x3f59e142	0.8510934
84	0x3f92823b	1.1445993
85	0x3ee9f541	0.45694926
86	0x3f347280	0.70487213
87	0xbeb3674f	-0.35039756
88	0x3f17a8c8	0.59241915
89	0x3ee2105f	0.44153115
90	0x3b527cde	0.0032117884
91	0x3f30567e	0.68881977
92	0x3ec4e8f1	0.3845897
93	0x3e82841f	0.25491425
94	0x3e93d334	0.28872073
95	0x3e3ea850	0.18618894
96	0xbe9accf7	-0.302345
97	0xbe7fbb17	-0.24973713
98	0xbf4c4fde	-0.7980937
99	0xbf4d3e84	-0.80173516
100	0x3eb457ef	0.35223338
101	0x3ef38a92	0.47566658
102	0xbdd5ff1f	-0.10449051
103	0x3e69581d	0.22787519
104	0xbe15ba0e	-0.14621755
105	0x3f402596	0.7505735
106	0x3f0d5ada	0.55216753
107	0xbf2b161c	-0.6683061
108	0xbf20a582	-0.62752545
109	0x3e88ac4b	0.2669395
110	0x3fa8ffe1	1.3203088
111	0xbebf10f1	-0.37317613
112	0x3f0ca60e	0.5494088
113	0x3e05d05d	0.13067766
114	0xbe48f08a	-0.19623008
115	0xbcf06317	-0.029344125
116	0xbf001442	-0.5003091
117	0xbe314819	-0.1731266
118	0xbebe7daa	-0.3720525
119	0x3f0f9506	0.56086767
120	0x3eb0aa02	0.34504706
121	0x3cd224d1	0.025652321
122	0x3d4d8ede	0.050185077
123	0xbdf675df	-0.12034201
124	0x3ec423f8	0.38308692
125	0xbec6be87	-0.38817236
126	0x3ea6ee62	0.32603747
127	0x3dca043a	0.098640874
128	0xbe8bf2b2	-0.273336
129	0xbf288d2d	-0.6584042
130	0xbdb8e334	-0.090277106
131	0xbe581fa3	-0.21105818
132	0x3f0bdfff	0.54638666
133	0x3e99c273	0.30031165
134	0xbe23e418	-0.1600498
135	0xbc1a2ab5	-0.009409596
136	0x3ed2247f	0.4104347
137	0x3bdc2624	0.006718414
138	0xbeb62174	-0.35572398
139	0x3ec506b5	0.3848168
140	0xbe1f90cd	-0.15582581
141	0xbe13d9ce	-0.14438555
142	0xbf8df213	-1.10895
143	0xbf1d169c	-0.61362624
144	0xbf4e77e5	-0.80651695
145	0x3c8361f9	0.016037928
146	0xbf28aea0	-0.65891457
147	0xbf676bad	-0.90398675
148	0x3e5811cf	0.21100543
149	0xbd2d696f	-0.042336877
150	0xbf4044f5	-0.7510522
151	0x3e822913	0.25421962
152	0x3f0637dd	0.5242899
153	0x3d189f3b	0.03726123
154	0xbe9a5a8b	-0.30147204
155	0xbdb5b8e0	-0.08873153
156	0xbf091807	-0.5355229
157	0x3ef3ca92	0.47615486
158	0xbe9ba868	-0.3040192
159	0xbe7b50f1	-0.24542595
160	0x3e9252e7	0.28578874
161	0x3df8f486	0.12156014
162	0xbe9ca20f	-0.3059239
163	0xbe39bc81	-0.18138315
164	0x3f70787b	0.9393384
165	0xbea42ef4	-0.32067072
166	0x3e221c2d	0.1583106
167	0xbe21a51e	-0.15785643
168	0x3ebcc015	0.36865297
169	0xbed04544	-0.40677845
170	0xbeaa264b	-0.3323234
171	0xbca933f6	-0.02065466
172	0x3f705c3b	0.9389073
173	0xbd95a293	-0.07306399
174	0xbe04ae46	-0.12957105
175	0x3d6ab443	0.057300817
176	0x3e1dfc59	0.15428294
177	0x3ef29ed7	0.4738681
178	0xbe8918e0	-0.2677679
179	0xbe913bf5	-0.28366056
180	0x3b02f9a6	0.0019985228
181	0xbed8f9ad	-0.42377988
182	0xbe921d1c	-0.28537834
183	0xbdf0c90c	-0.11757097
184	0xbf59836b	-0.8496615
185	0xbb63d710	-0.0034765638
186	0xbdbde7d7	-0.092727356
187	0x3f6223ad	0.88335687
188	0x3fa97485	1.3238684
189	0xbf969458	-1.1764021
190	0xbf8aa758	-1.0832319
191	0xbf03c32c	-0.51469684
192	0x3dce091f	0.100603335
193	0xbf0cd653	-0.5501453
194	0x3ee19de5	0.44065776
195	0x3ebaaa1a	0.36457902
196	0x3ebbec1d	0.36703578
197	0xbddd5f79	-0.108092256
198	0xbf8807eb	-1.0627416
199	0xbed28f94	-0.41125166
200	0xbf9d425e	-1.2285879
201	0x3d2d3113	0.04228313
202	0xbe406b5d	-0.18790956
203	0x3dc7ab63	0.09749486
204	0x3c665e53	0.014060575
205	0xbef1123c	-0.47084224
206	0x3e92a35c	0.28640258
207	0xbeffab86	-0.4993555
208	0x3f327577	0.6971049
209	0xbf52e77f	-0.82384485
210	0xbe994d88	-0.29941964
211	0x3eed4c6c	0.46347368
212	0xbf12ceb7	-0.5734667
213	0xbe2dc945	-0.1697131
214	0xbf24c83f	-0.6436805
215	0x3eb8b936	0.36078805
216	0x3e23359a	0.15938416
217	0x3e85cda9	0.2613347
218	0x3eaf3293	0.34218273
219	0x3d6e2243	0.058138143
220	0x3e96aad5	0.2942721
221	0x3e83e3d3	0.25759754
222	0x3d3560eb	0.04428188
223	0xbdfbc271	-0.12292946
224	0xbf1dad1a	-0.6159226
225	0xbd8b26a3	-0.06794479
226	0xbe12afe1	-0.14324905
227	0x3d895b19	0.067068286
228	0x3ef0fdb8	0.47068572
229	0x3f082d21	0.5319386
230	0x3f13588a	0.57556975
231	0xbf0e8115	-0.55665714
232	0x3d6dcf66	0.05805912
233	0x3ea70f8c	0.3262905
234	0xbdbcf0ce	-0.09225617
235	0xbe83807d	-0.25683966
236	0x3debe63d	0.11518524
237	0xbdbd07e0	-0.09230018
238	0xbec1e127	-0.3786709
239	0x3d9208ad	0.07130561
240	0x3f0782c5	0.52933913
241	0xbef952b1	-0.486959
242	0x3eb7eb09	0.35921505
243	0x3f07193f	0.527729
244	0x3ceab3ed	0.028650248
245	0xbeb525cc	-0.353804
246	0xbe270448	-0.16310227
247	0xbdbdffef	-0.09277331
248	0x3e6630f2	0.22479609
249	0xbebada16	-0.3649451
250	0xbe67563d	-0.22591491
251	0xbed762e0	-0.42067623
252	0x3db16768	0.08662301
253	0x3ee32611	0.4436498
254	0xbe2093b1	-0.1568134
255	0x3e244a94	0.16044074

network_body._body_endoder.seq_layers.0.bias f4 [128]
0	0xbb42e013	-0.002973561
1	0x3c734720	0.0148485005
2	0x3bdea39d	0.0067944066
3	0x3c05d478	0.008168332
4	0x3c2e0942	0.010622324
5	0xbc665006	-0.014057165
6	0xbb21e57b	-0.0024703431
7	0xbb362461	-0.002779268
8	0x3bc8e00f	0.0061302255
9	0xbca9957d	-0.020701164
10	0xbbd02476	-0.0063520027
11	0xbccaff20	-0.024779856
12	0x3ab52b8f	0.0013822186
13	0xbc6b047f	-0.014344334
14	0xbba442fc	-0.005012868
15	0x3b1e9f28	0.0024203751
16	0xba6b66bb	-0.00089798466
17	0x3b1d7431	0.0024025554
18	0xbc0a7722	-0.008451255
19	0xbd01b546	-0.031667016
20	0xbbbcc163	-0.005760358
21	0xbca6f63b	-0.020381084
22	0xbb15d9be	-0.002286538
23	0x3a7309db	0.0009271183
24	0xbb74a0e5	-0.0037327346
25	0x3b3cb58b	0.0028794731
26	0x3c9050af	0.017616598
27	0x3c56ffaa	0.0131224785
28	0xbc789d9c	-0.015174296
29	0xbc0111b1	-0.007877753
30	0xbc464763	-0.012101981
31	0x3c6be1d3	0.014397102
32	0xbc72bf38	-0.014816098
33	0x3bdb4729	0.0066918326
34	0xbba5ec25	-0.005063551
35	0x3cb489d1	0.022038372
36	0xbc12d7d8	-0.008962594
37	0xbc567d22	-0.013091357
38	0xbbb32e48	-0.0054681636
39	0xbbc3b4f6	-0.0059725
40	0xbc15dc5d	-0.009146777
41	0xbbaa669e	-0.005200221
42	0xbc403e5d	-0.011733619
43	0xbc078faa	-0.008273998
44	0xbc80c6ef	-0.015719859
45	0x3c8aaa6d	0.016926968
46	0x3c844a3a	0.016148675
47	0x3cbd2219	0.023087548
48	0x389a4b46	7.357313e-05
49	0xbb9cbeee	-0.004783503
50	0x3cf12bfb	0.029439917
51	0x3bcbffba	0.0062255533
52	0xbc7089a6	-0.014681255
53	0x3bf85e7c	0.007579623
54	0x3c4f9992	0.012670891
55	0x3921ade9	0.00015418943
56	0xbcd26508	-0.025682941
57	0x3bddd32b	0.006769558
58	0x3beb70f6	0.007185097
59	0xbc3aef11	-0.011409537
60	0xbc83b242	-0.01607621
61	0xbbef454e	-0.007301963
62	0xbb8bf78d	-0.0042714537
63	0xbbc53fed	-0.0060195834
64	0xbab97d6e	-0.0014151761
65	0xbc37f653	-0.011228162
66	0x3b0bcfe4	0.002133363
67	0x3cb04d86	0.021521341
68	0x3ae07e5b	0.0017127501
69	0x3bb2f5d8	0.0054614358
70	0x3cc8a695	0.024493495
71	0xbc01e247	-0.007927484
72	0xbc07871e	-0.008271961
73	0x3c50c43a	0.012742097
74	0x3c884f0c	0.016639255
75	0x3b9dbdb9	0.0048138765
76	0xbc5c37a0	-0.013440996
77	0x3b24cf03	0.0025147803
78	0xb81cbc41	-3.7368623e-05
79	0x3a8dba3e	0.0010812951
80	0xbb7b3088	-0.0038328487
81	0xb93c4411	-0.00017954434
82	0x3c6e3ae3	0.014540407
83	0xbbe45e0a	-0.006969218
84	0xbc7af703	-0.015317681
85	0x3d088cc9	0.03333739
86	0x3d129d6a	0.035794653
87	0xbd56dc62	-0.052456267
88	0x3ba38b01	0.004990936
89	0xbbaea0cc	-0.005329227
90	0xbc815456	-0.015787285
91	0x3c15df6d	0.009147507
92	0x39f682dd	0.00047018277
93	0x3beb860f	0.007187612
94	0x3b349329	0.0027553535
95	0x3c42c938	0.011888795
96	0xbbafdfa5	-0.0053672367
97	0xbc442fa7	-0.011974252
98	0x3c3c1df7	0.011481754
99	0xba4b8b98	-0.00077646365
100	0x3c411c1b	0.011786486
101	0xbc215cf9	-0.009848827
102	0xbc9cb7e3	-0.019130653
103	0x3c55a618	0.013040088
104	0x3b2346de	0.0024914066
105	0xbcc653c1	-0.024209859
106	0xbc35d830	-0.011098906
107	0xbc27dd5b	-0.010245646
108	0xbc40c4b8	-0.011765651
109	0xbc7ecb33	-0.015551376
110	0xbbc82238	-0.006107595
111	0x3c8d25f6	0.017230015
112	0xbbb1d40e	-0.00542689
113	0x3b26f80a	0.0025477433
114	0xbb893fb5	-0.0041885027
115	0x3c492d9b	0.01227894
116	0x3bbf1550	0.005831398
117	0xbc20f44e	-0.009823872
118	0xbcf39acf	-0.029736904
119	0xbb3feeed	-0.0029286698
120	0xb9d94ec8	-0.00041448162
121	0xbc6066be	-0.013696371
122	0xbb391709	-0.002824249
123	0x3ca4208e	0.020035055
124	0x3c3bf1b4	0.011471201
125	0xbcc07d3e	-0.02349722
126	0xbaf71c39	-0.0018853015
127	0xb96c2e15	-0.00022523881

network_body._body_endoder.seq_layers.2.weight f4 [128, 128]
0	0x3c7bdf9f	0.01537314
1	0xbd67944d	-0.056537915
2	0xbd2d4e94	-0.042311266
3	0xbe06de2d	-0.13170691
4	0x3d17f41b	0.03709803
5	0x3dadaab6	0.08479826
6	0x3e0b0d6f	0.13579343
7	0xbd9d300b	-0.07675179
8	0x3c6d0f1e	0.014468936
9	0x3d830071	0.063965686
10	0xbdd54e34	-0.10415307
11	0xbd683f70	-0.056701124
12	0xbdc61899	-0.096726604
13	0xbe30b9ee	-0.17258427
14	0xbccee7e7	-0.025257064
15	0xbe0bd8f2	-0.13656977
16	0x3da464c3	0.08027031
17	0x3d91cd25	0.07119206
18	0x3e43ce02	0.19121554
19	0x3c8b92fa	0.017037857
20	0xbcdc9d1f	-0.02693039
21	0xbe396069	-0.18103184
22	0x3d8ce257	0.068791084
23	0xbd0b398a	-0.03399042
24	0x3e33ab2a	0.17545763
25	0x3daff9ca	0.08592565
26	0xbda462cc	-0.080266565
27	0xbd2834dd	-0.04106604
28	0xbe31aa1d	-0.1735005
29	0x3d968c2b	0.07350954
30	0xbc1a92d1	-0.009434418
31	0x3bfef785	0.0077809715
32	0x3c63c61a	0.013902212
33	0x3df2bde1	0.11852623
34	0xbcea7b18	-0.028623149
35	0xbdf93cff	-0.12169837
36	0x3d45af63	0.048262965
37	0x3c8722c2	0.016496066
38	0xbe2e600f	-0.17028831
39	0xbe446200	-0.19178009
40	0xbdd93068	-0.10604936
41	0xbce32927	-0.027729584
42	0x3e1d1b32	0.15342405
43	0x3e3da1a5	0.18518694
44	0xbcd88861	-0.026432218
45	0x3bf0a9c4	0.0073444564
46	0x3d83e003	0.06439211
47	0x3dbb6a77	0.09151166
48	0xbe133dd3	-0.14379053
49	0xbd15bba0	-0.036555886
50	0xbc1e2143	-0.009651485
51	0x3d0a448d	0.03375678
52	0xbaadb674	-0.0013253228
53	0x3c8b55a9	0.01700862
54	0xbc1deef5	-0.009639491
55	0xbc2f9645	-0.010716979
56	0xbdae615a	-0.08514662
57	0x3bebb8e1	0.00719367
58	0x3d0e56d7	0.034750786
59	0xbe1b1996	-0.15146479
60	0x3d49a47c	0.04922913
61	0x3e19dc06	0.15025339
62	0x3e04a8c8	0.1295501
63	0xbd2781c7	-0.04089525
64	0xbc373e11	-0.011184231
65	0xbddf28ba	-0.1089644
66	0xbe381ca8	-0.17979681
67	0xbda2da06	-0.07951741
68	0x3dadaaf8	0.08479875
69	0xbe558423	-0.20851187
70	0xbe087422	-0.13325551
71	0x3da4b8a2	0.080430284
72	0xbc32cb1a	-0.010912681
73	0x3d9a106b	0.07522663
74	0xbc64e25d	-0.013969985
75	0xbcd4d3b3	-0.025979852
76	0x3e30c8a6	0.17264041
77	0xbdc8bda4	-0.09801796
78	0x3db63854	0.088974625
79	0xbdbf3c68	-0.093376935
80	0x3ccbbdea	0.024870832
81	0x3d383251	0.04496986
82	0x3d1581e4	0.036500826
83	0x3d91322e	0.07089649
84	0x3b862c88	0.004094664
85	0xbc85a50e	-0.016314056
86	0xbe068612	-0.13137081
87	0xbbe7dfdc	-0.0070762467
88	0xbccb6e95	-0.024833003
89	0x3b88071f	0.0041512395
90	0x3d84e7b7	0.064895086
91	0xbd682e6a	-0.05668489
92	0xbd83763f	-0.06419038
93	0xbd5ff2f4	-0.054675058
94	0x3e60fc6f	0.21971296
95	0x3d8f6aa4	0.07002762
96	0x3a59787e	0.0008295848
97	0x3d220f3b	0.039565306
98	0xbcef8296	-0.029237073
99	0x3d8c6096	0.0685436
100	0xbd79bbfd	-0.060970295
101	0x3d6e34fa	0.05815599
102	0x3d1d969c	0.03847371
103	0xbe42148d	-0.18953152
104	0x3d13bd7e	0.036069386
105	0xbdd30943	-0.10304501
106	0xbd0baa83	-0.03409816
107	0x3ddf4bfa	0.10903163
108	0x3b97d1f7	0.004633184
109	0xbd3c9363	-0.046038996
110	0xbd826aab	-0.063680016
111	0xbd5c0f2a	-0.0537254
112	0xbe44ec44	-0.19230753
113	0xbdbec0f4	-0.09314147
114	0x3d84a676	0.064770624
115	0x3d33a621	0.043859605
116	0x3c994a1c	0.018712096
117	0xbe03a685	-0.12856491
118	0x3d91d810	0.07121289
119	0x3d7c97cd	0.061668206
120	0x3de9d87b	0.114182435
121	0x3d633037	0.055465903
122	0x3d02fe68	0.031980902
123	0xbd16d344	-0.036822572
124	0x3d9e1459	0.07718725
125	0x3e577e4b	0.2104427
126	0x3d2c2a11	0.042032305
127	0x3d832f95	0.0640556
128	0xbd691806	-0.056907676
129	0xbe362e1f	-0.17791031
130	0xbe061af6	-0.13096222
131	0xbdacc07a	-0.084351495
132	0xbd92c874	-0.0716714
133	0x3cb78276	0.022401076
134	0xbdb7b345	-0.0896974
135	0x3d8ce5ca	0.06879766
136	0xbd9f4b26	-0.07778005
137	0xbe9bdb61	-0.3044081
138	0xbca6cb53	-0.020360624
139	0xbd1457d4	-0.036216572
140	0x3df998b3	0.12187328
141	0xbdb2e27e	-0.08734606
142	0xbe2ba33d	-0.16761489
143	0x3d642922	0.05570329
144	0x3b11bad7	0.002223661
145	0xbc7c7f7f	-0.015411257
146	0x3c5e819e	0.013580708
147	0xbdf4ddf4	-0.11956397
148	0x3d5314e1	0.051533584
149	0x3c2ceede	0.010554997
150	0x3d878dc9	0.0661884
151	0xbd261ea2	-0.040556557
152	0x3dc0346e	0.09385
153	0x3e07b91b	0.13254206
154	0x3bcb1c71	0.006198459
155	0xba7564b1	-0.00093610125
156	0x3d309899	0.04311428
157	0x3e2f41e5	0.1711498
158	0x3e5c4925	0.21512277
159	0x3cafbf54	0.021453537
160	0x3e29739b	0.16548006
161	0xbd1ff47e	-0.039051525
162	0x3e33427b	0.17505829
163	0x3c989fa8	0.018630818
164	0xbc2c2ba1	-0.010508449
165	0x3d205103	0.03913976
166	0xbd9bb15e	-0.076021895
167	0xbc17a2be	-0.009255109
168	0x3c14b050	0.009075239
169	0x3d333ede	0.043761127
170	0xbccb29f6	-0.024800282
171	0xbc3bf84a	-0.011472771
172	0x3d10e693	0.035376143
173	0x3d99a60b	0.07502373
174	0x3c7a53d7	0.015278778
175	0xbe39869c	-0.18117756
176	0x3ce91165	0.028450677
177	0xbe09152f	-0.13386987
178	0xbd769952	-0.06020481
179	0xbe30875f	-0.1723914
180	0xbda54f7d	-0.08071802
181	0xbd297098	-0.041367143
182	0xbdc6f315	-0.09714333
183	0xbd7a8e00	-0.061170578
184	0x3e3ab6f0	0.18233848
185	0xb9411600	-0.0001841411
186	0xbc7ae274	-0.01531278
187	0x3d10e737	0.035376754
188	0x3c304f4b	0.010761092
189	0xbd897258	-0.067112625
190	0xbbc7a111	-0.0060921987
191	0xbd88c35a	-0.06677885
192	0x3d1a682d	0.037697006
193	0x3dd8968f	0.10575592
194	0xbe10912b	-0.14117877
195	0xbdfbc91a	-0.122942165
196	0xbdb1c1fe	-0.08679579
197	0xbcfd511e	-0.030922469
198	0xbc23acfa	-0.009989971
199	0xbc75d611	-0.015004651
200	0xbd676927	-0.056496765
201	0xbe47de14	-0.1951831
202	0x3e0545ef	0.13014959
203	0x3e60c47d	0.21949954
204	0x3d42caab	0.04755656
205	0xbdde0f0e	-0.10842715
206	0xbe3cbd1c	-0.18431515
207	0x3dd1bd78	0.102412164
208	0xbcc6d6d8	-0.024272367
209	0x3d3dea77	0.04636618
210	0xbcd2a80a	-0.025714893
211	0xbcb249ad	-0.021763647
212	0x3d8af343	0.0678468
213	0xbd250e83	-0.040297043
214	0xbdc3c473	-0.09558954
215	0x38006a05	3.0616317e-05
216	0x3cd2c487	0.025728477
217	0xbdc5dbcb	-0.09661063
218	0x3c717ebc	0.0147396885
219	0x3d96adb8	0.07357353
220	0xbd2958cd	-0.041344453
221	0x3d05a683	0.0326295
222	0xbcf7f17a	-0.030266512
223	0xbd2e9a84	-0.042627826
224	0x3db069af	0.086139075
225	0x3e16c01c	0.14721721
226	0x3d1c63bc	0.03818105
227	0x3d0b5fa2	0.03402675
228	0xbe20370e	-0.15646002
229	0x3bcb5010	0.0062046126
230	0xbe089b3c	-0.13340467
231	0x3d1bff15	0.038085062
232	0xbce4ff7e	-0.02795386
233	0x3c1384be	0.009003816
234	0x3d1a5cb1	0.037686054
235	0xbd56016d	-0.052247453
236	0x3dd2c1ac	0.10290846
237	0x3d5ca6b5	0.05386992
238	0xbd9d253e	-0.07673119
239	0xbdc25307	-0.094884925
240	0xbc824f8f	-0.015907077
241	0x3d84506c	0.06460652
242	0xbd72c38d	-0.059268523
243	0x3ce1dd8e	0.027571466
244	0xbdb7ee2c	-0.089809746
245	0xbdcdb764	-0.100447446
246	0xbe2eda00	-0.17075348
247	0xbe4b1871	-0.19833542
248	0xbd1f60c4	-0.038910642
249	0xbe3f7fa5	-0.18701036
250	0x3d1e0c20	0.038585782
251	0xbcad64d6	-0.021166246
252	0xbd929f21	-0.07159258
253	0xbe239c56	-0.15977606
254	0xbe06f3f9	-0.13179006
255	0x3d750f12	0.059828825

network_body._body_endoder.seq_layers.2.bias f4 [128]
0	0xbb129616	-0.002236729
1	0xbc14ecd2	-0.0090896655
2	0x3bcfd6c4	0.0063427407
3	0x3bf59d5c	0.0074955653
4	0xbc8f6176	-0.017502528
5	0xbbe93be3	-0.0071177348
6	0x3ba517e7	0.00503825
7	0xbc8efac2	-0.017453555
8	0x3c500cbe	0.0126983505
9	0xbc3f7c09	-0.011687287
10	0x3b671c3f	0.0035264639
11	0x3cd8778d	0.026424194
12	0xbc641d85	-0.013923054
13	0x38d9174e	0.00010351707
14	0xbc8a4066	-0.01687641
15	0xbba26b69	-0.004956652
16	0x3b4fc800	0.0031704903
17	0xbc18eec3	-0.009334269
18	0xbb6d92c4	-0.003625081
19	0x3c8d5fdb	0.017257622
20	0x3bdb464a	0.0066917287
21	0xbc00188f	-0.007818355
22	0x3cc02235	0.023453811
23	0xbc85a754	-0.01631514
24	0xbb8a1a68	-0.0042145737
25	0xbc01e426	-0.00792793
26	0xbba2c222	-0.00496699
27	0xbc3ca09e	-0.0115129035
28	0xbb4d6473	-0.003134039
29	0x3ba319da	0.004977447
30	0xbc266d10	-0.010157838
31	0x3c29219c	0.0103229545
32	0x3a0e8613	0.0005436849
33	0xbc0e9d4f	-0.0087044975
34	0x3b4504cd	0.0030062676
35	0xbc2099cb	-0.009802292
36	0xbc054bdc	-0.008135762
37	0xbb7b3db7	-0.0038336345
38	0xbc4c02b9	-0.012451821
39	0x3b8b01d0	0.0042421594
40	0xbb69d141	-0.0035677704
41	0xbc8843b0	-0.016633838
42	0xbc82f399	-0.015985297
43	0x3aa8b0fd	0.001287013
44	0xbd00a77c	-0.031409726
45	0xbb029aa2	-0.0019928594
46	0x3b2fb226	0.0026809066
47	0xbb1f683b	-0.00243236
48	0xbbf8abd0	-0.007588841
49	0xbc74c867	-0.014940358
50	0xbc64df3b	-0.013969238
51	0xbb084146	-0.002079086
52	0xbc86d9a1	-0.016461195
53	0x3c2358ba	0.0099698845
54	0x3c1171bb	0.008877213
55	0xbc24f390	-0.010067835
56	0x3c3b8112	0.011444347
57	0x3bbcc44f	0.0057607065
58	0xbb593c2a	-0.0033147433
59	0xbb8fd7a3	-0.0043897196
60	0x3aaa1830	0.0012977179
61	0xbbcc2af7	-0.0062307077
62	0x3c103f34	0.008804131
63	0xbbd9ff09	-0.006652717
64	0x3b5230e5	0.00320726
65	0x3becd6d2	0.007227757
66	0xbbac86a1	-0.0052650725
67	0xbcc5cc1d	-0.02414518
68	0x3c1dc187	0.00962866
69	0xbc8c503b	-0.0171281
70	0xbc2e71bc	-0.010647234
71	0x3bf56b59	0.0074896035
72	0xbb28569c	-0.0025686389
73	0xb98bce6a	-0.00026665936
74	0xbc82611c	-0.015915446
75	0xbc7e98bb	-0.0155393435
76	0x3ba71184	0.0050985236
77	0xbc090cfb	-0.008364911
78	0xbc28d990	-0.010305777
79	0x3b4b1b8d	0.0030991763
80	0x3c80ad9e	0.015707787
81	0xbc87a43a	-0.016557802
82	0xbca9604c	-0.0206758
83	0x3b13f060	0.0022573695
84	0xbc2edbee	-0.0106725525
85	0x3b883c16	0.0041575534
86	0xbba846e2	-0.005135403
87	0xbc778076	-0.015106311
88	0xbc61307e	-0.013744472
89	0xbba06cc2	-0.0048957774
90	0xbc676200	-0.014122486
91	0x3bf85683	0.0075786724
92	0x3b89e096	0.004207681
93	0xbca1324b	-0.019677302
94	0x3b8d5eae	0.004314265
95	0xbc395d83	-0.011313799
96	0xbcb1fd24	-0.021727152
97	0x3b16598d	0.002294156
98	0xbc991859	-0.018688368
99	0x3c6476bc	0.013944324
100	0xbbc54df1	-0.006021254
101	0x3c2a4605	0.0103926705
102	0xbade9e30	-0.0016984399
103	0xbc0fbefa	-0.00877356
104	0xbc581581	-0.013188721
105	0xbc050ff4	-0.008121479
106	0xbb824e3a	-0.0039766105
107	0x3b90f828	0.004424114
108	0xbb0c8a0d	-0.002144459
109	0xbb227291	-0.0024787525
110	0x3c781a5d	0.015143004
111	0xbbd4b4ec	-0.006491294
112	0xbc1f4bd3	-0.009722668
113	0xbc057e87	-0.008147842
114	0xbc984a8e	-0.018590238
115	0xbc5d8036	-0.013519337
116	0x3b70f3ae	0.0036766338
117	0xbbdd0991	-0.006745525
118	0xbb873d43	-0.004127176
119	0x3a8432d3	0.0010085948
120	0xbbe302c8	-0.006927822
121	0xbc8981af	-0.01678547
122	0x3bd5f752	0.006529727
123	0x3bf1cb30	0.007378958
124	0xbb12a9f9	-0.0022379144
125	0xbc1bfedf	-0.009521215
126	0x3b5a23d8	0.0033285525
127	0x3b7173c5	0.0036842686

action_model._continuous_distribution.mu.weight f4 [1, 128]
0	0x3ccbfcf2	0.024900887
1	0xbc695d01	-0.014243365
2	0xbd051a4c	-0.03249578
3	0x3d02dba2	0.03194774
4	0x3b0f8c28	0.0021903608
5	0x3c0c1eed	0.008552295
6	0xbd295e68	-0.0413498
7	0xbbb52156	-0.0055276556
8	0xbc467a31	-0.012114094
9	0x3c227405	0.0099153565
10	0x3bdd187d	0.006747304
11	0xbd46ed0e	-0.048565917
12	0xbb2062e2	-0.0024473001
13	0xbcd21fc7	-0.025649918
14	0x3c9e0879	0.01929115
15	0x3ca1daaa	0.019757587
16	0x3c29c7d1	0.010362581
17	0x39bc0db5	0.00035868367
18	0xba059f6b	-0.00050973025
19	0xbd41785c	-0.047233924
20	0x3ca5e29b	0.020249655
21	0xbc88fd34	-0.0167223
22	0xbd31b005	-0.043380756
23	0x3bd47506	0.006483677
24	0xbc9ee3ff	-0.019395826
25	0x3b62cdc7	0.0034607516
26	0x3c9b2664	0.018939205
27	0x3c2924c2	0.010323705
28	0xbc70e9fa	-0.014704222
29	0xbca3651e	-0.019945677
30	0xbbbbd2d6	-0.0057319207
31	0xbcb240c0	-0.02175939
32	0x3ce48649	0.027896063
33	0x3bb950fe	0.005655407
34	0xbb9f5c18	-0.0048632734
35	0xbc250bc5	-0.010073607
36	0xbcbf1146	-0.023323666
37	0x3c56ae6b	0.013103108
38	0x3b0c2831	0.002138626
39	0x3d0da48d	0.034580756
40	0x3c0ffc25	0.008788143
41	0xba7939dd	-0.00095072185
42	0x3c1edb27	0.009695805
43	0xbcbe1efb	-0.023208132
44	0xbb479111	-0.0030451457
45	0xbcddc329	-0.027070599
46	0x3c6cca1c	0.0144524835
47	0xbcb83c4e	-0.022489693
48	0xb9b10a6b	-0.00033767833
49	0xbb8005af	-0.0039069275
50	0xbb00117e	-0.0019541676
51	0x3c4a6f55	0.012355645
52	0x3ce392b9	0.027779924
53	0x3d04fb37	0.03246614
54	0xbc8e0939	-0.017338382
55	0x3c8f8e9b	0.017524054
56	0x3ccf6ca9	0.025320368
57	0x3ce55677	0.027995331
58	0x3c0d9b37	0.008642963
59	0xbc8d8853	-0.017276919
60	0x3c40fc7a	0.011778945
61	0x3d0f772f	0.03502577
62	0xbd097393	-0.033557486
63	0xbc91927d	-0.017770046
64	0xbc8e8710	-0.017398387
65	0xbc06e615	-0.008233567
66	0xbcc607dc	-0.02417367
67	0xbb634c6a	-0.0034682998
68	0x3ce3447a	0.027742613
69	0x3b2a2338	0.0025960933
70	0x3c646ce8	0.013941981
71	0x3cb6ba65	0.022305677
72	0xbb3bc6d9	-0.0028652458
73	0xbc571404	-0.013127331
74	0xbc577ac9	-0.013151833
75	0xbabe29f3	-0.0014508351
76	0x3cba99e8	0.022778466
77	0xbb8a5db3	-0.0042225956
78	0xbbd7c333	-0.006584549
79	0xbc7208fd	-0.014772651
80	0xbcc7c6e3	-0.024386829
81	0x3b6488e4	0.0034871632
82	0x3ca03125	0.019554684
83	0xbd024d51	-0.031812016
84	0xbc98b518	-0.01864104
85	0xbc1ede96	-0.009696623
86	0xbc635311	-0.013874785
87	0xb975f9b4	-0.00023458042
88	0x3ba410f7	0.005006905
89	0x3c618841	0.013765396
90	0x3b61207d	0.003435164
91	0xbc42a093	-0.011879104
92	0x3c9fbccc	0.019499205
93	0x3ca7b314	0.020471133
94	0x3c8ec61e	0.017428454
95	0x3ba1e5a7	0.004940707
96	0x39ac6a52	0.0003288561
97	0x3c2d5fc5	0.010581915
98	0xbc160a24	-0.009157691
99	0xbcd307de	-0.025760587
100	0xba54c8de	-0.000811709
101	0x3c712b48	0.014719792
102	0x3d738fea	0.05946342
103	0xbd181c47	-0.037136342
104	0xb8970354	-7.200861e-05
105	0xbbc7ef27	-0.006101507
106	0x3cc7d710	0.024394542
107	0x3d044be1	0.032298926
108	0x3c7df77a	0.015500898
109	0x3d50b58c	0.050954387
110	0x3c76819c	0.01504555
111	0x3d477e4e	0.048704438
112	0x3b9934d7	0.0046754885
113	0x3bd9ca8d	0.0066464604
114	0x3d2437c4	0.040092245
115	0xbb0f5b77	-0.0021874586
116	0x3d14b051	0.03630096
117	0xbc4fe621	-0.012689144
118	0x3c2bc0b6	0.010482958
119	0xbc0f927d	-0.008762953
120	0x3a26d173	0.0006363608
121	0xbc02a681	-0.007974268
122	0x3cd8f96e	0.026486125
123	0x3c74ce38	0.0149417445
124	0xbc6340ee	-0.013870461
125	0xbc9bbc74	-0.01901076
126	0x3c5b6ff5	0.013393392
127	0xbc2a92c3	-0.010410967

exp_avg f4 [128, 5]
0	0x3acc102c	0.0015568784
1	0xbbae1638	-0.0053127073
2	0xbaf67901	-0.0018804373
3	0x3ccd653c	0.025072686
4	0xbbb46768	-0.005505491
5	0x3a1a2c60	0.0005881246
6	0x3a9ccf22	0.0011963586
7	0x3a31e6a3	0.0006786382
8	0x3ac1c09c	0.0014782134
9	0x3a25a0bc	0.0006318202
10	0xbbf5bae0	-0.007499084
11	0x3bc68f03	0.006059529
12	0x3bd8dbd6	0.0066180034
13	0xbd553e35	-0.05206128
14	0x3c94cbf2	0.018163655
15	0x3a1c1cec	0.00059552374
16	0xbb162f97	-0.002291655
17	0xba7ff7ff	-0.00097644323
18	0xb963107b	-0.00021654546
19	0xb99ab0ea	-0.0002950498
20	0xba8715c6	-0.0010306172
21	0xbc25682c	-0.010095637
22	0xbb027b7b	-0.0019910026
23	0xbabede1c	-0.0014562043
24	0x3be1911a	0.0068837525
25	0xbab891a0	-0.0014081486
26	0xbc5fe0c8	-0.013664432
27	0xbb3c6c40	-0.0028751045
28	0xba8858c3	-0.001040243
29	0x3c069a80	0.008215547
30	0xba20e10e	-0.00061370514
31	0xb9493aee	-0.00019190807
32	0x370120ab	7.696605e-06
33	0xbb329d7a	-0.0027254508
34	0xb9d916c6	-0.00041406433
35	0xb9a30a6e	-0.00031097553
36	0xbc33045e	-0.010926334
37	0xbb58f647	-0.0033105777
38	0xba997dc9	-0.001171046
39	0x3b7285e8	0.0037006084
40	0x3aa7585a	0.001276742
41	0x3bd72aaa	0.0065663652
42	0x3aa043d2	0.0012227243
43	0x39c9d2e3	0.0003849483
44	0xbb869ffb	-0.0041084266
45	0x38c70c21	9.4913186e-05
46	0x3afa5ecf	0.0019101741
47	0x3a6e86de	0.0009099076
48	0xba4194e7	-0.0007384554
49	0x3a910cdf	0.0011066458
50	0x39fac883	0.0004783311
51	0xbc2c94b2	-0.010533499
52	0xbac71adf	-0.0015190503
53	0x3c1e18c2	0.009649457
54	0x3c36167d	0.01111376
55	0xb7f90455	-2.968513e-05
56	0x3aded925	0.001700197
57	0x3817e392	3.6213147e-05
58	0xb96f0189	-0.00022793388
59	0xbac9ca09	-0.0015395294
60	0x3bb45536	0.005503322
61	0xbc1d89d1	-0.0096153775
62	0xbbdb0b3d	-0.0066846893
63	0x3d2949be	0.04133009
64	0xbc2e6132	-0.01064329
65	0xb9e773ca	-0.00044146023
66	0xbba7202c	-0.0051002707
67	0xbb2d14d1	-0.0026410113
68	0x3b7b2188	0.0038319547
69	0xbb8a3a36	-0.004218365
70	0xb9ac0ae6	-0.00032814516
71	0xb9a3f181	-0.00031269717
72	0xb7bc8e38	-2.2477572e-05
73	0xbac6287a	-0.0015118264
74	0xb9037d2e	-0.00012539767
75	0x37758953	1.4635111e-05
76	0x3b11a516	0.0022223643
77	0x3b1bbaeb	0.0023762535
78	0xbbe9e2d3	-0.0071376353
79	0x3befab99	0.007314157
80	0x3b51491f	0.0031934453
81	0xbc018c50	-0.007906988
82	0xbb2536b0	-0.0025209598
83	0x3d0aef42	0.03391958
84	0xbb3928ef	-0.0028253158
85	0x3bb881bc	0.0056307
86	0xb9d154c7	-0.0003992675
87	0xbb325f73	-0.0027217537
88	0x3d593bc3	0.05303551
89	0xbc88f4e4	-0.016718335
90	0x3b35cf8c	0.0027742116
91	0xb8c58bee	-9.419756e-05
92	0xba809470	-0.0009809863
93	0x3c4f71b0	0.012661383
94	0xbb39d18f	-0.0028353666
95	0x39d51ef6	0.00040649594
96	0xba52e85f	-0.000804549
97	0xb9a6d92e	-0.000318238
98	0xb94a88e0	-0.00019315211
99	0x39048ffb	0.00012642138
100	0x3aa74eaf	0.0012764538
101	0x398da452	0.00027016044
102	0xba35f792	-0.0006941493
103	0x3c6bb648	0.014386721
104	0xbbc52f23	-0.006017582
105	0x39ba8051	0.00035572288
106	0xba79617f	-0.0009513124
107	0xba164ddf	-0.00057336496
108	0xb966f9cf	-0.0002202757
109	0xb9a8efcd	-0.00032222123
110	0xbbc1e8b2	-0.005917632
111	0x3c1d2c72	0.009593116
112	0x3bb2c3fb	0.0054554916
113	0xbd0850eb	-0.033280294
114	0x3bb35cbc	0.0054737013
115	0xba13b79d	-0.00056349655
116	0xbbe07053	-0.0068493276
117	0xbaaac692	-0.0013029149
118	0xba0acbc9	-0.00052946486
119	0x3b710e2f	0.0036782136
120	0x3ae5d8db	0.0017535941
121	0xbc202705	-0.009774928
122	0xbb0ac0c0	-0.0021172017
123	0x3c2ece4e	0.010669304
124	0x3c172af1	0.009226547
125	0x39c1ef8b	0.00036990302
126	0xba68861d	-0.0008870082
127	0xbaca3d62	-0.001542967
128	0x3c4f8f1b	0.012668396
129	0xbbf5a177	-0.0074960547
130	0xb98c3c77	-0.0002674793
131	0x3b43be59	0.0029868095
132	0x3a8526d1	0.0010158663
133	0xbb8ff120	-0.004392758
134	0x3a5d46ac	0.0008441012
135	0xb88fce6b	-6.85722e-05
136	0xba64d535	-0.000872928
137	0xb87f2f64	-6.0840874e-05
138	0xb9877650	-0.00025837356
139	0x3a4d26c6	0.0007825907
140	0xb993c9ac	-0.00028188282
141	0xbaa2982f	-0.0012404973
142	0xba7f8ad8	-0.00097481674
143	0x3b7a0bdc	0.0038154041
144	0xbb58d7be	-0.0033087577
145	0xbb49f8c4	-0.0030818442
146	0x3caa9a77	0.020825608
147	0x3c0a52d5	0.0084426
148	0xbd16324b	-0.036669057
149	0x3ba3f1f7	0.0050032097
150	0x379c4c80	1.8632272e-05
151	0xb9f27494	-0.00046244694
152	0x39dee531	0.000425139
153	0xbc04a1d8	-0.008095227
154	0x3bb17212	0.0054152096
155	0xba6f9d75	-0.00091405894
156	0xbc76c4ba	-0.015061552
157	0xbb7137f2	-0.0036807028
158	0xbb2164e3	-0.0024626784
159	0x3bf181a7	0.007370192
160	0xbaf4e5ec	-0.0018684245
161	0x3c05b6ac	0.008161228
162	0x3ae2f461	0.0017315262
163	0xbc678dbc	-0.014132913
164	0xbc25035b	-0.010071601
165	0x3b616335	0.0034391407
166	0xbb5c9419	-0.003365761
167	0xbb442da0	-0.0029934421
168	0x3cf0c423	0.0293904
169	0xbc05b2c0	-0.008160293
170	0x381a4b97	3.678686e-05
171	0x3a626b4c	0.00086372043
172	0x399d36a7	0.00029986093
173	0x3b581609	0.0032972118
174	0xbb02744a	-0.001990574
175	0x398f0ee0	0.00027286168
176	0xba60f39e	-0.00085812237
177	0xb9023b25	-0.00012419799
178	0xbaa35e4b	-0.0012464015
179	0x3aba555d	0.0014216114
180	0x39503e8b	0.00019859725
181	0x3bc217ca	0.005923246
182	0x3ba39e6d	0.004993251
183	0xbcb5e68a	-0.022204656
184	0x3c73bba4	0.01487628
185	0x3b494f06	0.0030717268
186	0xb9a32f16	-0.00031124864
187	0xbaa1be24	-0.0012339992
188	0x3ca1d7f8	0.019756302
189	0xbb09e363	-0.0021040074
190	0xba66f632	-0.00088104897
191	0xbc8abe17	-0.016936345
192	0xbb9f2c23	-0.0048575564
193	0xba50ac1d	-0.0007960217
194	0x3b9ac7d4	0.0047235284
195	0xb8f75951	-0.00011794514
196	0x3a9db77c	0.0012032832
197	0x3a2d330d	0.00066070334
198	0x3aa01800	0.0012214184
199	0xb96a17a4	-0.00022324786
200	0xba7a72aa	-0.00095538294
201	0xbc13bcd3	-0.009017187
202	0xbada7c11	-0.0016669055
203	0xbb20a650	-0.0024513192
204	0x3c2957c7	0.010335869
205	0x3b32718c	0.0027228324
206	0xba3babff	-0.00071591133
207	0xbaf4e2cd	-0.0018683315
208	0x3cc7e497	0.024400992
209	0xbbcedc76	-0.006312902
210	0xb916d470	-0.00014384254
211	0xbb317fcc	-0.002708423
212	0xba3d2cdd	-0.0007216463
213	0xbbf2fc02	-0.0074152956
214	0x3b4f5c31	0.0031640644
215	0x3a18900b	0.0005819804
216	0xba058c95	-0.0005094496
217	0xb90ec71b	-0.00013616348
218	0x3a886c49	0.0010408248
219	0x3ad7fc36	0.0016478363
220	0xb9d723c9	-0.00041034658
221	0x394c618d	0.00019491297
222	0xbaedd2ca	-0.0018144485
223	0x3c943656	0.018092316
224	0xbc440770	-0.011964664
225	0x39a2e9f3	0.00031073354
226	0xbacfb731	-0.0015847442
227	0xba6a3dba	-0.00089355896
228	0x3bd9c30e	0.006645567
229	0xbaf46a9f	-0.0018647498
230	0xbb9f5d54	-0.0048634205
231	0x3ce1f9e9	0.027584987
232	0x3c4e865d	0.012605277
233	0xbd68a6de	-0.056799762
234	0x3c61ef15	0.013789912
235	0x3960bdc0	0.00021432992
236	0xbbeb9ea2	-0.0071905414
237	0xbb1dd53b	-0.0024083394
238	0xbb4057b1	-0.0029349143
239	0x3b512d49	0.0031917861
240	0xba5595bb	-0.0008147617
241	0x3bbd8837	0.0057840603
242	0x3aca8f57	0.0015454096
243	0xbcaee677	-0.021350129
244	0x3b196e26	0.00234116
245	0x3b345aad	0.0027519867
246	0xbbc71a68	-0.006076146
247	0xbb98cb16	-0.0046628816
248	0x3cada9f5	0.021199206
249	0xbc0c4493	-0.008561271
250	0xb93e7e64	-0.00018166896
251	0x3bfd2246	0.007725033
252	0x3b63331b	0.0034667912
253	0xbc279916	-0.01022937
254	0x3b8fa35b	0.004383487
255	0x380ce6bc	3.359349e-05

exp_avg_sq f4 [128, 5]
0	0x388655aa	6.405574e-05
1	0x3990a82d	0.0002759112
2	0x38d4095c	0.00010110691
3	0x3a4d3a12	0.00078287825
4	0x39c4ea38	0.0003755854
5	0x37899e3d	1.6405358e-05
6	0x3775ae21	1.46436805e-05
7	0x37676dd3	1.3794243e-05
8	0x392f9e5b	0.00016748293
9	0x3809ea53	3.2881577e-05
10	0x39a08f04	0.00030624133
11	0x3ab0e442	0.001349576
12	0x39c12966	0.00036842673
13	0x3b973b39	0.004615214
14	0x3a51d6da	0.00080047327
15	0x384081d5	4.5897283e-05
16	0x395df5de	0.00021167795
17	0x385798cc	5.1402298e-05
18	0x39104862	0.00013759875
19	0x38932114	7.0156675e-05
20	0x38665a44	5.492034e-05
21	0x39acb527	0.00032941365
22	0x38b603f9	8.679176e-05
23	0x39fdf44b	0.00048437933
24	0x397fc110	0.00024390616
25	0x38d62318	0.00010210852
26	0x3a1af94a	0.0005911781
27	0x390f123c	0.00013644336
28	0x39d1e6f7	0.0004003567
29	0x39e23212	0.00043143384
30	0x37a05b2d	1.9115943e-05
31	0x378c6206	1.6734946e-05
32	0x375b1873	1.305911e-05
33	0x38ca8a23	9.6578406e-05
34	0x3827bb11	3.9990122e-05
35	0x389b48ad	7.404513e-05
36	0x39dc494d	0.00042016283
37	0x38d418d6	0.00010113574
38	0x3a0306fc	0.0004998294
39	0x393aee21	0.00017827052
40	0x3807b733	3.2357126e-05
41	0x39395dc0	0.000176779
42	0x3807867b	3.2311753e-05
43	0x39b3c27c	0.00034286443
44	0x38e1f86d	0.00010775109
45	0x37c2db69	2.3228773e-05
46	0x38010210	3.0757918e-05
47	0x3752f993	1.2575084e-05
48	0x39b2cca1	0.00034103266
49	0x380d970e	3.37577e-05
50	0x38bc0414	8.965298e-05
51	0x39bac4db	0.00035623353
52	0x38cea85c	9.854205e-05
53	0x39a73550	0.00031892443
54	0x39d09c91	0.00039789503
55	0x37f6570a	2.9366016e-05
56	0x394e2666	0.00019659995
57	0x3860a74d	5.3561573e-05
58	0x393d1614	0.0001803267
59	0x38cdf3c5	9.820567e-05
60	0x395090d5	0.0001989038
61	0x39b72983	0.0003493541
62	0x3943c556	0.00018670163
63	0x3b4c065f	0.0031131727
64	0x3a08afd5	0.00052141893
65	0x3880a961	6.135065e-05
66	0x39a9fa49	0.0003242067
67	0x38c152a8	9.218353e-05
68	0x3a10e718	0.00055276
69	0x395660a3	0.0002044463
70	0x37c2b8e2	2.3212695e-05
71	0x37a2e66b	1.9419202e-05
72	0x370d0f6d	8.4078465e-06
73	0x3a1f8889	0.0006085714
74	0x385d3d92	5.2747848e-05
75	0x391dcf45	0.000150499
76	0x3919f593	0.000146827
77	0x39040595	0.0001259058
78	0x3a254bcd	0.00063055457
79	0x3964b1c0	0.00021809991
80	0x38d21be5	0.00010018776
81	0x39a9e404	0.00032404077
82	0x38cd7a37	9.797926e-05
83	0x3abe7779	0.0014531455
84	0x39f66e2c	0.0004700286
85	0x39806899	0.00024491994
86	0x398c7c0c	0.00026795303
87	0x392ec4c4	0.00016667234
88	0x3b725e27	0.0036982389
89	0x3a4c0dcb	0.0007784038
90	0x3882f0af	6.243714e-05
91	0x387e8fa4	6.0692095e-05
92	0x383c44b8	4.4886692e-05
93	0x3a492544	0.00076730945
94	0x38b1a2ba	8.470328e-05
95	0x37918f3a	1.7352042e-05
96	0x3840bb08	4.5950554e-05
97	0x377bf2dd	1.5017312e-05
98	0x38d1d825	0.00010006157
99	0x37ceb7c9	2.4642695e-05
100	0x37b85ae7	2.1976839e-05
101	0x379d6dec	1.8767045e-05
102	0x37cfc6f8	2.4768975e-05
103	0x399b848d	0.00029662662
104	0x3882d82e	6.23915e-05
105	0x379f50a8	1.8991836e-05
106	0x38010f9e	3.077054e-05
107	0x3750645f	1.2421136e-05
108	0x38c1e657	9.245861e-05
109	0x382da948	4.140407e-05
110	0x39aa5638	0.00032489165
111	0x3a1656f2	0.0005735002
112	0x3960f078	0.00021451886
113	0x3b2ad5cd	0.0026067377
114	0x3a178e6b	0.0005781415
115	0x3885f522	6.387594e-05
116	0x39e8716e	0.00044335
117	0x38f0a43d	0.000114746836
118	0x3a0ad6fc	0.00052963174
119	0x392f7b99	0.00016735344
120	0x38c8255a	9.5437004e-05
121	0x39be3644	0.00036280055
122	0x38c6b5d5	9.4752446e-05
123	0x3a26c923	0.0006362369
124	0x3985a53e	0.00025490852
125	0x38cc3dc7	9.738985e-05
126	0x39906405	0.0002754034
127	0x39051e76	0.00012695216
128	0x3aa9558d	0.0012919173
129	0x39929370	0.0002795714
130	0x373dc8f8	1.131207e-05
131	0x38f0f0f0	0.0001148897
132	0x37d71e32	2.5644058e-05
133	0x3823b9b4	3.9035178e-05
134	0x3822bf5e	3.8802034e-05
135	0x372747dc	9.970707e-06
136	0x381153fc	3.464891e-05
137	0x37535ab5	1.2597699e-05
138	0x390481f8	0.00012636918
139	0x3817b59d	3.6170346e-05
140	0x37d10f89	2.4921976e-05
141	0x38d29dfa	0.00010043006
142	0x3824c03d	3.9279683e-05
143	0x3905eb63	0.00012771557
144	0x389d8dd0	7.512758e-05
145	0x395067a7	0.0001987504
146	0x3aa7ba7c	0.0012796666
147	0x39ca1823	0.00038546426
148	0x3aebfb12	0.0018003902
149	0x3a73a17d	0.0009293778
150	0x3689d689	4.1078933e-06
151	0x37b6bf9b	2.1785314e-05
152	0x370b489b	8.30195e-06
153	0x3813cb46	3.5236844e-05
154	0x37941023	1.765049e-05
155	0x3914a0a7	0.00014174228
156	0x3a775bb9	0.000943597
157	0x396e9a5b	0.0002275495
158	0x3abd1854	0.0014426806
159	0x39c8cdb4	0.00038300233
160	0x380b4478	3.320395e-05
161	0x3960b85c	0.00021430984
162	0x383f923a	4.5674133e-05
163	0x3994ae52	0.00028358639
164	0x3985e30f	0.0002553691
165	0x38b0db06	8.43313e-05
166	0x39131f88	0.00014030759
167	0x389cde90	7.480115e-05
168	0x3a7c48d0	0.0009623887
169	0x39545edb	0.00020253232
170	0x37d70ae9	2.5635078e-05
171	0x3887ff5f	6.484868e-05
172	0x38239d3c	3.9008664e-05
173	0x39636153	0.00021684663
174	0x3874773d	5.8285183e-05
175	0x385e4af2	5.2998723e-05
176	0x3894bc1e	7.0922295e-05
177	0x380139b0	3.0809722e-05
178	0x3a0ec40c	0.00054460834
179	0x3887b424	6.4708554e-05
180	0x38f2d619	0.00011579338
181	0x39d46ec7	0.00040518327
182	0x3918be1f	0.00014566675
183	0x3a9ba07c	0.001187339
184	0x39aae059	0.0003259208
185	0x38583c85	5.1554776e-05
186	0x38ba66a3	8.888289e-05
187	0x381bd109	3.714956e-05
188	0x39f236e4	0.00046198734
189	0x38baadb7	8.901528e-05
190	0x38e489d8	0.000108975626
191	0x3a631879	0.00086630095
192	0x396788d8	0.00022080855
193	0x3a76c840	0.0009413995
194	0x39d06529	0.00039748222
195	0x38ae4734	8.310229e-05
196	0x38db5aa5	0.000104596176
197	0x38faefab	0.000119655706
198	0x397d0276	0.00024128877
199	0x38e2dc03	0.000108175
200	0x371d9969	9.393648e-06
201	0x391d136c	0.00014979922
202	0x37c266fa	2.3174554e-05
203	0x395a365c	0.0002081035
204	0x3864c06f	5.4538654e-05
205	0x383926fd	4.4143748e-05
206	0x38244d8c	3.9172868e-05
207	0x37be77fc	2.2705637e-05
208	0x3a421ce3	0.0007404817
209	0x38dad314	0.000104343664
210	0x376b5014	1.4025736e-05
211	0x382ff607	4.1952382e-05
212	0x3789f118	1.644394e-05
213	0x38dc6d8b	0.000105108214
214	0x382ed87d	4.1686453e-05
215	0x36af41f1	5.223083e-06
216	0x36cde2a3	6.13586e-06
217	0x366763b3	3.4479715e-06
218	0x3805df67	3.191773e-05
219	0x371b7e56	9.268135e-06
220	0x38ab57cc	8.170269e-05
221	0x38fbb756	0.00012002762
222	0x386fd422	5.7179604e-05
223	0x3a3de45f	0.0007243808
224	0x3927dd71	0.00016008854
225	0x37029a70	7.784562e-06
226	0x380b6874	3.3237462e-05
227	0x36fdb2a0	7.5607823e-06
228	0x38a5beb7	7.9033365e-05
229	0x37e9665b	2.7823427e-05
230	0x3a315e6d	0.00067660847
231	0x3b31de8c	0.0027140705
232	0x3a78671b	0.0009475813
233	0x3bc26b11	0.0059331735
234	0x3b0125b6	0.0019706315
235	0x389cf3fa	7.484104e-05
236	0x39ae8fbd	0.0003329496
237	0x38d465a7	0.00010127882
238	0x3a3c01bd	0.000717189
239	0x390bdba2	0.00013337893
240	0x38e6bb24	0.00011002112
241	0x3998bf46	0.0002913421
242	0x38f25f68	0.0001155723
243	0x3a228407	0.0006199483
244	0x398f5654	0.00027339405
245	0x389ca180	7.4687414e-05
246	0x39908d4e	0.000275711
247	0x392401f0	0.0001564098
248	0x3a40a85a	0.0007349305
249	0x3997b71a	0.00028937386
250	0x380644a8	3.201203e-05
251	0x399baa5f	0.0002969084
252	0x38935b77	7.026543e-05
253	0x39834fb4	0.0002504565
254	0x39090e11	0.00013070578
255	0x37cda925	2.4516668e-05

exp_avg f4 [128]
0	0x3b6c60e4	0.0036068494
1	0xba2587fb	-0.0006314513
2	0xbbd70a9c	-0.006562544
3	0x3a09f4ce	0.0005262614
4	0x3a8dba2e	0.0010812932
5	0x3b0430ce	0.0020170691
6	0xb96ad780	-0.00022396259
7	0x3ad6ecf4	0.0016397522
8	0xba5afe82	-0.00083539647
9	0xba11fca0	-0.0005568955
10	0x3af5ad32	0.0018743633
11	0xb895d3d4	-7.14433e-05
12	0x3bc0c603	0.00588298
13	0x3a876586	0.0010329939
14	0x36a1db30	4.8236907e-06
15	0xbab5b0db	-0.0013861911
16	0x3b91b93d	0.004447131
17	0x3bbc89fd	0.005753754
18	0x3ab739b3	0.0013978988
19	0x3950b200	0.00019902736
20	0x3adc849d	0.001682419
21	0x3974f8d2	0.00023362346
22	0xbbb8c20d	-0.005638367
23	0x3a6b2c40	0.00089711323
24	0x3b057f8f	0.002037022
25	0x3a9023bb	0.0010996977
26	0xba460531	-0.0007553874
27	0x383c9629	4.496254e-05
28	0x3a008028	0.0004901909
29	0xbbe7c98c	-0.007073587
30	0xba893243	-0.001046725
31	0x3af9174f	0.0019004139
32	0xbb020478	-0.001983909
33	0x3b4c2f52	0.0031156135
34	0x391a0bf2	0.00014691034
35	0xb9258c37	-0.0001578786
36	0xbb83780a	-0.0040121125
37	0x3afe2cd6	0.0019392024
38	0x3b180a7e	0.0023199613
39	0xb949064a	-0.00019171197
40	0x39032f49	0.00012510749
41	0x3b2bd0bc	0.0026216945
42	0xba0944e9	-0.00052364037
43	0xb8062e76	-3.199136e-05
44	0x3b157719	0.0022806583
45	0x3a8a7bc4	0.001056545
46	0xbc32a408	-0.010903366
47	0x3a2a122e	0.00064876943
48	0xbb3793bf	-0.0028011648
49	0x3b54e6a8	0.0032486115
50	0xbb1817ce	-0.0023207548
51	0xbb2d8ce5	-0.0026481685
52	0xbb097f77	-0.0020980516
53	0xbb6d04ba	-0.0036166147
54	0xb7489649	-1.195592e-05
55	0xb959c5a3	-0.00020768358
56	0x3b0264f4	0.0019896599
57	0xb8c68fd5	-9.4681665e-05
58	0xbac05eaa	-0.001467665
59	0x3a619406	0.0008605126
60	0xbb06b05f	-0.0020551903
61	0xbb92969a	-0.0044735195
62	0x3be19da9	0.0068852496
63	0x3b79046b	0.0037997018
64	0xbaad6b44	-0.001323082
65	0x3b116373	0.002218452
66	0xbb3356c6	-0.0027364953
67	0xbb06d76b	-0.0020575176
68	0x39c529e4	0.0003760598
69	0xb9589ca7	-0.00020657723
70	0xbbb2a1e0	-0.005451426
71	0xbaaaa9f4	-0.0013020621
72	0xbb9f746b	-0.004866173
73	0x39cde21b	0.0003926911
74	0xb8ca6167	-9.650253e-05
75	0x3b082961	0.0020776617
76	0x3b701ee8	0.0036639515
77	0x3b6b7718	0.003592914
78	0xba3115bc	-0.0006755253
79	0x39a2cee4	0.00031053193
80	0x39729ee6	0.00023138113
81	0x39e550c4	0.0004373846
82	0xbb8cb895	-0.004294465
83	0x3a636cc5	0.0008675571
84	0xba788d85	-0.0009481537
85	0xbbae92a6	-0.0053275404
86	0xb9993d45	-0.00029228083
87	0xb9028dce	-0.00012450592
88	0xb9d87b6a	-0.0004129068
89	0x3bc51140	0.0060140193
90	0xba8d672e	-0.0010788196
91	0xb9678207	-0.00022078316
92	0x3ae6d39b	0.0017610671
93	0x3b8cb6fa	0.0042942734
94	0x3b51f9cb	0.0032039757
95	0x3a18b25d	0.0005824918
96	0x3a967b0b	0.0011480761
97	0x39ee8f9f	0.00045501904
98	0x3a477e3a	0.0007610057
99	0x39a5ca42	0.00031621946
100	0xb8d76129	-0.000102700964
101	0x3aba9d1a	0.0014237494
102	0x3ab0e579	0.0013496123
103	0x3a277d97	0.0006389259
104	0x39af4bbb	0.00033435025
105	0x392a16c2	0.00016220941
106	0x3abcde6e	0.0014409551
107	0xba76a072	-0.00094080635
108	0x3b02c3e1	0.0019953179
109	0x3a4132e6	0.000736995
110	0x3b5775ce	0.0032876614
111	0x395673bf	0.00020451749
112	0x3a1808f8	0.00057996763
113	0xbb48d7d1	-0.0030646215
114	0x3a43abe5	0.0007464274
115	0xbacfb18a	-0.0015845757
116	0xbb6a4617	-0.0035747343
117	0xb72a95cd	-1.0167668e-05
118	0x3a23f3e9	0.0006254302
119	0xb9bc96df	-0.00035970562
120	0x3b486708	0.003057899
121	0xb8adedeb	-8.2935985e-05
122	0x3b2694a3	0.0025418184
123	0xbb0fbe4a	-0.002193349
124	0x3ab35ed6	0.001368488
125	0x391bab3d	0.00014845743
126	0x3bd79635	0.0065791854
127	0x3b25f829	0.0025324917

exp_avg_sq f4 [128]
0	0x378eb410	1.7011567e-05
1	0x3679ae62	3.7205396e-06
2	0x38a4a7b9	7.85137e-05
3	0x371a1c4d	9.185705e-06
4	0x376ee49f	1.4239135e-05
5	0x37bdfd93	2.2648635e-05
6	0x36517da5	3.1216562e-06
7	0x379641c4	1.7912018e-05
8	0x36fab40d	7.4715413e-06
9	0x3694308c	4.4163953e-06
10	0x379541ad	1.7792767e-05
11	0x36e61832	6.857351e-06
12	0x382ebd11	4.1660915e-05
13	0x378e9a21	1.6999491e-05
14	0x36c68982	5.916868e-06
15	0x37bda36f	2.260666e-05
16	0x37c9bc84	2.4048852e-05
17	0x3850fe13	4.982769e-05
18	0x373717b7	1.09131715e-05
19	0x3639e43c	2.7699998e-06
20	0x36a522dd	4.921442e-06
21	0x36561c29	3.1904876e-06
22	0x38596eb1	5.183992e-05
23	0x37838442	1.5678004e-05
24	0x37903091	1.7188753e-05
25	0x37c7bb51	2.3809875e-05
26	0x3671e530	3.6045203e-06
27	0x363abcbe	2.7826022e-06
28	0x36cdd8fe	6.1347373e-06
29	0x3878893c	5.9255617e-05
30	0x35c88a3a	1.494139e-06
31	0x382512d5	3.9356604e-05
32	0x37089c07	8.14256e-06
33	0x379141d7	1.7316006e-05
34	0x36ab8ccb	5.1125876e-06
35	0x370a8b63	8.2578945e-06
36	0x37e29d8a	2.701466e-05
37	0x3718276b	9.069084e-06
38	0x3805d165	3.1904685e-05
39	0x3769f342	1.394452e-05
40	0x36a529c4	4.9222454e-06
41	0x37156a87	8.905895e-06
42	0x364c488b	3.0440594e-06
43	0x354f4909	7.721979e-07
44	0x3770a186	1.4342722e-05
45	0x35dc43fb	1.6411062e-06
46	0x391e802c	0.00015115802
47	0x378f3437	1.7071243e-05
48	0x379c6c53	1.8647092e-05
49	0x37b39845	2.1409369e-05
50	0x372e20a7	1.0378811e-05
51	0x36d907b0	6.467999e-06
52	0x37652a5f	1.3659329e-05
53	0x386b8fa1	5.616213e-05
54	0x36a43c47	4.894598e-06
55	0x36c272cc	5.7950147e-06
56	0x36f12cd0	7.1875766e-06
57	0x357d89e6	9.4450513e-07
58	0x370db0a2	8.44538e-06
59	0x36c03d1e	5.729161e-06
60	0x380e3d2d	3.3912413e-05
61	0x382418c0	3.9123697e-05
62	0x388be3d0	6.67047e-05
63	0x37b11158	2.110812e-05
64	0x36b2d138	5.3291697e-06
65	0x372ca98e	1.0291476e-05
66	0x3781cb1a	1.5472575e-05
67	0x36f82f68	7.3964948e-06
68	0x3662af01	3.377849e-06
69	0x37ae2d51	2.0763518e-05
70	0x38909b31	6.895362e-05
71	0x3680820b	3.8298363e-06
72	0x37bfd324	2.2867294e-05
73	0x36ba1f12	5.546849e-06
74	0x368093a1	3.8318835e-06
75	0x37eaf145	2.8007324e-05
76	0x37ed8bc3	2.8317683e-05
77	0x382f404f	4.1783143e-05
78	0x35933f18	1.0970716e-06
79	0x36e3de51	6.791008e-06
80	0x361924e5	2.2820252e-06
81	0x374fcfbd	1.2386529e-05
82	0x38987d14	7.2712224e-05
83	0x3730146d	1.0495173e-05
84	0x36b2154a	5.3072918e-06
85	0x3867f138	5.5299344e-05
86	0x352bd171	6.400724e-07
87	0x362cf87e	2.5774639e-06
88	0x36947fcb	4.425621e-06
89	0x3857e831	5.147624e-05
90	0x375fe2dc	1.3344656e-05
91	0x366ea4d9	3.5560718e-06
92	0x376d0c3c	1.4129149e-05
93	0x37f47bcd	2.9144716e-05
94	0x37bdd9f4	2.2632048e-05
95	0x37013dd7	7.703397e-06
96	0x37564133	1.2770574e-05
97	0x372305a3	9.7168695e-06
98	0x37c27d32	2.31849e-05
99	0x3757c56d	1.2860965e-05
100	0x3657ddf0	3.2166681e-06
101	0x36c67859	5.91487e-06
102	0x36ae39de	5.1923407e-06
103	0x37ddd041	2.6442229e-05
104	0x374eed7a	1.2333849e-05
105	0x368d2790	4.206733e-06
106	0x383da05f	4.521047e-05
107	0x36bfb371	5.7131333e-06
108	0x36dd2951	6.591123e-06
109	0x3619c24a	2.2911868e-06
110	0x37ceb9b9	2.4643597e-05
111	0x3642a43b	2.9003847e-06
112	0x36592319	3.235595e-06
113	0x381f0a36	3.7918064e-05
114	0x37ad0ed7	2.0630117e-05
115	0x373c65d8	1.1229386e-05
116	0x3842b3c1	4.6420613e-05
117	0x361f16e4	2.370617e-06
118	0x363f10ae	2.8470927e-06
119	0x36fcd58d	7.535046e-06
120	0x379ea273	1.8910714e-05
121	0x35560c6f	7.9739306e-07
122	0x373934c9	1.1039149e-05
123	0x38088875	3.2552012e-05
124	0x36caaf41	6.0404714e-06
125	0x355d6d5e	8.2488066e-07
126	0x3836abb3	4.355209e-05
127	0x382651d7	3.9653703e-05
