Assets/IA/Pruebas/results/Pad10/PadBehavior/PadBehavior-20864.onnx (onnx, 75090 bytes, 5 tensors)

network_body._body_endoder.seq_layers.0.weight f4 [128, 7]
00000000: 36fe 44bf bafc 5e3f 2a69 b23e 4457 353f
00000010: d7fb 57be 6bdf dfbe 2b47 3d3e 0399 e23e
00000020: 9b83 3c3f 50b2 113e bac8 83be c517 7c3e
00000030: 167d 783e fe29 c0ba 996c 99be 8e4b 8e3e
00000040: 9d7e c53c dc45 c4bc b78a 60bf 44d6 82be
00000050: b296 3dbe 4ab9 cbbe da6a 793e 1ba5 a1be
00000060: 937a d9bc 461d d2be 200f 1a3e 75c8 78be
00000070: 9835 85be c429 dfbc 62ce 7bbe 41d2 7a3e
00000080: fabb 26bd 0018 8abe 4f44 6fbe 99ec 1f3d
00000090: 93f5 c03e 3ce4 9ebe 01bf 1fbf d33c 4b3f
000000a0: cbe5 0c3e 614a 7c3e 48dd 23bf 6601 413f
000000b0: 49bb 55be 42c3 69be c666 743d 02a6 a23e
000000c0: 3b17 8dbe da99 b5bd 44ef 303e 17a1 20bf
000000d0: abb8 b93e 9ad5 0bbf cd0f 97be bbfa a3bd
000000e0: db64 1d3e ca6d f9bd 3154 87be 7f1a e93d
000000f0: 8e97 8fbe a0fe 4a3f c609 02bd 979c 173b
00000100: 380c 16be 3401 3d3e e58c 393e 9359 81be
00000110: add2 4e3e 7620 22bf e9c5 1d3f c348 253e
00000120: 1e2b aebe 7a20 28bf 7a89 28bf dffc a73e
00000130: e734 a9be d42b b33e 8d48 7a3e e12a efbe
00000140: c4e8 e2be 451e efbe 8c4b 4d3e 8d7f 0abf
00000150: 2b84 00bf 6a55 503f 8427 203f 6ca7 3cbf
00000160: 7c0b 93be 9b32 89bd c673 0a3c 9665 c83d
00000170: f48f 8d3e d428 443e 99eb ac3e a779 ebbe
00000180: 4b51 66be a42c c33d 0135 983f 72b5 52be
00000190: 8db2 c33e f5ed b5be d6cf 763e 6fdd 06bf
000001a0: 9f3f 8bbf 08c7 2ebf 985a 5cbe a401 22be
000001b0: b3b7 a9be 4f3a b0bd 1029 57be 2cb3 053e
000001c0: 6f86 1b3e 687a 6dbd 522a e43e fa98 3a3e
000001d0: e622 fa3e af84 d83e 7307 923e b45d 22bf
000001e0: 8648 1cbf d6e9 45bf 633e 16bf d245 1bbe
000001f0: 1154 953d d14f c6bd 8e6a 97bd 32f6 99be
00000200: 4790 993d 02ff 183f 8ac4 e83e 28e4 f63d
00000210: 6112 15bf fb2d adbe 6487 2b3d 0dfa e0be
00000220: 5ec2 70be 6ea9 d2be eda3 a33c beaa 39bd
00000230: 4f40 1c3f 91da abbe 63ef 663f 2175 aabe
00000240: b325 2b3e 9e31 ddbe d98b 2b3e db13 823e
00000250: 8ee2 31bf 585b 5e3e b305 4bbf 2d09 d53e
00000260: 14a1 b23e d3dd a9bd bd25 253f 1339 d43d
00000270: 626a e13e 655a 8f3e ca1e 8cbe 207d cc3e
00000280: 2152 7c3e 073d 83bf db3e dc3c 09a0 5abe
00000290: 5506 0fbf 1309 4bbe 194d 9c3f b5dd aa3e
000002a0: a2bf 0b3f 2542 8f3e 687f 163f c2b0 29be
000002b0: 4862 94be f3cf 8ebd d938 493e 767b 8dbe
000002c0: 991a fdbe 6014 a7be df0d e7bd bd41 4a3d
000002d0: 9d5d 42bf 4ec6 1fbf 59e9 3d3d 74c8 5dbe
000002e0: 81e9 3d3f c7d8 1c3d c721 81bc f19d 4f3f
000002f0: b1c5 09be 5da4 e0be 56aa 8cbe 5713 3ebe
00000300: 4294 8bbd c375 a3be b6bf 293e 23a1 dabd
00000310: 8196 99be 067a 683e 41b9 32bf 36ec a73e
00000320: 426c bfbd 4da0 18bf 220a 47bd d6f2 6dbe
00000330: 7050 92bb c7f5 a4bd 0cff 9cbe 8c09 9fbd
00000340: 00a9 b5be cd70 0b3e bf25 5bbf d33f 053d
00000350: 4dac 383e 9001 c33e 490a 443d 83ba 85be
00000360: eaac adbe 3462 d93c b44d 9f3e 6d40 b6be
00000370: 8625 533f 19ac b2be 0509 e9bd 9ea4 993e
00000380: 45ba 1ebf 9b52 d33d a6f8 e5be 675f 003f
00000390: 0cf5 cb3e 7d8f dbbe b4b9 edbc c64d ebbc
000003a0: 04ed 613e 12ca 303f b25b db3e 4f7e 10bf
000003b0: 1aab b03e 8def 00be 32a0 81be 7e4c f7be
000003c0: 0cc0 93be 090b 1bbf b382 ab3e 628a 48be
000003d0: a657 9abe 79bb 913d bd23 73be 2e04 d7be
000003e0: 3c94 6d3e 22cd 2bbe 89a6 99be add0 b53e
000003f0: a792 0abe 242d 25bd bb4b 9c3e 8424 023e
-0.76950395 0.8710438 0.3484586 0.7083628 -0.21092163 -0.43725142 0.1848418 0.44257364
0.73638314 0.14228177 -0.2573908 0.24618442 0.24266466 -0.0014660952 -0.29965666 0.2779202
0.024108225 -0.023959093 -0.8771166 -0.25554097 -0.18514517 -0.39789802 0.24357167 -0.31571278
-0.026547706 -0.4103796 0.15044832 -0.24295218 -0.2601745 -0.027241595 -0.24590448 0.24494268
-0.040706612 -0.26971436 -0.23365901 0.039043996 0.37687358 -0.31033504 -0.62400824 0.79389685
0.13759534 0.24637748 -0.64009523 0.7539276 -0.20872225 -0.22828391 0.059668325 0.3176728
-0.27556786 -0.088672355 0.17278773 -0.62745804 0.36273703 -0.54622805 -0.29504243 -0.080068074
0.15370505 -0.12179144 -0.2643142 0.11382007 -0.28045315 0.79294777 -0.031747602 0.0023134106
-0.14653099 0.1845749 0.18120153 -0.25263652 0.20197554 -0.6333078 0.6163011 0.16141038
-0.3401727 -0.65674555 -0.6583477 0.32810113 -0.33048174 0.34994376 0.24441738 -0.46712402
-0.4431821 -0.4670278 0.2004835 -0.5410088 -0.5020167 0.8138033 0.62560296 -0.73692966
-0.287197 -0.06699105 0.008450454 0.09785001 0.2764889 0.191562 0.33773497 -0.4599125
-0.22491948 0.09529999 1.1891176 -0.20577028 0.3822216 -0.3553311 0.2410272 -0.5268163
-1.0878791 -0.6827245 -0.21518934 -0.15820938 -0.33147964 -0.086048715 -0.21011758 0.1305663
0.15188001 -0.057978064 0.44563538 0.18222418 0.4885475 0.4228873 0.28521308 -0.6342423
-0.6104816 -0.7730993 -0.58688945 -0.15163353 0.07291425 -0.096831925 -0.073933706 -0.30070645
0.07498222 0.5976411 0.45462447 0.12055236 -0.5823117 -0.33824143 0.041877165 -0.43940774
-0.23511645 -0.4114489 0.019975627 -0.045328848 0.6103563 -0.3356519 0.90209025 -0.33292487
0.167136 -0.43201917 0.16752566 0.25405774 -0.6948632 0.21714532 -0.7930557 0.41608563
0.34888518 -0.08294263 0.6451071 0.103624485 0.44026476 0.27998653 -0.2736724 0.39939213
0.24640705 -1.0252999 0.02688544 -0.21350111 -0.55869037 -0.1982768 1.2211028 0.33372274
0.54589283 0.27980152 0.58788157 -0.16571334 -0.28981233 -0.06973257 0.19650592 -0.27633256
-0.49434355 -0.32632732 -0.112819426 0.0493791 -0.7592409 -0.62411964 0.046365116 -0.21658498
0.74184424 0.038292672 -0.015763177 0.81100374 -0.1345432 -0.438754 -0.27473706 -0.18562065
-0.06815387 -0.31925783 0.16577038 -0.10675266 -0.29997638 0.22702798 -0.69813925 0.32797402
-0.093468204 -0.596196 -0.048593648 -0.23237166 -0.0044651553 -0.08054691 -0.30663335 -0.07765493
-0.354805 0.13617249 -0.8560447 0.03253157 0.18034478 0.3808713 0.04786137 -0.2611886
-0.33920985 0.026536085 0.3111397 -0.35596028 0.8247913 -0.34896925 -0.113786735 0.30008405
-0.62002975 0.1031849 -0.44916266 0.5014557 0.39835393 -0.4288291 -0.029019214 -0.028723609
0.2206307 0.69058335 0.42843395 -0.5644273 0.3450554 -0.12591381 -0.25317532 -0.48300546
-0.28857458 -0.60563713 0.33498153 -0.19584039 -0.30144995 0.07115836 -0.23744102 -0.41995376
0.23201078 -0.1677747 -0.3000987 0.3551077 -0.13532506 -0.040326253 0.30526528 0.12709242

network_body._body_endoder.seq_layers.0.bias f4 [128]
00000000: a899 c3bc c203 97bc 1e2f e2bb 4223 67b8
00000010: b0a0 58bc 5f1d 7abc 753d b5b8 8117 82bc
00000020: 97eb 4dbd 38cf 33bd b2f0 91bb 6847 9739
00000030: 6875 29bc 0dee e7bc c1d4 93bc 08bf 8fbb
00000040: f9c3 9ebc f380 8f3d cef1 bebb 2bdc 3b3d
00000050: be47 64bc 4a45 06bd 99c3 c7bb 0558 acbc
00000060: a24c 783c 957e 40bc f0ca 3ebc 20cc 1e3b
00000070: 5747 38bc 0e81 4fbd 5d2e eb39 f35c 63bc
00000080: 2938 86bb 47ef 1cbd ff19 dbbc 94a7 dabc
00000090: 7757 49ba 85ac 113d cf1c 87b9 5728 38ba
000000a0: 2b6e 4dbc b6cd 57bd dc34 9ebc 7b42 88bb
000000b0: 66b4 74bc 2322 4abd ac23 2839 7fc4 b63c
000000c0: d1ea bfbc 3240 b8bc d0b6 56bb 9415 613c
000000d0: 5fce c4bc d8c8 9dbc d803 b1bc 3326 e33c
000000e0: 313b 42bc 5e30 febb ac69 143d 24e4 253b
000000f0: 9b65 d73b e3a6 4dbd fbd5 333d 7f3f b3b9
00000100: d169 d3bb c79f e6bc b179 1abb 6cc7 e6ba
00000110: 8a39 14bd 3291 77bd 0d66 c2bb b98c 41bc
00000120: adc2 323d 941a 90bc d6bf e93b 7b5d 90bb
00000130: 155a 7dbd dd07 89bc c2e9 05bd d041 a83c
00000140: 6cbf 05bd 4028 823c 260a 04bd fa88 fcbb
00000150: 62fa 7eb9 5411 a5bc 2e1d 9cbb 546f 113c
00000160: e944 93bb 334a c93b 19c4 abbb 6a57 40bc
00000170: a0dd 09bd 13ed f43c 5ae8 79bc a5eb 8fbd
00000180: 283b 013d b2cb a1bc 4fd2 33bb 4201 60bd
00000190: 8d20 b7bc 10df 3a3d a517 3ebd 9b5a 4dbc
000001a0: 8f88 1abd de9a 0ebd e5e0 e53c 318c b7ba
000001b0: 65eb fbbb e514 fdbc 82a1 d03c 5a57 b2bc
000001c0: 2ae1 c0bc 538b e2bb 8d85 a7bb ac9f dfbc
000001d0: f68d 0fbd 30fb 2ebc 38fd 00bd 3a92 37bd
000001e0: 2a13 93bd 6261 b2bc 26d1 e5bc f3c6 1cbd
000001f0: 641b cabc 76ec 19bd b941 ebbc 7a12 c2bc
-0.02387698 -0.018434409 -0.0069025895 -5.5107528e-05 -0.013221905 -0.015265792 -8.6422e-05 -0.015880348
-0.050273504 -0.04389879 -0.004453742 0.00028854166 -0.010342933 -0.028311754 -0.018045785 -0.0043867864
-0.019380556 0.07007017 -0.005827165 0.045864265 -0.01393312 -0.032780923 -0.006096315 -0.021038065
0.015154989 -0.0117489295 -0.011645064 0.0024230555 -0.0112474775 -0.050660186 0.00044857236 -0.013877141
-0.0040960503 -0.03831413 -0.026745794 -0.026691236 -0.0007680575 0.035564918 -0.0002577067 -0.0007025054
-0.012538473 -0.052686416 -0.019312315 -0.0041583157 -0.014935588 -0.04934896 0.00016035017 0.022310494
-0.023427399 -0.022491548 -0.0032762773 0.013738055 -0.024024187 -0.019260809 -0.021608278 0.027728176
-0.011854933 -0.0077572307 0.03623359 0.0025312984 0.0065733916 -0.050207984 0.04390524 -0.0003418885
-0.0064518233 -0.02815236 -0.002357107 -0.001760704 -0.036187686 -0.060441203 -0.0059325756 -0.011813336
0.04364269 -0.017590798 0.0071334643 -0.004405675 -0.061853487 -0.016727382 -0.032693632 0.020539194
-0.032653257 0.015888333 -0.03223624 -0.0077067586 -0.00024316603 -0.020149864 -0.0047642207 0.00887664
-0.0044942987 0.0061428784 -0.0052418825 -0.011739591 -0.033658624 0.029898202 -0.015253151 -0.070273675
0.031550556 -0.01975045 -0.0027438586 -0.0546887 -0.022354389 0.045622885 -0.046409268 -0.012533809
-0.03772789 -0.03481566 0.02806134 -0.0014003572 -0.0076879733 -0.030893752 0.025467638 -0.021770168
-0.023544867 -0.0069135814 -0.005112356 -0.027297817 -0.035047494 -0.010680005 -0.03149149 -0.044817187
-0.0718139 -0.021774951 -0.028053831 -0.03827567 -0.024671264 -0.037579022 -0.028717862 -0.023690451

network_body._body_endoder.seq_layers.2.weight f4 [128, 128]
00000000: 610e 68bc c037 d33b 6566 f8bd 44c9 69bd
00000010: 9381 b43d e867 de3d 83a2 083e 1f62 1cbe
00000020: 57af 2fbc c10b eb3c 2493 ccbb d0a4 5d3d
00000030: 82d6 f43c 1277 c63d 840b d1bd b560 823d
00000040: 4de4 74bd fe88 01be baec fcbd 0291 83bd
00000050: 982c 9f3d 029a 8f3d 869a ffbd bc1b 5cbd
00000060: 2d97 cebc dbbc cb3c a22e bb3d ec3c 943d
00000070: 090e a13a 386a a03c f32b f43d 5b7b dabc
00000080: 960d 54bd 7381 aebd 0760 e4bc 3345 7ebc
00000090: 6e41 c5bd 4545 29be c8ca de3c fa25 dfbd
000000a0: d55d 6b3d a4e2 23bd a7fb 7bbc e57a ae3d
000000b0: 28c2 5a3d 2d7f 6dbd 8737 17be 184b afbc
000000c0: 0653 7fbd 2686 21bc bf35 f53d f71f 743e
000000d0: 1984 0cbe 6b42 3abd 83a9 d83d ec84 fd3d
000000e0: cb0f 2b3d 6717 433e cb82 20be acf8 c3bd
000000f0: d83a 443e 75ca ebbd c34f 273e 1d2c 0fbc
00000100: 306d 9b3d e395 b23d a354 2b3d 46ac 843d
00000110: 818d 073e 00d7 8bbc 42db a33d ac8a 0b3e
00000120: b42e b23d b331 773d cdc7 803d 681e 7dbb
00000130: b36d ed3d 515b 163e 4eec ffbc 43d3 a93d
00000140: bdca 85bc c2ed c0bc 415c 253e 3f3c afbd
00000150: 8187 d43b 44d2 7abd 2b6c ea3d f2ca d2bc
00000160: 83bc a5bc 1079 683d 725c 793e 53cc a1bd
00000170: 60bc 03bd 8dae fc3c 9195 133d ab99 7e3d
00000180: 0209 583d 4246 e53d 6c5b fe3d 2bb3 bd3d
00000190: e7db 843d f39c 82be 88b0 febd 8c72 97bc
000001a0: 1677 3dbd 46c2 debd 5f1e d2bd f287 07be
000001b0: 5641 fdbd dd6c 4cbc aca1 c0bd 3fa7 563d
000001c0: 1ce4 f43d 3d09 80bc 4ed6 153d e7e5 4a3e
000001d0: f95f 16bd 769d f1bd b7c0 10be afbd 3ebe
000001e0: 9ab0 a73d b034 51bd 6a34 edbd 759e c23d
000001f0: 6de2 74bd 059b b33a 41ac 693b 34a8 b33d
00000200: ddb8 b53d 48fa babc 80dd 633d be0e 3c3e
00000210: 5db7 e03d f3a8 3a3d 8353 14bd a096 2dbc
00000220: 04e7 f63c a144 373d 2a8b f8bd bf4e 763d
00000230: 35cf 51ba 3a32 4fbd 8763 953d 6b20 8a3d
00000240: 7eb9 553d 12d9 a83d 6dec 6dbb 4e0d 123e
00000250: dc5a d1bc 5ed4 db3d a329 07be afad 2f3d
00000260: 65d3 5dbe f13b a63c c654 703d cb06 283e
00000270: 6f7f 10bd e5dd de3d 8f92 fa3b f428 c7bd
00000280: 737a a43d d4c2 3e3c 80ec a2bd 7590 dbbb
00000290: 01dd 943c fc2a 863d 69a5 0ebb fbd6 fdbc
000002a0: ae6b a83b 5f72 0a3e 815f 1abd 0e78 ccbd
000002b0: 4fcb 1abd 3f74 02be 31bc fa3d f3c4 e6bd
000002c0: e75d 863d 9451 20bd ae9b 77bd e181 7ebd
000002d0: f00e 09bd 7510 a1bd 30dd 27be 53c8 023d
000002e0: 07f1 ccbd ae1d 36bc 7717 623e fc47 adbd
000002f0: 5ff9 b8bd c714 fb3d 23a0 ffbd 0b68 9fbd
00000300: bb7d c8bc e6a3 683d e1ae 673d bd4a 943d
00000310: 40ca 85be 2210 60bd a4f6 003e 62e2 92bd
00000320: 00c2 64be 8e58 b7bd 17c9 923d be3c babd
00000330: 6af4 b9bd f9e0 293d 3806 1dbd 08b7 d4bc
00000340: b61f 2cbd 0f5d 1a3e 8238 2f3d 983d 2d3d
00000350: 4b2f 0f3e 4208 11be 6d6a 4ebd 8f14 983c
00000360: 8900 a8bc d842 093e 4cbd 1dbc 57d3 dd3d
00000370: 67b2 f9bc 7d74 c3bd 4ed5 ac3d 2fb7 8cbb
00000380: b303 25bd 48ca 253d 9c47 0a3e 645a 153b
00000390: 0945 5f3e ef23 703d 74c5 7e3c e581 45bd
000003a0: 5c82 203c ac44 9fbd 4b60 63bc 354f afbd
000003b0: eae6 7a3d 1832 bcbd 7077 24bd fb3d a13d
000003c0: a3f7 773c fe60 02be c858 8e3d 3ece aabd
000003d0: 02b2 83bd 7dc2 29bd 8999 22bc 33f3 e23c
000003e0: f736 09bd dc6c 933d e5eb 023c fd31 c6bd
000003f0: b74b 8d3b 2f1b 983d 57f8 1c3d 7574 bdbc
-0.014163584 0.006445855 -0.12128905 -0.057076707 0.08813777 0.10859662 0.13343243 -0.15271805
-0.010722957 0.028692128 -0.0062431265 0.054112256 0.029887442 0.096906796 -0.102072746 0.06366102
-0.059788037 -0.12649915 -0.123498395 -0.064241424 0.077721775 0.070117965 -0.12480645 -0.053737387
-0.02521857 0.024870327 0.09139754 0.072381824 0.0012287508 0.019581899 0.11922445 -0.026670149
-0.05177077 -0.08520784 -0.02787782 -0.015519428 -0.0963162 -0.1653033 0.027196303 -0.10895915
0.057462532 -0.040011063 -0.015379823 0.08519534 0.053407818 -0.057982612 -0.14767276 -0.021398112
-0.062335037 -0.009858644 0.11973142 0.23840319 -0.13722266 -0.045473497 0.10579207 0.123788685
0.04176311 0.19051896 -0.15674894 -0.09568915 0.19163072 -0.11513225 0.1633902 -0.008738545
0.07589185 0.08719995 0.041828763 0.06478171 0.13237573 -0.017070293 0.080008045 0.13627118
0.08700314 0.06035013 0.06288109 -0.003862286 0.11593189 0.14683272 -0.031240609 0.08292248
-0.016332025 -0.023550872 0.16148473 -0.08556413 0.00648588 -0.06123568 0.11446413 -0.025731537
-0.020231491 0.05675608 0.24351671 -0.079003 -0.03216207 0.030844951 0.03603131 0.062158268
0.052742966 0.11195041 0.12419781 0.09262689 0.064872555 -0.25510368 -0.124360144 -0.018487237
-0.046256147 -0.108768985 -0.10259699 -0.13235453 -0.123659775 -0.012477127 -0.094058365 0.052405592
0.11957571 -0.015629405 0.03658133 0.19814263 -0.03671262 -0.117976114 -0.14136015 -0.18627046
0.08187981 -0.051075637 -0.11582263 0.095028795 -0.05978625 0.0013702816 0.003565565 0.087723166
0.088731505 -0.022824422 0.05563116 0.18364999 0.10972474 0.04557128 -0.036212455 -0.010594994
0.030139454 0.044743184 -0.121359184 0.060133692 -0.00080035935 -0.05058501 0.07294374 0.067444645
0.052178852 0.08244528 -0.003630425 0.14262888 -0.02555602 0.10733865 -0.13199477 0.042890247
-0.21662672 0.020292254 0.058674596 0.16408841 -0.03527778 0.10882167 0.0076468657 -0.09724608
0.08031168 0.01164313 -0.07955265 -0.00670057 0.01817179 0.06551167 -0.0021766073 -0.0309863
0.0051397895 0.13520192 -0.037688736 -0.09983836 -0.037791546 -0.12739657 0.12242926 -0.11268034
0.06560879 -0.0391403 -0.060451202 -0.06213558 -0.03346151 -0.07864467 -0.1639297 0.031929325
-0.1000691 -0.011115475 0.22079264 -0.084609956 -0.09031939 0.12259822 -0.124817155 -0.077835165
-0.024474015 0.05679693 0.056563262 0.07240818 -0.26130867 -0.054702885 0.12594086 -0.07172085
-0.2233963 -0.08952437 0.07167261 -0.09093617 -0.090798214 0.041474316 -0.03833601 -0.025966182
-0.04202243 0.15074562 0.0427785 0.04229507 0.13982885 -0.14163306 -0.050394464 0.01856449
-0.020508068 0.13404405 -0.009627651 0.108313255 -0.030480577 -0.09543703 0.08439122 -0.004294298
-0.04028673 0.040476114 0.1350388 0.0022789473 0.21803679 0.05862802 0.015550006 -0.04821958
0.009796705 -0.0777677 -0.0138779385 -0.085600294 0.061255373 -0.09189242 -0.040152967 0.0787315
0.015134725 -0.12732312 0.069505274 -0.08340119 -0.06430437 -0.041445244 -0.009924301 0.027703857
-0.033499684 0.07198498 0.007990812 -0.09677503 0.0043120044 0.0742706 0.038322773 -0.02312682

network_body._body_endoder.seq_layers.2.bias f4 [128]
00000000: f233 e3ba 1160 753b 1c21 a6bc 9db2 13bc
00000010: 356e a4bc f112 f0bb 933d 14bc e1a9 433a
00000020: 17f2 61bb 4949 f6bb c067 e4bc da35 0fbc
00000030: 9545 a93b e53f 843a a165 33bc fdb8 25bb
00000040: 9fc9 94bb 77f4 81bc be95 55ba 78af 99bb
00000050: 76a4 96bc 1b7a 33bc 68a4 86bb 0c04 fbbc
00000060: 0908 a3bb e281 003b e714 4fbc 07c5 8bbb
00000070: 6f94 24bc 8250 17bc 33e4 a63b 79bf 67bc
00000080: fcfe 84bc d3bc 95bc 73fb 05bc decc a8bc
00000090: ffb2 dabb 322d dbbb ba1a c73a 961e 26bd
000000a0: 66f4 2abc fa49 bdbb 1b5f b5bc 3e84 2abc
000000b0: d92f 0bbc 9a52 84bb 5f08 d03a 152d 593b
000000c0: 2218 41bb 52ba f4bb 4b39 04bc 4fca c3bb
000000d0: 71f3 eebb 4cfb a3bb 3f56 70bc 776a 70bc
000000e0: e2c1 e3bb 22df 0fbc fce5 a4bc cbd9 22bd
000000f0: a093 47bd ebae 33bc c911 5dbb 2fcd 3fbc
00000100: eaaf acbb c341 11bc 9842 d9bc b56a 56bc
00000110: dbb1 a1bc 07b5 1abc f65c 85bc 5f9c 93bc
00000120: c380 953b d6ee 99bc 864f e0bc d136 7cbc
00000130: 73cc 173c b9e6 abbb 9fc6 31bc e103 c1bc
00000140: ea56 d53b fa95 c7bc fca1 78bb b3dc a0bc
00000150: d945 cabb bfcd a0bc 7189 a9bc 179b 97bb
00000160: be2e 40bc 4678 65bc e7cb 98bc 0ebc 3dbc
00000170: 9eda 1d3b e9b6 bcbc 57b9 993b 1390 3bbc
00000180: c381 21bc ff37 ddbc ff66 8ebc ab5c 75bc
00000190: 7c09 33bc f8de 2cbc 0a30 b9bb e9d8 60bc
000001a0: 119a cbbb 6f77 403c 1fa1 393b b5ce 73bc
000001b0: 8ba4 22bc 4d4a c6bb 05db 35bc 83d3 44bb
000001c0: cc61 2dbc 02d8 c1bc 257d 0ebc 1a71 fabb
000001d0: e9b1 04bd 1058 61bc ae51 37bc bc25 4dbc
000001e0: 1f21 9abc 45a1 35bc 62e8 98bc 6c03 88bc
000001f0: d941 1b3c d240 a9bb c16c 463c 19e0 4dbc
-0.0017334206 0.0037441293 -0.02027946 -0.009014753 -0.020072082 -0.0073264767 -0.009047884 0.00074639736
-0.0034476572 -0.0075160605 -0.027881503 -0.008740867 0.0051657655 0.0010089843 -0.010949523 -0.0025287264
-0.0045406367 -0.01586364 -0.00081476185 -0.004690107 -0.018388968 -0.010954405 -0.004108954 -0.030641578
-0.004975323 0.0019608666 -0.012639261 -0.004265431 -0.010045155 -0.009235503 0.0050931214 -0.014144772
-0.016234867 -0.018278515 -0.008177626 -0.0206055 -0.00667417 -0.0066887373 0.001519046 -0.040556513
-0.010434246 -0.005776641 -0.022140076 -0.010407506 -0.0084952945 -0.004038167 0.0015871635 0.0033138443
-0.0029463847 -0.0074685 -0.0080703 -0.005975045 -0.007292204 -0.005004322 -0.014669 -0.014673821
-0.006950603 -0.008781226 -0.020129196 -0.039758485 -0.04872477 -0.010966997 -0.0033732525 -0.011706634
-0.005269994 -0.0088657765 -0.026521012 -0.013086964 -0.019738128 -0.009442574 -0.016279679 -0.0180189
0.0045624687 -0.018790644 -0.02738167 -0.015393929 0.009265053 -0.00524601 -0.010850578 -0.02356142
0.006510605 -0.024363507 -0.0037938347 -0.019636488 -0.0061728773 -0.019629357 -0.02069542 -0.0046266424
-0.011729894 -0.014005726 -0.018651916 -0.01158048 0.0024086605 -0.023036437 0.0046912837 -0.011447924
-0.009857598 -0.02700424 -0.017383097 -0.014975707 -0.010927554 -0.010551207 -0.0056514787 -0.01372359
-0.0062134345 0.011747225 0.0028324795 -0.014880826 -0.009926925 -0.006051338 -0.011099582 -0.0030033297
-0.010582399 -0.02366257 -0.008696829 -0.0076428773 -0.03239623 -0.013753906 -0.011188908 -0.012521204
-0.018814621 -0.011085813 -0.018665496 -0.016603194 0.0094761485 -0.005165198 0.01211089 -0.012565636

action_model._continuous_distribution.mu.weight f4 [1, 128]
00000000: 7de7 73bc f737 023d 704c 9dbb 53a0 f5b9
00000010: 1459 8bbb d4c3 8e3c f29c 373c 08fc 5c3d
00000020: db29 403c 977e cebc 6265 19ba 91d9 563b
00000030: 3e39 44bd d71d 2d3d 1f68 0abd fd14 9b39
00000040: 39eb 8839 d80b fbbb 4baf 10ba 86bc d93c
00000050: ae53 173c a2bd b5bc 125b 0ebd 5b9d c23a
00000060: 95b9 3cbc 87a6 983c 213e fdbb 3ff1 c53c
00000070: 286b 6bbc cee6 bc3c d6a2 a63c 6b23 9dbb
00000080: 8ae1 d8ba 5c2e 493b ca82 b9bb 4941 77bb
00000090: 5e3b febc d458 6e39 cfb2 d93c 4ba3 42b9
000000a0: d885 993c 67bb 783b 74a7 6a3c 28b6 b1bc
000000b0: 233d 863c 0fe9 5fbd af10 943c ed3f 2a3c
000000c0: b20e 26bd 7cad edbc 4af1 86bb f6f6 b73c
000000d0: f5ac 05bc ef78 0c3d f4e1 33bc 77fe 733c
000000e0: 5e30 cdbb 4c3f 0a3d e558 cfba 77e6 84ba
000000f0: 7c56 5b3a 1abe 143c c5a0 b4bc 37d8 263b
00000100: f986 8f3c 7b60 39bc 55ff 07bb 8e3b a9bc
00000110: a9c2 77bb 6cb2 22bc d126 d7bc 59ea 9ebb
00000120: 9155 1ebd f5b3 39bb a69a 353b a5ac 06bc
00000130: 9aee 333d 32db 3e3c 1903 5abc 370f 3f3c
00000140: 22fe 0c3d 1775 633b a286 ef3c 12f4 ac3a
00000150: e20c 693c 6711 d5bb bb13 8bba 069c 42bb
00000160: 5b5c 9bbc 5eb4 d13b fc59 c1bc b602 813c
00000170: f809 0a3d 5fae d23c 92e3 323d f09d 9fbc
00000180: 7218 1939 ca84 cc3a 42f3 1ebc c7c3 d6bb
00000190: dd44 89bb 93ae 543a e8b5 e3bc 0996 36bd
000001a0: 9997 51ba 52f9 b7bc 5ee2 10bd 8201 05bb
000001b0: ad5c ca3c 9149 c33c fa26 e63b 820e 863c
000001c0: 0cad 3cbc 4f47 9cba c938 b83b f9f7 b93b
000001d0: 2c40 33bb d576 eabb 14be 433c 0d64 533c
000001e0: e185 debc 690c 313c ff77 1fbc af82 f1b7
000001f0: 4487 143d 0474 14bd 405e 31bd 12c5 103b
-0.014886734 0.031791653 -0.004800372 -0.00046849492 -0.0042525623 0.017427363 0.011206852 0.053951293
0.011728729 -0.025206847 -0.0005851594 0.0032783488 -0.047906153 0.042264786 -0.033790704 0.0002957954
0.00026115196 -0.007661324 -0.0005519285 0.026579153 0.009236259 -0.02218515 -0.03475482 0.0014847921
-0.011518856 0.018634094 -0.0077283536 0.024162887 -0.01436881 0.023059275 0.020341318 -0.004795482
-0.0016546708 0.0030697798 -0.005661343 -0.0037728122 -0.031034168 0.0002273054 0.02657452 -0.00018562113
0.01874058 0.0037953497 0.0143221505 -0.021693304 0.016386574 -0.05466562 0.018074362 0.010391218
-0.04054136 -0.029013388 -0.0041181194 0.022456627 -0.008158912 0.03429502 -0.010979164 0.014892212
-0.0062618693 0.03375177 -0.0015819339 -0.0010139485 0.0008367074 0.009078527 -0.022049317 0.0025458464
0.017520415 -0.011314507 -0.0020751555 -0.02065828 -0.0037805235 -0.009930234 -0.026263626 -0.0048497138
-0.03865582 -0.0028336023 0.0027710586 -0.008219873 0.04392872 0.01164894 -0.013306403 0.011661342
0.034422047 0.0034707242 0.029239003 0.0013195297 0.014224263 -0.0065023187 -0.0010610739 -0.0029695048
-0.018964937 0.0063996753 -0.023602478 0.015748363 0.033700913 0.025717912 0.04367406 -0.01948449
0.00014600324 0.0015603539 -0.009701552 -0.0065541 -0.0041891173 0.0008113172 -0.0277967 -0.04457668
-0.0007995307 -0.022457752 -0.03537213 -0.0020295088 0.024702394 0.02383879 0.0070236893 0.01636434
-0.011515867 -0.0011923107 0.0056220037 0.0056753126 -0.0027351482 -0.007155279 0.011947174 0.012902272
-0.027163448 0.0108061815 -0.009733199 -2.8790293e-05 0.03626181 -0.036243454 -0.043302774 0.002209012
