Assets/IA/Pruebas/results/ResultadosFinales/PadBehavior/PadBehavior-200042.pt (torch, 444669 bytes, 30 tensors)

network_body._body_endoder.seq_layers.0.weight f4 [128, 7]
0	0xbe140804	-0.14456183
1	0x3e8a507f	0.2701454
2	0xbe5cf1f7	-0.21576677
3	0x3e749773	0.23885898
4	0xbd5dced2	-0.054152317
5	0x3e20be5c	0.15697616
6	0xbeae5e7f	-0.3405647
7	0xbebc19ed	-0.3673853
8	0xbe25788e	-0.16159269
9	0x3d82b16b	0.06381496
10	0x3daa34ec	0.08310875
11	0xbe265620	-0.16243792
12	0xbe18167f	-0.14852332
13	0x3f108971	0.5645972
14	0xbdd1d0fe	-0.1024494
15	0xbdb85568	-0.09000665
16	0xbeb434ab	-0.35196432
17	0x3ecfc739	0.40581682
18	0x3ca207ad	0.01977905
19	0x3f21712c	0.6306331
20	0x3d4bb950	0.049737275
21	0xb9f1ccb0	-0.00046119606
22	0xbe181f56	-0.14855704
23	0xbf4dbb4e	-0.8036393
24	0xbe3e47ad	-0.1858203
25	0x3e81a5bd	0.2532176
26	0xbe9a615a	-0.30152398
27	0x3e848392	0.2588163
28	0x3f19bc4c	0.60052943
29	0x3d501baf	0.05080765
30	0x3f3c6e06	0.7360538
31	0xbdb2551d	-0.0870764
32	0xbef92c44	-0.48666584
33	0x3caebce8	0.021330312
34	0x3c90d760	0.017680824
35	0xbf41e312	-0.75737107
36	0xbeeabf58	-0.4584911
37	0xbf28bb18	-0.6591048
38	0xbe9dfaf6	-0.3085553
39	0x3dd71197	0.10501402
40	0x3df3a279	0.118962236
41	0xbd87f293	-0.06638064
42	0xbe3e3da7	-0.18578206
43	0xbda10101	-0.078615196
44	0xbead40fa	-0.33838636
45	0x3ea4830c	0.3213123
46	0x3ebb25fc	0.36552417
47	0x3ecc844a	0.3994468
48	0x3e353963	0.17697673
49	0xbed3380e	-0.41253704
50	0xbe0badf7	-0.13640581
51	0xbe38f201	-0.18061067
52	0x3d649808	0.05580905
53	0x3e42dad1	0.19028784
54	0x3d5b9448	0.05360821
55	0xbe0f9d76	-0.1402491
56	0xbef464e4	-0.47733223
57	0x3e8334de	0.25626272
58	0x3f1ada2a	0.6048914
59	0xbdbe15d7	-0.09281509
60	0xbe3ea06f	-0.18615888
61	0x3ee193d2	0.4405809
62	0x3eb53653	0.3539301
63	0xbfa03726	-1.251683
64	0x3e9d118a	0.30677444
65	0xbefb26dc	-0.49053085
66	0xbbfae618	-0.007656824
67	0x3f92fb16	1.1482875
68	0xbeb7f407	-0.35928366
69	0xbf13c2c0	-0.5771904
70	0xbf073fe1	-0.52831846
71	0xbe5e8b30	-0.21732783
72	0x3db7b454	0.08969942
73	0xbea6cd11	-0.32578328
74	0x3e758379	0.23975934
75	0xbd88007f	-0.066407196
76	0xbeba9586	-0.36442202
77	0xbf0043c7	-0.5010342
78	0xbe98f95e	-0.29877752
79	0xbeb09bf8	-0.34493995
80	0xbeaf0922	-0.34186655
81	0xbd7c3b70	-0.06158012
82	0xbe1b0287	-0.15137683
83	0x3ec78516	0.38968724
84	0xbe6d09b7	-0.23148237
85	0xbebcb5c0	-0.36857414
86	0x3d256980	0.040383816
87	0x3ecfa49a	0.4055527
88	0x3e05ec02	0.13078311
89	0xbf530a6a	-0.82437766
90	0x3f31e035	0.6948274
91	0x3e2f2e96	0.17107615
92	0x3e922f86	0.28551883
93	0x3f92e148	1.1475
94	0x3d2abe49	0.041685376
95	0xbd81e642	-0.06342746
96	0x3f1dcae5	0.6163772
97	0xbdd12763	-0.102125905
98	0xbc4fd8fc	-0.01268601
99	0xbd9480af	-0.07251107
100	0x3f14b172	0.5808326
101	0xbca02cfc	-0.0195527
102	0x3f06d580	0.52669525
103	0xbed222da	-0.41042215
104	0x3e225dc6	0.15856084
105	0xbe06eb64	-0.13175732
106	0x3e520379	0.20509137
107	0xbed12219	-0.40846327
108	0x3eb8b070	0.3607211
109	0x3ecc437e	0.39895242
110	0x3ebd7c61	0.37008956
111	0x3d8bfade	0.068349585
112	0xbec82225	-0.3908855
113	0xbed1f777	-0.41009113
114	0xbee9369f	-0.45549485
115	0xbf1354cd	-0.5755127
116	0xbe6c3439	-0.23066796
117	0x3e650e08	0.22368634
118	0x3ecd257a	0.40067655
119	0x3e7ec147	0.24878417
120	0x3ef60e96	0.48058003
121	0x3ed24db7	0.41074917
122	0x3f8c550f	1.0963458
123	0xbe918cef	-0.28427836
124	0xbe90a435	-0.2825028
125	0x3e7ef7e2	0.24899247
126	0xbf32a6f6	-0.6978601
127	0xbc226fe8	-0.009914376
128	0xbeff246d	-0.49832478
129	0x3ea5df97	0.32397148
130	0xbf0163cb	-0.50542897
131	0x3e6e0f09	0.23247923
132	0x3f095f01	0.5366059
133	0x3f7cd40b	0.9876105
134	0xbe034f0f	-0.12823127
135	0x3f7ecb4b	0.9952895
136	0x3ee707dc	0.45123184
137	0xbf28e5d7	-0.6597571
138	0x3e3c5130	0.18390346
139	0xbea6df2c	-0.32592142
140	0x3f68693b	0.9078557
141	0xbeea1185	-0.4571649
142	0x3efb8dfb	0.4913176
143	0xbe139374	-0.14411718
144	0xbee95686	-0.45573825
145	0xbf023acd	-0.5087097
146	0xbea628ce	-0.32453007
147	0x3eb7e032	0.35913235
148	0x3f3bbf49	0.73338753
149	0xbc571765	-0.013128136
150	0x3f2f47b4	0.68468785
151	0xbc642706	-0.01392532
152	0xbe04ca50	-0.12967801
153	0xbf03a169	-0.5141817
154	0x3e8c30d9	0.27381018
155	0x3ec3be75	0.38231245
156	0xbf4789e5	-0.77944785
157	0xbebf0db1	-0.37315133
158	0x3ede0026	0.43359488
159	0x3f1a4363	0.60259074
160	0x3e81024f	0.25197074
161	0x3e4549f1	0.19266488
162	0x3e58d441	0.21174718
163	0x3e950c33	0.2911087
164	0x3d42da07	0.04757121
165	0x3eb154a5	0.3463489
166	0x3ec6a121	0.38794807
167	0x3e7a5dc9	0.24449839
168	0xbe5831aa	-0.21112695
169	0xbef56390	-0.47927523
170	0xbea78260	-0.32716656
171	0xbeab90dc	-0.33508956
172	0x3e844072	0.25830418
173	0x3f2c59ef	0.6732473
174	0xbe941645	-0.2892324
175	0x3e9d21e9	0.30689934
176	0xbe27d83d	-0.16391082
177	0xbf159c2f	-0.5844144
178	0x3e9fb910	0.3119588
179	0x3e693961	0.22775795
180	0xbe634be3	-0.22196917
181	0x3e1b72ec	0.15180558
182	0xbf13ca7e	-0.57730854
183	0xbec98dac	-0.393659
184	0xbf358436	-0.7090486
185	0xbdbdd43e	-0.092689976
186	0xbeab26ce	-0.33428043
187	0xbc85dadc	-0.016339712
188	0x3e8cfc70	0.27536345
189	0xbbaf57f5	-0.0053510615
190	0xbef73068	-0.4827912
191	0x3f92d385	1.1470801
192	0x3e77b739	0.24190988
193	0xbe367a86	-0.17820176
194	0x3d75f907	0.060051944
195	0xbec51cb6	-0.38498467
196	0x3ed5bdb4	0.41746294
197	0x3e0a6254	0.13514072
198	0xbe3f32d4	-0.18671733
199	0xbe8f9e61	-0.2805052
200	0xbe6f2119	-0.2335247
201	0xbd006bbe	-0.03135275
202	0x3daf611c	0.08563444
203	0xbef069b5	-0.46955648
204	0x3e142852	0.14468506
205	0xbf054590	-0.5205927
206	0xbe91a470	-0.28445768
207	0x3f010ac0	0.5040703
208	0xbe3dbfcd	-0.18530197
209	0x3edc2de9	0.43003777
210	0xbe994077	-0.29931995
211	0x3e1804b2	0.14845541
212	0x3e62f687	0.22164355
213	0xbe8c8400	-0.27444458
214	0x3e7f0c0f	0.24906944
215	0xbebbdfcf	-0.3669419
216	0x3c97aa29	0.018513756
217	0xbec0b2fd	-0.37636557
218	0x3e34be47	0.1765071
219	0x3e8b567e	0.27214426
220	0x3eaa0fa4	0.33215058
221	0x3eeebdeb	0.4662927
222	0x3f172999	0.5904785
223	0xbf2aff96	-0.66796243
224	0x3f463b43	0.77434176
225	0xbeaaadb3	-0.33335647
226	0x3f50577d	0.81383497
227	0xbe2bfabb	-0.16794865
228	0xbac846f6	-0.0015279937
229	0x3dba28fc	0.090898484
230	0xbe819b65	-0.2531387
231	0x3e345503	0.17610554
232	0xbd74eb85	-0.05979492
233	0x3d55b445	0.05217387
234	0x3e219cbd	0.15782447
235	0x3f1ce17c	0.6128156
236	0xbf35ed65	-0.7106536
237	0xbeb908b6	-0.36139458
238	0xbf0a4869	-0.5401674
239	0xbe795222	-0.24347737
240	0x3d3c97e4	0.04604329
241	0xbe2ef15a	-0.17084256
242	0xbf262b77	-0.6491007
243	0xbddbd598	-0.10734099
244	0x3cd888b8	0.02643238
245	0x3ea328c5	0.31867042
246	0x3eaa57de	0.33270162
247	0xbf1635cd	-0.58675843
248	0x3ed98f2b	0.4249204
249	0x3e980caa	0.29697162
250	0x3dca06ab	0.09864553
251	0xbef645ef	-0.4810023
252	0x3eafcb08	0.34334588
253	0xbe8fd039	-0.2808855
254	0x3f17d7d6	0.59313715
255	0xbc20cf62	-0.009815069

network_body._body_endoder.seq_layers.0.bias f4 [128]
0	0xbc9f5a1a	-0.019452143
1	0xbcaee964	-0.021351524
2	0xbd6c79a8	-0.057733208
3	0xbc6a9ab1	-0.014319108
4	0x3dcf5119	0.1012289
5	0x3db20648	0.08692604
6	0xbc875575	-0.016520241
7	0x3cd1efc2	0.02562702
8	0xbd621b7d	-0.055201996
9	0x3cc662b9	0.024216997
10	0xbccfeb51	-0.025380762
11	0x3b034991	0.0020032863
12	0xbca9170a	-0.020640869
13	0xbd1a96be	-0.037741415
14	0xbcfea9f3	-0.031086897
15	0xbcdc775d	-0.026912386
16	0x3c9f3769	0.019435601
17	0x3b10f0d8	0.002211621
18	0x3cd22cb7	0.025656087
19	0x3dac74fe	0.08420752
20	0xbbc7a061	-0.0060921167
21	0x3d345e13	0.04403503
22	0xbddd837f	-0.108160965
23	0xbe26dff3	-0.16296367
24	0xbd655d50	-0.055997193
25	0xbd0a2738	-0.03372881
26	0x3d980fd2	0.074248925
27	0x3d2e86a1	0.04260886
28	0xbc1e1de5	-0.009650682
29	0xbcd17b8d	-0.025571609
30	0xbd846222	-0.0646403
31	0xbd17587d	-0.036949623
32	0x3dc01555	0.09379069
33	0xbd5e685f	-0.054298755
34	0x3c953d96	0.018217843
35	0xbd1d3e98	-0.038389772
36	0xbd9156f7	-0.07096665
37	0x3bfda3e1	0.007740483
38	0xbd19027c	-0.037355885
39	0x3ce46b56	0.027883213
40	0x3d6ca0a1	0.057770375
41	0x3c92b6d4	0.017909445
42	0xbdc4679b	-0.09590074
43	0xbd924232	-0.07141532
44	0xbc8e7fba	-0.01739489
45	0xbd7ee82b	-0.06223313
46	0x3c33b416	0.010968229
47	0xbd035576	-0.032063924
48	0x3c25ebb8	0.0101270005
49	0x3d100f90	0.03517109
50	0xbdb202bd	-0.086919285
51	0xbd9f28be	-0.07771443
52	0x3cd23ad9	0.025662826
53	0xbb84bd9d	-0.004050924
54	0xbd316dbd	-0.043317545
55	0xbc9a2bec	-0.018819772
56	0xbbda535b	-0.006662769
57	0xbcc2373d	-0.02370798
58	0xbc4991e8	-0.012302853
59	0xbdc3ee40	-0.09566927
60	0xbdef15b6	-0.11674063
61	0xbd800748	-0.06251389
62	0x3d4148ba	0.047188498
63	0x3c64013c	0.01391631
64	0xbd3e68f5	-0.046486814
65	0x3d3a6162	0.045503028
66	0x3cca7567	0.024714185
67	0xbd847c41	-0.06469012
68	0xbd196e45	-0.037458677
69	0xbbe7fb58	-0.007079523
70	0xbe0c33f9	-0.13691701
71	0x3c307c5d	0.010771838
72	0xbdc5abd0	-0.09651911
73	0x3d3edbd2	0.046596356
74	0xbce42ac5	-0.027852425
75	0x3d181412	0.037128516
76	0xbe21f0b5	-0.15814479
77	0xbd4b915c	-0.049699172
78	0x3c93a5d2	0.018023405
79	0xbd978b6e	-0.07399641
80	0x3a2b0b96	0.0006524859
81	0xbe070b66	-0.13187942
82	0xbc35676d	-0.011072022
83	0xbd206397	-0.039157476
84	0xbd3343b4	-0.04376574
85	0xbd6347b1	-0.055488292
86	0xbce18670	-0.027529925
87	0xbd4d8b05	-0.050181407
88	0x3d785be7	0.06063452
89	0xbca2dff6	-0.019882184
90	0xbd89818d	-0.06714163
91	0xbcf3c108	-0.02975513
92	0xbd6d4a23	-0.05793203
93	0xbd774a82	-0.06037379
94	0xbd15fb5d	-0.03661667
95	0x3d5a519a	0.053300478
96	0xbccb735c	-0.024835281
97	0x3af7c9b4	0.0018904717
98	0xbc94fb77	-0.018186314
99	0x3ce70f4c	0.028205536
100	0xbd0b0a54	-0.033945397
101	0xbd1e238f	-0.03860813
102	0xbdc1af66	-0.09457283
103	0xbc1ff61d	-0.009763268
104	0xba5f9697	-0.00085292145
105	0xbda4c776	-0.08045857
106	0xbde19db1	-0.110164054
107	0x3c5e3810	0.013563171
108	0x3cf41a58	0.029797718
109	0xbc0786c2	-0.008271875
110	0x3c3b3f3f	0.011428653
111	0xbd4bfd2c	-0.04980199
112	0xbc1e1068	-0.009647466
113	0xbd809f89	-0.06280429
114	0x3d6da4a2	0.058018334
115	0x3d2561db	0.040376525
116	0xbbe7241c	-0.007053865
117	0x3d915f5a	0.07098265
118	0xbdd8547d	-0.1056299
119	0x3c0e89fe	0.008699892
120	0xbc142c23	-0.009043726
121	0x3cb23c92	0.021757398
122	0x3daaa321	0.083318956
123	0x3cb3a568	0.021929458
124	0xbd709602	-0.05873681
125	0x3cda0a0a	0.026616115
126	0xbd406a1c	-0.046976194
127	0xbe04fec4	-0.1298781

network_body._body_endoder.seq_layers.2.weight f4 [128, 128]
0	0xbe7b1e7f	-0.24523352
1	0x3df9d71e	0.121992335
2	0xbdad3066	-0.08456497
3	0x3d61f762	0.055167563
4	0x3e317269	0.173288
5	0xbcf10aaf	-0.02942404
6	0x3d384c52	0.04499466
7	0x3c3cd8ff	0.011526345
8	0xbddb60e4	-0.1071184
9	0xbddd76bb	-0.10813662
10	0xbb04c760	-0.0020260438
11	0x3c5e7e91	0.0135799805
12	0xbe03540f	-0.12825035
13	0xbe2e21a7	-0.17005025
14	0xbd64fd03	-0.055905353
15	0xbe10da0f	-0.14145683
16	0xbd23ccef	-0.03999036
17	0x3d9f1274	0.077671915
18	0xbdf44892	-0.11927904
19	0xbe8cdc68	-0.27511907
20	0x3dc42ece	0.0957924
21	0xbd5cb206	-0.053880714
22	0x3dc81082	0.097687736
23	0xbdc37af7	-0.09544938
24	0x3d061085	0.032730598
25	0x3cdb77f0	0.02679059
26	0xbc83f51d	-0.01610809
27	0xbbe083b6	-0.0068516387
28	0x3d86d471	0.06583489
29	0xbde0d743	-0.10978558
30	0x3cee5e3c	0.029097669
31	0x3da4d826	0.080490395
32	0x3e8ee03b	0.2790545
33	0x3c91d8fc	0.017803662
34	0x3d04fe5c	0.03246914
35	0xbe223d36	-0.15843663
36	0x3dcfa201	0.10138322
37	0xbbed23c8	-0.0072369315
38	0xbdd21d90	-0.10259545
39	0xbd455495	-0.048176367
40	0xbe459201	-0.19293977
41	0x3c84a56f	0.016192166
42	0xbd0c82c2	-0.034304388
43	0x3dcb8091	0.099366315
44	0xbe17a0e1	-0.14807464
45	0xbdd3d91d	-0.103441454
46	0xbdb8fe22	-0.09032847
47	0xbdbd2ce4	-0.09237078
48	0x3e028e5b	0.12749617
49	0x3e39bada	0.18137684
50	0x3e21179d	0.15731664
51	0x3afb406f	0.0019168983
52	0x3d1df4d8	0.03856358
53	0xbcbdb49b	-0.023157408
54	0xbdb4e05b	-0.08831855
55	0xbe07c4c0	-0.13258648
56	0xbddca343	-0.10773327
57	0xbcd0ee8f	-0.025504379
58	0xbd90c3cf	-0.070685975
59	0xbdc13ddc	-0.09435627
60	0xbe05e7ec	-0.13076752
61	0xbdd282fe	-0.10278891
62	0xbb9c0678	-0.0047615133
63	0x3c65841d	0.014008549
64	0xbd4bf8c9	-0.049797807
65	0xbd7b82cb	-0.06140403
66	0xbd6a8c04	-0.057262436
67	0xbe15b2cb	-0.14618985
68	0x3d9a8e5d	0.07546685
69	0x3d850d97	0.06496733
70	0xbc94bceb	-0.01815649
71	0xbd277040	-0.040878534
72	0x3d30729b	0.043078046
73	0x3d13bc9c	0.036068544
74	0x3d9f3d6a	0.07775386
75	0xbd91e0a2	-0.071229234
76	0xbcec9b6a	-0.028882701
77	0x3c3ec6c7	0.011644072
78	0x3c572029	0.013130226
79	0x3e6410d7	0.22272049
80	0x3c0e0648	0.00866849
81	0x3dabadc3	0.08382752
82	0x3c6217ae	0.013799591
83	0xbdb071b5	-0.08615438
84	0xbe1824e5	-0.14857824
85	0x3e372cf6	0.17888245
86	0xbccfac41	-0.025350692
87	0xbd244c35	-0.04011174
88	0x3d8765b8	0.06611198
89	0xbcebedc4	-0.028799899
90	0xbc9a373b	-0.018825164
91	0xbe335f6a	-0.17516866
92	0x3da61176	0.08108799
93	0xbe403a4a	-0.18772236
94	0x3dd828ca	0.10554655
95	0x3d365d3b	0.044522505
96	0xbbc1077a	-0.005890784
97	0x3d846166	0.0646389
98	0xbe0b8fca	-0.1362907
99	0x3db762c8	0.08954388
100	0xbdd975ee	-0.106181964
101	0x3ddcc5b4	0.107798964
102	0x3c5b4b38	0.013384633
103	0x3dbee955	0.09321848
104	0xbd05850e	-0.032597594
105	0xbe0f532f	-0.13996576
106	0xbe27aa69	-0.163736
107	0xbcf01a9f	-0.029309569
108	0xbe77f931	-0.24216153
109	0xbdaecd76	-0.08535282
110	0xbe12aaf7	-0.1432303
111	0x3dbc85ff	0.09205245
112	0xbccfcdd7	-0.025366707
113	0xbe03d3f9	-0.1287383
114	0xbd5ddea5	-0.05416741
115	0xbca44afb	-0.020055285
116	0x3cd18685	0.02557684
117	0xbe07a626	-0.13246974
118	0x3df99c19	0.121879764
119	0xbbad7bf7	-0.005294319
120	0x3de39f26	0.111143395
121	0x3d5031f0	0.050828874
122	0xbd56500b	-0.05232243
123	0xbd51f67f	-0.051260468
124	0x3c0e8779	0.008699291
125	0xbdab61b5	-0.083682455
126	0xbd449c16	-0.048000418
127	0xbca83a6e	-0.020535674
128	0x3d028b12	0.03187091
129	0xbd55e57e	-0.052220814
130	0x3cd6067f	0.026126144
131	0x3d9ba19c	0.07599184
132	0x3e7e6754	0.24844104
133	0xbddc0416	-0.10742967
134	0x3dc045dc	0.093883246
135	0xbdc710dd	-0.09720013
136	0xbd31aaeb	-0.04337589
137	0xbcea0423	-0.028566426
138	0xbdf92a4a	-0.12166269
139	0x3ca6db09	0.020368116
140	0x3e03b56d	0.12862177
141	0x3c6264d8	0.013817988
142	0x3d2803cc	0.041019246
143	0xbdb0b4cd	-0.08628235
144	0xbdad981d	-0.08476279
145	0xbd7640d7	-0.06012043
146	0x3dbfe1ef	0.09369265
147	0x3ce1c2e2	0.027558748
148	0xbe0c243a	-0.13685694
149	0x3cba9e86	0.022780668
150	0xbd7cb396	-0.061694704
151	0xbda197b4	-0.07890263
152	0xbdcc2ac6	-0.09969096
153	0xbdd7521d	-0.10513709
154	0xbe34dc19	-0.17662086
155	0x3e309b80	0.17246819
156	0xbd264b50	-0.040599167
157	0x3d7f93a0	0.062396646
158	0xbcc26190	-0.023728162
159	0x3df49eff	0.119443886
160	0xbd9c38e5	-0.07628039
161	0xbd375bda	-0.04476533
162	0xba8a853c	-0.0010568271
163	0x3bfc24eb	0.0076948307
164	0x3d52643f	0.051365133
165	0x3dbe7bc8	0.09300953
166	0x3e07d36a	0.13264242
167	0xbd952638	-0.0728268
168	0xbc09a2c4	-0.008400623
169	0xbe214451	-0.15748717
170	0xbd827ca5	-0.0637143
171	0xbdc272b0	-0.09494531
172	0x3d3181ad	0.04333656
173	0x3d6b0545	0.057378072
174	0xbb0029b0	-0.0019556098
175	0xbd993a2e	-0.074818
176	0x3e1c07bf	0.1523733
177	0xbc356d7f	-0.011073469
178	0x3d9e3e4a	0.077267244
179	0xbd2684f2	-0.04065413
180	0x3dfd19a3	0.123584054
181	0xbbeebf3d	-0.007285981
182	0x37927d75	1.7462977e-05
183	0xbd9a6529	-0.07538826
184	0x3ccebae9	0.02523561
185	0xbd14adb9	-0.036298487
186	0xbdc2fae8	-0.09520513
187	0xbc963782	-0.018337015
188	0x3d0db23d	0.03459381
189	0xbdcf5c52	-0.101250306
190	0x3cd257c1	0.02567661
191	0x3d820f26	0.063505456
192	0xbceb1e7f	-0.028701065
193	0xbdcea6d7	-0.10090416
194	0xbdaa18f4	-0.08305541
195	0x3ce0db64	0.027448364
196	0x3abe9f49	0.001454332
197	0x3e119b54	0.14219409
198	0xbc920c49	-0.017828124
199	0xbe586359	-0.21131648
200	0xbdbae56e	-0.091257915
201	0x3d5dc8e1	0.05414665
202	0x3d725a9e	0.05916845
203	0xbb1c0812	-0.0023808521
204	0x3d56bb3d	0.052424658
205	0xbdec69c3	-0.1154361
206	0x3dd33ec4	0.10314706
207	0xbdc021bb	-0.093814336
208	0xbcd3d9d3	-0.025860703
209	0xbc61beea	-0.013778428
210	0x3c852556	0.016253155
211	0x3d5515a2	0.052022584
212	0xbd177018	-0.036972135
213	0x3cff83fa	0.031190861
214	0x3dc09b2b	0.09404596
215	0xbdaebefc	-0.08532521
216	0x3c36fdd4	0.011168916
217	0xbdc2e4f6	-0.09516327
218	0xbcaa1f33	-0.02076683
219	0x3e0269b9	0.12735642
220	0xbe171474	-0.14753896
221	0x3dd5e340	0.10443735
222	0x3dad1366	0.084509656
223	0xbd04b736	-0.032401286
224	0x3dca2e2c	0.09872088
225	0xbdd2507a	-0.10269256
226	0xbc8dcb24	-0.017308779
227	0x3b2196c6	0.0024656518
228	0xbd429456	-0.047504745
229	0xbda4b1b6	-0.08041708
230	0xbb69c03c	-0.003566756
231	0x3db3b97e	0.08775614
232	0x3cc22337	0.023698432
233	0x3e089798	0.13339078
234	0xbdb5e209	-0.088810034
235	0xbdf29ce2	-0.11846329
236	0xbbcc7483	-0.006239475
237	0x3d68d57a	0.056844212
238	0x3d01b6b5	0.031668384
239	0xbd8d6144	-0.069033176
240	0x3d7dd9d7	0.061975326
241	0x3d0832ca	0.03325156
242	0xbce4171f	-0.027843056
243	0x3c7ffa21	0.0156236
244	0x3d4c97f8	0.049949616
245	0xbe3219b9	-0.17392625
246	0x3dbfd75c	0.093672484
247	0xbd9cc38b	-0.07654484
248	0x3de8d072	0.11367883
249	0x3e334fab	0.1751086
250	0xbd999bb6	-0.07500403
251	0xbd6404ea	-0.05566875
252	0xbdadc24f	-0.08484327
253	0x3db56d27	0.0885871
254	0xbd77a14f	-0.06045657
255	0x3d2bc873	0.04193921

network_body._body_endoder.seq_layers.2.bias f4 [128]
0	0xbd2db2c4	-0.042406812
1	0xbc430dcf	-0.011905148
2	0xbce5885e	-0.028019127
3	0xbc8b5c22	-0.017011706
4	0xbdb2b012	-0.08724989
5	0xbbb8784e	-0.005629576
6	0xbccd5cad	-0.025068605
7	0xbccea6f8	-0.025226101
8	0xbcf0fb64	-0.029416747
9	0xbc6db09f	-0.014507442
10	0xbb93db88	-0.004512254
11	0xbc8c3c59	-0.01711862
12	0xb9054a27	-0.00012711492
13	0xbc3b3ebf	-0.011428534
14	0x3bfbb226	0.007681149
15	0xbdb8b4c2	-0.09018852
16	0xbb13b004	-0.0022535333
17	0xbca830e6	-0.02053113
18	0xbc8eebe0	-0.017446458
19	0xb9a5db42	-0.00031634612
20	0xbc99ebf0	-0.018789262
21	0xbc96bc2c	-0.018400274
22	0xbc5177d8	-0.012784921
23	0x3d131211	0.0359059
24	0xbdf5ff88	-0.12011629
25	0xbcdc54ee	-0.026895966
26	0x3ae1a578	0.0017215451
27	0x3b40f35e	0.0029441933
28	0xbc208261	-0.00979671
29	0xbd507b17	-0.050898638
30	0xbcb333b3	-0.021875238
31	0xbd2c2fe8	-0.042037874
32	0xbd04d709	-0.032431636
33	0xbcb80d59	-0.022467302
34	0xbcaedb62	-0.021344844
35	0xbd184253	-0.037172627
36	0x3b616cbf	0.0034397093
37	0xbca03edb	-0.019561222
38	0xbcc70702	-0.024295334
39	0xbbf6fefe	-0.0075377217
40	0xbd2b1d4f	-0.041775998
41	0x3b0b9fab	0.0021304886
42	0xbd8a8eef	-0.06765544
43	0xbbbc6ac1	-0.0057500307
44	0xbbfb368f	-0.007666416
45	0xbc15a8bb	-0.009134467
46	0xbd69d631	-0.057089034
47	0xbca50b9b	-0.020147135
48	0xbccd02d1	-0.025025757
49	0xbd148232	-0.036256976
50	0xbc8be189	-0.017075317
51	0xbb9e1276	-0.004823978
52	0x3bd8b83e	0.0066137603
53	0x3cbaa349	0.022782939
54	0xbce48079	-0.027893292
55	0xbd09d302	-0.0336485
56	0x3d072c54	0.03300126
57	0xbd150ce4	-0.036389247
58	0x3cf5e47b	0.030016175
59	0xbd25fcca	-0.04052428
60	0xbce47fde	-0.027893003
61	0xbcbb96b0	-0.022899002
62	0x3c89fdd3	0.016844666
63	0xbc822df5	-0.015891055
64	0x3b8fa55a	0.004383725
65	0xbc2f8b3d	-0.010714349
66	0xbcf28050	-0.0296022
67	0x3c0bf632	0.008542584
68	0xbc9fde76	-0.019515257
69	0xbd005b7e	-0.031337254
70	0x3bf09e78	0.0073431097
71	0xbcbb602d	-0.022873009
72	0xbcfb0d79	-0.030646073
73	0xbd1119ed	-0.035425115
74	0xbd3e5d8f	-0.046475943
75	0xbca3fe37	-0.02001868
76	0xbbaed927	-0.005335945
77	0xbca24091	-0.019806178
78	0x3b573d31	0.003284287
79	0xbd4adcd4	-0.049527004
80	0xbcd19ba4	-0.02558691
81	0xbc8e5963	-0.017376607
82	0xbb1e8b4b	-0.0024191912
83	0xbcb10cfd	-0.021612639
84	0xbd21ac52	-0.039470978
85	0xbc9bfa77	-0.01904033
86	0xbcd60a5e	-0.02612799
87	0x3c197560	0.009366363
88	0x3c966ed1	0.018363388
89	0x3b10f3f3	0.0022118061
90	0xbcbf34f3	-0.023340678
91	0xbc0fff30	-0.008788869
92	0xbd00c03b	-0.031433325
93	0xbcaf85c6	-0.021426093
94	0xbce78ab7	-0.028264387
95	0xbd073cea	-0.033017077
96	0x3ca100e4	0.019653745
97	0xbcf83732	-0.030299757
98	0xbcb2af5f	-0.02181214
99	0xbcb16b31	-0.021657558
100	0xbce6c07a	-0.028167952
101	0xbd22b3df	-0.03972232
102	0x3cbbc14b	0.022919318
103	0xbbaf5788	-0.0053510107
104	0xbba8727a	-0.0051406
105	0xbb12c6d3	-0.002239634
106	0xbd1372b1	-0.03599805
107	0xbca1f11d	-0.019768292
108	0xbb89a26a	-0.0042002695
109	0xbc66b457	-0.014081082
110	0xbc3de2a6	-0.011589682
111	0x3b6ee95a	0.0036455006
112	0xbcd7b085	-0.026329288
113	0xbc8fcc91	-0.0175536
114	0xbc240cc3	-0.010012808
115	0x3a69e09e	0.0008921715
116	0xbcc55af2	-0.024091218
117	0xbc349c26	-0.011023557
118	0xbc344c66	-0.011004543
119	0xbd0bf687	-0.034170654
120	0x3b7aeaee	0.0038287002
121	0xbd2a04b1	-0.04150838
122	0xbd0f8470	-0.03503841
123	0xbcde7805	-0.02715684
124	0x3a9727bf	0.0011532231
125	0xbca6e6cf	-0.02037373
126	0xbcdf8655	-0.027285734
127	0xbce31783	-0.027721172

action_model._continuous_distribution.mu.weight f4 [1, 128]
0	0x3b19e331	0.0023481364
1	0x3b6c58d5	0.003606369
2	0xbbf6acbb	-0.0075279153
3	0xbbd41baa	-0.0064730244
4	0xbc0228c3	-0.007944289
5	0x3c8107f4	0.015750863
6	0xbc5efcdb	-0.01361009
7	0x3ac72bd2	0.0015195555
8	0xbd18806d	-0.03723185
9	0x3cfc4e26	0.030798983
10	0x3d3e57b9	0.046470378
11	0x3ce00599	0.02734642
12	0x3d8013d9	0.06253786
13	0x3c805706	0.015666496
14	0xbde16c82	-0.11007024
15	0xbc33a59e	-0.010964779
16	0x3d59b64a	0.05315236
17	0x3caee272	0.021348212
18	0xbc8dc959	-0.017307924
19	0x3d65bc3c	0.056087717
20	0xbd44d7df	-0.048057433
21	0xbc41f13d	-0.011837301
22	0x3c8e196a	0.017346103
23	0x3d5dd2a8	0.054155976
24	0xb90a70be	-0.00013202705
25	0xbc537beb	-0.012907962
26	0x3d61f6f1	0.055167142
27	0x3ccff75b	0.025386503
28	0x3c3c4f55	0.011493524
29	0x3afb3faf	0.001916876
30	0x3b5cc9ae	0.0033689546
31	0xbaec32c3	-0.0018020499
32	0x3c3651ff	0.011127948
33	0x3c3ec60d	0.011643899
34	0x399346a5	0.0002809066
35	0x3c31cc4a	0.010851929
36	0xbd9fa88a	-0.07795818
37	0xbbdd2695	-0.006748984
38	0xbc82b542	-0.015955571
39	0xbd8251f6	-0.06363289
40	0x3c087be1	0.008330316
41	0xbd9830d4	-0.07431188
42	0xba4b5220	-0.0007756073
43	0xbd83c5e6	-0.064342305
44	0xbd129297	-0.03578433
45	0x3d466587	0.048436668
46	0xbc6abca8	-0.014327206
47	0xbcf9461f	-0.030428944
48	0x3c83f1f8	0.01610659
49	0x3cd1eda3	0.02562601
50	0xbd56f7f4	-0.05248256
51	0xbd3ac6a7	-0.045599606
52	0x3cc33005	0.023826608
53	0x3db3daf9	0.08782
54	0x3d2f7f33	0.042845916
55	0x3c8243bf	0.015901444
56	0x3da84535	0.08216325
57	0xbcf644af	-0.030062048
58	0x3d8745d2	0.06605114
59	0xbc3a1b16	-0.011358997
60	0xbc9e3e76	-0.019316893
61	0xbcc1885f	-0.023624597
62	0xbde35697	-0.111005
63	0x3cbe47c2	0.023227576
64	0xbd39476c	-0.04523413
65	0xbd3481b0	-0.044068992
66	0xbc204689	-0.009782442
67	0x3cf7bddc	0.0302419
68	0xbce64f36	-0.028113943
69	0xb95a0b87	-0.00020794394
70	0x3d4dbd65	0.05022945
71	0x3c88f367	0.016717626
72	0x3baf06f1	0.0053414037
73	0x3c22115b	0.009891833
74	0x3a3daf1c	0.0007235871
75	0xbc999b45	-0.018750796
76	0xbc766184	-0.015037898
77	0xbb44e8dc	-0.0030046022
78	0x3d298203	0.041383754
79	0x3c194265	0.009354209
80	0xbc33fa47	-0.010984964
81	0x3c0b7df3	0.008513915
82	0xbd7a2da0	-0.061078668
83	0xbbff1aa3	-0.0077851578
84	0x3c1bbfd2	0.009506183
85	0x3c80c0b0	0.01571688
86	0xbb889c9b	-0.0041690595
87	0x3d944d78	0.072413385
88	0x3d84dd3a	0.06487508
89	0xbd0ac583	-0.033879768
90	0xbcc71bbd	-0.024305219
91	0xbd0ce089	-0.03439382
92	0xbc5f5c5b	-0.013632859
93	0xbcc51fd1	-0.024063023
94	0xbb609498	-0.0034268256
95	0xb8797dca	-5.9483376e-05
96	0x3d80a76b	0.062819324
97	0xbbfb3173	-0.007665807
98	0x3cbb4090	0.022857934
99	0x3b901b78	0.004397806
100	0xbc70a509	-0.014687785
101	0xbd35f5c3	-0.04442383
102	0xbe2c9949	-0.16855349
103	0xbd729325	-0.05922236
104	0xbc9693c5	-0.018381009
105	0x3d5c5184	0.053788677
106	0x3d12be76	0.03582617
107	0xbcc45c6f	-0.023969857
108	0xbd84cfb6	-0.0648493
109	0x3c567e19	0.013091587
110	0xbd567aa6	-0.05236306
111	0x3d5764b6	0.05258628
112	0xbd033d18	-0.032040685
113	0x3cad1bdd	0.02113145
114	0x3b44bf55	0.003002127
115	0x3d679e81	0.056547645
116	0xba9e39a1	-0.0012071618
117	0x3d12ce43	0.035841238
118	0x3cb11bd4	0.021619715
119	0xbd44bb78	-0.048030347
120	0xbd5fbe7d	-0.054625023
121	0x3c295c59	0.010336959
122	0x3cf705e5	0.030154178
123	0x3c62621b	0.0138173355
124	0xbcfd1765	-0.030894944
125	0x3b91b465	0.0044465535
126	0x3cd07741	0.02544749
127	0x3c5b0b51	0.013369397

exp_avg f4 [128, 7]
0	0xba9b0ec1	-0.0011829959
1	0xb86aeab7	-5.6008543e-05
2	0xba17b274	-0.00057867845
3	0x39591528	0.00020702614
4	0xba5a812d	-0.0008335289
5	0x3a22d825	0.00062120176
6	0x3b078306	0.0020677461
7	0xba116788	-0.00055467384
8	0x39743aa2	0.00023291496
9	0xb7786d78	-1.480744e-05
10	0xb999fce1	-0.00029370844
11	0xba8b7593	-0.0010639898
12	0xbb764a39	-0.0037580861
13	0xbae9dc78	-0.0017842194
14	0xb8490ebd	-4.793586e-05
15	0xb96df274	-0.00022692402
16	0x3942cae9	0.00018576872
17	0xbaaf5619	-0.00133771
18	0xba0ce28f	-0.0005374336
19	0xbc17960e	-0.009252084
20	0xbad05c31	-0.0015896616
21	0xb9b3ff35	-0.00034331685
22	0x3a0029e2	0.00048890535
23	0xb90b2cb4	-0.00013272726
24	0x39895af2	0.00026198436
25	0xba19875d	-0.00058566575
26	0x3a0c47f1	0.0005351296
27	0xb95690ea	-0.00020462615
28	0xbc30da05	-0.010794167
29	0xbad23548	-0.0016037608
30	0xbc09045d	-0.008362857
31	0x3a620e01	0.00086233026
32	0xbb944a3e	-0.004525452
33	0xbcd6f552	-0.026240025
34	0x3d512d87	0.05106881
35	0x3beb3fa4	0.0071792174
36	0xba430bfc	-0.00074404455
37	0x3b785412	0.0037891907
38	0xbbd1ada0	-0.0063988715
39	0x3b2783b5	0.0025560681
40	0xbcc5f6e4	-0.024165578
41	0xbc5c2447	-0.013436384
42	0x39ab5dc3	0.0003268552
43	0xb99fefe8	-0.00030505587
44	0x39e53104	0.00043714803
45	0xba97fdc9	-0.001159602
46	0xb9747681	-0.000233138
47	0xbbe46dfb	-0.0069711185
48	0xbb52cd8a	-0.0032165968
49	0x3abce136	0.001441038
50	0x39102d97	0.00013749894
51	0x3a538216	0.00080683955
52	0xba9017e2	-0.0010993446
53	0x3a0745ae	0.00051602244
54	0xbba705f7	-0.0050971466
55	0xbb48f753	-0.0030664995
56	0x39d5cf70	0.0004078108
57	0x3848109d	4.7699188e-05
58	0x392ce539	0.0001648859
59	0xb87b2a2d	-5.9882343e-05
60	0x39878dec	0.00025854947
61	0xb82f09d5	-4.1732408e-05
62	0x384c7933	4.8750266e-05
63	0x3b0afd94	0.0021208273
64	0x3b83f5a5	0.004027086
65	0x39c0b008	0.00036752247
66	0x3a142dca	0.0005652575
67	0x3acced69	0.0015634719
68	0x3c2abcd9	0.010421001
69	0x3ab081ca	0.0013466415
70	0x3ace88d7	0.0015757334
71	0x3993d084	0.0002819338
72	0x3a25cdae	0.0006324899
73	0x398ce7ec	0.00026875676
74	0x3aa72ca0	0.0012754388
75	0x3bb0dd9f	0.005397513
76	0xbaeba6fd	-0.0017978844
77	0xba83de8f	-0.0010060834
78	0x3aa0ee76	0.0012278098
79	0xb96a9b86	-0.00022373916
80	0xb8eae472	-0.00011200541
81	0xbb00e0d4	-0.0019665258
82	0xbb5398fe	-0.0032287235
83	0xbb1955a8	-0.0023397002
84	0xb89fc330	-7.618067e-05
85	0x39ab4304	0.00032665592
86	0xb7c345f4	-2.3278386e-05
87	0x3992d5c9	0.00028006572
88	0xb9736bab	-0.00023214395
89	0x3ab6067d	0.0013887432
90	0xb9cc5187	-0.00038970655
91	0xbb2ee470	-0.0026686452
92	0xb9b80a2c	-0.00035102793
93	0xbae3f0df	-0.0017390511
94	0x394a433e	0.00019289271
95	0xbafa76e6	-0.0019108921
96	0xbb5b27fd	-0.0033440583
97	0x3c1ca351	0.009560422
98	0x39b9c472	0.00035432313
99	0xba4b4ebb	-0.0007755567
100	0x3943cf57	0.0001867389
101	0xba17d88f	-0.00057924626
102	0x3a121f85	0.0005574155
103	0xbb343d1b	-0.0027502242
104	0xb8dcf3d1	-0.00010535832
105	0x37e903c3	2.7777516e-05
106	0xb9e1e052	-0.00043082476
107	0x39ac5b22	0.00032874296
108	0xbaf64008	-0.0018787393
109	0xba2f3337	-0.0006683352
110	0xbc30f866	-0.01080141
111	0xbb2b9f51	-0.002618749
112	0x3ac83522	0.0015274624
113	0xba1df95d	-0.0006026233
114	0x3b0bdcd3	0.0021341338
115	0xbc07130d	-0.008244288
116	0xbb2a14f2	-0.0025952426
117	0xbd114c82	-0.035473354
118	0xbc7118d3	-0.014715391
119	0x3a2ad4e5	0.0006516709
120	0xba6e45c7	-0.0009089377
121	0x37f20b3a	2.8853876e-05
122	0x39660272	0.0002193542
123	0x3a8f5ca1	0.001093764
124	0x3b6c5385	0.0036060524
125	0x3b48aaf2	0.003061947
126	0x3aa853ea	0.0012842391
127	0xba2f9106	-0.00066973304
128	0x3ac09af8	0.0014694622
129	0xbb9d71f3	-0.0048048436
130	0xbae99aeb	-0.0017822658
131	0xbd10f2c5	-0.035387773
132	0xbbe262e4	-0.0069087613
133	0xbc4247c1	-0.011857928
134	0x391cd57a	0.00014956846
135	0xbbf73627	-0.0075442973
136	0x3b798dca	0.0038078898
137	0xbbe40bd5	-0.0069594183
138	0x3b585fc3	0.0033016063
139	0x3d0ac2ee	0.033877306
140	0x3a1c6b0f	0.00059668807
141	0xba8cc9c6	-0.0010741286
142	0x3986151c	0.000255742
143	0xbaa5657a	-0.0012618743
144	0x3a949302	0.0011335316
145	0xbbfedd28	-0.0077778287
146	0x3927b72a	0.00015994595
147	0xbafeee31	-0.0019449649
148	0xb91aeb32	-0.00014774202
149	0xba0588ce	-0.0005093933
150	0x3ab6bc56	0.0013941627
151	0xbaa8a478	-0.0012866398
152	0x3c18b0df	0.009319513
153	0xbab895d7	-0.0014082742
154	0x3b171fb5	0.002305967
155	0x39e31824	0.000433148
156	0x3ac5a7ee	0.0015079954
157	0xb9822ca9	-0.00024828807
158	0x3ad7f271	0.0016475451
159	0x3a93473f	0.0011236443
160	0xbc0640e3	-0.008194181
161	0x39a6ddec	0.00031827332
162	0xb8db43e5	-0.0001045538
163	0x394a1946	0.00019273636
164	0xba1ff231	-0.0006101458
165	0x38870ab5	6.439296e-05
166	0xbb3ec9a5	-0.0029111889
167	0xba1eab6e	-0.00060527667
168	0x3b14a94a	0.0022683912
169	0xb9b662cb	-0.00034787352
170	0x3ad65ae5	0.0016353993
171	0xbb17df92	-0.002317403
172	0x3a4fb971	0.0007924056
173	0xbc13af8e	-0.0090140235
174	0xbc0dcfc4	-0.008655492
175	0xb893507d	-7.024498e-05
176	0x38c439a3	9.356744e-05
177	0x378a838a	1.6512135e-05
178	0x396a0089	0.00022316178
179	0xb975d0d8	-0.00023442821
180	0x3a37e62d	0.0007015195
181	0xb9d7f6e2	-0.00041191938
182	0xb976592e	-0.0002349361
183	0x3a32c32e	0.0006819245
184	0x3a616fca	0.0008599727
185	0xbbc6deef	-0.006069056
186	0xbbb1ab8c	-0.0054220613
187	0xbd4ab067	-0.049484637
188	0xbbf5b075	-0.007497842
189	0xbbec39df	-0.007209047
190	0x38fd87a0	0.00012089242
191	0xbb6b7dd0	-0.0035933144
192	0xb9e6af99	-0.0004399985
193	0xbb9f9556	-0.004870097
194	0xbc2a8a1a	-0.010408903
195	0x3c20b202	0.009808065
196	0xb9624da5	-0.00021581964
197	0xb9df5a24	-0.00042601035
198	0xb98e818d	-0.00027180873
199	0x399d5732	0.0003001034
200	0xb6d14b27	-6.2374343e-06
201	0xbabee32e	-0.0014563554
202	0x3b2afb3e	0.0026089693
203	0xba0852c1	-0.00052003196
204	0x3a1cac45	0.0005976598
205	0xb851e83e	-5.0045775e-05
206	0x37d6865f	2.557336e-05
207	0xba74b779	-0.0009335201
208	0xba9582f5	-0.0011406826
209	0xbb0b08ac	-0.0021214886
210	0x39312a7b	0.0001689586
211	0x383f47d6	4.560485e-05
212	0x3898d011	7.28668e-05
213	0xb92fb09e	-0.00016755096
214	0x3964a96c	0.00021806889
215	0xba742f56	-0.0009314915
216	0xb9b9bb95	-0.0003542571
217	0xba9fc8ed	-0.0012190618
218	0xb981a815	-0.00024730028
219	0xba586930	-0.000825542
220	0xb855f3cb	-5.1010207e-05
221	0xba6b4b79	-0.0008975785
222	0xbab387b9	-0.0013697065
223	0x3b9d811a	0.00480665
224	0xbc202d37	-0.009776405
225	0xba90c398	-0.001104462
226	0xbbd63bdd	-0.006537898
227	0x3839a9cd	4.4265576e-05
228	0xbbc88b3a	-0.0061201127
229	0xbcdf8c6b	-0.027288636
230	0x3d0b3214	0.033983305
231	0xb927d6ee	-0.00016006429
232	0x39d6f7e1	0.00041001945
233	0xb8ee0c94	-0.00011351067
234	0x393bb10b	0.00017899663
235	0xb92e3265	-0.00016612707
236	0x3a86c5b9	0.0010282315
237	0x395e7466	0.00021214932
238	0x3a0dfcb1	0.0005416377
239	0x39f5df47	0.00046896396
240	0x38afa428	8.375227e-05
241	0x391addfe	0.00014769283
242	0xb9be7a90	-0.0003633094
243	0xbb51eab3	-0.003203076
244	0x3a99bb36	0.0011728767
245	0x3a87bb9b	0.0010355593
246	0x3923a708	0.00015607115
247	0x3a284efc	0.0006420461
248	0x3a7dbad6	0.0009679025
249	0x3a8f62a2	0.0010939429
250	0x3c0c3adc	0.008558955
251	0xbb691f84	-0.0035571763
252	0x38f77a33	0.00011800639
253	0x36500114	3.0995043e-06
254	0x3731680e	1.0574249e-05
255	0xb98f1cb1	-0.00027296462

exp_avg_sq f4 [128, 7]
0	0x37fd86c2	3.0222702e-05
1	0x377dfc32	1.5138694e-05
2	0x36302ea7	2.62532e-06
3	0x383d2574	4.5095992e-05
4	0x37d12f4e	2.493677e-05
5	0x3b299e27	0.002588162
6	0x39dc1b76	0.0004198213
7	0x37a028b0	1.9092433e-05
8	0x37dcc902	2.6319645e-05
9	0x3610396a	2.1491092e-06
10	0x384ab8c9	4.8332648e-05
11	0x37e5d3ec	2.7397611e-05
12	0x3b2fa26a	0.0026799687
13	0x39e51a33	0.00043697804
14	0x37d7410a	2.5660283e-05
15	0x3783092a	1.5620684e-05
16	0x362de3a6	2.5911518e-06
17	0x38566641	5.1116807e-05
18	0x37dc4271	2.6256983e-05
19	0x3b25275e	0.0025200467
20	0x39d7167b	0.00041024745
21	0x3781fa18	1.5494457e-05
22	0x383a4d6e	4.4417968e-05
23	0x35f723e9	1.8413385e-06
24	0x387b0deb	5.9856025e-05
25	0x380c1456	3.339754e-05
26	0x3b487cb4	0.0030591907
27	0x3a03c5a3	0.00050267036
28	0x3bae5588	0.0053202547
29	0x3ba025cf	0.0048873196
30	0x3a1b881a	0.00059330615
31	0x3c2b93c0	0.010472238
32	0x3bb9af56	0.0056666536
33	0x3f13e193	0.57766074
34	0x3dbf9127	0.093538575
35	0x3b0d60b4	0.0021572532
36	0x3ab76b45	0.0013993761
37	0x395b24e7	0.00020899215
38	0x3b6f5a12	0.0036522192
39	0x3b03e8e9	0.002012784
40	0x3e50ad2b	0.20378558
41	0x3d06e6d2	0.03293497
42	0x380f59aa	3.4177363e-05
43	0x37c99908	2.4032328e-05
44	0x365183db	3.1220177e-06
45	0x388c785f	6.698141e-05
46	0x38129991	3.4952132e-05
47	0x3b5f025b	0.0034028504
48	0x3a10e4b7	0.0005527245
49	0x38c5c5bf	9.430525e-05
50	0x3876b1e7	5.8816655e-05
51	0x3710aa21	8.62268e-06
52	0x392587dc	0.00015786238
53	0x38b94235	8.8338194e-05
54	0x3c116358	0.008873783
55	0x3abbb351	0.0014320408
56	0x368747f0	4.031688e-06
57	0x3619fc85	2.2945762e-06
58	0x34e1f4ab	4.2087535e-07
59	0x36c4b819	5.862687e-06
60	0x364e395b	3.0729777e-06
61	0x39bf4079	0.00036478395
62	0x386b5f8f	5.6117362e-05
63	0x39cf972d	0.0003959475
64	0x3a76be48	0.00094125094
65	0x38610db0	5.3656928e-05
66	0x3aa7be27	0.0012797759
67	0x3a426a84	0.0007416385
68	0x3d87036c	0.065924495
69	0x3c2c28e9	0.010507801
70	0x37d386a6	2.521586e-05
71	0x37ab6bb8	2.0434949e-05
72	0x362a159d	2.5344555e-06
73	0x38422352	4.62861e-05
74	0x37e034f2	2.6727535e-05
75	0x3b2aeef7	0.0026082376
76	0x39da7636	0.00041668274
77	0x39000058	0.0001220716
78	0x399acd1f	0.00029525996
79	0x377dd308	1.512911e-05
80	0x39df2b86	0.00042566302
81	0x397bdf47	0.00024020403
82	0x3cb561c3	0.022141343
83	0x3b6b52ab	0.0035907428
84	0x3686e156	4.0197438e-06
85	0x36fab7f0	7.4719937e-06
86	0x3501c0d9	4.8336875e-07
87	0x37678a97	1.3800941e-05
88	0x3704e381	7.920783e-06
89	0x3a3abe2c	0.0007123675
90	0x38f52745	0.00011689825
91	0x391c3764	0.00014897954
92	0x38c45d0e	9.363341e-05
93	0x377393ab	1.451831e-05
94	0x39879f15	0.00025867732
95	0x39124435	0.00013949054
96	0x3c69972c	0.014257234
97	0x3b19a93d	0.002344682
98	0x38026e29	3.109701e-05
99	0x38c04c94	9.169537e-05
100	0x367a378e	3.728524e-06
101	0x38f5fe6f	0.00011729902
102	0x3887a233	6.4675136e-05
103	0x3bc6c109	0.006065492
104	0x3a81e1e5	0.0009909241
105	0x384edb1d	4.9318292e-05
106	0x380cb5dd	3.3547974e-05
107	0x36a14730	4.806461e-06
108	0x38cbde86	9.7212425e-05
109	0x384fe73a	4.9567992e-05
110	0x3ba3b6d9	0.0049961624
111	0x3a547475	0.00081045117
112	0x3abcf362	0.0014415795
113	0x3a89f3fb	0.0010524982
114	0x392825f9	0.00016035874
115	0x3b355b3d	0.002767279
116	0x3abe1024	0.001450066
117	0x3e185b3e	0.14878556
118	0x3cc62ce8	0.024191335
119	0x382c6533	4.1102245e-05
120	0x38cf95da	9.898441e-05
121	0x3699ad83	4.5799547e-06
122	0x39119998	0.00013885496
123	0x38a49aa0	7.8489305e-05
124	0x3bf1ec4a	0.007382904
125	0x3aa24b63	0.0012382086
126	0x3a4b4ff2	0.0007755748
127	0x39d8ade8	0.000413283
128	0x38868744	6.414813e-05
129	0x3aa3cce1	0.0012496972
130	0x3a2f0bbc	0.0006677469
131	0x3d91a89f	0.0711224
132	0x3c3b82e3	0.01144478
133	0x3b783bc4	0.003787742
134	0x3b123f55	0.002231558
135	0x39a7d725	0.00032013017
136	0x3bc52ff1	0.006017678
137	0x3b566638	0.0032714736
138	0x3eb3d9cc	0.35127103
139	0x3d66e587	0.056371238
140	0x391ad34c	0.00014765299
141	0x39cfeebd	0.0003965999
142	0x378bf54a	1.6684313e-05
143	0x3a0f78dd	0.0005473027
144	0x399d8ff9	0.00030052642
145	0x3ce19a3c	0.027539365
146	0x3b9358da	0.004496676
147	0x3943eb5e	0.0001868433
148	0x38b4d10a	8.6220054e-05
149	0x37835b3a	1.5658898e-05
150	0x39812a34	0.0002463624
151	0x390f58f9	0.00013670688
152	0x3c70d6a7	0.014699615
153	0x3b1c273a	0.0023827092
154	0x38fae232	0.00011963061
155	0x3898b4a0	7.281569e-05
156	0x37410e3d	1.1507012e-05
157	0x3958ca4f	0.00020674731
158	0x38e7dcee	0.0001105609
159	0x3c3cf685	0.011533384
160	0x3af818d8	0.0018928302
161	0x37193643	9.132144e-06
162	0x36b14f3a	5.2842342e-06
163	0x356f9ce0	8.926272e-07
164	0x377b088a	1.4962754e-05
165	0x3702dcbc	7.799998e-06
166	0x3a61820f	0.0008602449
167	0x3911d9d9	0.00013909432
168	0x39942d88	0.00028262683
169	0x3947792d	0.0001902326
170	0x37f98773	2.9746187e-05
171	0x3a0891e6	0.0005209729
172	0x398f1786	0.00027292612
173	0x3ce38886	0.02777506
174	0x3b94bc39	0.0045390395
175	0x35c81efa	1.4910177e-06
176	0x361deb05	2.3531622e-06
177	0x3433dcc1	1.6750984e-07
178	0x36b27f62	5.3196427e-06
179	0x364a0e81	3.0108788e-06
180	0x399058e7	0.00027532058
181	0x383e6edd	4.540278e-05
182	0x3acc8070	0.0015602242
183	0x3ac2ccb2	0.0014862029
184	0x39164709	0.00014331577
185	0x3b5439b8	0.0032383036
186	0x3aec1c35	0.0018013777
187	0x3e378739	0.17922677
188	0x3cebd599	0.028788375
189	0x3a5b0667	0.0008355141
190	0x3a09477a	0.0005236786
191	0x38880e85	6.48769e-05
192	0x3aa5f490	0.0012661386
193	0x3a3dd1a4	0.0007241017
194	0x3d9d7cef	0.07689845
195	0x3c4596e4	0.012059901
196	0x37c1f714	2.3122448e-05
197	0x3849de39	4.8129095e-05
198	0x3634b0f1	2.6925084e-06
199	0x389038ef	6.87706e-05
200	0x381fe706	3.812371e-05
201	0x3b65f327	0.0035087557
202	0x3a150a2e	0.0005685416
203	0x37d72002	2.5644902e-05
204	0x387712f4	5.890704e-05
205	0x36549f75	3.1683278e-06
206	0x38bde395	9.054613e-05
207	0x38541bba	5.057056e-05
208	0x3b956361	0.004558966
209	0x3a425574	0.0007413246
210	0x3656a3c0	3.19838e-06
211	0x370a3ea7	8.240028e-06
212	0x34ad5a49	3.2289452e-07
213	0x3738755d	1.099458e-05
214	0x36c5f617	5.899706e-06
215	0x3a14a3be	0.00056701514
216	0x38bf62ea	9.126014e-05
217	0x37f34bd5	2.900317e-05
218	0x3786873f	1.6037024e-05
219	0x362d2890	2.580262e-06
220	0x3855323e	5.082995e-05
221	0x37e70d58	2.754356e-05
222	0x3b35a6eb	0.00277179
223	0x39f07d45	0.000458697
224	0x3b03e470	0.0020125173
225	0x3add5e15	0.0016889
226	0x3972a659	0.00023140888
227	0x3b7c8421	0.0038530903
228	0x3b07fbac	0.0020749373
229	0x3e513705	0.20431145
230	0x3d08360f	0.03325468
231	0x36a48a5a	4.903687e-06
232	0x376c84c4	1.4097608e-05
233	0x35215979	6.0107374e-07
234	0x379928a0	1.8257939e-05
235	0x372993a7	1.0107563e-05
236	0x3a75b0ce	0.0009372354
237	0x392091d4	0.00015313114
238	0x385665a4	5.1116236e-05
239	0x3869e11d	5.5761182e-05
240	0x36a6f28d	4.975422e-06
241	0x38fa472b	0.00011934185
242	0x388e82ad	6.795428e-05
243	0x3bcd298d	0.0062610568
244	0x3a808f62	0.0009808356
245	0x36ad259b	5.1601796e-06
246	0x3732d82c	1.0659958e-05
247	0x354c25ab	7.6050736e-07
248	0x37867161	1.6026841e-05
249	0x371eb8c6	9.460555e-06
250	0x3a5c3100	0.00083996356
251	0x390dd0f1	0.00013524645
252	0x36a5cb0e	4.941022e-06
253	0x37451429	1.1746809e-05
254	0x350a1ecd	5.1453827e-07
255	0x3791f5d3	1.7399818e-05

exp_avg f4 [128]
0	0x3891a5b3	6.945003e-05
1	0xbaa5f4ec	-0.0012661493
2	0xbaef1de1	-0.0018243158
3	0xba128e13	-0.0005590629
4	0xba96e17e	-0.0011511294
5	0xbbe1c438	-0.006889846
6	0xbab410b4	-0.0013737888
7	0xbac2444d	-0.0014821381
8	0xb86a1f0d	-5.5818866e-05
9	0xbab93fa4	-0.0014133346
10	0x3a2eebbc	0.00066727004
11	0xbb2399eb	-0.0024963568
12	0xb98d3cb8	-0.00026938855
13	0xba3db9f5	-0.00072374876
14	0x39dcb6ad	0.00042097774
15	0xbb0a0db6	-0.0021065301
16	0xbc145efe	-0.009055851
17	0x3ace412a	0.0015735973
18	0xbbdc71af	-0.0067274193
19	0x3905ea0d	0.00012771059
20	0x3a7e65f0	0.0009704521
21	0x3a8cbe0c	0.0010737791
22	0x39adfab5	0.00033183923
23	0xba127e08	-0.0005588238
24	0xbae1adcd	-0.0017217934
25	0xb96d6bed	-0.00022642287
26	0xbc5e3fae	-0.013564987
27	0xbaa81814	-0.0012824559
28	0x394b24ef	0.00019373347
29	0xbaa5a757	-0.0012638372
30	0x393911c0	0.00017649587
31	0xb9964b6f	-0.00028666432
32	0xbb3167d4	-0.0027069943
33	0xb900dfbc	-0.00012290379
34	0xbac6f4e3	-0.0015179183
35	0x3aba120c	0.0014196052
36	0x398749ac	0.00025804096
37	0x3a9bc3cf	0.0011883917
38	0x399ea4de	0.00030258944
39	0xbba4307a	-0.0050106617
40	0xbbabb0bf	-0.0052395756
41	0xbafcd989	-0.0019290905
42	0xb9af124a	-0.00033392227
43	0xbac9d269	-0.001539779
44	0xb9a2dd2f	-0.00031063842
45	0x3981545e	0.00024667656
46	0xba12306f	-0.0005576675
47	0xb9cfab9e	-0.00039609981
48	0x3a1afe67	0.00059125427
49	0xbaba6d12	-0.0014223179
50	0x3a7288f6	0.0009251976
51	0xb9a65863	-0.0003172784
52	0xba886716	-0.0010406699
53	0x3a6a0a1b	0.00089278974
54	0x39cbe05e	0.00038886344
55	0x3a0bd547	0.000533421
56	0xbaff2c3f	-0.0019468142
57	0xba289fa7	-0.00064324815
58	0xbaa69cb5	-0.0012711497
59	0xbab922de	-0.0014124771
60	0x3a0db899	0.00054062303
61	0xb7f86b3a	-2.9613835e-05
62	0xbbe50868	-0.0069895275
63	0xbab93583	-0.0014130328
64	0x3906cdba	0.00012855875
65	0xba829e11	-0.000996532
66	0xbb22fcac	-0.0024869842
67	0xb5607069	-8.361008e-07
68	0xba9367e6	-0.0011246174
69	0x38ab03db	8.1546335e-05
70	0xbac6eb60	-0.0015176348
71	0xba27161d	-0.00063738396
72	0xb9fd5951	-0.00048322466
73	0x3a73b2d0	0.00092963595
74	0xba5f8398	-0.0008526384
75	0xbaca3ba7	-0.0015429155
76	0xb8a358b7	-7.78897e-05
77	0xba082858	-0.0005194
78	0x395bccee	0.0002096181
79	0xba3087d6	-0.00067341083
80	0x3b194a13	0.00233901
81	0xb9c503db	-0.0003757764
82	0xbb03f397	-0.0020134205
83	0x354c9105	7.6206953e-07
84	0x3b4fd368	0.0031711701
85	0x3aac0e78	0.0013126871
86	0x39c8027a	0.00038148818
87	0xba91e7b3	-0.0011131674
88	0xbb2d655f	-0.0026458127
89	0x39037976	0.00012538381
90	0xba9f0ddf	-0.0012134871
91	0xb85a92b1	-5.2111867e-05
92	0x3a902b03	0.0010999147
93	0x38e2c633	0.00010813437
94	0x3a96f6e0	0.0011517666
95	0xb8c943d5	-9.5970616e-05
96	0xb7d73447	-2.565434e-05
97	0xbb2143b2	-0.0024607
98	0xbad5bec8	-0.0016307468
99	0xbb9f6210	-0.004863985
100	0xbb18387a	-0.0023227022
101	0x390271b1	0.0001244012
102	0x3a4ed3f0	0.00078898575
103	0x3b006d85	0.0019596529
104	0xb9b14f91	-0.00033819352
105	0xba9360b2	-0.0011244027
106	0x3a2cf981	0.0006598458
107	0xbad1db43	-0.001601078
108	0xbb2315eb	-0.002488489
109	0x3abd23f4	0.001443027
110	0xbac8b59d	-0.0015312914
111	0xb994fbde	-0.00028416415
112	0x39d58d7c	0.0004073194
113	0xbab93b89	-0.0014132123
114	0xbb7ad1ed	-0.0038272098
115	0xbbe97dfd	-0.0071256147
116	0xba78b763	-0.0009487776
117	0xbbbb373c	-0.0057133716
118	0xba706201	-0.0009169877
119	0x39ccffc0	0.0003910046
120	0xbbca4054	-0.0061722193
121	0x3a20710d	0.00061203615
122	0xbb458734	-0.0030140402
123	0xba11a717	-0.00055562094
124	0x39103d9f	0.00013755866
125	0x361afb91	2.309422e-06
126	0xb9a4b071	-0.00031411977
127	0xb8049acc	-3.161542e-05

exp_avg_sq f4 [128]
0	0x38d9ac7a	0.000103794926
1	0x38e3f371	0.00010869548
2	0x38d3f913	0.00010107658
3	0x39006c3a	0.00012247349
4	0x3cbb9cbc	0.022901885
5	0x3c034959	0.008013093
6	0x390ec59f	0.00013615795
7	0x39b5b6ae	0.00034659117
8	0x3772cc26	1.4471856e-05
9	0x3b2aa672	0.002603915
10	0x38d8dd2d	0.0001034088
11	0x3a6556d4	0.0008748595
12	0x37ef1c58	2.8504219e-05
13	0x3a15a79f	0.00057088764
14	0x397f1b70	0.00024328916
15	0x39516806	0.00019970545
16	0x3bc37967	0.0059654
17	0x399f960b	0.00030438634
18	0x3b3c9480	0.0028775036
19	0x3c653638	0.013989978
20	0x3a90c7e3	0.0011045899
21	0x3a1c7ff1	0.00059699925
22	0x39f20f63	0.000461693
23	0x3810100c	3.434722e-05
24	0x3a91b317	0.0011115995
25	0x373a15c6	1.1091533e-05
26	0x3bea1316	0.0071433885
27	0x3b44ed73	0.0030048757
28	0x3910293b	0.0001374827
29	0x393d51da	0.00018054937
30	0x37bdeb54	2.2640139e-05
31	0x38e9265b	0.0001111745
32	0x3c03f58b	0.0080541475
33	0x381df764	3.7662117e-05
34	0x3983933c	0.00025095965
35	0x380da344	3.3769073e-05
36	0x38129dfa	3.495624e-05
37	0x3b81f3e2	0.0039658407
38	0x3813d5af	3.524654e-05
39	0x3b962168	0.004581619
40	0x3aebee53	0.0018000103
41	0x39fd43b2	0.00048306357
42	0x37567412	1.2782419e-05
43	0x39c1291b	0.00036842455
44	0x38e82f9d	0.00011071491
45	0x389bdbfc	7.431951e-05
46	0x3a11ec1c	0.0005566494
47	0x3945b003	0.00018852954
48	0x3880a6c0	6.134575e-05
49	0x3a72011d	0.0009231733
50	0x3a8dc9ae	0.0010817552
51	0x36d7c3b6	6.430283e-06
52	0x39a9da50	0.00032396847
53	0x3a104628	0.0005503618
54	0x394706e9	0.00018980693
55	0x38f9ed5e	0.00011917458
56	0x3a27ee61	0.00064060657
57	0x3904cc0e	0.00012664517
58	0x3af40585	0.0018617368
59	0x37ac2da0	2.0525244e-05
60	0x38abd691	8.1938815e-05
61	0x3888f6b3	6.530937e-05
62	0x3b5d6799	0.0033783673
63	0x39866e01	0.0002564043
64	0x39980af0	0.00028999848
65	0x3a3d11e7	0.00072124455
66	0x3aec17d7	0.0018012476
67	0x375f28bc	1.330132e-05
68	0x3a8cad60	0.0010732822
69	0x39c879ab	0.00038237622
70	0x37cf3825	2.4702467e-05
71	0x3a4b6a7f	0.00077597046
72	0x372fb1df	1.0472227e-05
73	0x3ba79b89	0.005114977
74	0x396d784a	0.00022646892
75	0x39ce5e64	0.00039361708
76	0x378a8fdf	1.6517877e-05
77	0x38d4fe36	0.00010156298
78	0x3b88e0db	0.0041771955
79	0x396fdd66	0.00022875294
80	0x3bda6b01	0.006665588
81	0x385df8a9	5.292209e-05
82	0x39ed5f43	0.00045275138
83	0x3a034624	0.0005007705
84	0x3a392360	0.0007062461
85	0x38f549f1	0.00011696283
86	0x38dbd05a	0.00010481542
87	0x3a628fc8	0.0008642641
88	0x3b1c60c7	0.0023861395
89	0x396e42a7	0.00022722279
90	0x394d18e1	0.00019559592
91	0x3a307917	0.0006731911
92	0x37cc3f83	2.434827e-05
93	0x3972d802	0.00023159388
94	0x3a217aa1	0.0006159936
95	0x398c52ce	0.00026764575
96	0x389eb82e	7.568333e-05
97	0x39a87568	0.00032130932
98	0x38738fda	5.8069687e-05
99	0x3ae2cebf	0.0017304047
100	0x3a8e64d9	0.0010863795
101	0x38032933	3.1271204e-05
102	0x377620fc	1.4670422e-05
103	0x3ad6f69f	0.0016400403
104	0x3a27c289	0.00063995324
105	0x380a959f	3.304111e-05
106	0x372fa19d	1.0468441e-05
107	0x3a794efb	0.0009510365
108	0x3aaf5951	0.0013378059
109	0x3a3c4205	0.00071814685
110	0x3a5f4414	0.00085169193
111	0x38823b7f	6.209965e-05
112	0x3996762b	0.00028698271
113	0x392c34e5	0.00016422903
114	0x3b347765	0.0027536985
115	0x3b7911cd	0.0038004995
116	0x3abcd14c	0.0014405637
117	0x3c1bba93	0.009504932
118	0x37868e8c	1.6040423e-05
119	0x39f1dec0	0.00046133064
120	0x3b21b437	0.0024674067
121	0x39b67b45	0.00034805588
122	0x3abea0ca	0.0014543768
123	0x39daaf39	0.0004171075
124	0x37ed127a	2.8261205e-05
125	0x3a09ceac	0.0005256932
126	0x39c3db68	0.0003735677
127	0x363964c5	2.7625804e-06
