Assets/IA/Pruebas/results/Pad17/PadBehavior/PadBehavior-20020.pt (torch, 438460 bytes, 30 tensors)

network_body._body_endoder.seq_layers.0.weight f4 [128, 5]
-0.68815494 -0.7900557 0.060273457 -0.1422452 0.7420418 -0.0105296895 -0.37028152 -0.7034138
0.27289286 0.66323036 -0.65597355 0.19568653 0.05339608 -0.3318574 0.4411318 -0.31957316
0.6639812 -0.29862165 0.034924164 0.5412215 0.22287413 0.17843458 -0.40976027 -0.059305616
0.30655426 0.22843747 0.16424744 0.66734296 0.31077147 0.4840146 0.28590527 0.43026105
0.08213077 -0.4330127 -0.23664723 -0.030024197 -0.2855806 -0.13110334 -0.53042525 -0.008084008
-0.23922643 0.48439834 -0.25281128 0.29212946 -0.5314906 1.0006961 -0.7557558 -0.7017969
0.17371853 0.042317864 -0.19764933 -0.3010922 -0.73867637 -0.12503114 0.3891177 -0.3572995
0.03349706 0.104576305 -0.21859434 0.43004963 -0.30370685 0.47967568 -0.20240118 0.0041544614
-0.23250698 -0.050005008 0.7525137 0.32838595 -0.0717721 0.06037264 0.08859269 0.029796174
-0.69345754 0.22886491 0.036901932 0.73936087 0.19167519 0.09513312 -0.031985756 0.14143533
0.2782621 -0.6769747 -0.27720097 -0.41154513 0.01772252 0.06858608 0.46046853 -0.81108385
0.05784416 -0.069815226 -0.059614807 -0.46174526 -0.727287 0.33577865 -0.19004461 0.8685188
0.662907 0.59783614 0.56992394 -0.17660905 0.08719557 -0.6301161 -0.14660603 0.022606336
0.4360949 0.50400287 -0.6257561 0.54604363 0.40110078 -0.7059554 -0.47519034 0.8301543
-0.008457985 -0.9511141 -0.25071028 -0.26703846 -0.08058016 -0.27433264 0.6412765 0.21958181
0.14185531 0.8247907 -0.14749818 -0.35612258 -1.4745164 0.2838996 -1.3634639 0.7541375
-0.06415743 0.21151073 0.018104423 -0.2486199 -0.06878594 -0.71283877 0.21380936 -0.02400728
-0.61621326 -0.24447283 -0.061667126 -0.41492155 -0.61931664 -0.24488315 -0.30111125 -0.888576
0.94878757 0.007946074 -0.5053166 0.65495366 -0.63103235 0.5648251 0.109539144 0.09289428
0.12342634 0.73489696 0.22320642 -0.16322199 -0.028656224 0.84207445 -0.3609933 -0.22891805
0.9836902 0.30047694 -1.0448834 0.4863143 0.39887735 0.53238535 -0.034039415 -0.00885505
-0.25581232 -0.5488727 0.9676389 0.42335334 -0.5440177 -0.22707506 -0.39240575 -0.46318337
-0.61686957 -0.10931412 0.7288019 -0.11403496 -0.4389239 0.0828706 0.71990556 -0.017960628
-0.061434235 -0.1365525 -0.2613629 0.33378026 -0.08287621 -0.10621619 -0.049269356 0.18115763
0.5565908 0.13387609 -0.13062152 0.28793937 -0.13716348 0.6416387 -0.32894206 -0.18371662
0.32126495 -0.48979986 -0.16069385 0.12535582 -0.3598097 0.77907956 0.056538943 0.004276225
0.7957767 -0.66913646 0.4102809 0.17410189 0.33690944 0.044547528 -0.44298306 0.15281662
-0.2158964 -0.45916966 -0.1815995 0.18860245 0.5184608 -0.1786359 -0.64598244 0.39546856
-0.05899858 0.11304922 -0.13512102 0.051403094 0.019191723 0.23468557 0.57618934 0.7142236
0.22594504 0.5323221 -0.58680654 0.09301881 0.22150473 -0.48067364 0.10835215 -0.47573525
-0.32236868 -0.07556083 -0.064500794 -0.7971588 0.15786067 -0.2235512 -0.336692 -0.018144282
0.65503716 0.07267644 -0.466434 -0.35950708 -0.13785213 0.2785412 -0.09833319 0.15175712
00000000: ec2a 30bf 1741 4abf 4de1 763d baa8 11be
00000010: 74f6 3d3f b884 2cbc 8a95 bdbe ed12 34bf
00000020: 9db8 8b3e 77c9 293f e2ed 27bf 0d62 483e
00000030: d9b5 5a3d 37e9 a9be 07dc e13e 189f a3be
00000040: acfa 293f f0e4 98be a40c 0f3d 7e8d 0a3f
00000050: 1e39 643e 8eb7 363e 19cc d1be 72ea 72bd
00000060: aef4 9c3e 83eb 693e 7b30 283e fdd6 2a3f
00000070: 701d 9f3e c3d0 f73e 2d62 923e 2d4b dc3e
00000080: 2d34 a83d d7b3 ddbe a753 72be 4ef5 f5bc
00000090: 9f37 92be f43f 06be f3c9 07bf c972 04bc
000000a0: c6f7 74be 0f03 f83e 7b70 81be fe91 953e
000000b0: c50f 08bf cf16 803f 3679 41bf f6a8 33bf
000000c0: 45e3 313e 7f55 2d3d 9664 4abe c228 9abe
000000d0: e519 3dbf 2a08 00be 6f3a c73e f6ef b6be
000000e0: 3734 093d 1a2c d63d 32d7 5fbe 772f dc3e
000000f0: 777f 9bbe 0d98 f53e 4142 4fbe 2622 883b
00000100: 4f16 6ebe 0dd2 4cbd bda4 403f 3422 a83e
00000110: 40fd 92bd 4d49 773d 1670 b53d 1b17 f43c
00000120: 6f86 31bf 905b 6a3e 7b26 173d c146 3d3f
00000130: 8046 443e 27d5 c23d 7f03 03bd 6cd4 103e
00000140: 5f78 8e3e 374e 2dbf 49ed 8dbe 0bb6 d2be
00000150: d12e 913c dc76 8c3d 88c2 eb3e 31a3 4fbf
00000160: ffed 6c3d 49fb 8ebd a82e 74bd e069 ecbe
00000170: 7b2f 3abf 2eeb ab3e 0e9b 42be 4057 5e3f
00000180: 46b4 293f ca0b 193f 89e6 113f 01d9 34be
00000190: 9793 b23d 4a4f 21bf e41f 16be ec30 b93c
000001a0: d547 df3e 5506 013f 8d31 20bf 84c9 0b3f
000001b0: 155d cd3e 7eb9 34bf 264c f3be fe84 543f
000001c0: 5c93 0abc 377c 73bf 195d 80be 44b9 88be
000001d0: 3607 a5bd 5475 8cbe b22a 243f 0eda 603e
000001e0: 8542 113e 7c25 533f c309 17be b355 b6be
000001f0: f4bc bcbf 4a5b 913e fc85 aebf 280f 413f
00000200: f864 83bd 4596 583e ba4f 943c 3796 7ebe
00000210: a5df 8cbd 9a7c 36bf d7f0 5a3e eaaa c4bc
00000220: 27c0 1dbf 1657 7abe ab96 7cbd 9970 d4be
00000230: 898b 1ebf a6c2 7abe 412b 9abe b779 63bf
00000240: bee3 723f 4030 023c 6e5c 01bf 0bab 273f
00000250: 568b 21bf 6198 103f 0f56 e03d 5b3f be3d
00000260: f3c6 fc3d 3522 3c3f 3990 643e aa23 27be
00000270: 75c0 eabc 3192 573f 1dd4 b8be 7e69 6abe
00000280: 1fd3 7b3f 1dd8 993e bdbe 85bf 30fe f83e
00000290: a739 cc3e 684a 083f ea6c 0bbd c614 11bc
000002a0: d5f9 82be ec82 0cbf 2fb7 773f c5c1 d83e
000002b0: be44 0bbf 5d86 68be 68e9 c8be 5f26 edbe
000002c0: 2aeb 1dbf 15e0 dfbd c392 3a3f 298b e9bd
000002d0: a2ba e0be 10b8 a93d bb4b 383f 2b22 93bc
000002e0: 77a2 7bbd 6bd4 0bbe 5cd1 85be 3fe5 aa3e
000002f0: 01bb a9bd e087 d9bd aace 49bd 6381 393e
00000300: bc7c 0e3f d016 093e a6c1 05be ca6c 933e
00000310: 9574 0cbe 6f42 243f 186b a8be 3620 3cbe
00000320: d77c a43e 0cc7 fabe ee8c 24be 475d 003e
00000330: fa38 b8be c271 473f 6195 673d 931f 8c3b
00000340: 06b8 4b3f 874c 2bbf 5710 d23e c447 323e
00000350: 657f ac3e 7877 363d adce e2be f67b 1c3e
00000360: f213 5dbe 4918 ebbe 38f5 39be 0021 413e
00000370: d9b9 043f 54ec 36be 1b5f 25bf db7a ca3e
00000380: 7fa8 71bd 5986 e73d 2a5d 0abe 0d8c 523d
00000390: f637 9d3c 6a51 703e 2581 133f 5cd7 363f
000003a0: 235e 673e 4346 083f f438 16bf a580 be3d
000003b0: 23d2 623e db1a f6be bbe7 dd3d 9293 f3be
000003c0: 820d a5be a3bf 9abd fe18 84bd 9912 4cbf
000003d0: 3aa6 213e 9bea 64be e562 acbe 51a3 94bc
000003e0: 84b0 273f 63d7 943d 70d0 eebe 5011 b8be
000003f0: 1c29 0dbe f49c 8e3e e962 c9bd 3866 1b3e

network_body._body_endoder.seq_layers.0.bias f4 [128]
0.007992619 -0.00022231776 -0.005218303 -0.015110555 -0.013522801 -0.0026315192 0.0036248122 0.0034042625
-0.007648537 -0.0038204014 -0.0014806755 -0.014443883 -0.006388372 -0.02111887 -0.012655219 0.005668959
0.03334624 -0.03740308 -0.018697254 -0.008251088 0.0005895191 -0.009387427 -0.01719569 -0.019004213
0.0036838835 0.022936208 0.0062771346 -0.021741986 -0.0015095356 0.015211143 -0.032865997 0.017635835
-0.016537907 0.0030011176 -0.012866178 -0.00029312674 -0.0033855636 0.0047493856 0.000902169 0.0031995114
0.0021373918 -0.0037583616 -0.005765469 -0.010220487 -0.01027447 -0.0059730597 -0.014665757 0.008941196
-0.008548611 -0.020631835 -0.025421673 0.0037464816 -0.005576957 -0.026619378 -0.012293817 -0.013538208
-0.019119136 0.026489135 -0.008523582 0.008168431 -0.007211385 -0.004464717 0.006209159 -0.0058251657
-0.0028878073 -0.017364543 -0.01617546 0.0070999973 -0.0065330234 -0.016663162 -0.016307415 -0.010515037
0.007872625 -0.0049539194 -0.01051997 -0.012728968 0.014254927 -0.019261817 -0.0085194595 -0.0064993757
0.004265086 -0.008731806 -0.011737765 0.002907703 -0.019016493 -0.01625581 -0.01671415 0.0017915206
-0.012992748 -0.00024748984 -0.015547915 -0.0028553423 0.0035100307 -0.0058531845 0.00042408193 -0.0071682865
0.028054507 0.0095694205 -0.009288214 -0.011304741 -0.004767127 0.0028543258 -0.019974627 0.00345416
0.016975487 -0.026803672 -0.0073173484 0.0025611108 -0.02460445 -0.01768425 -0.008577338 0.003757233
-0.027091777 7.979158e-05 -0.016270505 -0.013112935 -0.0025942223 -0.008753802 -0.0006205038 -0.005278208
-0.01865909 0.010913376 0.003352232 0.0139234215 -0.008747202 0.002173573 -0.0031454863 -0.0053081852
00000000: 79f3 023c f81d 69b9 4cfe aabb 4392 77bc
00000010: bd8e 5dbc 9175 2cbb 428e 6d3b 0c1a 5f3b
00000020: 94a0 fabb b35f 7abb 3a13 c2ba 09a6 6cbc
00000030: 8c55 d1bb 7b01 adbc d657 4fbc adc2 b93b
00000040: 1196 083d f933 19bd fc2a 99bc 922f 07bc
00000050: f589 1a3a b9cd 19bc fadd 8cbc b9ae 9bbc
00000060: 4f6d 713b b7e4 bb3c 6cb0 cd3b 401c b2bc
00000070: 9cdb c5ba 2838 793c 7f9e 06bd 0779 903c
00000080: 817a 87bc 66ae 443b a9cc 52bc ceae 99b9
00000090: 55e0 5dbb bca0 9b3b 897f 6c3a e5ae 513b
000000a0: 7c13 0c3b d84e 76bb 42ec bcbb d473 27bc
000000b0: 4056 28bc a8b9 c3bb a548 70bc 187e 123c
000000c0: 790f 0cbc 1804 a9bc 1d41 d0bc 8887 753b
000000d0: e8be b6bb e210 dabc 016c 49bc 5ccf 5dbc
000000e0: bc9f 9cbc beff d83c 7ea6 0bbc e2d4 053c
000000f0: 7b4d ecbb c34c 92bb 3376 cb3b 08e1 bebb
00000100: 5e41 3dbb 1640 8ebc 6682 84bc 18a7 e83b
00000110: f912 d6bb 2f81 88bc 2197 85bc 4347 2cbc
00000120: 2ffc 003c 7d54 a2bb f45b 2cbc 298d 50bc
00000130: 7f8d 693c f5ca 9dbc 3495 0bbc b7f8 d4bb
00000140: 22c2 8b3b d90f 0fbc c14f 40bc 298f 3e3b
00000150: 7ac8 9bbc e82a 85bc 1dec 88bc 75d1 ea3a
00000160: 89df 54bc 86c1 81b9 afbc 7ebc b220 3bbb
00000170: 8b08 663b 12cc bfbb 5057 de39 f2e3 eabb
00000180: 91d2 e53c 0fc9 1c3c 982d 18bc 8537 39bc
00000190: 8f35 9cbb a40f 3b3b d4a1 a3bc 305f 623b
000001a0: 2d10 8b3c 6093 dbbc 5ec6 efbb 4fd8 273b
000001b0: 468f c9bc 8fde 90bc f787 0cbc e93b 763b
000001c0: 93ef ddbc c755 a738 b949 85bc a3d7 56bc
000001d0: d403 2abb 1b6c 0fbc 4ea9 22ba d1f4 acbb
000001e0: f3da 98bc 04ce 323c 1fb1 5b3b 101f 643c
000001f0: 6d50 0fbc 8172 0e3b 8124 4ebb 49f0 adbb

network_body._body_endoder.seq_layers.2.weight f4 [128, 128]
-0.064474605 -0.03693955 -0.08459505 -0.027094664 -0.0102532795 0.029976143 -0.0004469267 -0.0017180098
-0.009854086 0.0504577 -0.120819114 0.09570986 -0.060097717 -0.07766678 0.00975161 0.06667935
-0.05365612 0.12294715 -0.040737446 0.012893905 -0.013439378 -0.09365946 -0.011992749 -0.099218115
0.022997834 0.027543208 0.04559496 0.058947638 -0.0152408 -0.045194548 0.016652748 -0.028557697
0.039116777 -0.053401995 -0.09565168 -0.06762411 -0.06137786 -0.123577334 0.024026664 0.08871887
0.09940875 0.08997577 0.122288615 -0.011758128 0.2405162 -0.0033406212 -0.16736545 -0.02339514
0.10038382 0.08984644 -0.0037406567 0.07298544 0.018223438 0.031112602 -0.052942853 -0.1769944
-0.098550454 0.10212023 0.0067552105 0.11477039 -0.0152208675 -0.21211559 0.015539372 0.06659756
0.10411046 0.09463594 -0.0038118884 -0.027104337 0.036285367 -0.21372366 0.10510628 0.082718424
0.020904604 0.029681904 0.25245503 -0.09422275 0.064141795 0.01350846 -0.17988887 0.032308992
0.116473004 0.0384366 -0.07666812 0.08407098 -0.026330786 0.04445531 -0.0006997304 0.1935608
0.054717667 -0.06995543 -0.008548988 -0.026784478 0.07226226 -0.07344542 -0.06518828 -0.17706738
-0.12769891 0.052256875 0.14757591 0.04895353 -0.00048801836 -0.13142827 -0.079218015 -0.108925976
-0.002002327 0.02303025 0.05811937 -0.15440324 0.1353643 -0.07588874 -0.05791253 0.080919206
0.08720492 0.00811078 -0.09437629 -0.08227462 -0.0681852 0.033862434 -0.03964523 0.06342081
-0.07032411 -0.08922463 0.079194725 0.06887851 0.10721063 0.18557978 0.066898674 -0.17278682
-0.025136732 -0.14563696 0.082882464 -0.097029656 -0.08922749 -0.06985506 -0.014078923 -0.08275598
-0.06851331 -0.052417867 0.021424292 -0.02027173 0.026912611 -0.107286364 0.037229683 -0.0047771595
-0.1269384 -0.09982208 -0.01042199 -0.0058646607 -0.06056409 -0.041671988 0.032081462 0.060385715
-0.021005657 0.11705947 -0.009026572 -0.04527334 -0.13113317 -0.017812762 -4.278062e-06 -0.008934591
-0.11073216 0.14656521 -0.027133055 -0.026652897 -0.023052007 0.091385275 -0.06659743 0.013924591
0.05171011 0.046453126 -0.08689179 -0.11429089 0.018851947 -0.05926977 0.056842104 0.1540994
0.052628905 -0.009949423 0.023615116 0.0051133772 0.16628562 -0.003690411 0.13575456 -0.17094076
-0.019567301 0.0061510466 -0.057926733 0.101311214 -0.1263708 0.028721165 0.010650559 -0.08943022
-0.0069823763 0.02074863 0.0351481 0.071390286 -0.15754886 0.05256732 0.052804742 0.23280598
-0.06689235 -0.122852504 -0.10370673 -0.10536212 0.0066384813 -0.01619414 0.012164051 -0.023549153
0.06606852 -0.11119078 0.01310692 0.07800283 -0.061896134 -0.11159256 -0.04660216 -0.027586613
0.02559917 -0.04228828 -0.028245369 -0.0548806 -0.054803904 -0.010521491 -0.156684 -0.11195505
0.10260499 -0.08117918 -0.011883246 -0.021380873 -0.13030691 -0.13877957 0.13563168 -0.030708928
-0.06917454 0.09124957 -0.13277544 -0.03502684 -0.0939286 -0.07061141 -0.028318945 0.13866264
0.040234733 0.0063122557 0.14520495 -0.04499215 -0.018380584 0.011646414 -0.038393002 -0.20125023
0.14844084 0.089817286 0.07919783 0.011609557 -0.018697318 -0.12176021 0.029530894 0.05167796
00000000: 430b 84bd ed4d 17bd 2b40 adbd a1f5 ddbc
00000010: 5ffd 27bc 8790 f53c 7c51 eab9 d82e e1ba
00000020: 0873 21bc bcac 4e3d 0370 f7bd 8803 c43d
00000030: 0629 76bd c30f 9fbd 38c5 1f3c 2f8f 883d
00000040: 85c6 5bbd b7cb fb3d 4fdc 26bd f540 533c
00000050: d630 5cbc 88d0 bfbd 3c7d 44bc de32 cbbd
00000060: f465 bc3c 4ba2 e13c c8c1 3a3d 1473 713d
00000070: 8cb4 79bc eb1d 39bd 586b 883c d5f1 e9bc
00000080: ea38 203d 0dbc 5abd 07e5 c3bd 827e 8abd
00000090: 5a67 7bbd 1d16 fdbd 91d3 c43c 3db2 b53d
000000a0: d196 cb3d 3745 b83d 7472 fa3d 2aa5 40bc
000000b0: e149 763e 53ee 5abb d961 2bbe 2aa7 bfbc
000000c0: 0896 cd3d 6901 b83d ce25 75bb 6479 953d
000000d0: 5249 953c dbdf fe3c 9bda 58bd 053e 35be
000000e0: d2d4 c9bd 6924 d13d d05a dd3b bd0c eb3d
000000f0: f260 79bc d434 59be da98 7e3c 4d64 883d
00000100: dd37 d53d 7dd0 c13d e0d0 79bb ea09 debc
00000110: f79f 143d 60da 5abe f641 d73d 4768 a93d
00000120: 2240 ab3c 7727 f33c c941 813e dbf7 c0bd
00000130: c65c 833d 9652 5d3c ca34 38be 6f56 043d
00000140: 6689 ee3d b26f 1d3d 2d04 9dbd 682d ac3d
00000150: a9b3 d7bc c516 363d 1d6e 37ba cd34 463e
00000160: a21f 603d cb44 8fbd 0e11 0cbc 1f6b dbbc
00000170: 3cfe 933d 8d6a 96bd 6f81 85bd 2751 35be
00000180: 81c3 02be 4e0b 563d 241e 173e 7f83 483d
00000190: b7dc ffb9 2295 06be 0e3d a2bd 9514 dfbd
000001a0: 7939 03bb efa9 bc3c 940e 6e3d e21b 1ebe
000001b0: f09c 0a3e 8e6b 9bbd b035 6dbd f8b8 a53d
000001c0: 7e98 b23d 14e3 043c 5b48 c1bd 997f a8bd
000001d0: afa4 8bbd 56b3 0a3d 0963 22bd c5e2 813d
000001e0: 1606 90bd 67bb b6bd d830 a23d 2d10 8d3d
000001f0: 3f91 db3d a008 3e3e 2c02 893d 07ef 30be
00000200: 8ceb cdbc db21 15be 48be a93d 7cb7 c6bd
00000210: e7bc b6bd 2b10 8fbd 48ab 66bc f87b a9bd
00000220: b550 8cbd 1eb4 56bd ff81 af3c e610 a6bc
00000230: d677 dc3c f4b8 dbbd 277e 183d b889 9cbb
00000240: 24fc 01be 856f ccbd ffc0 2abc 572c c0bb
00000250: 0d12 78bd 3fb0 2abd da67 033d 0357 773d
00000260: 0e14 acbc e0bc ef3d 30e4 13bc 8a70 39bd
00000270: c647 06be 12ec 91bc 468c 8fb6 6462 12bc
00000280: 8bc7 e2bd 3115 163e 2446 debc 2d57 dabc
00000290: 90d7 bcbc 3428 bb3d 3c64 88bd f823 643c
000002a0: fbcd 533d a245 3e3d 53f4 b1bd 5811 eabd
000002b0: 666f 9a3c dcc4 72bd 44d3 683d 3ccc 1d3e
000002c0: 6891 573d e802 23bc 7d74 c13c 1e8e a73b
000002d0: c746 2a3e d3da 71bb 3e03 0b3e 180b 2fbe
000002e0: 9b4b a0bc b88e c93b 9544 6dbd 417c cf3d
000002f0: 5967 01be a648 eb3c af7f 2e3c 3127 b7bd
00000300: 6bcc e4bb 08f9 a93c 74f7 0f3d 1235 923d
00000310: 7d54 21be d550 573d c949 583d b164 6e3e
00000320: dbfe 88bd 189a fbbd 3264 d4bd 18c8 d7bd
00000330: 9e87 d93b 93a9 84bc ba4b 473c 27ea c0bc
00000340: ef4e 873d feb7 e3bd 68be 563c f3bf 9f3d
00000350: cd86 7dbd a48a e4bd e8e1 3ebd 52fd e1bc
00000360: 5ab5 d13c 7a36 2dbd d562 e7bc 7bca 60bd
00000370: 0f7a 60bd 5562 2cbc c571 20be b048 e5bd
00000380: 9122 d23d 4541 a6bd f2b1 42bc f126 afbc
00000390: 2d6f 05be 3b1c 0ebe 08e3 0a3e 4a91 fbbc
000003a0: 62ab 8dbd 0ee1 ba3d 49f6 07be 4e78 0fbd
000003b0: a35d c0bd b79c 90bd 22fd e7bc 94fd 0d3e
000003c0: 2dcd 243d 0ad7 ce3b 9bb0 143e b049 38bd
000003d0: e192 96bc 9ad0 3e3c fb41 1dbd 8a14 4ebe
000003e0: e000 183e 20f2 b73d 7932 a23d 0336 3e3c
000003f0: 1e2b 99bc 6b5d f9bd c6ea f13c 45ac 533d

network_body._body_endoder.seq_layers.2.bias f4 [128]
-0.02368547 0.0017288324 -0.004758338 -0.0114273755 0.008099396 -0.01834117 -0.00027080253 0.020150024
-0.0010123196 -0.007874242 -0.01160329 -0.0056624548 -0.017352486 0.0059767766 -0.018879542 -0.017228426
0.012073633 -0.017809123 -0.0030104565 -0.01680566 -0.010880268 -0.012119751 0.0060636224 -0.010865367
-0.0192339 -0.013403397 -0.0045017744 -0.0024965915 -0.0037369996 0.007922684 -0.0072551495 -0.016677633
-0.012382603 -0.0032891226 -0.002258478 -0.016939191 0.00016348941 -0.0044632484 -0.006613677 -0.023240136
-0.011246201 -0.0035193528 -0.0010220958 -0.023082742 0.0027898904 -0.010267751 0.0062194318 0.0072346404
0.0043798904 0.012558546 -0.00092969 0.009779258 0.005545894 -0.00030518722 -0.009170618 -0.011454615
0.0048969965 -0.022327194 0.012814513 -0.011466358 -0.004301361 -0.016443534 0.014925932 -0.0028670006
0.013933923 -0.004677536 0.013631245 -0.00929985 -0.010690925 -0.0054936567 -0.008136181 -0.022847112
0.0026206586 0.0017635216 -0.011166861 -0.02267997 -0.011785144 -0.000742349 -0.0045030895 0.001651271
-0.013678191 -0.01329608 -0.0008965407 -0.006302562 0.01329675 0.012747615 -0.012695815 -0.02867687
0.0150352875 -0.020049764 -0.008478027 -0.0020639056 0.0028821097 -0.017374916 0.0065354574 -0.006218232
-0.03280354 0.0057226787 -0.005375551 0.00020981871 0.0018925205 0.0017681246 -0.009336528 0.0023993447
-0.008809684 9.9549536e-05 -0.0016235472 0.0014139886 -0.015294372 0.0017557117 -0.005921802 -0.012325701
-0.011653676 -0.01090545 -0.012326346 -0.0076764063 -0.0054818215 -0.007686985 -0.008362414 0.009274973
-0.002826559 0.008497554 -0.007615885 0.003241013 -0.022263383 -0.0050044884 -0.002903008 -0.014794424
00000000: 0808 c2bc fd99 e23a d5eb 9bbb e339 3bbc
00000010: 54b3 043c 3940 96bc 80fa 8db9 aa11 a53c
00000020: cfaf 84ba f702 01bc ba1b 3ebc 1d8c b9bb
00000030: cd26 8ebc d6d8 c33b 45a9 9abc a122 8dbc
00000040: 7dd0 453c 70e4 91bc 144b 45bb 06ac 89bc
00000050: 2743 32bc ec91 46bc 5ab1 c63b a704 32bc
00000060: 6990 9dbc ec99 5bbc 9f83 93bb db9d 23bb
00000070: 73e8 74bb 25ce 013c 9bbc edbb 889f 88bc
00000080: 67e0 4abc 528e 57bb f902 14bb 0fc4 8abc
00000090: 5b6e 2b39 7140 92bb 8bb7 d8bb 1962 bebc
000000a0: fc41 38bc f1a4 66bb d8f7 85ba 0518 bdbc
000000b0: 98d6 363b 123a 28bc 60cc cb3b 9010 ed3b
000000c0: 2f85 8f3b 5cc2 4d3c 71b6 73ba 2e39 203c
000000d0: 55ba b53b 8901 a0b9 5c40 16bc 23ac 3bbc
000000e0: fc76 a03b 85e7 b6bc f7f3 513c 64dd 3bbc
000000f0: 6ef2 8cbb 97b4 86bc e58b 743c 4ae4 3bbb
00000100: 1c4b 643c 0446 99bb 9655 5f3c 665e 18bc
00000110: fd28 2fbc 2204 b4bb 9e4d 05bc de29 bbbc
00000120: 5bbf 2b3b f725 e73a 36f5 36bc 58cb b9bc
00000130: 7a16 41bc 339a 42ba a78e 93bb 766f d83a
00000140: 7e1a 60bc cdd7 59bc d405 6bba b985 cebb
00000150: 9dda 593c 5fdb 503c 1c02 50bc c1eb eabc
00000160: 9156 763c 673f a4bc 6ce7 0abc 9742 07bb
00000170: c7e1 3c3b d755 8ebc 6427 d63b 50c2 cbbb
00000180: 015d 06bd 4f85 bb3b 6425 b0bb c802 5c39
00000190: 730e f83a 6bc0 e73a 3df8 18bc 533e 1d3b
000001a0: 7e56 10bc 40c5 d038 34cd d4ba 9655 b93a
000001b0: 3f95 7abc e91f e63a ad0b c2bb bdf1 49bc
000001c0: 0fef 3ebc c6ac 32bc 71f4 49bc 5d8a fbbb
000001d0: daa0 b3bb 1be3 fbbb 8202 09bc 0ef6 173c
000001e0: ca3d 39bb 5339 0b3c ad8e f9bb 2d67 543b
000001f0: b361 b6bc b1fc a3bb 6440 3ebb 5064 72bc

action_model._continuous_distribution.mu.weight f4 [1, 128]
0.0017363545 -0.00052384514 0.0060761543 -0.009030549 0.007800013 0.0016379142 0.0051167225 0.040413037
0.031252097 0.0005341229 -0.02075376 -0.0023462053 9.412302e-05 0.043251533 -0.00021698032 0.00015570309
0.022798253 -0.00015061453 0.008108118 -0.014187258 -0.005896214 0.00013651831 0.024698364 -0.0010805604
-0.009238433 0.017228672 0.008588604 0.001207767 0.00048999296 0.012029901 -0.0071565746 -0.005928478
-0.007316101 -0.011136495 0.029695034 0.0012679494 0.007951167 0.0010144889 -0.005905463 0.0021092764
0.003037488 0.011430182 -0.016074859 -0.0030332797 0.012291599 -0.03034905 -0.01931448 0.038799524
0.022773406 0.0062188148 0.014514083 0.0011864187 -0.01095671 -0.035624985 -0.0071349726 -0.011041876
0.011039084 -0.0021216732 0.01798066 -0.012994068 -0.018765366 -0.008916795 -0.04274521 0.012337839
0.040631905 0.005335795 0.019520944 -0.028634956 -0.004975658 -0.009690467 -0.013346589 -0.0026088734
0.00929912 0.0008574039 -0.0021152943 -0.01790572 0.0024347734 0.0066405036 -0.035948683 0.0024880262
-0.0111473445 -0.0016661346 0.020494679 0.011678892 0.014290679 0.019984901 -0.02469095 -0.004842016
0.026379276 0.0025570006 -0.010455157 -0.018916525 0.010041069 0.006473633 0.01096167 0.016764337
0.0046453117 0.014100108 -0.04046647 -0.024270026 0.009243011 -0.03989542 -0.0127208205 -0.043874543
-0.020211697 0.011903175 0.008857221 0.018657314 0.00084815134 0.009084535 -0.00938654 -0.0022613448
-0.0040237624 0.0033700187 0.0012037291 -0.012372374 -0.04073701 0.0014084015 0.006727401 -0.0013210247
0.0054657264 0.034637157 0.00089847 -0.027826082 -0.023877883 0.0020421853 0.0027068364 -0.0058424496
00000000: 6496 e33a a752 09ba 7a1a c73b def4 13bc
00000010: 4097 ff3b 48af d63a 2eaa a73b 2488 253d
00000020: 3302 003d 6204 0c3a ca03 aabc cbc2 19bb
00000030: e963 c538 8528 313d 3685 63b9 3b44 2339
00000040: 67c3 ba3c 48ee 1db9 e9d7 043c ac71 68bc
00000050: 0735 c1bb 5b26 0f39 3954 ca3c 97a1 8dba
00000060: cc5c 17bc 2523 8d3c 37b7 0c3c f04d 9e3a
00000070: df72 003a 1019 453c b381 eabb ae43 c2bb
00000080: e7bb efbb d875 36bc 0043 f33c 5231 a63a
00000090: 9d45 023c 99f8 843a 9d82 c1bb c93b 0a3b
000000a0: 9810 473b a845 3b3c 6caf 83bc fdc9 46bb
000000b0: b462 493c 929e f8bc 6639 9ebc 40ec 1e3d
000000c0: 4b8f ba3c 33c7 cb3b 7acc 6d3c 9b81 9b3a
000000d0: c683 33bc 81eb 11bd 7dcc e9bb fce8 34bc
000000e0: 46dd 343c c50b 0bbb 2d4c 933c 12e5 54bc
000000f0: d3b9 99bc c017 12bc 9a15 2fbd a624 4a3c
00000100: a46d 263d e5d7 ae3b 63ea 9f3c db93 eabc
00000110: d80a a3bb c4c4 1ebc a7ab 5abc a2f9 2abb
00000120: 565b 183c 67c3 603a c0a0 0abb 04af 92bc
00000130: b890 1f3b 9598 d93b ed3e 13bd 270e 233b
00000140: 5aa3 36bc 3362 daba 75e4 a73c d358 3f3c
00000150: 7423 6a3c 60b7 a33c ad44 cabc c6a9 9ebb
00000160: 5a19 d83c 5a93 273b 1b4c 2bbc d4f6 9abc
00000170: 4c83 243c c520 d43b 9498 333c 5d55 893c
00000180: b337 983b 2404 673c 2bc0 25bd efd1 c6bc
00000190: ff6f 173c 6169 23bd fd6a 50bc cbb5 33bd
000001a0: 0093 a5bc 8905 433c e11d 113c 39d7 983c
000001b0: 7956 5e3a 4dd7 143c 01ca 19bc 1233 14bb
000001c0: c4d9 83bb 88db 5c3b 72c6 9d3a 7fb5 4abc
000001d0: dadb 26bd 1d9a b83a 8871 dc3b 3c26 adba
000001e0: d619 b33b b1df 0d3d 4d87 6b3a 86f3 e3bc
000001f0: 8d9b c3bc 2fd6 053b 2e65 313b 0572 bfbb

exp_avg f4 [128, 5]
0.0019361455 0.011456675 0.000490678 0.015018261 0.00080932723 0.0004984066 -0.00017103778 -0.0028094875
-0.034987573 -0.00924857 0.0022396185 0.006302229 0.0015688863 0.010024132 0.0013627342 -0.00035566388
-0.0015717448 -0.0006996608 0.0033734874 -0.00085157447 8.605089e-05 0.0021760126 -3.4634562e-05 -0.0046884413
-0.0014033824 -0.0004936953 -5.7300083e-05 0.0020800724 0.027844857 0.0060356404 -0.0011568574 -0.005487726
-0.00021717642 -0.011554828 -0.0006286454 9.685838e-05 -0.0016329876 0.0006620128 -0.0082772 9.519433e-05
0.00037111217 0.00093195355 -0.0014501073 -0.023358732 -0.0056390967 0.0005148761 -0.00387225 0.0010391289
-0.0004838076 0.001238879 0.00023576502 0.0014526598 0.00047908086 -0.0068471087 -0.0012682319 0.00088723714
0.0029685064 0.0010669141 -0.0016072094 0.0012351524 -0.000543618 -0.0008392133 -0.0008547511 0.0026000696
-0.0014533773 -7.907925e-05 0.0019160063 0.0012648674 0.009332936 0.003365837 -0.0003024811 -0.001413943
0.00035261412 0.012713923 0.003124401 -0.00055628084 0.0007799094 0.00033851576 0.021250082 0.0025101842
-0.00014237435 0.0018873633 0.0008996199 -8.8775596e-05 0.0021109588 -9.838047e-05 0.0013700827 -4.553005e-05
-0.00076897803 1.0443948e-05 -0.00045998592 -0.0011532732 0.00012301344 0.007827075 0.0021862618 1.1537809e-05
-0.005747551 0.0034296962 0.050971884 0.012238193 0.000405854 0.0028079571 0.00039097795 0.0016501108
0.0002993125 0.0007111822 0.0032719476 0.0009808036 -0.0053810813 -0.0014784468 -0.0009626676 -0.003448516
-0.00046756506 -0.0063691055 -0.0013275605 0.00023968436 0.0027511616 0.00014532643 -0.010169889 -0.0025021343
-0.0016348303 -0.006666228 -0.00055861205 -0.012127527 -0.0020851658 0.0007174019 0.009016923 0.00041613384
0.003065228 -0.001974174 -0.000266394 -0.001912021 0.0004626927 -0.002815686 0.0010043648 -0.001853801
-0.008021659 -0.00035899153 -0.0020675655 0.0028115634 -0.00055336836 -0.0037073556 0.00024018626 -0.008884697
-0.0011015424 0.00041253353 0.005965122 0.00050945894 0.012756087 0.0015261861 0.00021983623 0.0029061972
0.0008802984 0.0015090927 0.00086921273 0.000100203084 -2.8331982e-05 0.00033309404 -0.0041567916 0.00013204155
-0.00024054438 0.0007235482 0.00021393916 -0.0009401001 -0.0011349019 -0.0007277237 -0.004369443 4.2844284e-05
-0.012279744 -0.0012408752 0.0005965787 0.0030876393 0.0008768655 0.0018767576 0.001709281 0.00039849515
-0.00096618466 -0.003042642 -0.03837961 -0.009368293 -3.8015318e-05 0.0018310021 0.00068273797 0.002919138
0.0016132512 0.0012924719 0.009958515 -0.000387691 0.024801048 0.0009523481 -0.00034847902 0.00027334227
-0.0012080861 -0.010016857 -0.0030865541 0.0020792424 0.008624191 0.0022222078 -0.00039064905 0.0033010913
0.00020982481 0.010842237 -0.00022461229 -0.027430886 -0.006657309 -3.344556e-05 0.0012904626 0.0012363254
0.009920735 0.0020035086 0.00018328549 0.0017288052 0.0016548276 0.0078764055 0.0014629306 0.00016441807
-0.0019045762 -0.00019802433 -0.0037938126 -0.0010370765 -0.000590874 -0.0047533656 0.0013536963 0.031133408
0.0067159664 -0.00037992586 -0.0014449741 0.00023673457 -0.002868169 0.0010056059 0.00044085612 0.002766824
-3.8735725e-05 -0.011239871 -0.0030751154 0.00013640769 -0.0011813882 -0.0005907199 -0.0008398359 -0.0013579786
0.00010496107 0.0020796424 -0.0005091175 0.010211945 -8.2398044e-05 -0.00042595484 -0.0021669392 -0.0008558937
-0.003262608 -0.0009622248 -0.00074151694 -0.0050973347 -0.000519757 0.011452833 0.0031851274 0.00031647034
00000000: 43c6 fd3a c7b4 3b3c d8a0 003a 270f 763c
00000010: 0829 543a 80a7 023a 9b58 33b9 611f 38bb
00000020: 214f 0fbd 5087 17bc 90c6 123b ee82 ce3b
00000030: 17a3 cd3a 423c 243c c69d b23a 6678 bab9
00000040: 0103 ceba 7169 37ba ba15 5d3b 323c 5fba
00000050: 3876 b438 6f9b 0e3b 9444 11b8 7fa1 99bb
00000060: b3f1 b7ba 556b 01ba 7f55 70b8 d351 083b
00000070: e61a e43c 9fc6 c53b b1a1 97ba 62d2 b3bb
00000080: dab9 63b9 7650 3dbc aecb 24ba 7220 cb38
00000090: f909 d6ba ed8a 2d3a 189d 07bc 11a3 c738
000000a0: d591 c239 584e 743a 8711 beba d05a bfbc
000000b0: 2cc8 b8bb c0f8 063a 93c5 7dbb 6133 883a
000000c0: 8fa7 fdb9 e261 a23a b137 7739 2d67 be3a
000000d0: 252d fb39 b65d e0bb cd3a a6ba 7a95 683a
000000e0: 468b 423b b2d7 8b3a 00a9 d2ba d6e4 a13a
000000f0: 9681 0eba a7fe 5bba 6011 60ba ee65 2a3b
00000100: 407f beba 59d7 a5b8 8122 fb3a e8c9 a53a
00000110: 2ce9 183c 6095 5c3b 5396 9eb9 0e54 b9ba
00000120: 11df b839 0f4e 503c c0c2 4c3b 60d3 11ba
00000130: d572 4c3a d17a b139 a714 ae3c e781 243b
00000140: 534a 15b9 6761 f73a 78d4 6b3a 092d bab8
00000150: 0358 0a3b 9d51 ceb8 5994 b33a 85f7 3eb8
00000160: 3e95 49ba 6a38 2f37 442a f1b9 6d29 97ba
00000170: 2bfd 0039 223d 003c 6347 0f3b 8392 4137
00000180: f455 bcbb c1c4 603b e5c7 503d b482 483c
00000190: cdc8 d439 b405 383b 2cfc cc39 8848 d83a
000001a0: 0bed 9c39 a16e 3a3a 2c6e 563b 4f8e 803a
000001b0: c853 b0bb 71c8 c1ba 875b 7cba 7f00 62bb
000001c0: 8523 f5b9 eeb3 d0bb 8a01 aeba c853 7b39
000001d0: d54c 343b c462 1839 9b9f 26bc d9fa 23bb
000001e0: cd47 d6ba 6070 dabb d26f 12ba 89b2 46bc
000001f0: 47a7 08bb 0710 3c3a b7bb 133c 8a2c da39
00000200: fee1 483b 2561 01bb ccaa 8bb9 c79c faba
00000210: 9095 f239 5f87 38bb e4a4 833a 3dfb f2ba
00000220: 476d 03bc 0737 bcb9 fe7f 07bb 3542 383b
00000230: ec0f 11ba 1bf7 72bb 82da 7b39 1f91 11bc
00000240: a161 90ba 5049 d839 1277 c33b 368d 053a
00000250: e8fe 503c 4f0a c83a d783 6639 e675 3e3b
00000260: d3c3 663a c0cc c53a e1db 633a 1f24 d238
00000270: 78aa edb7 20a3 ae39 b235 88bb a274 0a39
00000280: a43a 7cb9 7fac 3d3a db54 6039 0d71 76ba
00000290: fdc0 94ba b6c4 3eba 8b2d 8fbb b3b3 3338
000002a0: fb30 49bc dda4 a2ba b863 1c3a fe59 4a3b
000002b0: 73dd 653a 89fd f53a f409 e03a 1ded d039
000002c0: 8e47 7dba 1067 47bb f033 1dbd 787d 19bc
000002d0: a372 1fb8 3cfe ef3a c5f9 323a 024f 3f3b
000002e0: ba73 d33a 2968 a93a 0a29 233c 0143 cbb9
000002f0: 912b cb3c 00a7 793a 10b4 b6b9 614f 8f39
00000300: a558 9eba be1d 24bc c947 4abb e643 083b
00000310: 7b4c 0d3c 76a2 113b 07d0 ccb9 1f57 583b
00000320: 6b04 5c39 a3a3 313c e785 6bb9 bdb6 e0bc
00000330: 8e25 dabb e647 0cb8 bd24 a93a 320c a23a
00000340: 948a 223c 4c4d 033b 5330 4039 1499 e23a
00000350: cde6 d83a 0a0c 013c cebf bf3a a467 2c39
00000360: f9a2 f9ba c0a4 4fb9 9da1 78bb 83ee 87ba
00000370: e2e4 1aba 1fc2 9bbb 836e b13a 7d0b ff3c
00000380: 9c11 dc3b c930 c7b9 4965 bdba f43b 7839
00000390: e4f7 3bbb 89ce 833a b522 e739 9b53 353b
000003a0: 2b78 22b8 7027 38bc e087 49bb a908 0f39
000003b0: cfd8 9aba 8bda 1aba 6f28 5cba 33fe b1ba
000003c0: 8c1e dc38 9c4a 083b 4c76 05ba 0050 273c
000003d0: 1dcd acb8 b152 dfb9 3503 0ebb 0e5e 60ba
000003e0: 7bd1 55bb d03d 7cba 5c62 42ba 8b07 a7bb
000003f0: 4d40 08ba aaa4 3b3c 92bd 503b eeeb a539

exp_avg_sq f4 [128, 5]
5.161002e-05 0.0004637476 8.505164e-05 0.0034019116 0.00029776676 6.521775e-05 0.0004521264 8.039034e-05
0.0042824163 0.00030976385 2.717787e-05 0.00023233949 4.4260327e-05 0.0026840353 0.00018912778 2.9975765e-06
2.1852506e-05 6.26526e-06 0.00018894303 1.6978585e-05 4.4289577e-06 3.539589e-05 1.29855225e-05 0.00021231425
3.9743696e-05 5.214902e-05 0.00047047177 8.277656e-05 0.0018332272 0.00019403102 1.8318364e-05 0.00014393308
2.8242812e-05 0.0015767278 0.00010894739 5.1621396e-06 5.5248867e-05 1.4551676e-05 0.00029842593 4.3677526e-05
2.576272e-05 0.00019599327 4.4222554e-05 0.0009755088 0.00012318828 1.8193003e-05 0.00018374415 2.9896682e-05
0.0010298631 0.00011921501 2.9054943e-06 1.6272572e-05 6.4854485e-06 0.00015555788 2.6287342e-05 3.0666365e-06
2.5698093e-05 6.881565e-06 0.00018025319 2.1080969e-05 8.134004e-06 7.402661e-05 1.8822871e-05 0.00063678744
8.003387e-05 8.544921e-06 0.00010376693 2.0276764e-05 0.00036350067 5.0124145e-05 4.727047e-06 4.1339306e-05
6.83662e-06 0.00017228974 1.8800483e-05 2.0584946e-05 0.00024100658 6.162476e-05 0.0011773263 0.00016407766
5.6330764e-06 3.5576915e-05 1.3879961e-05 0.00015384721 3.8403068e-05 4.0628615e-06 3.170313e-05 8.687793e-06
0.00021906072 2.5900335e-05 6.7250176e-06 6.0074828e-05 1.42197605e-05 0.00043695266 6.077839e-05 0.000111986075
0.00069211127 0.00019378625 0.004425105 0.0005504606 3.5337441e-06 1.9221146e-05 6.147019e-06 0.00019317196
2.594001e-05 8.501093e-06 5.3543674e-05 1.1280185e-05 0.0004158912 4.10476e-05 8.991202e-06 9.0090754e-05
2.1449847e-05 0.00058018276 6.143121e-05 3.3861636e-06 2.3946839e-05 4.79062e-06 0.00014250944 2.0270105e-05
1.3469392e-05 0.00014044873 3.0614407e-05 0.001019478 8.1253536e-05 3.221001e-05 0.00025977276 6.4734275e-05
0.0018207452 0.00022381856 1.733305e-05 0.00012210452 4.2890293e-05 0.00064596225 0.00012553514 1.753782e-05
0.00013773548 2.9462833e-05 0.0011543591 0.00010680957 1.1544329e-05 0.0001001787 2.5768908e-05 0.0009692766
9.517296e-05 3.0316138e-05 0.00024863085 6.150448e-05 0.0015697049 0.0001905195 9.6168405e-06 0.000110785404
2.0771375e-05 0.0001852071 3.242165e-05 2.8996399e-06 1.92423e-05 7.994445e-06 0.00012920798 2.4090485e-05
1.1041806e-05 7.2817544e-05 1.9557567e-05 0.0006040853 5.894453e-05 2.1448137e-05 0.00019424893 3.87733e-05
0.0012154198 0.0001441626 4.4539206e-06 2.704944e-05 4.9806567e-06 0.00032532544 2.1565069e-05 6.727687e-05
0.00042786825 8.4344734e-05 0.0037070545 0.00038878544 3.3908218e-06 2.0257312e-05 6.987274e-06 0.00013496203
2.495309e-05 5.916333e-05 0.00051854266 9.0732465e-05 0.003511136 0.0002972306 1.0450762e-05 8.960178e-05
1.9782274e-05 0.00035207 4.4906777e-05 2.3665521e-05 0.00022169479 4.6284884e-05 0.001877271 0.00019682264
2.023723e-05 0.00011235037 2.7077393e-05 0.0013430415 0.00012954079 1.672752e-05 0.00014008903 3.0064262e-05
0.0006671384 8.343742e-05 3.1603897e-05 0.00033512054 6.2496794e-05 0.0018163177 0.00015909295 1.2457553e-05
8.4588435e-05 2.5075098e-05 0.000339233 7.368517e-05 4.4660475e-05 0.00032362514 6.079577e-05 0.0025128596
0.00024202195 1.680845e-05 0.00016297404 3.4858313e-05 0.0010405967 0.0001379449 4.9026175e-06 2.9873809e-05
9.4995075e-06 0.00029074948 3.432823e-05 1.8290584e-05 0.00017076191 3.785848e-05 0.0008106544 0.00012541871
6.367577e-06 4.843728e-05 1.2126027e-05 0.00044568686 3.665742e-05 9.74894e-06 6.833401e-05 1.3173908e-05
0.00032853786 4.3438005e-05 3.881283e-06 2.6639244e-05 7.000191e-06 0.00021257378 3.4964036e-05 3.7711354e-05
00000000: d677 5838 2623 f339 c05d b238 9bf2 5e3b
00000010: 941d 9c39 83c5 8838 610b ed39 3c97 a838
00000020: 8353 8c3b cd67 a239 08fc e337 28a0 7339
00000030: 2aa4 3938 a4e6 2f3b 9a50 4639 f929 4936
00000040: e64f b737 2c3a d236 021f 4639 3c6d 8e37
00000050: 759c 9436 0c76 1438 65dc 5937 aca0 5e39
00000060: 78b2 2638 95ba 5a38 a7a9 f639 5498 ad38
00000070: e648 f03a ce74 4b39 63aa 9937 beec 1639
00000080: faea ec37 35aa ce3a af7a e438 7136 ad36
00000090: 05bb 6738 f922 7437 0d76 9c39 6332 3738
000000a0: 051d d837 8b83 4d39 9b7b 3938 4ab9 7f3a
000000b0: 1a2c 0139 2d9d 9837 72ab 4039 a3ca fa37
000000c0: 79fc 863a 1203 fa38 03fc 4236 1581 8837
000000d0: 949d d936 401d 2339 a383 dc37 6acc 4d36
000000e0: 3c92 d737 31e8 e636 5902 3d39 09d7 b037
000000f0: 4877 0837 bc3e 9b38 cfe5 9d37 15ee 263a
00000100: dbd7 a738 285c 0f37 729d d938 0518 aa37
00000110: 3c94 be39 643c 5238 069d 9e36 be63 2d38
00000120: 1e66 e536 ada8 3439 bbb5 9d37 d6ad ac37
00000130: b6b6 7c39 8b3c 8138 8450 9a3a 430c 2c39
00000140: c203 bd36 6c38 1538 fbdd 6837 0c52 2139
00000150: fb12 2138 b753 8836 faf8 0438 c9c1 1137
00000160: aab3 6539 8c44 d937 76a7 e136 dbf8 7b38
00000170: 6891 6e37 cb16 e539 4dec 7e38 11da ea38
00000180: cd6e 353a 1a33 4b39 7900 913b c94c 103a
00000190: 4325 6d36 193d a137 7e42 ce36 348e 4a39
000001a0: bf99 d937 eb9f 0e37 1594 6038 0740 3d37
000001b0: f90b da39 862a 2c38 ebd8 1637 1bef bc38
000001c0: 32ef b337 6817 183a a1d4 8038 d93d 6336
000001d0: 72e1 c837 1dbf a036 966e 1539 b809 aa37
000001e0: 99fa 6137 6b45 1339 f867 0038 01a0 853a
000001f0: a966 aa38 3c19 0738 1c32 8839 f3c1 8738
00000200: 12a6 ee3a d6b0 6a39 7166 9137 2f09 0039
00000210: 1ae5 3338 cb55 293a 15a2 0339 2f1e 9337
00000220: 166d 1039 f426 f737 dd4d 973a f4fe df38
00000230: 84ae 4137 0817 d238 4f2a d837 0d17 7e3a
00000240: 9897 c738 694f fe37 ab5a 8239 f7fb 8038
00000250: 8ebe cd3a 30c6 4739 0458 2137 7655 e838
00000260: 303e ae37 2734 4239 7bfc 0738 6f97 4236
00000270: 866a a137 e11f 0637 017c 0739 ec15 ca37
00000280: 3240 3937 9fb5 9838 8e0f a437 7a5b 1e3a
00000290: 353b 7738 86eb b337 4daf 4b39 84a0 2238
000002a0: b94e 9f3a 5a2a 1739 e372 9536 3be8 e237
000002b0: 841f a736 7190 aa39 a2e6 b437 ff16 8d38
000002c0: 8153 e039 3ce2 b038 0ef2 723b e6d5 cb39
000002d0: e08d 6336 3fee a937 3a74 ea36 9884 0d39
000002e0: 5a52 d137 2426 7838 cfee 073a 9f47 be38
000002f0: 161b 663b 9ed5 9b39 ae55 2f37 97e8 bb38
00000300: 1cf2 a537 0996 b839 495a 3c38 5285 c637
00000310: be76 6839 0422 4238 c30e f63a 2d62 4e39
00000320: 1fc3 a937 a59d eb38 4224 e337 ff08 b03a
00000330: 57d5 0739 1352 8c37 dde4 1239 8332 fc37
00000340: e6e2 2e3a 20fb ae38 6d8e 0438 1eb3 af39
00000350: b610 8338 8211 ee3a 30d2 2639 c800 5137
00000360: 1265 b138 5d58 d237 15db b139 6d87 9a38
00000370: d251 3b38 3bac a939 f6fe 7e38 caae 243b
00000380: 46c7 7d39 dfff 8c37 03e4 2a39 d434 1238
00000390: a264 883a 4da5 1039 2a81 a436 8499 fa37
000003a0: 1360 1f37 bc6f 9839 a8fb 0f38 bb6e 9937
000003b0: 8d0e 3339 3cca 1e38 1982 543a d482 0339
000003c0: 12a9 d536 2229 4b38 e470 4b37 14ab e939
000003d0: 9bc0 1938 618f 2337 8b4e 8f38 8105 5d37
000003e0: 9b3f ac39 3431 3638 f83b 8236 5777 df37
000003f0: 2fe3 ea36 57e6 5e39 59a6 1238 422c 1e38

exp_avg f4 [128]
-0.002062048 -0.0019595579 -0.00045281762 -0.00024264166 -0.00022165802 0.001438755 0.0006923528 0.00048416507
-0.0012720097 0.0009775946 -0.0002732391 7.547952e-05 -3.5373443e-05 0.0004196005 0.00067797326 0.00044579923
5.4810484e-05 0.00037958386 0.00028740824 0.0031208673 -0.0002443627 -0.00031865374 0.00036629313 -0.0005863614
0.00050110964 -0.0017138008 0.00027600213 0.0014227714 0.0004369347 -0.0008625126 9.506032e-05 0.00024385913
-0.00010818082 0.0006099863 -2.6759628e-05 -0.002092093 0.00019987048 -0.0019363303 -0.0008785635 0.00011274404
-0.002106064 0.00056388305 0.00051002664 0.0004606101 0.0018013627 0.00066999183 -0.0006196704 0.00030525387
-0.0006864892 -0.00015481863 0.00061669573 0.00072564406 -0.00047803688 -0.0006200578 0.00029949835 -0.00033387318
-0.0019365797 -0.003860577 0.0005228073 -0.00085522956 0.0005615522 8.929477e-05 -0.0008152619 0.00019573582
-0.00017480174 0.0013173581 0.0007154727 0.00015937473 0.0003228284 0.00032778305 0.0008980242 7.732191e-05
0.00044922208 0.0003085629 0.00023600421 0.0011632969 -0.00027322615 0.00022114294 0.00025915785 0.00051841955
4.1575928e-05 0.000292396 -0.0013584265 0.00084043713 3.905302e-05 0.0006496579 -7.755927e-05 -0.00012259708
0.00073047203 0.00019394082 2.6015954e-05 -0.000119057455 0.0005221511 -0.0004986319 0.00085723825 0.00070039934
-0.0010000918 -0.00050443324 -0.00040739364 -0.00046220262 -0.00019840579 -0.0019414559 0.0020293153 -0.0010655052
-0.00021582193 -0.000108523374 -0.0005695346 -0.00029837235 0.00031113168 -0.00035089525 -0.0012561242 -0.0019645286
-0.0005281773 0.0003959433 0.00012008849 0.00013181545 -0.0008206313 0.00072203245 -0.00090162986 -0.0002370371
-0.0017473333 -0.0015254146 -0.0008816986 0.00054144737 -5.8226895e-05 0.0013039388 -0.0005929673 -0.0020592317
00000000: 6d23 07bb ed6b 00bb 2768 edb9 a06d 7eb9
00000010: df6c 68b9 9b94 bc3a 037f 353a 89d7 fd39
00000020: 90b9 a6ba a222 803a 8841 8fb9 c24a 9e38
00000030: f25d 14b8 d3fd db39 04ba 313a 29ba e939
00000040: 4fe4 6538 e202 c739 48af 9639 7787 4c3b
00000050: ce1d 80b9 fb10 a7b9 080b c039 0cb6 19ba
00000060: e65c 033a 9da1 e0ba 61b4 9039 497c ba3a
00000070: 6214 e539 3e1a 62ba 1f5b c738 70b4 7f39
00000080: 23df e2b8 7de7 1f3a dd79 e0b7 7f1b 09bb
00000090: 5394 5139 77cc fdba 664f 66ba ff70 ec38
000000a0: e405 0abb 8dd1 133a 4fb3 053a 0b7e f139
000000b0: b41b ec3a 64a2 2f3a 6071 22ba 7b0a a039
000000c0: 83f5 33ba cf56 22b9 c0a9 213a 2639 3e3a
000000d0: 06a1 fab9 608b 22ba fd05 9d39 b30b afb9
000000e0: d5d4 fdba bc01 7dbb 010d 093a 7c31 60ba
000000f0: 2135 133a c443 bb38 4db7 55ba 6f3e 4d39
00000100: fc4a 37b9 34ab ac3a 8f8e 3b3a d41d 2739
00000110: 4b41 a939 4cda ab39 6269 6b3a e227 a238
00000120: 9185 eb39 9dc6 a139 e677 7739 c479 983a
00000130: cb3f 8fb9 9be2 6739 94df 8739 8ce6 073a
00000140: d061 2e38 ba4c 9939 3b0d b2ba c850 5c3a
00000150: dccc 2338 ce4d 2a3a 51a7 a2b8 678d 00b9
00000160: 267d 3f3a 985c 4b39 d63c da37 7cae f9b8
00000170: f8e0 083a 9fb6 02ba 49b8 603a 019b 373a
00000180: 8315 83ba f13b 04ba 7397 d5b9 c953 f2b9
00000190: 260b 50b9 7378 feba 43fe 043b 6ca8 8bba
000001a0: 424e 62b9 0b97 e3b8 d24c 15ba dc6e 9cb9
000001b0: 631f a339 5df8 b7b9 89a4 a4ba 52bf 00bb
000001c0: 6175 0aba 9c96 cf39 04d8 fb38 f137 0a39
000001d0: a21f 57ba c746 3d3a 5b5b 6cba 298d 78b9
000001e0: c706 e5ba 6cf0 c7ba cb21 67ba ebef 0d3a
000001f0: a738 74b8 ede8 aa3a 5d71 1bba 2df4 06bb

exp_avg_sq f4 [128]
2.0920066e-05 2.234054e-05 1.2510366e-05 1.0950961e-06 1.6849733e-06 1.6352371e-05 7.587256e-06 2.0579855e-06
7.73293e-06 6.4760475e-06 8.7395495e-07 1.194245e-06 3.395695e-06 3.3319595e-06 1.5689345e-06 9.262708e-06
1.4935107e-06 1.2410167e-06 2.9969033e-06 3.4842964e-05 1.1777745e-06 2.5899049e-06 3.7720238e-06 1.1304447e-06
6.248688e-06 1.2176104e-05 5.3020512e-06 6.1801306e-06 4.7550416e-06 1.0722577e-05 3.05053e-06 1.0874579e-06
3.882115e-06 7.951062e-06 1.6623633e-06 2.1839132e-05 1.1030917e-06 2.1777925e-05 3.293784e-06 9.924244e-06
7.22406e-06 5.530937e-06 1.2181257e-05 3.4213501e-06 1.5552663e-05 6.6202288e-06 2.0347966e-06 6.781406e-06
2.4614055e-06 2.706803e-06 1.387984e-06 1.3101349e-05 4.0678556e-06 2.145959e-06 9.587599e-06 6.443829e-06
8.558371e-06 2.386043e-05 6.814793e-06 9.34534e-06 4.097337e-06 2.9826062e-06 1.0036508e-05 2.3695834e-06
8.222399e-06 2.5805593e-06 5.3670433e-06 3.3210883e-06 2.8102627e-06 1.747251e-06 2.5133616e-06 2.0196396e-06
2.1895364e-06 8.470019e-06 1.701092e-06 3.6312967e-06 2.091495e-06 7.723244e-06 2.0505524e-06 6.302408e-06
2.4385288e-06 1.0013272e-06 2.5954146e-06 8.884148e-06 1.7235911e-06 3.9387587e-06 2.0904333e-06 9.105678e-06
2.1869878e-06 4.9993246e-06 4.8541347e-06 8.358531e-06 6.283918e-06 2.1459148e-06 1.1203092e-06 3.603217e-06
2.5949296e-06 8.796865e-06 4.4237313e-06 1.9050832e-06 1.2553526e-05 7.406759e-06 1.180846e-05 1.8447097e-05
1.2440264e-06 2.9311832e-06 8.210939e-06 1.2189612e-06 1.5315279e-06 1.9831132e-06 4.9977575e-06 1.0505463e-05
4.9247815e-06 5.631476e-06 1.9179477e-06 1.48957e-06 2.6923924e-06 1.9915062e-05 2.3022234e-05 2.552079e-05
7.666472e-06 6.194961e-06 7.1404947e-06 1.2620496e-06 2.1476808e-06 2.5885103e-05 2.967199e-06 2.6152102e-05
00000000: 807d af37 f267 bb37 9de3 5137 37fb 9235
00000010: 3e27 e235 732c 8937 0896 fe36 ec1b 0a36
00000020: aebc 0137 d34c d936 ba99 6a35 f249 a035
00000030: 99e1 6336 a19a 5f36 2e94 d235 0767 1b37
00000040: a374 c835 0291 a635 681e 4936 5924 1238
00000050: 0614 9e35 3ace 2d36 e022 7d36 c9b9 9735
00000060: d2ab d136 f847 4c37 46e8 b136 eb5e cf36
00000070: 7f8d 9f36 1ee5 3337 b5b7 4c36 c5f4 9135
00000080: 1d43 8236 8d65 0537 5e1e df35 2e33 b737
00000090: f10d 9435 bdaf b637 c70a 5d36 4e80 2637
000000a0: 3466 f236 6396 b936 1a5e 4c37 599a 6536
000000b0: 1777 8237 5523 de36 8a8d 0836 d58b e336
000000c0: a02e 2536 85a6 3536 c44a ba35 decd 5b37
000000d0: 9d7e 8836 4b03 1036 6dda 2037 1238 d836
000000e0: ec95 0f37 e227 c837 a0aa e436 eec9 1c37
000000f0: db7b 8936 c928 4836 7962 2837 2205 1f36
00000100: eff2 0937 ac2d 2d36 8d16 b436 dddf 5e36
00000110: f297 3c36 1683 ea35 39ab 2836 2589 0736
00000120: f3ef 1236 741a 0e37 1351 e435 34b1 7336
00000130: 9c5b 0c36 1593 0137 399c 0936 4679 d336
00000140: 9ba5 2336 5765 8635 e22c 2e36 200d 1537
00000150: 2456 e735 ae29 8436 5f49 0c36 97c4 1837
00000160: 2ac4 1236 dfbf a736 b3e0 a236 9e3b 0c37
00000170: 72da d236 8902 1036 885d 9635 ccce 7136
00000180: 8d24 2e36 3f96 1337 906f 9436 29b2 ff35
00000190: fc9c 5237 9387 f836 f31c 4637 d7be 9a37
000001a0: 6cf8 a635 58b5 4436 b7c1 0937 309b a335
000001b0: e68e cd35 a015 0536 69b2 a736 9f40 3037
000001c0: 8d3f a536 03f6 bc36 17b6 0036 3ced c735
000001d0: f3ae 3436 450f a737 df1f c137 7b15 d637
000001e0: 3f9f 0037 4fde cf36 6298 ef36 b263 a935
000001f0: e020 1036 d623 d937 1720 4736 3661 db37

exp_avg f4 [128, 128]
-0.0004908686 1.2963944e-05 -6.731387e-05 0.00021347885 0.00010683002 0.00010480861 5.0556406e-05 -0.00052052323
3.733155e-05 -7.872655e-05 -0.00022476116 -5.4425935e-05 6.62452e-05 0.00034230528 3.2185057e-05 0.0001773315
-0.00071654544 6.6295106e-05 4.14167e-05 8.465465e-05 -0.0001738625 -6.591981e-05 -8.60645e-05 8.454908e-05
-1.3022673e-05 -0.0006550787 -0.0005368248 -0.00032928857 -0.0005964873 -0.00052800094 0.00011080767 -0.00021662217
8.171878e-05 -0.00025101466 0.00014905828 7.783014e-05 7.934952e-05 -0.00022523901 6.4126965e-05 -0.00023122312
-8.7154935e-05 0.00010232736 2.6048949e-05 -0.00023587326 5.851031e-05 3.356063e-06 9.644351e-05 6.983927e-05
-0.00051504304 8.156409e-05 3.7721748e-05 6.4592794e-05 3.237513e-05 8.5350395e-05 0.00039865196 6.2568644e-05
8.152328e-05 3.2848864e-05 -5.556573e-05 2.8305833e-06 -2.26911e-05 9.82125e-05 0.000104701096 0.00012258923
0.00045154753 4.0203577e-05 -0.00031192283 7.027343e-05 9.4488285e-05 -0.00017107383 0.00013061964 4.076485e-05
-0.0003429258 0.00020112583 -0.00021639072 6.2874664e-05 0.00020205871 0.00011974531 0.00021809048 0.00018987332
-8.1369835e-05 -8.7788234e-05 -4.323598e-05 -0.00040382068 1.3239663e-05 -5.374574e-05 8.676319e-05 0.0003652533
3.5761183e-05 -4.5438817e-05 0.00023286417 0.00026582583 9.601671e-05 4.7097397e-05 1.2066852e-05 -0.0002245804
-0.00012680989 -0.0003142177 1.5731173e-05 6.17698e-05 -0.00025537086 3.1795847e-05 0.00017761847 6.60157e-05
-0.0002486472 2.3973944e-05 -3.2255528e-05 -0.00021976992 -0.00033783773 5.186092e-05 0.00013003066 2.22533e-05
3.953251e-05 2.8527205e-07 -0.00057679653 -0.00016362326 1.5686803e-05 0.00025202727 9.0407266e-05 7.5438893e-06
7.171469e-05 -0.00023839808 0.00015513442 9.1357026e-05 -0.00038025997 0.00019907934 -4.6220335e-05 7.990671e-05
0.0002382039 0.00048817514 -5.1889756e-06 8.8164474e-05 -7.494024e-06 0.00040948112 -1.998478e-06 -5.5256287e-06
8.857514e-05 0.00030533038 6.327316e-05 -1.4551899e-05 1.2113558e-05 4.9360602e-05 0.00021359832 4.328107e-06
-1.1538177e-05 4.799476e-06 0.00037095603 0.00040007633 0.00025055138 0.00034111686 -3.7669515e-06 0.0007279077
-3.1015705e-07 0.00029866266 -6.775494e-06 3.7736354e-05 -7.324156e-06 -7.1753434e-06 0.0007868228 -3.0012184e-06
0.00047824872 -3.7095915e-06 -3.147078e-06 0.0008421132 1.1887564e-05 -6.071117e-06 8.1468235e-05 -3.276922e-06
0.00013746247 0.000612489 6.885002e-07 -1.3080207e-05 0.0003850967 8.4192754e-05 0.00025315766 -4.8936076e-06
-6.8433283e-06 0.0007542792 0.0003356173 4.8570033e-05 0.00028482985 0.00065419194 2.8064114e-05 9.404271e-05
0.0005610048 0.00031855854 2.1898668e-06 4.4208457e-05 0.00019994601 0.0010534473 -2.6402515e-06 -8.598499e-06
-1.5306249e-06 0.000225849 -4.687769e-06 0.0003832417 -4.750527e-06 0.00015017306 0.0009047844 2.8323759e-05
0.0002401629 1.500441e-05 -5.4072125e-06 0.00053210196 1.592752e-05 7.839447e-05 3.7051007e-06 0.0011141673
5.746193e-06 -6.018544e-06 0.00032488842 3.307188e-06 0.00045805765 -5.186077e-06 0.0003935588 6.61492e-06
0.00020045089 0.00011374607 3.1025505e-05 -4.8596476e-06 0.00010743971 4.8335264e-06 0.00031271047 -3.047722e-06
0.00017490055 -1.0595788e-05 6.135193e-05 3.062019e-05 -3.0404776e-06 0.00046558477 0.0011773627 1.0629523e-05
-5.047782e-06 0.000961473 -1.821026e-06 -9.198947e-06 -3.57602e-06 0.0005116623 0.00090955466 0.00018304476
0.0003516498 -6.57538e-06 -5.8417463e-06 -3.853343e-06 0.00030658045 -1.7577418e-06 0.00023202221 0.00033536466
0.00061077543 0.00021836304 0.000541471 0.00061746227 -4.9141754e-06 0.00014196373 0.00023811308 0.0005519422
00000000: a2ad 00ba b77f 5937 dc2a 8db8 4bd9 5f39
00000010: ee09 e038 b2cc db38 870c 5438 b973 08ba
00000020: 7294 1c38 ff19 a5b8 ddad 6bb9 6747 64b8
00000030: 1fed 8a38 7077 b339 71fe 0638 10f2 3939
00000040: 8dd6 3bba ea07 8b38 d8b6 2d38 9f88 b138
00000050: dc4e 36b9 6e3e 8ab8 877d b4b8 f14f b138
00000060: f47b 5ab7 96b9 2bba b4b9 0cba 5da4 acb9
00000070: 965d 1cba 8b69 0aba 6a61 e838 1225 63b9
00000080: 7060 ab38 9e9a 83b9 874c 1c39 bd38 a338
00000090: 7368 a638 232e 6cb9 e77b 8638 7c74 72b9
000000a0: f3c6 b6b8 9598 d638 b183 da37 bf54 77b9
000000b0: f868 7538 b938 6136 b741 ca38 ac76 9238
000000c0: f403 07ba 630d ab38 6b37 1e38 fe75 8738
000000d0: 88ca 0738 25fe b238 2902 d139 4937 8338
000000e0: 7af7 aa38 33c7 0938 400f 69b8 0df5 3d36
000000f0: c458 beb7 6ff7 cd38 f992 db38 4c8b 0039
00000100: afbd ec39 43a0 2838 9389 a3b9 c35f 9338
00000110: 0328 c638 4862 33b9 f1f6 0839 edfa 2a38
00000120: b9ca b3b9 4ee5 5239 f1e6 62b9 94db 8338
00000130: b9df 5339 c61f fb38 38af 6439 bb18 4739
00000140: 19a5 aab8 f31a b8b8 4858 35b8 e5b7 d3b9
00000150: eb1f 5e37 0d6d 61b8 a2f4 b538 787f bf39
00000160: 47fe 1538 8f95 3eb8 002d 7439 8a5e 8b39
00000170: 945c c938 728a 4538 bc72 4a37 587d 6bb9
00000180: 45f8 04b9 96bd a4b9 70f6 8337 698a 8138
00000190: 4ce3 85b9 885c 0538 183f 3a39 e971 8a38
000001a0: dd5c 82b9 a71b c937 1c4a 07b8 0a72 66b9
000001b0: d01f b1b9 3d85 5938 d758 0839 99ac ba37
000001c0: b6cf 2538 7e27 9934 2934 17ba 4992 2bb9
000001d0: 2797 8337 8722 8439 0899 bd38 8421 fd36
000001e0: 8865 9638 7ffa 79b9 94ab 2239 ee96 bf38
000001f0: a15d c7b9 f4bf 5039 b5dc 41b8 9793 a738
00000200: 5fc6 7939 c2f1 ff39 f61c aeb6 f1e4 b838
00000210: 2d75 fbb6 a0af d639 971d 06b6 ca68 b9b6
00000220: 6bc1 b938 c014 a039 85b1 8438 ee23 74b7
00000230: 563b 4b37 8b08 4f38 5df9 5f39 283a 9136
00000240: 1894 41b7 2f0b a136 e07c c239 56c1 d139
00000250: 705c 8339 eed7 b239 bccb 7cb6 0fd1 3e3a
00000260: a983 a6b4 d395 9c39 0d59 e3b6 1a47 1e38
00000270: 05c2 f5b6 bbc3 f0b6 c942 4e3a 8a68 49b6
00000280: 75bd fa39 4cf2 78b6 6332 53b6 43c1 5c3a
00000290: b370 4737 7fb6 cbb6 edd9 aa38 17e9 5bb6
000002a0: cd23 1039 718f 203a 60d1 3835 1073 5bb7
000002b0: cee6 c939 a490 b038 3fba 8439 c533 a4b6
000002c0: be9f e5b6 d2ba 453a cbf5 af39 adb7 4b38
000002d0: 3755 9539 147e 2b3a 3a6b eb37 cc38 c538
000002e0: 6510 133a 3404 a739 a0f5 1236 786c 3938
000002f0: 99a8 5139 d313 8a3a 2d2f 31b6 4642 10b7
00000300: df6f cdb5 e1d1 6c39 a14b 9db6 d5ed c839
00000310: b766 9fb6 c677 1d39 0e2f 6d3a cf98 ed37
00000320: 3dd4 7b39 73bb 7b37 9a6f b5b6 c27c 0b3a
00000330: 179c 8537 b667 a438 25a5 7836 4009 923a
00000340: 6ccf c036 e6f2 c9b6 c955 aa39 0ff1 5d36
00000350: 7527 f039 1004 aeb6 9156 ce39 bbf5 dd36
00000360: 2030 5239 f58a ee38 6221 0238 0e10 a3b6
00000370: 4151 e138 ad2f a236 4af3 a339 7787 4cb6
00000380: 8265 3739 90c4 31b7 11aa 8038 2e6e 0038
00000390: 020b 4cb6 bb19 f439 bd51 9a3a 7455 3237
000003a0: 1e60 a9b6 5c0b 7c3a fa69 f4b5 2d55 1ab7
000003b0: 8efb 6fb6 1321 063a 2e6f 6e3a b4ef 3f39
000003c0: a35d b839 16a2 dcb6 3804 c4b6 f74b 81b6
000003d0: 88bc a039 8ceb ebb5 fd4a 7339 e2d3 af39
000003e0: 721c 203a 62f8 6439 81f1 0d3a 31dd 213a
000003f0: 72e4 a4b6 19dc 1439 fead 7939 37b0 103a
