Assets/IA/Pruebas/results/Pad04/PadBehavior/checkpoint.pt (torch, 428789 bytes, 30 tensors)

network_body._body_endoder.seq_layers.0.weight f4 [128, 2]
00000000: 7688 5fbe 126a 3a3f c520 ffbc e626 3d3f
00000010: dfa8 d03e 8fbe 87bf d405 0140 9651 53bf
00000020: 5ad7 47bf d0eb 67bf 16c6 f63e 30cc a5bf
00000030: f767 863e a516 153f 51b9 023f 44ee 493f
00000040: c336 263f 5ddb 9b3f 4c38 30be d131 893e
00000050: 90e4 e73c 402d 83bf b0cb e03e 81b1 123f
00000060: 046f 22bd d118 473f 546c fabf 2618 9fbe
00000070: 6cda cabe d7c2 56bf 3f5f 35bf 78c5 353e
00000080: 8bb1 1f3f 8f1e a3be e513 003f 48ac cabe
00000090: 1f27 9dbf 790c 993e 6bdd 96bf 1c13 b83d
000000a0: 54c9 cdbd ddbc c93e 80f9 2bbf 21f6 18be
000000b0: d58d f83e 987b 633e 7e0f 59be 8339 803f
000000c0: a83f 8b3e cc72 99bd ea00 2e3e 73b8 d93e
000000d0: 21c1 9b3f 1df4 cbbe 49df ee3e 0312 033f
000000e0: e580 f23d 04d6 2cbf 3eb7 0e3f 6243 08be
000000f0: fecd 6c3f 68e7 ccbe e476 91bf 6592 0dbf
00000100: 5c97 b33e d2c5 0c3f 77ae 24be ba66 c03e
00000110: fcbd f5bd a1d3 4abc 918a f23e 091f a03e
00000120: 3e07 86be dafa 41be baef 22bf 2f29 ec3c
00000130: fb9a 46bf f4b4 05bf 2376 813e dd0f f83e
00000140: fe4a 413f cf92 21bf 2da5 41bf b816 793c
00000150: c93b 453d 6f40 89be 05e5 1c3f d89c 363e
00000160: 6f02 353f 885b c23d ec1a 53bf 3892 983e
00000170: 6b71 503d cf63 15bf 0cf4 bebc b4be 31bf
00000180: 4598 30bf 2b5c 39bf 5443 b4be 7e0f 32bf
00000190: c5f8 1fbf e233 0cbf 6205 c8bf 6e04 0a3d
000001a0: 145b 8dbf 2c19 41bf 10b3 8b3e ec77 113e
000001b0: e772 3d3f 889f 543e 7e2f 283f cc6a c43e
000001c0: b16f 84bf 37ab 9e3f ec39 4bbd 24b4 8d3e
000001d0: 98d5 a53d 5d65 c83f 0b8c 8abf 913e 923e
000001e0: 34ba 3a3f 09dc 563f 3314 4ebf cbef 993f
000001f0: 1bf4 3e3c 882d fabe 63e8 b83e 4183 2ebe
00000200: 5ecd 77be 2665 993c 0937 a73e d742 d23f
00000210: 915b dc3d 29e7 5dbf edfd 5f3e 5703 603e
00000220: b037 95be 9de9 0b3f fc67 3cbf e1a5 93bf
00000230: 5f4f 61bd 67f6 3bbf 04e3 1b3f 3afa 543f
00000240: 97f3 763e 215d 08bf fa7e 7abe ab45 3dbf
00000250: 5cba 8abf c9b8 73be 505e 663f f042 683e
00000260: 1744 903e fe07 8ebd d344 933e b7c3 483f
00000270: 8283 213f 4dde 76be b137 89bf a106 09be
00000280: f8dd 24be 1431 893e b282 d63e e1f2 45bd
00000290: 54f7 0f3e b3a1 2f3f 22b7 223f ff5a 25bd
000002a0: 1748 0e3f 7f2b ce3e f2f5 de3e 11df 883c
000002b0: c55e bd3e d038 c1be 0d79 a6be 7008 2d3f
000002c0: 7800 ff3e 0880 003f 46cc 093f 9e9e 983e
000002d0: 2448 6d3f f7d1 ed3e cd7e 45bf cacc b93d
000002e0: 1579 3dbd 94b1 e9bd f3ea 393f 6ab5 0bbf
000002f0: 1f4e 483f 355f 253f 0520 373f b261 babd
00000300: 0c1e 97be e0f8 d23b ff1f 8f3f 27eb 0140
00000310: f9c1 6ebf fb06 903d 7960 7abe 236d dbbd
00000320: 8882 d9bf c519 313f 2212 45bf 8f23 28bf
00000330: 6dcb 0e3e 1c10 343e ab33 9a3e dc4f 83bf
00000340: 297b 8ebf c6e6 953f 0b05 c23f d0cf 313f
00000350: 13e8 1e3b d768 4d3f 101e bbbe f5cb 2ebf
00000360: 2a79 debe defb af3a 349b 98bf f6b9 37bf
00000370: a464 853a 0e2a 1abe d343 e13f 6980 0dbf
00000380: a765 90bf 9956 87bf 9088 1d3f c690 8a3e
00000390: 735b ea3e 2768 f93e c180 c03e 2f86 863f
000003a0: 9932 4bbf f651 5fbe e8b5 aabd 41b6 b3be
000003b0: 30a1 48bf 0154 3b3f fdfb 3b3d 04c2 47bd
000003c0: f9ec 6c3f 1067 6bbd 20ee 22bf 092b 083f
000003d0: 9085 1b3f ce97 803f b411 ec3e 953f 703f
000003e0: 4e66 473f 778b 55be a600 043f 044e 8c3f
000003f0: 2c81 9c3d ddf0 0abf 6b90 233e 586d 91bd
-0.218294 0.728181 -0.031143555 0.7388748 0.40753838 -1.0605029 2.0159807 -0.82546365
-0.78062975 -0.90594196 0.48198003 -1.2952938 0.26251194 0.5823768 0.5106402 0.7887919
0.6492731 1.2176319 -0.17208976 0.2679582 0.02830723 -1.0248184 0.439054 0.573021
-0.039656654 0.7777224 -1.9564309 -0.3107311 -0.39619768 -0.8389105 -0.7084846 0.1775111
0.62380284 -0.31859252 0.50030357 -0.39584565 -1.2277564 0.29892328 -1.1786321 0.0898802
-0.10048166 0.39401904 -0.6717758 -0.1493764 0.4854571 0.22215116 -0.21197316 1.0017551
0.27197003 -0.07492599 0.16992536 0.42523536 1.2168313 -0.3983468 0.46654728 0.5119936
0.11840991 -0.6751406 0.55748355 -0.13306955 0.9250182 -0.400203 -1.1364408 -0.55301505
0.35076416 0.5498935 -0.16082178 0.37578374 -0.11999127 -0.012379558 0.47371343 0.31273678
-0.261774 -0.18943349 -0.63647044 0.028828232 -0.7758023 -0.5222924 0.25285444 0.48449603
0.75505054 -0.6311464 -0.75642663 0.0152031705 0.04815272 -0.2680697 0.61286956 0.17833269
0.7070684 0.094901145 -0.82462955 0.29799056 0.050889414 -0.5835542 -0.02330973 -0.69431615
-0.68982345 -0.7240626 -0.35207617 -0.6955489 -0.6248897 -0.54766667 -1.5626643 0.03369563
-1.104342 -0.75429034 0.2728505 0.14205903 0.7400345 0.20763981 0.6569747 0.3836273
-1.0346586 1.2396001 -0.049615785 0.276765 0.080973804 1.5655934 -1.0823988 0.2856336
0.72940373 0.83929497 -0.8049957 1.2026304 0.011654879 -0.48862863 0.36114797 -0.17042257
-0.24199435 0.01872499 0.32659176 1.6426648 0.107596524 -0.8668085 0.21874209 0.21876274
-0.2914405 0.5465334 -0.7359617 -1.1534997 -0.055007335 -0.73422855 0.60893273 0.83194315
0.2411636 -0.53267103 -0.244625 -0.7393443 -1.0838122 -0.23800959 0.8998766 0.22681785
0.28176948 -0.06935118 0.28763446 0.7842364 0.6309129 -0.24108239 -1.0720121 -0.13381435
-0.161003 0.26795256 0.41896588 -0.04832733 0.14059192 0.6860611 0.6356069 -0.040369984
0.5557875 0.4026756 0.43547016 0.016707929 0.36986366 -0.37738657 -0.3251423 0.67591
0.49805045 0.5019536 0.5382732 0.29808515 0.926882 0.46449253 -0.7714661 0.090722635
-0.04625805 -0.114108235 0.7262413 -0.5457369 0.78244203 0.645984 0.7153323 -0.09100665
-0.2951511 0.0064383596 1.118164 2.0299776 -0.9326473 0.070325814 -0.24450864 -0.107141756
-1.699296 0.69179946 -0.76980793 -0.6567926 0.13944788 0.1758427 0.30117545 -1.0258746
-1.1131335 1.1711051 1.5157789 0.6945772 0.0024247214 0.802381 -0.36546373 -0.68279964
-0.43451816 0.0013426503 -1.1922364 -0.7176813 0.0010177088 -0.15055105 1.7598823 -0.55274063
-1.1281022 -1.0573303 0.615365 0.27063578 0.45772895 0.48712274 0.3759823 1.05097
-0.7937408 -0.2180861 -0.08335477 -0.35099986 -0.7837095 0.73175055 0.04589461 -0.048769012
0.9254909 -0.057471335 -0.636446 0.53190666 0.60750675 1.0046327 0.46107256 0.9384702
0.7789048 -0.20853983 0.5156349 1.0961308 0.07641825 -0.5427378 0.1597306 -0.07100934

network_body._body_endoder.seq_layers.0.bias f4 [128]
00000000: 7abd d4bc 69d2 693c 0521 313c 0242 0dbd
00000010: 6968 3fbd 240a 61bd 5239 6cbc 7377 92bc
00000020: 8a95 0dbd 5d55 91bd 2ee9 8abd 99f4 1f3b
00000030: 81f6 debc 6cd0 0c3d dfa6 143d dca8 933d
00000040: acec 17bd 3fb7 b5bc 483b c4bc 5585 4e3c
00000050: 6dc1 d1bc c169 9f3c ffd7 2abc 364b 433a
00000060: abba 70bd d679 873c 3739 07bd 9652 203c
00000070: 3cf8 193d 935a 30bd 3cda 68bd afb4 de3c
00000080: cee7 9ebc b657 b9bc 815e 3bbc 4cb5 13bd
00000090: c1ac 323d 42d4 8c3d fa97 203d 0b5c 14bd
000000a0: 02bc bebc 0e13 7a3d 1825 3bbd 9ec6 c3bb
000000b0: c293 5bbb 5eb5 85bc 5f12 d63c 8d3e 0abd
000000c0: a2d3 4c3d e1a3 293d 09da 1f3d 9c26 1b3d
000000d0: 5486 123d 3f80 dfbb 3993 49bd ce5c c1bc
000000e0: c248 7b3b 70df 10bd 7986 033c 2534 1e3d
000000f0: 298b fabb 8271 dc3c 02b4 233d 83c7 1bbd
00000100: 7c6e 583d c662 9e3c 2ecb 843c 055b 1ebd
00000110: 67eb bebc d5d0 713d 12ad 03bd b52d 9ebc
00000120: 71a6 22bd fb25 113d 341b 063d 01ab f5bc
00000130: cda8 1abd 3db5 c5bb 0a8a 68bd 8c62 4b3d
00000140: 29e5 05bd f31d 52bd 9c46 5abc 619c 40bd
00000150: bb1d 8cbc 98fd b5bc e24a e7bc 4a6a 55bd
00000160: a40a 40bc 28f8 17bd c289 a5bc 62b0 813d
00000170: 5a34 883c 1f1a ccbc 2e7f e7bc 3eb5 b0bc
00000180: 9821 393d c795 4fbc b186 9ebc d5f1 0f3c
00000190: d380 4f3d 71e8 243d 343e 7cbd 5e04 53bd
000001a0: ea34 ebbc 0794 23bb 819c feba 211c f63c
000001b0: c1c7 843d a59d 423d 9b61 083c 61d0 20bd
000001c0: 99a1 453d 759b 7ebd 5a3f 67bd d0f1 96bc
000001d0: 674c 223d acf5 193d ef8f beba fd32 793c
000001e0: 126b c3bc be54 d7ba ca3c 873a d67d f03b
000001f0: b3b5 9abc 4e9a d7bc 9e58 b5bc d2a6 be3c
-0.025969256 0.014271357 0.010811095 -0.034486778 -0.046730433 -0.05494131 -0.014417963 -0.017879223
-0.03456644 -0.0709636 -0.06782757 0.0024407266 -0.027217152 0.034378454 0.036291953 0.07209942
-0.037090942 -0.022182105 -0.023954049 0.012605031 -0.025604928 0.019459607 -0.010427474 0.0007449867
-0.05877177 0.016537588 -0.03301355 0.009785315 0.03759025 -0.04305513 -0.05684875 0.027185766
-0.019397642 -0.022624832 -0.011436106 -0.03606157 0.043621782 0.068764225 0.039207436 -0.03622059
-0.023283008 0.06105333 -0.045689672 -0.0059746047 -0.0033504819 -0.016321834 0.026131807 -0.03375106
0.050006516 0.041416053 0.039026294 0.037878618 0.035772637 -0.006820708 -0.049212668 -0.023603823
0.0038342928 -0.035369337 0.008027666 0.038623948 -0.0076459837 0.026909593 0.03996659 -0.038032066
0.05283974 0.019334208 0.016210165 -0.03866102 -0.023305608 0.05903705 -0.032147475 -0.019308904
-0.039709512 0.03543661 0.032740787 -0.029988768 -0.037758637 -0.006033568 -0.05677227 0.04965453
-0.032689247 -0.051298093 -0.013322499 -0.047024135 -0.01710402 -0.02221565 -0.02823395 -0.05210332
-0.011721287 -0.037101895 -0.02020729 0.063324705 0.016626526 -0.0249148 -0.028258886 -0.021570798
0.045198053 -0.012669987 -0.019351335 0.008785685 0.050659966 0.040260736 -0.06158276 -0.051517837
-0.028711755 -0.0024960057 -0.0019425304 0.03004271 0.064834125 0.047513623 0.008324052 -0.039261226
0.048249815 -0.062159974 -0.0564569 -0.018425852 0.039623644 0.037587807 -0.0014538745 0.01520991
-0.023854766 -0.0016428453 0.0010317799 0.0073392196 -0.018885469 -0.026318695 -0.022136983 0.023272905

network_body._body_endoder.seq_layers.2.weight f4 [128, 128]
00000000: 7464 e1bd 287a 363c 750b 77bd 0308 0dbd
00000010: 1e19 9a3d 2801 5e3c c171 69bd 103c dabd
00000020: 97a6 573d 756a b53d 1436 153e 8013 abbd
00000030: 8ba0 a1bd a08c 3f3c e818 b8bd f7ff 91bd
00000040: bab1 ce3c 9d2f 0a3e 0953 923d 713a c83d
00000050: d5fd 223e 8447 bc3d 0ec8 59be a5a9 8e3d
00000060: 1e54 123d 8488 993d 1e73 093e 442f 9a3d
00000070: 3219 863d 0ca9 66be 2cd5 f2bc c512 8a3a
00000080: 6adb a3bd e529 c63d 9d92 693c db8e dc3d
00000090: 2b04 e43c f353 a13d 6ec0 d8bd 0628 acbc
000000a0: 1e4b dfbd f40f dd3d 0b5e cd3c 8f87 45bd
000000b0: 76c8 013e 79ae 2b3e 3b30 ecbd d221 48bd
000000c0: 939d 49be 137b 66bc 9506 003e e9e5 17be
000000d0: 5311 063e e649 5ebd 483f 7dbd a819 c7bc
000000e0: 12d5 dcbd 65fc 9abd 0aee 27be 3fc2 a03d
000000f0: c775 d13d eba0 8cbd 1aad 8ebd c56f 533d
00000100: 1298 583c 3372 e9bc 1284 193d 2b9f e7bd
00000110: 4aee 54bd 100d 1b3d 5cae 133d e6d3 1e3d
00000120: f15d e33d b775 55be 3534 d13d 7deb 1cbe
00000130: 3cad 40bc 1b7d 4abd 6aa2 353e dbac 5f3c
00000140: 93b1 e4bc 7fce 3c3b 9e6b 1cbe e0f2 27bd
00000150: 7eb9 86bd 79e6 48bd 7103 713c 5687 02be
00000160: 6fd1 9ebd c785 9aba 2dd3 32bd aa3a b83d
00000170: 1615 88bc c873 a43d db7a ddbd 708b fc3b
00000180: d840 37bc 46f9 0c3e 87b7 ecbc c86c 253d
00000190: 6c51 c4bd da24 02bd aeb1 9b3c ce5f 33be
000001a0: 5612 663d c10b 2d3d e4d6 4abe c85d 1c3c
000001b0: fdd5 4b3e 070e 673d bad2 2f3c 9d1a 92bd
000001c0: 6b5a 383d 1146 4b3d 494f 453c 7021 cfbc
000001d0: 216c 3e3e ffde 5fbc b08b 0a3e bc29 c3bc
000001e0: 46ed 783d 118b 0bbd 0ee1 aa3d 1289 08be
000001f0: cfea aabd 6e62 08bd ae83 48bc 6301 aabe
00000200: 31f6 763c 33ba 3abd 508e 793d b6f2 383e
00000210: ab68 cebd ff7d a5bd e01a db3c 7cf8 d3bd
00000220: 429c c8bc 9570 bc3d 0d55 c6bd a526 df3b
00000230: f242 ca3c f1ea 10be e500 e43c fae9 39bd
00000240: efa4 c3bd cac6 b7bd 528f 9a3d ff41 9e3c
00000250: 5a5f c3bd 0a1c d6ba f351 393c a512 86bc
00000260: 1e58 27bd 1111 d3bc 1961 aabd d096 b0b9
00000270: 6e9c 213d 4138 eabd d63c 203d d007 9ebd
00000280: 8d8a 22bd ab71 89bd 3266 45bc 909a e43d
00000290: 6408 6e3d 9d42 a7bd 1b88 0a3d 5bc6 05bc
000002a0: ef83 90bd 4fe8 ecbc 38c5 11bd b8c2 db3c
000002b0: 3c18 883d c23c ae3d 604b 813d 93d7 203d
000002c0: d658 de3c e619 2c3d c467 b3bd cf13 35bd
000002d0: 60d7 13be 5038 033e f8ef 4a3d 076e 123e
000002e0: 06d2 e0bc ab45 1abe dbe9 bdbd 2b07 36be
000002f0: 194a c4bc 8edf c93d 807e 32bd c8d5 c33b
00000300: d869 cfbd 2007 c6bd fcce 8c3c 3186 903d
00000310: 78c1 36be c74a db3d 1881 013e 7118 b63d
00000320: e2fc f6bd 3742 053e eefc 47be 58a0 0cbe
00000330: 9ca9 b1bb afec 4f3d 3570 f2bc 7728 b1bd
00000340: e725 47be 8cd9 093e 2778 003e ce05 ecbc
00000350: c091 4f3c 1262 823d a704 46bd 4672 c4bd
00000360: 5786 c7bc 49bb 293c a16e 38bc b6e0 86bd
00000370: 8c9d de3c d8fd 37be bc95 6bbc b24d b9bd
00000380: 307a 673d 0eaf 22bd 5319 b73c 2605 e9bc
00000390: 7703 ce3d 17ff 34bc d274 d73c 5a0b 10bd
000003a0: d54b 683d b0d6 893d c8d6 bb3b 9491 673c
000003b0: 33f0 56bd 8c65 143e 55f7 e63c eddc 1fbd
000003c0: e77b c53d d4d4 173e a84d a6bd 6c54 b5bd
000003d0: da78 a23c d9d2 42bd de81 093d 2cf6 863d
000003e0: 36c3 a43d c841 46be 7a52 c53c 76d2 72bd
000003f0: 8dda f53d e864 1fbe f2a9 39bc 8ce3 b3bb
-0.11005488 0.011137523 -0.06031366 -0.03443147 0.07524322 0.01355008 -0.05699325 -0.10655987
0.052649107 0.08858196 0.1457141 -0.08353329 -0.07891949 0.011691242 -0.089891255 -0.071288995
0.025231231 0.13494726 0.07144744 0.09776772 0.15917142 0.09193328 -0.21267721 0.06965951
0.03572475 0.074967414 0.1342282 0.075285465 0.065477744 -0.22525424 -0.029642664 0.0010534158
-0.08000834 0.096759595 0.014256147 0.10769435 0.027834019 0.0787734 -0.10583578 -0.021015178
-0.10902999 0.107940584 0.025069257 -0.048224982 0.12674126 0.16765775 -0.11532637 -0.04886038
-0.19689016 -0.014067429 0.12502511 -0.14833798 0.13092546 -0.054269694 -0.061827928 -0.024304226
-0.107828274 -0.07567672 -0.16399398 0.078495495 0.10227542 -0.0686663 -0.0696661 0.051620264
0.01321985 -0.028496837 0.037479468 -0.11309656 -0.051985063 0.037854254 0.036054954 0.0387763
0.11101902 -0.20845686 0.10215036 -0.15324207 -0.011760052 -0.049435716 0.17737737 0.013652052
-0.027916705 0.0028809605 -0.15275428 -0.041003108 -0.065783486 -0.04904792 0.014710293 -0.12746939
-0.0775479 -0.0011789136 -0.043658424 0.08995564 -0.016611617 0.08029896 -0.108144484 0.007707052
-0.011184894 0.13766965 -0.028896106 0.040386945 -0.095858425 -0.031773426 0.019005623 -0.17517015
0.05616983 0.042247538 -0.19808537 0.009543844 0.19905849 0.056409862 0.0107313935 -0.07133982
0.045008104 0.049627367 0.012042829 -0.025284499 0.18595935 -0.013664006 0.13529849 -0.023823611
0.060773157 -0.03406817 0.08343707 -0.13333538 -0.083455674 -0.033296995 -0.012238426 -0.33204183
0.015073345 -0.04558773 0.060926735 0.18061337 -0.100785576 -0.080806725 0.026746213 -0.10350129
-0.024488572 0.09201161 -0.09684191 0.0068100267 0.024690125 -0.14152123 0.027832458 -0.045389153
-0.09552943 -0.08973463 0.075468674 0.019318579 -0.09539671 -0.0016335261 0.011311042 -0.016366312
-0.04085552 -0.025764974 -0.08319301 -0.000336817 0.039455824 -0.11436511 0.039120518 -0.07716334
-0.039682914 -0.067111336 -0.012048291 0.11162293 0.05811347 -0.08167002 0.033821207 -0.008164967
-0.07056414 -0.028919367 -0.035588473 0.026826248 0.06645247 0.085076824 0.06313205 0.039268088
0.02714197 0.042016886 -0.08760026 -0.044208344 -0.14437628 0.1281445 0.04954526 0.14299785
-0.027443897 -0.15065639 -0.0927312 -0.17776172 -0.023961114 0.09857093 -0.04357767 0.0059764124
-0.1012761 -0.09669328 0.017188542 0.07056845 -0.1784724 0.10707622 0.12646902 0.088913806
-0.12059952 0.1301354 -0.19530079 -0.13733041 -0.0054218303 0.05076283 -0.02959452 -0.08650296
-0.19448052 0.13461894 0.12545834 -0.028811362 0.012669027 0.06366362 -0.04834428 -0.095921084
-0.02435605 0.010359594 -0.011256845 -0.06585829 0.027174734 -0.17967927 -0.014378961 -0.09048022
0.05651301 -0.039717726 0.022350943 -0.028444838 0.100592546 -0.011047146 0.026300821 -0.035167076
0.056712944 0.067304015 0.005732391 0.01413383 -0.052475166 0.14491862 0.028194109 -0.03902905
0.09642773 0.14827281 -0.081202805 -0.08853993 0.019833017 -0.04756436 0.033571117 0.06589922
0.08045046 -0.19361031 0.02408718 -0.059282742 0.12004576 -0.15565836 -0.011332022 -0.005489772

network_body._body_endoder.seq_layers.2.bias f4 [128]
00000000: d93a 173d f52d 07bd 1c9c 51bd 90e5 723d
00000010: 479d f03c 63ca 75bc 42a8 13bd 3ae4 35bd
00000020: 1012 edbc 70b2 403d 412a a2bc 8bc5 1e3c
00000030: 3961 9cbc 3750 8fbc 7b21 213c 4e90 29bd
00000040: f1f7 843d b9c0 fabc e2b2 213c 6dd6 823d
00000050: 7ec8 92bc 03bb c2bc d34d 25bd bcf7 813d
00000060: 2324 51bd d7f8 51bd ab90 493d 4d69 163d
00000070: 4f04 393b 9a9e 9abc fdf0 0cbd 7d1d dcbc
00000080: 95b5 9e3c 3ff7 3c3d 6917 44bd 777f c5bb
00000090: 88c7 2abd 73d6 f43c 1f30 7fbc 0db2 bdbc
000000a0: 6ad4 5bbd ca49 b5bc 5b37 8d3c 9c97 403d
000000b0: 22da 6cbd d87a 37bd fb73 1dbd a5e2 c53c
000000c0: d11a b0bc d6aa 4ebd 408d b03c 465b 8e3a
000000d0: 70df 6fbd 73ee 06bd 55df e3bc c050 973c
000000e0: edba 223d db63 fc3c dc8f 9f3c 191e dcbb
000000f0: 8ed1 73bc fd48 6bbc 4dd0 2f3d 2603 493c
00000100: a2b6 c43c c0df af3c ea21 babc 3962 40bd
00000110: 9e84 d5bc 4c93 2fbb 3045 253d 40cb edbc
00000120: 3510 e13c ab2c 17bd dfaa 25bd 0b88 3b3d
00000130: 3790 1dbd 5658 b2bc 3c62 2abd 957c 17bd
00000140: dd23 0d3d defd d4bc afa1 3cbd 2b5c 2fbd
00000150: f5ee 7dbc 92d5 16bd 2fd6 193c 9507 bb3c
00000160: a863 4cbc 27a4 49bc bd37 0abd a010 efb9
00000170: d0a1 1abd 95be 1abd b0a8 433d cee5 b8bc
00000180: dc25 bdbc 5dfc 34bd cb12 b83c 9333 d4bc
00000190: 3c9d 1cbd e163 8cbb a326 21bd 1132 30bc
000001a0: 2279 2ebd 79bf 26bd e15e 09bd c285 45bb
000001b0: 41ba 0cbd 679f 4ebd 42ed 3bbd 4517 23bd
000001c0: a9bd 383d 32c0 35bd a797 023d 8bf1 e0bc
000001d0: f8ef ddbc 3117 cbbc 7483 9e3c 3eb9 4b3d
000001e0: 81f8 503d 708d dbbc 2432 cfbc 9779 98bc
000001f0: d616 cabc a80e 2f3d 8819 2abd 44a3 58bd
0.036921356 -0.033002812 -0.051174268 0.05930096 0.02937187 -0.015001866 -0.036049135 -0.044407107
-0.028939277 0.04704517 -0.019795539 0.009690653 -0.019089328 -0.017494304 0.0098346425 -0.041397385
0.064926036 -0.030609475 0.009869309 0.06388555 -0.017917868 -0.023770815 -0.040357422 0.0634608
-0.051059853 -0.051262703 0.04921023 0.036721516 0.0028231328 -0.018874455 -0.03440951 -0.02686953
0.019373694 0.04613423 -0.04787389 -0.006027158 -0.041694194 0.029887414 -0.015575438 -0.02315619
-0.05366937 -0.022129912 0.01723831 0.047019586 -0.057825215 -0.044794887 -0.038440686 0.024155924
-0.021497162 -0.05045589 0.021551728 0.0010860942 -0.058562696 -0.032942247 -0.027816454 0.018471122
0.039729048 0.030809334 0.019477777 -0.006717455 -0.014881505 -0.0143606635 0.04292326 0.012268817
0.024012867 0.021468997 -0.02272125 -0.046968672 -0.026064213 -0.0026790677 0.040349185 -0.029027581
0.027473548 -0.036907833 -0.04044616 0.045784038 -0.038467612 -0.021770637 -0.04159759 -0.036984045
0.03445803 -0.02599996 -0.04605263 -0.042812508 -0.015498866 -0.03682477 0.009389444 0.022830764
-0.012474932 -0.012307203 -0.033744562 -0.0004559802 -0.037751973 -0.03777941 0.047768295 -0.022570517
-0.023089342 -0.044185985 0.022469899 -0.025903499 -0.038235888 -0.0042843674 -0.039343487 -0.010754124
-0.04259599 -0.040709946 -0.03353775 -0.003013954 -0.034357313 -0.050444987 -0.045880564 -0.039817113
0.04510275 -0.044372745 0.03188291 -0.027458927 -0.027091965 -0.024791332 0.019349791 0.049737208
0.05101824 -0.026800841 -0.025292464 -0.018612666 -0.024669092 0.042738587 -0.041528255 -0.052890077

action_model._continuous_distribution.mu.weight f4 [1, 128]
00000000: 21de 1b3c d9a8 54bc 1308 25bc 9cec f13c
00000010: 2493 023d 4ba1 e3bc c445 0dbc b064 acbb
00000020: 778e 23bd 6045 6a3c 982a 65bd 484a 493c
00000030: 96c2 17bd 94d5 fabc 5bd6 6e3b ca5b 6dbc
00000040: 784d 813d 1ef1 dabc 4ebe e03b d944 8f3c
00000050: 29e5 4abc 10be 26bc adf4 a2ba d065 cb3c
00000060: 42cb 38bc 4b86 87bc 0834 0e3d 4ed8 8a3b
00000070: 58f1 1c3a c78a adba b814 06bc ad96 81bd
00000080: 758a 823c e26b 733d e704 a0bc ab0e ecb8
00000090: a660 45bc f313 893c 6305 e4bc ada3 c8bc
000000a0: e26b 00bd f554 fabc a6f2 653b 10b2 173c
000000b0: 7d4a 45ba e328 e4bb 9936 b0bc 3ffa 933b
000000c0: 50e0 31bb a54d 6cbb a219 eb3b dc31 4d3c
000000d0: b71b 17bd a918 33bc c884 f0bb 782f f53b
000000e0: 37ae c53b cfa2 163c c81b 173b b6ff ec39
000000f0: f475 17ba 9385 82bc 445a 413d 5468 403b
00000100: 6960 b039 bc08 b23b d920 88bc c35d 82bc
00000110: 7763 babc 7d28 e03a a8a1 2e3c c422 86bc
00000120: 395b a53c 3a9a 0fbd af27 05bc 8710 a83c
00000130: 2534 70bc cb1e acbc c047 10bc d743 43bb
00000140: 0aff 5a3c 89bb 4fbb 61b6 36bc ffb3 22bd
00000150: f188 22ba 6bc7 20bd 0697 e53b 088b 243c
00000160: dcdc e1b8 c35f 0cbc 6a7e 8dbc 1d9a 0eba
00000170: 76b9 13bd 945f 0abc 4a39 e53c 8a01 32bd
00000180: f593 b1bb 6393 aabc 6180 2f3b e9f4 75bc
00000190: a7df b7bc aa38 fc3a 7e54 96bc 1eee a0bc
000001a0: fdf9 11bc 5b7f 2fbd 5283 45bc 9a32 833b
000001b0: 3427 d4bc 99c0 f4bb 2e0f 8fbc 20b0 c3bc
000001c0: 7c14 bb3c d476 56bc 3f32 de3c f6fd 03bc
000001d0: d9c5 58bd 14ab e7bc eab0 88ba 82f0 143d
000001e0: cee5 723d 8ac0 04bd 9ba3 6fb9 1c27 9a39
000001f0: f643 9cbc 3bc1 2f3d d712 35bc 1ba8 73bc
0.009513409 -0.01297971 -0.010072726 0.02953177 0.031878605 -0.027786871 -0.00862259 -0.0052610263
-0.039930787 0.014298767 -0.055948824 0.012285776 -0.037050806 -0.03061942 0.0036443684 -0.014487216
0.06313604 -0.026726302 0.0068586236 0.017488884 -0.012383738 -0.01017715 -0.0012432538 0.024828821
-0.011278929 -0.016543528 0.03471759 0.0042372113 0.0005986891 -0.0013240211 -0.008183651 -0.06327567
0.015935162 0.059429057 -0.019533588 -0.00011256089 -0.012046969 0.016733145 -0.0278346 -0.02449211
-0.031352885 -0.030558089 0.0035087257 0.009258762 -0.0007526053 -0.006962882 -0.02151041 0.0045159156
-0.0027141757 -0.0036057022 0.0071746865 0.012524094 -0.036891665 -0.010931172 -0.0073400475 0.0074824654
0.006032731 0.00919409 0.002305733 0.00045203947 -0.0005777769 -0.015932834 0.047205225 0.002935906
0.00033641167 0.00543317 -0.016617225 -0.01591385 -0.022752507 0.001710191 0.010658659 -0.016374
0.0201851 -0.03505919 -0.008127137 0.020515693 -0.01466087 -0.021010777 -0.008806169 -0.0029795074
0.01336647 -0.0031697473 -0.011151881 -0.03972244 -0.00062002154 -0.03925268 0.007006529 0.010042913
-0.00010769974 -0.008567753 -0.017272193 -0.0005439835 -0.03606554 -0.008445639 0.02798142 -0.0434585
-0.005419249 -0.020822233 0.00267794 -0.015012004 -0.022445513 0.0019242961 -0.018350836 -0.019644793
-0.0089096995 -0.042846065 -0.012055235 0.004003835 -0.0258976 -0.0074692485 -0.017463293 -0.023887694
0.022836916 -0.013089854 0.027123569 -0.0080561545 -0.052923057 -0.028279819 -0.0010428701 0.03636218
0.05930119 -0.032410182 -0.00022853764 0.00029402308 -0.019075375 0.04290889 -0.011051855 -0.014871622

exp_avg f4 [128, 2]
00000000: 9753 bfb9 d326 0238 b56f ecb8 f06b e0b9
00000010: b079 073b add9 19ba 1dd8 78b9 23ef 5638
00000020: b541 aa39 bd48 e7b8 6f38 edb9 91ea 84b9
00000030: 5221 e5b7 a2a5 99b9 9370 39b9 a3f4 3839
00000040: c943 afb9 3e3f 3338 ec00 19ba 66c0 cab8
00000050: 8bdc 77ba c98b e338 13a3 a43a 006a 22ba
00000060: 25d6 39ba a272 f0b9 9b4b b33a 25b0 2d3a
00000070: 7348 e339 9130 4239 49ba 083a d3a8 d639
00000080: 375e 84ba 3e98 6b36 257e 563a e3ec 06ba
00000090: b5f4 adb7 1581 a139 72f7 463a 19b6 8937
000000a0: 8b98 60ba b515 9b38 6296 1f3a b8f4 5739
000000b0: b715 fb39 2d56 5fb9 5992 3bba 58f4 adb9
000000c0: 8068 8eba d69f 1d39 8394 103a d35e 9db9
000000d0: 250a 01bb 43cf 663a 36dd 1b3b f2fd acba
000000e0: 4eb1 443b 470f 1eba dc3d 95ba e43e b239
000000f0: 22bb b5ba 6970 e739 6727 c339 fe93 6e39
00000100: c21f 3836 b370 e938 3e74 15ba 2e4a 4c39
00000110: 8571 6538 ec53 d2b7 b95c c8b6 a98c ca37
00000120: 6970 d539 0fe0 8839 da57 593a 875f 483a
00000130: b981 803a 74f1 2b3a 8e78 d138 2f84 dbb8
00000140: 5b26 2b3a 0a0b dcb9 3042 9f3a 75cf 343a
00000150: aaa4 e6b9 9f56 4eb9 37b0 4739 6d34 37b8
00000160: 1652 a93a a67e 03ba 28a4 68ba cca5 8239
00000170: 4b11 19b9 b04e 7d39 18d2 193a 9d52 04ba
00000180: 78ec 9439 38e4 c339 30ad 713a 0f61 0a39
00000190: 771e 33b9 43a6 b939 d00a 583a e25e 093a
000001a0: 73d8 3d3a 5dd7 3d39 3c34 b63a 2fc7 73ba
000001b0: 9e03 19bb 471d 4e3a d555 daba 49bb 3c3a
000001c0: 347d 02ba 3b83 d339 c276 9eb9 d564 0eb9
000001d0: 2464 82ba b133 0ab9 fa57 ad3a f729 123a
000001e0: ab29 38b9 9d59 6f39 cf39 093a f999 eb39
000001f0: d667 45b6 26a9 1b39 6664 39ba 60e4 dc38
00000200: 2d2c ac3a 5cd5 8739 c627 8638 6f81 d0b9
00000210: 074c ad3a 5bb1 43b9 948c b9ba 04bf bb39
00000220: 86d4 95ba a3f8 97b9 37eb 9c3a 14e3 1f3a
00000230: 5aab be38 c89f adb9 2eb1 fbba 465e 8f3a
00000240: e756 6cba 4428 c737 878f 6239 9fa3 9c36
00000250: 95a9 683a ec60 193a 6a94 08ba fd24 1339
00000260: 6356 bbba 4458 8f39 939c 0b3a 6d38 33b8
00000270: 703b 14ba 7776 2839 47a0 143b d214 523a
00000280: 62c1 9fb9 aa11 5739 b231 a0ba 97a4 ae39
00000290: db2b bfb9 e2f5 e4b9 8bd7 cdb9 26d7 de38
000002a0: b4d1 85ba b714 023a 2314 a4ba 8976 c939
000002b0: f9a9 d6ba d9ce 8239 68cd 2aba 5c0e aeb9
000002c0: ece1 70b8 f083 2bb8 a4fe 9aba a268 d939
000002d0: b28b 6dba 0353 b939 0bb8 1e3a 186a 053a
000002e0: cda5 e839 e3b2 6d36 9685 e4b9 9e7d fa38
000002f0: dd38 a3b8 1b54 c139 bb9b 30bb 69fe 6f3a
00000300: 5bdb 4939 19ca 5139 4938 6bba a85c 9d39
00000310: a735 5a36 c0ff 0e39 0790 1f3a 8459 11b9
00000320: 9dee b13a c776 e339 ba40 333a e187 003a
00000330: 2fa7 4fba 7515 22b9 e173 ab3a cd33 f2b9
00000340: fe22 57ba 158d b739 d581 8139 3188 13ba
00000350: 6373 2bba 5be6 7bb9 f470 603a 6cd1 1c39
00000360: f02e 9f3a 3725 ec39 2440 443a bd59 2c3a
00000370: 71d9 a139 aff1 d038 a90d 12bb 4de3 633a
00000380: f8b0 fa3a 5713 223a 3a27 c4b9 78eb 82b8
00000390: da6b ffb8 8f66 7eb8 50a4 1cb9 610d 2439
000003a0: 87aa 753a 811b db39 f21f 4d3a 0606 22b9
000003b0: 2647 1cba 56ef 8037 6120 3cba ca64 7039
000003c0: f3f6 adb7 1a28 e8b8 ff84 a9b9 3400 5639
000003d0: 6d7f 88ba 1b64 b239 2f61 f43a 6ee6 d8ba
000003e0: 200f d5ba cd34 f739 6c70 a9b9 ddb0 a639
000003f0: fbc0 d4b9 75a6 24b9 8d66 ccb8 eeae ab39
-0.00036492638 3.1030573e-05 -0.00011274164 -0.0004280503 0.0020671897 -0.0005868923 -0.00023731632 5.124429e-05
0.00032473882 -0.00011028487 -0.0004524621 -0.00025351768 -2.7314443e-05 -0.0002930584 -0.00017684912 0.00017638742
-0.00033429105 4.2735825e-05 -0.0005836624 -9.6679476e-05 -0.0009455166 0.000108502405 0.0012560807 -0.0006195605
-0.00070891 -0.00045861775 0.0013679148 0.0006625674 0.00043350793 0.00018519374 0.0005215747 0.00040943045
-0.0010098879 3.5106345e-06 0.0008182249 -0.0005146993 -2.0737158e-05 0.00030804487 0.0007589973 1.6416468e-05
-0.00085676525 7.395019e-05 0.00060877774 0.00020595163 0.0004789063 -0.0002129904 -0.00071552914 -0.00033179182
-0.0010864884 0.0001503223 0.0005515294 -0.00030016023 -0.0019689885 0.0008804688 0.0023782975 -0.001319824
0.0030012908 -0.0006029498 -0.0011386233 0.00033997663 -0.0013864974 0.00044143506 0.00037222655 0.0002275258
2.7436622e-06 0.00011131298 -0.00057012204 0.0001948259 5.4703578e-05 -2.507303e-05 -5.971259e-06 2.4145776e-05
0.00040710278 0.00026106878 0.0008290984 0.0007643629 0.0009804285 0.00065591116 9.988352e-05 -0.00010467355
0.0006528848 -0.00041969895 0.0012150463 0.00068973686 -0.00043991703 -0.0001967796 0.00019043764 -4.3679425e-05
0.001291814 -0.00050161255 -0.0008874559 0.0002491906 -0.00014597659 0.00024157274 0.0005867793 -0.0005047711
0.00028404943 0.00037363335 0.00092192274 0.00013196863 -0.0001708212 0.00035409824 0.0008241357 0.0005240274
0.0007242031 0.00018104674 0.0013901065 -0.0009299395 -0.0023348103 0.0007862639 -0.001665766 0.00071995385
-0.0004977763 0.0004034283 -0.0003022459 -0.00013579738 -0.0009948057 -0.00013179962 0.0013225072 0.0005575711
-0.0001756313 0.000228262 0.00052347494 0.0004493741 -2.9415728e-06 0.00014844965 -0.00070721505 0.00010532956
0.0013135724 0.00025908172 6.397026e-05 -0.00039769287 0.001322151 -0.00018662719 -0.0014156275 0.00035809737
-0.0011431135 -0.00028986213 0.0011971955 0.0006099206 9.091823e-05 -0.00033116178 -0.0019202584 0.001093813
-0.0009015635 2.3741399e-05 0.00021606508 4.6682103e-06 0.00088753673 0.00058509293 -0.00052101037 0.00014032792
-0.0014292713 0.00027340848 0.00053257606 -4.2729476e-05 -0.0005654609 0.0001606586 0.002267854 0.0008013967
-0.00030470925 0.00020510578 -0.0012221842 0.00033310495 -0.00036463034 -0.00043670746 -0.0003926124 0.000106258594
-0.0010209591 0.0004962193 -0.0012518208 0.00038426023 -0.001637756 0.00024949646 -0.0006515593 -0.00033198565
-5.7430865e-05 -4.0892453e-05 -0.0011825156 0.00041467423 -0.0009061649 0.00035347798 0.0006054646 0.00050893566
0.0004437402 3.5419878e-06 -0.00043587078 0.00011944327 -7.783037e-05 0.00036874492 -0.0026948291 0.00091550365
0.0001925057 0.0002000708 -0.0008972926 0.00030014408 3.2515761e-06 0.0001363745 0.00060868304 -0.00013861625
0.0013575141 0.0004338531 0.0006837953 0.000490306 -0.00079213356 -0.00015457517 0.0013080799 -0.00046196432
-0.00082068134 0.00035009594 0.0002470153 -0.0005627899 -0.0006540326 -0.0002402304 0.0008561753 0.00014955335
0.0012144726 0.00045041155 0.00074863643 0.00065746513 0.0003087032 9.96323e-05 -0.0022285974 0.0008693233
0.0019126227 0.00061826914 -0.0003741326 -6.2427425e-05 -0.000121794365 -6.0653834e-05 -0.0001493853 0.00015645243
0.0009371419 0.00041791427 0.00078248896 -0.00015451768 -0.00059615297 1.5370239e-05 -0.00071764557 0.0002292573
-2.0738202e-05 -0.000110700916 -0.00032333282 0.00020408706 -0.0010413952 0.0003402539 0.0018644686 -0.0016548166
-0.0016255118 0.0004715085 -0.00032317953 0.0003179376 -0.00040579573 -0.00015702269 -9.7465796e-05 0.00032745994

exp_avg_sq f4 [128, 2]
00000000: 362b a036 b0d2 f937 d228 d036 7f17 c637
00000010: 4cef 8738 1e9c b138 b2bd 3437 4bca f238
00000020: 7da9 1836 7b9c 4e38 4ff0 8337 c5e1 6e3a
00000030: 29ec c536 4b9c 6937 ccbd 5b37 6316 fb37
00000040: 37d0 1c37 4382 8537 8c65 e936 4a3e b837
00000050: b1a9 a236 b655 5139 be74 3f37 7292 8f37
00000060: 3f30 a037 9786 2338 d2c9 c537 24b6 9e39
00000070: c6f6 5e36 f968 a737 f3cf 0d37 c0a4 5337
00000080: 6213 b237 8030 e63a bb04 8a37 a61e f039
00000090: 7bbd 9c36 41c6 ee37 4909 5837 a290 2a38
000000a0: 9970 b737 6362 9438 bf8b 7037 6692 123a
000000b0: cc49 3a37 27d0 0238 8b2e 9436 9f57 df37
000000c0: 9cf4 5137 1ffa 2339 7307 c836 4640 7837
000000d0: a2b4 5038 5d2c d939 1b81 f038 47c1 b738
000000e0: 7b91 4838 9172 f339 464e 7d37 bdd1 4039
000000f0: 1155 8d37 e821 f239 e2dc 6836 a994 2038
00000100: 8cb2 2537 7b27 5538 ccbd a437 c53b a738
00000110: 724d 4f36 621b 9c37 c6c1 f636 7a4c 6638
00000120: 5ac0 9836 8c10 2639 0cc5 8337 4e77 8339
00000130: 7409 2338 e58d 813a b9f1 0a37 cdbf 5438
00000140: 5669 aa37 3a57 8038 09ab ca37 9089 163a
00000150: 46c8 1837 256a bb39 3eed 7836 3904 a937
00000160: 3114 b237 7ef2 5637 a17b 4237 bc1e 2938
00000170: e6b3 df36 90c6 7e38 28db 1337 ab3c f738
00000180: b082 e936 36f9 f838 aee8 d636 0bd0 4f38
00000190: 29cb 5237 9b52 cf38 0a5e 1737 028e 0e39
000001a0: e1c5 3337 1771 6939 588f 2b38 f6b4 9838
000001b0: 62d9 3838 6454 4638 a5be 8a38 70ad 1739
000001c0: cc82 7737 3d7a a338 9201 4136 410e 3e37
000001d0: 0f37 0c38 b42c fa38 113d 4237 d5cc 1638
000001e0: ba11 2937 fabd 9037 8056 1737 59af 6237
000001f0: ed5c 4836 162e 1937 a028 f636 8489 2739
00000200: a80e b237 9b53 1039 c0c3 b237 2316 e337
00000210: 7d59 e237 ea2b 2f38 2751 5038 30a1 c838
00000220: 94b8 6a37 4716 4737 550c 0038 aa76 d838
00000230: 51b8 f636 9a69 1a39 0332 ac38 c81e e538
00000240: beb0 3437 f6c7 023a 5dbe e535 3717 3937
00000250: 7d89 9137 ce74 643a d5c9 3637 961a 9037
00000260: b7c6 df37 1d13 c439 62bc 9037 8dcf c838
00000270: 4813 3837 e65e 4c39 dbdf ab38 3926 1a3b
00000280: 0284 da37 ad22 2339 17a2 cc37 13c7 ca38
00000290: c34a 2837 2129 b737 2358 ac36 bfbc dd38
000002a0: b9fe e037 b77d 4c38 e376 0e37 3d9f da37
000002b0: 59ee c437 2328 143a f4c4 c436 0c76 1737
000002c0: 16bb 1f37 e981 2137 474f 8437 4678 e937
000002d0: 16b9 1238 6bd8 5138 948e 1937 c38b 1738
000002e0: c5de 4337 b0b7 a739 92f8 8a37 d1fd 4738
000002f0: a404 f537 2ed0 cb38 9000 b338 18f4 d139
00000300: 7830 4a36 b512 3d37 e54b a337 ec37 8e37
00000310: d27d 8c36 dd13 c537 d005 c936 1464 2438
00000320: 49e7 8c37 c872 5f37 6e94 8437 c82c 0639
00000330: fe3c 2b37 c781 8137 db5c 8437 71ab a538
00000340: d415 1638 63c8 0739 9d43 1938 b64c 5d39
00000350: 86e6 4837 c5aa 8e37 36da 3737 ab0c e238
00000360: 08b7 8b37 1884 1639 33dd 0f38 cfe6 6339
00000370: 2001 a536 5274 c137 b6e9 5f38 0771 293a
00000380: 080d 6c38 fd2d 933a 17c2 0037 b849 6137
00000390: 4864 a836 7a62 b537 3f68 dc37 9f69 8838
000003a0: dd69 bc37 0d32 093a c38d 0537 719d 7d38
000003b0: d0f1 2436 3290 1237 adca a036 cdb0 b538
000003c0: 1efd a936 54df 9039 0e40 c735 576f ae36
000003d0: 69b5 f337 38e4 cd37 27c6 a238 3a69 7a39
000003e0: c895 2038 07ae 273a a802 0338 89cb f737
000003f0: 72b2 e535 bcb2 b437 5387 d136 87a0 0439
4.773402e-06 2.9781222e-05 6.203635e-06 2.361438e-05 6.481874e-05 8.469097e-05 1.0773003e-05 0.00011577139
2.274842e-06 4.925996e-05 1.572832e-05 0.0009112622 5.89855e-06 1.3924272e-05 1.3097608e-05 2.9931956e-05
9.346803e-06 1.5915493e-05 6.9557627e-06 2.1963515e-05 4.847731e-06 0.00019963723 1.1411668e-05 1.7115122e-05
1.9095953e-05 3.8987575e-05 2.357821e-05 0.00030271814 3.322422e-06 1.9956833e-05 8.452672e-06 1.2614939e-05
2.122828e-05 0.0017562062 1.6453085e-05 0.00045799202 4.6712207e-06 2.846413e-05 1.2876765e-05 4.066586e-05
2.1867732e-05 7.075516e-05 1.4337652e-05 0.0005591273 1.1103646e-05 3.1188272e-05 4.416162e-06 2.6624473e-05
1.2514323e-05 0.00015638069 5.9613317e-06 1.4796917e-05 4.9759292e-05 0.0004142252 0.000114681396 8.762121e-05
4.7819205e-05 0.0004643393 1.50982e-05 0.0001838868 1.6848122e-05 0.000461831 3.4699265e-06 3.8285423e-05
9.876338e-06 5.0819926e-05 1.9638705e-05 7.9743135e-05 3.0890483e-06 1.86094e-05 7.3539295e-06 5.4907498e-05
4.5523457e-06 0.00015837158 1.5708174e-05 0.00025075156 3.8871032e-05 0.0009884207 8.281721e-06 5.0723367e-05
2.031463e-05 6.119763e-05 2.4159921e-05 0.00057425443 9.106536e-06 0.00035746503 3.7092973e-06 2.0148336e-05
2.1228656e-05 1.2811854e-05 1.1592086e-05 4.0321363e-05 6.666861e-06 6.0743245e-05 8.812909e-06 0.00011789178
6.959155e-06 0.00011871981 6.4047845e-06 4.95464e-05 1.2564277e-05 9.885916e-05 9.0221965e-06 0.00013595077
1.0715304e-05 0.00022262741 4.0903076e-05 7.2816314e-05 4.4071472e-05 4.7285474e-05 6.615863e-05 0.00014465093
1.4752801e-05 7.795214e-05 2.8760155e-06 1.1328201e-05 3.342988e-05 0.000119292556 1.1577519e-05 3.595355e-05
1.0077312e-05 1.7254602e-05 9.020441e-06 1.3511476e-05 2.9856412e-06 9.130241e-06 7.3361007e-06 0.0001597759
2.1226078e-05 0.00013764056 2.1310407e-05 2.7070817e-05 2.698297e-05 4.176415e-05 4.9666643e-05 9.566767e-05
1.3990462e-05 1.1866511e-05 3.0529063e-05 0.000103217855 7.3528286e-06 0.00014725924 8.2109145e-05 0.000109253044
1.0769987e-05 0.0004988903 1.7117233e-06 1.1032264e-05 1.734937e-05 0.0008714915 1.0895038e-05 1.7178518e-05
2.6676205e-05 0.00037398274 1.725386e-05 9.5754025e-05 1.0971744e-05 0.00019490308 8.195612e-05 0.0023521318
2.6049096e-05 0.00015557809 2.4394174e-05 9.669191e-05 1.0030987e-05 2.1834452e-05 5.13626e-06 0.00010573258
2.6821495e-05 4.875447e-05 8.49154e-06 2.6061776e-05 2.347601e-05 0.0005651733 5.8641835e-06 9.027786e-06
9.520698e-06 9.626595e-06 1.5772543e-05 2.7831771e-05 3.4981487e-05 5.0031038e-05 9.152707e-06 3.613137e-05
1.1674773e-05 0.0003198958 1.6566632e-05 4.7681682e-05 2.9208437e-05 9.718571e-05 8.53549e-05 0.0004004545
3.0128558e-06 1.1269633e-05 1.9466455e-05 1.695376e-05 4.1869725e-06 2.349348e-05 5.9909435e-06 3.9193852e-05
1.6797001e-05 1.331856e-05 1.5804744e-05 0.00012795918 1.0206595e-05 1.543843e-05 1.5778865e-05 7.8997466e-05
3.5783116e-05 0.00012949253 3.6541012e-05 0.0002110478 1.1974602e-05 1.700724e-05 1.0958456e-05 0.000107788794
1.6655322e-05 0.00014354324 3.4299865e-05 0.0002173439 4.917514e-06 2.3061559e-05 5.3385003e-05 0.0006463681
5.627892e-05 0.0011228916 7.674585e-06 1.3428209e-05 5.0184644e-06 2.1622738e-05 2.6274587e-05 6.504659e-05
2.2460643e-05 0.00052335934 7.960424e-06 6.046653e-05 2.4578658e-06 8.735851e-06 4.791966e-06 8.663684e-05
5.066059e-06 0.00027632213 1.4845298e-06 5.1985658e-06 2.9052333e-05 2.4544177e-05 7.761671e-05 0.00023881058
3.8286467e-05 0.00063964765 3.1235308e-05 2.9539473e-05 1.7113764e-06 2.1540902e-05 6.244439e-06 0.00012648302

exp_avg f4 [128]
00000000: 142c de37 612e 5cb7 93ff ef39 2c7c 80b8
00000010: 3015 53b8 f74a 1139 1674 b5b8 9b3a 16b8
00000020: 375d d0b8 dd02 6f38 2518 d6b8 82e4 a239
00000030: 6709 45b9 009b 81b9 1658 b3b8 d6db 95b9
00000040: b2f1 a5b9 d003 9b39 58d7 d338 9a44 1cb9
00000050: 76dc 1a39 85aa bdb9 d635 0339 a7d4 1bb9
00000060: afec 62b9 ca97 9b39 6361 d9b9 e279 293a
00000070: 5a9e 083a b966 adb9 3226 c7b9 dbc1 9fb8
00000080: 9b97 e4b4 74e3 ba38 7e85 f0b8 1585 efb8
00000090: 8a0b 32b9 66c8 e6b9 befa 0bba 00d2 7136
000000a0: f534 2b39 2a7d 2bba de30 8738 f955 5038
000000b0: 0bab ad39 a11f a439 c4fa 7db9 034f 1c3a
000000c0: 3fc3 dcb8 f0b4 fb37 0429 c438 9fae 0ab9
000000d0: 6f43 49b9 0a5e d039 1c89 4eba 2a96 33ba
000000e0: 6a52 c339 b2d3 16b8 a3f6 85b9 a916 b4b9
000000f0: 4c05 8c38 7eb3 e938 f5d1 e1b8 60ee 40b9
00000100: f56d a5b9 94ae 2237 22f8 7e39 8c5c dbb9
00000110: 5c36 3838 d39f 07ba ba78 fc39 52f4 27ba
00000120: ef27 6db8 027b 2839 ba72 95b9 2551 99b9
00000130: 1a41 bbb9 4572 7e39 a5a5 48b9 36e7 7eba
00000140: 47f7 7937 03d2 c0b9 1442 cfb7 5970 22b9
00000150: a0b5 a3b9 de1a c5b9 5fa3 b7b9 b2ce 9438
00000160: ab93 30b9 f274 d2b9 9863 0bba 9d9e 96b9
00000170: 96a5 eeb8 a328 23b9 7aac 26b9 541c 4fba
00000180: 6ce3 9fb7 dd23 edb9 1cf9 36b7 56a6 03b8
00000190: 1ebc 64b9 c2e7 a5b9 43bf bab8 0a9a e339
000001a0: 19a1 9439 6d84 2ab9 a8de 4a38 a5bf 52b7
000001b0: cec9 cfb9 4acc b2b9 88f1 6637 a8a3 ddb9
000001c0: 0b98 75ba 83e1 97b9 a158 63b9 6ff7 9bb9
000001d0: 707c ebb9 ec41 4839 f3d6 8239 4238 4db9
000001e0: ce99 7ab9 db0c ad38 47bd 9fb9 443a 6639
000001f0: 011b 02ba a5c4 aab9 0168 2039 c0b3 00b9
2.6484988e-05 -1.312382e-05 0.0004577605 -6.1266444e-05 -5.0326053e-05 0.00013856204 -8.652375e-05 -3.5817367e-05
-9.9355755e-05 5.6984707e-05 -0.000102088125 0.000310693 -0.00018790887 -0.0002472028 -8.5517924e-05 -0.00028583285
-0.0003165133 0.00029566744 0.00010101375 -0.00014902875 0.00014768713 -0.00036175936 0.00012513189 -0.00014861171
-0.00021641211 0.00029676995 -0.00041462024 0.00064650003 0.00052115845 -0.00033073666 -0.00037984696 -7.617819e-05
-4.2578617e-07 8.9115376e-05 -0.00011468957 -0.000114211965 -0.00016979701 -0.00044018327 -0.00053397927 3.6034035e-06
0.00016327559 -0.0006541783 6.446404e-05 4.9671133e-05 0.00033124568 0.00031304083 -0.00024221378 0.00059627014
-0.00010526785 3.0005787e-05 9.353648e-05 -0.00013225757 -0.00019193975 0.00039742916 -0.0007878707 -0.00068506843
0.00037254702 -3.5959943e-05 -0.00025551495 -0.00034349159 6.676707e-05 0.00011143739 -0.000107679436 -0.00018399348
-0.00031553177 9.6966e-06 0.00024315764 -0.00041839888 4.3919645e-05 -0.0005173657 0.00048155134 -0.0006406951
-5.6542394e-05 0.00016067552 -0.00028504973 -0.00029242891 -0.00035715924 0.00024265896 -0.00019135194 -0.0009723784
1.489913e-05 -0.00036777565 -2.4707093e-05 -0.00015491377 -0.00031225104 -0.00037594786 -0.000350262 7.09569e-05
-0.00016839679 -0.00040141452 -0.000531727 -0.00028728406 -0.00011379567 -0.0001556003 -0.00015895246 -0.00079006446
-1.9060179e-05 -0.00045230883 -1.0906046e-05 -3.1387746e-05 -0.00021813854 -0.00031643925 -8.9047964e-05 0.00043411582
0.00028348787 -0.00016261796 4.8367918e-05 -1.2561596e-05 -0.00039632473 -0.00034103013 1.3765304e-05 -0.00042274338
-0.00093686645 -0.00028968984 -0.00021681424 -0.00029748256 -0.00044915406 0.00019098044 0.00024955682 -0.00019571281
-0.00023899155 8.251677e-05 -0.00030467866 0.00021956215 -0.00049631303 -0.00032571438 0.00015297534 -0.00012273993

exp_avg_sq f4 [128]
00000000: 9bdb bd35 c5cd c335 3653 7b37 2310 6536
00000010: 0574 d035 645d 9a37 0533 e035 0d41 6436
00000020: 8923 e535 48b1 3b36 fce2 8a36 b9b3 1f36
00000030: 6701 bf36 b023 8f37 3a9d 1436 20ec d036
00000040: ef4d 0838 e2bb 2b37 ead0 a635 1859 2e36
00000050: de27 af36 39be 4537 169d 1936 76d1 d235
00000060: 878b e436 75e6 c535 1f54 9937 edbc c537
00000070: 8dd7 9e37 5761 c536 1d25 3c37 baca f635
00000080: 8cb6 3f36 87d2 8936 9221 8335 48c4 4936
00000090: 1d6c 8036 baa9 8337 46c0 f337 04d2 5136
000000a0: 376a 8936 947f 7437 91a3 f736 9686 8335
000000b0: 857e 8d36 9083 7f36 4404 2436 4029 8536
000000c0: cf37 ce36 a9c0 8e36 fb57 dd36 7987 f936
000000d0: 7e04 d636 12f1 ff36 ac61 3437 61c6 9837
000000e0: d989 7c36 0262 2035 b5ab ff36 953a ab36
000000f0: 0e54 2236 c5f2 9036 9c0f 9e35 f6be 7936
00000100: 1ee2 2537 a03f 9b36 1634 1237 0bb9 9637
00000110: 08cb 7236 0b13 7337 01f4 8c36 8ea6 a337
00000120: 8685 1737 8586 ba35 11c8 ab37 cd9c 6536
00000130: c12d 8137 24dc a936 8e63 c636 9f00 7338
00000140: 2f82 fc36 e069 0937 56ab 4336 8df2 3336
00000150: 24df c636 cac3 d935 cea0 6237 a64f de35
00000160: 8829 3536 4d47 7b36 28dc 2c37 7aed 9036
00000170: 9bde dd36 3f6a 4736 80aa 1137 d63b cd37
00000180: 2a2b 0136 48b6 8b36 1647 6435 4a04 6c36
00000190: c6e5 e336 ded4 1637 d343 ba36 3da1 8836
000001a0: 4659 0237 6b61 2537 bf6d 5536 9900 d536
000001b0: 6839 2537 3faf af37 8260 0d36 18aa f037
000001c0: ef49 1538 aa33 2a36 7c53 2536 a2f4 0637
000001d0: f501 6d37 1d29 4336 9678 9435 f619 2a36
000001e0: 0de5 ca36 dd25 4235 da4e 9a36 ac94 9937
000001f0: db29 a637 7652 1837 89af 4a35 c26f 7d36
1.4145511e-06 1.4588519e-06 1.498014e-05 3.4133052e-06 1.5530974e-06 1.8401719e-05 1.6704149e-06 3.4012512e-06
1.7072172e-06 2.7968363e-06 4.139145e-06 2.3797459e-06 5.692407e-06 1.7063547e-05 2.2145236e-06 6.2263716e-06
3.2497508e-05 1.0236139e-05 1.2428766e-06 2.597988e-06 5.2200476e-06 1.1786405e-05 2.2890213e-06 1.570718e-06
6.8111726e-06 1.4744716e-06 1.8278193e-05 2.3572205e-05 1.8935441e-05 5.8823894e-06 1.1214314e-05 1.838743e-06
2.8567474e-06 4.107427e-06 9.770031e-07 3.0065585e-06 3.8272833e-06 1.5695452e-05 2.9057392e-05 3.1265672e-06
4.095283e-06 1.4573237e-05 7.3802153e-06 9.79943e-07 4.2168563e-06 3.807454e-06 2.4440387e-06 3.968511e-06
6.1457754e-06 4.2543584e-06 6.5965555e-06 7.4365494e-06 6.37822e-06 7.6276565e-06 1.0751577e-05 1.821219e-05
3.7631164e-06 5.9747265e-07 7.6195815e-06 5.103017e-06 2.4188807e-06 4.3197965e-06 1.177646e-06 3.7215045e-06
9.887413e-06 4.626767e-06 8.714405e-06 1.796756e-05 3.617899e-06 1.44883625e-05 4.200731e-06 1.9508672e-05
9.03139e-06 1.389723e-06 2.0477952e-05 3.421493e-06 1.5399304e-05 5.06222e-06 5.9124495e-06 5.7936293e-05
7.5253406e-06 8.190487e-06 2.9156995e-06 2.6814262e-06 5.926837e-06 1.6224742e-06 1.350809e-05 1.656347e-06
2.6995276e-06 3.7443417e-06 1.0303258e-05 4.3191803e-06 6.612228e-06 2.9715154e-06 8.682371e-06 2.4465768e-05
1.9247623e-06 4.163743e-06 8.504006e-07 3.5169237e-06 6.7918763e-06 8.990259e-06 5.5511277e-06 4.0718865e-06
7.769389e-06 9.857448e-06 3.1803354e-06 6.3479642e-06 9.848132e-06 2.0943231e-05 2.1066812e-06 2.8689436e-05
3.5593224e-05 2.5362046e-06 2.463551e-06 8.04398e-06 1.41267565e-05 2.9081195e-06 1.1061954e-06 2.5347085e-06
6.046734e-06 7.232573e-07 4.598737e-06 1.8308252e-05 1.9808233e-05 9.079105e-06 7.55063e-07 3.776499e-06

exp_avg f4 [128, 128]
00000000: d517 6537 21ba 2c38 76d4 0a38 e0e6 1c39
00000010: 7240 a3b9 500d 2f38 8cf5 7338 78db 9938
00000020: 7966 a738 1476 4bb7 4160 43b8 aaa6 8f38
00000030: 742d 3338 6baa 29ba 9522 41b9 c05e 3ab9
00000040: 6347 9338 3db4 7538 4053 a8b9 720d afb9
00000050: 3259 1037 f29e 50b9 1436 8838 9fc5 1538
00000060: de41 2238 78e2 4038 b9bb e338 c84e 9138
00000070: 6e31 48b7 d78d 8938 1b63 c038 7e39 d1b9
00000080: ba6c 8238 d1b7 80b6 e758 d3b7 2ad6 8638
00000090: 4143 a8b8 1622 35b9 d5f4 91b9 c93d 6138
000000a0: 172f a838 c675 5db9 cb1b 6ab6 b145 9938
000000b0: 4b14 a538 04c4 48b9 c2ad c1b7 8be4 39b8
000000c0: ac27 90b9 eff4 22b9 8ed2 72b9 cb70 f7b9
000000d0: 6bbb d8b9 e236 3f38 3642 a538 a6ce 9f38
000000e0: 8147 19b9 5dbe 1f37 966e c438 e7de 92b9
000000f0: 8665 ae38 5a0d afb8 b368 edb7 cc6a 4438
00000100: e79b 6eb8 9ab9 c338 d547 bfb7 c6f7 2f38
00000110: 825c 89b7 7e5a b3b9 3b4d 6ab8 4306 a238
00000120: b0ff b237 fe83 00b9 3de2 b4b9 d727 ba38
00000130: aa35 2838 7672 8a38 304a 9438 db2d adb9
00000140: 03ba 44b7 bd3b 6438 1893 6238 c09c 9638
00000150: fd3b 9538 3541 7138 2128 3838 d518 33b7
00000160: 04dc 9138 cd8c 8e38 afd2 be38 b11e 59b9
00000170: 715a 91b7 79a0 a338 d21b af38 db83 a338
00000180: 0d85 96b8 f8e3 db38 2974 84b9 2c55 88b8
00000190: 0659 e3b9 b33f 99b9 55bc 0338 a825 9537
000001a0: fa88 39b9 a0a4 ff38 9323 4c38 02f2 24b9
000001b0: edb9 eeb8 5983 e6b9 b726 17b7 229a 0d39
000001c0: 19a2 f0b9 8d20 9538 54c5 8738 1f07 9c38
000001d0: bf5b 82b9 b98e 36b8 a4b2 07b9 dca6 ad36
000001e0: 6de5 be38 839d e3b8 fc46 a838 4f02 9f38
000001f0: 2a85 ac38 ffca a038 28df 4db7 876c c437
00000200: 689a 0638 0c51 2538 5bdd f5b9 12ab d8ba
00000210: 1df6 df38 19a8 16ba 7777 1bb8 3bd0 08b9
00000220: 79c9 f9b8 07ea 3d38 e4fa fab8 7530 0eb9
00000230: 2ccf 2e38 22b2 c4b7 706d b538 49f2 cc36
00000240: cf13 f8b9 823c cdb9 d0d4 83b8 06fc 24b8
00000250: f53c 2638 b028 3638 6b27 7ab9 d72b c137
00000260: 039c 11b9 a0a9 c9b7 745b 80ba 7b1b 2fb9
00000270: 3bd2 21b9 1c04 c2b9 c803 43ba 65f2 0a38
00000280: dcab afb8 091c 3338 5ecd 0d38 cae0 55b9
00000290: 6be8 6238 3b03 0338 12f5 9538 799d 35b8
000002a0: 8129 2fba 4ba1 8a37 97f0 27b8 f089 b6b9
000002b0: c660 eab9 1665 c8b7 094f bfb8 f8a5 55b8
000002c0: d8f9 d038 ca84 9c38 9758 b438 4538 5bb8
000002d0: ca4a 7b38 fb2e ebb8 3bad e2b9 c48b abb9
000002e0: a13e 13b9 1019 0338 4192 7c38 582a 5cb8
000002f0: 4b2f 8fb9 4be0 e2b8 c5fa 72b8 7c2c 6bb9
00000300: 0212 4f38 c924 8838 6f3c 35b9 2058 86b8
00000310: 3cee 0438 db78 1239 f3d2 1ab8 2b4e 41b9
00000320: 06ca 56b9 00a9 3538 8a52 8836 4ae3 13ba
00000330: 2d7f 1bb9 31e4 aeb7 61d6 eeb9 854d c9b6
00000340: a215 3738 ed81 7ab9 11b3 7e37 257f d7b9
00000350: 0c69 81b9 31b7 7eb9 7a17 91b9 efbe ab37
00000360: d6f4 41b9 26c9 84b9 28ca 09ba 0e69 d236
00000370: d917 cd36 50c7 22ba 7912 bcb9 9ef5 01ba
00000380: 94b4 5f38 a448 86b9 5e13 5fb7 a432 5b38
00000390: 360e f6b8 af8a b538 0128 f8b7 2781 b8b9
000003a0: 80bf 11b9 f482 75ba b753 2838 8b03 a338
000003b0: 0dad 5d38 7aad 4238 3381 68b7 dcb1 b8ba
000003c0: 9f7a c438 725f a4b9 7cef 1eb9 88e6 72b7
000003d0: 2df0 1838 3e20 9f35 3656 81b8 22b0 c4b7
000003e0: 5390 2dba 8790 a0b7 f011 1cb9 9e49 a3b8
000003f0: 9114 18ba 6960 91b8 84be c4b8 0c20 b1b8
1.36550125e-05 4.118134e-05 3.3099634e-05 0.00014963327 -0.00031137798 4.173565e-05 5.8164398e-05 7.336488e-05
7.9822676e-05 -1.2127235e-05 -4.6581266e-05 6.849815e-05 4.2719257e-05 -0.00064722326 -0.00018418797 -0.0001777364
7.022803e-05 5.8580412e-05 -0.00032105483 -0.0003338862 8.603836e-06 -0.00019895638 6.495058e-05 3.5708417e-05
3.8685153e-05 4.5987283e-05 0.000108591696 6.928813e-05 -1.1932438e-05 6.559089e-05 9.173733e-05 -0.0003990642
6.219135e-05 -3.8360963e-06 -2.5194558e-05 6.429509e-05 -8.023391e-05 -0.00017274203 -0.0002783897 5.3701722e-05
8.0196354e-05 -0.00021120076 -3.4884895e-06 7.3085896e-05 7.871593e-05 -0.00019146508 -2.3088305e-05 -4.4320284e-05
-0.00027495378 -0.00015540769 -0.00023157356 -0.00047195549 -0.00041338368 4.5589062e-05 7.880146e-05 7.620202e-05
-0.00014617854 9.521461e-06 9.3666065e-05 -0.00028013365 8.315877e-05 -8.347137e-05 -2.8301356e-05 4.6829504e-05
-5.6888817e-05 9.3328956e-05 -2.2802424e-05 4.195401e-05 -1.637475e-05 -0.00034208962 -5.5861874e-05 7.725928e-05
2.1338317e-05 -0.00012256202 -0.00034500836 8.876592e-05 4.01043e-05 6.601673e-05 7.0710084e-05 -0.00033031296
-1.172582e-05 5.441507e-05 5.401959e-05 7.181754e-05 7.116047e-05 5.7519606e-05 4.390639e-05 -1.0675013e-05
6.95512e-05 6.797314e-05 9.099149e-05 -0.00020706166 -1.7327462e-05 7.802336e-05 8.349832e-05 7.797006e-05
-7.17734e-05 0.00010485196 -0.00025263548 -6.50085e-05 -0.00043363142 -0.00029229894 3.140823e-05 1.777972e-05
-0.00017694003 0.00012190011 4.867052e-05 -0.00015730414 -0.00011383356 -0.0004396688 -9.009315e-06 0.00013504227
-0.0004589714 7.110937e-05 6.474057e-05 7.439986e-05 -0.00024863888 -4.3525102e-05 -0.00012941152 5.1752268e-06
9.10264e-05 -0.00010853542 8.024086e-05 7.582141e-05 8.226403e-05 7.6672055e-05 -1.227091e-05 2.3415558e-05
3.209189e-05 3.9414546e-05 -0.00046894964 -0.0016530475 0.00010679311 -0.00057470944 -3.706614e-05 -0.00013047543
-0.000119107724 4.5279066e-05 -0.00011967661 -0.00013560227 4.1677777e-05 -2.344797e-05 8.651137e-05 6.1078795e-06
-0.00047317005 -0.0003914573 -6.286206e-05 -3.9335362e-05 3.9634255e-05 4.3430075e-05 -0.00023856542 2.3027807e-05
-0.00013886396 -2.4040055e-05 -0.000979288 -0.00016699538 -0.00015432473 -0.00037005625 -0.0007439223 3.312751e-05
-8.3766616e-05 4.2703035e-05 3.3808283e-05 -0.00020397003 5.4099055e-05 3.1235842e-05 7.1505216e-05 -4.330042e-05
-0.0006681905 1.652599e-05 -4.003997e-05 -0.00034816517 -0.0004470406 -2.388893e-05 -9.122311e-05 -5.0937728e-05
9.96475e-05 7.4633936e-05 8.59957e-05 -5.2266074e-05 5.9912716e-05 -0.00011214424 -0.00043235146 -0.00032719795
-0.00014042344 3.1256175e-05 6.021769e-05 -5.2491523e-05 -0.00027310321 -0.000108182976 -5.7930843e-05 -0.00022427918
4.9369417e-05 6.491837e-05 -0.00017284018 -6.4060325e-05 3.1693125e-05 0.00013968667 -3.6912923e-05 -0.00018435034
-0.0002048389 4.3311156e-05 4.0627247e-06 -0.00056414737 -0.00014829329 -2.0848676e-05 -0.00045554622 -5.9992913e-06
4.3650747e-05 -0.00023890259 1.5181272e-05 -0.00041102726 -0.00024683063 -0.00024291572 -0.00027674047 2.0473699e-05
-0.00018497123 -0.0002532687 -0.0005256259 6.2707177e-06 6.1122523e-06 -0.00062095094 -0.00035871917 -0.0004957559
5.333552e-05 -0.00025612593 -1.3296345e-05 5.226083e-05 -0.00011732841 8.6565844e-05 -2.9582532e-05 -0.0003519144
-0.00013899617 -0.0009365522 4.0132287e-05 7.7731056e-05 5.2851672e-05 4.6414767e-05 -1.3858359e-05 -0.0014091092
9.368848e-05 -0.0003135163 -0.00015157269 -1.4477999e-05 3.6463305e-05 1.1855807e-06 -6.1672574e-05 -2.3447039e-05
-0.0006620932 -1.9140787e-05 -0.00014884002 -7.786158e-05 -0.00058014045 -6.9320966e-05 -9.3814946e-05 -8.445987e-05
