Assets/IA/Pruebas/results/Pad04/PadBehavior/checkpoint.pt (torch, 444149 bytes, 30 tensors)

network_body._body_endoder.seq_layers.0.weight f4 [128, 7]
0	0x3b65b9b2	0.003505331
1	0x3eab4d30	0.33457327
2	0xbe26ba2a	-0.16281953
3	0x3ea6694d	0.32502213
4	0x3dc96b28	0.098348916
5	0x3e5b16be	0.21395394
6	0xbe99030d	-0.2988514
7	0xbd53e12a	-0.051728405
8	0xbf33058e	-0.6993035
9	0x3d8fb6da	0.07017298
10	0x3ea228c6	0.31671733
11	0x3f2ba69c	0.670511
12	0xbea56c20	-0.32309055
13	0x3e7dac85	0.24772842
14	0x3d8b1b50	0.06792319
15	0x3d9acb5b	0.07558318
16	0xbf2f1506	-0.68391454
17	0x3e936a6b	0.28792128
18	0x3f784d7f	0.9699325
19	0x3dd7d107	0.10537916
20	0x3f583c3c	0.8446691
21	0xbdd24fb8	-0.102691114
22	0xbebb6bfb	-0.3660582
23	0x3e63f942	0.22263053
24	0xbcf93eb6	-0.03042541
25	0xbe0a1dcf	-0.13487934
26	0x3e5b9651	0.2144406
27	0xbe481ca6	-0.19542179
28	0x3f31d974	0.6947243
29	0xbdb2a584	-0.08722976
30	0xbe241db9	-0.16026963
31	0x3d21a4dd	0.039463867
32	0xbf2295f3	-0.63510054
33	0x3ed71e53	0.42015323
34	0xbe2c0ca7	-0.16801701
35	0xbf322dae	-0.6960095
36	0x3e03c23d	0.12867065
37	0xbeaf3cf8	-0.34226203
38	0x3e48db2b	0.19614856
39	0x3e9275d8	0.28605533
40	0xbf405f37	-0.75145286
41	0xbef5ad12	-0.47983605
42	0x3e22a2d5	0.15882428
43	0x3e34b034	0.17645341
44	0xbe7686b0	-0.24074817
45	0xbe374c57	-0.17900215
46	0xbe76ca6e	-0.24100658
47	0x3e62a746	0.22134122
48	0xbeebfac3	-0.46089754
49	0xbf056281	-0.5210343
50	0x3df0abce	0.11751519
51	0xbf189813	-0.59607047
52	0xbddfd06d	-0.10928426
53	0xbd86cdda	-0.06582232
54	0x3e744e3c	0.23857969
55	0xbeae70a4	-0.34070313
56	0x3f23d2c9	0.6399351
57	0x3ef58b26	0.47957724
58	0xbe7dc25f	-0.24781178
59	0x3f28d209	0.6594549
60	0xbe66fffd	-0.2255859
61	0x3d3eb935	0.046563346
62	0xbdce9793	-0.10087504
63	0xbe000192	-0.12500599
64	0xbf14ca7c	-0.58121467
65	0x3e3284bd	0.17433448
66	0x3e3b8c28	0.18315184
67	0x3e4c818e	0.19971296
68	0x3d11e8ea	0.035622515
69	0xbec10235	-0.37696996
70	0x3e5885eb	0.21144836
71	0xbd1170ee	-0.03550809
72	0x3f1810cf	0.5940065
73	0x3f32cbd9	0.69842297
74	0xbdcfba81	-0.10142995
75	0xbd5ba1b3	-0.053621005
76	0xbea9fba8	-0.3319981
77	0x3c26bd4d	0.010176969
78	0xbe97a000	-0.29614258
79	0xbd2bf556	-0.041982017
80	0xbea4c9e2	-0.32185274
81	0xbd382291	-0.04495484
82	0x3e877f93	0.2646452
83	0xbf59b6fa	-0.85044825
84	0x3f30c0ab	0.6904399
85	0xbf31c473	-0.6944038
86	0x3f5d6782	0.86486065
87	0x3eb1ad4b	0.34702525
88	0xbe0507cd	-0.12991257
89	0x3e05a44e	0.13050959
90	0x3f8c0a7b	1.0940698
91	0xbdddd462	-0.108315244
92	0x3dc776d0	0.097394586
93	0xbe20b6b5	-0.15694697
94	0x3ee112d2	0.4395967
95	0x3e32899d	0.17435308
96	0xbef409f8	-0.47663856
97	0xbe065718	-0.13119161
98	0x3d2d2be4	0.042278185
99	0xbe92e4dc	-0.2869023
100	0x3e7860a2	0.24255612
101	0xbd8efb17	-0.06981485
102	0x3ed089b7	0.40730068
103	0xbb7f2408	-0.0038931388
104	0xbe099172	-0.13434389
105	0xbf49b78c	-0.78795695
106	0x3ee416c1	0.4454861
107	0xbe5bdc39	-0.21470727
108	0xbeda50d9	-0.42639807
109	0xbec117f3	-0.37713584
110	0xbee55019	-0.44787672
111	0x3eaf92e6	0.34291762
112	0xbd049dbb	-0.032376986
113	0xbee66d5a	-0.45005304
114	0xbd89c736	-0.067274496
115	0xbe1aa163	-0.15100627
116	0x3ee0c1fb	0.43897995
117	0xbef415ae	-0.4767279
118	0xbd9a1e06	-0.07525258
119	0xbf0b6eb9	-0.54465824
120	0x3d51bcc8	0.051205426
121	0x3f16bab3	0.5887863
122	0x3c833cf9	0.016020285
123	0xbf281837	-0.6566195
124	0x3ea3f24f	0.32020804
125	0x3e0f7bf0	0.14012122
126	0x3f7301fb	0.94924897
127	0x3cbcbf94	0.02304057
128	0xbd08cf80	-0.033401012
129	0x3bcd329a	0.0062621357
130	0xbe65b0c1	-0.22430708
131	0xbe93c8f8	-0.28864264
132	0x3e8a8ed3	0.2706209
133	0x3c6d4f53	0.014484244
134	0xbe1a37d1	-0.15060355
135	0x3d432238	0.047640055
136	0xbf1ee2db	-0.62064904
137	0x3f27ead4	0.65592694
138	0xbc0751c8	-0.008259244
139	0xbd9b39ab	-0.07579359
140	0xbea238c1	-0.31683925
141	0xbeca1fbf	-0.39477345
142	0x3dc92596	0.09821622
143	0x3f2ba44b	0.67047566
144	0xbd68f435	-0.05687352
145	0x3f3bada8	0.73311853
146	0x3e37c985	0.17947967
147	0xbe2ed515	-0.17073472
148	0x3e31abc0	0.17350674
149	0xbbdbd1de	-0.0067083677
150	0xbd2c4d61	-0.04206598
151	0xbe2a09ea	-0.16605344
152	0xbee44bc9	-0.4458907
153	0x3f1e0e45	0.61740524
154	0xbedcc45d	-0.43118563
155	0xbf2c6f32	-0.6735717
156	0x3dcb12ee	0.0991572
157	0x3dbcf515	0.09226433
158	0xbe0f1857	-0.13974129
159	0xbebc14af	-0.3673453
160	0xbcd523c7	-0.026018037
161	0x3e11197e	0.14169881
162	0x3e6d06b0	0.23147082
163	0xbeefe5fc	-0.46855152
164	0xbf311538	-0.69173
165	0x3f7a15a4	0.9768927
166	0x3f0d390a	0.5516516
167	0xbe85f53c	-0.2616366
168	0xbe7a08a5	-0.2441736
169	0xbe1553d4	-0.14582759
170	0xbdbff633	-0.09373131
171	0xbe07bf54	-0.1325658
172	0xbe9f7977	-0.31147358
173	0xbbb6f3ca	-0.005583261
174	0xbecda7e3	-0.4016715
175	0x3eb564bc	0.35428417
176	0x3f05363e	0.5203589
177	0x3d18c689	0.037298713
178	0xbe0f9bbc	-0.14024252
179	0x3f0e2ca8	0.5553689
180	0x3db01a22	0.085987344
181	0x3d9907ba	0.07472177
182	0x3e9e4552	0.30912262
183	0xbefdc538	-0.49564528
184	0xbd97877f	-0.07398891
185	0x3b82c700	0.003991008
186	0x3ec7395a	0.38910943
187	0x3ea03dc1	0.31297114
188	0x3e8498f4	0.25897944
189	0x3da6c6c7	0.081433825
190	0x3eeea439	0.46609667
191	0x3efff3eb	0.49990782
192	0x3eebbc81	0.46042255
193	0x3e071c8e	0.13194486
194	0x3e930bc3	0.2871991
195	0xbf148df6	-0.58029115
196	0xbe40caea	-0.18827406
197	0xbdea5bab	-0.114432655
198	0x3dd7f91e	0.10545562
199	0x3f1d31c6	0.61404073
200	0xbec21e04	-0.37913525
201	0xbe81f895	-0.25384966
202	0xbec722ae	-0.38893646
203	0xbf4f74fe	-0.8103789
204	0xbeecfa1e	-0.46284574
205	0xbecd5187	-0.40101263
206	0x3e96d6b2	0.29460675
207	0x3eba3c3b	0.36374077
208	0x3df95e31	0.12176169
209	0xbd6072ab	-0.054796856
210	0xbe1e4fe3	-0.15460162
211	0x3ededcf8	0.4352796
212	0x3ee97532	0.45597225
213	0xbe3ae6e1	-0.18252136
214	0xbd9e32d2	-0.07724537
215	0x3df50de0	0.11965537
216	0x3e817a76	0.25288743
217	0xbec4a3ac	-0.38406122
218	0x3e0e2d89	0.13884558
219	0x3f1b105a	0.60571826
220	0xbe3c49dd	-0.18387552
221	0x3d5e465e	0.054266326
222	0x3eab23af	0.33425662
223	0xbe933405	-0.28750625
224	0x3e4813ac	0.19538754
225	0x3dc29724	0.09501484
226	0xbec5bca8	-0.38620496
227	0xbf3d7331	-0.74003893
228	0xbe125b9b	-0.14292757
229	0x3dc8fb93	0.09813609
230	0x3e82db91	0.2555814
231	0xbea3ca03	-0.3199006
232	0x3e0687d5	0.13137753
233	0x3e2fafbe	0.17156884
234	0x3ee2a6c9	0.44267872
235	0xbf43f4fb	-0.76545686
236	0xbeeb4bd0	-0.45956278
237	0x3e90dc81	0.2829323
238	0xbde1a28e	-0.11017333
239	0xbee1583c	-0.4401263
240	0x3e855c55	0.26047006
241	0x3f4fa678	0.81113386
242	0x3eb6ead8	0.35726047
243	0xbc953d3e	-0.01821768
244	0xbd9fd3ab	-0.07804044
245	0x3ec1a6a0	0.37822437
246	0x3db97e17	0.09057253
247	0xbe5b5444	-0.21418864
248	0xbbf5b558	-0.0074984245
249	0x3d41caed	0.047312666
250	0xbf08c45f	-0.5342464
251	0x3ea2fc55	0.3183314
252	0xbe9d9386	-0.30776614
253	0x3e9990f6	0.2999341
254	0x3de88d5f	0.113550894
255	0x3eaa2976	0.33234757

network_body._body_endoder.seq_layers.0.bias f4 [128]
0	0xbc79fb48	-0.015257664
1	0xbc9af30d	-0.018914724
2	0xbc2fb5b0	-0.01072447
3	0xba36f23d	-0.00069788453
4	0x3c8eba17	0.017422719
5	0xbc54a936	-0.012979796
6	0xbc25f24f	-0.010128572
7	0xbc3bef40	-0.011470616
8	0x3bcb7f0f	0.006210215
9	0x3bb535da	0.0055301012
10	0x3ce16399	0.027513312
11	0xbd5f091f	-0.054452058
12	0x3cf1d8aa	0.029522259
13	0xbb2fc680	-0.0026821196
14	0xbd0d3fce	-0.034484677
15	0xbc89b31f	-0.016809044
16	0xbbc7c637	-0.006096627
17	0x3b2674d2	0.002539922
18	0x3cd840f2	0.026398156
19	0xbb7febcf	-0.0039050465
20	0xbcf0c576	-0.029391032
21	0xbd140c92	-0.0361448
22	0xba7cdbd9	-0.0009645797
23	0x3b8c9018	0.0042896383
24	0x3b002288	0.0019551832
25	0xbcb0e002	-0.02159119
26	0xbc8b502e	-0.017006006
27	0xbc8ae680	-0.016955614
28	0x3b8ce595	0.0042998292
29	0xbb7b98df	-0.0038390679
30	0xbb32ed18	-0.0027301963
31	0xbcb1846d	-0.02166959
32	0xba9578e2	-0.0011403824
33	0xbc26a097	-0.010170124
34	0xbc974826	-0.01846702
35	0x3ba3a0ae	0.0049935197
36	0xbc4146f3	-0.011796701
37	0x3afdbcb6	0.0019358608
38	0x3c12ac40	0.0089522
39	0x3ce40a55	0.027836958
40	0x3d39193a	0.045190074
41	0xbc571514	-0.013127584
42	0x3a601678	0.000854827
43	0xb9c71283	-0.0003797003
44	0x3ca3de2c	0.0200034
45	0xbd471235	-0.048601348
46	0xbcd849ef	-0.026402442
47	0x3c939927	0.018017365
48	0xbc89d529	-0.016825275
49	0xbacb9d9f	-0.0015534646
50	0x3d463d98	0.048398584
51	0x3b98e1e3	0.0046655997
52	0x3cb72547	0.022356642
53	0x3af31195	0.0018544669
54	0xbaca6071	-0.0015440119
55	0xbbdc7d99	-0.0067288396
56	0xbccdf653	-0.02514187
57	0x3badff56	0.0053099794
58	0xbc652785	-0.013986473
59	0xbb2b5d53	-0.0026148155
60	0xbc10d732	-0.008840369
61	0xbd21a0e1	-0.039460067
62	0xbcbb9249	-0.022896903
63	0x3ccda094	0.025100984
64	0xbcdb3c2d	-0.026762092
65	0x3cf1572c	0.029460512
66	0xbc3a74bd	-0.011380372
67	0x3a2e56c1	0.00066505006
68	0xbc5566f8	-0.013025038
69	0x3ccbf0cb	0.024895092
70	0x3b2a464a	0.0025981837
71	0x3b1d4d9b	0.0024002555
72	0xbce52c0f	-0.02797511
73	0x3b867e68	0.0041044243
74	0xbbddf5e1	-0.006773696
75	0xbc3ad507	-0.011403329
76	0xbce29fe3	-0.02766413
77	0x3caa5737	0.02079354
78	0x3c6c7ae6	0.014433598
79	0x3cf5d22e	0.030007448
80	0xbcaaecd1	-0.020864876
81	0x3cb72e20	0.022360861
82	0x3b0aeaf3	0.002119717
83	0xbb3785a5	-0.0028003242
84	0xbc2b850f	-0.010468735
85	0x3c8450f9	0.016151892
86	0x3b7ad4f6	0.0038273907
87	0xbc70bd80	-0.014693618
88	0x3cccef6e	0.025016513
89	0xbb32dc96	-0.0027292124
90	0xbcc9c3f6	-0.024629574
91	0xbd554690	-0.052069247
92	0xbc20ce7e	-0.009814857
93	0xbc80ce65	-0.015723417
94	0xbc1c365f	-0.009534447
95	0xbc420ea0	-0.011844307
96	0xbcb4c9a4	-0.022068806
97	0x3c5a3153	0.013317424
98	0xbc8b9654	-0.017039455
99	0x3c7958e9	0.015218952
100	0x3b19c58d	0.0023463697
101	0x3c96e2d3	0.018418705
102	0x3c36f4b8	0.011166744
103	0xbaf8a937	-0.0018971328
104	0x3c96416f	0.018341748
105	0xbbceb303	-0.006307961
106	0xbaddb677	-0.0016915341
107	0x3c56283f	0.013071119
108	0xbc679027	-0.01413349
109	0xbce9e98c	-0.028553747
110	0xbc5769a3	-0.013147744
111	0xbbb6c52d	-0.0055777044
112	0xbc561b28	-0.013067998
113	0xbca3db66	-0.020002078
114	0x3b95f610	0.004576452
115	0xbd1b9ad8	-0.037989467
116	0xbd0b6c76	-0.034038983
117	0x3b6aa2b6	0.003580255
118	0xba488504	-0.00076492154
119	0x3a80c942	0.0009825605
120	0x3cbdc955	0.023167292
121	0x3c337e6c	0.010955434
122	0x3cba9c12	0.022779498
123	0xbc0bf391	-0.0085419575
124	0xbbbc9ff4	-0.0057563726
125	0xbbd749d8	-0.006570082
126	0x3c53a96a	0.012918809
127	0x3bdfd7be	0.0068311384

network_body._body_endoder.seq_layers.2.weight f4 [128, 128]
0	0x3acaf98f	0.0015485751
1	0xbda1208e	-0.078675374
2	0xbd9ba2f4	-0.0759944
3	0xbe31fd01	-0.1738167
4	0x3d904437	0.07044261
5	0xbd969ac8	-0.07353741
6	0xbd16a1b2	-0.0367753
7	0xbd296430	-0.041355312
8	0xbcc3e3b7	-0.023912294
9	0x3d1ab2b4	0.03776808
10	0x3d416983	0.047219764
11	0x3d63e2f9	0.05563638
12	0x3dd5faaf	0.10448205
13	0xbbcbfb5c	-0.0062250327
14	0x3d505411	0.050861422
15	0x3dd44a99	0.10365791
16	0xbddb710a	-0.1071492
17	0x3d640c66	0.055675887
18	0x3cab47f7	0.020908339
19	0x3cf9927b	0.030465355
20	0xbd8031a2	-0.06259467
21	0xbe41d751	-0.18929793
22	0xbd49150a	-0.04909233
23	0x3d4ff337	0.050769057
24	0x3d5eb3e9	0.054370794
25	0x3da1d7f4	0.07902518
26	0x3c407c41	0.011748374
27	0xbdaba748	-0.08381516
28	0x3d802d41	0.062586315
29	0xbe06534a	-0.1311771
30	0x3d91df5b	0.0712268
31	0xbcb44cfa	-0.022009362
32	0x3e33fe31	0.17577435
33	0xbd0855a9	-0.033284817
34	0xbd33bd82	-0.0438819
35	0xbad4fdd9	-0.0016249969
36	0x3d2f4433	0.04278965
37	0x3c230487	0.00994981
38	0x3dab233e	0.08356331
39	0x3c7dd905	0.015493636
40	0xbd3bfc27	-0.045894768
41	0xbc8401b9	-0.016114103
42	0x3d961ec6	0.07330088
43	0x3e3deb76	0.18546852
44	0x3d74cc82	0.059765346
45	0x3d1f6743	0.038916837
46	0xbd06abf0	-0.032878816
47	0x3cfd4cf7	0.030920489
48	0x3d397d34	0.04528542
49	0xbdc493b2	-0.09598483
50	0xbd4e6ee5	-0.050398726
51	0xba2970e6	-0.00064636616
52	0xbd6104e5	-0.05493631
53	0xbd3e2fec	-0.04643242
54	0x3d8b36a6	0.06797533
55	0x3e277e58	0.1635679
56	0x3e0ac84c	0.1355297
57	0xbc976138	-0.018478975
58	0xbe24b8e7	-0.1608616
59	0xbd4d6991	-0.050149504
60	0x3e11490c	0.14188021
61	0x3e28c998	0.16483152
62	0xbde80c7c	-0.11330506
63	0x3ce88cdb	0.028387478
64	0xbd944a4a	-0.07240732
65	0x3dbbc760	0.09168887
66	0x3d1680b4	0.036743835
67	0xbe11f6cd	-0.14254303
68	0xbcbf4857	-0.023349924
69	0x3c87e190	0.016587049
70	0xbd472fa0	-0.048629403
71	0xbc743b4a	-0.014906714
72	0xbe5bef1a	-0.21477929
73	0x3dd31ab1	0.10307825
74	0xbd39df46	-0.045378946
75	0x3cb9085d	0.022586996
76	0xbd37eac0	-0.04490161
77	0x3e49e867	0.1971756
78	0x3de162cf	0.11005174
79	0xbc68d7a1	-0.014211566
80	0xbcc0f510	-0.023554355
81	0xbc5af672	-0.013364421
82	0x3db2fe60	0.087399244
83	0xbda028a3	-0.07820251
84	0xbc8139a9	-0.015774565
85	0x3c6cefe5	0.014461492
86	0xbd8658a9	-0.06559879
87	0xbdb7e44d	-0.08979092
88	0xbd4a725d	-0.04942547
89	0x3db1c03b	0.08679243
90	0x37eeec38	2.8481809e-05
91	0xbdd75832	-0.10514869
92	0xbd8260bd	-0.063661076
93	0xbe0671ee	-0.13129398
94	0x3c4cdd6d	0.012503964
95	0xbdbc369f	-0.09190106
96	0x3dcd9df3	0.10039892
97	0x3e0ac22b	0.13550632
98	0x3d9da154	0.076967865
99	0x3c0484bb	0.008088286
100	0xbd4fe9f2	-0.050760217
101	0x3afc44bd	0.001924656
102	0x3d428980	0.04749441
103	0xbdc941eb	-0.09827026
104	0xbd2c2790	-0.042029917
105	0x3d72c244	0.059267297
106	0x3ce10871	0.027469845
107	0xbe054f8c	-0.13018626
108	0xbd986809	-0.07441718
109	0xbd8a06f0	-0.067396045
110	0xbe236f5c	-0.15960449
111	0xbe37b607	-0.17940532
112	0x3d04bb0e	0.03240495
113	0xbdb0dbe4	-0.08635691
114	0x3e042d3e	0.12907884
115	0xbe19314b	-0.1496021
116	0xbde5a57b	-0.112132035
117	0x3d6641cb	0.05621509
118	0x3dc029b2	0.09382953
119	0x3d6091c4	0.054826513
120	0xbd1cf547	-0.038319852
121	0xbbab3523	-0.0052248402
122	0xbdeef1a8	-0.11667186
123	0xbdceacd0	-0.10091555
124	0x3d130a14	0.035898283
125	0x3d637597	0.055532064
126	0xbd035b38	-0.032069415
127	0x3e181ac0	0.14853954
128	0xbd836f4e	-0.06417714
129	0x3d7cb5ff	0.061697003
130	0xbbc7f807	-0.006102565
131	0xbbf5668d	-0.0074890316
132	0x3cbd8f8e	0.023139741
133	0xbcbb4c8a	-0.022863645
134	0x3d0fcd9f	0.035108205
135	0xbc0a712d	-0.008449835
136	0xbd55be8c	-0.052183673
137	0x3ddc7d06	0.10766034
138	0xbdb7d545	-0.08976225
139	0x3db840ca	0.089967325
140	0xbd8a50dd	-0.06753705
141	0xbdae5232	-0.08511771
142	0x3d87048d	0.06592665
143	0x3e0e7eb9	0.13915528
144	0xbc7e009e	-0.015503077
145	0x3d008bf0	0.031383455
146	0xbde8336a	-0.113379315
147	0x3d221f98	0.03958091
148	0xbdc49509	-0.09598739
149	0x3beb1580	0.007174194
150	0xbd7b115e	-0.06129586
151	0xbdbaee88	-0.091275275
152	0x3e20e333	0.1571167
153	0x3d3c8f4c	0.046035096
154	0xbd6b51ac	-0.057450935
155	0x3d9170b3	0.07101574
156	0xbd48f465	-0.049061198
157	0x3e0a80fd	0.13525768
158	0xbdca6dc9	-0.09884221
159	0x3d5acbdf	0.053417083
160	0x3df07cae	0.11742531
161	0x3bd9eea3	0.006650762
162	0xbd7c67cc	-0.061622426
163	0xbd5fbb58	-0.054622024
164	0x3e2a27f0	0.16616797
165	0x3ca0c906	0.019627105
166	0xbe5b8c66	-0.21440277
167	0xbce583a0	-0.028016865
168	0x3d8ed2d6	0.069738075
169	0xbe05a7a2	-0.13052228
170	0x3dafb7e0	0.08579993
171	0xbd0d8bd3	-0.034557175
172	0xbb5bb7a0	-0.0033526197
173	0x3db56eb2	0.08859004
174	0x3de23e3c	0.110470265
175	0xbceb0a7c	-0.028691523
176	0xbdc49cbd	-0.09600208
177	0x3c0cddc4	0.008597795
178	0xbcd8d631	-0.026469322
179	0xbda3e136	-0.0800194
180	0xbd95b4fe	-0.07309912
181	0x3d6bbcda	0.05755315
182	0x3db48da1	0.08816076
183	0x3ca0b65a	0.019618202
184	0xbd0b4a81	-0.0340066
185	0x3cb1ceb8	0.021705016
186	0x3d0bff67	0.034179118
187	0x3d9c3857	0.076279335
188	0xbc5aa4c0	-0.0133449435
189	0x3d9e8c50	0.07741606
190	0xbcc140a3	-0.023590392
191	0x3e149d98	0.14513242
192	0xbd951700	-0.072797775
193	0xbd120243	-0.03564669
194	0xbd475a31	-0.048669998
195	0xbd422619	-0.047399614
196	0x3c14309a	0.009044791
197	0xbda65547	-0.08121734
198	0xbe4013bd	-0.1875753
199	0xbe06e8c1	-0.13174726
200	0x3de59c49	0.1121145
201	0x3dcf146a	0.101113155
202	0xbd0649e8	-0.032785326
203	0x3d89f239	0.067356534
204	0x3e696df1	0.22795846
205	0xbe0ce21e	-0.13758132
206	0x3d1f3e32	0.038877673
207	0xbdeca5c1	-0.115550525
208	0xbd566591	-0.052342955
209	0xbd72f22e	-0.05931299
210	0xbdd554de	-0.10416578
211	0xbd0b0120	-0.03393662
212	0x3e13ca2d	0.14432593
213	0x3e105d55	0.14098103
214	0xbd395951	-0.045251194
215	0xbdbf1856	-0.093308136
216	0xbc570bb9	-0.0131253535
217	0x3e6f7c19	0.23387183
218	0xbd367af2	-0.044550844
219	0xbd4d6708	-0.050147086
220	0xbba787d4	-0.0051126275
221	0x3d2d66ff	0.042334553
222	0x3d2007fe	0.039070122
223	0x3d73d68b	0.059530776
224	0x3c5b49c7	0.013384289
225	0x3df103f2	0.11768331
226	0x3e473655	0.1945432
227	0xbbc6e96c	-0.0060703065
228	0xbe50a1d9	-0.2037424
229	0x3d70482b	0.058662575
230	0x3db5c3d4	0.08875242
231	0xbd8f69ad	-0.07002578
232	0x3d98854a	0.07447298
233	0xbe15269a	-0.14565507
234	0x3d930607	0.07178884
235	0xbe6593f2	-0.22419718
236	0xbc9c54eb	-0.01908346
237	0x3e09d9a7	0.13461934
238	0x3daae17d	0.0834379
239	0xbb99e21c	-0.004696144
240	0x3e0a5cfd	0.13512035
241	0xbc902b56	-0.01759879
242	0xbe262d96	-0.16228327
243	0xbdea3422	-0.11435725
244	0x3e4e07d5	0.20120175
245	0x3e4a2fc9	0.19744791
246	0x3d82f2e9	0.06393988
247	0xbd3b4b43	-0.045726072
248	0xbe6d47c6	-0.2317191
249	0xbd3b556b	-0.045735758
250	0xbd995db8	-0.074885786
251	0x3cf0c19b	0.029389193
252	0xbd107f0c	-0.03527741
253	0xbd7d804f	-0.061889943
254	0xbd6f14c1	-0.0583694
255	0xbe4412f7	-0.1914786

network_body._body_endoder.seq_layers.2.bias f4 [128]
0	0x3c83ee03	0.016104704
1	0xbcbaea96	-0.022816937
2	0xbcbb2dc3	-0.02284897
3	0xbc24fde9	-0.0100703025
4	0x3b9bdb5d	0.0047563748
5	0x3ade988b	0.0016982717
6	0x3c45bf9a	0.012069607
7	0x3b8dee25	0.0043313676
8	0xbc308cfd	-0.010775802
9	0xbccf3a66	-0.025296401
10	0xbc33a2b3	-0.0109640835
11	0x3bdc0d52	0.006715455
12	0xbb078abd	-0.002068206
13	0xbc530840	-0.012880385
14	0xbb9ca185	-0.004779997
15	0x3d10bd10	0.035336554
16	0xbc2c80f1	-0.010528789
17	0xbba74082	-0.0051041255
18	0xbc38d22b	-0.011280577
19	0x3c30779f	0.010770707
20	0xbc2acf5f	-0.010425418
21	0xbc24a068	-0.010048009
22	0xbc2c6f31	-0.010524557
23	0x3ac52393	0.0015040509
24	0xbd01bc58	-0.03167376
25	0x3c46283d	0.0120945545
26	0x3bacc870	0.0052729174
27	0xbc420c62	-0.011843773
28	0xbbde3637	-0.0067813653
29	0x3c30c1d9	0.010788404
30	0xbc84ba0a	-0.016201992
31	0xba817279	-0.0009876034
32	0xbc3ded9a	-0.011592293
33	0x3c5d85ea	0.013520697
34	0xbbd64fee	-0.00654029
35	0x3b16b5ae	0.0022996473
36	0xbcd194dc	-0.025583677
37	0x3c0819c1	0.008306921
38	0x3c6098ab	0.013708274
39	0x3bc251cc	0.005930161
40	0xbc0fe7c8	-0.008783288
41	0xbc9f0984	-0.019413717
42	0xbbe9ed98	-0.007138919
43	0xbb32dd75	-0.0027292643
44	0x3c5f986b	0.013647179
45	0xbc8986c2	-0.01678789
46	0x3bbe6c9e	0.005811288
47	0x3d17c03b	0.03704856
48	0x3c8e672b	0.017383179
49	0xbc4bc859	-0.012437903
50	0x3c085e7d	0.008323309
51	0x3bc9891c	0.006150378
52	0xbcbeb415	-0.02327923
53	0xbc632dca	-0.013865897
54	0xbc27219d	-0.010200885
55	0xbbdc460d	-0.006722218
56	0x3bf0bc02	0.007346631
57	0xbc9f1531	-0.019419285
58	0x3d1de817	0.038551416
59	0x3caf3130	0.02138576
60	0xbce68a9c	-0.028142266
61	0xbc600cae	-0.013674898
62	0x3c961fee	0.018325772
63	0xbc8b80dd	-0.01702922
64	0x3b6d56d2	0.003621508
65	0xbb525ad0	-0.0032097585
66	0x3b3ea01f	0.0029087139
67	0x3cd840e3	0.026398128
68	0xbc4f2da6	-0.012645161
69	0xbb9431af	-0.0045225243
70	0xbbcbc763	-0.006218837
71	0x3aedcb4b	0.0018142251
72	0xbc9c565b	-0.019084146
73	0xbcee7bf8	-0.029111847
74	0xbc8774e1	-0.016535224
75	0x3b52976a	0.0032133707
76	0x3c727c38	0.014800124
77	0xbb9ad275	-0.0047247955
78	0x3bbc6062	0.0057487944
79	0xbb9d5a3a	-0.0048020156
80	0x3a9f5c85	0.001215831
81	0xbc9c6a70	-0.019093722
82	0x3c6bcfa5	0.014392768
83	0xbbc6d55f	-0.0060679163
84	0x3b6718c2	0.003526256
85	0xbc8ea4ab	-0.017412504
86	0xbcd4d6ed	-0.02598139
87	0xbc061ca8	-0.008185543
88	0x3d14520f	0.03621107
89	0xbc65ec40	-0.014033377
90	0x3b67f457	0.003539344
91	0xbc6f6812	-0.014612215
92	0xbc75eb5a	-0.0150097255
93	0x3b86a369	0.0041088355
94	0xbb860864	-0.0040903557
95	0xbc673d50	-0.014113739
96	0xbb8c319c	-0.004278375
97	0xbcb0404d	-0.021515036
98	0xbccb9555	-0.02485148
99	0xbc4c18e0	-0.012457103
100	0x3c83fcb0	0.016111702
101	0x3a1af14b	0.0005910589
102	0xbc82d050	-0.015968472
103	0xbc3cfad0	-0.011534408
104	0xbba2bdb3	-0.0049664616
105	0x3c8a6ef2	0.016898606
106	0xbc8c7e52	-0.017150078
107	0x3bd90145	0.006622466
108	0x3ad784aa	0.0016442735
109	0xbc6bb068	-0.01438532
110	0x3ba2c59f	0.004967406
111	0x3cbc319d	0.022972876
112	0x3d216d1e	0.039410703
113	0xbc2d344f	-0.010571553
114	0xbca44c7c	-0.020056002
115	0xbcd42fb1	-0.025901647
116	0xbc67b189	-0.014141449
117	0x3c2f1979	0.0106872255
118	0x3a8b7416	0.0010639455
119	0x3b8c5aab	0.0042832694
120	0xbbb871c7	-0.0056287977
121	0xbbe093e6	-0.0068535684
122	0xbc13c43c	-0.009018954
123	0xbc6c9626	-0.014440095
124	0x3caab979	0.020840393
125	0xbbee574a	-0.0072735893
126	0x3c0ada45	0.008474891
127	0x3aca2146	0.0015421293

action_model._continuous_distribution.mu.weight f4 [1, 128]
0	0x3b35ab9a	0.002772069
1	0x3ce1d57e	0.027567621
2	0x3a605897	0.0008558123
3	0xbbaebdf8	-0.0053327046
4	0xbc63dd93	-0.013907808
5	0xbbd5b4a2	-0.0065217772
6	0xbc6f3a4d	-0.014601302
7	0xbc536878	-0.012903325
8	0x3c835570	0.01603195
9	0xb896f48c	-7.198108e-05
10	0x3cc2b689	0.02376868
11	0xbd0f6581	-0.03500891
12	0xbb9ddba2	-0.004817442
13	0x3be28392	0.006912657
14	0x3cdd4c0e	0.027013805
15	0xbd14b409	-0.036304507
16	0xba09f4ee	-0.00052626326
17	0x3c97b0a7	0.018516852
18	0x3b1fd546	0.0024388595
19	0xbbc6cd74	-0.0060669724
20	0x3c83017a	0.015991915
21	0x3cb37393	0.021905696
22	0x3cc8766c	0.02447053
23	0xbc6f2931	-0.014597223
24	0x3c77968d	0.015111578
25	0xbcbd4e57	-0.023108644
26	0xbc3d6b6a	-0.011561254
27	0xbb410402	-0.0029451852
28	0x3c9c340b	0.019067785
29	0xbce67846	-0.028133523
30	0x3b87df40	0.0041464865
31	0x3cd72867	0.026264383
32	0x3c81ee9d	0.01586085
33	0xbd04858e	-0.03235393
34	0x3d0cc55a	0.034367897
35	0x39a5681a	0.00031548814
36	0x3b59cf8a	0.0033235275
37	0xbc0879fd	-0.0083298655
38	0xbca0599e	-0.019573983
39	0xbc99c91b	-0.018772652
40	0xbb9b4947	-0.00473896
41	0x3c23be0d	0.009994042
42	0x3ca24eba	0.01981293
43	0x3cb8b8f3	0.022549128
44	0xbcb4c39e	-0.022065934
45	0x3cb22df3	0.021750426
46	0xbc39351f	-0.011304169
47	0xbd574f61	-0.052565936
48	0xbceec8f9	-0.029148566
49	0xbb2bddb0	-0.0026224665
50	0xbc2f8ffa	-0.010715479
51	0x3c8babfa	0.017049778
52	0x3b2bc495	0.0026209701
53	0xb8e69a10	-0.00010995951
54	0x3cb9e24d	0.022690916
55	0x3a9f0806	0.0012133128
56	0xbc52c33c	-0.01286393
57	0x3b9b9e7c	0.0047491174
58	0xbd53403d	-0.051574934
59	0x3c3e821d	0.011627701
60	0x3ccccd58	0.02500026
61	0xbb726922	-0.0036988934
62	0xbb5609e5	-0.0032659706
63	0xbae8a739	-0.0017750032
64	0xbbb32abf	-0.005467742
65	0x3a98d2ce	0.0011659504
66	0xbd007357	-0.031359997
67	0x3c73a67e	0.014871238
68	0x3c70e217	0.0147023415
69	0x3bcfe956	0.0063449545
70	0x3ca208a4	0.01977951
71	0x3d0a4232	0.033754535
72	0x3c1e5d2d	0.0096657695
73	0x3acdb027	0.0015692756
74	0x3c1b27e3	0.009469959
75	0xbc315305	-0.010823016
76	0x3c4438bc	0.011976417
77	0x3cbaeef9	0.02281903
78	0xbcb5de88	-0.022200838
79	0x3cb6fa0f	0.022336034
80	0x3d75ebfc	0.060039505
81	0x38b1b3ea	8.473529e-05
82	0xbc8f34a2	-0.017481152
83	0x3cb2d37c	0.02182936
84	0xbc50611c	-0.012718465
85	0x3c17d436	0.009266904
86	0x3a2e9124	0.0006659201
87	0x3c4230e8	0.0118524805
88	0xbd47dd43	-0.048794996
89	0x3b2a662f	0.0026000848
90	0xbb94914a	-0.0045339214
91	0x3bf3d9ea	0.007441749
92	0x3cbba628	0.022906378
93	0x3ccc4e1d	0.024939591
94	0xbbb26a3d	-0.0054447935
95	0x3d106887	0.035255935
96	0xba5e7e10	-0.00084874127
97	0x3c3303a6	0.010926163
98	0x3c612f00	0.013744116
99	0x3d160fe9	0.036636267
100	0xbcad2435	-0.021135429
101	0xbc8f9368	-0.017526343
102	0xbb3ff924	-0.0029292786
103	0x3c6148cb	0.013750265
104	0x3caa422c	0.020783506
105	0xbce68ff3	-0.028144812
106	0x3ba450eb	0.005014529
107	0xbc6779b3	-0.014128136
108	0xbc46ef23	-0.012141976
109	0xba61577d	-0.00085961056
110	0xbd1052b3	-0.035235118
111	0xbd08ce51	-0.033399884
112	0xbcedb1f6	-0.029015522
113	0x3cccef67	0.0250165
114	0x3ce31468	0.027719691
115	0xbb219a99	-0.0024658798
116	0x3d037861	0.032097224
117	0xbbd3ae61	-0.0064599966
118	0x3b8913a8	0.0041832514
119	0xbcaa9a67	-0.020825578
120	0x3cd875db	0.026423385
121	0x3cbcdd42	0.023054723
122	0x3cd3a285	0.025834331
123	0x3d0a3979	0.033746216
124	0xbc93ac79	-0.018026577
125	0x3ba6869a	0.0050819637
126	0xbc9ac66f	-0.018893449
127	0xbc8213f1	-0.01587865

exp_avg f4 [128, 7]
0	0x3889407a	6.544679e-05
1	0xb8949e66	-7.086694e-05
2	0x38c47544	9.367851e-05
3	0x38ae1dfe	8.302553e-05
4	0xb9045310	-0.00012619444
5	0x3a1193bf	0.0005553327
6	0x00000000	0.0
7	0xb871a5d6	-5.7613324e-05
8	0x37db69ef	2.6156164e-05
9	0x3a803336	0.0009780887
10	0xba19d220	-0.0005867798
11	0xbb08e612	-0.0020889086
12	0x3b46e750	0.0030350275
13	0x00000000	0.0
14	0x3804a35a	3.1623385e-05
15	0xb818fdca	-3.6475984e-05
16	0x38a7cb85	8.001089e-05
17	0xb847b8fb	-4.7617574e-05
18	0xb986a65c	-0.0002568242
19	0x399dcfe6	0.0003010027
20	0x00000000	0.0
21	0xb89a2ca5	-7.351608e-05
22	0x38e61064	0.000109703076
23	0xb89f8372	-7.6061944e-05
24	0x38407e9b	4.5894278e-05
25	0xb9d766c0	-0.0004108455
26	0x3a23c9d7	0.0006248033
27	0x00000000	0.0
28	0xb9fe0ef2	-0.0004845779
29	0x3a5e911a	0.000849025
30	0xb95a0557	-0.0002079209
31	0xb9b032a6	-0.00033607072
32	0xbb727e66	-0.003700161
33	0x3b07640b	0.0020658995
34	0x00000000	0.0
35	0xb90e2f55	-0.00013559808
36	0x3985579a	0.00025433005
37	0xb9a5a4cb	-0.00031594033
38	0x38faa09d	0.000119508455
39	0xb9516c37	-0.00019972106
40	0xba82d9d1	-0.0009983127
41	0x00000000	0.0
42	0xb9514289	-0.0001995658
43	0x3a02d055	0.00049901503
44	0xb9cdeed0	-0.00039278576
45	0xb6d85009	-6.446619e-06
46	0xbb1a1618	-0.0023511704
47	0x3ae6ca8a	0.0017607969
48	0x00000000	0.0
49	0xb80e5d5f	-3.3942397e-05
50	0xb8306da7	-4.206379e-05
51	0xb8c83ce2	-9.5480835e-05
52	0x38b91012	8.824481e-05
53	0xb9bd5bfb	-0.0003611742
54	0x3a0d83e4	0.00053983764
55	0x00000000	0.0
56	0xba046257	-0.0005050054
57	0x3a6d35b6	0.0009048836
58	0xba49c51f	-0.0007696915
59	0x395fdace	0.00021348448
60	0xbb07547c	-0.0020649722
61	0x3a1dc357	0.00060181826
62	0x00000000	0.0
63	0x39143f98	0.0001413807
64	0xb92f3be8	-0.00016711617
65	0x39b373b2	0.0003422774
66	0xb9c79449	-0.0003806672
67	0xbafb4960	-0.0019171648
68	0x3b0bb0d9	0.0021315126
69	0x00000000	0.0
70	0x37fa742b	2.9856417e-05
71	0xb7ca44df	-2.4112347e-05
72	0x391f110c	0.00015169772
73	0xb95a2285	-0.0002080296
74	0xb945952e	-0.00018842958
75	0x3a196b29	0.0005852455
76	0x00000000	0.0
77	0xb8c03d05	-9.166639e-05
78	0x393ed488	0.00018198986
79	0xb61d01dd	-2.3395908e-06
80	0xb915cc9b	-0.00014285969
81	0xba44ac2d	-0.0007502463
82	0x3a5c6227	0.000840696
83	0x00000000	0.0
84	0xb918e55c	-0.00014581293
85	0x3978bb36	0.00023720865
86	0x397743df	0.0002358104
87	0xba045f8c	-0.0005049638
88	0xb98f648d	-0.00027350002
89	0x3a95bbd7	0.0011423778
90	0x00000000	0.0
91	0xb8ce6805	-9.8422206e-05
92	0x36e499ff	6.812857e-06
93	0x3a321884	0.0006793814
94	0xba0f97d4	-0.0005477641
95	0xbb051b5d	-0.00203105
96	0x3a525a59	0.0008024327
97	0x00000000	0.0
98	0x38774070	5.89494e-05
99	0xb8898962	-6.5582586e-05
100	0x3a662699	0.0008779555
101	0xba060f4e	-0.0005113975
102	0xbaf2e29d	-0.0018530671
103	0x3b763af0	0.003757175
104	0x00000000	0.0
105	0x3884c36f	6.330653e-05
106	0xba093f48	-0.0005235565
107	0x39eaf98c	0.00044817885
108	0xb9ca7561	-0.00038615896
109	0x3a6fe104	0.00091506564
110	0xb9ca475c	-0.0003858161
111	0x00000000	0.0
112	0xb99ab245	-0.0002950599
113	0x39762fb7	0.00023478163
114	0x3ab49a83	0.0013778958
115	0xba86d454	-0.0010286667
116	0xbba613a5	-0.00506826
117	0x3b2c67fc	0.0026307097
118	0x00000000	0.0
119	0xb73d7c20	-1.1294178e-05
120	0xb9fcbb73	-0.00048204846
121	0x397545c0	0.00023391005
122	0x398a4951	0.00026376036
123	0x3b13d829	0.0022559261
124	0xbb167925	-0.0022960391
125	0x00000000	0.0
126	0xb813eae0	-3.5266276e-05
127	0x39cf2d0e	0.00039515685
128	0xb9d27dd3	-0.00040148068
129	0x3730e660	1.0544056e-05
130	0x3a2fe4b0	0.00067097973
131	0xba0df567	-0.0005415291
132	0x00000000	0.0
133	0xb817783f	-3.6113193e-05
134	0x385d74c3	5.279925e-05
135	0xb9d91ac9	-0.00041409422
136	0x395ee3a0	0.00021256367
137	0x3a245e33	0.00062701403
138	0xbac0eacb	-0.0014718411
139	0x00000000	0.0
140	0x3987a93f	0.00025875305
141	0xba05ae12	-0.0005099486
142	0xb9350cd9	-0.00017266291
143	0x3929e2f3	0.00016201641
144	0x3ab5bf75	0.0013866263
145	0xba9528e3	-0.0011379983
146	0x00000000	0.0
147	0xb75a8d20	-1.3026671e-05
148	0xb91807f1	-0.00014498808
149	0x3a136863	0.000562316
150	0xb9e6949b	-0.00043979738
151	0xbaf7a32d	-0.0018893235
152	0x3a36656a	0.0006957861
153	0x00000000	0.0
154	0x3870f8de	5.7452235e-05
155	0xb6b63551	-5.4302295e-06
156	0xb8d2172a	-0.00010017895
157	0xb9ab700f	-0.00032699152
158	0xbab6a277	-0.0013933916
159	0xb949928e	-0.0001922345
160	0x00000000	0.0
161	0x38e19081	0.00010755752
162	0xb7ed339c	-2.8276634e-05
163	0xb9487e5c	-0.00019120559
164	0xb8fa8cb5	-0.00011947138
165	0xb99e8a9c	-0.0003023938
166	0xb9f47fa4	-0.00046634406
167	0x00000000	0.0
168	0x38eb00f6	0.00011205852
169	0xb903a3a1	-0.0001255409
170	0xb918a0c4	-0.0001455574
171	0x39c60469	0.0003776879
172	0x3a9dd1ab	0.0012040635
173	0x3aa51a41	0.0012596325
174	0x00000000	0.0
175	0x3807aba1	3.234635e-05
176	0xb79ecf3e	-1.8931572e-05
177	0x393ee417	0.00018204782
178	0xb8cbec2c	-9.723785e-05
179	0xb9d35f1f	-0.00040315927
180	0x3a4f8d6d	0.00079174974
181	0x00000000	0.0
182	0x36b54bb1	5.403032e-06
183	0xb62a22d5	-2.535225e-06
184	0x37aa8135	2.0325746e-05
185	0x37dbdfe7	2.6211097e-05
186	0x397c7847	0.000240774
187	0xb9aedce0	-0.0003335243
188	0x00000000	0.0
189	0x390bc1ff	0.00013328342
190	0xb982b280	-0.00024928525
191	0x391f37f9	0.00015184273
192	0xb8e18d1d	-0.000107551205
193	0x3a778a19	0.00094428804
194	0xb9d8d933	-0.00041360556
195	0x00000000	0.0
196	0x399b8a9a	0.0002966717
197	0xba0dc589	-0.0005408158
198	0x38a24494	7.7375356e-05
199	0xb96656c7	-0.00021966836
200	0x39b4c498	0.0003447875
201	0xb8122aa0	-3.484881e-05
202	0x00000000	0.0
203	0x39e9bd35	0.00044582193
204	0xb9dfe190	-0.00042701932
205	0x39e949fc	0.00044496346
206	0xba078f80	-0.00051712245
207	0xbaa69303	-0.0012708608
208	0x3b2487bb	0.0025105316
209	0x00000000	0.0
210	0xb8dff876	-0.00010679748
211	0xb84e3cec	-4.9170965e-05
212	0x387714f4	5.8908903e-05
213	0xb99bbf87	-0.00029706603
214	0xba14dce4	-0.0005678667
215	0x39ed4af7	0.00045260016
216	0x00000000	0.0
217	0x37d1683f	2.4963285e-05
218	0xb947788f	-0.0001902303
219	0x38bd6221	9.0305e-05
220	0x37fa41d8	2.9832983e-05
221	0x3a48eb8d	0.00076644943
222	0xba07ecef	-0.0005185147
223	0x00000000	0.0
224	0xb8de42d4	-0.000105982326
225	0x39f44d03	0.00046596685
226	0xb9b487e4	-0.00034433522
227	0xb922de12	-0.00015532252
228	0xba6fff17	-0.0009155138
229	0x3b177088	0.0023107845
230	0x00000000	0.0
231	0x37b5848a	2.16386e-05
232	0xb8b08e4b	-8.418838e-05
233	0xb99e9add	-0.0003025149
234	0x39fb5302	0.00047936296
235	0x3b250d8d	0.002518508
236	0xba0c4b8e	-0.00053518347
237	0x00000000	0.0
238	0xb890917d	-6.8935544e-05
239	0x388788aa	6.462757e-05
240	0xb8be2984	-9.067639e-05
241	0x39322c70	0.00016991957
242	0x393fe7e4	0.00018301565
243	0xba59af71	-0.0008304036
244	0x00000000	0.0
245	0xb848db14	-4.788775e-05
246	0x391adabf	0.00014768074
247	0xb948b9bd	-0.00019142679
248	0x398dd7d7	0.0002705443
249	0x3a644636	0.0008707972
250	0xb90f081e	-0.00013640567
251	0x00000000	0.0
252	0x38db13e5	0.000104464394
253	0xb9ea81e6	-0.0004472874
254	0x3a7164ab	0.0009208421
255	0xba69ec95	-0.0008923498

exp_avg_sq f4 [128, 7]
0	0x35e5fafa	1.7134873e-06
1	0x365cf57f	3.2925452e-06
2	0x364a7187	3.0166427e-06
3	0x367404c7	3.6361614e-06
4	0x38a2ae7f	7.7572644e-05
5	0x394089c1	0.00018361864
6	0x00000000	0.0
7	0x35b688e9	1.3599903e-06
8	0x3609640b	2.0472824e-06
9	0x361d04da	2.3397647e-06
10	0x363246c0	2.6565249e-06
11	0x386afe10	5.602656e-05
12	0x390c2e96	0.00013368795
13	0x00000000	0.0
14	0x354ef101	7.7091687e-07
15	0x35ab6d02	1.2772218e-06
16	0x3596966e	1.1219652e-06
17	0x35b20566	1.3263605e-06
18	0x3869623b	5.5643013e-05
19	0x387c7ec2	6.0199534e-05
20	0x00000000	0.0
21	0x353aefa0	6.96391e-07
22	0x359bdeb3	1.1613214e-06
23	0x35a068ca	1.1951427e-06
24	0x35ba8f36	1.389976e-06
25	0x376f25d2	1.4254316e-05
26	0x38740feb	5.8188958e-05
27	0x00000000	0.0
28	0x36b2f61c	5.3334643e-06
29	0x372d5d20	1.0333286e-05
30	0x372da968	1.03510465e-05
31	0x3735946c	1.0822998e-05
32	0x39381d1e	0.00017558454
33	0x3a434664	0.00074491487
34	0x00000000	0.0
35	0x353d29fd	7.046909e-07
36	0x35958bfe	1.1142108e-06
37	0x358b5991	1.0382374e-06
38	0x35ae7988	1.299938e-06
39	0x378cc2df	1.6780044e-05
40	0x38430bb1	4.650251e-05
41	0x00000000	0.0
42	0x35c463a4	1.4632137e-06
43	0x36236cb7	2.4352173e-06
44	0x36368bd1	2.7201497e-06
45	0x3620cad0	2.395991e-06
46	0x3846d533	4.7405436e-05
47	0x394bafce	0.00019425081
48	0x00000000	0.0
49	0x35a2947d	1.2113156e-06
50	0x361d4df9	2.344021e-06
51	0x3617b183	2.2604079e-06
52	0x3624125f	2.4448598e-06
53	0x387031ab	5.7266716e-05
54	0x391a9783	0.00014743027
55	0x00000000	0.0
56	0x361e9a51	2.3633659e-06
57	0x36a29e9a	4.84644e-06
58	0x36af5316	5.225079e-06
59	0x36b477c1	5.378359e-06
60	0x3910a984	0.0001379606
61	0x39914a12	0.00027711742
62	0x00000000	0.0
63	0x35a12f7d	1.2009256e-06
64	0x35de4398	1.6559961e-06
65	0x361c3dfe	2.3281896e-06
66	0x36233c88	2.4324127e-06
67	0x38a15128	7.692195e-05
68	0x38ca52cd	9.6475334e-05
69	0x00000000	0.0
70	0x351c18f4	5.815084e-07
71	0x35a72e3b	1.2455924e-06
72	0x359b4017	1.1567053e-06
73	0x35d19103	1.5613917e-06
74	0x380828ff	3.2463107e-05
75	0x3854b61f	5.0714352e-05
76	0x00000000	0.0
77	0x345446c3	1.9769782e-07
78	0x34a5b75f	3.0867065e-07
79	0x34fb6f19	4.6833227e-07
80	0x34def163	4.1526354e-07
81	0x37b2831d	2.1280308e-05
82	0x37d99dd3	2.5941908e-05
83	0x00000000	0.0
84	0x37017a86	7.717526e-06
85	0x3740aeca	1.1484788e-05
86	0x37872071	1.610836e-05
87	0x378edc10	1.7030194e-05
88	0x39b54147	0.00034571646
89	0x3a70cc6e	0.0009185736
90	0x00000000	0.0
91	0x36070978	2.012208e-06
92	0x36543309	3.1620168e-06
93	0x36395e22	2.762194e-06
94	0x366e5296	3.5512835e-06
95	0x38b5e8c3	8.674108e-05
96	0x393d4d81	0.00018053317
97	0x00000000	0.0
98	0x35aa6966	1.2696662e-06
99	0x35ebe901	1.7576677e-06
100	0x360c59b5	2.0913842e-06
101	0x3627948d	2.4971407e-06
102	0x381b2826	3.699227e-05
103	0x39090760	0.00013068086
104	0x00000000	0.0
105	0x35a37bdd	1.2180495e-06
106	0x3600c7af	1.9189717e-06
107	0x35e68ef7	1.7177944e-06
108	0x3618edff	2.2788297e-06
109	0x389e99ed	7.562698e-05
110	0x383b3965	4.4637727e-05
111	0x00000000	0.0
112	0x36dd924b	6.603344e-06
113	0x37251483	9.839542e-06
114	0x3720276f	9.5459245e-06
115	0x3749fe7e	1.2039787e-05
116	0x3916aac7	0.00014368734
117	0x3a3f6409	0.0007300978
118	0x00000000	0.0
119	0x36322c93	2.6550013e-06
120	0x36885c42	4.063856e-06
121	0x36a678d2	4.961251e-06
122	0x36a51eff	4.9209916e-06
123	0x394ceb7b	0.0001954268
124	0x3993ac74	0.00028166512
125	0x00000000	0.0
126	0x368769bf	4.035624e-06
127	0x36edab1f	7.0830715e-06
128	0x36d055a0	6.208851e-06
129	0x37162b88	8.950832e-06
130	0x39916788	0.00027733692
131	0x39b8fb30	0.00035282364
132	0x00000000	0.0
133	0x35869512	1.0027163e-06
134	0x35e6b13f	1.7187921e-06
135	0x35cdcb01	1.5332772e-06
136	0x36029eec	1.9464014e-06
137	0x38cfa324	9.9009165e-05
138	0x38b6d9e1	8.7190194e-05
139	0x00000000	0.0
140	0x3620ebd5	2.397913e-06
141	0x36861ce2	3.9968736e-06
142	0x36c64381	5.9087183e-06
143	0x36ae5806	5.1958514e-06
144	0x3901e5c3	0.00012387992
145	0x39b0ab9e	0.000336972
146	0x00000000	0.0
147	0x35c99e21	1.5021689e-06
148	0x362bdce3	2.5609559e-06
149	0x361fbdda	2.3803354e-06
150	0x365ab80f	3.2591668e-06
151	0x386ec401	5.6926165e-05
152	0x393c1fb2	0.00017940885
153	0x00000000	0.0
154	0x3446a47e	1.8500029e-07
155	0x349b494d	2.8924333e-07
156	0x3499a30b	2.86171e-07
157	0x34c14a71	3.6003215e-07
158	0x378e10e7	1.693559e-05
159	0x37b73898	2.1841654e-05
160	0x00000000	0.0
161	0x35de4a86	1.6561978e-06
162	0x3644983e	2.9294893e-06
163	0x36366218	2.7177211e-06
164	0x36256430	2.4645233e-06
165	0x385d3d07	5.2747342e-05
166	0x3930253d	0.0001679854
167	0x00000000	0.0
168	0x34a0cf89	2.9953324e-07
169	0x35054ccd	4.965812e-07
170	0x3520b499	5.986745e-07
171	0x3511a75f	5.4260266e-07
172	0x37a9a7c7	2.0224497e-05
173	0x3842a501	4.6406876e-05
174	0x00000000	0.0
175	0x3496509d	2.799833e-07
176	0x34faee44	4.673949e-07
177	0x34d3322e	3.9338323e-07
178	0x3500fec6	4.805446e-07
179	0x36c7acb7	5.950769e-06
180	0x38002127	3.0548454e-05
181	0x00000000	0.0
182	0x34845d21	2.4654676e-07
183	0x35021ff9	4.84753e-07
184	0x34dbe930	4.0961595e-07
185	0x34f6b72b	4.5954343e-07
186	0x37dac42a	2.6078971e-05
187	0x3802bf44	3.1172545e-05
188	0x00000000	0.0
189	0x35b042ee	1.3132501e-06
190	0x364b7ea1	3.0323065e-06
191	0x3634e29c	2.6953994e-06
192	0x36394eb5	2.7612962e-06
193	0x38fcf4cf	0.000120618955
194	0x391b30b8	0.00014800101
195	0x00000000	0.0
196	0x35b84b3d	1.3730966e-06
197	0x3617f7ab	2.2644915e-06
198	0x3638f95b	2.756328e-06
199	0x366b0920	3.502304e-06
200	0x38b60e98	8.6811546e-05
201	0x38ceaf3e	9.855487e-05
202	0x00000000	0.0
203	0x35d2f39e	1.5717121e-06
204	0x361eb85d	2.3651148e-06
205	0x3681c5cf	3.8675275e-06
206	0x36526417	3.1350698e-06
207	0x38513cde	4.988617e-05
208	0x390674f8	0.0001282281
209	0x00000000	0.0
210	0x352b012a	6.370416e-07
211	0x359b99a1	1.1593112e-06
212	0x35770c4e	9.2032576e-07
213	0x35b4a7d7	1.3459893e-06
214	0x37ac5c68	2.0547028e-05
215	0x38257f22	3.9457467e-05
216	0x00000000	0.0
217	0x355f4548	8.317479e-07
218	0x35b04086	1.3131801e-06
219	0x35d44e38	1.5817996e-06
220	0x35c8dcc7	1.4965416e-06
221	0x3813083b	3.5055196e-05
222	0x38d33eb5	0.00010072944
223	0x00000000	0.0
224	0x360eb811	2.126679e-06
225	0x367109da	3.5917533e-06
226	0x3687e401	4.0498567e-06
227	0x36a92501	5.0409003e-06
228	0x38a23733	7.7350436e-05
229	0x39213bb2	0.00015376395
230	0x00000000	0.0
231	0x35b51de1	1.3494247e-06
232	0x360d9dee	2.1102564e-06
233	0x360a4e8c	2.0609323e-06
234	0x361ea98c	2.3642524e-06
235	0x37c495cb	2.3434774e-05
236	0x391680aa	0.00014353046
237	0x00000000	0.0
238	0x35211edb	6.0022074e-07
239	0x35904a1e	1.0750407e-06
240	0x359693ba	1.1218865e-06
241	0x35dabc78	1.6297117e-06
242	0x37ab449e	2.041674e-05
243	0x388edab8	6.811827e-05
244	0x00000000	0.0
245	0x34a93ee7	3.152447e-07
246	0x351b1773	5.777612e-07
247	0x350f60a7	5.34123e-07
248	0x353e0830	7.079243e-07
249	0x37639a6f	1.3566211e-05
250	0x37834733	1.5649572e-05
251	0x00000000	0.0
252	0x3627c04a	2.4996866e-06
253	0x36911f28	4.324964e-06
254	0x3679edbc	3.724227e-06
255	0x36aca60d	5.1453303e-06

exp_avg f4 [128]
0	0xb8e89e07	-0.00011092057
1	0xba7ca4d0	-0.0009637596
2	0xb926b3fc	-0.00015898043
3	0x38910c55	6.916436e-05
4	0x39f8d294	0.0004745914
5	0x39ba29df	0.0003550788
6	0x3a0e9c70	0.0005440181
7	0x3900e234	0.00012291298
8	0x3a8eb30a	0.0010887098
9	0xb9d48d16	-0.00040540908
10	0xb98855d0	-0.00026003877
11	0x390d06d1	0.00013449347
12	0xb8ee3b11	-0.00011359726
13	0xb9e0720a	-0.00042809575
14	0xba7ba5ed	-0.0009599615
15	0xb9dcd090	-0.0004211706
16	0xba7e56eb	-0.0009702283
17	0xb61fd10f	-2.3814534e-06
18	0x3972153d	0.0002308683
19	0x39fae44c	0.0004785381
20	0xb9544bb8	-0.00020246103
21	0xb9ae2bfd	-0.0003322064
22	0xb8c4962c	-9.37398e-05
23	0xb813deef	-3.5255154e-05
24	0xb80a378e	-3.2953503e-05
25	0xb9857cbf	-0.0002546068
26	0xb78b7b84	-1.6627608e-05
27	0xb98bd73a	-0.00026672502
28	0xb95d8f46	-0.00021129576
29	0xba2a9e6a	-0.0006508591
30	0x398d8595	0.00026993142
31	0xb91bc424	-0.0001485502
32	0x39bf4ad4	0.0003648611
33	0x398b7a67	0.00026603343
34	0x390797ab	0.00012931104
35	0x394f1067	0.00019747169
36	0xba2c4b17	-0.00065724686
37	0x399674b5	0.00028697183
38	0xba19498f	-0.0005847448
39	0x3928fb3e	0.00016115324
40	0x3a9529a0	0.0011380203
41	0xb96e349b	-0.00022717046
42	0xb88d76b5	-6.745515e-05
43	0xb888ec28	-6.528973e-05
44	0x3a18e3fa	0.0005832311
45	0xb995be07	-0.00028561076
46	0xb99b88d7	-0.00029665857
47	0x397722d8	0.00023568736
48	0xb903a8fb	-0.00012556084
49	0xba119ba0	-0.0005554501
50	0x3a729dcc	0.0009255081
51	0xbab600e3	-0.0013885762
52	0xb951c554	-0.00020005304
53	0xb942383b	-0.00018522229
54	0xba39849b	-0.00070769497
55	0xba0bb67a	-0.00053296203
56	0x3906971f	0.00012835533
57	0x3a68fef4	0.00088880886
58	0x3814d0fa	3.5480574e-05
59	0xba1bfaff	-0.0005950182
60	0x38b16557	8.458894e-05
61	0x3a28a2a1	0.0006432925
62	0x38d63fa7	0.00010216171
63	0x3a1aa4fd	0.0005899219
64	0x39934a51	0.00028093395
65	0x39db73c6	0.00041857193
66	0xb9b58873	-0.00034624673
67	0xba14863b	-0.0005665754
68	0x39b04362	0.0003361954
69	0xb9023169	-0.00012416173
70	0xba8ac721	-0.001058791
71	0xb9afefd0	-0.00033557275
72	0x3801cb80	3.094552e-05
73	0xba0eb37f	-0.0005443617
74	0xb9ace3da	-0.0003297616
75	0xb8703180	-5.726656e-05
76	0xba2ecbd4	-0.0006667946
77	0x38903fcc	6.878338e-05
78	0x3a3d6d4d	0.0007226065
79	0x3802c249	3.1175357e-05
80	0x39076b8b	0.00012914666
81	0x39f2b3c2	0.00046291767
82	0xba39d489	-0.000708886
83	0x398b671a	0.00026588963
84	0x394f0f30	0.00019746716
85	0x3a4716a4	0.0007594621
86	0xba895d84	-0.001048014
87	0xba85e806	-0.0010216243
88	0x3a090de1	0.00052282034
89	0xb93e0e64	-0.00018125173
90	0xb8f0485d	-0.000114575705
91	0xb85220c5	-5.009842e-05
92	0xb8ce2942	-9.83053e-05
93	0xba86f05d	-0.0010295023
94	0x39983004	0.00029027474
95	0xb8b8b0e1	-8.80675e-05
96	0xb983536a	-0.00025048415
97	0xbade1ef0	-0.0016946476
98	0xb85604ee	-5.1026167e-05
99	0x3a2829d3	0.00064149237
100	0xba61165d	-0.0008586401
101	0x3a8193a8	0.0009885924
102	0xba1939ee	-0.0005845119
103	0xb8ca2d0c	-9.640501e-05
104	0x39a35d3d	0.0003115925
105	0x39426002	0.00018537047
106	0x3a02dd6f	0.00049921026
107	0x38bbcce4	8.955019e-05
108	0xb9a8fc6e	-0.00032231532
109	0x395c32a4	0.000209997
110	0xb9061f01	-0.00012790786
111	0xb83c7432	-4.493091e-05
112	0x3988852e	0.00026039168
113	0x392ac2dc	0.00016285054
114	0x395ef87b	0.00021264136
115	0x39d45048	0.00040495605
116	0xba03ff4a	-0.00050352945
117	0x3a15f8a0	0.0005720947
118	0xb96825f8	-0.00022139389
119	0xba296bbe	-0.0006462893
120	0x385dca20	5.287875e-05
121	0x3809edae	3.28847e-05
122	0x3a35f339	0.0006940845
123	0x39640249	0.00021744626
124	0xba118570	-0.0005551195
125	0xb99c8770	-0.00029855547
126	0x39845291	0.0002523852
127	0xb8f8645f	-0.00011844257

exp_avg_sq f4 [128]
0	0x37129f05	8.739303e-06
1	0x36d227de	6.263129e-06
2	0x36583794	3.221886e-06
3	0x365c0471	3.278514e-06
4	0x37fac0e1	2.9892139e-05
5	0x363bc0df	2.7977437e-06
6	0x36fc6cab	7.522836e-06
7	0x36e23c94	6.742377e-06
8	0x376b7456	1.4034178e-05
9	0x36d04b84	6.2076742e-06
10	0x36579475	3.212391e-06
11	0x359ea270	1.1819193e-06
12	0x382e39e5	4.153875e-05
13	0x3706507e	8.005763e-06
14	0x36bbdb77	5.5985834e-06
15	0x36a3bacf	4.879526e-06
16	0x37eb4e9a	2.8050785e-05
17	0x3763844c	1.3561057e-05
18	0x37a5ef4f	1.978097e-05
19	0x369c2a73	4.654104e-06
20	0x37747388	1.45704325e-05
21	0x36f19577	7.1997597e-06
22	0x35646787	8.508727e-07
23	0x36f554eb	7.3114547e-06
24	0x35db8e26	1.6358142e-06
25	0x359692f7	1.1218643e-06
26	0x359dd90f	1.1760584e-06
27	0x36f7d2ad	7.3856995e-06
28	0x36e9c9c6	6.9674306e-06
29	0x370aa5c8	8.26404e-06
30	0x363d08b9	2.8168272e-06
31	0x369622ce	4.4744e-06
32	0x374683fa	1.1832448e-05
33	0x36c23799	5.788123e-06
34	0x364ab921	3.0208105e-06
35	0x35c147e6	1.4400546e-06
36	0x373b4148	1.1161268e-05
37	0x35897afa	1.0243086e-06
38	0x369e4b15	4.7175076e-06
39	0x37991bde	1.8251998e-05
40	0x388701b5	6.4376196e-05
41	0x35ab12a5	1.2745919e-06
42	0x368d245c	4.2063602e-06
43	0x354320ec	7.269107e-07
44	0x37d1c8b5	2.5008203e-05
45	0x36869b58	4.0115956e-06
46	0x368c64b4	4.1840485e-06
47	0x374144df	1.1519732e-05
48	0x35fc5ad0	1.8801893e-06
49	0x36ee71b3	7.106189e-06
50	0x3907ff07	0.00012969608
51	0x37b870c3	2.1987018e-05
52	0x36d41746	6.3208017e-06
53	0x365fed70	3.3367796e-06
54	0x36e56003	6.835909e-06
55	0x369040f0	4.299094e-06
56	0x362fa0d8	2.6170655e-06
57	0x375ef312	1.3288825e-05
58	0x360189d0	1.9302715e-06
59	0x37102d74	8.593652e-06
60	0x371cb15c	9.339619e-06
61	0x378c065b	1.669226e-05
62	0x3632b8c5	2.6631617e-06
63	0x37cfa3e2	2.4752637e-05
64	0x36529990	3.1381824e-06
65	0x38092442	3.2697113e-05
66	0x36a8e7af	5.0337617e-06
67	0x367dac0d	3.7800085e-06
68	0x36a68f1b	4.963845e-06
69	0x37c56792	2.3532459e-05
70	0x3819a04a	3.6627323e-05
71	0x37b8ace5	2.201502e-05
72	0x36bec23a	5.685052e-06
73	0x382dcefa	4.1439176e-05
74	0x357e531b	9.474331e-07
75	0x37aa2e69	2.028719e-05
76	0x37f9269b	2.970109e-05
77	0x3785546a	1.5894144e-05
78	0x3863d6b0	5.432096e-05
79	0x37251819	9.840377e-06
80	0x35882302	1.0142978e-06
81	0x37c75a50	2.3764704e-05
82	0x3795edb2	1.787287e-05
83	0x371231ba	8.713856e-06
84	0x362d2d4b	2.5805373e-06
85	0x387c3e27	6.0139366e-05
86	0x379e2a69	1.8854817e-05
87	0x37051888	7.933129e-06
88	0x37ba146c	2.2182438e-05
89	0x35d966bb	1.6197658e-06
90	0x366c1093	3.5176388e-06
91	0x35a7c052	1.2498442e-06
92	0x373dbd8d	1.1309411e-05
93	0x379463e1	1.7689485e-05
94	0x372cbe97	1.0296374e-05
95	0x35bc26dd	1.4018402e-06
96	0x358112bf	9.616705e-07
97	0x3808c06e	3.260414e-05
98	0x3600cad2	1.9191543e-06
99	0x371a3d03	9.193321e-06
100	0x37be4757	2.2682985e-05
101	0x3788d5d8	1.6312042e-05
102	0x3717a640	9.0390095e-06
103	0x363a3afa	2.7750489e-06
104	0x37324dde	1.0627757e-05
105	0x3851d50f	5.002791e-05
106	0x37e2bdf1	2.7029748e-05
107	0x369d2ed9	4.6844184e-06
108	0x362308cc	2.4294013e-06
109	0x3606571f	2.0018267e-06
110	0x37192fac	9.13061e-06
111	0x36e8fe87	6.9437697e-06
112	0x36b56831	5.40635e-06
113	0x3637eb4a	2.7406081e-06
114	0x36c30382	5.8118612e-06
115	0x36f891e7	7.407961e-06
116	0x3713e66e	8.815534e-06
117	0x37453764	1.1755012e-05
118	0x36fcdc0c	7.535802e-06
119	0x37e9e9bf	2.7884611e-05
120	0x378cd035	1.6786254e-05
121	0x36627e97	3.375031e-06
122	0x367fc007	3.8109736e-06
123	0x3710fbbb	8.641679e-06
124	0x36b01581	5.247712e-06
125	0x363adbdf	2.7844142e-06
126	0x36cf534a	6.178777e-06
127	0x36f93326	7.4267327e-06
