Assets/IA/Pruebas/results/Pad15/PadBehavior/checkpoint.pt (torch, 438005 bytes, 30 tensors)

network_body._body_endoder.seq_layers.0.weight f4 [128, 5]
000000 92 5c 0f 3f 2b bf fd 3c 56 73 34 3c 53 e1 4d 3c
       0.56000626 0.030974945 0.011013826 0.0125659285
000010 20 24 be be 17 9f 8a bf 59 9e 08 3f 69 23 9d be
       -0.37136936 -1.08298 0.5336662 -0.30691078
000020 34 6c d3 bd c0 51 56 3f 61 6b b9 be e9 b6 87 3f
       -0.103233725 0.8371849 -0.36214736 1.0602695
000030 b3 cc 4f 3e b0 56 95 be 28 2b d3 3e 57 4b aa 39
       0.2029293 -0.291677 0.41243863 0.0003248106
000040 5f be 7a be 20 b2 1a 3e 85 d8 69 3e 86 37 93 be
       -0.24486683 0.15107012 0.22836502 -0.287533
000050 8f e0 21 bf 8e 8c 27 3d bd c2 08 3f 77 ee 46 bf
       -0.63233274 0.040905528 0.5342215 -0.7770762
000060 0a bb 2a be 89 18 ee bd ac 1a 84 be 86 cb 17 be
       -0.16672912 -0.116257735 -0.258016 -0.14823732
000070 d3 64 a5 be c8 a3 94 3d b1 6d 42 3e 08 d1 38 3c
       -0.32303485 0.07257801 0.18987156 0.011280306
000080 b7 70 e2 be b2 3c f6 be 6e bf 60 bf 2e af 4b 3e
       -0.4422662 -0.48093182 -0.877921 0.19891044
000090 63 ad 6e 3e 10 08 0e bf 68 c3 a0 be 2a 96 7f bf
       0.2330833 -0.5548105 -0.31399083 -0.9983851
0000a0 a7 a0 3e be 74 c7 4d 3e c3 46 c7 be 69 34 12 3f
       -0.18615972 0.20095617 -0.38921174 0.5711122
0000b0 d9 ff fc 3e a1 90 e5 3d 34 08 b9 be 57 b2 c9 be
       0.49413946 0.112092264 -0.3613907 -0.39393875
0000c0 8e 45 6e be e4 c7 0f bf 1c 71 55 3f 7a 5a c3 3d
       -0.2326872 -0.56164384 0.83375716 0.095387414
0000d0 df ae 37 3e be 04 60 bd bd 1d 35 be f1 69 66 bf
       0.17937802 -0.054692023 -0.17687126 -0.90005404
0000e0 2d 2c 15 3f d1 d4 94 be 6d 3e 0d 3f 24 f8 09 bf
       0.5827053 -0.29068616 0.5517338 -0.5389426
0000f0 1b 42 e7 be 0a 7a 85 bc b9 0c 8d 3e b5 a4 46 3f
       -0.45167622 -0.016293544 0.2754877 0.77595073
000100 41 71 e5 be 82 56 10 be bd 8a cb be 25 fd 3c be
       -0.44812968 -0.140955 -0.39754286 -0.18455942
000110 70 d2 fd bd 52 4f 56 3f 35 95 2f 3f f4 39 84 bd
       -0.123936534 0.83714783 0.68587047 -0.06456366
000120 e4 91 9a bd 8e 7a c2 be 66 f0 a9 3d 7f 3d 50 bf
       -0.07547358 -0.37984127 0.082978055 -0.81343836
000130 52 c6 f3 3e a5 89 dd 3e 15 87 45 be 59 cf 43 3e
       0.47612244 0.43269077 -0.19289811 0.19122066
000140 10 f7 42 bd 78 55 3e 3f e8 0d 04 3e c6 e5 59 be
       -0.0475989 0.74349165 0.1289593 -0.21279058
000150 5a 3a 42 3f de 51 35 bd f7 e6 c8 bc e5 2d c0 3e
       0.7587029 -0.044267528 -0.024524195 0.37535015
000160 3b b4 3d bf 51 16 73 3e 5f 88 95 3e 52 37 97 3f
       -0.74103135 0.23738982 0.29205605 1.1813757
000170 95 ef a8 3c b9 3c 84 be 1e 07 55 bd a1 76 34 be
       0.020622054 -0.25827578 -0.05200874 -0.17623378
000180 92 46 d1 3d e6 ea 3b bf 87 36 bc 3d c4 ff e5 3e
       0.10218538 -0.734053 0.09190088 0.44921696
000190 63 d7 b2 be 68 8e 49 3f 89 87 1e be a8 5f d7 3e
       -0.34929952 0.7873292 -0.1548139 0.42065167
0001a0 41 e4 df 3d 16 66 02 3e 25 54 50 3f 45 f7 86 be
       0.10932208 0.12734255 0.81378394 -0.26360527
0001b0 05 07 1d 3f 18 e7 a1 3e 5c d8 4c 3f 27 5f 93 bf
       0.61338836 0.31621623 0.8001764 -1.1513413
0001c0 13 2c 93 3e 91 86 e8 be 65 da 49 bd cb 1a 8b be
       0.28744563 -0.45415166 -0.049280543 -0.2716888
0001d0 48 b6 33 be 0d e9 3b bf 14 b9 b2 be 35 d2 ac be
       -0.17550004 -0.7340248 -0.34906828 -0.33754125
0001e0 a9 60 68 bf 22 1a 1c 3f 16 88 ee 3d 4c e9 3c be
       -0.9077249 0.60977376 0.1164705 -0.1844837
0001f0 05 54 52 3f b8 8d 71 bf bf bc 02 3e 41 96 80 be
       0.82159454 -0.9435687 0.12767313 -0.25114635
000200 73 47 b4 3e a8 8a 57 bf 8e 03 95 be fa 86 89 3e
       0.3521076 -0.8419595 -0.29104275 0.2686079
000210 e8 3e dc 3e a2 a0 45 be 3b 10 c3 be 3d 72 a8 bc
       0.43016744 -0.19299558 -0.3809832 -0.020562286
000220 28 cd 83 bd ee eb 7c 3e e7 3d 8a 3f 7c c2 e9 3e
       -0.06435615 0.24699375 1.0800141 0.45656192
000230 bd ca 0e 3f 14 9d a3 be 01 d1 ab be c6 dc 07 3e
       0.55778104 -0.3195578 -0.33557895 0.13267812
000240 0f 56 c8 3e 76 6a d4 3d 20 55 1a 3f 4d 89 03 3f
       0.39128157 0.10371868 0.6028614 0.5138138
000250 7f 26 3e bf 28 69 84 bf 5c 23 12 3f 94 f4 fd bd
       -0.7427749 -1.0344591 0.57085204 -0.12400165
000260 c6 45 11 3e 1d ad e8 be 2c d6 cf 3e 1c d0 0d 3f
       0.14186773 -0.45444575 0.40593088 0.55395675
000270 b0 e0 33 be 90 c7 00 3f e9 a4 79 be ca 43 99 3e
       -0.1756618 0.5030451 -0.24379314 0.2993453
000280 43 0b 2f 3e 87 49 63 3e 47 82 63 3d 40 de df 3e
       0.1709414 0.22196017 0.055544164 0.4372425
000290 5b d8 a6 be 36 9e 8a bf f2 a1 69 3e a7 69 79 3d
       -0.3258694 -1.0829532 0.22815683 0.060891774
0002a0 15 61 66 bf 3a 8a 29 bf 37 5b 0e bb fd 64 0f be
       -0.89991885 -0.6622654 -0.0021721849 -0.14003368
0002b0 5d 6b 4a be 9e 6f b3 3e 0e d1 8c bd 1c a9 2a 3f
       -0.19767518 0.35046095 -0.068758115 0.6666429
0002c0 93 1e d8 3d 23 4e 1e be 11 40 35 bf 51 ad d8 3e
       0.105527066 -0.15459494 -0.7080088 0.4231973
0002d0 00 97 54 bf 04 68 94 be 5f 04 eb 3e 26 b0 4a 3f
       -0.8304291 -0.28985608 0.45901772 0.7917503
0002e0 a2 48 eb 3e b6 7e 41 3f 27 7b 74 3e f4 b3 0a bf
       0.45953852 0.7558397 0.23875104 -0.54180837
0002f0 ee 87 bb 3d 88 3d 9d 3e be 33 be bd 3b 00 87 3e
       0.09156786 0.30711007 -0.09287213 0.26367363
000300 fd 4f 06 3f 76 28 85 be 47 f0 45 be e1 a4 fe be
       0.524658 -0.26007432 -0.1932994 -0.49735168
000310 0e a4 2e 3e 87 19 70 3e bf 36 95 3c 8c 54 53 be
       0.1705477 0.23447238 0.018214582 -0.20637721
000320 4e be db 3d d0 5a f1 be 73 90 98 3e 0d 31 c8 3e
       0.10729657 -0.47139597 0.29797706 0.39099923
000330 b9 e7 8c be 49 21 52 3f 7f 85 28 3f ac 8b 83 be
       -0.2752054 0.8208204 0.658287 -0.256925
000340 50 95 d7 be 0c 81 ef 3e 12 0e 81 3b b0 80 2d 3e
       -0.42106104 0.46778142 0.003938445 0.16943622
000350 66 48 82 bf 97 a1 86 3e 28 f5 41 3f e0 f2 f0 bd
       -1.0178344 0.26295158 0.75764704 -0.11765075
000360 73 7f f6 be 21 53 25 3f 30 a0 b6 3e 38 ca 3f 3d
       -0.4814411 0.6457997 0.35669088 0.04682371
000370 95 f1 f8 bd 19 94 8b 3e b0 26 78 3e 16 24 d8 bd
       -0.12155453 0.27261427 0.24233508 -0.10553758
000380 c2 02 cc 3e 1e 63 44 bf 32 55 04 bf 76 f0 05 bf
       0.39845854 -0.7671374 -0.516925 -0.5232004
000390 12 06 4e 3e 87 6b 8d 3e fe fb 29 3f c0 6c 8d 3e
       0.20119503 0.276211 0.66400135 0.27622032
0003a0 7c 86 5f bf 68 da 5b 3d 10 f3 8b bc 2c 0d a3 3e
       -0.8731458 0.053675085 -0.017083675 0.31845987
0003b0 93 36 a1 3e 67 43 e1 be bf 3d 3c 3d c8 39 71 bf
       0.3148695 -0.43996736 0.045957323 -0.9422879
0003c0 b1 e4 1a 3e ba 64 0c bf 9b 96 fd 3e ab ef 1d bf
       0.15126301 -0.54841197 0.49528965 -0.6169383
0003d0 33 4c f5 bc a7 82 f5 bd d5 75 b8 3d c8 43 d8 bc
       -0.029943561 -0.119878106 0.0900685 -0.026399508
0003e0 52 ab 36 3e fe 5a e2 bc 7d e4 94 be 43 fc 4d bb
       0.17838791 -0.02763128 -0.29080573 -0.0031430877
0003f0 19 94 84 3d 0a 38 3e 3d 99 5f 88 3d cb 2a 68 3f
       0.0647356 0.04644016 0.06658859 0.90690297

network_body._body_endoder.seq_layers.0.bias f4 [128]
000000 e0 92 6e 3c 9e e3 53 bb 84 eb 8c bb f2 9f e0 bc
       0.014561385 -0.0032331715 -0.0043005366 -0.027420018
000010 7f 0e 1d bc 69 a1 dd 3b 0f dc 8d 3a 23 7f 06 3c
       -0.009585976 0.0067636264 0.0010823029 0.008209023
000020 9e 7e 1b bd 07 bb 3a bc 29 b4 98 3c 19 56 21 bc
       -0.03796255 -0.01139713 0.018640595 -0.009847187
000030 7f 53 85 3a b9 46 97 3b 9e af 27 3c d5 66 fb b9
       0.0010171979 0.004616585 0.0102347415 -0.00047951067
000040 a6 f3 bf bb fc 9d 2e 39 f5 95 6d bb 40 70 9c 3c
       -0.0058579026 0.00016652787 -0.0036252711 0.019096494
000050 54 74 81 3c 29 e0 07 bc 50 cc e8 ba f2 84 d5 3a
       0.01580254 -0.00829319 -0.0017761085 0.0016290231
000060 db 37 42 bc e5 57 2a 3c 7f ed c6 3b 56 59 ea bb
       -0.011854137 0.010396932 0.006070792 -0.007151763
000070 c4 cd d6 bc 44 b5 6d 3b 7d c8 21 3c cd ff 92 bb
       -0.026221164 0.0036271373 0.00987446 -0.0044860602
000080 9e fd af bc b7 b7 68 3b e0 3c 26 3b be e8 24 ba
       -0.021483239 0.0035509893 0.0025365874 -0.0006290785
000090 58 33 99 bc af 72 c0 3b d4 a8 1e bc be 04 d5 bc
       -0.01870124 0.0058730463 -0.009683806 -0.026003238
0000a0 ca 89 21 bc e6 6a ba 3c b0 15 9f 3b 29 76 1e 3c
       -0.009859512 0.022756051 0.0048548803 0.009671726
0000b0 96 1c 20 3c 53 0d b7 3b 84 95 fd 3b cb bd 37 3c
       0.00977244 0.005586305 0.007738771 0.011214684
0000c0 81 3b 84 ba 8c a9 f6 3c 3c 2a 58 3b c5 3b c7 3b
       -0.0010088534 0.030110143 0.0032984158 0.006080123
0000d0 58 f4 0f bc 87 45 94 3b 58 08 84 3b 59 1d c0 bc
       -0.008786283 0.00452489 0.004029315 -0.023451494
0000e0 8c 62 24 bc 57 50 92 3c 10 8e 00 bd 32 96 9d bb
       -0.010033261 0.017860575 -0.03138548 -0.0048091644
0000f0 b0 91 a3 3b 36 33 27 bc c8 b5 98 3b ea c6 00 3d
       0.0049917325 -0.010205081 0.004660342 0.0314397
000100 ea 87 3b bc 17 a2 90 bb 9c ee b3 ba 3b 7c 39 bc
       -0.011445979 -0.004413854 -0.0013727727 -0.011321123
000110 1a d5 15 3c 2f ef b9 3b ab 77 69 bc 9c 53 91 bc
       0.009145046 0.005674265 -0.0142497225 -0.017740063
000120 52 b9 0a 3c 2e 63 a6 bc bf 9f 12 bb e9 10 9d 3c
       0.008467035 -0.020310964 -0.0022373048 0.019173102
000130 9a a0 6f bc b5 77 0a bd 9b 3e c4 bb 76 15 58 3b
       -0.014625693 -0.033805568 -0.0059889085 0.0032971776
000140 73 83 39 3b d4 c4 27 bc ef 8c 78 3c c9 88 48 3c
       0.002830711 -0.010239799 0.01517032 0.012239643
000150 42 49 ed 3b bf a2 5a 3b 13 06 ae 3a 1a 5d 42 bc
       0.007241399 0.0033361164 0.0013276957 -0.011863017
000160 8a 3e 2c 3c c5 31 48 bc da 04 11 3c ec 85 6d bc
       0.010512957 -0.012218897 0.008851254 -0.0144972615
000170 9d 81 85 bc f3 19 ef bc ec 08 28 bc 7d 74 ce bb
       -0.016297156 -0.029187178 -0.010256033 -0.0063005076
000180 a0 29 7a bb 64 e5 6c 3c 64 14 99 b9 d4 b1 c3 bb
       -0.0038171783 0.014458988 -0.00029197626 -0.0059721265
000190 f6 d1 c0 bc 2b 1c 16 ba 6f 43 80 bb 9c 39 40 3b
       -0.023537617 -0.0005726243 -0.0039142887 0.0029331213
0001a0 a7 33 37 39 ee 75 4b 3c 54 28 13 bd 28 ea 8a 3b
       0.00017471482 0.012418253 -0.03592713 0.0042393394
0001b0 b0 71 32 bc 5c 5b 31 bb b1 46 a6 3b f8 35 c4 3a
       -0.010891363 -0.002706251 0.005074345 0.0014969697
0001c0 1f c7 2d bc 3c 8f bf bb 54 77 3c bc 7f 85 1e 3b
       -0.010606556 -0.0058459323 -0.011503059 0.0024188457
0001d0 7d 3f 8a bc 24 90 ad bc 87 74 b1 3a 2e e4 e1 bc
       -0.016875977 -0.021186896 0.0013538756 -0.027574625
0001e0 09 e5 8a bc 9f 70 2f 3b 5f 10 b3 bb a8 88 65 bc
       -0.016954916 0.0026770008 -0.005464598 -0.014009632
0001f0 32 7c 67 bc c9 fe 52 bc b7 44 c9 bc 9a 2d 55 bd
       -0.014128732 -0.012878128 -0.024568899 -0.052045442

network_body._body_endoder.seq_layers.2.weight f4 [128, 128]
000000 fc 8a 7c bd 74 a7 a0 bd b4 d3 cd 3c 16 e3 17 3e
       -0.061655983 -0.07844439 0.025125362 0.1483272
000010 a4 a8 dd 3d 5e aa 0b 3c d4 c5 af 3d 75 7e 70 bc
       0.10823181 0.008524505 0.085826546 -0.014678587
000020 10 40 57 3d 5b c5 40 3d 98 bd 22 bc 13 37 8a bd
       0.05255133 0.047063213 -0.009932898 -0.06748786
000030 94 cf 9e 3c 52 1d fc bd 0d 31 97 3c ae 7c a9 3b
       0.01938609 -0.1231028 0.018456006 0.0051723337
000040 45 a3 c3 3c 53 27 c4 bd a5 91 d6 39 a1 d7 61 3d
       0.023881564 -0.09577813 0.00040925774 0.05513728
000050 d8 ce 33 3e 7a 1e 36 3c 85 a5 d4 3c 58 fd 19 3d
       0.17559373 0.011115665 0.025957832 0.037595123
000060 f7 bb da bd a2 3f 2e 3e 79 d9 23 bc 75 6e a8 3d
       -0.10680383 0.17016461 -0.01000058 0.08224193
000070 49 c4 60 bd 5a cd 36 3b 57 26 72 3e c8 71 56 3d
       -0.054874692 0.0027893395 0.23647438 0.052354604
000080 bd 3d ad 3d aa c5 8a 3c a2 d5 89 3d 3d 17 ed bd
       0.08459041 0.016939957 0.067302 -0.11576698
000090 4c 64 ee 3c 36 0b a1 3d df 76 a0 bd 57 83 a2 bd
       0.02910056 0.078634664 -0.07835173 -0.07935207
0000a0 d1 53 ef 3c 8d a7 36 3e c7 54 40 3d 19 16 34 3d
       0.029214771 0.17837353 0.04695585 0.043966386
0000b0 74 69 73 3d 8d 0d 0e be 2e 96 f6 bc 30 26 73 3d
       0.05942674 -0.13872357 -0.030100908 0.05936259
0000c0 c2 e6 3b bd 6d 9d 6f 3d 7b e0 cc bd 62 84 a7 3d
       -0.045874365 0.058499742 -0.10003754 0.08179547
0000d0 92 a3 ea 3d 91 f1 ab 3a 06 0c 65 be e5 f0 ee bd
       0.1145698 0.0013118257 -0.22367868 -0.11667041
0000e0 01 dc 4d 3d 3d fd b5 3c ed 7c 19 be 01 10 6c 38
       0.05025864 0.02221548 -0.14989062 5.628169e-05
0000f0 b7 90 3d 3e 62 31 aa 3d 27 45 18 3d 5e ba 86 bd
       0.18512236 0.083102 0.037175324 -0.065785155
000100 70 f8 2e 39 44 75 13 be 1f 9d a4 3d 17 19 92 bd
       0.00016686483 -0.14400202 0.08037781 -0.07133692
000110 06 c5 bc 3b 72 60 64 3c 5f 77 37 3d 80 ba 85 3d
       0.0057607917 0.01393901 0.044791576 0.06529713
000120 04 27 23 bd b3 88 0c bd e8 d5 ed 3d b3 cc a8 bd
       -0.03983213 -0.034310054 0.11613065 -0.08242168
000130 28 86 02 bd 9a 16 86 3d 2d cd a4 bd 6a a0 d8 3d
       -0.031866223 0.0654728 -0.08046947 0.105774716
000140 ec b1 4b 3d 9e 3d d4 bd 67 e9 54 bd 90 c2 a6 3d
       0.049730226 -0.10363315 -0.051980402 0.081425786
000150 94 df 86 bc 4c 35 10 3e 03 75 34 3c 67 a3 30 3d
       -0.016464032 0.14082831 0.011014226 0.043124583
000160 03 64 65 bd 12 4f 82 3d 78 e1 90 3d cb 6c d7 3c
       -0.05600358 0.06362738 0.07074255 0.026296994
000170 ff 10 99 3d ec ec 26 be ca 11 fd bd 46 5c ac bd
       0.07473945 -0.16301316 -0.123569086 -0.08416037
000180 d4 d0 f9 3d 2b e4 01 be 5c ab 24 3e b6 03 eb bc
       0.12198034 -0.12684695 0.16080993 -0.028688293
000190 c6 53 84 bd 88 af 74 bb 7f cc 55 bc 9a c2 7a bc
       -0.06461291 -0.003733607 -0.013049244 -0.015305186
0001a0 84 a1 1f 3d 0f e3 01 bc 84 ab fc bc da 07 7f 3d
       0.038972393 -0.00792767 -0.030843504 0.062263347
0001b0 f5 48 8b 3d 54 3c 06 bd fe 8f 14 3e 16 19 35 be
       0.06801025 -0.032772377 0.14508054 -0.17685351
0001c0 ea 03 fe 3c ad 74 39 3c a4 cb 23 3b 3d 7a 15 3e
       0.031007726 0.011319322 0.0024993205 0.14597411
0001d0 d3 f8 21 be e0 45 83 3d 2d 69 a7 bc f5 0c ec 3c
       -0.15817575 0.06409812 -0.020435894 0.028814772
0001e0 88 d9 35 bc 85 8c d2 bd 02 c7 e7 39 80 37 b9 bd
       -0.011099227 -0.10280708 0.00044208026 -0.09043789
0001f0 4c b1 0a bd 73 12 e2 b9 3b 8b d8 3c 1c 88 db bd
       -0.03386049 -0.00043119825 0.026433578 -0.1071932
000200 06 2d 4e bd 2e 69 01 bd 86 68 31 bd a9 b3 05 3e
       -0.050335906 -0.031594448 -0.043312572 0.13056816
000210 8d 41 8a 3c 9c 5a fe 3c cc 82 20 3d a0 a3 fa 3d
       0.01687696 0.031049065 0.039187238 0.1223824
000220 2f e9 f3 bc f4 9a 94 3d 09 91 91 bd d9 0d 9e bd
       -0.029774277 0.072561175 -0.071077414 -0.07717485
000230 71 d1 c9 bc 77 12 43 3d a6 c7 4d 3d bb 79 6c bc
       -0.024636002 0.04762503 0.050239228 -0.01443332
000240 46 d0 8b 3c 2e 00 51 3e 4e b9 f2 bd 0a d2 60 bd
       0.017067086 0.20410225 -0.1185175 -0.05488781
000250 3a 8e a1 bd bb 2d fc 3d 79 1c 44 be 79 6b f1 bd
       -0.07888456 0.1231341 -0.19151486 -0.11788077
000260 b0 66 13 bd c2 59 e1 ba cb ef 25 bd 41 52 6b 3b
       -0.035986602 -0.0017192888 -0.040511888 0.0035907181
000270 bc ca 2d 3d 72 91 13 bd b8 a4 a9 bd 6e 24 da 3d
       0.04242967 -0.03602738 -0.08283371 0.1065148
000280 73 94 04 3e 54 55 32 3d 07 14 a4 bd 31 c0 10 bd
       0.12947254 0.043538406 -0.080116324 -0.035339538
000290 47 09 43 bd 19 94 79 bd 62 10 1b be 70 c7 9f bd
       -0.04761627 -0.060932253 -0.15142968 -0.078017116
0002a0 1c 64 a4 3d ca 0a 90 3d 8f c7 7d bd 61 39 60 3e
       0.08026907 0.07033308 -0.061957892 0.21896888
0002b0 df 2c 3c 3b 2c f9 10 3c 86 3a 63 3d ad 20 b9 3c
       0.0028713269 0.00884847 0.055475734 0.022598589
0002c0 ec c4 82 3c 15 48 b4 bd 2a 30 4e bd 65 eb c9 3d
       0.01596304 -0.08802811 -0.0503389 0.09859351
0002d0 50 f9 8f bc 6f b7 ae bd 82 9a f5 3c 46 05 bf 3d
       -0.017574936 -0.08531081 0.029980902 0.09327178
0002e0 be e5 79 3d 3a 60 08 3e da fb 0b be 6b d7 60 3d
       0.061010115 0.13317958 -0.13670292 0.05489294
0002f0 ff f5 63 bc 3e b7 45 bd c4 fa bd 3c 88 44 0f be
       -0.0139136305 -0.048270456 0.023190863 -0.13990986
000300 9a ff c6 bd 61 92 ae 3d 37 51 92 3c ff 4f 08 be
       -0.09716721 0.08524013 0.017860992 -0.13311766
000310 3f 8c 7f bd bd 65 81 bd be ff 2d 3d 72 a6 22 3d
       -0.06238961 -0.06318233 0.042480223 0.039709516
000320 ab 33 0e be 55 db 7a 3d 4e d2 5b be 7a cf 3e bd
       -0.13886897 0.061244328 -0.21466944 -0.046584584
000330 f1 12 da bb 84 da 15 be 66 07 aa bd 16 34 c5 bc
       -0.00665509 -0.14634138 -0.083021924 -0.024072688
000340 b1 62 89 3c 24 88 42 bd 57 e6 87 3d 01 09 12 3e
       0.016770693 -0.047493115 0.06635731 0.14261247
000350 a3 7e 33 bd 69 2a 5f bc 17 75 ff bd 7c 99 34 bd
       -0.043821942 -0.013620951 -0.12473505 -0.044091687
000360 61 82 e8 bc 16 51 48 be 18 de 84 bd 3f a8 26 be
       -0.028382482 -0.19562182 -0.064876735 -0.16275118
000370 67 a7 1f be aa 64 d2 3c 5a b2 ea 3d af 7e 1d 3d
       -0.15591203 0.025682766 0.11459799 0.038450893
000380 6f 3a 20 be 82 fb 52 bd 66 21 24 3d 8f bf 17 be
       -0.1564729 -0.051509388 0.040070914 -0.14819168
000390 f0 f6 f3 bc 6f a8 b7 3d 4c 67 5a 3d d2 87 cd bc
       -0.029780835 0.08967673 0.053321168 -0.025089178
0003a0 29 bf 51 bd e8 7e 14 3e 86 5c 95 3e f6 86 02 bc
       -0.051207695 0.14501536 0.29172152 -0.0079667475
0003b0 5e f4 3a 3d a0 7f a2 3d 52 9d 83 3d 53 c8 e0 bd
       0.045643203 0.07934499 0.06426491 -0.10975709
0003c0 07 e7 d8 bd 3f 07 e3 3d 45 92 d6 3d fe 54 e3 3d
       -0.1059094 0.110853665 0.104771174 0.11100195
0003d0 a9 6a fa bd 68 ca d4 bd be 59 57 3d e5 76 d4 3d
       -0.12227375 -0.103901684 0.05257582 0.1037424
0003e0 38 78 a4 bc 37 db 4d 3d 8c db ef 3c 41 a9 c2 3d
       -0.020076856 0.050257888 0.029279493 0.09504939
0003f0 69 e4 99 3d 67 aa c8 3d e5 3d 35 bc 09 a8 2e 3e
       0.07514269 0.09798127 -0.01106212 0.17056288

network_body._body_endoder.seq_layers.2.bias f4 [128]
000000 da ab 77 3c ee 9a de bc b9 bc d1 bc f9 b6 4b bc
       0.015116656 -0.027173486 -0.025602685 -0.012433761
000010 dc 9d 10 bd 69 65 c8 bb ad 4d 95 3b 7f e5 b6 3b
       -0.035306796 -0.0061156047 0.004556379 0.0055815573
000020 6c 60 20 bc d0 ef 13 bc 7e 75 69 bc 03 73 8c bb
       -0.009788614 -0.009029344 -0.014249204 -0.0042861714
000030 89 0c ed bc a3 51 58 3c 93 8d 69 bc f0 88 9a bc
       -0.028936641 0.013203057 -0.014254945 -0.018864125
000040 9a b8 3d bb 81 f7 9e 3b 7b 3a 55 3c c8 e9 7c bc
       -0.0028949142 0.004851282 0.013014431 -0.015436597
000050 37 0a 86 bb 9b 82 ef 3b 8a 96 d7 3b 83 07 a4 bc
       -0.004090573 0.0073092706 0.006579225 -0.020023113
000060 a0 91 8d bc 53 1a c1 3b 98 36 b4 bc 69 d7 ba 3c
       -0.017281353 0.0058930307 -0.021998689 0.022807794
000070 d3 b1 2f bb 85 fa 2c bc 9e fb b3 bb 01 96 f1 3b
       -0.0026808872 -0.010557775 -0.0054926416 0.007372618
000080 d6 8a 81 bc e3 44 30 3c 54 d2 98 3a 62 44 11 bc
       -0.015813272 0.010758611 0.0011659362 -0.008866401
000090 c9 53 ac bc 6d 83 90 bc 51 16 4e 3c 7a e4 ca bc
       -0.021036046 -0.017640794 0.012578563 -0.02476715
0000a0 02 71 8d 3b ac cc c9 bc 51 8c f4 3b d0 ca 38 3c
       0.00431645 -0.024633728 0.007463016 0.011278823
0000b0 7b 01 41 3c f7 ad 88 bb 1e 12 3c bc cc 7b df bc
       0.011780138 -0.004171129 -0.011478929 -0.02728071
0000c0 35 29 f4 3b f4 08 ce 3a 7b 53 15 3b 68 65 08 3b
       0.0074512013 0.0015719221 0.0022785354 0.0020812396
0000d0 3c 50 20 3c e5 74 84 bc ba b9 9d 3c ec 70 e4 ba
       0.009784754 -0.01616902 0.0192536 -0.0017428673
0000e0 52 9c 4e bc 38 a1 9c bc 3c 5c 65 3c 77 dc c3 3b
       -0.012610512 -0.019119844 0.013999041 0.005977209
0000f0 f4 a2 b2 bb 0d 41 49 bb 64 4c 07 3c ca bc be bc
       -0.0054515544 -0.003070894 0.008257959 -0.023283381
000100 96 51 9b 3c 0d 33 a6 38 c8 3f 30 bc 33 d2 d8 3b
       0.018959802 7.925006e-05 -0.010757394 0.0066168546
000110 19 84 05 3b 52 eb fc bb 5a 63 31 3a a4 0b 09 bc
       0.0020372926 -0.007718482 0.00067668187 -0.008364592
000120 63 8d ad ba 32 89 58 3c 8f f5 ed 3b e7 90 ec bb
       -0.0013240989 0.013216304 0.007261939 -0.007219422
000130 98 39 c0 bb f0 04 40 3c 8b e2 8d 3b 39 b5 a8 bc
       -0.0058662407 0.011719927 0.0043299845 -0.020594226
000140 93 a6 ae bc 5c 61 82 3c e5 cb 1d 3c a4 24 7d bc
       -0.021319663 0.015915565 0.009631132 -0.01545063
000150 8e 32 3e 3c d2 b6 85 bc 78 01 d8 3b 69 91 ac bc
       0.011608733 -0.016322527 0.006591972 -0.02106543
000160 8d a8 ee bc e7 6b 2c 3c 4f 92 c6 bb c1 2d d1 bc
       -0.029133106 0.010523773 -0.006059922 -0.025534512
000170 c1 30 a7 3b 1a 90 87 3b 12 c9 72 bc 63 3e d5 bc
       0.0051022475 0.0041370513 -0.014818447 -0.026030725
000180 c9 c6 4d bc 61 3f 0a 3b 54 3d 97 3c 55 3c ef bb
       -0.012559601 0.0021094906 0.01846186 -0.0073008933
000190 39 d7 b6 bc 83 60 a2 bc 78 46 b7 3a ab d9 b0 bc
       -0.022319423 -0.019821411 0.0013982793 -0.021588167
0001a0 ec 2b 70 3c 32 7f 92 38 b6 2a f1 bc 3c 3f d3 b9
       0.014658909 6.9855145e-05 -0.029439311 -0.0004029217
0001b0 43 13 0f 39 a1 ac 3a 3c d9 b9 db bc a1 2a 8d bc
       0.00013644718 0.011393697 -0.026822018 -0.017232241
0001c0 eb 42 22 bc 5c 36 ca bc 8f 14 f5 3b 3e c8 6d 3c
       -0.00990365 -0.024684124 0.0074792574 0.0145130735
0001d0 c4 a7 66 3c 69 35 2c 3b 78 64 77 3c ed 12 89 bc
       0.014078084 0.0026276952 0.015099637 -0.016732657
0001e0 3b b2 73 3c 0a 2c 3f bb 34 e5 06 bd 23 ad c8 b9
       0.014874036 -0.0029170536 -0.03293343 -0.0003827597
0001f0 70 33 ca 3b d5 6d 7b bc fa b2 55 3c 5b ea 73 3c
       0.0061706826 -0.01534601 0.01304316 0.014887418

action_model._continuous_distribution.mu.weight f4 [1, 128]
000000 e1 c0 da 3c 5d 5a e4 bb e4 e7 dd 3a d1 12 b4 bc
       0.0267033 -0.00696878 0.0016930071 -0.021981629
000010 1c 48 75 3a d7 8d 54 3b 6f d5 97 bb cc f1 e0 3b
       0.00093567534 0.0032433176 -0.0046335976 0.006864762
000020 86 bd bb 3b de 25 d1 bc ed ff 99 3b 76 d5 21 bc
       0.00572938 -0.025530752 0.004699698 -0.009877553
000030 ef 08 1a bb d3 e7 1c 3c 2c 1d 0b bb a0 f3 a7 bc
       -0.002350386 0.009576756 -0.0021227105 -0.020501912
000040 b9 1d 93 ba 71 5e 46 3c 77 f4 ba 3c 11 4f 68 bb
       -0.0011224068 0.0121074775 0.022821648 -0.0035447518
000050 68 c6 98 3b 9b d9 92 3c 01 d8 82 3a a7 3c b0 3b
       0.0046623237 0.017926028 0.0009982587 0.005378324
000060 89 62 23 bd a9 b0 56 bc 14 8e 9b ba 22 41 09 3c
       -0.039888892 -0.0131036425 -0.0011867904 0.008377345
000070 8b f4 06 3c 5c 07 57 bc a2 38 bd 3b 10 7e 56 3b
       0.0082370145 -0.013124313 0.0057745734 0.0032728948
000080 90 d1 7c bc 69 5f 54 3c 7e 64 08 bc 5b c8 fa ba
       -0.015430823 0.012962201 -0.00832474 -0.0019133197
000090 4f ef 27 bb bd 57 73 bc 40 ca 54 3c 3d 03 17 bd
       -0.0025624817 -0.014852461 0.012987673 -0.036868323
0000a0 a8 68 3f 3c b9 56 46 bc cd 23 71 3b 4c 7d 06 3d
       0.011682667 -0.012105637 0.003679502 0.032834336
0000b0 2b 22 ee 3c 23 28 cb bc 70 c2 c3 bc 4a eb d5 bb
       0.029069027 -0.024799412 -0.023896426 -0.006528293
0000c0 d4 a8 f8 3a 4e 02 80 3b a1 0a 75 3a e9 87 04 bd
       0.0018971213 0.0039065247 0.0009347592 -0.032356177
0000d0 f5 be 32 3c 82 09 1f bc 35 da c7 3c a8 40 21 3c
       0.0109097855 -0.009706857 0.024396041 0.009842075
0000e0 09 e0 5b bb 7b 96 b1 bc b9 04 92 bc 1d 34 b6 3b
       -0.0033550283 -0.0216782 -0.017824518 0.0055604116
0000f0 c3 15 44 bc ed 8c 2c bc e8 49 f6 3c 12 25 c2 ba
       -0.011968079 -0.010531646 0.030064538 -0.0014812073
000100 18 63 c1 3c c8 83 1e bb 67 02 b4 bc 4a de 15 bd
       0.023606822 -0.0024187434 -0.021973802 -0.036588944
000110 16 78 20 3b 11 12 64 bc e1 b2 01 bc 10 be 0c bd
       0.002448564 -0.013920323 -0.007916183 -0.034360945
000120 9a 05 32 3c 42 19 e2 3c b6 1f e4 3b e1 1b f7 3c
       0.010865593 0.027599934 0.006961788 0.03016466
000130 7b 5c 9d bc 99 41 b2 3c fe d9 49 3c 04 7c 01 bc
       -0.019209137 0.021759795 0.01232004 -0.007903103
000140 66 ef a2 ba 48 f4 09 bd 18 9d 65 3c 27 92 aa bc
       -0.0012430965 -0.03368023 0.014014505 -0.020821644
000150 03 04 e4 3c 2c bc eb bb 70 5f 3a 3c 1a 6f f9 bc
       0.027833944 -0.0071940627 0.011375293 -0.030448485
000160 cd 1b d0 bb a3 dd 76 3c 37 04 a3 38 cc 22 43 bc
       -0.0063509704 0.015067491 7.773231e-05 -0.011910152
000170 de 89 e9 3c aa 1b 7a bd 2f ac 2b bc 55 51 01 3b
       0.028508123 -0.06106154 -0.0104780635 0.0019732316
000180 8d c7 33 bc 80 b6 5b 3c c0 79 59 3c 07 3b 21 bb
       -0.01097287 0.013410211 0.013273656 -0.0024601833
000190 26 d5 2b bc ee cb 5d bc 87 42 29 3b a9 02 51 bc
       -0.01048783 -0.01353739 0.0025827007 -0.012756982
0001a0 93 99 f5 3c 6f 9c 63 3b 5b 00 5d 3b a4 5e 78 3b
       0.029980456 0.0034730693 0.0033722136 0.0037898207
0001b0 38 eb 23 3c 48 61 e6 3c c3 51 c1 bc 65 4f aa bb
       0.010004811 0.02812256 -0.023598557 -0.005197453
0001c0 5c 2b 4c bc 2e fa 4f bb 09 f3 ce bb d6 94 91 3c
       -0.01246151 -0.0031734812 -0.006315593 0.017771166
0001d0 6c 7d 5e 3c e7 93 a1 bc d7 a1 50 3c 4f 0b 42 3b
       0.013579708 -0.019723846 0.012733898 0.0029608791
0001e0 76 0e 63 3d 55 8c 0e bb 14 6a 73 3b 33 d3 05 bc
       0.055433713 -0.0021751125 0.0037142085 -0.00816803
0001f0 54 e8 60 bd 9d 66 2f bc 98 57 1f 3c b8 3e bb 3c
       -0.054909065 -0.010705617 0.009725474 0.022857055

exp_avg f4 [128, 5]
000000 77 d3 c7 b9 fd 9c 51 3a cc 09 89 b9 ff 6d 92 bb
       -0.0003811379 0.00079961104 -0.00026137976 -0.004468679
000010 cb ba a3 39 d0 be da 38 97 51 37 b8 a8 3b af b8
       0.00031228954 0.00010430592 -4.3706586e-05 -8.355762e-05
000020 34 34 23 ba c2 c3 e3 39 b7 00 86 b9 55 c3 cc 37
       -0.00062257354 0.00043442665 -0.00025559004 2.4409654e-05
000030 1c e0 69 39 13 2e e4 38 97 a2 94 b9 cf 94 f3 39
       0.00022304099 0.00010880469 -0.000283499 0.00046459443
000040 7f 00 30 bb c5 f2 8a 3a 4a b4 13 3c 39 47 bd 39
       -0.0026855764 0.0010600915 0.009015152 0.00036101954
000050 02 84 11 3b 63 38 46 3a 1d 7a 95 b9 49 b7 21 bb
       0.0022203927 0.0007561503 -0.00028510476 -0.0024675897
000060 ba 0a 4b b9 eb db ef 3a 1b 00 b5 3a 3d fe 55 ba
       -0.00019363585 0.0018299794 0.0013809236 -0.00081631896
000070 5e 5c 14 3a b4 d9 e0 ba ae 7c d5 39 ae 0c a6 b7
       0.0005659516 -0.0017154724 0.0004071942 -1.9794647e-05
000080 23 f2 d0 39 bb 9d 30 ba b5 be 90 3a 6c 9f 3c b9
       0.00039853257 -0.0006737371 0.0011043163 -0.00017988466
000090 f5 79 9d b9 e8 ac 92 b8 0d ab ac ba 36 9e 09 39
       -0.0003003624 -6.994029e-05 -0.0013173536 0.00013124276
0000a0 69 8f 00 b8 b4 5a 3d b9 a3 0d 8d 38 4b 0e 07 ba
       -3.065114e-05 -0.00018058234 6.725944e-05 -0.0005151971
0000b0 a6 26 8d 38 02 c0 52 3b e3 99 c0 39 72 1c 2f 3a
       6.730603e-05 0.0032157903 0.00036735748 0.0006679959
0000c0 0f 40 1e bc e3 81 21 3b cf d1 1a ba 4e 81 df 3a
       -0.009658827 0.002464407 -0.00059058977 0.0017052086
0000d0 9d b7 04 ba f3 2e c4 3b d5 c9 20 bb 2a 35 1c 39
       -0.0005062761 0.005987042 -0.0024534364 0.00014897124
0000e0 46 b4 8a 3a 28 40 a6 b9 45 1c 12 3a a4 7e 4c ba
       0.001058229 -0.00031709787 0.00055736705 -0.00078008533
0000f0 39 dc 81 b9 5c 7b b1 3a 08 38 11 ba 20 e8 b3 bb
       -0.00024768876 0.0013540792 -0.00055396603 -0.005490318
000100 8e 22 27 b9 24 3b cf 39 89 88 11 ba 6a c3 41 39
       -0.00015939234 0.0003952618 -0.00055516564 0.00018478712
000110 30 2a 77 3b e5 3b 3f 3a d7 dd f1 ba d0 da 91 ba
       0.0037714355 0.0007294997 -0.0018452954 -0.0011127833
000120 ff 2b 17 3a 96 ea 87 3a d7 ad 1b 3a 88 f7 a8 b8
       0.0005766749 0.0010369595 0.0005938685 -8.0569705e-05
000130 2a 44 92 3a e2 33 f4 b8 b3 0b b2 3a de bc a8 ba
       0.001115923 -0.000116444906 0.0013583809 -0.001287367
000140 26 16 bf ba 73 28 c5 ba 42 ab 54 3a 22 a5 db ba
       -0.0014578744 -0.0015041962 0.00081126776 -0.0016757587
000150 89 29 1a 3b 3a 0f c7 39 9f 3f a6 3a 52 02 c7 b8
       0.0023523292 0.00037967582 0.0012683755 -9.489492e-05
000160 77 52 b2 3a 99 7b 2e ba 39 29 ba ba 01 b0 bd 3a
       0.0013604899 -0.0006655991 -0.0014202959 0.0014472009
000170 4b 3d 74 39 4e f3 94 3b 73 eb fd ba 50 99 b7 b9
       0.00023292487 0.0045456057 -0.0019372537 -0.00035018707
000180 dd 93 d7 ba 13 af 3e 3a 4f b7 63 39 eb e0 e8 3a
       -0.0016447265 0.0007274013 0.00021716695 0.0017767226
000190 b5 19 7d ba 14 05 4f 3b 6e 1a 47 ba 0e c1 5e bc
       -0.0009655015 0.003158872 -0.0007595186 -0.0135958325
0001a0 13 e1 5b 39 05 7b d8 b8 55 0d 39 ba aa 68 c0 38
       0.00020969314 -0.00010322597 -0.00070591766 9.174769e-05
0001b0 57 fc ac 39 df 60 8c 39 c8 56 d0 3a 36 5c ed ba
       0.00032994404 0.00026775055 0.0015895003 -0.0018109146
0001c0 ec 70 83 3a 4e 24 dd 3a 4c c9 cf 3a d0 15 a8 ba
       0.001002816 0.0016871782 0.0015852838 -0.0012823883
0001d0 02 6e bf ba 0c 2b c8 39 0d b8 82 ba 09 c4 46 3a
       -0.0014604928 0.00038179045 -0.0009973064 0.0007582312
0001e0 70 12 ca 39 f9 69 84 3a e3 1d 1f ba b6 ef 3a 3b
       0.0003854218 0.0010102383 -0.0006069822 0.0028524227
0001f0 ce 1d 94 ba 01 48 39 ba 3f 22 8f 3b a8 c6 fb ba
       -0.0011300386 -0.00070679194 0.004368096 -0.0019208984
000200 98 65 58 bc 38 ce ab ba de 11 9c b9 6c b6 87 3a
       -0.013207816 -0.0013107723 -0.0002976795 0.0010354049
000210 b1 d1 72 b6 ff 2a 38 3b 75 ae f0 b9 4b 76 a9 b9
       -3.6182867e-06 0.00281018 -0.00045906348 -0.00032322327
000220 0a de 13 3b d6 60 53 ba 23 be ed bb c5 f6 84 ba
       0.0022562766 -0.0008063441 -0.007255332 -0.0010144344
000230 01 02 e2 3a 09 81 38 3a b3 02 85 b9 71 47 e8 3b
       0.0017243029 0.00070382707 -0.00025369748 0.0070885946
000240 05 86 e6 ba 5b 4f ec 39 bf b9 1b ba b7 56 27 b7
       -0.0017587548 0.00045072552 -0.0005940459 -9.974166e-06
000250 f4 d3 b8 ba f5 37 0d 3a b9 e5 de b8 a3 26 75 3a
       -0.0014101253 0.00053870614 -0.00010628574 0.00093517656
000260 d1 95 00 37 d5 7f 42 3b bf ef 9a ba c3 98 15 ba
       7.664276e-06 0.0029678245 -0.0011820717 -0.0005706662
000270 26 4b 70 bb ac 4b 7c 3a 54 82 04 bc ed de 58 3b
       -0.0036665886 0.0009624313 -0.008087713 0.0033091858
000280 a0 ce 41 39 f5 c4 c2 ba 3c c3 19 3a bc 56 a2 3b
       0.00018482888 -0.0014859723 0.0005865579 0.004954187
000290 9d fa 8f 39 c9 95 27 ba 2e 30 37 bb a5 9b 85 3a
       0.00027461807 -0.0006392864 -0.0027952301 0.001019348
0002a0 68 a3 e9 bb 73 aa 46 3b cf 5e d7 b9 b8 4e 06 3b
       -0.0071300752 0.0030313998 -0.00041078634 0.0020493697
0002b0 99 7c 5f ba d8 3c e5 bb 86 35 71 b9 86 a2 da 38
       -0.00085253414 -0.0069957785 -0.0002300349 0.000104253224
0002c0 41 aa df 3a 54 76 2a ba 67 b4 a8 3b db db 1b bb
       0.001706429 -0.00065026176 0.0051484588 -0.0023782167
0002d0 81 62 04 ba c9 9b 43 3b 6a f1 91 ba 22 14 1c bc
       -0.00050500786 0.0029847494 -0.0011134569 -0.009526284
0002e0 a7 35 3d ba 18 5e 7a b9 82 21 3d 39 a4 1f cc b8
       -0.00072177727 -0.0002387691 0.00018036927 -9.7333716e-05
0002f0 d2 2b 3a bb 48 0d df 39 72 82 3c ba f9 d2 1b 3a
       -0.0028407467 0.0004254377 -0.0007191069 0.0005944218
000300 61 9c 4f 38 75 16 c1 3a 89 ed e7 b9 7f 1c e2 b7
       4.9498285e-05 0.0014731424 -0.0004423673 -2.6954569e-05
000310 47 93 07 37 ba a2 c0 b7 18 de bc ba de 28 bf b8
       8.080918e-06 -2.2963959e-05 -0.0014409451 -9.115202e-05
000320 f3 42 c0 39 a6 35 b4 ba df cc 0a 3a fa 63 b9 3b
       0.00036670975 -0.0013748899 0.00052948104 0.00565767
000330 6e c3 be 35 af ac 51 bb bb 02 09 bb 00 9e 0a 3b
       1.4212981e-06 -0.0031993797 -0.0020906169 0.0021151304
000340 9a 16 d3 38 ab 96 49 3b 9a e0 09 ba 53 db 3d b8
       0.00010065474 0.003075997 -0.00052596035 -4.5265373e-05
000350 73 2d 4f b7 99 a1 80 bb f3 02 7c 3a bb cd d9 ba
       -1.2348743e-05 -0.003925514 0.00096134766 -0.0016617099
000360 ef 5c 72 3b 61 75 c3 ba d8 b5 b5 bc 99 90 9a 3a
       0.0036981662 -0.0014912301 -0.022181436 0.0011792361
000370 af c9 48 ba 19 2c b1 39 a7 1c 2b 39 e2 e1 5f 3b
       -0.0007659448 0.00033792926 0.00016318505 0.0034161736
000380 08 36 5b ba cb 03 25 38 3d 05 d7 bb 90 f4 2a 3b
       -0.00083622383 3.9342598e-05 -0.0065619037 0.0026085712
000390 ae 3f 17 3c 87 da 8b 3b 2e 85 8f ba ce 4d 15 ba
       0.009231491 0.004267994 -0.0010949725 -0.0005695493
0003a0 48 98 6d 38 33 64 9a ba 76 02 92 b8 47 f3 32 b9
       5.6647026e-05 -0.0011779129 -6.962281e-05 -0.0001706603
0003b0 46 fb 9c b9 cd 4d c1 37 8e fb 0c bb bf 2c 21 3a
       -0.00029941852 2.3043622e-05 -0.0021512243 0.000614833
0003c0 07 5d db b9 04 0f 7f ba 54 15 8a 38 6f 59 01 b8
       -0.00041840246 -0.00097297155 6.5843255e-05 -3.083929e-05
0003d0 df 33 c6 39 91 a8 d6 b8 c9 20 11 3b c4 39 74 ba
       0.0003780415 -0.00010235713 0.0022144786 -0.0009316469
0003e0 1d d3 5a bb 3b b2 38 ba 82 20 35 3a 64 5e 3e 3b
       -0.0033389993 -0.00070456014 0.0006909446 0.002904796
0003f0 20 d7 9e ba 66 b7 da 3a d3 db 1c bb 43 99 4c ba
       -0.0012118556 0.0016686737 -0.0023934736 -0.000780482

exp_avg_sq f4 [128, 5]
000000 2c 06 9e 37 d1 c8 de 38 1f d3 4d 37 c6 a5 61 3a
       1.8837942e-05 0.0001062319 1.2268108e-05 0.0008607771
000010 9c 96 56 38 9b 38 86 36 f0 12 78 37 eb 62 86 36
       5.1161842e-05 4.000101e-06 1.4786361e-05 4.0050268e-06
000020 f9 88 0f 39 19 6b b1 37 4c 1f f4 36 46 c0 e5 37
       0.00013688569 2.1149915e-05 7.27541e-06 2.7388462e-05
000030 b9 64 9a 36 b0 15 89 39 3b 5e e8 37 83 94 39 37
       4.6012833e-06 0.00026146835 2.7700435e-05 1.1061437e-05
000040 71 63 8e 38 0d 07 5a 37 06 29 2e 3a dd d0 57 38
       6.78961e-05 1.2995454e-05 0.0006643686 5.1454514e-05
000050 a4 f1 af 37 2a 6d e8 38 7e 98 6b 37 66 c9 59 3a
       2.0974148e-05 0.000110829555 1.4042596e-05 0.0008307904
000060 4d b3 9c 38 91 dd 16 37 55 1b 4e 38 26 c3 23 37
       7.472057e-05 8.992284e-06 4.9139682e-05 9.760994e-06
000070 3b ef b0 39 12 d3 35 38 55 a5 92 37 68 ad 0c 39
       0.00033747577 4.3350337e-05 1.7481545e-05 0.0001341604
000080 50 02 66 37 e4 9a 24 3a 85 f7 5d 38 9d da 00 37
       1.3709607e-05 0.0006279184 5.2921027e-05 7.680294e-06
000090 ff 2e 1e 38 ec 79 9d 36 74 1f d8 39 c4 c9 f4 37
       3.7713904e-05 4.693158e-06 0.00041222165 2.9181021e-05
0000a0 a7 82 34 36 86 89 66 37 66 d6 50 36 bc a8 8d 38
       2.689814e-06 1.3741088e-05 3.1119212e-06 6.754833e-05
0000b0 60 10 47 37 5c 97 a1 38 7f 2c 03 3a fc 7e 33 38
       1.1865137e-05 7.705271e-05 0.0005003884 4.279519e-05
0000c0 14 44 a3 3b c6 85 98 39 46 81 71 37 45 7a 2a 38
       0.004982481 0.00029091368 1.4394818e-05 4.064503e-05
0000d0 27 63 50 37 d7 0a 96 39 61 fb 3d 38 57 cd 7e 37
       1.2420852e-05 0.00028618306 4.5295226e-05 1.5187389e-05
0000e0 2d c3 c5 38 e8 16 9f 37 79 70 3e 3a b0 73 8d 38
       9.430046e-05 1.8964944e-05 0.00072646845 6.7449524e-05
0000f0 b5 ef bd 36 e1 8c d5 37 89 ba 17 37 c9 78 d7 39
       5.6605445e-06 2.545718e-05 9.0437325e-06 0.00041097988
000100 63 93 8a 38 45 0b 47 37 00 d1 88 38 13 ff c1 37
       6.607806e-05 1.1863948e-05 6.5239146e-05 2.3126171e-05
000110 ff 39 c3 39 1d 3c da 38 44 90 c1 37 8b 41 23 39
       0.0003723651 0.00010406247 2.3074572e-05 0.00015569308
000120 02 0d cf 37 97 b8 57 3a 29 ac b0 38 d5 45 1d 37
       2.468238e-05 0.0008229105 8.424401e-05 9.374188e-06
000130 32 0f 4f 38 04 40 c2 36 3d a7 49 3a ec 10 7b 38
       4.9366798e-05 5.789103e-06 0.0007692462 5.9858823e-05
000140 ca 16 d7 36 3e 88 31 38 00 e5 e9 36 0f db c0 39
       6.4101523e-06 4.2326974e-05 6.9706e-06 0.00036784305
000150 fd b0 30 38 6f ad 8b 36 77 2b c4 37 56 36 b7 36
       4.2126503e-05 4.162713e-06 2.338526e-05 5.4601505e-06
000160 62 e9 b9 38 77 51 6c 37 84 a8 fd 37 69 0a de 38
       8.864958e-05 1.4085664e-05 3.0238421e-05 0.00010587724
000170 92 dc ab 37 f3 27 05 3b 8d 50 35 39 e2 6d 39 37
       2.04875e-05 0.0020318 0.00017291513 1.1052443e-05
000180 79 6c 75 38 65 73 aa 37 ea 13 ee 39 7b b0 a9 38
       5.8513575e-05 2.0319314e-05 0.00045409735 8.09142e-05
000190 6d 3e 45 38 3c 4f 90 39 da 71 27 38 b2 c5 40 3b
       4.70266e-05 0.00027524855 3.9921935e-05 0.002941471
0001a0 eb aa 80 39 78 16 eb 36 09 30 26 38 56 d1 c5 36
       0.00024541406 7.0061615e-06 3.962222e-05 5.8954274e-06
0001b0 77 53 88 39 ac 29 cc 37 80 45 c1 37 33 7d 17 39
       0.00026002128 2.43381e-05 2.3039756e-05 0.00014447123
0001c0 12 5f c8 37 1a 0c a9 3a 05 be ce 38 75 78 6d 37
       2.3886128e-05 0.0012897283 9.858239e-05 1.4154347e-05
0001d0 7e 43 06 39 4f b2 72 37 78 cb 0b 3a 3e 05 1d 38
       0.00012804379 1.446584e-05 0.00053327484 3.74366e-05
0001e0 e2 f2 96 36 0c e6 b5 37 fa a9 8f 36 42 43 70 39
       4.4986236e-06 2.1684005e-05 4.28152e-06 0.00022913239
0001f0 cd ee ed 37 e1 12 e3 37 7a 12 39 39 69 40 3a 38
       2.8363802e-05 2.70693e-05 0.00017649858 4.4405842e-05
000200 a2 ae 7a 3a a5 dd 1d 39 87 3f d3 36 34 a3 0c 38
       0.00095627655 0.00015055256 6.2956856e-06 3.3530596e-05
000210 3f f5 d1 36 6c 91 a4 39 e5 f7 f6 37 89 b3 64 37
       6.257236e-06 0.00031388865 2.944092e-05 1.363166e-05
000220 e4 84 b6 38 bc 45 9a 37 fa b5 11 3a ef aa b5 38
       8.703189e-05 1.8390703e-05 0.00055584277 8.6625914e-05
000230 72 e6 03 37 97 e3 bd 38 82 1b a4 37 bf 28 a6 39
       7.861863e-06 9.054614e-05 1.9563133e-05 0.00031692346
000240 77 57 53 38 ce 03 f2 36 dd a4 25 38 65 82 27 37
       5.0387778e-05 7.212605e-06 3.9492606e-05 9.9843355e-06
000250 df 0e 8f 39 3d 5d f4 37 d9 4c 36 37 3f f4 3f 38
       0.00027286165 2.9130484e-05 1.0865938e-05 4.576542e-05
000260 17 bc 45 37 00 ad 75 39 6f da 31 38 3c f1 63 37
       1.1785908e-05 0.00023429468 4.240352e-05 1.3586421e-05
000270 2d c9 d5 38 bf 4f 96 37 c5 e0 41 3a bb 7f 8a 38
       0.000101941034 1.7918528e-05 0.0007395859 6.6041444e-05
000280 d4 45 dd 36 7b fc 1d 38 ab 56 17 37 cc 1b b3 39
       6.5944423e-06 3.7666858e-05 9.02048e-06 0.0003416225
000290 a8 aa 6b 38 67 62 67 37 36 f3 c8 38 07 c1 49 37
       5.6187302e-05 1.3791584e-05 9.582045e-05 1.2025476e-05
0002a0 d8 d4 fd 39 08 d7 22 38 18 88 1c 37 2d 9e 61 38
       0.000484145 3.8824073e-05 9.330011e-06 5.3791493e-05
0002b0 ef 36 3c 37 dd 72 ae 39 78 f1 3a 38 e0 90 69 37
       1.1218463e-05 0.00033273446 4.457074e-05 1.3921614e-05
0002c0 4f 03 b8 38 96 e2 48 37 46 b8 be 39 71 3d 11 38
       8.77442e-05 1.1973685e-05 0.00036376918 3.4627916e-05
0002d0 d7 f9 10 37 e8 a3 39 38 56 ea 24 37 88 9f 13 3a
       8.641239e-06 4.4260087e-05 9.829722e-06 0.0005631377
0002e0 41 c2 53 38 e8 38 29 37 db 97 5e 38 5c 5b 33 37
       5.0487233e-05 1.00864345e-05 5.307035e-05 1.0690503e-05
0002f0 68 46 17 3a 4c 66 69 38 77 b5 d8 36 0e 69 1c 38
       0.0005770684 5.56468e-05 6.458427e-06 3.7291138e-05
000300 9a 9b 67 36 1f 23 d4 39 b2 0a b6 37 8b 7e e6 36
       3.4512254e-06 0.00040461958 2.1701071e-05 6.8692657e-06
000310 62 ff dc 37 fc 1a a9 36 93 0f 78 39 cb 7e ef 37
       2.6344966e-05 5.039734e-06 0.00023656925 2.8550063e-05
000320 96 8d 2d 37 94 07 32 38 9c c2 21 37 30 2b 33 3a
       1.0344569e-05 4.2445565e-05 9.641659e-06 0.00068347435
000330 d0 b0 64 38 14 a4 a2 38 37 35 f1 39 fc bc a6 38
       5.4524106e-05 7.755324e-05 0.0004600675 7.950698e-05
000340 c0 7c 7f 3b 28 1e c4 39 0a fd ac 37 f5 9d 0b 39
       0.003898427 0.000374065 2.0621828e-05 0.00013314917
000350 b9 0e 8b 37 c3 c5 80 3a 3a db 33 38 ac 36 97 38
       1.6576947e-05 0.0009824563 4.2881096e-05 7.2104245e-05
000360 c1 a3 c7 39 1a 40 6d 38 6b d2 8b 3b 6b f7 cb 39
       0.00038078244 5.6564902e-05 0.004267027 0.00038903518
000370 40 ef a9 37 82 33 e1 38 6c ea 9b 37 46 60 81 3a
       2.025778e-05 0.0001073843 1.8586601e-05 0.0009870611
000380 2a dc c1 38 ea 1b 58 38 2f 63 82 39 b5 21 88 38
       9.243966e-05 5.152441e-05 0.0002486943 6.491264e-05
000390 45 65 4c 3b d0 c8 9d 39 62 3f db 37 a7 ce 07 39
       0.003118829 0.0003009499 2.613635e-05 0.00012951587
0003a0 94 ed 00 38 ed 13 91 3a 1d 44 f7 38 47 50 9b 37
       3.073884e-05 0.001106856 0.00011790565 1.8514822e-05
0003b0 47 95 0a 39 35 ad f2 37 54 30 60 3a 15 18 f8 38
       0.00013216316 2.8929304e-05 0.00085521233 0.00011830047
0003c0 44 74 05 37 34 b7 83 38 5e c3 26 37 1d 23 92 39
       7.954488e-06 6.280691e-05 9.9398585e-06 0.00027873451
0003d0 07 65 c6 37 a0 89 eb 36 89 67 3b 38 6e 0d 00 37
       2.3650484e-05 7.0195674e-06 4.46807e-05 7.632521e-06
0003e0 77 0f cf 39 18 e4 1a 38 17 8a 9d 36 f3 4d e1 37
       0.0003949364 3.692889e-05 4.6950404e-06 2.6858388e-05
0003f0 c5 50 92 36 aa 68 43 39 38 34 f5 37 d0 36 d4 36
       4.360542e-06 0.0001863564 2.9230592e-05 6.3244734e-06

exp_avg f4 [128]
000000 ae b1 12 ba 67 c4 75 39 f4 5e bf b8 6c 61 31 3a
       -0.00055959343 0.00023438186 -9.125276e-05 0.0006766531
000010 6f d6 d9 38 a8 a2 ff 37 eb 61 52 b8 1c 0e 00 39
       0.00010387308 3.0474112e-05 -5.0159095e-05 0.00012212287
000020 71 59 57 b8 27 7e 45 39 18 cb 11 ba 1b ac c4 38
       -5.1343293e-05 0.0001883438 -0.00055615744 9.3780654e-05
000030 9f 08 02 ba 76 f5 c4 39 87 1c 85 38 58 39 c1 b8
       -0.0004960391 0.00037566916 6.347248e-05 -9.213638e-05
000040 be 52 82 39 6f aa 1b b9 1b 12 0f ba 27 e0 26 3a
       0.0002485718 -0.00014845443 -0.0005457715 0.0006365799
000050 36 b5 8a ba 18 2d 90 b8 38 bf fe 39 05 67 7b 39
       -0.001058257 -6.8748544e-05 0.00048589124 0.00023975603
000060 f3 7a 69 b9 90 58 52 ba 9f 6a 49 b9 71 c9 47 ba
       -0.00022266414 -0.0008024061 -0.00019208573 -0.00076212647
000070 1b b0 24 39 e9 a0 bb 38 95 12 cf b9 d2 a9 d3 39
       0.00015705863 8.946827e-05 -0.0003949596 0.00040371582
000080 05 cd d0 39 31 f4 2a 3a 9f 8e fe b9 0e a3 0f ba
       0.00039825603 0.00065213727 -0.00048552916 -0.0005479314
000090 90 02 52 ba 7f ad 9c b9 56 7e 04 b9 6c 02 64 b9
       -0.0008011246 -0.00029883903 -0.00012635565 -0.00021744677
0000a0 4f ef 04 3a cc 62 0f 38 6b 7e ae b9 e5 9c a3 ba
       0.000507106 3.418587e-05 -0.00033282055 -0.0012482671
0000b0 8b 2e 27 b9 1e e7 e1 3a 78 e9 20 ba 67 8b 34 b9
       -0.000159437 0.0017235016 -0.0006138305 -0.00017218069
0000c0 2b 04 e6 38 c7 08 6d b9 5a 3b cd b9 19 7e 72 39
       0.00010968031 -0.00022605351 -0.00039144867 0.00023125893
0000d0 52 12 7d b9 45 b5 5e ba 74 97 b4 b7 e0 12 83 3a
       -0.00024134785 -0.0008495639 -2.1528198e-05 0.0010000132
0000e0 37 44 94 3a a9 eb 8b 3a bf 61 20 b9 1d 6d 75 39
       0.0011311834 0.0010675091 -0.00015295202 0.00023405669
0000f0 9b 2e d8 b9 86 d0 84 39 a3 6c cc 38 d9 d5 25 ba
       -0.00041233454 0.00025332364 9.747713e-05 -0.0006326116
000100 a7 77 72 b9 08 53 fd 39 97 05 9b b9 f0 8b 1c b8
       -0.00023123492 0.00048317784 -0.0002956807 -3.7323625e-05
000110 ad 30 f0 b7 50 f5 82 39 4b cb ab b9 25 a6 09 ba
       -2.8632896e-05 0.00024978304 -0.00032767127 -0.0005250893
000120 3c 75 bd 37 01 49 aa 3a 6f 78 93 39 71 35 20 3a
       2.2585147e-05 0.0012991728 0.00028127755 0.0006111479
000130 ca e7 2a b9 4f 72 91 b7 74 9a 80 b9 8d aa cf 38
       -0.00016298812 -1.7338576e-05 -0.0002452914 9.902297e-05
000140 7f db 1d 3a d4 cf 23 ba de 75 ba ba ed 79 9a ba
       0.0006021782 -0.00062489253 -0.0014225801 -0.0011785604
000150 1b d4 bd b9 e5 2c 57 ba 48 15 1b ba 29 ee 0a b9
       -0.0003620692 -0.0008208289 -0.0005915952 -0.00013249427
000160 c9 61 51 3a c6 45 a8 b8 57 6b 0f 38 81 5b ff b9
       0.00079872884 -8.0238606e-05 3.4193825e-05 -0.00048705566
000170 06 38 58 39 4a d2 51 3a 6d ff d9 38 84 5a 87 39
       0.00020620236 0.0008004053 0.00010394943 0.00025816646
000180 ca a0 48 39 4b 1b 8f b9 1e 85 20 ba 37 9a 86 b9
       0.00019133385 -0.0002729542 -0.00061233516 -0.0002567337
000190 ac 04 36 b9 9c 4f 33 b9 9a d6 5e b9 38 f7 8f b9
       -0.00017358613 -0.00017100427 -0.00021251515 -0.00027459278
0001a0 24 d6 d1 38 fc e6 21 ba 15 6a 12 3a c9 9d 2f 39
       0.000100057834 -0.0006176082 0.00055852655 0.0001674808
0001b0 20 0d 1e 3a 63 91 a1 b9 db 3f a7 39 03 68 0d b9
       0.00060291775 -0.00030816635 0.00031900298 -0.00013485555
0001c0 80 8b b7 b8 71 1d 86 b8 23 68 1c 39 09 d7 2b b9
       -8.752104e-05 -6.395102e-05 0.00014916113 -0.00016387938
0001d0 8f b1 55 3a 46 da 7d 38 01 f1 c5 39 e2 b1 82 3a
       0.00081517635 6.0523183e-05 0.0003775433 0.0009971226
0001e0 0a b5 f1 b7 6e 0e f5 38 34 10 fa b7 35 18 8a 39
       -2.8813742e-05 0.00011685198 -2.9809868e-05 0.00026339447
0001f0 fb 46 9d 3a 15 75 1e ba 6f 46 f9 39 c9 81 0c ba
       0.0011999303 -0.0006044668 0.00047545458 -0.00053599157

exp_avg_sq f4 [128]
000000 d2 86 94 36 d7 e6 88 35 a1 0f f9 35 44 99 68 36
       4.426439e-06 1.0199973e-06 1.8556494e-06 3.4659906e-06
000010 4f 2a cb 36 27 dc 35 36 1d 17 a2 36 dc 35 32 36
       6.054797e-06 2.7099247e-06 4.830667e-06 2.6555417e-06
000020 01 80 0d 35 dc f1 f1 37 c3 52 40 36 df 87 8d 36
       5.2712863e-07 2.8842063e-05 2.8658403e-06 4.217945e-06
000030 5e 5e 1b 36 ba d5 59 36 1e a9 f7 36 30 1f 8a 36
       2.3151729e-06 3.2459925e-06 7.3808615e-06 4.116351e-06
000040 b3 b7 1f 36 d2 69 ab 35 14 fe 50 37 a6 ae 48 36
       2.3799773e-06 1.2771291e-06 1.2456923e-05 2.9903981e-06
000050 87 0f 75 37 d8 93 cd 35 5c eb 19 37 f4 1a 8e 36
       1.4606753e-05 1.5316718e-06 9.1743095e-06 4.2350675e-06
000060 25 9d e4 35 b6 cd f6 36 7d 13 19 36 a9 55 87 36
       1.7033059e-06 7.355319e-06 2.281012e-06 4.0332857e-06
000070 5a 21 34 36 9f 31 2e 36 2a 25 3d 36 9c a7 ad 36
       2.6841503e-06 2.5956904e-06 2.8184827e-06 5.175314e-06
000080 95 64 0d 36 50 0b 87 36 bb 96 05 36 49 f0 69 36
       2.1069184e-06 4.0246305e-06 1.990628e-06 3.485957e-06
000090 cd 91 3c 36 eb 4d 4a 36 e7 8f 28 36 6d 59 e3 35
       2.809905e-06 3.01457e-06 2.5117713e-06 1.6938844e-06
0000a0 0d f3 4d 36 24 99 eb 37 d6 e3 a7 36 f8 ea b4 37
       3.0688855e-06 2.8085495e-05 5.0035114e-06 2.1567088e-05
0000b0 ae 4b b7 36 85 82 82 37 d4 9a d6 36 ed 25 d6 36
       5.4626353e-06 1.5557986e-05 6.3957214e-06 6.382112e-06
0000c0 1f 0f 2b 36 9b 0a 0c 36 d6 3b 95 35 9a ac 11 36
       2.5489787e-06 2.08678e-06 1.111878e-06 2.170715e-06
0000d0 6a c8 cf 36 59 ae a7 36 fa c2 94 35 d9 eb cb 36
       6.192412e-06 4.9972846e-06 1.1083605e-06 6.0773277e-06
0000e0 4c 51 3c 37 3e f5 68 37 76 c4 49 35 1b 2e 35 36
       1.1224602e-05 1.38853775e-05 7.5164223e-07 2.6997939e-06
0000f0 04 13 70 37 5b df 44 36 73 d8 6d 37 f6 7f 87 37
       1.4309542e-05 2.9336286e-06 1.4176697e-05 1.615284e-05
000100 e4 ad 2b 38 ca c6 e7 36 4c 50 42 36 47 bb f8 35
       4.0931525e-05 6.9074786e-06 2.8954992e-06 1.8531945e-06
000110 90 d4 f5 35 fe 4d 0e 37 2c 4f 36 37 74 e5 f9 37
       1.8315786e-06 8.4820185e-06 1.0866479e-05 2.978996e-05
000120 52 f9 af 36 17 1f 7f 37 13 5c b6 35 f8 b0 1a 36
       5.244431e-06 1.5206423e-05 1.3586854e-06 2.3050798e-06
000130 86 38 21 36 34 42 4f 37 37 08 ff 35 07 26 ee 36
       2.402377e-06 1.2353576e-05 1.9001371e-06 7.0973797e-06
000140 cf dd 2c 37 97 fd 34 37 a6 ac 60 37 6d 33 92 37
       1.0303643e-05 1.078788e-05 1.3391638e-05 1.7428503e-05
000150 32 66 0c 36 5a 1e 0d 37 a7 68 ba 35 ff 80 30 36
       2.0921111e-06 8.411322e-06 1.3888538e-06 2.630113e-06
000160 82 82 cb 36 a4 b8 36 37 02 7a 4e 36 22 9c 5d 37
       6.0650646e-06 1.0891035e-05 3.076741e-06 1.3208979e-05
000170 fd 37 f4 35 7e fd 3a 37 c3 34 31 37 58 52 00 36
       1.8195711e-06 1.1145485e-05 1.0562307e-05 1.9121417e-06
000180 bd 97 6c 36 e7 a5 c7 35 4b 4e 85 36 6b 8e 4a 36
       3.5255064e-06 1.4874939e-06 3.9728234e-06 3.0183244e-06
000190 57 35 11 36 e7 f3 06 36 a1 dc 9f 36 89 22 95 37
       2.1637732e-06 2.0109526e-06 4.764254e-06 1.7778266e-05
0001a0 40 bf df 36 20 27 32 37 90 93 de 36 8b 53 e9 36
       6.6681823e-06 1.0618736e-05 6.633294e-06 6.953667e-06
0001b0 60 d9 e5 36 95 d1 4c 36 d7 3b 4c 37 aa f6 59 37
       6.8500376e-06 3.0520362e-06 1.217328e-05 1.2991639e-05
0001c0 58 e8 46 35 7b 3e 27 36 01 7c c9 35 a8 00 cd 36
       7.409885e-07 2.4921308e-06 1.5011757e-06 6.1095525e-06
0001d0 99 59 1c 37 ba 70 c7 36 25 ac 91 37 0a a5 e3 36
       9.319186e-06 5.9437853e-06 1.7365508e-05 6.7843403e-06
0001e0 ec bc ce 36 48 04 81 35 03 ce 00 36 5c f1 86 36
       6.161272e-06 9.612495e-07 1.91934e-06 4.021609e-06
0001f0 40 81 a7 37 20 7b 91 36 11 34 2b 36 53 bb 23 36
       1.9968138e-05 4.3356704e-06 2.5511292e-06 2.439793e-06
