Assets/IA/Pruebas/results/Pad11/PadBehavior/PadBehavior-982.onnx (onnx, 75090 bytes, 5 tensors)

network_body._body_endoder.seq_layers.0.weight f4 [128, 7]
000000 36 b9 7d 3e ca 39 ab 3e 4e f5 22 bd 8c a0 bf 3e
       0.24777684 0.33442527 -0.039784722 0.37427175
000010 d8 cd b1 be 59 82 87 3d bb 0b 18 3e 32 63 83 3e
       -0.3472736 0.06616659 0.14848225 0.25661618
000020 f1 bb 68 3e 7b 75 96 be 21 d9 3a 3e 57 01 6c 3e
       0.22727944 -0.29386505 0.1824689 0.23047386
000030 ee 8b 75 be 12 76 be 3e cb f9 55 bf 12 46 1b 3e
       -0.2397916 0.37199455 -0.8358428 0.15163448
000040 b3 ba 57 3f e2 ae 45 3d 66 a7 43 3f bd 6b 16 bd
       0.84269255 0.048262484 0.76427305 -0.03672384
000050 8c 09 32 be cb c3 ae be 2b e5 f1 be ee 8a 3a 3e
       -0.17386454 -0.34133753 -0.47245154 0.1821706
000060 40 82 59 be 22 2b a6 3e 6d c4 38 be 90 14 55 3f
       -0.21241093 0.32454783 -0.1804368 0.832345
000070 70 88 b4 be 09 19 9a 3e d0 b4 85 3e f0 e0 98 be
       -0.35260344 0.30097225 0.2611451 -0.29859114
000080 91 15 e8 be 1e b1 c2 3d e3 9b f4 3d 5e f1 ad 3e
       -0.45328954 0.09506439 0.119437955 0.3397321
000090 e9 ac c6 be b6 55 ce 3d 22 4f fa bd af a3 f4 3e
       -0.38803795 0.10074942 -0.12222125 0.4778113
0000a0 94 9c 96 be 0e 3d 55 3c 77 e6 2b 3f cb bc cc bd
       -0.29416335 0.013015045 0.67148536 -0.09996947
0000b0 f4 31 90 3d ab 93 32 3e 66 54 64 be fd cd 94 bd
       0.07040778 0.17439143 -0.2229782 -0.07265852
0000c0 05 7c 61 be 5a 05 d0 3d 2e 58 19 bd c3 06 c8 be
       -0.22019966 0.10157271 -0.03743761 -0.3906766
0000d0 46 89 c8 3e f0 46 0c 3d 03 c0 b8 3e 79 f8 0b bf
       0.3916723 0.03424734 0.36083993 -0.54676014
0000e0 97 db 60 3e 49 41 14 3f db 92 e9 be 0e 79 b8 be
       0.21958767 0.5791212 -0.45619854 -0.36029857
0000f0 0b 31 cb be f6 06 29 be 77 2e 54 3f aa d2 ec 3e
       -0.39685854 -0.16506562 0.828834 0.46254474
000100 51 b4 de 3e 8f 97 3d 3f a0 ee 8c be 58 28 14 3e
       0.43496946 0.74059385 -0.27525806 0.14468515
000110 e5 8a 05 3d ea bb 0d bf a8 b3 bd be 9c 96 1f 3e
       0.032603163 -0.5536486 -0.3705113 0.15584797
000120 a5 55 ef 3e ac 87 d8 3d 2e 3b 4f 3e 13 aa 45 be
       0.4674503 0.10572752 0.20237419 -0.1930316
000130 e6 0a dc 3d 72 3f 22 3d 6f be 96 3d 8f 96 fa bd
       0.10744266 0.039611287 0.07360541 -0.12235748
000140 7b 2b 98 be fa 45 bd be 65 ad 68 bf 23 c4 10 be
       -0.29720673 -0.3696745 -0.9088958 -0.1413732
000150 cc 5a a5 be 1b 75 1f 3e 3d 71 1b bf b0 31 4f bf
       -0.32295835 0.15572016 -0.6071966 -0.8093519
000160 af ea c2 3c 0d df 29 3f bc 18 07 3f de b6 7b be
       0.023793546 0.66355973 0.52772117 -0.24581477
000170 08 d4 9d 3e 6b 89 02 3f 5e 85 08 bf 0a 16 cf 3e
       0.3082583 0.50990933 -0.533285 0.40446502
000180 9a b9 42 bd 30 78 10 be ff 75 c1 be d7 61 b7 bd
       -0.047540285 -0.14108348 -0.37785336 -0.08954208
000190 a0 63 0d bf 34 a1 24 bc e0 74 be 3e 5b ef ad 3e
       -0.5523014 -0.010048199 0.37198544 0.33971676
0001a0 d7 37 9d be 42 f2 85 3e be 59 88 be 45 b5 89 be
       -0.30706665 0.2616139 -0.26630968 -0.2689611
0001b0 6c 6b ab be 59 77 da 3d 29 e6 e7 be e4 2a 39 bf
       -0.33480394 0.10667295 -0.45292786 -0.7233107
0001c0 b2 51 a5 be bb 98 6a be af a8 df be 72 33 d3 3e
       -0.3228889 -0.22909825 -0.43683383 0.41250187
0001d0 92 d4 96 3e 48 0d 92 3e 5f 24 87 3e 6e e1 d2 be
       0.29459053 0.28525758 0.26394936 -0.41187614
0001e0 cd 38 4d 3f f8 9d 54 bc 60 12 91 be d6 9f af be
       0.80164796 -0.012977116 -0.28334332 -0.34301633
0001f0 0c e8 3d be d5 ef e7 3c cb 72 4a bf f9 1c 25 3f
       -0.1854555 0.028312603 -0.7908141 0.64497334
000200 09 14 0f 3e d0 2a 1a be 0c 0e 1c 3e 7d ec 68 be
       0.13972487 -0.15055394 0.15239733 -0.22746463
000210 4b 08 59 3f f3 b2 8e 3d 70 ac 22 3e eb 3c f8 bd
       0.8477828 0.069677256 0.15886092 -0.12120994
000220 de da b0 be ce 8a 2f 3f 90 75 99 be 4c 2d 9c be
       -0.34541982 0.68571174 -0.29972506 -0.3050331
000230 dd e6 3f be 9c 3a 08 3f 29 dc c2 3e e6 2d 67 3e
       -0.18740411 0.5321443 0.38058594 0.22576103
000240 2e 4c d5 3c 6e b9 03 bf c3 e5 16 3d bb 9b eb bd
       0.026037302 -0.5145482 0.03684021 -0.115043126
000250 d8 12 20 3e 3b 41 21 3d 4d f3 23 3f 54 db aa 3e
       0.15632188 0.03936885 0.6404312 0.3337046
000260 0d 53 ef bc a9 9d 06 be b5 be 85 3e cd 25 fd 3d
       -0.029214406 -0.1314608 0.2612206 0.123607256
000270 c8 4e e7 3e 7d ea 78 3d 3d c4 63 bd c2 d4 34 bd
       0.45177293 0.0607705 -0.05560707 -0.044148214
000280 d6 e2 9d bc 92 55 9f 3e 4c 6a c9 be 7d ac 9d bd
       -0.019273203 0.31119972 -0.3933891 -0.07698915
000290 c8 ef fa 3e 23 1d 44 bf 6f 9f 0d bf e8 f3 53 be
       0.49011064 -0.7660696 -0.553214 -0.20698512
0002a0 4e 2d f8 bd 56 3b c4 3d b7 71 18 be 27 fd 7e 3f
       -0.12118016 0.0958163 -0.14887129 0.9960503
0002b0 dd 77 02 3f ad ac 0d bf fa 78 d1 3e 53 ca c5 3d
       0.50964147 -0.5534161 0.4091261 0.09657731
0002c0 38 fd 30 3e ce 86 f6 3d f9 98 c6 bc 7d f5 78 3e
       0.17284095 0.12037431 -0.024242865 0.24312396
0002d0 9d 23 e3 bd 55 ef 93 3e 72 cd 03 bf 9a 71 08 3f
       -0.11090777 0.28893533 -0.5148536 0.5329834
0002e0 8d 59 58 bf 2a db 25 bf 8d ad cf be 75 3f 93 3e
       -0.84511644 -0.6478754 -0.40562096 0.2875935
0002f0 e5 21 45 3e 19 a2 48 be 32 4d 08 3d 8e 10 3c 3d
       0.19251211 -0.19593085 0.033276744 0.045914225
000300 92 42 83 bb 59 be 2a 3e 4a 4e 15 3f 78 24 82 3e
       -0.0040057385 0.16674174 0.58322585 0.25418448
000310 8b ec c9 bd 63 b2 1b 3f fd 17 e2 ba 11 20 e2 3d
       -0.0985957 0.6081907 -0.0017249581 0.110412724
000320 7d 30 08 3e b2 04 f0 3e 83 85 ba 3e c1 81 f0 3e
       0.13299747 0.46878582 0.36429986 0.46973994
000330 2a a5 bf 3e 7d f6 56 3f 15 2e 55 be 22 f4 0e be
       0.37430698 0.8396986 -0.2081836 -0.13960317
000340 74 97 1e be 49 96 0d 3f 95 e8 3f 3e 9c 40 50 3e
       -0.15487462 0.5530744 0.18741067 0.20337147
000350 aa b0 a4 3e b0 4c 9e be 9d 04 af 3e 2f fd 70 3c
       0.32166034 -0.30917883 0.34183207 0.014708801
000360 c3 3e 00 be f2 a8 fd 3d b3 61 98 be 46 13 d9 3e
       -0.12523942 0.123857394 -0.2976204 0.42397517
000370 f2 d6 9f be f4 3b ca bb d1 e8 6c 3a f5 11 a7 be
       -0.31218678 -0.0061716978 0.0009037378 -0.32630888
000380 12 6d 0b 3f 49 9a f9 be d2 49 f1 3d 49 6f 80 3d
       0.54463303 -0.48750523 0.11781658 0.06271226
000390 70 a6 e9 bd 5b e6 d0 bd d7 85 fa bd 27 61 4a 3e
       -0.114086986 -0.10200187 -0.12232559 0.19763623
0003a0 5d 62 c0 3e 04 ec fa 3e f0 16 6d be dd ea b9 3d
       0.37575045 0.4900819 -0.23153281 0.09078
0003b0 77 50 0f bf c8 07 b4 be 6f 20 13 3f 78 b5 2e 3d
       -0.55982155 -0.35162187 0.57471365 0.04265353
0003c0 27 fe 95 bd 0f 29 44 3f ff c2 13 be 5d 5f 3e be
       -0.07323866 0.7662515 -0.14429854 -0.18591066
0003d0 c9 89 a0 be a3 4e 04 3e 77 ad 49 3e 1a 82 09 3f
       -0.31355122 0.12920623 0.19695078 0.53714144
0003e0 46 32 9c 3e c2 45 80 be 62 34 21 3f 95 59 1f 3d
       0.30507106 -0.2505322 0.62970555 0.03890379
0003f0 6a 72 31 3e b5 9b 9f be cc 8a 90 3d ae 92 96 3e
       0.17328802 -0.31173483 0.070577234 0.29408783

network_body._body_endoder.seq_layers.0.bias f4 [128]
000000 f1 39 5c bb 49 06 b3 ba db f7 ae 3a e5 7e 20 3b
       -0.0033603872 -0.0013658489 0.0013349013 0.0024489698
000010 19 dc 5a bb 94 bc 3b bb e4 08 8a 3a d1 2f 89 3a
       -0.0033395349 -0.0028646337 0.0010531214 0.0010466521
000020 dc 56 d7 3a 9f 21 85 3a 30 1b 05 bb c9 37 d2 bb
       0.0016429084 0.0010157115 -0.0020310394 -0.0064153415
000030 15 b0 98 ba 56 cb b1 bb 8f 7c eb ba 2c f6 f6 ba
       -0.0011649156 -0.005425851 -0.0017966199 -0.0018841675
000040 45 9d 62 3a b8 70 0f 3b f2 80 82 bb 9a 3c 96 ba
       0.0008644651 0.0021887254 -0.0039826566 -0.0011462152
000050 a0 c8 a5 ba 9b 11 e6 3a 71 67 d1 3a a1 0b be 3a
       -0.0012648292 0.0017552854 0.0015976263 0.0014499315
000060 44 df e9 3a 20 4f 46 ba f5 9a c0 39 59 b4 88 bb
       0.0017843028 -0.0007564891 0.00036736546 -0.0041718897
000070 30 21 48 bb b1 ce 4e bb bc 97 03 3a ad 18 67 bb
       -0.003053736 -0.0031556303 0.00050198636 -0.003526251
000080 c0 cc 2f 3b 22 41 57 bb 0d f1 28 bb a2 f4 be ba
       0.0026824921 -0.0032845219 -0.0025778443 -0.0014568756
000090 a7 8f 54 ba 1d 66 9c bb 76 88 4a bb 69 9a 2b bb
       -0.0008108564 -0.004772915 -0.003090409 -0.0026184565
0000a0 0b 4c d5 3a 97 ae e7 ba f5 bc 09 3b 49 2b f5 39
       0.0016273273 -0.0017675933 0.0021017168 0.00046762291
0000b0 59 66 a3 bb f4 67 50 bb 96 96 9f ba 2e 7f 98 ba
       -0.004986566 -0.0031800242 -0.0012175615 -0.0011634582
0000c0 e5 2a 16 bb ae 30 08 3b 5f f3 06 3b 8b 15 96 ba
       -0.002291375 0.0020780968 0.0020591838 -0.0011450512
0000d0 c5 34 03 bb c3 02 65 bb e0 62 02 bb 2e f3 a7 bb
       -0.0020020467 -0.0034944273 -0.001989536 -0.005125425
0000e0 ae fc cb ba b3 01 79 39 5d f2 89 bb 35 a8 d7 ba
       -0.0015562975 0.00023747123 -0.0042098 -0.0016453328
0000f0 b8 7f ee 3a 30 c2 3e bb 07 7d 1e 3a bc e8 70 bb
       0.0018196022 -0.0029107444 0.0006045852 -0.0036759814
000100 0d 2a c0 bb f1 6b 55 ba db 35 c3 3a 56 a0 05 bb
       -0.005864388 -0.00081413897 0.001489337 -0.0020389757
000110 7a ab 1f bb 35 ce 4a 3a 92 45 c8 ba 27 08 17 ba
       -0.0024363683 0.0007736416 -0.0015279523 -0.00057614077
000120 08 a8 83 ba 5f 94 05 bb 13 d5 ae b9 1d 57 05 3a
       -0.0010044584 -0.0020382626 -0.0003334662 0.0005086528
000130 a4 3f e7 3a f1 cd 96 bb 51 26 43 3b 57 28 c7 3a
       0.0017642868 -0.004602187 0.0029777477 0.0015194517
000140 c9 9b 6b bb 0f f7 3d 3b 0c e4 bb bb 9c 33 8e bb
       -0.003595101 0.002898637 -0.0057339724 -0.0043396484
000150 09 f0 20 bb 2f a1 e9 bb 9d 9a b3 ba 0d a3 9e 37
       -0.0024557135 -0.0071298103 -0.0013702695 1.8910994e-05
000160 60 54 31 bb 0d d2 f6 ba b7 4e df ba ff 08 4d ba
       -0.0027058348 -0.001883091 -0.0017037009 -0.000782147
000170 b4 40 e9 ba ef 94 7a 3a 46 58 1e bb 27 5e a3 ba
       -0.0017795772 0.0009558936 -0.0024161502 -0.0012463973
000180 26 92 37 bb 59 fe f5 3a 70 43 4d 3a fb 4c 79 bb
       -0.0028010695 0.0018767818 0.00078301784 -0.0038040269
000190 6a f5 be 3a 5e dc ab bb 06 9a 32 bb 9e d6 d7 b8
       0.0014568989 -0.0052447757 -0.002725245 -0.000102919745
0001a0 7f 96 70 b9 3b d1 47 3a 56 fc 23 3b 8e 58 d5 b9
       -0.00022944248 0.00076224253 0.002502223 -0.00040692504
0001b0 37 e8 2f 3a 6c 9a 36 bb bf fc 17 bb 3f 94 8c 38
       0.0006710323 -0.0027863039 -0.002319142 6.703333e-05
0001c0 4d f0 60 3a f7 c9 08 38 e7 5c 08 bb be 0e f6 ba
       0.00085807295 3.261302e-05 -0.0020807327 -0.0018772704
0001d0 7b 4d c1 39 f4 30 15 3a 71 a8 36 bb 9a dc 17 bb
       0.00036869556 0.00056911935 -0.0027871395 -0.002317226
0001e0 21 61 1f 3b f4 7a 49 bb d6 e8 40 bb 88 f7 4f bb
       0.0024319368 -0.0030743452 -0.0029435656 -0.0031733233
0001f0 46 29 74 ba 94 dd a8 b9 7f 89 55 bb 22 52 c1 38
       -0.00093140115 -0.00032208546 -0.0032583175 9.2182556e-05

network_body._body_endoder.seq_layers.2.weight f4 [128, 128]
000000 1a 3f 39 bc e0 4d 77 bd 61 c4 20 be 62 a7 c0 bc
       -0.0113065485 -0.060377 -0.15699913 -0.023517314
000010 00 f7 d4 3d 2a e6 8f 3c 0b 88 8c 3d b3 88 c6 39
       0.10398674 0.017565805 0.06861886 0.00037867352
000020 93 e4 cb bd 67 22 c8 3c da 0f d1 bc 9f 50 a6 3d
       -0.099557064 0.024430467 -0.025520254 0.08120846
000030 ac 33 71 bc cc 2b 7f bb 5f 8c 10 3c fd 08 ea 3d
       -0.014721792 -0.0038936017 0.00882253 0.11427496
000040 fe 6f bf 3d 1c 3f 37 3d d7 6e 66 3c 2a b1 b1 3b
       0.09347533 0.04473792 0.014064512 0.005422731
000050 b1 ab 21 3d 97 af b4 bd 86 06 4c bd 55 78 23 bb
       0.03947038 -0.088225536 -0.04981091 -0.002494355
000060 2f cb 19 be e7 0e 63 bd 9f 6c c4 bc 0d be 3c 3e
       -0.15018915 -0.055434134 -0.023977576 0.18431874
000070 a3 b8 82 bd 72 e8 21 3e 4a 2c 05 be 46 37 8f bc
       -0.06382873 0.15811327 -0.13005176 -0.017482411
000080 d2 30 27 3d 97 9c 20 3c 01 f0 34 3d 1c bd 04 be
       0.040818043 0.009802959 0.044174198 -0.12962765
000090 3c d4 23 3d cd 2f 4d bd 0c 00 4b be d1 42 6e 3e
       0.039997324 -0.050094415 -0.19824237 0.23267676
0000a0 16 a7 a2 bd 75 21 1e bd e9 b6 e7 bd 3d a0 9b bd
       -0.07942025 -0.038606126 -0.11314184 -0.075989224
0000b0 74 ca b4 bd 2c 4c a4 bc c0 c5 ab 3d b3 e1 33 3d
       -0.08827677 -0.020055853 0.08387327 0.043916415
0000c0 b9 07 01 3e 16 a5 ce bd 4a b3 74 3c f8 8c 9d 3c
       0.12600602 -0.100900814 0.014935324 0.019232258
0000d0 22 a2 49 3d d4 04 2e 3e 04 15 95 3d af 09 5f bd
       0.049226888 0.1699403 0.07279399 -0.054452594
0000e0 3f 9e db bc e9 73 eb bd 84 7d 21 bb 2e 9e 99 be
       -0.026808856 -0.114967175 -0.0024641464 -0.30003494
0000f0 f0 a2 96 3d fa 66 c1 3c d7 e3 b3 bc e9 bc 0f bc
       0.073552966 0.023608673 -0.021959228 -0.008773067
000100 eb 47 5e be de cc b2 bd 3f 88 9b 3c 85 94 f1 3c
       -0.21707122 -0.087304816 0.018985866 0.029489765
000110 5f 20 84 3c 06 87 1a bd 03 cc 49 bd 3b a1 9c 3d
       0.016128717 -0.037726425 -0.049266826 0.0764794
000120 21 63 c4 bd 46 46 c3 bd 62 92 70 bd d0 55 80 3d
       -0.0958922 -0.09534888 -0.05873335 0.062663674
000130 2a 52 66 bb ca f8 ac 3d 6d bb 1f 3c 51 c3 af bd
       -0.0035144188 0.0844589 0.009749276 -0.085821755
000140 0b fa ad bd a3 5c 2b bd 44 03 9b bd 31 3f cd bc
       -0.084949575 -0.041836392 -0.07568982 -0.025054546
000150 5b b6 9c 3d 7c 7f 10 3e d8 8d b1 bd 84 a7 06 be
       0.07651969 0.14111131 -0.08669633 -0.1314984
000160 48 ee aa 3d f3 76 95 bc 1a 0c 0d bd db 62 e9 bc
       0.0834623 -0.018245196 -0.03443537 -0.02848952
000170 20 56 b8 bc f1 c0 c3 3c 32 50 bb 3c f3 95 f1 bd
       -0.022502005 0.023895713 0.022865389 -0.11796179
000180 34 f6 af bd 5d 6b cd 3c 9b 02 e3 3c 81 49 04 bd
       -0.085918814 0.025075609 0.027711203 -0.03229666
000190 d3 e3 e5 bd 29 87 86 3d fb 66 03 be ba 4c 59 bd
       -0.11225095 0.065687485 -0.12832253 -0.053051688
0001a0 da 0c 09 3e 54 f7 b7 bb 72 48 a2 bd 5e 15 1a 3c
       0.13383809 -0.0056142006 -0.07923974 0.009404508
0001b0 6f 3e 1a be a0 6a 44 bd 23 83 9f 3d c7 fb 29 bd
       -0.15062879 -0.047953248 0.07788684 -0.04149988
0001c0 54 a0 74 3e 2a 43 08 be 9b 62 20 be 2b 4e f4 bd
       0.23889285 -0.13306871 -0.15662615 -0.11928972
0001d0 99 04 39 3c 1f 9b e1 3d 3b 7f 75 3e df 82 7b bd
       0.0112926 0.11015915 0.23974316 -0.061404105
0001e0 27 69 aa bd 29 9f 15 3e ee 84 01 be 88 69 78 bc
       -0.083208375 0.14611496 -0.12648365 -0.015161879
0001f0 7e 38 35 3e 06 17 bd bd 55 40 41 3c eb a2 8a 3d
       0.17697331 -0.09232907 0.011795123 0.067693554
000200 10 66 37 be 0b 4f 3d 3d 78 91 f6 bd df 7c bb 3d
       -0.17910028 0.04621796 -0.12039465 0.09154677
000210 45 fe c0 bd 6d b6 09 bd 9e 60 b9 3d 04 8f e4 3d
       -0.09423498 -0.03362124 0.090516314 0.111600906
000220 10 35 00 3e f9 13 cb bc e6 ed e5 3c e1 8d c9 3d
       0.12520242 -0.024789797 0.02806754 0.098415144
000230 58 f0 3b bd c8 b2 cc bc 5a 38 d7 3c bd cd 25 3d
       -0.045883507 -0.024987593 0.026271988 0.04047941
000240 9c fa 75 3d ba 1a 57 3d 68 43 95 3d ca 21 62 bd
       0.060053453 0.052515723 0.07288247 -0.055208005
000250 28 bf ea bd ab bf 10 be d0 62 78 3c 1f e4 d0 3d
       -0.114622414 -0.14135616 0.0151602775 0.10199761
000260 04 39 34 be c8 e0 a7 3d 44 b6 96 3d 78 cf 2b 3d
       -0.17599875 0.081971705 0.07358983 0.041945904
000270 16 de 0b 3e 8d 46 67 3d 45 7d 39 3d 1a a6 62 bd
       0.13658938 0.056463767 0.045285482 -0.055334188
000280 c3 7d b5 3d a3 e4 23 bc dc 84 23 3e 37 9a 39 bd
       0.08861878 -0.010003242 0.1596865 -0.045313086
000290 10 6f 20 bd a4 2d 59 3d 99 cc 1b 3d 69 ef ec 3d
       -0.039168417 0.053022042 0.038036916 0.11569101
0002a0 07 98 59 bd 34 e2 80 3e e1 49 1b 3e b4 50 e0 bd
       -0.0531235 0.2517258 0.15164901 -0.10952893
0002b0 a5 de 12 bd 14 95 04 be 06 4b 0e 3c 1a d8 d8 bc
       -0.03585686 -0.12947494 0.008684879 -0.026470233
0002c0 d2 d6 b6 3d 50 d5 40 bd 6b 2f 0b be 18 a2 5f bc
       0.089276925 -0.04707843 -0.13592307 -0.013649486
0002d0 1e 36 49 3e 50 96 17 3d b1 2f c1 bd e2 26 1d bd
       0.1964955 0.037008584 -0.094329245 -0.03836716
0002e0 83 5a 36 be 73 07 61 bd 0a 1b e7 3c 4f 5f 94 3d
       -0.17807965 -0.054938745 0.028211135 0.07244741
0002f0 71 0a 11 3d 08 d5 9d 3d 0b 07 19 3d df 13 0b be
       0.03541035 0.07706648 0.037360232 -0.13581799
000300 94 17 88 bd 42 0e cd 3d 50 e8 35 bd c4 4d 29 bb
       -0.06645122 0.10012485 -0.044411004 -0.0025833705
000310 e3 ac 01 bc 79 d8 fa bd 1b 12 05 be 57 51 8a bd
       -0.007914755 -0.1224832 -0.12995188 -0.067537956
000320 87 47 a1 3d 6d 8a 3b bd 96 53 26 3c c1 4d 7b bb
       0.07874971 -0.04578631 0.010151764 -0.0038345905
000330 19 25 de 3c fe 69 c2 bd 5a 5e 2a bd 4f dd 20 3d
       0.027117299 -0.09492873 -0.041593887 0.039273556
000340 30 52 b8 bd e8 bc 3f 3d 86 14 d5 38 9f 86 ac bd
       -0.09000051 0.046811014 0.00010160454 -0.084241144
000350 d7 26 99 bd ab a0 50 bd df 79 4e 3c f8 c7 f3 3b
       -0.07478111 -0.050934475 0.0126022985 0.0074396096
000360 7d 0c 2d 3d 1f 2d 25 3d d4 c7 72 be 98 2e 1f bd
       0.042248238 0.040326234 -0.23709041 -0.038862795
000370 e6 6d cc 3d 6c 05 94 bd 8d 32 1a bc 79 89 c8 bc
       0.09981899 -0.07227597 -0.009411466 -0.024479615
000380 1c 74 4e 3d 5c 6f a9 3d 77 b6 5d 3b df 11 95 3d
       0.0504037 0.08273193 0.0033830681 0.07278799
000390 7a a6 04 bd 77 22 de 3d ea 3d 95 3d 36 af 0e 3e
       -0.032385327 0.108464174 0.072872 0.13934025
0003a0 8c c5 27 3c 7f 33 5e 3d f2 03 88 bd 33 fe 90 ba
       0.01023997 0.05424833 -0.066413775 -0.0011062085
0003b0 4f 95 4b 3d 77 12 57 bd 09 a3 82 bd ba d4 3c be
       0.04970294 -0.052507844 -0.06378753 -0.18440524
0003c0 d8 dd 56 3d 73 c7 1d be 71 21 34 3e a6 41 83 3c
       0.05245766 -0.15408115 0.17590882 0.016022515
0003d0 7f bd a6 bd b0 7b 39 bd 87 cb 4e 3d 6d b6 8d bd
       -0.08141612 -0.045283973 0.050487068 -0.069195606
0003e0 47 fd 13 3d 28 1e ac 3b 4f 88 01 3b 1f 80 27 3d
       0.036130216 0.0052526183 0.0019765084 0.04089367
0003f0 2b 94 73 bd e3 cf 31 3c 64 b5 66 3d 49 d6 23 bd
       -0.059467476 0.010852787 0.05632533 -0.03999928

network_body._body_endoder.seq_layers.2.bias f4 [128]
000000 cf 5d 90 bb 6a d3 35 bb 87 7b c5 ba e7 7f 29 bb
       -0.004405714 -0.002774442 -0.0015066721 -0.002586359
000010 c6 f4 3c bb 41 a1 73 3a 5c a4 18 bc 2e 38 4b ba
       -0.002883242 0.0009293743 -0.00931653 -0.0007752207
000020 44 47 01 39 b3 8f af 3a 5e d2 21 bb ac 2d 91 ba
       0.00012328947 0.0013394266 -0.002469204 -0.0011076233
000030 64 b7 50 3a e4 6e ab 3b 68 84 8b 3a 9e b2 de 39
       0.00079618976 0.005231725 0.0010644319 0.0004247622
000040 f3 fa f9 ba a3 03 5a b9 40 ef 9f bb 6c e2 bb ba
       -0.0019071981 -0.00020791455 -0.0048808157 -0.0014334447
000050 56 a4 91 3a fa cb 3f bb f8 3f 35 bb 24 20 d6 3a
       0.0011111598 -0.0029265867 -0.0027656537 0.0016336483
000060 02 33 27 bb ea 80 22 bb 04 52 3c bb 70 9a ab b9
       -0.002551258 -0.0024796077 -0.0028735409 -0.00032730727
000070 6c c0 4d 3b fa fe d8 bb 0d 8d 12 bc c7 f5 2e bb
       0.003139521 -0.0066221924 -0.008944762 -0.0026696788
000080 d5 db 7e bb 68 b9 e3 ba ab a6 8e bb c7 46 c0 38
       -0.0038888354 -0.0017373981 -0.0043533645 9.168457e-05
000090 f8 e3 04 bb b6 92 2b bb a0 e1 77 bb 23 01 bf b9
       -0.0020277482 -0.0026179976 -0.0037823692 -0.00036431206
0000a0 ce 71 02 bb 27 5e 86 bb 96 6d 19 bb 02 3a 52 bb
       -0.0019904259 -0.0041005793 -0.0023411266 -0.0032078032
0000b0 26 d4 13 bb bc 90 40 ba 2e 95 2e bc bd f2 f7 39
       -0.002255687 -0.0007345786 -0.010655684 0.00047292365
0000c0 9b c2 b3 39 9e 3d 3f bb 0c bc 08 bb 50 66 b8 3a
       0.00034286533 -0.0029181014 -0.0020864038 0.0014068577
0000d0 54 69 bf 39 79 02 82 ba 5b 60 21 39 b6 84 59 3a
       0.00036508834 -0.000991895 0.00015390052 0.00082976685
0000e0 f0 ce 5a bb ff 7c 2c bb 88 01 0d bb 39 20 3a bb
       -0.0033387505 -0.002631962 -0.0021515805 -0.0028400554
0000f0 1a 26 67 ba dd 9c b8 3a 52 93 5c bb 6f c4 d0 3a
       -0.0008817628 0.0014084835 -0.0033657146 0.0015927682
000100 ef 59 5f bb 12 a4 18 ba a9 bc 90 3a 70 6e 89 3a
       -0.0034080704 -0.0005822788 0.0011042553 0.0010485183
000110 9a 8a 58 3a 40 24 06 bc 03 52 c2 3a 44 7b 9f ba
       0.00082603993 -0.008187354 0.0014825467 -0.0012167473
000120 b6 f7 f6 ba 3c 37 91 3a 16 bc 43 3b 34 02 0b bb
       -0.0018842134 0.0011079083 0.0029866747 -0.002121103
000130 83 9e 23 bb df 26 e8 3b fb 79 ca 3a c9 c6 f9 3a
       -0.0024966307 0.007084712 0.001544773 0.0019056435
000140 72 3b e8 3a 8b 81 ff ba a3 62 72 bb 52 0c bf 3a
       0.0017717911 -0.0019493563 -0.0036985062 0.0014575815
000150 2e c3 48 3a 79 ed b4 ba 36 0f 14 bb ec e1 68 bb
       0.00076584786 -0.0013803683 -0.0022592074 -0.003553505
000160 3e fc 4d bb d1 03 4c bb 5b 14 6d 39 84 0f 65 bb
       -0.0031430866 -0.0031130204 0.00022609664 -0.0034951875
000170 63 f7 2b bb ee 6b b6 3a be 57 15 b9 f9 c5 2e bb
       -0.0026239983 0.0013917664 -0.00014242434 -0.0026668294
000180 b1 97 85 bb ed ca 9f bb 97 75 95 bb 05 b4 4b bb
       -0.004076921 -0.0048764856 -0.004561137 -0.0031082642
000190 f3 82 0e 3b fb 3e 2f bb 1c 5b 3f bb db c3 d6 ba
       0.0021745532 -0.002674042 -0.0029198593 -0.0016385274
0001a0 33 e3 ec ba f0 35 81 38 71 6a 9d bb da da c4 3a
       -0.0018073082 6.161246e-05 -0.0048039486 0.0015018836
0001b0 a0 48 1d bb 73 78 1c bb 45 e6 ec ba 23 8b 0b bb
       -0.0023999587 -0.0023875504 -0.0018073997 -0.0021292649
0001c0 77 39 eb 3a 9a af 56 bb 6a 30 19 bb aa 21 55 3a
       0.0017946203 -0.0032758475 -0.0023374804 0.00081303215
0001d0 c5 10 a9 3a 7a 5f 9b 38 c4 33 68 3b 07 e4 0d bb
       0.0012898674 7.40876e-05 0.0035431245 -0.0021650807
0001e0 91 11 e0 3b 17 dc 00 3a 45 0a b8 3a 57 48 95 3a
       0.0068380316 0.00049156084 0.0014041146 0.0011389357
0001f0 6e 93 fa b9 73 bd 13 bb 9a 2b 87 3a ec e5 3e bb
       -0.0004779356 -0.002254334 0.0010312677 -0.0029128743

action_model._continuous_distribution.mu.weight f4 [1, 128]
000000 85 12 2a bc 73 10 bd bb f8 f9 d6 bc 74 d3 3b bc
       -0.010380392 -0.005769783 -0.026242241 -0.011463989
000010 51 22 16 bc b4 ef 0f 3c 5a bd 44 3a 0c 41 a2 bb
       -0.009163455 0.008785177 0.0007505022 -0.004951602
000020 27 60 22 3c 50 c0 e3 3c 5f 16 81 3c f5 46 01 bd
       0.00991062 0.027801663 0.015757738 -0.03156181
000030 5c e7 6a bc b5 00 83 bc ca cf d9 3b 17 d7 83 3c
       -0.014337387 -0.015991548 0.006647085 0.016093774
000040 5c 52 3e 3b 5d d6 fc 3b 1e c4 08 3b fc 03 1e bd
       0.002904079 0.007715984 0.0020868848 -0.03857802
000050 32 b3 2c 3c 0e c7 12 3c dd 36 d3 bb aa 65 b3 3a
       0.01054077 0.008958591 -0.006445749 0.0013686914
000060 62 d7 1a bd cb 0f 18 bc ff 91 2b bc e4 f5 40 bc
       -0.03780306 -0.009281109 -0.01047182 -0.011777375
000070 ec a5 20 3c e3 ae fd 39 99 dc 51 3a d8 da a9 bb
       0.009805184 0.0004838622 0.0008005589 -0.005183559
000080 d1 9e fa bb fb da 02 bd d8 b1 5d bb 22 3b 09 3c
       -0.007648327 -0.031947117 -0.0033827927 0.008375915
000090 1c e4 b0 bb b5 a1 5d bc cb 7c 30 bd b0 e3 ba 3b
       -0.0053982865 -0.0135273235 -0.04308776 0.005703412
0000a0 16 57 04 3b c9 d5 00 3d 57 b2 be bc b9 dc 95 bc
       0.0020193509 0.03145388 -0.023278398 -0.018293725
0000b0 3e 02 12 bd 79 4d 72 3b 7f 74 27 bb 15 46 6a 3c
       -0.03564667 0.0036972447 -0.0025551615 0.014298935
0000c0 71 88 22 3c c1 d4 ff bb af b7 ef bc 23 07 1b 3c
       0.0099202255 -0.0078073447 -0.029262392 0.009462151
0000d0 61 3c 92 3c 3e c6 cc 3a 9c c5 ae 3b 73 77 9e 3c
       0.017851057 0.0015623046 0.0053336155 0.019344067
0000e0 5b 8b 8b bc 15 dd 95 bc ee 3f cd bc b0 03 e5 b9
       -0.017034223 -0.018293897 -0.025054898 -0.0004368103
0000f0 32 07 df 3c a7 23 8b 3c 1c dd 42 3b fa 45 0f bc
       0.02722511 0.016984774 0.0029733842 -0.008744711
000100 87 ce ab ba 50 84 92 bc 83 86 0f 3c 8e cb c5 3c
       -0.0013107815 -0.017885357 0.008760097 0.024144914
000110 5c e7 77 3c f6 b9 b1 3a f9 0a c0 3c 0b 4e ae 3b
       0.015130844 0.0013559449 0.023442732 0.005319362
000120 57 ff 06 bc d5 cf af 3c 23 f1 50 3c 2f 3d d9 ba
       -0.008239589 0.021461407 0.012752804 -0.001657402
000130 9e 8e 57 bc a5 e8 9e ba 4c 77 86 3c a5 f6 a2 3c
       -0.013156561 -0.0012123777 0.016414307 0.019893
000140 9d 7d 9f 3c c5 67 18 3d 09 2c 86 b9 61 58 bd 3b
       0.019469077 0.037208337 -0.0002559128 0.005778358
000150 d3 8e 39 bc b8 0e 68 bc a7 92 54 bc b7 ec b9 ba
       -0.011325556 -0.0141636655 -0.012974418 -0.0014184926
000160 24 bf c9 ba f7 1b 11 bb c6 fc 9e bc 82 68 7b bb
       -0.0015392047 -0.0022141912 -0.019407641 -0.0038361852
000170 05 83 d0 bc 29 06 a8 bc 71 cf 2a 3c 78 fc 45 bc
       -0.0254531 -0.02051075 0.010425434 -0.012084119
000180 0e d4 6b 38 4d 64 d0 bc 7c ae af ba 80 85 96 bc
       5.6225857e-05 -0.025438452 -0.0013403441 -0.018374205
000190 96 af e8 3c 53 86 bb bc f5 c3 43 bc 27 be 80 bc
       0.028404038 -0.0228912 -0.011948575 -0.015715672
0001a0 7a ff 3c bc 05 35 86 bc ed bd 8b 3a 2e 39 1d 3d
       -0.01153552 -0.016382704 0.0010661461 0.03838461
0001b0 e3 d2 96 3c b8 5e 9e bb 14 b6 29 bc f0 67 12 bd
       0.018411105 -0.0048330687 -0.010358352 -0.035743654
0001c0 64 cf 97 3c ee 7f 27 3b aa 56 ca 3c 7c 20 12 3b
       0.018531509 0.002555843 0.024699528 0.0022297194
0001d0 2a d2 5a 3d e1 1c 99 3c 6b db 98 3c 82 00 d9 bc
       0.053423084 0.018690528 0.018659314 -0.0264895
0001e0 86 3b 1c 3c 85 fb 4c 3b 1e 9c 54 3c f8 89 ef 3b
       0.009535676 0.0031277847 0.012976674 0.0073101483
0001f0 09 54 b6 ba 28 9b 36 bd ce a3 db 3c 80 cd 22 bc
       -0.0013910542 -0.044581562 0.026811507 -0.00993669
