Assets/IA/Pruebas/results/Pad11/PadBehavior/PadBehavior-982.pt (torch, 444474 bytes, 30 tensors)

network_body._body_endoder.seq_layers.0.weight f4 [128, 7]
0	0x3e7db936	0.24777684
1	0x3eab39ca	0.33442527
2	0xbd22f54e	-0.039784722
3	0x3ebfa08c	0.37427175
4	0xbeb1cdd8	-0.3472736
5	0x3d878259	0.06616659
6	0x3e180bbb	0.14848225
7	0x3e836332	0.25661618
8	0x3e68bbf1	0.22727944
9	0xbe96757b	-0.29386505
10	0x3e3ad921	0.1824689
11	0x3e6c0157	0.23047386
12	0xbe758bee	-0.2397916
13	0x3ebe7612	0.37199455
14	0xbf55f9cb	-0.8358428
15	0x3e1b4612	0.15163448
16	0x3f57bab3	0.84269255
17	0x3d45aee2	0.048262484
18	0x3f43a766	0.76427305
19	0xbd166bbd	-0.03672384
20	0xbe32098c	-0.17386454
21	0xbeaec3cb	-0.34133753
22	0xbef1e52b	-0.47245154
23	0x3e3a8aee	0.1821706
24	0xbe598240	-0.21241093
25	0x3ea62b22	0.32454783
26	0xbe38c46d	-0.1804368
27	0x3f551490	0.832345
28	0xbeb48870	-0.35260344
29	0x3e9a1909	0.30097225
30	0x3e85b4d0	0.2611451
31	0xbe98e0f0	-0.29859114
32	0xbee81591	-0.45328954
33	0x3dc2b11e	0.09506439
34	0x3df49be3	0.119437955
35	0x3eadf15e	0.3397321
36	0xbec6ace9	-0.38803795
37	0x3dce55b6	0.10074942
38	0xbdfa4f22	-0.12222125
39	0x3ef4a3af	0.4778113
40	0xbe969c94	-0.29416335
41	0x3c553d0e	0.013015045
42	0x3f2be677	0.67148536
43	0xbdccbccb	-0.09996947
44	0x3d9031f4	0.07040778
45	0x3e3293ab	0.17439143
46	0xbe645466	-0.2229782
47	0xbd94cdfd	-0.07265852
48	0xbe617c05	-0.22019966
49	0x3dd0055a	0.10157271
50	0xbd19582e	-0.03743761
51	0xbec806c3	-0.3906766
52	0x3ec88946	0.3916723
53	0x3d0c46f0	0.03424734
54	0x3eb8c003	0.36083993
55	0xbf0bf879	-0.54676014
56	0x3e60db97	0.21958767
57	0x3f144149	0.5791212
58	0xbee992db	-0.45619854
59	0xbeb8790e	-0.36029857
60	0xbecb310b	-0.39685854
61	0xbe2906f6	-0.16506562
62	0x3f542e77	0.828834
63	0x3eecd2aa	0.46254474
64	0x3edeb451	0.43496946
65	0x3f3d978f	0.74059385
66	0xbe8ceea0	-0.27525806
67	0x3e142858	0.14468515
68	0x3d058ae5	0.032603163
69	0xbf0dbbea	-0.5536486
70	0xbebdb3a8	-0.3705113
71	0x3e1f969c	0.15584797
72	0x3eef55a5	0.4674503
73	0x3dd887ac	0.10572752
74	0x3e4f3b2e	0.20237419
75	0xbe45aa13	-0.1930316
76	0x3ddc0ae6	0.10744266
77	0x3d223f72	0.039611287
78	0x3d96be6f	0.07360541
79	0xbdfa968f	-0.12235748
80	0xbe982b7b	-0.29720673
81	0xbebd45fa	-0.3696745
82	0xbf68ad65	-0.9088958
83	0xbe10c423	-0.1413732
84	0xbea55acc	-0.32295835
85	0x3e1f751b	0.15572016
86	0xbf1b713d	-0.6071966
87	0xbf4f31b0	-0.8093519
88	0x3cc2eaaf	0.023793546
89	0x3f29df0d	0.66355973
90	0x3f0718bc	0.52772117
91	0xbe7bb6de	-0.24581477
92	0x3e9dd408	0.3082583
93	0x3f02896b	0.50990933
94	0xbf08855e	-0.533285
95	0x3ecf160a	0.40446502
96	0xbd42b99a	-0.047540285
97	0xbe107830	-0.14108348
98	0xbec175ff	-0.37785336
99	0xbdb761d7	-0.08954208
100	0xbf0d63a0	-0.5523014
101	0xbc24a134	-0.010048199
102	0x3ebe74e0	0.37198544
103	0x3eadef5b	0.33971676
104	0xbe9d37d7	-0.30706665
105	0x3e85f242	0.2616139
106	0xbe8859be	-0.26630968
107	0xbe89b545	-0.2689611
108	0xbeab6b6c	-0.33480394
109	0x3dda7759	0.10667295
110	0xbee7e629	-0.45292786
111	0xbf392ae4	-0.7233107
112	0xbea551b2	-0.3228889
113	0xbe6a98bb	-0.22909825
114	0xbedfa8af	-0.43683383
115	0x3ed33372	0.41250187
116	0x3e96d492	0.29459053
117	0x3e920d48	0.28525758
118	0x3e87245f	0.26394936
119	0xbed2e16e	-0.41187614
120	0x3f4d38cd	0.80164796
121	0xbc549df8	-0.012977116
122	0xbe911260	-0.28334332
123	0xbeaf9fd6	-0.34301633
124	0xbe3de80c	-0.1854555
125	0x3ce7efd5	0.028312603
126	0xbf4a72cb	-0.7908141
127	0x3f251cf9	0.64497334
128	0x3e0f1409	0.13972487
129	0xbe1a2ad0	-0.15055394
130	0x3e1c0e0c	0.15239733
131	0xbe68ec7d	-0.22746463
132	0x3f59084b	0.8477828
133	0x3d8eb2f3	0.069677256
134	0x3e22ac70	0.15886092
135	0xbdf83ceb	-0.12120994
136	0xbeb0dade	-0.34541982
137	0x3f2f8ace	0.68571174
138	0xbe997590	-0.29972506
139	0xbe9c2d4c	-0.3050331
140	0xbe3fe6dd	-0.18740411
141	0x3f083a9c	0.5321443
142	0x3ec2dc29	0.38058594
143	0x3e672de6	0.22576103
144	0x3cd54c2e	0.026037302
145	0xbf03b96e	-0.5145482
146	0x3d16e5c3	0.03684021
147	0xbdeb9bbb	-0.115043126
148	0x3e2012d8	0.15632188
149	0x3d21413b	0.03936885
150	0x3f23f34d	0.6404312
151	0x3eaadb54	0.3337046
152	0xbcef530d	-0.029214406
153	0xbe069da9	-0.1314608
154	0x3e85beb5	0.2612206
155	0x3dfd25cd	0.123607256
156	0x3ee74ec8	0.45177293
157	0x3d78ea7d	0.0607705
158	0xbd63c43d	-0.05560707
159	0xbd34d4c2	-0.044148214
160	0xbc9de2d6	-0.019273203
161	0x3e9f5592	0.31119972
162	0xbec96a4c	-0.3933891
163	0xbd9dac7d	-0.07698915
164	0x3efaefc8	0.49011064
165	0xbf441d23	-0.7660696
166	0xbf0d9f6f	-0.553214
167	0xbe53f3e8	-0.20698512
168	0xbdf82d4e	-0.12118016
169	0x3dc43b56	0.0958163
170	0xbe1871b7	-0.14887129
171	0x3f7efd27	0.9960503
172	0x3f0277dd	0.50964147
173	0xbf0dacad	-0.5534161
174	0x3ed178fa	0.4091261
175	0x3dc5ca53	0.09657731
176	0x3e30fd38	0.17284095
177	0x3df686ce	0.12037431
178	0xbcc698f9	-0.024242865
179	0x3e78f57d	0.24312396
180	0xbde3239d	-0.11090777
181	0x3e93ef55	0.28893533
182	0xbf03cd72	-0.5148536
183	0x3f08719a	0.5329834
184	0xbf58598d	-0.84511644
185	0xbf25db2a	-0.6478754
186	0xbecfad8d	-0.40562096
187	0x3e933f75	0.2875935
188	0x3e4521e5	0.19251211
189	0xbe48a219	-0.19593085
190	0x3d084d32	0.033276744
191	0x3d3c108e	0.045914225
192	0xbb834292	-0.0040057385
193	0x3e2abe59	0.16674174
194	0x3f154e4a	0.58322585
195	0x3e822478	0.25418448
196	0xbdc9ec8b	-0.0985957
197	0x3f1bb263	0.6081907
198	0xbae217fd	-0.0017249581
199	0x3de22011	0.110412724
200	0x3e08307d	0.13299747
201	0x3ef004b2	0.46878582
202	0x3eba8583	0.36429986
203	0x3ef081c1	0.46973994
204	0x3ebfa52a	0.37430698
205	0x3f56f67d	0.8396986
206	0xbe552e15	-0.2081836
207	0xbe0ef422	-0.13960317
208	0xbe1e9774	-0.15487462
209	0x3f0d9649	0.5530744
210	0x3e3fe895	0.18741067
211	0x3e50409c	0.20337147
212	0x3ea4b0aa	0.32166034
213	0xbe9e4cb0	-0.30917883
214	0x3eaf049d	0.34183207
215	0x3c70fd2f	0.014708801
216	0xbe003ec3	-0.12523942
217	0x3dfda8f2	0.123857394
218	0xbe9861b3	-0.2976204
219	0x3ed91346	0.42397517
220	0xbe9fd6f2	-0.31218678
221	0xbbca3bf4	-0.0061716978
222	0x3a6ce8d1	0.0009037378
223	0xbea711f5	-0.32630888
224	0x3f0b6d12	0.54463303
225	0xbef99a49	-0.48750523
226	0x3df149d2	0.11781658
227	0x3d806f49	0.06271226
228	0xbde9a670	-0.114086986
229	0xbdd0e65b	-0.10200187
230	0xbdfa85d7	-0.12232559
231	0x3e4a6127	0.19763623
232	0x3ec0625d	0.37575045
233	0x3efaec04	0.4900819
234	0xbe6d16f0	-0.23153281
235	0x3db9eadd	0.09078
236	0xbf0f5077	-0.55982155
237	0xbeb407c8	-0.35162187
238	0x3f13206f	0.57471365
239	0x3d2eb578	0.04265353
240	0xbd95fe27	-0.07323866
241	0x3f44290f	0.7662515
242	0xbe13c2ff	-0.14429854
243	0xbe3e5f5d	-0.18591066
244	0xbea089c9	-0.31355122
245	0x3e044ea3	0.12920623
246	0x3e49ad77	0.19695078
247	0x3f09821a	0.53714144
248	0x3e9c3246	0.30507106
249	0xbe8045c2	-0.2505322
250	0x3f213462	0.62970555
251	0x3d1f5995	0.03890379
252	0x3e31726a	0.17328802
253	0xbe9f9bb5	-0.31173483
254	0x3d908acc	0.070577234
255	0x3e9692ae	0.29408783

network_body._body_endoder.seq_layers.0.bias f4 [128]
0	0xbb5c39f1	-0.0033603872
1	0xbab30649	-0.0013658489
2	0x3aaef7db	0.0013349013
3	0x3b207ee5	0.0024489698
4	0xbb5adc19	-0.0033395349
5	0xbb3bbc94	-0.0028646337
6	0x3a8a08e4	0.0010531214
7	0x3a892fd1	0.0010466521
8	0x3ad756dc	0.0016429084
9	0x3a85219f	0.0010157115
10	0xbb051b30	-0.0020310394
11	0xbbd237c9	-0.0064153415
12	0xba98b015	-0.0011649156
13	0xbbb1cb56	-0.005425851
14	0xbaeb7c8f	-0.0017966199
15	0xbaf6f62c	-0.0018841675
16	0x3a629d45	0.0008644651
17	0x3b0f70b8	0.0021887254
18	0xbb8280f2	-0.0039826566
19	0xba963c9a	-0.0011462152
20	0xbaa5c8a0	-0.0012648292
21	0x3ae6119b	0.0017552854
22	0x3ad16771	0.0015976263
23	0x3abe0ba1	0.0014499315
24	0x3ae9df44	0.0017843028
25	0xba464f20	-0.0007564891
26	0x39c09af5	0.00036736546
27	0xbb88b459	-0.0041718897
28	0xbb482130	-0.003053736
29	0xbb4eceb1	-0.0031556303
30	0x3a0397bc	0.00050198636
31	0xbb6718ad	-0.003526251
32	0x3b2fccc0	0.0026824921
33	0xbb574122	-0.0032845219
34	0xbb28f10d	-0.0025778443
35	0xbabef4a2	-0.0014568756
36	0xba548fa7	-0.0008108564
37	0xbb9c661d	-0.004772915
38	0xbb4a8876	-0.003090409
39	0xbb2b9a69	-0.0026184565
40	0x3ad54c0b	0.0016273273
41	0xbae7ae97	-0.0017675933
42	0x3b09bcf5	0.0021017168
43	0x39f52b49	0.00046762291
44	0xbba36659	-0.004986566
45	0xbb5067f4	-0.0031800242
46	0xba9f9696	-0.0012175615
47	0xba987f2e	-0.0011634582
48	0xbb162ae5	-0.002291375
49	0x3b0830ae	0.0020780968
50	0x3b06f35f	0.0020591838
51	0xba96158b	-0.0011450512
52	0xbb0334c5	-0.0020020467
53	0xbb6502c3	-0.0034944273
54	0xbb0262e0	-0.001989536
55	0xbba7f32e	-0.005125425
56	0xbacbfcae	-0.0015562975
57	0x397901b3	0.00023747123
58	0xbb89f25d	-0.0042098
59	0xbad7a835	-0.0016453328
60	0x3aee7fb8	0.0018196022
61	0xbb3ec230	-0.0029107444
62	0x3a1e7d07	0.0006045852
63	0xbb70e8bc	-0.0036759814
64	0xbbc02a0d	-0.005864388
65	0xba556bf1	-0.00081413897
66	0x3ac335db	0.001489337
67	0xbb05a056	-0.0020389757
68	0xbb1fab7a	-0.0024363683
69	0x3a4ace35	0.0007736416
70	0xbac84592	-0.0015279523
71	0xba170827	-0.00057614077
72	0xba83a808	-0.0010044584
73	0xbb05945f	-0.0020382626
74	0xb9aed513	-0.0003334662
75	0x3a05571d	0.0005086528
76	0x3ae73fa4	0.0017642868
77	0xbb96cdf1	-0.004602187
78	0x3b432651	0.0029777477
79	0x3ac72857	0.0015194517
80	0xbb6b9bc9	-0.003595101
81	0x3b3df70f	0.002898637
82	0xbbbbe40c	-0.0057339724
83	0xbb8e339c	-0.0043396484
84	0xbb20f009	-0.0024557135
85	0xbbe9a12f	-0.0071298103
86	0xbab39a9d	-0.0013702695
87	0x379ea30d	1.8910994e-05
88	0xbb315460	-0.0027058348
89	0xbaf6d20d	-0.001883091
90	0xbadf4eb7	-0.0017037009
91	0xba4d08ff	-0.000782147
92	0xbae940b4	-0.0017795772
93	0x3a7a94ef	0.0009558936
94	0xbb1e5846	-0.0024161502
95	0xbaa35e27	-0.0012463973
96	0xbb379226	-0.0028010695
97	0x3af5fe59	0.0018767818
98	0x3a4d4370	0.00078301784
99	0xbb794cfb	-0.0038040269
100	0x3abef56a	0.0014568989
101	0xbbabdc5e	-0.0052447757
102	0xbb329a06	-0.002725245
103	0xb8d7d69e	-0.000102919745
104	0xb970967f	-0.00022944248
105	0x3a47d13b	0.00076224253
106	0x3b23fc56	0.002502223
107	0xb9d5588e	-0.00040692504
108	0x3a2fe837	0.0006710323
109	0xbb369a6c	-0.0027863039
110	0xbb17fcbf	-0.002319142
111	0x388c943f	6.703333e-05
112	0x3a60f04d	0.00085807295
113	0x3808c9f7	3.261302e-05
114	0xbb085ce7	-0.0020807327
115	0xbaf60ebe	-0.0018772704
116	0x39c14d7b	0.00036869556
117	0x3a1530f4	0.00056911935
118	0xbb36a871	-0.0027871395
119	0xbb17dc9a	-0.002317226
120	0x3b1f6121	0.0024319368
121	0xbb497af4	-0.0030743452
122	0xbb40e8d6	-0.0029435656
123	0xbb4ff788	-0.0031733233
124	0xba742946	-0.00093140115
125	0xb9a8dd94	-0.00032208546
126	0xbb55897f	-0.0032583175
127	0x38c15222	9.2182556e-05

network_body._body_endoder.seq_layers.2.weight f4 [128, 128]
0	0xbc393f1a	-0.0113065485
1	0xbd774de0	-0.060377
2	0xbe20c461	-0.15699913
3	0xbcc0a762	-0.023517314
4	0x3dd4f700	0.10398674
5	0x3c8fe62a	0.017565805
6	0x3d8c880b	0.06861886
7	0x39c688b3	0.00037867352
8	0xbdcbe493	-0.099557064
9	0x3cc82267	0.024430467
10	0xbcd10fda	-0.025520254
11	0x3da6509f	0.08120846
12	0xbc7133ac	-0.014721792
13	0xbb7f2bcc	-0.0038936017
14	0x3c108c5f	0.00882253
15	0x3dea08fd	0.11427496
16	0x3dbf6ffe	0.09347533
17	0x3d373f1c	0.04473792
18	0x3c666ed7	0.014064512
19	0x3bb1b12a	0.005422731
20	0x3d21abb1	0.03947038
21	0xbdb4af97	-0.088225536
22	0xbd4c0686	-0.04981091
23	0xbb237855	-0.002494355
24	0xbe19cb2f	-0.15018915
25	0xbd630ee7	-0.055434134
26	0xbcc46c9f	-0.023977576
27	0x3e3cbe0d	0.18431874
28	0xbd82b8a3	-0.06382873
29	0x3e21e872	0.15811327
30	0xbe052c4a	-0.13005176
31	0xbc8f3746	-0.017482411
32	0x3d2730d2	0.040818043
33	0x3c209c97	0.009802959
34	0x3d34f001	0.044174198
35	0xbe04bd1c	-0.12962765
36	0x3d23d43c	0.039997324
37	0xbd4d2fcd	-0.050094415
38	0xbe4b000c	-0.19824237
39	0x3e6e42d1	0.23267676
40	0xbda2a716	-0.07942025
41	0xbd1e2175	-0.038606126
42	0xbde7b6e9	-0.11314184
43	0xbd9ba03d	-0.075989224
44	0xbdb4ca74	-0.08827677
45	0xbca44c2c	-0.020055853
46	0x3dabc5c0	0.08387327
47	0x3d33e1b3	0.043916415
48	0x3e0107b9	0.12600602
49	0xbdcea516	-0.100900814
50	0x3c74b34a	0.014935324
51	0x3c9d8cf8	0.019232258
52	0x3d49a222	0.049226888
53	0x3e2e04d4	0.1699403
54	0x3d951504	0.07279399
55	0xbd5f09af	-0.054452594
56	0xbcdb9e3f	-0.026808856
57	0xbdeb73e9	-0.114967175
58	0xbb217d84	-0.0024641464
59	0xbe999e2e	-0.30003494
60	0x3d96a2f0	0.073552966
61	0x3cc166fa	0.023608673
62	0xbcb3e3d7	-0.021959228
63	0xbc0fbce9	-0.008773067
64	0xbe5e47eb	-0.21707122
65	0xbdb2ccde	-0.087304816
66	0x3c9b883f	0.018985866
67	0x3cf19485	0.029489765
68	0x3c84205f	0.016128717
69	0xbd1a8706	-0.037726425
70	0xbd49cc03	-0.049266826
71	0x3d9ca13b	0.0764794
72	0xbdc46321	-0.0958922
73	0xbdc34646	-0.09534888
74	0xbd709262	-0.05873335
75	0x3d8055d0	0.062663674
76	0xbb66522a	-0.0035144188
77	0x3dacf8ca	0.0844589
78	0x3c1fbb6d	0.009749276
79	0xbdafc351	-0.085821755
80	0xbdadfa0b	-0.084949575
81	0xbd2b5ca3	-0.041836392
82	0xbd9b0344	-0.07568982
83	0xbccd3f31	-0.025054546
84	0x3d9cb65b	0.07651969
85	0x3e107f7c	0.14111131
86	0xbdb18dd8	-0.08669633
87	0xbe06a784	-0.1314984
88	0x3daaee48	0.0834623
89	0xbc9576f3	-0.018245196
90	0xbd0d0c1a	-0.03443537
91	0xbce962db	-0.02848952
92	0xbcb85620	-0.022502005
93	0x3cc3c0f1	0.023895713
94	0x3cbb5032	0.022865389
95	0xbdf195f3	-0.11796179
96	0xbdaff634	-0.085918814
97	0x3ccd6b5d	0.025075609
98	0x3ce3029b	0.027711203
99	0xbd044981	-0.03229666
100	0xbde5e3d3	-0.11225095
101	0x3d868729	0.065687485
102	0xbe0366fb	-0.12832253
103	0xbd594cba	-0.053051688
104	0x3e090cda	0.13383809
105	0xbbb7f754	-0.0056142006
106	0xbda24872	-0.07923974
107	0x3c1a155e	0.009404508
108	0xbe1a3e6f	-0.15062879
109	0xbd446aa0	-0.047953248
110	0x3d9f8323	0.07788684
111	0xbd29fbc7	-0.04149988
112	0x3e74a054	0.23889285
113	0xbe08432a	-0.13306871
114	0xbe20629b	-0.15662615
115	0xbdf44e2b	-0.11928972
116	0x3c390499	0.0112926
117	0x3de19b1f	0.11015915
118	0x3e757f3b	0.23974316
119	0xbd7b82df	-0.061404105
120	0xbdaa6927	-0.083208375
121	0x3e159f29	0.14611496
122	0xbe0184ee	-0.12648365
123	0xbc786988	-0.015161879
124	0x3e35387e	0.17697331
125	0xbdbd1706	-0.09232907
126	0x3c414055	0.011795123
127	0x3d8aa2eb	0.067693554
128	0xbe376610	-0.17910028
129	0x3d3d4f0b	0.04621796
130	0xbdf69178	-0.12039465
131	0x3dbb7cdf	0.09154677
132	0xbdc0fe45	-0.09423498
133	0xbd09b66d	-0.03362124
134	0x3db9609e	0.090516314
135	0x3de48f04	0.111600906
136	0x3e003510	0.12520242
137	0xbccb13f9	-0.024789797
138	0x3ce5ede6	0.02806754
139	0x3dc98de1	0.098415144
140	0xbd3bf058	-0.045883507
141	0xbcccb2c8	-0.024987593
142	0x3cd7385a	0.026271988
143	0x3d25cdbd	0.04047941
144	0x3d75fa9c	0.060053453
145	0x3d571aba	0.052515723
146	0x3d954368	0.07288247
147	0xbd6221ca	-0.055208005
148	0xbdeabf28	-0.114622414
149	0xbe10bfab	-0.14135616
150	0x3c7862d0	0.0151602775
151	0x3dd0e41f	0.10199761
152	0xbe343904	-0.17599875
153	0x3da7e0c8	0.081971705
154	0x3d96b644	0.07358983
155	0x3d2bcf78	0.041945904
156	0x3e0bde16	0.13658938
157	0x3d67468d	0.056463767
158	0x3d397d45	0.045285482
159	0xbd62a61a	-0.055334188
160	0x3db57dc3	0.08861878
161	0xbc23e4a3	-0.010003242
162	0x3e2384dc	0.1596865
163	0xbd399a37	-0.045313086
164	0xbd206f10	-0.039168417
165	0x3d592da4	0.053022042
166	0x3d1bcc99	0.038036916
167	0x3decef69	0.11569101
168	0xbd599807	-0.0531235
169	0x3e80e234	0.2517258
170	0x3e1b49e1	0.15164901
171	0xbde050b4	-0.10952893
172	0xbd12dea5	-0.03585686
173	0xbe049514	-0.12947494
174	0x3c0e4b06	0.008684879
175	0xbcd8d81a	-0.026470233
176	0x3db6d6d2	0.089276925
177	0xbd40d550	-0.04707843
178	0xbe0b2f6b	-0.13592307
179	0xbc5fa218	-0.013649486
180	0x3e49361e	0.1964955
181	0x3d179650	0.037008584
182	0xbdc12fb1	-0.094329245
183	0xbd1d26e2	-0.03836716
184	0xbe365a83	-0.17807965
185	0xbd610773	-0.054938745
186	0x3ce71b0a	0.028211135
187	0x3d945f4f	0.07244741
188	0x3d110a71	0.03541035
189	0x3d9dd508	0.07706648
190	0x3d19070b	0.037360232
191	0xbe0b13df	-0.13581799
192	0xbd881794	-0.06645122
193	0x3dcd0e42	0.10012485
194	0xbd35e850	-0.044411004
195	0xbb294dc4	-0.0025833705
196	0xbc01ace3	-0.007914755
197	0xbdfad879	-0.1224832
198	0xbe05121b	-0.12995188
199	0xbd8a5157	-0.067537956
200	0x3da14787	0.07874971
201	0xbd3b8a6d	-0.04578631
202	0x3c265396	0.010151764
203	0xbb7b4dc1	-0.0038345905
204	0x3cde2519	0.027117299
205	0xbdc269fe	-0.09492873
206	0xbd2a5e5a	-0.041593887
207	0x3d20dd4f	0.039273556
208	0xbdb85230	-0.09000051
209	0x3d3fbce8	0.046811014
210	0x38d51486	0.00010160454
211	0xbdac869f	-0.084241144
212	0xbd9926d7	-0.07478111
213	0xbd50a0ab	-0.050934475
214	0x3c4e79df	0.0126022985
215	0x3bf3c7f8	0.0074396096
216	0x3d2d0c7d	0.042248238
217	0x3d252d1f	0.040326234
218	0xbe72c7d4	-0.23709041
219	0xbd1f2e98	-0.038862795
220	0x3dcc6de6	0.09981899
221	0xbd94056c	-0.07227597
222	0xbc1a328d	-0.009411466
223	0xbcc88979	-0.024479615
224	0x3d4e741c	0.0504037
225	0x3da96f5c	0.08273193
226	0x3b5db677	0.0033830681
227	0x3d9511df	0.07278799
228	0xbd04a67a	-0.032385327
229	0x3dde2277	0.108464174
230	0x3d953dea	0.072872
231	0x3e0eaf36	0.13934025
232	0x3c27c58c	0.01023997
233	0x3d5e337f	0.05424833
234	0xbd8803f2	-0.066413775
235	0xba90fe33	-0.0011062085
236	0x3d4b954f	0.04970294
237	0xbd571277	-0.052507844
238	0xbd82a309	-0.06378753
239	0xbe3cd4ba	-0.18440524
240	0x3d56ddd8	0.05245766
241	0xbe1dc773	-0.15408115
242	0x3e342171	0.17590882
243	0x3c8341a6	0.016022515
244	0xbda6bd7f	-0.08141612
245	0xbd397bb0	-0.045283973
246	0x3d4ecb87	0.050487068
247	0xbd8db66d	-0.069195606
248	0x3d13fd47	0.036130216
249	0x3bac1e28	0.0052526183
250	0x3b01884f	0.0019765084
251	0x3d27801f	0.04089367
252	0xbd73942b	-0.059467476
253	0x3c31cfe3	0.010852787
254	0x3d66b564	0.05632533
255	0xbd23d649	-0.03999928

network_body._body_endoder.seq_layers.2.bias f4 [128]
0	0xbb905dcf	-0.004405714
1	0xbb35d36a	-0.002774442
2	0xbac57b87	-0.0015066721
3	0xbb297fe7	-0.002586359
4	0xbb3cf4c6	-0.002883242
5	0x3a73a141	0.0009293743
6	0xbc18a45c	-0.00931653
7	0xba4b382e	-0.0007752207
8	0x39014744	0.00012328947
9	0x3aaf8fb3	0.0013394266
10	0xbb21d25e	-0.002469204
11	0xba912dac	-0.0011076233
12	0x3a50b764	0.00079618976
13	0x3bab6ee4	0.005231725
14	0x3a8b8468	0.0010644319
15	0x39deb29e	0.0004247622
16	0xbaf9faf3	-0.0019071981
17	0xb95a03a3	-0.00020791455
18	0xbb9fef40	-0.0048808157
19	0xbabbe26c	-0.0014334447
20	0x3a91a456	0.0011111598
21	0xbb3fcbfa	-0.0029265867
22	0xbb353ff8	-0.0027656537
23	0x3ad62024	0.0016336483
24	0xbb273302	-0.002551258
25	0xbb2280ea	-0.0024796077
26	0xbb3c5204	-0.0028735409
27	0xb9ab9a70	-0.00032730727
28	0x3b4dc06c	0.003139521
29	0xbbd8fefa	-0.0066221924
30	0xbc128d0d	-0.008944762
31	0xbb2ef5c7	-0.0026696788
32	0xbb7edbd5	-0.0038888354
33	0xbae3b968	-0.0017373981
34	0xbb8ea6ab	-0.0043533645
35	0x38c046c7	9.168457e-05
36	0xbb04e3f8	-0.0020277482
37	0xbb2b92b6	-0.0026179976
38	0xbb77e1a0	-0.0037823692
39	0xb9bf0123	-0.00036431206
40	0xbb0271ce	-0.0019904259
41	0xbb865e27	-0.0041005793
42	0xbb196d96	-0.0023411266
43	0xbb523a02	-0.0032078032
44	0xbb13d426	-0.002255687
45	0xba4090bc	-0.0007345786
46	0xbc2e952e	-0.010655684
47	0x39f7f2bd	0.00047292365
48	0x39b3c29b	0.00034286533
49	0xbb3f3d9e	-0.0029181014
50	0xbb08bc0c	-0.0020864038
51	0x3ab86650	0.0014068577
52	0x39bf6954	0.00036508834
53	0xba820279	-0.000991895
54	0x3921605b	0.00015390052
55	0x3a5984b6	0.00082976685
56	0xbb5acef0	-0.0033387505
57	0xbb2c7cff	-0.002631962
58	0xbb0d0188	-0.0021515805
59	0xbb3a2039	-0.0028400554
60	0xba67261a	-0.0008817628
61	0x3ab89cdd	0.0014084835
62	0xbb5c9352	-0.0033657146
63	0x3ad0c46f	0.0015927682
64	0xbb5f59ef	-0.0034080704
65	0xba18a412	-0.0005822788
66	0x3a90bca9	0.0011042553
67	0x3a896e70	0.0010485183
68	0x3a588a9a	0.00082603993
69	0xbc062440	-0.008187354
70	0x3ac25203	0.0014825467
71	0xba9f7b44	-0.0012167473
72	0xbaf6f7b6	-0.0018842134
73	0x3a91373c	0.0011079083
74	0x3b43bc16	0.0029866747
75	0xbb0b0234	-0.002121103
76	0xbb239e83	-0.0024966307
77	0x3be826df	0.007084712
78	0x3aca79fb	0.001544773
79	0x3af9c6c9	0.0019056435
80	0x3ae83b72	0.0017717911
81	0xbaff818b	-0.0019493563
82	0xbb7262a3	-0.0036985062
83	0x3abf0c52	0.0014575815
84	0x3a48c32e	0.00076584786
85	0xbab4ed79	-0.0013803683
86	0xbb140f36	-0.0022592074
87	0xbb68e1ec	-0.003553505
88	0xbb4dfc3e	-0.0031430866
89	0xbb4c03d1	-0.0031130204
90	0x396d145b	0.00022609664
91	0xbb650f84	-0.0034951875
92	0xbb2bf763	-0.0026239983
93	0x3ab66bee	0.0013917664
94	0xb91557be	-0.00014242434
95	0xbb2ec5f9	-0.0026668294
96	0xbb8597b1	-0.004076921
97	0xbb9fcaed	-0.0048764856
98	0xbb957597	-0.004561137
99	0xbb4bb405	-0.0031082642
100	0x3b0e82f3	0.0021745532
101	0xbb2f3efb	-0.002674042
102	0xbb3f5b1c	-0.0029198593
103	0xbad6c3db	-0.0016385274
104	0xbaece333	-0.0018073082
105	0x388135f0	6.161246e-05
106	0xbb9d6a71	-0.0048039486
107	0x3ac4dada	0.0015018836
108	0xbb1d48a0	-0.0023999587
109	0xbb1c7873	-0.0023875504
110	0xbaece645	-0.0018073997
111	0xbb0b8b23	-0.0021292649
112	0x3aeb3977	0.0017946203
113	0xbb56af9a	-0.0032758475
114	0xbb19306a	-0.0023374804
115	0x3a5521aa	0.00081303215
116	0x3aa910c5	0.0012898674
117	0x389b5f7a	7.40876e-05
118	0x3b6833c4	0.0035431245
119	0xbb0de407	-0.0021650807
120	0x3be01191	0.0068380316
121	0x3a00dc17	0.00049156084
122	0x3ab80a45	0.0014041146
123	0x3a954857	0.0011389357
124	0xb9fa936e	-0.0004779356
125	0xbb13bd73	-0.002254334
126	0x3a872b9a	0.0010312677
127	0xbb3ee5ec	-0.0029128743

action_model._continuous_distribution.mu.weight f4 [1, 128]
0	0xbc2a1285	-0.010380392
1	0xbbbd1073	-0.005769783
2	0xbcd6f9f8	-0.026242241
3	0xbc3bd374	-0.011463989
4	0xbc162251	-0.009163455
5	0x3c0fefb4	0.008785177
6	0x3a44bd5a	0.0007505022
7	0xbba2410c	-0.004951602
8	0x3c226027	0.00991062
9	0x3ce3c050	0.027801663
10	0x3c81165f	0.015757738
11	0xbd0146f5	-0.03156181
12	0xbc6ae75c	-0.014337387
13	0xbc8300b5	-0.015991548
14	0x3bd9cfca	0.006647085
15	0x3c83d717	0.016093774
16	0x3b3e525c	0.002904079
17	0x3bfcd65d	0.007715984
18	0x3b08c41e	0.0020868848
19	0xbd1e03fc	-0.03857802
20	0x3c2cb332	0.01054077
21	0x3c12c70e	0.008958591
22	0xbbd336dd	-0.006445749
23	0x3ab365aa	0.0013686914
24	0xbd1ad762	-0.03780306
25	0xbc180fcb	-0.009281109
26	0xbc2b91ff	-0.01047182
27	0xbc40f5e4	-0.011777375
28	0x3c20a5ec	0.009805184
29	0x39fdaee3	0.0004838622
30	0x3a51dc99	0.0008005589
31	0xbba9dad8	-0.005183559
32	0xbbfa9ed1	-0.007648327
33	0xbd02dafb	-0.031947117
34	0xbb5db1d8	-0.0033827927
35	0x3c093b22	0.008375915
36	0xbbb0e41c	-0.0053982865
37	0xbc5da1b5	-0.0135273235
38	0xbd307ccb	-0.04308776
39	0x3bbae3b0	0.005703412
40	0x3b045716	0.0020193509
41	0x3d00d5c9	0.03145388
42	0xbcbeb257	-0.023278398
43	0xbc95dcb9	-0.018293725
44	0xbd12023e	-0.03564667
45	0x3b724d79	0.0036972447
46	0xbb27747f	-0.0025551615
47	0x3c6a4615	0.014298935
48	0x3c228871	0.0099202255
49	0xbbffd4c1	-0.0078073447
50	0xbcefb7af	-0.029262392
51	0x3c1b0723	0.009462151
52	0x3c923c61	0.017851057
53	0x3accc63e	0.0015623046
54	0x3baec59c	0.0053336155
55	0x3c9e7773	0.019344067
56	0xbc8b8b5b	-0.017034223
57	0xbc95dd15	-0.018293897
58	0xbccd3fee	-0.025054898
59	0xb9e503b0	-0.0004368103
60	0x3cdf0732	0.02722511
61	0x3c8b23a7	0.016984774
62	0x3b42dd1c	0.0029733842
63	0xbc0f45fa	-0.008744711
64	0xbaabce87	-0.0013107815
65	0xbc928450	-0.017885357
66	0x3c0f8683	0.008760097
67	0x3cc5cb8e	0.024144914
68	0x3c77e75c	0.015130844
69	0x3ab1b9f6	0.0013559449
70	0x3cc00af9	0.023442732
71	0x3bae4e0b	0.005319362
72	0xbc06ff57	-0.008239589
73	0x3cafcfd5	0.021461407
74	0x3c50f123	0.012752804
75	0xbad93d2f	-0.001657402
76	0xbc578e9e	-0.013156561
77	0xba9ee8a5	-0.0012123777
78	0x3c86774c	0.016414307
79	0x3ca2f6a5	0.019893
80	0x3c9f7d9d	0.019469077
81	0x3d1867c5	0.037208337
82	0xb9862c09	-0.0002559128
83	0x3bbd5861	0.005778358
84	0xbc398ed3	-0.011325556
85	0xbc680eb8	-0.0141636655
86	0xbc5492a7	-0.012974418
87	0xbab9ecb7	-0.0014184926
88	0xbac9bf24	-0.0015392047
89	0xbb111bf7	-0.0022141912
90	0xbc9efcc6	-0.019407641
91	0xbb7b6882	-0.0038361852
92	0xbcd08305	-0.0254531
93	0xbca80629	-0.02051075
94	0x3c2acf71	0.010425434
95	0xbc45fc78	-0.012084119
96	0x386bd40e	5.6225857e-05
97	0xbcd0644d	-0.025438452
98	0xbaafae7c	-0.0013403441
99	0xbc968580	-0.018374205
100	0x3ce8af96	0.028404038
101	0xbcbb8653	-0.0228912
102	0xbc43c3f5	-0.011948575
103	0xbc80be27	-0.015715672
104	0xbc3cff7a	-0.01153552
105	0xbc863505	-0.016382704
106	0x3a8bbded	0.0010661461
107	0x3d1d392e	0.03838461
108	0x3c96d2e3	0.018411105
109	0xbb9e5eb8	-0.0048330687
110	0xbc29b614	-0.010358352
111	0xbd1267f0	-0.035743654
112	0x3c97cf64	0.018531509
113	0x3b277fee	0.002555843
114	0x3cca56aa	0.024699528
115	0x3b12207c	0.0022297194
116	0x3d5ad22a	0.053423084
117	0x3c991ce1	0.018690528
118	0x3c98db6b	0.018659314
119	0xbcd90082	-0.0264895
120	0x3c1c3b86	0.009535676
121	0x3b4cfb85	0.0031277847
122	0x3c549c1e	0.012976674
123	0x3bef89f8	0.0073101483
124	0xbab65409	-0.0013910542
125	0xbd369b28	-0.044581562
126	0x3cdba3ce	0.026811507
127	0xbc22cd80	-0.00993669

exp_avg f4 [128, 7]
0	0xba0188f7	-0.0004941369
1	0xba37bf31	-0.0007009386
2	0xb960eb44	-0.00021449948
3	0x38ffeb3a	0.00012203162
4	0xb8c94e51	-9.5990144e-05
5	0x3c1819f7	0.009283534
6	0xbb0094ba	-0.0019619898
7	0xb8bdbe63	-9.0476846e-05
8	0xb954cb63	-0.00020293663
9	0xb7c90779	-2.3964547e-05
10	0xb81a1586	-3.6736506e-05
11	0xb8befae5	-9.106639e-05
12	0x3b01f4d2	0.0019829762
13	0xba0b7d2c	-0.0005321081
14	0x39145755	0.00014146914
15	0x3a0174b3	0.0004938349
16	0xb779b854	-1.4884474e-05
17	0x3911a124	0.00013888307
18	0x39738bb7	0.00023226334
19	0xbb7c0bd3	-0.0038459196
20	0x3ad26532	0.0016051887
21	0x38d50d48	0.00010159105
22	0x39a2c4e3	0.0003104574
23	0x377e9320	1.5173835e-05
24	0x37a61f83	1.9803416e-05
25	0x390f4d59	0.00013666357
26	0xbad71115	-0.0016408289
27	0x3a1bc908	0.0005942737
28	0xb8ffd409	-0.00012198842
29	0xb97ee76a	-0.00024309536
30	0xb8367c01	-4.350767e-05
31	0x36336639	2.673258e-06
32	0xb857aa07	-5.1418345e-05
33	0x3ab5b23c	0.0013862322
34	0xb9efb963	-0.00045723756
35	0xba10e0f5	-0.0005526685
36	0xbab56485	-0.0013839161
37	0xb9050fd2	-0.00012689762
38	0xb99ffff9	-0.00030517558
39	0xba1919f0	-0.0005840352
40	0x3c0407ef	0.008058532
41	0xbb32d6e2	-0.0027288725
42	0x390f1691	0.0001364595
43	0x3977424d	0.00023580455
44	0x383b5030	4.4658955e-05
45	0x388e52bf	6.7865e-05
46	0x38cbfe09	9.727112e-05
47	0xbaeaef00	-0.0017924011
48	0x3a14d143	0.00056769344
49	0x37398470	1.1057695e-05
50	0xb6fd079b	-7.540873e-06
51	0x37781f43	1.4789231e-05
52	0xb7fe6ff3	-3.033129e-05
53	0xb81e865a	-3.779526e-05
54	0xb91ffd57	-0.00015257798
55	0x36473d87	2.9689124e-06
56	0x39eab427	0.00044766182
57	0x3a91ad8a	0.0011114341
58	0x3908d411	0.00013048972
59	0x39873942	0.00025791867
60	0x39f09595	0.00045887814
61	0xbc1d9efa	-0.0096204225
62	0x3b0d14a4	0.0021527195
63	0xb801cc1e	-3.0946096e-05
64	0xb70c7e7e	-8.3741015e-06
65	0x355119ee	7.78963e-07
66	0xb7592c02	-1.2944454e-05
67	0x37e090fc	2.6770394e-05
68	0x3a9afafb	0.0011824066
69	0xba0f483d	-0.00054657814
70	0x386bddd0	5.6234945e-05
71	0x38a5f1a1	7.91282e-05
72	0x37f77326	2.9498315e-05
73	0xb8543f5b	-5.0603743e-05
74	0x3724eb48	9.829942e-06
75	0xb9e695f4	-0.00043980742
76	0xb80018df	-3.054074e-05
77	0x39349744	0.00017222489
78	0x39f24ec8	0.00046216534
79	0x380e3e52	3.391348e-05
80	0x390f76b8	0.00013681769
81	0x395e411e	0.00021195828
82	0xbb22e694	-0.0024856674
83	0x3a625010	0.0008633146
84	0x377370c0	1.451018e-05
85	0x385bec5e	5.2433803e-05
86	0xb5e7c7e9	-1.7269023e-06
87	0x37b1f89c	2.1215812e-05
88	0x383c3bdc	4.487844e-05
89	0x38e920ca	0.00011116413
90	0xb7b1329b	-2.112361e-05
91	0xb978d6ff	-0.00023731215
92	0xb9fc61d0	-0.00048138062
93	0xb8a569f5	-7.887549e-05
94	0x38bcbc48	8.999609e-05
95	0xb91cdab1	-0.00014958788
96	0x3b8bded7	0.004268508
97	0xba6d3453	-0.00090486294
98	0x374ad2c9	1.20892155e-05
99	0x38d64d19	0.00010218676
100	0xb795b543	-1.784659e-05
101	0x3859225c	5.176883e-05
102	0x3916da0f	0.00014386348
103	0x3a0a7471	0.00052816333
104	0xb942f59b	-0.00018592777
105	0xb9d64af2	-0.000408731
106	0xba871e61	-0.0010308736
107	0xb8a69f66	-7.945187e-05
108	0xb9cf4266	-0.00039531587
109	0xb9f32988	-0.00046379515
110	0x3bacdf2e	0.0052756285
111	0xbb1540c6	-0.0022774204
112	0xb8e3c23d	-0.00010860383
113	0xb9aa7415	-0.00032511415
114	0xb7127cb9	-8.731317e-06
115	0xb80d68ad	-3.3714507e-05
116	0xb98aab7e	-0.00026449183
117	0x397c7a8a	0.00024078242
118	0xb7460dc3	-1.1804924e-05
119	0x39934869	0.00028091975
120	0x3a4ac8a6	0.00077355874
121	0x382ec544	4.166855e-05
122	0x39c132e9	0.0003684976
123	0x39b074ec	0.0003365645
124	0xbafe0523	-0.0019380193
125	0x3ac169fe	0.001475632
126	0x396e86de	0.0002274769
127	0x3a0529ad	0.00050797575
128	0x389e7fdd	7.5578435e-05
129	0x3764c57d	1.363584e-05
130	0x39575326	0.00020534973
131	0xbba810ba	-0.005128947
132	0x3a85e781	0.0010216088
133	0x3920df16	0.00015341895
134	0x39ba4ae7	0.0003553249
135	0x38427423	4.6361365e-05
136	0x38b0380f	8.402776e-05
137	0x39309d2d	0.0001684322
138	0xbb5080ad	-0.0031814978
139	0x3a3b761b	0.0007151083
140	0xb8bec10c	-9.095864e-05
141	0xb930106f	-0.0001679079
142	0xb845a25c	-4.711967e-05
143	0x3894a680	7.088203e-05
144	0xb82a1b92	-4.0556835e-05
145	0x3b156ef1	0.0022801722
146	0xb91522a2	-0.00014222649
147	0x38b5decc	8.672252e-05
148	0x393b0c33	0.00017838254
149	0x380a9322	3.3038792e-05
150	0x352abd6c	6.360558e-07
151	0x387816d5	5.914907e-05
152	0xbb76bbe7	-0.003764862
153	0x3a2ef3c8	0.00066738995
154	0x39b7663a	0.00034980645
155	0x3a2ecf9b	0.0006668509
156	0x38ff1dc8	0.00012164895
157	0x3653f5c0	3.1584495e-06
158	0x396fb6c4	0.00022860902
159	0xbbb5f22f	-0.005552552
160	0x3aa78f73	0.001278384
161	0x3a065c11	0.00051254133
162	0x3a9aad17	0.0011800852
163	0x39152c56	0.00014226264
164	0x38be1589	9.063917e-05
165	0x39f5e91c	0.00046903722
166	0xbc0ec093	-0.008712905
167	0x3b12f492	0.0022423607
168	0x3a052e2d	0.0005080428
169	0x3aa107b7	0.0012285624
170	0x38f57e05	0.00011705983
171	0x39896eaf	0.00026213142
172	0x3a079e2d	0.00051734113
173	0xbbe8484c	-0.0070886966
174	0x3b1f1471	0.0024273659
175	0xb93b2e1a	-0.00017850884
176	0xb9b4d00f	-0.0003448729
177	0xb8a36213	-7.7907134e-05
178	0x38843b0e	6.30525e-05
179	0xb8dfc978	-0.00010670995
180	0x3b6403f6	0.00347924
181	0xb9d822ad	-0.00041224566
182	0xb8964978	-7.166242e-05
183	0xb929d336	-0.00016195778
184	0xb7776f25	-1.4748225e-05
185	0xb852e169	-5.027783e-05
186	0xb9041e44	-0.00012599776
187	0x3952ab49	0.0002009097
188	0xb88ba9a5	-6.659635e-05
189	0x34de6645	4.1425133e-07
190	0x381c9fbd	3.7342066e-05
191	0xb6cfd1b9	-6.1934957e-06
192	0x3638260e	2.7440287e-06
193	0x38361cd0	4.3419015e-05
194	0x3948d2a1	0.00019151952
195	0xb8af22c7	-8.351128e-05
196	0xb7f5f6f7	-2.9321278e-05
197	0xb8762642	-5.86866e-05
198	0xb706b31f	-8.028727e-06
199	0xb7b0114f	-2.0988895e-05
200	0xb7e9d741	-2.7876e-05
201	0x39c4deca	0.00037550024
202	0xb851239e	-4.9862654e-05
203	0xba1aa12b	-0.00058986497
204	0xbaaabda5	-0.0013026489
205	0xb9369f49	-0.00017416211
206	0xb999eae8	-0.00029357453
207	0xb9f2fba5	-0.00046345327
208	0x3c13b231	0.009014652
209	0xbb280cce	-0.0025642398
210	0xb6e27af0	-6.7496367e-06
211	0x37b77102	2.1867923e-05
212	0xb700c93f	-7.676251e-06
213	0x37f8b944	2.9650175e-05
214	0x380bc929	3.3327527e-05
215	0x39dee395	0.00042512701
216	0x38066639	3.2043292e-05
217	0x3881ce7d	6.189661e-05
218	0x39189caf	0.00014554219
219	0x378547ab	1.5888209e-05
220	0x38ea963c	0.00011185973
221	0x3888399f	6.495718e-05
222	0x3a24797a	0.0006274205
223	0x38cbf195	9.7247925e-05
224	0x395b56f7	0.00020917864
225	0x39cf3920	0.00039524678
226	0x38a8fe2c	8.0582075e-05
227	0xb7e59e1e	-2.7372556e-05
228	0x38f0d646	0.00011484003
229	0xbb215157	-0.0024615133
230	0x3a06634a	0.00051264896
231	0xb9d79ae7	-0.00041123407
232	0xba528879	-0.00080312
233	0xb9244e4e	-0.0001566943
234	0x38f7be43	0.00011813317
235	0xb96d9cc3	-0.0002266048
236	0x3bdcaef1	0.006734722
237	0xbaac9303	-0.0013166372
238	0xb9dd185a	-0.00042170548
239	0xba539485	-0.00080711424
240	0xb916dde0	-0.0001438777
241	0x38493bd1	4.7977843e-05
242	0xb9939bf1	-0.0002815421
243	0x3bfeafd1	0.007772424
244	0xbaec65ef	-0.001803575
245	0x36bf567f	5.702313e-06
246	0x382688df	3.9704955e-05
247	0xb65e7151	-3.3146537e-06
248	0x358f7e74	1.0691133e-06
249	0x383e6f90	4.540343e-05
250	0x391e3511	0.00015087823
251	0xb88fea80	-6.8624504e-05
252	0x39152aed	0.00014225738
253	0x39ae0c06	0.00033196824
254	0x386d7899	5.661752e-05
255	0x395571af	0.00020355613

exp_avg_sq f4 [128, 7]
0	0x35e8ad65	1.7335811e-06
1	0x3640e622	2.8744184e-06
2	0x3530f488	6.592095e-07
3	0x36b884ce	5.499088e-06
4	0x35420310	7.227509e-07
5	0x3a735fd2	0.00092839927
6	0x37faf10e	2.9914572e-05
7	0x32c841f3	2.3313055e-08
8	0x32f2dec0	2.8273803e-08
9	0x31f4b78b	7.122201e-09
10	0x3351e5ee	4.8870724e-08
11	0x31f9a43b	7.2655246e-09
12	0x371bf030	9.294643e-06
13	0x34b43094	3.3562958e-07
14	0x352174d3	6.0147175e-07
15	0x353372e1	6.6849867e-07
16	0x344e6898	1.9223296e-07
17	0x35c80875	1.4903623e-06
18	0x346f2786	2.2272988e-07
19	0x396e2d1d	0.00022714255
20	0x370ad5b5	8.2751985e-06
21	0x337d3197	5.8951255e-08
22	0x33857c20	6.215873e-08
23	0x32cca63a	2.3824317e-08
24	0x341818fd	1.4165194e-07
25	0x329301c3	1.7113853e-08
26	0x378b6ee4	1.6621729e-05
27	0x352caaef	6.4323734e-07
28	0x350cbe4c	5.243098e-07
29	0x35435795	7.277061e-07
30	0x344c7c42	1.9044185e-07
31	0x35c368ed	1.455917e-06
32	0x344a60f8	1.8847993e-07
33	0x396b3775	0.00022432006
34	0x37019085	7.722648e-06
35	0x3588b4c8	1.0185404e-06
36	0x35a02bcb	1.1933674e-06
37	0x34bf410a	3.5623844e-07
38	0x3618e8dc	2.2785307e-06
39	0x34b02808	3.281168e-07
40	0x39c8b058	0.0003827836
41	0x378036f3	1.5284377e-05
42	0x32f2dbcc	2.827246e-08
43	0x338a94bf	6.4531825e-08
44	0x320f1faa	8.330895e-09
45	0x33dd3660	1.0301005e-07
46	0x328a3e88	1.609375e-08
47	0x378ea635	1.7005115e-05
48	0x3538502c	6.8662007e-07
49	0x3488353b	2.5370704e-07
50	0x34ab1882	3.1869064e-07
51	0x33ca6a3a	9.4256805e-08
52	0x3529faed	6.332255e-07
53	0x33b09d92	8.2243005e-08
54	0x38ce848d	9.847535e-05
55	0x365f1c98	3.3246233e-06
56	0x34e5d228	4.2807483e-07
57	0x34f53248	4.567139e-07
58	0x3432ee98	1.6664342e-07
59	0x35882e52	1.0146271e-06
60	0x34309585	1.6445672e-07
61	0x39414f2a	0.00018435405
62	0x36f5959e	7.3189867e-06
63	0x347a0d48	2.3287896e-07
64	0x352100d9	5.997841e-07
65	0x338e0e8f	6.6150385e-08
66	0x35c5c490	1.4734851e-06
67	0x346f3735	2.2278694e-07
68	0x39375275	0.00017482958
69	0x36ed931e	7.080277e-06
70	0x33891311	6.383028e-08
71	0x338b6dc3	6.4926574e-08
72	0x329141eb	1.6910198e-08
73	0x33f21e8b	1.1274559e-07
74	0x3294c51b	1.73191e-08
75	0x37ab77e8	2.0440624e-05
76	0x3546d7f5	7.4075007e-07
77	0x3310d93f	3.3725197e-08
78	0x332f14d5	4.076431e-08
79	0x3253ec30	1.2335519e-08
80	0x33e75fd8	1.07742096e-07
81	0x326df72e	1.3851418e-08
82	0x377ea17c	1.5177178e-05
83	0x3518fc42	5.6991496e-07
84	0x35063321	4.999329e-07
85	0x353fea96	7.149441e-07
86	0x344d7b6f	1.9137018e-07
87	0x35c377c8	1.4563493e-06
88	0x34535cc1	1.968465e-07
89	0x39582d3e	0.00020616219
90	0x36e994fd	6.9612856e-06
91	0x33cfaefd	9.671019e-08
92	0x34164d77	1.399802e-07
93	0x3310ed6f	3.3743557e-08
94	0x34753558	2.283681e-07
95	0x3311b2fb	3.3923225e-08
96	0x382bc54f	4.0953335e-05
97	0x35daf9fd	1.6315022e-06
98	0x36430b97	2.906401e-06
99	0x3681cb4e	3.8681674e-06
100	0x358f80b2	1.0691786e-06
101	0x36f4c534	7.294724e-06
102	0x3580226d	9.546762e-07
103	0x3a9e3b5e	0.0012072136
104	0x382a2d74	4.057349e-05
105	0x3560a44d	8.368559e-07
106	0x358058bd	9.562569e-07
107	0x34936309	2.745294e-07
108	0x35f5a6fa	1.8302519e-06
109	0x348e788f	2.653728e-07
110	0x39a5628d	0.00031544678
111	0x375284e9	1.2547921e-05
112	0x3697fbbe	4.5294573e-06
113	0x36db0591	6.5273566e-06
114	0x35dedcd7	1.6604562e-06
115	0x375718b5	1.2820751e-05
116	0x35e4cb61	1.7046515e-06
117	0x3b0410c5	0.0020151597
118	0x388f3cc3	6.830089e-05
119	0x34eff719	4.4697006e-07
120	0x35253ea8	6.1558467e-07
121	0x34192241	1.4261697e-07
122	0x35ad3b16	1.2906701e-06
123	0x343ee1cf	1.7777278e-07
124	0x39403f15	0.00018334047
125	0x36f59722	7.319163e-06
126	0x344949c8	1.8746425e-07
127	0x33eb76cc	1.0964649e-07
128	0x339b443a	7.23016e-08
129	0x34a9134c	3.1492743e-07
130	0x33283846	3.916673e-08
131	0x3833eea7	4.2899188e-05
132	0x35f8b234	1.8529304e-06
133	0x330f2981	3.333253e-08
134	0x330d9d83	3.2972377e-08
135	0x323e0c78	1.1062291e-08
136	0x339016df	6.709683e-08
137	0x32343919	1.04903615e-08
138	0x376723c6	1.3777002e-05
139	0x3511eb39	5.4359003e-07
140	0x32be0baf	2.2124224e-08
141	0x32f81e00	2.8884642e-08
142	0x31dfeece	6.517303e-09
143	0x33893feb	6.391186e-08
144	0x322d7f57	1.0098879e-08
145	0x372ee38a	1.0424186e-05
146	0x34e6c66d	4.2985212e-07
147	0x34804c46	2.3897354e-07
148	0x34ba6791	3.4720554e-07
149	0x33bb381f	8.7180744e-08
150	0x35645844	8.506506e-07
151	0x340230b0	1.2124906e-07
152	0x38e762ca	0.00011033339
153	0x366b0c8a	3.5025028e-06
154	0x33d4bd23	9.906423e-08
155	0x3449c196	1.879001e-07
156	0x3311c420	3.3938818e-08
157	0x34aceb1a	3.2208555e-07
158	0x335d22bd	5.1487167e-08
159	0x387dcd51	6.0511116e-05
160	0x3621367c	2.4022584e-06
161	0x34ac1757	3.2054479e-07
162	0x34e77757	4.3113934e-07
163	0x33fba46f	1.17180086e-07
164	0x355f792f	8.325032e-07
165	0x3402ae19	1.217053e-07
166	0x3913bba4	0.00014088914
167	0x36b96fa9	5.5264286e-06
168	0x35523ef5	7.832271e-07
169	0x358336af	9.776176e-07
170	0x348b0b2a	2.589889e-07
171	0x35ef3d4d	1.7824729e-06
172	0x3486780f	2.50468e-07
173	0x399b68e7	0.00029642062
174	0x37441aa3	1.1688712e-05
175	0x3352a96c	4.9048523e-08
176	0x33937ee7	6.868304e-08
177	0x328d2fc8	1.6436289e-08
178	0x341e9008	1.4767295e-07
179	0x32cdb031	2.3945264e-08
180	0x37cb1865	2.4210845e-05
181	0x358c0045	1.0430891e-06
182	0x34ca6c12	3.7704064e-07
183	0x3529fa6a	6.3321806e-07
184	0x33fdb134	1.18134636e-07
185	0x35a87166	1.2549979e-06
186	0x34332ff4	1.668812e-07
187	0x3953a45f	0.00020183761
188	0x36ef55f9	7.1327636e-06
189	0x34fc8884	4.7037986e-07
190	0x351a34fe	5.7446584e-07
191	0x34478d0e	1.8584635e-07
192	0x3599052e	1.1400896e-06
193	0x34210060	1.499443e-07
194	0x394462d9	0.0001872884
195	0x36d44635	6.3262655e-06
196	0x3374356b	5.685926e-08
197	0x33c02688	8.9477055e-08
198	0x329ed738	1.8491491e-08
199	0x34226298	1.5123294e-07
200	0x32abee78	2.0015463e-08
201	0x37d44431	2.5304123e-05
202	0x357231d9	9.0224563e-07
203	0x34f5d051	4.5786376e-07
204	0x3544afe3	7.327164e-07
205	0x3436c11a	1.7020321e-07
206	0x35b4142f	1.3416919e-06
207	0x34597d2b	2.0255236e-07
208	0x396a6c82	0.00022356401
209	0x3718affa	9.100879e-06
210	0x32a04d94	1.866173e-08
211	0x331bb2fb	3.625153e-08
212	0x31bcdd49	5.4966773e-09
213	0x33d2161b	9.782908e-08
214	0x3268faa2	1.3561165e-08
215	0x374235dc	1.1575841e-05
216	0x3504731f	4.9341355e-07
217	0x33b27cd3	8.311476e-08
218	0x33ff953f	1.19015105e-07
219	0x32b7c95d	2.1395573e-08
220	0x344543bc	1.8371696e-07
221	0x32c6c59c	2.3140096e-08
222	0x38048388	3.159375e-05
223	0x35a18c69	1.20363e-06
224	0x32a1ee43	1.8851216e-08
225	0x3341fea6	4.5167916e-08
226	0x31dbcdbc	6.397128e-09
227	0x33b4a5a0	8.41203e-08
228	0x323db3bf	1.1042117e-08
229	0x37344bd5	1.0746492e-05
230	0x34eefc05	4.4514323e-07
231	0x3477cd98	2.3078462e-07
232	0x34c92ee9	3.74733e-07
233	0x33c4dbc1	9.166934e-08
234	0x3537009f	6.8173716e-07
235	0x33df9eab	1.0413108e-07
236	0x38f7386d	0.00011788388
237	0x369ec944	4.7321973e-06
238	0x33e4c2fe	1.0652546e-07
239	0x343c6d7d	1.7548696e-07
240	0x3318fc7a	3.5619884e-08
241	0x34a79cd1	3.1220273e-07
242	0x33602929	5.21915e-08
243	0x38792d56	5.940845e-05
244	0x3623a8ba	2.4387105e-06
245	0x34adbde3	3.2361922e-07
246	0x3502e718	4.876506e-07
247	0x33ef5057	1.11439185e-07
248	0x357e846e	9.4815084e-07
249	0x340a458c	1.2877553e-07
250	0x39204b3a	0.00015286813
251	0x36af08ad	5.2164164e-06
252	0x33ed083e	1.1037672e-07
253	0x33f55c4d	1.1425491e-07
254	0x333c485a	4.3837964e-08
255	0x34896102	2.558882e-07

exp_avg f4 [128]
0	0xba4ffec6	-0.00079343875
1	0xb94ff945	-0.00019833918
2	0x39a77606	0.00031940656
3	0x3931b6c0	0.00016948115
4	0xb8d4a028	-0.00010138779
5	0xba565313	-0.0008175831
6	0x392a7ce1	0.00016258984
7	0x36afe5e2	5.2421683e-06
8	0x3a7a427d	0.00095466507
9	0x384d5beb	4.8961414e-05
10	0x38599927	5.1879466e-05
11	0x3982578a	0.00024860754
12	0x38051779	3.173153e-05
13	0xb9dbca10	-0.00041921483
14	0x3880dc3c	6.1445375e-05
15	0xba0c0ae8	-0.00053422013
16	0xb943d4b1	-0.00018675883
17	0x3947561c	0.00019010197
18	0x3a0607d0	0.00051128585
19	0x39a8c6db	0.00032191616
20	0xb97007da	-0.00022891109
21	0x39a2e2d6	0.00031068054
22	0x3a0dec07	0.0005413894
23	0x3a647a7b	0.0008715761
24	0x3a39f7c7	0.00070941116
25	0xb9b5827c	-0.0003462023
26	0xb8c5a931	-9.4252064e-05
27	0x38043b3d	3.1526422e-05
28	0xb80d28f3	-3.3655157e-05
29	0xba7414d0	-0.00093109626
30	0x37ca9fb1	2.4154639e-05
31	0xb6e8c53f	-6.9371013e-06
32	0x3981f3a4	0.00024786324
33	0xba3027c3	-0.0006719792
34	0xba4be706	-0.00077782606
35	0x37aba3c6	2.0461051e-05
36	0x398e3040	0.000271203
37	0x37a1a61b	1.9270045e-05
38	0xb901ae58	-0.00012367347
39	0x36e17d52	6.7201117e-06
40	0xb6da4f0a	-6.5061076e-06
41	0x3809b5c1	3.2832617e-05
42	0x39e1f3fc	0.00043097127
43	0x38dc2f8f	0.00010499276
44	0x378766eb	1.6141179e-05
45	0xb99f82d6	-0.00030424324
46	0xba35e633	-0.00069389044
47	0xb992fd72	-0.00028036122
48	0x3a1e3eb2	0.0006036564
49	0x3a8000db	0.000976588
50	0x3a0c6265	0.0005355238
51	0xb73e118c	-1.1328968e-05
52	0xba42a423	-0.0007424971
53	0xb875792d	-5.8525406e-05
54	0x378ed6e5	1.7027787e-05
55	0x381af50d	3.6944683e-05
56	0xb8b7a1ff	-8.756294e-05
57	0x370687b6	8.01862e-06
58	0xb915a61e	-0.00014271631
59	0x381db011	3.759569e-05
60	0xba324767	-0.0006800801
61	0xb8ee7e62	-0.00011372265
62	0x39329bbf	0.00017033423
63	0x382b228f	4.0801762e-05
64	0x37ae4793	2.0775746e-05
65	0xb6b0e68c	-5.272048e-06
66	0x3999310f	0.00029218986
67	0xb5fbc167	-1.8757245e-06
68	0xba0f7ec7	-0.00054739084
69	0x39715fe4	0.00023019273
70	0x39e8b5c7	0.00044385923
71	0x386bc2da	5.6209836e-05
72	0x37923127	1.7427445e-05
73	0xb9213e05	-0.0001537726
74	0x3866e4f5	5.5049506e-05
75	0xb728b74e	-1.0056259e-05
76	0x3a53aba3	0.0008074587
77	0xb8291458	-4.0311686e-05
78	0x39ec50ed	0.00045073722
79	0x36c5ffbe	5.90083e-06
80	0xb91f3e6d	-0.00015186677
81	0x38919545	6.9419424e-05
82	0xb7f9cd08	-2.9778588e-05
83	0x390ba4cf	0.00013317469
84	0xb9efa71b	-0.00045710136
85	0xb7de8369	-2.6525655e-05
86	0xb8dfe8d0	-0.00010676833
87	0x39489589	0.00019129193
88	0x372a0ff0	1.01365e-05
89	0xba1fc69a	-0.00060949626
90	0x37e9d2c5	2.7873912e-05
91	0x37afc666	2.0954012e-05
92	0xb90d10d3	-0.00013453075
93	0xb7de65fb	-2.651195e-05
94	0xb7c66176	-2.3648823e-05
95	0xb9787d47	-0.00023697792
96	0xb91f785b	-0.00015208258
97	0x3aa1578c	0.0012309416
98	0x39ce5341	0.0003935341
99	0x37f69048	2.9392671e-05
100	0x38abf6d8	8.199894e-05
101	0x38362983	4.3430842e-05
102	0x389edb58	7.574883e-05
103	0x38a448bc	7.833677e-05
104	0xba6cd1d3	-0.0009033952
105	0xb9740bf8	-0.00023274112
106	0x39836f1d	0.00025069053
107	0xb8a10777	-7.678469e-05
108	0x39c32712	0.00037222408
109	0xb9822e70	-0.0002483013
110	0xba9c7aa9	-0.0011938411
111	0x39c5bc72	0.0003771517
112	0x392277e4	0.00015494187
113	0xb89ca5f3	-7.46957e-05
114	0x39aaaaae	0.00032552093
115	0xb820f989	-3.837937e-05
116	0x3826ff1b	3.981507e-05
117	0x3a9743f7	0.0011540641
118	0xb9a3da12	-0.00031252258
119	0x381c04f6	3.719792e-05
120	0xb932dbfc	-0.00017057353
121	0x378b1825	1.6581334e-05
122	0xb69704bd	-4.5007023e-06
123	0xb8cb7a29	-9.7025484e-05
124	0xb888389d	-6.4955304e-05
125	0xb672f816	-3.6205215e-06
126	0xb99127df	-0.00027686261
127	0x368730f4	4.0290124e-06

exp_avg_sq f4 [128]
0	0x3711c35e	8.688161e-06
1	0x33c938ab	9.3701e-08
2	0x36143be9	2.208859e-06
3	0x344f1608	1.9286392e-07
4	0x36198c05	2.2880279e-06
5	0x367efc7b	3.7995912e-06
6	0x34410a8e	1.7978365e-07
7	0x358260f9	9.713978e-07
8	0x35f8b253	1.8529339e-06
9	0x35ed9c74	1.770341e-06
10	0x34638c9a	2.1192173e-07
11	0x3422eda6	1.5173882e-07
12	0x360a66ea	2.0623506e-06
13	0x34d97d25	4.0510454e-07
14	0x374a611d	1.2062749e-05
15	0x3654f279	3.17316e-06
16	0x37a985de	2.0208707e-05
17	0x35ec775f	1.7618112e-06
18	0x3501f1e2	4.840823e-07
19	0x34136586	1.3727376e-07
20	0x33e8288b	1.08107166e-07
21	0x3586d4ec	1.0045746e-06
22	0x352320a1	6.0769713e-07
23	0x35bd7422	1.4115396e-06
24	0x3646d87b	2.9630307e-06
25	0x348e9c09	2.6563092e-07
26	0x36037943	1.9591105e-06
27	0x35fbca71	1.8759876e-06
28	0x348931ea	2.5554556e-07
29	0x3620171c	2.385531e-06
30	0x33fc337e	1.1744031e-07
31	0x348f4fea	2.669397e-07
32	0x33e7ce2b	1.07942775e-07
33	0x359df17a	1.176769e-06
34	0x3524eb49	6.1437146e-07
35	0x35ccecb3	1.5268073e-06
36	0x3506fa56	5.0283177e-07
37	0x34596a0a	2.0248277e-07
38	0x34c741d7	3.7114543e-07
39	0x3502c60c	4.871697e-07
40	0x35c275ce	1.4488412e-06
41	0x369b700a	4.632403e-06
42	0x35cb758a	1.5158887e-06
43	0x362a2fed	2.535987e-06
44	0x349c2059	2.90808e-07
45	0x34a361bc	3.0432227e-07
46	0x368cb316	4.1931735e-06
47	0x348a2187	2.5728897e-07
48	0x348112d1	2.4041813e-07
49	0x357cf8e7	9.4239516e-07
50	0x3564a996	8.51834e-07
51	0x35625f28	8.433003e-07
52	0x368b4a9e	4.1512094e-06
53	0x34398002	1.7276037e-07
54	0x351ea2a4	5.909626e-07
55	0x346bfff6	2.1979199e-07
56	0x362a941e	2.541819e-06
57	0x34ef72e2	4.4600807e-07
58	0x34c1f777	3.6129106e-07
59	0x366f6445	3.567214e-06
60	0x35129a25	5.461355e-07
61	0x35b0c0ae	1.3169099e-06
62	0x35565001	7.9837633e-07
63	0x35923220	1.0892436e-06
64	0x354fb235	7.7372835e-07
65	0x3604352d	1.9700485e-06
66	0x357907d3	9.2771114e-07
67	0x362c8cbf	2.5711922e-06
68	0x36bde2f1	5.6590584e-06
69	0x34ab2e83	3.1885074e-07
70	0x341c3845	1.4549103e-07
71	0x367e26fb	3.787164e-06
72	0x3699571d	4.5698966e-06
73	0x371e20f6	9.425208e-06
74	0x3482e20e	2.4378863e-07
75	0x34995fdb	2.8568215e-07
76	0x3618c09f	2.2761885e-06
77	0x353135da	6.6016e-07
78	0x3568dd0c	8.67484e-07
79	0x36290175	2.518381e-06
80	0x341c0086	1.4528823e-07
81	0x35c21ce6	1.4462537e-06
82	0x33bb4205	8.719875e-08
83	0x3355afa4	4.975267e-08
84	0x360e0cdd	2.1167136e-06
85	0x3486d2f7	2.5112942e-07
86	0x367ccc86	3.7669975e-06
87	0x35281ea1	6.262945e-07
88	0x358505d7	9.910972e-07
89	0x34e28380	4.219146e-07
90	0x35aa360e	1.2681719e-06
91	0x33d791c8	1.0038235e-07
92	0x33f395f0	1.1342843e-07
93	0x3727d803	1.000427e-05
94	0x359c8a33	1.1663127e-06
95	0x338b0f4c	6.4754744e-08
96	0x35235d74	6.0858224e-07
97	0x361085a2	2.1535457e-06
98	0x36311bea	2.6391303e-06
99	0x3589468e	1.022783e-06
100	0x347d94b0	2.3616553e-07
101	0x35a6b3e1	1.2420315e-06
102	0x3434e3f0	1.684673e-07
103	0x3522bd41	6.0625104e-07
104	0x35a736a4	1.2458372e-06
105	0x359275a1	1.0912082e-06
106	0x35100629	5.3653145e-07
107	0x365f764a	3.3298443e-06
108	0x34190647	1.4251519e-07
109	0x3585a0c5	9.956062e-07
110	0x36ff7969	7.613726e-06
111	0x363bb567	2.7970761e-06
112	0x34224c28	1.5115131e-07
113	0x362b7fea	2.5555441e-06
114	0x34b61f47	3.39229e-07
115	0x35b91596	1.3789856e-06
116	0x365179e6	3.121438e-06
117	0x365062bc	3.1051886e-06
118	0x365adfc1	3.2614773e-06
119	0x35cb19cb	1.5132185e-06
120	0x33918b2b	6.777403e-08
121	0x361a1bb5	2.2963916e-06
122	0x33abff89	8.0092896e-08
123	0x34bafaac	3.4827588e-07
124	0x348d86e3	2.636144e-07
125	0x360f50b3	2.1355634e-06
126	0x34ae6460	3.2483058e-07
127	0x358ce875	1.0498467e-06
