Assets/IA/Pruebas/results/Pad05/PadBehavior/PadBehavior-6834.pt (torch, 438395 bytes, 30 tensors)

network_body._body_endoder.seq_layers.0.weight f4 [128, 5]
-0.521549 0.6575405 0.6077106 0.012632702 -0.7120341 -0.40954244 -0.54244745 -0.02195211
0.14007123 -0.3285272 -0.275702 -1.0189692 0.7137523 -0.35259476 -1.2422589 -0.5304895
0.06993494 -0.050019667 -0.6005086 -0.21615301 0.25226265 0.66277045 -0.6114722 -0.1848913
-0.2610748 0.15730527 1.1212924 -0.12632377 -0.7889925 -0.16154182 0.64156973 0.22355999
-0.5211652 -0.48553002 -0.33031508 0.35967684 -0.5113262 0.3727843 0.115299754 0.86458236
0.51477456 0.58517134 -0.7777964 -0.64639974 -0.23100659 -0.202499 -1.2680482 0.3828408
-0.12256865 -0.6711929 0.30834016 -0.5144523 -0.52436596 0.03702223 -0.8676275 0.102214955
-0.20827223 -0.04284076 0.6240921 -0.4574835 -0.058462687 0.39747685 -0.6689873 0.18150675
-0.50945 0.056512594 0.061300304 -0.62549937 0.38017017 0.036620677 -0.22273019 0.17910661
0.1255847 -0.22841552 -0.12977031 0.27145797 -0.5658238 0.3572512 0.29455054 -0.1265331
0.04716793 -0.26935518 -0.5919301 -0.15724255 -0.11683675 0.8512758 -0.067866735 0.298992
-0.20463966 0.4019991 -0.15082605 0.72805655 0.7854506 0.25489032 0.27742425 -0.19146755
0.6806558 0.4429583 -0.4857412 0.6534665 -0.048254013 0.013144182 -0.7972902 0.44610205
-0.07568284 0.034773406 -0.11921515 -0.4922109 0.51399696 -0.094056815 0.28282958 0.2855131
0.22592564 0.040548123 -0.5302815 -0.67802835 0.2522362 0.12846924 -0.22319828 -0.6627111
-0.56394005 -0.33542594 -0.12576365 0.49807256 0.1555477 -0.06913468 -0.40179327 -0.3365665
-0.1954522 0.5554934 -0.40607297 0.18104428 0.1284371 -0.2508667 0.006784239 0.78179765
-0.2541395 0.16964264 -0.5691942 -0.37362635 -0.6143832 0.018633993 0.1190116 0.059535246
0.20392986 -0.093677156 -0.2797498 -0.7402324 0.49673462 -0.4579077 -0.10762796 -0.26686394
-0.17107828 0.25730735 -0.41132 0.602891 0.2525476 -0.44615895 0.0031293272 -0.09663384
-0.2099007 0.15061082 0.6200545 -0.10638215 -0.08660226 0.5577604 0.9402365 -0.88259995
0.11719124 0.40521058 0.1359909 0.013293492 -0.27774653 -0.529632 0.3134089 -0.7504486
0.103439346 -0.4899638 -0.48658696 0.56419444 0.31001785 0.08213957 0.22904396 -0.043664202
-0.42136955 1.3265494 0.47213736 0.22742066 0.47195935 -0.17606165 0.22690758 -0.16335286
-0.30207455 -0.75952727 0.009990016 0.7322509 -1.309266 0.8220097 -0.38244802 -0.37297362
0.8888851 0.31954032 -0.5611414 -0.08657222 -0.39224887 -0.20652744 0.21223122 0.47842696
-0.5728488 0.124845795 0.2771193 0.29325828 -0.018746065 0.47544652 0.27030784 0.25645214
-0.5582861 0.07849645 -0.57232445 0.10296738 -0.072957106 0.89503574 -0.45659757 0.1063019
-0.24676616 -0.5102907 -0.14098544 0.41332445 0.05460329 -0.088556595 0.42625728 0.20991233
0.49522442 0.16955905 0.061846703 -0.095986746 -0.4151738 0.005070213 0.090118885 -0.007985871
-0.21277882 -0.42167264 0.03757034 0.14388077 -0.7901989 0.073493324 0.16861388 0.32205346
-0.16058096 -0.50555825 0.011053981 -0.12661868 0.85813594 -0.78919756 0.20916402 0.22112574
00000000: 3c84 05bf 9354 283f ec92 1b3f 64f9 4e3c
00000010: de47 36bf 8caf d1be d6dd 0abf e9d4 b3bc
00000020: d56e 0f3e b834 a8be d028 8dbe 956d 82bf
00000030: 79b8 363f 4d87 b4be 5702 9fbf 29ce 07bf
00000040: 0d3a 8f3d 6ce1 4cbd eeba 19bf 3757 5dbe
00000050: 9228 813e 53ab 293f 7189 1cbf 2554 3dbe
00000060: 99ab 85be a214 213e 8286 8f3f 055b 01be
00000070: 6afb 49bf 386b 25be ea3d 243f e9ec 643e
00000080: 156b 05bf 6497 f8be 0f1f a9be 9027 b83e
00000090: 46e6 02bf 95dd be3e 4722 ec3d 4555 5d3f
000000a0: 44c8 033f cacd 153f aa1d 47bf 747a 25bf
000000b0: fe8c 6cbe e65b 4fbe 674f a2bf b603 c43e
000000c0: 4605 fbbd 4cd3 2bbf c3de 9d3e 25b3 03bf
000000d0: d93c 06bf 9fa4 173d d61c 5ebf 1356 d13d
000000e0: 5145 55be cb79 2fbd 80c4 1f3f 473b eabe
000000f0: 9276 6fbd 1682 cb3e c042 2bbf e8dc 393e
00000100: 516b 02bf c079 673d 0716 7b3d ba20 20bf
00000110: aaa5 c23e 90ff 153d 6213 64be b967 373e
00000120: 4799 003e c2e5 69be 82e2 04be 8afc 8a3e
00000130: d4d9 10bf a1e9 b63e 54cf 963e e591 01be
00000140: 2933 413d ece8 89be bb88 17bf 3104 21be
00000150: 1b48 efbd 36ed 593f b7fd 8abd 7b15 993e
00000160: 0f8d 51be d3d2 cd3e 2572 1abe ea61 3a3f
00000170: 4a13 493f fc80 823e 8d0a 8e3e 1210 44be
00000180: 753f 2e3f 6ecb e23e 12b3 f8be 9549 273f
00000190: 00a6 45bd b25a 573c 361b 4cbf 7d67 e43e
000001a0: 9bff 9abd 8f6e 0e3d 1327 f4bd 1103 fcbe
000001b0: 4e95 033f dca0 c0bd 0acf 903e c62e 923e
000001c0: 0d59 673e ca15 263d 87c0 07bf 4493 2dbf
000001d0: 1a25 813e 718d 033e 178e 64be 6fa7 29bf
000001e0: 605e 10bf f3bc abbe 30c8 00be 5e03 ff3e
000001f0: e547 1f3e 7c96 8dbd d9b7 cdbe 7252 acbe
00000200: 9f24 48be d134 0e3f cce8 cfbe ac63 393e
00000210: 0485 033e 9a71 80be 524e de3b e423 483f
00000220: 931e 82be cdb6 2d3e b6b6 11bf f44b bfbe
00000230: 3848 1dbf 51a6 983c 5bbc f33d 3bdb 733d
00000240: fdd2 503e cfd9 bfbd 5e3b 8fbe df7f 3dbf
00000250: 0054 fe3e e172 eabe 0c6c dcbd 64a2 88be
00000260: 252f 2fbe cabd 833e 8998 d2be 1157 1a3f
00000270: eb4d 813e f26e e4be 6615 4d3b f6e7 c5bd
00000280: 36f0 56be b939 1a3e e4bb 1e3f e2de d9bd
00000290: 875c b1bd 63c9 0e3f 57b3 703f 12f2 61bf
000002a0: f601 f03d c377 cf3e 3341 0b3e f2cc 593c
000002b0: cb34 8ebe f695 07bf 2277 a03e 661d 40bf
000002c0: 02d8 d33d 89dc fabe ed21 f9be 0c6f 103f
000002d0: a9ba 9e3e ca38 a83d 808a 6a3e 3cd9 32bd
000002e0: c0bd d7be 5fcc a93f fdbb f13e f6e0 683e
000002f0: a8a4 f13e 8149 34be 765a 683e f945 27be
00000300: 84a9 9abe 6170 42bf 2aad 233c cc74 3b3f
00000310: 0796 a7bf 3a6f 523f 3ad0 c3be 66f6 bebe
00000320: f98d 633f ca9a a33e f6a6 0fbf c74c b1bd
00000330: d8d4 c8be ee7b 53be 2453 593e 61f4 f43e
00000340: 38a6 12bf 27af ff3d 95e2 8d3e f325 963e
00000350: 5991 99bc ba6d f33e ca65 8a3e b24d 833e
00000360: d6eb 0ebf bfc2 a03d db83 12bf 90e0 d23d
00000370: 896a 95bd 1021 653f 28c7 e9be d0b4 d93d
00000380: 45b0 7cbe 69a2 02bf 7d5e 10be 439f d33e
00000390: b3a7 5f3d 295d b5bd 653e da3e 42f3 563e
000003a0: 0e8e fd3e e3a0 2d3e f852 7d3d b394 c4bd
000003b0: a991 d4be 0824 a63b 4090 b83d 2cd7 02bc
000003c0: b1e2 59be 7ae5 d7be 5be3 193d 7b55 133e
000003d0: 7a4a 4abf ab83 963d 1ea9 2c3e 31e4 a43e
000003e0: 566f 24be 446c 01bf c21b 353c 54a8 01be
000003f0: ccae 5b3f da08 4abf 182f 563e c96e 623e

network_body._body_endoder.seq_layers.0.bias f4 [128]
-0.0062350184 -0.0042706206 -0.02642336 -0.017786445 -0.004602219 -0.0006063347 -0.016585978 -0.0036972582
-0.012457269 -0.014562661 0.01179907 -0.0009802363 -0.018954907 -0.0074155615 -0.024385968 -0.019167677
-0.019382002 0.006063868 -0.009246258 -0.0053300415 -0.008423484 -0.009876493 -0.00272425 -0.0074407924
-0.0048211417 -0.008054052 -0.0018364602 0.0009538891 0.0012782232 0.0004965135 -0.0009195875 -7.756717e-05
-0.012604347 0.0038875644 -0.001792984 -0.012008098 -0.0028590686 -0.019550286 -0.015970703 -0.007797523
-0.0029847631 0.0019914587 0.00463753 -0.008862132 0.00087565667 0.0039000616 -0.019836184 -0.018394016
-0.0045487983 0.0063976166 -0.0069579673 -0.0012223566 0.00319875 0.0071392474 0.003908868 0.0007313708
-0.022915877 -0.017468542 -0.0017899906 0.0075201206 -0.00554066 -0.041554384 -0.018073086 -0.0015040833
-0.009193291 -0.013949852 -0.013362297 -0.0012319891 -0.0032844201 -0.011256027 -0.012787317 -0.016657896
-0.011322925 -0.016910953 -0.007098633 -0.022209538 0.013442756 -0.005535758 -0.011229443 -0.006681285
-0.015809176 -0.0012691792 0.0020986884 0.007992719 -0.0064681787 0.014781745 -0.009479739 -0.009434244
-0.0140242055 0.008800033 0.025582915 -0.023010766 -0.021373415 -0.0018945456 0.0014557379 -0.01263716
-0.020700064 0.005707517 -0.0040709428 0.0015519119 0.0004767691 -0.0013428184 -0.008310811 -0.007868882
-0.0062069944 -0.01094267 -0.0069730585 -0.0009084421 -0.009996457 0.0095409695 -0.008193988 -0.018529056
-0.0293241 -0.012129467 0.011612338 -0.009197101 0.0028736123 0.002041416 0.0068746456 0.01576312
-0.013369818 0.00030889298 -0.011439357 -0.0008548799 0.0067903157 -0.01299367 -0.009657352 -0.0072583137
00000000: 204f ccbb 90f0 8bbb cd75 d8bc e1b4 91bc
00000010: 36ce 96bb 6ff2 1eba 51df 87bc b34d 72bb
00000020: 9319 4cbc 3a98 6ebc e350 413c 467b 80ba
00000030: 5247 9bbc 3dfe f2bb 15c5 c7bc 8805 9dbc
00000040: 01c7 9ebc 69b3 c63b 9e7d 17bc a1a7 aebb
00000050: a702 0abc 04d1 21bc 5589 32bb e4d1 f3bb
00000060: abfa 9dbb 24f5 03bc 61b5 f0ba 6a0e 7a3a
00000070: 0e8a a73a 7528 023a 7910 71ba 8fab a2b8
00000080: 7782 4ebc 82c6 7e3b 8f02 ebba 9dbd 44bc
00000090: 365f 3bbb ec27 a0bc fed4 82bc 5d82 ffbb
000000a0: 049c 43bb 2283 023b 6cf6 973b 7a32 11bc
000000b0: 538c 653a 2d98 7f3b 7e7f a2bc 0caf 96bc
000000c0: 160e 95bb 19a3 d13b a9ff e3bb 7b37 a0ba
000000d0: 1fa2 513b 59f0 e93b f615 803b 77b9 3f3a
000000e0: 14ba bbbc 301a 8fbc 1e9e eaba 586b f63b
000000f0: 6d8e b5bb ee34 2abd 020e 94bc a924 c5ba
00000100: 759f 16bc ec8d 64bc 89ed 5abc b27a a1ba
00000110: 6d3f 57bb 336b 38bc e581 51bc 2476 88bc
00000120: ca83 39bc d788 8abc a69b e8bb c7f0 b5bc
00000130: 013f 5c3c 4e65 b5bb b3fb 37bc aeee dabb
00000140: 3f82 81bc 965a a6ba 268a 093b e5f3 023c
00000150: 04f3 d3bb 222f 723c e850 1bbc 1692 1abc
00000160: c8c5 65bc 032e 103c 4393 d13c 1381 bcbc
00000170: 4d17 afbc 6752 f8ba 75ce be3a 170c 4fbc
00000180: 2e93 a9bc 1f06 bb3b 8b65 85bb 8669 cb3a
00000190: def6 f939 8201 b0ba 112a 08bc 7cec 00bc
000001a0: 0b64 cbbb e248 33bc 417e e4bb 8424 6eba
000001b0: 2ec8 23bc ba51 1c3c 1440 06bc 3fca 97bc
000001c0: 1839 f0bc acba 46bc ad41 3e3c 70af 16bc
000001d0: 3753 3c3b 47c9 053b b544 e13b a921 813c
000001e0: 150d 5bbc eaf2 a139 246c 3bbc 051a 60ba
000001f0: 4c81 de3b 67e3 54bc df39 1ebc 26d7 edbb

network_body._body_endoder.seq_layers.2.weight f4 [128, 128]
0.034023922 -0.12144091 0.007945252 -0.15058088 0.07214661 -0.13463259 0.18521336 -0.06199399
0.05290972 0.012080335 -0.036599044 0.030203985 -0.0960834 0.042542607 -0.05596799 0.11267373
-0.017088346 0.201738 -0.11791965 0.08477416 0.1511368 -0.13039167 -0.04571973 -0.016065437
-0.04429772 -0.063373804 -0.0014014099 0.05784653 -0.03895111 -0.21482827 -0.16372766 0.0011796249
-0.06410161 -0.009357256 0.047094975 -0.13043116 0.017024603 -0.10613425 0.19939879 -0.027764302
0.011606365 0.03319752 0.1592046 -0.032696534 0.15516719 -0.09009811 0.053154398 0.04139496
-0.040461417 -0.06944694 0.024464209 0.082998574 -0.13746655 -0.008965687 -0.20789607 0.06666157
-0.0013905597 0.0022145174 -0.15058565 -0.021266025 0.027693084 -0.09138708 0.12862392 -0.0853165
0.10695622 0.08475493 -0.031044452 0.09008518 0.09556263 -0.11668658 0.021492109 0.022036202
0.05219172 -0.019479817 0.023324568 0.076699704 -0.036809657 0.015673282 0.03807499 0.03945266
-0.10025766 -0.11260863 -0.12134504 0.05703124 0.117292054 0.042321704 0.058301296 0.05560515
-0.09655137 0.09791198 -0.06168782 -0.0151876435 -0.10915389 -0.09998924 0.033041786 0.034083243
-0.0072065843 0.09213082 0.07119401 0.12131141 0.063220665 0.11337546 -0.14071503 0.14419939
0.022072198 0.014769966 0.037677757 -0.11735543 0.09576283 -0.27550444 -0.18110494 0.02120895
0.08557849 -0.14494437 0.045921456 -0.08298989 0.0046520093 -0.02529777 -0.055588663 -0.01801306
0.05126194 0.08774779 0.037729494 0.056730863 -0.18198317 -0.1058333 -0.043068547 0.004018144
0.060393967 0.0006081632 -0.16014461 0.027672818 -0.12781286 0.07752081 0.22352608 -0.06678641
0.08043348 -0.0026860745 -0.012243297 0.1141741 0.05772749 0.15613519 0.06428959 -0.09237369
-0.02226019 -0.08772296 -0.015942262 -0.1035443 0.017452199 0.013606961 0.11210691 0.123447046
0.012476539 0.02416351 0.03395841 0.019280745 0.024043012 -0.14620514 -0.13616899 -0.011676608
0.07838622 0.0706404 -0.20090939 0.01998032 0.03161491 -0.01699138 0.09184642 -0.0609541
0.01485083 0.04236433 -0.008740336 0.081416614 -0.18170768 0.0907596 -0.22545248 0.07127614
-0.03647127 -0.052799117 -0.12591806 0.030057339 -0.124573305 0.14175811 0.21749763 0.04214185
0.14464226 0.054911844 0.011213472 0.13282888 -0.08918715 0.16627239 -0.059291195 -0.17945987
-0.04800762 -0.10447342 -0.022617452 -0.06503672 -0.101839975 -0.062776506 -0.11090363 -0.009007254
0.05940589 0.075496845 -0.099661194 0.09693322 -0.04107321 0.03462633 0.13242362 0.02380884
-0.11714815 -0.019432878 -0.0030727559 0.14514326 0.092699036 0.08079398 -0.015342838 0.09384753
-0.11546894 -0.16234268 -0.11283405 0.026965521 -0.10576223 0.009621578 0.07115325 -0.021424092
-0.046756018 -0.13815603 -0.18585886 0.17991161 0.10080133 0.09041566 -0.091617495 0.06460558
0.17148498 -0.0151674645 0.07762202 -0.110989034 0.19211374 -0.09735696 -0.12017846 -0.09238342
-0.0057091047 0.10718209 -0.1020412 0.016464422 -0.02667839 -0.01059797 0.057247527 -0.07105664
0.07582677 0.026502978 -0.0097166635 0.015138841 0.024120808 -0.076272435 -0.07289506 -0.041143224
00000000: ab5c 0b3d 03b6 f8bd cd2c 023c e031 1abe
00000010: 9ac1 933d 20dd 09be 92a8 3d3e 69ed 7dbd
00000020: ddb7 583d 99ec 453c e1e8 15bd 596e f73c
00000030: 60c7 c4bd 2841 2e3d b13e 65bd 7cc1 e63d
00000040: dcfc 8bbc 6894 4e3e dc7f f1bd 139e ad3d
00000050: 9bc3 1a3e 6585 05be 9d44 3bbd aa9b 83bc
00000060: 8771 35bd 20ca 81bd 83af b7ba 7cf0 6c3d
00000070: 338b 1fbd f1fb 5bbe 39a8 27be a59d 9a3a
00000080: b447 83bd 2d4f 19bc a9e6 403d bf8f 05be
00000090: 2e77 8b3c ea5c d9bd 322f 4c3e f671 e3bc
000000a0: a028 3e3c 1ffa 073d 8806 233e cdec 05bd
000000b0: 26e4 1e3e 5c85 b8bd 6db8 593d c38d 293d
000000c0: dfba 25bd 333a 8ebd 2a69 c83c 28fb a93d
000000d0: 08c4 0cbe d1e4 12bc b5e2 54be dc85 883d
000000e0: 7143 b6ba 7021 113b 2033 1abe 1636 aebc
000000f0: 9bdc e23c 2629 bbbd fdb5 033e 6bba aebd
00000100: dd0b db3d fe93 ad3d ef50 febc 947e b83d
00000110: 57b6 c33d 60f9 eebd 3810 b03c 4485 b43c
00000120: fcc6 553d 2394 9fbc 2a13 bf3c bc14 9d3d
00000130: b9c5 16bd 4165 803c 85f4 1b3d 1d99 213d
00000140: e353 cdbd 5a9f e6bd c083 f8bd 9799 693d
00000150: d136 f03d 8659 2d3d 57cd 6e3d 3ac2 633d
00000160: babc c5bd 1386 c83d 5eac 7cbd 98d5 78bc
00000170: 138c dfbd 29c7 ccbd d356 073d df9a 0b3d
00000180: 3625 ecbb 15af bc3d 2ace 913d 1e72 f83d
00000190: d679 813d 6531 e83d 9a17 10be 01a9 133e
000001a0: c1d0 b43c bafd 713c fe53 1a3d 0b58 f0bd
000001b0: 4d1f c43d eb0e 8dbe 9373 39be 64be ad3c
000001c0: c643 af3d 4c6c 14be 2318 3c3d 9af6 a9bd
000001d0: e26f 983b 453d cfbc f0b0 63bd 2090 93bc
000001e0: 0af8 513d 1db5 b33d 3e8a 1a3d 9f5e 683d
000001f0: cc59 3abe 21bf d8bd a568 30bd a3aa 833b
00000200: aa5f 773d 246d 1f3a f3fc 23be 1bb2 e23c
00000210: 60e1 02be 3bc3 9e3d 05e4 643e 50c7 88bd
00000220: 4fba a43d da08 30bb 1c98 48bc 1cd4 e93d
00000230: a973 6c3d e7e1 1f3e 43aa 833d 6b2e bdbd
00000240: 015b b6bc 18a8 b3bd 5999 82bc 090f d4bd
00000250: eaf7 8e3c bbef 5e3c 4f98 e53d ced1 fc3d
00000260: 666a 4c3c 8ef2 c53c f917 0b3d a7f2 9d3c
00000270: daf5 c43c cdb6 15be e26f 0bbe 3e4f 3fbc
00000280: f488 a03d eaab 903d 31bb 4dbe c5ad a33c
00000290: a37e 013d 8231 8bbc fa19 bc3d 02ab 79bd
000002a0: e550 733c 3886 2d3d a033 0fbc c1bd a63d
000002b0: 9411 3abe 2be0 b93d 04dd 66be 3af9 913d
000002c0: e662 15bd e343 58bd aaf0 00be cf3a f63c
000002d0: 4a20 ffbd 0a29 113e b3b7 5e3e ef9c 2c3d
000002e0: 1a1d 143e 3eeb 603d b6b8 373c 4b04 083e
000002f0: c1a7 b6bd 4f43 2a3e 53db 72bd 54c4 37be
00000300: a3a3 44bd 29f6 d5bd 3c48 b9bc f931 85bd
00000310: 7a91 d0bd f890 80bd 7121 e3bd 2993 13bc
00000320: 9753 733d 179e 9a3d 2b1b ccbd ed84 c63d
00000330: 623c 28bd 57d4 0d3d 0f9a 073e c20a c33c
00000340: 5feb efbd b331 9fbc 4a60 49bb 6fa0 143e
00000350: fed8 bd3d 5077 a53d 8760 7bbc 2233 c03d
00000360: fb7a ecbd 293d 26be 8a15 e7bd cce6 dc3c
00000370: de99 d8bd d3a3 1d3c ccb8 913d 9481 afbc
00000380: 3d83 3fbd c678 0dbe c951 3ebe c03a 383e
00000390: ed70 ce3d d82b b93d f4a1 bbbd ee4f 843d
000003a0: c299 2f3e f580 78bc 4bf8 9e3d 384e e3bd
000003b0: 77b9 443e 1663 c7bd 2020 f6bd 8533 bdbd
000003c0: 7113 bbbb 4982 db3d fafa d0bd 65e0 863c
000003d0: a48c dabc 1ca3 2dbc 627c 6a3d 2586 91bd
000003e0: 114b 9b3d c61c d93c a432 1fbc e708 783c
000003f0: 0099 c53c b934 9cbd 014a 95bd cc85 28bd

network_body._body_endoder.seq_layers.2.bias f4 [128]
-0.0013755957 -8.7107765e-05 -0.0013561295 -0.0036217666 -0.007495489 -0.0074652424 -0.015659604 -0.003524374
-0.0090005705 -0.015434665 -0.016294973 -0.013308012 -0.0037746793 -0.0016501436 -0.008983281 0.0043421364
-0.011629161 -0.0060079554 -0.012958922 -0.0088163465 -0.0083720805 -0.0038412807 0.0058020274 0.0028750917
-0.012717114 0.007557476 -0.010998049 -0.006095864 -0.0085060755 -0.0086666485 -0.017611299 -0.00048344996
-0.014164015 -0.0059156213 -0.0038519716 -0.022079973 0.0022939586 -0.011933583 -0.001477946 -0.004574599
-0.0050123367 -0.011951616 -0.0064268243 -0.0052042343 -0.015075387 -0.0032412498 -0.011024766 0.005936156
-0.0019502167 -0.0042745387 -0.01597751 0.0008601865 0.005332877 0.00107485 0.027383711 -0.01781385
-0.021022717 -0.0067483922 -0.010066855 -0.009791835 -0.007996135 -0.00035229983 -0.012843873 -0.01897505
-0.0112914285 -0.002849472 -0.016459743 -0.011019562 0.012227958 -0.0011369508 -0.013071828 -0.009314498
-0.014132199 0.0015452724 0.002553664 -0.019287178 -0.0054156384 0.0030618303 -0.0012892117 0.0043558422
-0.0038438202 0.002731422 -0.0006738518 0.01114125 -0.0055501857 -0.0033607665 0.00051255344 -0.0019777564
-0.012274224 -0.00581987 -0.007872339 -0.02118356 -0.014459129 0.0014858777 0.011091702 -0.006262873
-0.010028533 -0.019675873 -0.014478079 -0.018211396 -0.0074584414 0.0039950996 0.00024009653 0.0023041416
-0.001086856 -0.007543227 0.0005019986 -0.018217042 -0.0070755845 0.009700498 -0.011447712 0.0011412448
-0.0049338066 -0.0031593477 -0.015037467 0.0027159026 -0.012746236 0.0060087866 -0.010081884 -0.0032684114
0.006179222 -0.024931245 -0.004443241 -0.008031259 -0.011185611 -0.012233748 0.0011045836 -0.016062407
00000000: 554d b4ba a0ad b6b8 28c0 b1ba 295b 6dbb
00000010: b89c f5bb fe9e f4bb 9248 80bc 2ff9 66bb
00000020: 2177 13bc ade1 7cbc 097d 85bc d909 5abc
00000030: 9c60 77bb a249 d8ba 9d2e 13bc 7b48 8e3b
00000040: 3d88 3ebc 62de c4bb a951 54bc 7072 10bc
00000050: 0d2b 09bc ffbd 7bbb ef1e be3b 096c 3c3b
00000060: 715b 50bc b4a4 f73b 2931 34bc d0bf c7bb
00000070: 115d 0bbc 8ffe 0dbc 9245 90bc 8e77 fdb9
00000080: 2f10 68bc d4d7 c1bb 5c71 7cbb 0fe1 b4bc
00000090: 3d56 163b 1385 43bc a3b7 c1ba 85e6 95bb
000000a0: 873e a4bb b6d0 43bc 1c98 d2bb 4888 aabb
000000b0: c2fe 76bc 266b 54bb 38a1 34bc 1684 c23b
000000c0: 6a9e ffba 6e11 8cbb 44e3 82bc 247e 613a
000000d0: 6abf ae3b fbe1 8c3a ce53 e03c 5aee 91bc
000000e0: d537 acbc 9e21 ddbb 73ef 24bc ef6d 20bc
000000f0: 3902 03bc e2b4 b8b9 1c6f 52bc 9071 9bbc
00000100: afff 38bc 35be 3abb 95d6 86bc 658b 34bc
00000110: c657 483c bd05 95ba 382b 56bc d69b 18bc
00000120: bd8a 67bc bd8a ca3a 5f5b 273b 2500 9ebc
00000130: ab75 b1bb fda8 483b c4fa a8ba 74bb 8e3b
00000140: 9ae8 7bbb a801 333b 6ea5 30ba ca89 363c
00000150: 55de b5bb 4e40 5cbb e15c 063a 3f9d 01bb
00000160: d419 49bc 9cb4 bebb fcfa 00bc 2589 adbc
00000170: fce5 6cbc c8c1 c23a f8b9 353c c938 cdbb
00000180: b74e 24bc 4c2f a1bc 7735 6dbc 1130 95bc
00000190: f165 f4bb 53e9 823b 6cc2 7b39 1501 173b
000001a0: d674 8eba 2d2d f7bb 8e98 033a e83b 95bc
000001b0: 4eda e7bb d6ee 1e3c 2f8f 3bbc d295 953a
000001c0: c5ab a1bb 0f0d 4fbb b55f 76bc 49fd 313b
000001d0: 97d5 50bc 5be5 c43b 7d2e 25bc d832 56bb
000001e0: 127b ca3b 9c3c ccbc 9b98 91bb 8b95 03bc
000001f0: da43 37bc 0f70 48bc adc7 903a 4f95 83bc

action_model._continuous_distribution.mu.weight f4 [1, 128]
-0.016532058 -0.02939843 -0.004028584 -0.021830486 0.005771738 0.031596754 0.008931268 0.004151557
0.008281069 0.0038048439 -0.0020779176 -0.0002765887 -0.0037016226 0.016796144 0.018673485 -0.018210297
0.03594844 0.01518546 0.01091855 -0.0035911452 0.004817254 -0.0068520405 0.005825678 -0.006312277
0.0059265867 0.0077900123 0.010095311 0.009868802 -0.023093773 -0.00376841 -0.0009443503 0.0042192545
0.023081077 0.016947756 0.023646211 0.002261685 -0.031010129 0.015992371 -0.045680754 -0.01080972
0.0011418762 0.0022809326 0.027930208 0.010023024 0.0075058676 -0.0013765921 0.005157158 -0.019142045
0.0037642373 -0.0030895998 -0.0019839236 -0.0111700175 -0.009754689 -0.012456006 -0.029608048 0.0045614284
0.0059656035 0.03305811 0.0015487954 0.005832459 -0.014413192 0.0040949215 0.023026185 0.011556817
0.0027366353 0.00208696 -0.0019899323 0.0065501574 -0.04641759 -0.011420904 0.00039160278 -0.005745539
-0.00035214028 -0.017527077 -0.032502092 -0.00039730797 -0.019126555 -0.019126456 -0.001285254 -0.010790938
-0.01058233 -0.0073574223 -0.017303972 -0.0070222374 0.029088823 -0.00825986 0.036465228 0.0017405415
0.002868581 0.022572543 -0.003866971 0.007101064 0.004603312 0.011167398 -0.025482975 0.027882857
0.0053940928 0.002201257 -0.003718858 -1.17955105e-05 0.019638991 -0.017404621 0.020801127 -0.011127011
0.0016666283 -0.0010161785 -0.04598447 0.01811403 -0.012900617 -0.015488158 -0.004414023 -0.020611182
0.009796963 0.0140777 0.012270529 -0.009898377 -0.0028937052 -0.007940045 0.02730385 0.026518226
-0.02973039 0.0020125296 -0.024765067 -0.005383875 0.000299896 0.019685911 -0.0067954073 -0.0068281167
00000000: 3d6e 87bc fad4 f0bc 3602 84bb d9d5 b2bc
00000010: d920 bd3b 996b 013d 7454 123c c909 883b
00000020: 52ad 073c b05a 793b ac2d 08bb 1b03 91b9
00000030: ec96 72bb 1198 893c 23f9 983c c32d 95bc
00000040: ac3e 133d 70cc 783c b8e3 323c 6b59 6bbb
00000050: 0eda 9d3b 1587 e0bb 54e5 be3b 38d7 cebb
00000060: d033 c23b 5c43 ff3b ce66 253c c1b0 213c
00000070: 272f bdbc 6ef7 76bb 478e 77ba ac41 8a3b
00000080: 8714 bd3c 05d6 8a3c b3b5 c13c c738 143b
00000090: f408 febc 6f02 833c be1b 3bbd 401b 31bc
000000a0: 02ab 953a b37b 153b e4cd e43c 9c37 243c
000000b0: c8f3 f53b c46e b4ba 60fd a83b c7cf 9cbc
000000c0: 6cb1 763b e27a 4abb b704 02bb 7302 37bc
000000d0: 22d2 1fbc 4714 4cbc 948c f2bc 0978 953b
000000e0: 1c7b c33b f167 073d f300 cb3a 361e bf3b
000000f0: 4f25 6cbc b12e 863b 69a1 bc3c ce58 3d3c
00000100: 1f59 333b 61c5 083b 8669 02bb b4a2 d63b
00000110: 5f20 3ebd be1e 3bbc 0950 cd39 1345 bcbb
00000120: 789f b8b9 f294 8fbc ea20 05bd c64d d0b9
00000130: 4baf 9cbc 16af 9cbc f875 a8ba 79cc 30bc
00000140: 8261 2dbc 8816 f1bb 0fc1 8dbc cc1a e6bb
00000150: af4b ee3c 5d54 07bc 905c 153d e222 e43a
00000160: cefe 3b3b 0eea b83c 026d 7dbb 0bb0 e83b
00000170: 61d7 963b 76f7 363c acc1 d0bc 976a e43c
00000180: eec0 b03b f742 103b 15b8 73bb 55e5 45b7
00000190: f3e1 a03c 2394 8ebc 2067 aa3c 114e 36bc
000001a0: c472 da3a 4b31 85ba 365a 3cbd e063 943c
000001b0: 1c5d 53bc 0bc2 7dbc 82a3 90bb c8d8 a8bc
000001c0: 7183 203c 27a6 663c 540a 493c cd2c 22bc
000001d0: 51a4 3dbb f616 02bc 53ac df3c c03c d93c
000001e0: 268d f3bc a5e4 033b 1ce0 cabc 386b b0bb
000001f0: 5c3b 9d39 5944 a13c 02ac debb 65be dfbb

exp_avg f4 [128, 5]
-0.00049303065 0.0021982891 0.00023834148 0.0011743947 0.00031261388 -0.0007117132 0.0020592336 0.0011815728
-0.0006953863 0.0020204936 -0.00028479565 0.0009554912 -0.0002260563 -0.00067842525 -0.00015000897 -0.0005704949
0.0010407389 5.8501573e-06 -0.00044829768 -0.0007954448 3.3605826e-05 -0.0003460654 0.00030106268 0.0016301961
0.00022936695 0.00010930767 -0.0002739025 2.5661908e-05 0.0004672394 9.293496e-05 5.0995983e-05 3.9644598e-05
7.05066e-05 0.0017951393 -0.00025591263 0.0002771156 -0.0001679667 -0.0023493571 -0.004793791 0.00069843314
-0.00010487523 -9.4610645e-05 -2.4408158e-05 -0.0017380656 -3.1046355e-05 -0.00010750727 -0.00028767472 -1.9236337e-05
-0.0017777805 -0.0002442586 -0.00021954702 -0.0016752022 -6.635678e-05 0.0013101177 -0.0012654037 -5.2740997e-05
0.001714278 -0.00024657848 -0.0019870151 0.0014784895 1.5290329e-05 -0.0013602873 -0.003027688 0.0020869453
-0.000478191 -0.00010585315 0.0006451362 -0.00041069425 -0.0011155687 0.00109434 -4.9132665e-05 -1.4180667e-05
-5.9113377e-06 -0.00038925422 -0.0004107702 0.0009117587 -0.0039187684 -0.002095806 0.0011746394 -0.0028830564
-0.00041442076 0.002549002 0.0006551806 -0.0029610773 0.0014691435 -0.00020003495 0.0008899447 0.0011946349
0.00072565925 -0.0008214417 -0.00014851295 0.00031313414 0.00060352654 0.0009381134 -0.00060743897 -0.00091568346
0.0030839285 0.00029450163 0.005618476 0.0012539814 -0.0004046836 0.0009107976 0.0011127489 0.0010984634
0.00043963298 0.00010610444 -0.00090761814 -0.0010361341 0.0014397188 -0.00041059972 0.00020453168 -0.0011934062
-0.00060745055 0.0035516329 -0.0009876784 -0.00029802168 0.0008036622 1.0763133e-05 0.0005132985 -0.00046725367
0.0004062227 -0.0018049132 -0.0014032803 0.0017491132 -0.00096885744 0.000921581 5.201087e-05 -0.0012597525
0.0047481162 0.0021912816 0.0005069023 -0.0011872757 -0.00014962722 -0.0012906793 0.0003620689 -0.00031883616
0.00020602877 0.00013164565 3.394617e-05 0.00013072648 0.00041228655 0.0002025798 6.555023e-05 -1.2085682e-05
0.00071070355 -0.00012679084 0.00012335907 -0.0008186315 -0.0009544259 -7.4343974e-05 -0.0010017563 0.0011374799
0.00066766184 0.0025129395 0.00067296316 -0.00055257644 0.0008150078 0.001004135 -0.0018523622 -3.1057454e-05
-0.00022753613 0.0005108478 -0.00012740846 -0.00096389954 -0.0006608997 5.645359e-05 0.00012135854 -0.00015865073
0.0015206628 0.0009060353 0.00038907494 -0.0005662887 3.5052075e-05 0.0016427564 0.00065176305 -0.00029956785
0.0005169145 0.00012297292 0.0008557628 -0.00048032828 -0.0012002687 0.0021588763 0.00049032015 -0.0031411205
-0.00044251294 -0.0004248478 0.0008182393 0.0010410106 0.00046466128 -5.1945186e-05 -0.0007888513 0.0015519452
7.019644e-05 -0.0018227161 -0.00080654945 0.00016752962 -4.5681776e-05 -0.00016649703 0.0017953224 0.0002022168
0.00033674974 -0.0023284208 -0.0019854044 0.002319689 0.001152486 -0.0006728949 0.0013246298 2.5249872e-05
-0.0003157257 -0.000669354 0.00021172318 -0.00016062419 -8.4885025e-05 0.0012049668 0.00044875065 -0.0009231561
0.0016331979 3.9195253e-05 -0.0015957714 -0.0010743118 0.00076112774 -0.00063814793 -0.0029947471 -0.0017676591
-0.00017397384 -0.0004237365 0.00019085966 -7.7704564e-05 -0.00027078134 -0.00091615017 -1.3454251e-05 -0.00046196516
0.0011313409 -0.0006246998 -0.0013933505 0.0002820783 -0.0016696244 -0.00015771909 0.0011463643 -0.0010847413
-2.5516114e-05 0.0022235995 0.0012275241 -0.0046180463 0.0027540487 -0.00030767932 0.00021432141 -0.00015975683
0.0006698112 -0.0008613822 0.00036221303 -0.0008725901 -4.935236e-05 -0.0011359345 0.00028023947 -0.00055494945
00000000: ba3e 01ba 2c11 103b 4eeb 7939 26ee 993a
00000010: 53e6 a339 4492 3aba 35f4 063b 01df 9a3a
00000020: 964a 36ba 426a 043b a050 95b9 ee79 7a3a
00000030: 8709 6db9 59d8 31ba ba4b 1db9 448d 15ba
00000040: 6769 883a 784c c436 7f09 ebb9 6685 50ba
00000050: fbf3 0c38 1d70 b5b9 f3d7 9d39 4eac d53a
00000060: 3982 7039 1c3c e538 929a 8fb9 8744 d737
00000070: d0f7 f439 14e6 c238 85e4 5538 1048 2638
00000080: f1dc 9338 e14a eb3a 032c 86b9 d449 9139
00000090: 3820 30b9 acf7 19bb 3c15 9dbb 0e17 373a
000000a0: 76f0 dbb8 b469 c6b8 1fc0 ccb7 cecf e3ba
000000b0: c537 02b8 8775 e1b8 0cd3 96b9 b85d a1b7
000000c0: 6a04 e9ba d60f 80b9 3436 66b9 7592 dbba
000000d0: 0629 8bb8 41b8 ab3a e7db a5ba 3736 5db8
000000e0: a0b1 e03a 3447 81b9 9538 02bb e0c9 c13a
000000f0: bb43 8037 ab4b b2ba 2d6c 46bb 22c5 083b
00000100: b6b5 fab9 7afd ddb8 5c1e 293a 7352 d7b9
00000110: 4638 92ba f56f 8f3a cc13 4eb8 80e9 6db7
00000120: 015a c6b6 d114 ccb9 a55c d7b9 1703 6f3a
00000130: 0369 80bb ca59 09bb 5cf6 993a a9f1 3cbb
00000140: 9d46 d9b9 280d 273b 6dc0 2b3a a20e 42bb
00000150: 4790 c03a 79c0 51b9 2e4b 693a 4c95 9c3a
00000160: 2b3a 3e3a 0556 57ba 24ba 1bb9 272c a439
00000170: fb35 1e3a b9eb 753a 8a3c 1fba 7a0a 70ba
00000180: bc1b 4a3b 5767 9a39 311b b83b a25c a43a
00000190: b72b d4b9 98c2 6e3a a8d9 913a 51fa 8f3a
000001a0: 8a7e e639 6384 de38 39ed 6dba e4ce 87ba
000001b0: f2b4 bc3a c345 d7b9 8e77 5639 116c 9cba
000001c0: 513d 1fba 83c2 683b fd74 81ba cb3f 9cb9
000001d0: dbac 523a 4e93 3437 e18e 063a baf9 f4b9
000001e0: 4afa d439 d692 ecba 46ee b7ba 8042 e53a
000001f0: ecfa 7dba 4196 713a 3f26 5a38 481e a5ba
00000200: 1696 9b3b 9b9b 0f3b a3e1 043a 5d9e 9bba
00000210: 40e5 1cb9 032c a9ba 11d4 bd39 7729 a7b9
00000220: 6d09 5839 5c0a 0a39 6c61 0e38 9f13 0939
00000230: 2a28 d839 9a6b 5439 0378 8938 9cc3 4ab7
00000240: 824e 3a3a 28f3 04b9 f359 0139 6e99 56ba
00000250: 7032 7aba 1ee9 9bb8 5d4d 83ba 7e17 953a
00000260: 0706 2f3a 21b0 243b cb69 303a c7da 10ba
00000270: 3fa6 553a 2e9d 833a f6ca f2ba b043 02b8
00000280: c496 6eb9 6aea 053a f398 05b9 34ae 7cba
00000290: 3a40 2dba 95c8 6c38 df81 fe38 7b5b 26b9
000002a0: fa50 c73a 0083 6d3a c1fc cb39 fe72 14ba
000002b0: e104 1338 c251 d73a 14db 2a3a 510f 9db9
000002c0: 8b81 073a 4bf2 0039 4555 603a 92d4 fbb9
000002d0: 5652 9dba ef7b 0d3b d488 003a 42db 4dbb
000002e0: 1501 e8b9 1bbe deb9 1c7f 563a 8572 883a
000002f0: c89d f339 b8df 59b8 eaca 4eba a46a cb3a
00000300: 6d36 9338 34e8 eeba 9e6e 53ba e4aa 2f39
00000310: 6f9a 3fb8 b595 2eb9 0651 eb3a 290a 5439
00000320: c98d b039 6b98 18bb 8f1d 02bb ec05 183b
00000330: 030f 973a 3665 30ba 339f ad3a b0cf d337
00000340: fc87 a5b9 9677 2fba 0202 5e39 3a6d 28b9
00000350: 4d04 b2b8 faef 9d3a 4b46 eb39 f5ff 71ba
00000360: 0711 d63a 9565 2438 3429 d1ba eccf 8cba
00000370: 6b86 473a 6249 27ba 8543 44bb ccb0 e7ba
00000380: bf6c 36b9 f328 deb9 8021 4839 52f5 a2b8
00000390: a8f7 8db9 cc29 70ba 91b9 61b7 ea33 f2b9
000003a0: 8049 943a e5c2 23ba 16a1 b6ba e9e3 9339
000003b0: 4cd7 daba 6561 25b9 9a41 963a e12d 8eba
000003c0: 700b d6b7 cfb9 113b e0e4 a03a fb52 97bb
000003d0: 457d 343b 0550 a1b9 77bb 6039 6684 27b9
000003e0: 4596 2f3a 62ce 61ba 69e7 bd39 88be 64ba
000003f0: b1ff 4eb8 a3e3 94ba 1bed 9239 077a 11ba

exp_avg_sq f4 [128, 5]
1.4552819e-05 6.8311674e-05 1.7146112e-05 0.00041809643 4.8439437e-05 1.4608634e-05 0.00013391947 2.0347496e-05
0.0004887042 6.878237e-05 7.643901e-06 5.921075e-05 9.4820725e-06 0.00018571889 2.363879e-05 1.3133388e-05
9.273097e-05 1.6443011e-05 0.00039408004 3.3803186e-05 8.71197e-06 3.455155e-05 1.0555812e-05 0.00028248684
3.0048282e-05 4.954287e-06 4.5148237e-05 6.140826e-06 0.00021948853 1.9027317e-05 6.571891e-06 6.332836e-05
1.3031585e-05 0.00022225175 2.9119965e-05 2.9110719e-05 0.00018664238 3.2513275e-05 0.0013953247 0.00013922784
1.3594777e-05 9.379837e-05 1.908072e-05 0.00046010135 4.5015884e-05 9.1705815e-06 6.10688e-05 1.0062036e-05
0.00026279464 3.3038996e-05 4.471487e-06 3.6938745e-05 5.2866644e-06 0.00013325126 2.212031e-05 5.1176717e-06
3.5689165e-05 7.0951332e-06 0.00010975207 2.6872334e-05 9.530166e-06 0.00011831518 1.2567146e-05 0.00057809957
5.549681e-05 6.779413e-06 6.320482e-05 1.1307239e-05 0.00034172568 4.675917e-05 6.5227173e-06 4.6890706e-05
9.30984e-06 0.00014466717 2.401968e-05 1.44545465e-05 7.8207144e-05 1.5855407e-05 0.0005775698 6.456063e-05
1.0311088e-05 9.5227435e-05 9.193002e-06 0.00023631308 3.22698e-05 7.6931665e-06 7.215492e-05 1.0086634e-05
0.0003550184 3.0967425e-05 8.668393e-06 5.4829357e-05 1.4402506e-05 0.0004089109 4.9580005e-05 6.395605e-06
6.974486e-05 1.0779576e-05 0.0002257076 2.3504703e-05 1.3869357e-05 0.0001304126 2.4189447e-05 0.0003726129
5.003722e-05 5.669962e-06 6.259249e-05 1.491199e-05 0.00014042218 2.8053946e-05 5.1764814e-06 4.009261e-05
7.429157e-06 0.0001489055 2.7436474e-05 2.09041e-05 0.00010374778 2.2568993e-05 0.0006528135 5.741771e-05
1.519132e-05 7.34697e-05 1.7381954e-05 0.00045477087 5.7564543e-05 7.5623752e-06 7.040086e-05 1.2803945e-05
0.00025397647 3.0995354e-05 5.761913e-05 0.00042028519 4.6856076e-05 0.0023233872 0.00014305065 2.6319542e-05
0.00023427495 3.9824135e-05 0.000605348 9.961963e-05 1.3090131e-05 5.787502e-05 1.6152837e-05 0.0003273569
4.6850015e-05 5.979112e-06 5.336675e-05 9.28385e-06 0.00018863291 2.7538255e-05 1.02728545e-05 7.4540556e-05
1.3153977e-05 0.00024822887 3.9856546e-05 1.8664826e-06 1.8998637e-05 3.960204e-06 7.0482376e-05 1.07086125e-05
2.2679227e-05 0.00019229732 2.072494e-05 0.0006726373 4.9995837e-05 6.9188436e-06 3.5904908e-05 1.1897311e-05
0.00021136677 3.0252218e-05 5.517681e-06 2.4821513e-05 5.9567574e-06 8.5791085e-05 2.0563206e-05 2.3825114e-05
0.00018965299 2.2722703e-05 0.00075000693 5.9135735e-05 1.0136683e-05 6.224073e-05 1.6479518e-05 0.0001950201
4.4827975e-05 6.043526e-06 3.1115396e-05 9.800786e-06 0.00024272632 3.562435e-05 8.35908e-06 0.000110846806
1.5244202e-05 0.00029772942 3.1876283e-05 2.3930734e-05 0.00017807887 2.7558515e-05 0.0006186884 6.947025e-05
4.686781e-06 5.0069077e-05 9.363917e-06 0.00014854856 1.9437786e-05 3.9565915e-05 0.00024654242 3.6320125e-05
0.0011692203 9.664961e-05 7.710935e-06 3.532966e-05 8.257983e-06 9.8925695e-05 3.6329893e-05 1.3685639e-05
0.00012212477 1.5028093e-05 0.00042136377 4.135075e-05 1.7492564e-05 0.00016081378 2.1855518e-05 0.000880727
8.514547e-05 3.1693835e-05 0.00014202527 3.126331e-05 0.00046432728 7.5540105e-05 1.4004969e-05 6.401817e-05
2.376083e-05 0.00030461437 6.932596e-05 5.029888e-06 4.0009727e-05 4.9821083e-06 0.00011074839 1.9120995e-05
5.3662094e-05 0.00031617848 6.990933e-05 0.0009925683 0.00023998704 9.664831e-06 4.838893e-05 1.4560567e-05
0.00017966375 4.3359792e-05 5.860773e-05 0.00046058203 6.720347e-05 0.002225297 0.00015831659 1.5089239e-05
00000000: e227 7437 8d42 8f38 ffd4 8f37 f433 db39
00000010: 732b 4b38 9b17 7537 bc6c 0c39 eaaf aa37
00000020: 621c 003a 413f 9038 4e3e 0037 0f59 7838
00000030: 3115 1f37 89bd 4239 ea4b c637 7957 5c37
00000040: 8f78 c238 19ef 8937 879c ce39 e5c7 0d38
00000050: a029 1237 72eb 1038 de18 3137 be1a 9439
00000060: 3210 fc37 003d a636 8d5d 3d38 4b0d ce36
00000070: 8126 6639 da9c 9f37 1d84 dc36 28cf 8438
00000080: 3ba2 5a37 400c 6939 a646 f437 cb32 f437
00000090: 6fb5 4339 dd5e 0838 54e3 b63a b0fd 1139
000000a0: 1f15 6437 9eb5 c438 890f a037 c239 f139
000000b0: 70cf 3c38 59db 1937 1012 8038 1ed0 2837
000000c0: b3c7 8939 5a93 0a38 c809 9636 adee 1a38
000000d0: 1a64 b136 5db9 0b39 018f b937 77b8 ab36
000000e0: f3b0 1538 bb12 ee36 b22a e638 e66b e137
000000f0: c0e3 1f37 fb1f f838 7bd7 5237 9b8b 173a
00000100: 3fc5 6838 b77a e336 d48c 8438 39b4 3d37
00000110: a529 b339 471f 4438 b7dd da36 83ac 4438
00000120: 7531 1c37 ccb1 1739 df7d c937 ce81 7237
00000130: 2403 a438 3a01 8537 0e68 173a b964 8738
00000140: c9fd 2c37 d7b4 c738 a53b 1a37 cfca 7739
00000150: 6f59 0738 e611 0137 e151 9738 c339 2937
00000160: c321 ba39 05e3 0138 776e 1137 93f8 6538
00000170: 4ba2 7137 1863 d639 20f4 4f38 d499 d636
00000180: fd43 9238 edd9 3437 ecab 6c39 f72b c537
00000190: 6fb0 6837 5ebf 0839 71ea ca37 425b c339
000001a0: 0edf 5138 9a40 be36 1644 8338 822e 7a37
000001b0: 4b3e 1339 6455 eb37 a3b1 ad36 1d29 2838
000001c0: f947 f936 8423 1c39 6127 e637 375b af37
000001d0: 2a93 d938 8b52 bd37 9321 2b3a ccd3 7038
000001e0: 39de 7e37 bf13 9a38 76cf 9137 506e ee39
000001f0: 7571 7138 4fc0 fd36 2da4 9338 86d0 5637
00000200: 2528 8539 0201 0238 12ac 7138 b959 dc39
00000210: 5487 4438 f843 183b deff 1539 c9c8 dc37
00000220: b4a7 7539 d708 2738 37b0 1e3a e2ea d038
00000230: af9d 5b37 d4be 7238 f47f 8737 19a1 ab39
00000240: d280 4438 2ea0 c836 1dd6 5f38 d5c1 1b37
00000250: c3cb 4539 f401 e737 9359 2c37 a852 9c38
00000260: e7af 5c37 b724 8239 a42b 2738 db83 fa35
00000270: 435f 9f37 e5e1 8436 f0cf 9338 24a9 3337
00000280: 453f be37 6ba3 4939 78da ad37 ed53 303a
00000290: 9fb2 5138 6a28 e836 9a98 1638 909a 4737
000002a0: 56a2 5d39 25c6 fd37 8524 b936 cb37 d037
000002b0: 28e0 c736 bdea b338 267f ac37 0bdc c737
000002c0: 96dd 4639 a29c be37 1d9c 443a 8308 7838
000002d0: b910 2a37 3d87 8238 7f3d 8a37 4f7e 4c39
000002e0: ac05 3c38 7ec9 ca36 e781 0238 0e6e 2437
000002f0: 5a84 7e39 5b6b 1538 fa3d 0c37 6d76 e838
00000300: 59c1 7f37 9118 9c39 e6b2 0538 dcbe c837
00000310: afba 3a39 762d e737 7a2f 223a 8eb0 9138
00000320: 2443 9d36 4301 5238 b819 1d37 b3c3 1b39
00000330: 540e a337 94f3 2538 5d42 8139 7056 1838
00000340: 8640 993a 5db0 ca38 375e 0137 ef2e 1438
00000350: c48b 0a37 5476 cf38 ed60 1838 5f9b 6537
00000360: 9e0e 0039 2b21 7c37 7dea dc39 0870 2d38
00000370: ffbc 9237 1fa0 2839 5e56 b737 97e0 663a
00000380: 2090 b238 ffee 0438 9eec 1439 b920 0338
00000390: f470 f339 496b 9e38 e2f6 6a37 7e41 8638
000003a0: fe51 c737 a6b4 9f39 1763 9138 69c6 a836
000003b0: 1ed0 2738 fc2b a736 9741 e838 0666 a037
000003c0: 3c13 6138 c2c4 a539 499c 9238 1119 823a
000003d0: 08a5 7b39 2226 2237 38f5 4a38 2949 7437
000003e0: 1f64 3c39 39dd 3538 92d1 7538 467a f139
000003f0: 97ef 8c38 4ad6 113b c901 2639 ca27 7d37

exp_avg f4 [128]
0.00023172911 -0.00012221822 7.245227e-05 0.00015079943 -0.00029437683 -8.210653e-05 -0.00014233786 0.00015300693
0.00013459974 0.00019682224 0.00016490852 -0.00012725953 0.00085549714 4.3399687e-05 6.7471614e-05 0.0004259382
-0.00032323212 -0.00029553697 0.00010084761 0.00041960998 -0.00013824437 0.00025689712 4.4937296e-05 2.533818e-05
0.00033667774 0.00036630355 5.0071772e-05 -7.304388e-06 -6.63047e-05 7.181171e-05 2.658041e-05 -0.00020562096
4.854484e-05 1.8334113e-05 -0.00018209832 -9.422022e-05 0.00017800537 -0.000119267104 0.00024262774 -0.00012163893
0.00011243275 0.00010230743 5.1915384e-05 0.0002706288 6.179538e-05 0.0002869361 -0.0002604083 9.255205e-05
-0.0004679452 0.00015409857 4.1613905e-05 4.360822e-05 -0.00028950386 -0.00031359296 0.00011425347 9.790888e-05
0.00013061488 0.00036019634 -0.00020667746 0.00033520084 0.00013953618 -7.073639e-05 3.6336853e-05 -0.00043656857
0.0002008464 0.00013679847 0.00023589049 -2.903977e-05 0.00018121053 -3.531345e-05 -0.0008470745 -7.4473435e-05
-2.2783668e-05 -0.0006370237 1.329333e-05 4.852063e-05 0.0006186021 1.080877e-05 3.927694e-06 -6.121583e-05
-0.00040964904 -0.00021654948 1.3897848e-05 8.4493135e-05 -4.8945833e-05 0.0002035651 -0.0002839717 -9.244225e-05
0.00013261483 -0.00020296566 -0.00012006474 6.431528e-05 -0.0001594553 -4.725452e-06 9.155194e-05 0.0003837911
9.730908e-06 -3.2206393e-07 -0.00039176628 0.00013910494 1.5618052e-05 -0.00064513535 0.00018855857 2.8427377e-05
-0.00023313746 -1.5707572e-05 -0.00042357907 -0.00014646251 0.00035325586 -0.0002978248 -8.754209e-05 -5.4545813e-05
-0.00025039256 -0.00018863812 0.0002453613 0.00018059164 0.00035864278 7.0400885e-05 4.8101414e-05 5.542758e-05
-9.018888e-05 -4.244288e-05 -0.00033087426 -9.6338124e-05 -0.00034779758 -0.00037303317 -0.00016834651 -0.00015835922
00000000: 4ffc 7239 b427 00b9 84f1 9738 ea1f 1e39
00000010: 9756 9ab9 9c30 acb8 8740 15b9 7c70 2039
00000020: 5823 0d39 1162 4e39 4beb 2c39 f870 05b9
00000030: 7143 603a 0f08 3638 8c7f 8d38 7550 df39
00000040: 7b77 a9b9 4df2 9ab9 267e d338 19ff db39
00000050: b1f5 10b9 26b0 8639 0e7b 3c38 548d d437
00000060: 1f84 b039 6e0c c039 2804 5238 3718 f5b6
00000070: 110d 8bb8 9e99 9638 fff8 de37 f59b 57b9
00000080: a09c 4b38 35cc 9937 a5f1 3eb9 1898 c5b8
00000090: f4a6 3a39 0a1f fab8 e369 7e39 6718 ffb8
000000a0: dfc9 eb38 e28d d638 b8bf 5938 2fe3 8d39
000000b0: 2498 8138 e96f 9639 6987 88b9 8118 c238
000000c0: 8b56 f5b9 8595 2139 978a 2e38 f8e7 3638
000000d0: 8dc8 97b9 bc69 a4b9 5d9b ef38 6e54 cd38
000000e0: aaf5 0839 bcd8 bc39 8fb7 58b9 e5bd af39
000000f0: 7550 1239 4f58 94b8 6668 1838 3ee3 e4b9
00000100: 4c9a 5239 8f71 0f39 5f59 7739 6e9a f3b7
00000110: 5503 3e39 871d 14b8 350e 5eba 9f2e 9cb8
00000120: 8e1f bfb7 f0fd 26ba 6b06 5f37 a182 4b38
00000130: af29 223a 5057 3537 a2ca 8336 0061 80b8
00000140: 2ac6 d6b9 8f11 63b9 cd2a 6937 e831 b138
00000150: 304b 4db8 1774 5539 09e2 94b9 8edd c1b8
00000160: 860e 0b39 2ed3 54b9 44cb fbb8 01e1 8638
00000170: 7533 27b9 538f 9eb6 93ff bf38 9237 c939
00000180: ee41 2337 21e8 acb4 fb65 cdb9 b3dc 1139
00000190: 8303 8337 4d1e 29ba ceb7 4539 5477 ee37
000001a0: 5c76 74b9 c1c3 83b7 d213 deb9 bb93 19b9
000001b0: 3335 b939 5e25 9cb9 cd96 b7b8 1fc8 64b8
000001c0: 1f47 83b9 29cd 45b9 d6a3 8039 335d 3d39
000001d0: 3808 bc39 30a4 9338 80c0 4938 e97a 6838
000001e0: c923 bdb8 b204 32b8 3179 adb9 2309 cab8
000001f0: 9a58 b6b9 aa93 c3b9 2c86 30b9 3b0d 26b9

exp_avg_sq f4 [128]
3.1355453e-06 3.543544e-06 1.6268824e-06 2.717995e-06 1.8261544e-06 1.3976414e-06 2.0783234e-06 7.896331e-06
3.4077323e-06 2.1649196e-06 1.0955895e-06 1.2636e-06 3.0569734e-06 2.270981e-06 1.2897456e-06 3.7149953e-06
2.041204e-06 2.0673003e-06 2.757186e-06 1.686119e-06 3.1568143e-06 1.4738612e-06 1.4210984e-06 4.807767e-06
3.3416784e-06 1.9087659e-06 1.3414167e-05 5.7761076e-06 2.5997997e-06 1.4653494e-06 2.1558722e-06 5.2701364e-07
4.2170695e-06 1.594891e-06 1.0194082e-06 5.4666457e-06 2.054562e-06 1.7439481e-06 2.323714e-06 5.0621134e-06
1.2626369e-06 8.438536e-06 1.5915805e-06 3.326478e-06 5.6627537e-06 4.9605874e-06 3.3474741e-06 1.0643765e-06
1.42313065e-05 2.266071e-06 1.3910675e-05 3.7346006e-06 6.4381957e-06 7.4112854e-06 6.211607e-06 1.1888282e-05
9.0256594e-07 5.0279145e-06 4.679722e-06 2.482047e-06 8.82823e-07 3.7348175e-07 1.6575099e-06 7.8661915e-06
6.2202853e-06 3.757533e-06 1.1247344e-06 4.0811747e-06 3.330704e-05 4.3209384e-06 6.0013354e-06 2.0671382e-06
1.0204362e-06 1.8176277e-06 7.617699e-06 8.2555266e-07 1.3036969e-05 2.2437412e-06 2.8764566e-06 2.463557e-06
1.3455718e-06 5.0984045e-06 3.215909e-06 4.809142e-06 8.589448e-06 1.3759285e-06 1.2339161e-06 6.963168e-06
5.739605e-06 1.8320538e-06 1.1613474e-06 1.1471715e-06 1.1074278e-06 1.2058492e-06 1.6246737e-06 1.0415056e-05
1.0947062e-06 2.3185773e-06 2.757211e-06 1.1197276e-06 7.5747107e-06 1.4293226e-05 1.0922748e-06 1.1706227e-06
5.3767167e-06 9.752366e-07 7.4878612e-06 3.64243e-06 3.6620104e-06 3.5603578e-06 1.9849851e-06 2.1050776e-06
1.0419502e-06 6.7633914e-06 4.0074074e-06 2.7212682e-06 1.5396572e-05 6.2833897e-06 2.0285108e-06 1.5497441e-06
2.0844718e-06 1.9748362e-05 4.1014305e-06 4.495712e-06 1.3756469e-05 1.5277714e-06 1.0032984e-06 7.528866e-06
00000000: 426c 5236 9fcd 6d36 415b da35 cc66 3636
00000010: 301a f535 9896 bb35 5379 0b36 7c7a 0437
00000020: 65b0 6436 0949 1136 2b0c 9335 f798 a935
00000030: 6726 4d36 2867 1836 521b ad35 224f 7936
00000040: 9efb 0836 f3bb 0a36 1808 3936 9c4e e235
00000050: a8d9 5336 7cd1 c535 92bc be35 6752 a136
00000060: 9941 6036 5918 0036 690d 6137 63d0 c136
00000070: 3878 2e36 06ad c435 9aad 1036 1a78 0d35
00000080: 5a80 8d36 0a10 d635 99d2 8835 216e b736
00000090: 1be1 0936 9a11 ea35 1af1 1b36 39db a936
000000a0: e077 a935 3c93 0d37 4a9e d535 753c 5f36
000000b0: af02 be36 1f73 a636 2ba5 6036 b3db 8e35
000000c0: ffc2 6e37 ce12 1836 e561 6937 f39f 7a36
000000d0: ae07 d836 75ae f836 4c6d d036 c873 4737
000000e0: dc47 7235 75b5 a836 8206 9d36 3e91 2636
000000f0: 22fb 6c35 f182 c834 9b77 de35 09f9 0337
00000100: d8b7 d036 ed29 7c36 94f5 9635 06f1 8836
00000110: 29b3 0b38 94fc 9036 145f c936 2ab9 0a36
00000120: ecf5 8835 36f5 f335 899b ff36 8c9b 5d35
00000130: 5bb9 5a37 2e93 1636 2609 4136 9653 2536
00000140: 7f99 b435 f612 ab36 e5d0 5736 375e a136
00000150: 661b 1037 8bac b835 099d a535 28a5 e936
00000160: d596 c036 e4e4 f535 98df 9b35 83f8 9935
00000170: eea2 9435 aad8 a135 5d0f da35 53bc 2e37
00000180: d2ed 9235 db98 1b36 8608 3936 8c49 9635
00000190: 452a fe36 f0cc 6f37 479a 9235 4a1e 9d35
000001a0: a569 b436 e0e4 8235 3d40 fb36 7970 7436
000001b0: dcc0 7536 7bee 6e36 c935 0536 f544 0d36
000001c0: 23d9 8b35 17f1 e236 5e77 8636 089f 3636
000001d0: e327 8137 e8d5 d236 8d21 0836 cd00 d035
000001e0: f4e2 0b36 49a9 a537 059f 8936 dfd9 9636
000001f0: 96cb 6637 d30d cd35 12a9 8635 77a0 fc36

exp_avg f4 [128, 128]
0.00059532555 -2.001679e-05 -0.0007588425 -0.0006793671 0.00017673273 -0.0005687904 -0.0005865053 9.3076625e-05
-0.0006601879 -0.00022570444 -0.00024298631 -0.00017136568 0.00012392028 -0.00023807201 -0.00016230924 -3.3774086e-05
-0.0003218922 -0.00027040637 0.00012546641 -0.0002413065 -0.0002680868 -0.00024869462 0.00021833004 9.612734e-06
-0.0001903123 -0.00024786877 -0.00018072233 -0.0008703044 7.374732e-05 -0.00021342843 -3.8087273e-05 3.7797624e-06
4.5006545e-05 -2.1997432e-05 -0.0007065737 -0.00055312127 6.9755224e-05 -0.00013303742 -0.0010742244 -0.0006215601
4.923993e-05 -0.0005917456 -0.00022527995 -0.000997194 0.00047337348 4.176861e-05 3.987904e-05 6.977632e-05
-0.00012923106 1.7164979e-05 -0.0010028016 -0.0002464797 -0.00029380945 0.00021542142 1.0911123e-05 -0.00049975805
-0.0002718752 6.1832274e-05 3.0052166e-05 0.0001710742 -0.0002891917 -0.00040864557 -0.00019912465 -0.0004708001
-0.00025459196 -0.001062646 -0.00016000617 -8.666437e-05 -0.00030599636 -6.923055e-05 -0.000110012275 -0.00010868079
0.00067255826 -0.0006038523 -0.0005144726 -0.00043545238 0.0003599833 -0.00015417629 -0.0008409997 -2.5462474e-05
5.1657487e-05 -6.85115e-05 -0.00021511315 -1.48900435e-05 -0.00044551492 -0.00017595911 -0.00013489423 -0.00054168975
-5.6939875e-06 8.422432e-05 3.5344176e-05 -0.00010598029 -0.00023160032 -0.00042372628 -0.00017869551 9.45761e-05
-4.146193e-05 -1.7307993e-05 0.00013737715 -0.00013085181 -0.00037228956 -0.00059856696 -0.0002244933 7.312348e-06
-2.0456107e-05 -0.0011936615 -0.0006237234 -0.00047844392 -0.00023597402 8.742312e-05 -0.0006401049 -4.683282e-06
-0.00073618727 -4.8580678e-05 -3.5910257e-06 -0.0009711482 1.3169987e-05 -0.00040975225 -0.00028925718 0.00030430447
-0.00038986217 -0.0007742158 -2.6650674e-05 -3.2066648e-05 2.9130188e-05 0.0008607362 -0.00026491022 -0.0005903376
0.0035377718 -0.00049165264 -0.0006603525 0.0009872377 0.0019647472 0.0027796202 1.0003447e-05 0.002306859
0.00094206457 -0.0010139145 -0.00069798576 0.0014720485 0.0016783203 0.0030858235 0.0007940377 0.00016722291
-0.000704902 -0.00042822456 0.0027141895 0.0011795795 0.0031102828 0.0028682484 0.0007159916 0.0025009995
0.0021472715 -0.00047737814 0.00077577814 -0.0013127797 0.00063212885 0.0014654034 -0.00026811328 0.001171044
0.000694038 0.0055939043 -0.0009305744 -9.735774e-05 0.00023236888 0.0036004807 -0.00094065693 -0.0019195372
0.00061650854 0.0004577496 0.0041637947 -0.0022337972 0.0041283076 8.4639934e-05 0.00077417406 -0.0001516452
-0.00032835527 0.0011191076 -0.0008535187 0.00056868856 0.0037544242 0.002398924 0.0025213023 -0.00035492465
0.0003979327 0.0005725621 0.0005101092 0.005528674 0.004607113 -0.0015164387 0.004452664 0.001854123
-0.000424861 -0.00028274985 0.0025269934 0.00045357976 -0.0014848071 0.0014661921 0.0007632782 0.00058593904
0.0036386463 -0.0012450073 -6.691332e-05 0.0083772065 0.0049566794 0.0022999882 -0.0005175068 -0.00019605985
0.0025946773 0.0016346949 -0.00065967697 6.648808e-07 0.0007085793 0.0016248503 0.00076335756 -4.379861e-05
0.00013288941 0.002029799 0.00079355633 0.0021334023 0.004656105 -0.001202652 0.0019341382 0.00093277905
0.0021914104 -6.9695285e-05 0.0021721104 0.0025310086 0.0015661544 0.000795438 0.003327021 9.560109e-05
0.0022792213 -0.0023839634 -0.0013390543 0.007141437 0.0039439416 0.002100917 0.0014487093 -9.6807045e-05
0.0005008755 0.002402603 0.00015221053 -0.002186894 -0.0005440982 0.00085635716 0.00022312987 0.0031675892
0.0076274835 -0.002201788 -0.00024491348 0.00030673094 0.00089232007 0.0061167185 0.0031174996 0.0011800606
00000000: 9f0f 1c3a bbe9 a7b7 0fed 46ba 8e17 32ba
00000010: 5551 3939 e11a 15ba b4bf 19ba 2232 c338
00000020: 7610 2dba 13ab 6cb9 24ca 7eb9 a0b0 33b9
00000030: 99f0 0139 f8a2 79b9 8e31 2ab9 a6a8 0db8
00000040: a4c3 a8b9 54c5 8db9 a28f 0339 3807 7db9
00000050: 008e 8cb9 3a63 82b9 86ef 6439 6146 2137
00000060: 928e 47b9 62f4 81b9 4880 3db9 2425 64ba
00000070: caa8 9a38 c2cb 5fb9 e6bf 1fb8 d3a7 7d36
00000080: 69c5 3c38 2087 b8b7 5c39 39ba 57ff 10ba
00000090: 8d49 9238 f67f 0bb9 fdcc 8cba 31f0 22ba
000000a0: f986 4e38 601f 1bba 2039 6cb9 47b4 82ba
000000b0: 1d2f f839 b430 2f38 cb43 2738 e054 9238
000000c0: 3382 07b9 83fd 8f37 7070 83ba f239 81b9
000000d0: 700a 9ab9 bfe2 6139 eb0e 3737 3202 03ba
000000e0: 798a 8eb9 f3ab 8138 8918 fc37 6262 3339
000000f0: a79e 97b9 7b3f d6b9 1ecc 50b9 b8d5 f6b9
00000100: c17a 85b9 7c48 8bba 54c7 27b9 94bf b5b8
00000110: 236e a0b9 de2f 91b8 64b6 e6b8 8eeb e3b8
00000120: 9f4e 303a d84b 1eba acdd 06ba 6e4d e4b9
00000130: 24bc bc39 62aa 21b9 8976 5cba 3f98 d5b7
00000140: ceaa 5838 d5ad 8fb8 ff8f 61b9 40d0 79b7
00000150: 0094 e9b9 aa81 38b9 6572 0db9 2f00 0eba
00000160: fb0e bfb6 96a1 b038 853e 1438 bc41 deb8
00000170: bdd9 72b9 9427 deb9 3660 3bb9 2857 c638
00000180: 69e7 2db8 a230 91b7 e60c 1039 4435 09b9
00000190: dc2f c3b9 26e9 1cba f665 6bb9 975c f536
000001a0: 2899 abb7 a274 9cba 5e81 23ba a8d7 fab9
000001b0: cb6f 77b9 ee56 b738 b6cc 27ba 1625 9db6
000001c0: b1fc 40ba 1bc3 4bb8 5afd 70b6 a794 7eba
000001d0: aaf4 5c37 04d4 d6b9 71a7 97b9 0e8b 9f39
000001e0: 6a66 ccb9 bef4 4aba e38f dfb7 4d7f 06b8
000001f0: 9a5c f437 07a3 613a a6e3 8ab9 e3c0 1aba
00000200: f6d9 673b 40e2 00ba 821b 2dba 3366 813a
00000210: fdc2 003b 4a2a 363b 7ad4 2737 ac2e 173b
00000220: e2f4 763a 53e5 84ba 08f9 36ba c0f1 c03a
00000230: 16fb db3a 873b 4a3b f826 503a 8f58 2f39
00000240: 2cc9 38ba 5483 e0b9 8be0 313b 1f9c 9a3a
00000250: e3d5 4b3b 39f9 3b3b 62b1 3b3a cfe7 233b
00000260: 3db9 0c3b 9c48 fab9 975d 4b3a 9411 acba
00000270: 73b5 253a c712 c03a 8e91 8cb9 b77d 993a
00000280: 1af0 353a 124d b73b caf1 73ba 8a2c ccb8
00000290: 0ca8 7339 0bf6 6b3b 6b96 76ba fb98 fbba
000002a0: 309d 213a 1cfe ef39 7170 883b e664 12bb
000002b0: c146 873b b880 b138 f1f1 4a3a f302 1fb9
000002c0: 1927 acb9 05af 923a acbe 5fba 0b14 153a
000002d0: c90c 763b 4437 1d3b 6f3c 253b 2e15 bab9
000002e0: 9fa1 d039 fe17 163a d9b8 053a e129 b53b
000002f0: 44f7 963b 3dc3 c6ba a7e7 913b 0b06 f33a
00000300: e1bf deb9 0b3e 94b9 ea9b 253b 72ce ed39
00000310: dc9d c2ba 3e2d c03a bc16 483a b499 193a
00000320: 5b76 6e3b 832f a3ba d153 8cb8 8d40 093c
00000330: a46b a23b 66bb 163b 4ba9 07ba 6a95 4db9
00000340: 760b 2a3b 4243 d63a 2cee 2cba 437a 3235
00000350: f4bf 393a eef8 d43a 0f1c 483a 66b4 37b8
00000360: 3b58 0b39 6006 053b aa06 503a 8dd0 0b3b
00000370: 3d92 983b 4ea2 9dba e982 fd3a be85 743a
00000380: c49d 0f3b 5f29 92b8 f759 0e3b 47df 253b
00000390: 6c47 cd3a f184 503a 260a 5a3b 727d c838
000003a0: fd5e 153b 453c 1cbb 3583 afba b702 ea3b
000003b0: 2e3c 813b 8aaf 093b 9ee2 bd3a e304 cbb8
000003c0: 304d 033a fd74 1d3b b49a 1f39 fe51 0fbb
000003d0: d0a1 0eba 287d 603a f8f7 6939 5497 4f3b
000003e0: f8ef f93b df4b 10bb bb67 80b9 bbd0 a039
000003f0: 96ea 693a c16e c83b f74e 4c3b 43ac 9a3a
