Assets/IA/Pruebas/results/Pads02/PadBehavior/checkpoint.pt (torch, 428789 bytes, 30 tensors)

network_body._body_endoder.seq_layers.0.weight f4 [128, 2]
0	0xbf919396	-1.1373165
1	0x3f2e48ef	0.6808004
2	0xbefc50fe	-0.49280542
3	0x3e964ed0	0.29357004
4	0x3de5b3f8	0.11215967
5	0xbe211853	-0.15731935
6	0x3d6de6bb	0.05808137
7	0x3d842bf8	0.06453699
8	0xbea57460	-0.3231535
9	0x3f8b49df	1.0881919
10	0x3ee6f0d2	0.45105606
11	0x3f8e41b3	1.11138
12	0xbe8c27c0	-0.27374077
13	0xbe9ca60b	-0.3059543
14	0x3f0129ae	0.50454223
15	0xbf8c50d0	-1.0962162
16	0xbfbec6d4	-1.4904428
17	0xbecf0daa	-0.40440112
18	0x3f8cc56c	1.0997748
19	0xbf1b5e3a	-0.60690653
20	0xbf4f1a5c	-0.80899596
21	0xbea3810e	-0.31934398
22	0xbf055c55	-0.5209401
23	0xbec1aa65	-0.37825313
24	0xbdffc18e	-0.124880895
25	0x3f334317	0.70024246
26	0xbdd89a6c	-0.10576329
27	0xbf0cab71	-0.549491
28	0x3e93dcb5	0.28879324
29	0x3ee3e530	0.44510794
30	0xbe8181b6	-0.25294274
31	0x3f254e41	0.6457253
32	0x3d9ba739	0.076002546
33	0x3eb4f937	0.35346386
34	0xbe5aab8c	-0.21354502
35	0xbe989180	-0.29798508
36	0xbe487f01	-0.19579698
37	0xbd270c0c	-0.040782973
38	0xbf42ebcb	-0.7614104
39	0x3f0eb59c	0.55745864
40	0x3e8d12db	0.27553448
41	0x3ed750e9	0.42053917
42	0xbe6e106c	-0.23248452
43	0x3f6bb88b	0.92078465
44	0x3ecf3f15	0.40477815
45	0x3f251cf3	0.644973
46	0xbe88301d	-0.26599208
47	0x3e333b71	0.17503144
48	0xbe0ee83b	-0.13955776
49	0x3decd72a	0.11564477
50	0xbe94c361	-0.29055312
51	0x3f323186	0.69606817
52	0x3f8641ba	1.0488808
53	0x3f07e531	0.53084093
54	0xbf899b51	-1.0750524
55	0x3dfd8699	0.12379188
56	0xbe9219c3	-0.2853528
57	0xbf2cd101	-0.67506415
58	0xbf1a2532	-0.60213006
59	0x3d501c01	0.050807957
60	0x3f17c1dd	0.59280187
61	0x3ee5a010	0.4484868
62	0x3e88f90c	0.26752508
63	0xbde1912b	-0.11014017
64	0xbf6b0a10	-0.9181223
65	0xbeb1e60f	-0.34745833
66	0x3d92bfea	0.07165511
67	0xbdbe7829	-0.093002625
68	0xbf807e75	-1.0038592
69	0x3e3ce238	0.1844567
70	0xbf878808	-1.0588388
71	0x3f8fc67d	1.1232449
72	0x3ed85e8e	0.4225964
73	0x3cda1e52	0.026625786
74	0x4010879c	2.258277
75	0x3eee831f	0.46584412
76	0xbf38ed37	-0.7223696
77	0x3e135610	0.14388299
78	0xbf861a9d	-1.0476872
79	0x3d506333	0.050875854
80	0x3fbb1f6e	1.4618967
81	0x3fad25e2	1.3527186
82	0x3f0cf1ce	0.55056465
83	0x3dc55207	0.09634786
84	0xbeea4f44	-0.457636
85	0xbf08ad85	-0.5338977
86	0x3d556fa7	0.052108433
87	0x3eb2db3e	0.34932894
88	0x3f803ce6	1.0018585
89	0xbfb8cc6d	-1.4437386
90	0xbfc45bf3	-1.5340561
91	0x3ebb83c1	0.36623958
92	0x3f1875b5	0.59554607
93	0xbd48546a	-0.04890863
94	0x3ef2fd23	0.47458753
95	0xbe067805	-0.13131721
96	0xbf993f59	-1.1972457
97	0x3f102e64	0.56320786
98	0x3eff1cf3	0.49826774
99	0x3fca869f	1.5822333
100	0xbf11b4a7	-0.5691628
101	0x3f627ac4	0.88468575
102	0xbdc2356a	-0.09482844
103	0x3ede4126	0.4340908
104	0x3eb17b96	0.346646
105	0x3f837ab8	1.0271826
106	0x3ecb67c9	0.3972762
107	0x3ea654f0	0.32486677
108	0xbf53e13d	-0.8276556
109	0x3f32ad40	0.6979561
110	0xbb2a01c3	-0.0025940991
111	0x3ee03f19	0.4379814
112	0x3f2e9d74	0.68209004
113	0x3ecff202	0.40614325
114	0x3e8c8759	0.27447012
115	0x3db2bdcb	0.087276064
116	0xbf98a329	-1.1924793
117	0xbdc7d1bc	-0.097568005
118	0xbe1562ea	-0.14588514
119	0x3e1f6543	0.15565972
120	0x3f58a650	0.8462877
121	0x3f9311db	1.1489824
122	0x3e00c62b	0.12575595
123	0x3f1cfb88	0.61321306
124	0x3e0c6db1	0.13713719
125	0xbec3d766	-0.38250273
126	0xbf3633c5	-0.71172744
127	0x3f9a5dfe	1.2059934
128	0xbfaa61ba	-1.3311074
129	0xbc147992	-0.009062188
130	0xbf951ecb	-1.1650022
131	0xbf802ce3	-1.0013698
132	0xbeee3b88	-0.46529794
133	0xbdc21a0a	-0.09477623
134	0xbea075b5	-0.31339803
135	0xbfb87cd4	-1.4413095
136	0xbec25ac7	-0.37959883
137	0xbd974a42	-0.073872104
138	0xbecd08e4	-0.40045846
139	0x3f73462a	0.95028937
140	0x3f0700db	0.5273568
141	0x3ee57f8d	0.44823876
142	0x3f072261	0.52786833
143	0x3f1a6a64	0.6031859
144	0xbc4d2eb7	-0.012523345
145	0x3ebe1ff6	0.3713376
146	0xbe976fc4	-0.29577458
147	0xbff48169	-1.9101993
148	0x3f7780a3	0.9668066
149	0xbea0c717	-0.31401893
150	0xbf0608ed	-0.5235737
151	0x3e233b74	0.15940648
152	0xbe362d46	-0.17790708
153	0xbfaf4fc1	-1.3696214
154	0x3fb2aaab	1.3958334
155	0x3eecbf0b	0.46239504
156	0xbf9599c0	-1.1687546
157	0xbe8a5554	-0.27018225
158	0x3ec52e59	0.38511923
159	0xbdbdf8af	-0.09275948
160	0xbf838fc7	-1.0278252
161	0xbedf6129	-0.43628815
162	0x3f611636	0.87924516
163	0x3ef14653	0.47123966
164	0xbf0cf78c	-0.55065227
165	0x3f02d7f4	0.5111077
166	0x3ed48069	0.4150422
167	0x3f8e3916	1.1111171
168	0x3f72be8b	0.94821995
169	0x3eaf77f5	0.34271207
170	0xbe8452c1	-0.25844386
171	0xbeebca75	-0.460529
172	0x3e2708b2	0.16311911
173	0x3f2c840e	0.67389
174	0x3e822de1	0.25425628
175	0x3f0b2440	0.5435219
176	0x3d1de904	0.0385523
177	0xbf73def4	-0.95262074
178	0xbe5911a2	-0.21198133
179	0xbd89de98	-0.067319095
180	0x3e80ccc1	0.25156215
181	0xbe0cd850	-0.13754392
182	0x3f5a542f	0.85284704
183	0x3f72485b	0.94641656
184	0xbceb262e	-0.028704729
185	0xbe7c0fca	-0.24615398
186	0x3eaf5492	0.3424421
187	0xbeeb8a1e	-0.46003813
188	0xbf665a2e	-0.89981353
189	0xbf08e8ef	-0.5348043
190	0x3ee9a53d	0.4563388
191	0xbec8de73	-0.39232215
192	0x3b63e2ba	0.003477259
193	0xbf3ba86b	-0.7330386
194	0x3ed70fb6	0.42004174
195	0xbf274636	-0.6534151
196	0x3f1f4419	0.62213284
197	0xbf2d7479	-0.6775585
198	0x3e8067c4	0.25079167
199	0xbe9182e1	-0.28420165
200	0xbdf01d46	-0.117243335
201	0x3f3c650c	0.73591685
202	0xbe0b708a	-0.13617149
203	0xbf31082e	-0.69153106
204	0x3f006cb7	0.50165886
205	0xbdb15c65	-0.08660201
206	0x3ea6208b	0.32446703
207	0xbf33996a	-0.70155966
208	0xbf0fe740	-0.56212234
209	0xbf84bff9	-1.0371085
210	0x3f36360e	0.7117623
211	0xbed57207	-0.41688558
212	0xbf403045	-0.75073653
213	0x3f26e6f4	0.65196157
214	0x3e28c8de	0.16482875
215	0x3ee84dac	0.4537176
216	0x3eb04df2	0.34434468
217	0xbfe59651	-1.7936498
218	0x3df96477	0.12177365
219	0xbf4a09ca	-0.78921187
220	0x3ef5c496	0.48001546
221	0xbeb6e3d4	-0.35720694
222	0xbfab8469	-1.3399783
223	0xbe206234	-0.15662462
224	0x3f4dc184	0.80373406
225	0x3f354db7	0.7082171
226	0xbc9ba617	-0.019000096
227	0x3d973d1b	0.07384702
228	0xbebe0f4e	-0.37121052
229	0x3f631e53	0.88718146
230	0xbf55181f	-0.8323993
231	0x3f4da2d3	0.80326575
232	0x3ecd31ee	0.40077156
233	0xbe8cd1f2	-0.27503926
234	0xbdcfdbf0	-0.101493716
235	0xbf231444	-0.637028
236	0xbf5d41b3	-0.86428374
237	0x3e6817d8	0.22665346
238	0xbe2fbae5	-0.17161138
239	0x3f37df48	0.71825075
240	0x3deea9f2	0.11653508
241	0xbec1c689	-0.37846783
242	0x3f9b2484	1.2120519
243	0x3f461368	0.7737336
244	0x3fbc8d1f	1.4730567
245	0x40042719	2.0648863
246	0x3f0793d3	0.52959937
247	0xbe38094f	-0.17972301
248	0x3f508c83	0.81464404
249	0x3ea0e0a1	0.31421378
250	0x3e093830	0.1340034
251	0x3f7f68df	0.99769396
252	0xbb10465f	-0.00220146
253	0xbf2ea1fe	-0.6821593
254	0x3f12e32a	0.57377875
255	0x3d231058	0.03981051

network_body._body_endoder.seq_layers.0.bias f4 [128]
0	0x3caa8432	0.020814989
1	0xbccfb87f	-0.02535653
2	0xbb8856e4	-0.004160749
3	0xbb3afe86	-0.0028533055
4	0x39a3cfda	0.00031244644
5	0x3c4b0944	0.012392346
6	0xbc77a0dc	-0.015114035
7	0x3bf8d5f7	0.007593866
8	0x3ca2d93a	0.019878972
9	0xbc06f790	-0.008237734
10	0x3c93e5e7	0.018053962
11	0x3c701b4b	0.014654945
12	0x3b89f478	0.004210051
13	0x3c4e9d35	0.012610723
14	0x3bfabad9	0.0076516685
15	0xbcbc64b5	-0.02299724
16	0x3b8d9805	0.0043211007
17	0x3bbebf9c	0.0058211815
18	0xbc966443	-0.018358355
19	0x3c5130dd	0.012767998
20	0xb838f49b	-4.4096825e-05
21	0xbccc552c	-0.024942957
22	0x3bc936ec	0.0061405804
23	0x3b8b47c2	0.0042504976
24	0xbc88e128	-0.016708925
25	0xbcb1e0ee	-0.0217137
26	0xbc1ba026	-0.009498632
27	0x3caccadf	0.02109283
28	0xbc85b24a	-0.016320366
29	0x3c7d6548	0.015466042
30	0xbcb54132	-0.022125814
31	0xbc13a22e	-0.009010835
32	0x3c855321	0.01627499
33	0x3a99211d	0.0011682842
34	0x3c95fe63	0.018309778
35	0xbc0e3c67	-0.008681393
36	0x3c0353d2	0.00801559
37	0xbc62edf5	-0.013850679
38	0x3b49ef95	0.0030812968
39	0x3c966d0b	0.018362543
40	0xbcb97387	-0.022638096
41	0xbc69c265	-0.014267539
42	0xbc9a6251	-0.018845709
43	0xbbfe3c45	-0.0077586495
44	0xbc940342	-0.01806796
45	0x3c938874	0.018009402
46	0xbc2b8bdc	-0.010470357
47	0x3ca68fc3	0.020332223
48	0xbc219ad6	-0.009863576
49	0x3be137d2	0.0068731094
50	0x3c41a626	0.011819398
51	0x3c5b7998	0.013395689
52	0x3bfe3326	0.007757562
53	0xbba6a18b	-0.0050851754
54	0x3ca6b7dd	0.020351345
55	0xbbdef16a	-0.006803681
56	0x3c213cc8	0.009841152
57	0x3c03d01e	0.0080452245
58	0x3bfe1860	0.0077543706
59	0x3c385d70	0.011252746
60	0xbc68edfc	-0.014216896
61	0xbbb89585	-0.0056330585
62	0xbcb04ed3	-0.021521961
63	0x3b2051e8	0.0024462882
64	0xbbcc1f75	-0.006229336
65	0x3c931d14	0.017958201
66	0xbcd0bc9a	-0.025480557
67	0xbc5c7557	-0.01345571
68	0x3bf54be0	0.0074858516
69	0x3c7e7355	0.015530427
70	0xbbe74357	-0.007057588
71	0xbc1a5306	-0.009419208
72	0x3c2c4501	0.010514499
73	0x3c516bfa	0.012782091
74	0xbb70e0af	-0.0036755016
75	0xbcc9ca21	-0.024632515
76	0xbcac5042	-0.021034364
77	0xbb136c8f	-0.0022495126
78	0x3caceaec	0.021108113
79	0xbcad99ff	-0.021191595
80	0x3ca226af	0.019793836
81	0xbc0c3fa0	-0.008560091
82	0xbacf950d	-0.0015837267
83	0xbc170b2d	-0.009218973
84	0xbc0fc9a7	-0.008776105
85	0xbcbd29e7	-0.02309127
86	0x38538f94	5.0440038e-05
87	0x3c438f98	0.011936091
88	0xbbeb0509	-0.007172231
89	0xbca1df51	-0.019759806
90	0xbb794227	-0.0038033815
91	0x3c1b3757	0.009473643
92	0xb8afd615	-8.384526e-05
93	0xbbe70e0b	-0.0070512346
94	0x3a5f4124	0.00085164816
95	0x3b080df7	0.0020760277
96	0x3ba1edb2	0.0049416656
97	0x3bd505ae	0.006500921
98	0xbc55590b	-0.013021718
99	0xbb224162	-0.002475821
100	0xbc8a1b40	-0.016858697
101	0x3c28b1cd	0.010296297
102	0x3ba6f0fb	0.005094645
103	0xbb9522d5	-0.0045512714
104	0xbb1fce40	-0.002438441
105	0x3ba3473f	0.0049828584
106	0x3c408aa4	0.0117518045
107	0xbbae3636	-0.005316521
108	0x3b90253a	0.004398969
109	0x3b9aa5d7	0.0047194767
110	0xbc3fed24	-0.011714254
111	0x3c47e74f	0.012201144
112	0xbc5e40bb	-0.013565238
113	0xbbe12fc0	-0.0068721473
114	0xbca6a021	-0.020340027
115	0x3bfaa44d	0.0076489807
116	0xbc0fd071	-0.008777724
117	0xbc8e8291	-0.017396243
118	0x3c96ebe1	0.018423023
119	0xbc8259dc	-0.015911989
120	0x3c315e8b	0.010825763
121	0x3b9dae8e	0.0048120683
122	0xbc86263e	-0.016375657
123	0x3b94bb7b	0.004538951
124	0xbc284300	-0.01026988
125	0x3ad3bc5e	0.001615416
126	0xbc0e9748	-0.00870306
127	0xbc86cc68	-0.01645489

network_body._body_endoder.seq_layers.2.weight f4 [128, 128]
0	0xbdd37fa6	-0.103270814
1	0xbc7084ef	-0.014680131
2	0x3d39063a	0.045171954
3	0x3d102517	0.03519162
4	0xbd24159b	-0.040059667
5	0x3d140f29	0.03614727
6	0xbc5e3933	-0.013563442
7	0x3cded3c4	0.027200587
8	0xbdac6cd2	-0.08419193
9	0xbe058738	-0.13039863
10	0x3d41470b	0.047186892
11	0x3ddc752e	0.10764538
12	0x3dc8f1ac	0.0981172
13	0xbdddf966	-0.108385846
14	0xbcaa9b0d	-0.020825887
15	0xbc22d70d	-0.009938967
16	0xbdba3423	-0.090919755
17	0xbd5d6338	-0.0540497
18	0x3dc9f75e	0.09861635
19	0x3c2df24d	0.010616851
20	0xbd484bd5	-0.048900444
21	0x3e05d586	0.13069734
22	0x3d6877bf	0.056754824
23	0xbd3fc4ff	-0.04681873
24	0xbd75d4c8	-0.060017377
25	0x3d60632f	0.05478209
26	0xbda1e97c	-0.07905862
27	0x3cc37af8	0.023862347
28	0xbda76ed3	-0.08175435
29	0xbe1fed88	-0.15617955
30	0xbce49a91	-0.027905734
31	0x3d75e56f	0.060033258
32	0xbd8e9068	-0.06961137
33	0xbda9ff80	-0.08300686
34	0xbe1eea52	-0.15519074
35	0x3d7d4f5f	0.061843272
36	0xbe05c374	-0.1306284
37	0x3da471b7	0.08029502
38	0x3d6d1296	0.057879053
39	0x3dac9fc4	0.084289104
40	0xbcbe6bf9	-0.023244845
41	0x3ca29abe	0.019849177
42	0xbb366c9f	-0.002783574
43	0x3d2a279d	0.041541684
44	0x3dc9f218	0.09860629
45	0xbb35b76d	-0.0027727738
46	0xbdf887c3	-0.121352695
47	0xbd2a8f20	-0.0416404
48	0xbcc32af8	-0.0238242
49	0x3d7a4373	0.06109948
50	0x3d5b5de5	0.05355634
51	0x3de5a2bd	0.112126805
52	0xbe2397f6	-0.15975937
53	0x3deb6768	0.114943326
54	0x3dc475ca	0.09592779
55	0x3dd61e75	0.10455028
56	0x3dc050e9	0.093904324
57	0x3d8b873e	0.06812905
58	0xbd2ab23c	-0.041673884
59	0x3d662c94	0.056194857
60	0x3e0c00af	0.13672136
61	0xbd5de89c	-0.05417691
62	0xbd793c89	-0.060848746
63	0xbd445f27	-0.047942307
64	0xbd19ef54	-0.037581757
65	0x3b9c08db	0.004761798
66	0x3d5fe09f	0.054657575
67	0x3d71e26d	0.059053827
68	0xbc4fe767	-0.012689448
69	0x3d1b89c3	0.037973177
70	0xbdcdc47f	-0.10047244
71	0xbd00bd90	-0.03143078
72	0xbe11c3f1	-0.14234902
73	0x3d8434f9	0.06455416
74	0x3dbd57da	0.09245272
75	0xbdf464a7	-0.119332604
76	0xbc9867a7	-0.018604113
77	0xbdc8d885	-0.09806923
78	0xbc7e1059	-0.015506827
79	0x3db75458	0.08951634
80	0xbd8817d5	-0.066451706
81	0x3da64243	0.08118107
82	0xbe4b2dcc	-0.19841689
83	0x3daeca99	0.08534736
84	0x3d90f89e	0.0707867
85	0x3d825e61	0.063656576
86	0x3d4dc751	0.05023891
87	0x3d3bcfd4	0.045852497
88	0x3e492bbf	0.19645594
89	0x3cfbbf5d	0.030730898
90	0xbdd51de6	-0.10406093
91	0xbb891744	-0.0041836817
92	0x3d577dbd	0.052610148
93	0x3dd8271c	0.105543345
94	0x3d80a077	0.06280606
95	0xbd6d16af	-0.05788296
96	0xbdb62f96	-0.08895795
97	0xbdae060e	-0.084972486
98	0x3d530e21	0.051527146
99	0xbdbda6ea	-0.09260352
100	0xbe03020a	-0.12793747
101	0x3d32a939	0.043618415
102	0xbc0d06e4	-0.0086076
103	0xbcdc7634	-0.026911832
104	0x3ccfb9b0	0.025357097
105	0xbcfdbf55	-0.030975023
106	0x3d7d5a9f	0.061854
107	0x3dd12c88	0.10213572
108	0xbcc6c69f	-0.024264632
109	0xbde790e9	-0.11306936
110	0xba38b0d4	-0.00070453924
111	0x3e14e2db	0.14539663
112	0xbcc3691a	-0.023853827
113	0x3e042b65	0.12907179
114	0xbd626b98	-0.05527839
115	0xbdbde258	-0.09271687
116	0x3e20397f	0.15646933
117	0x3d34e788	0.044166118
118	0xbd2e8f1c	-0.04261695
119	0xbdd13917	-0.10215967
120	0xbd198a67	-0.037485506
121	0xbd23eb97	-0.040019598
122	0x3d01b7e7	0.031669524
123	0x3df7255a	0.12067671
124	0xbcd85667	-0.026408387
125	0x3dd09078	0.10183805
126	0x3d6c90ed	0.0577554
127	0x3d98e151	0.07464851
128	0xbc75c571	-0.015000687
129	0xbdbaeca5	-0.091271676
130	0xba876729	-0.0010330427
131	0x3dc24eb0	0.09487665
132	0x3cd07016	0.025444072
133	0x3d35e8b8	0.04441139
134	0x3e1f6a7e	0.15567967
135	0x3a9a5c15	0.001177671
136	0x3e0b48a2	0.13601926
137	0x3d269943	0.040673506
138	0xbb61dee3	-0.0034465126
139	0x3cc8932d	0.024484241
140	0xbd612c58	-0.05497393
141	0x3e179044	0.14801127
142	0xbd30702c	-0.043075725
143	0xbd211a83	-0.039331924
144	0x3d6224e8	0.055210978
145	0xbd8d57d8	-0.069015205
146	0xbde091a0	-0.10965276
147	0xbe28fcfd	-0.16502757
148	0x3e1b5968	0.15170825
149	0xbbde3c2f	-0.006782077
150	0x3c887545	0.016657481
151	0x3d9e1c7c	0.07720277
152	0xbc0393e0	-0.008030862
153	0x3e12bec0	0.14330578
154	0x3da5a66d	0.08088384
155	0xbd7b2a66	-0.06131973
156	0x3e012ade	0.12614009
157	0xbdf83ef5	-0.12121383
158	0xbd9dda27	-0.07707625
159	0xbbfa3469	-0.0076356423
160	0xbcdab841	-0.026699187
161	0x3e1b76a4	0.15181977
162	0x3dc436c6	0.0958076
163	0xbdf114d3	-0.1177155
164	0x3c86f341	0.016473414
165	0x3d8cd83a	0.068771794
166	0xbd60df97	-0.054900732
167	0xbd046ddc	-0.032331333
168	0x3d9e3021	0.077240236
169	0x3cc0f9ac	0.023556553
170	0xbde8e6f8	-0.11372179
171	0xbd9b9e90	-0.07598603
172	0x3dd46e90	0.103726506
173	0x3e2afac7	0.16697226
174	0xbcd7024d	-0.026246214
175	0xbe1eddd0	-0.15514302
176	0xbd880cb1	-0.06643046
177	0xbbd96f24	-0.0066355634
178	0xbd20cd0c	-0.039258048
179	0x3df7575c	0.12077209
180	0x3db39876	0.08769314
181	0x3d9a31ea	0.075290516
182	0x3d4b9da5	0.04971089
183	0xbdce323a	-0.10068174
184	0xbe1af9c6	-0.15134344
185	0x3e212071	0.15735032
186	0x3e5aa1e5	0.2135082
187	0xbdb6c4a2	-0.089242235
188	0xbc71b3e1	-0.014752359
189	0xbe0f4912	-0.13992718
190	0xbcdf9cc1	-0.027296426
191	0x39dafaf2	0.0004176717
192	0x3daf083e	0.08546494
193	0x3e5527c9	0.20815958
194	0xbc0f4577	-0.008744589
195	0x3dfbcc7c	0.12294862
196	0x3d42cd02	0.047558792
197	0xbd3139e2	-0.043268092
198	0x3e16d47d	0.14729495
199	0xbce57668	-0.028010562
200	0x3dafdd43	0.08587124
201	0xbdf5e417	-0.12006395
202	0xbdfcc0a0	-0.12341428
203	0x3d1f534d	0.0388978
204	0x3dc96a24	0.09834698
205	0xbdc1c2b2	-0.09460963
206	0x3dde95f7	0.10868447
207	0x3dbf665d	0.09345696
208	0x3b9a0f1b	0.0047015077
209	0x3dceb4ed	0.100931026
210	0x3ca4486b	0.020054063
211	0x3db89525	0.09012822
212	0xbe2b2718	-0.16714132
213	0xbe223cfa	-0.15843573
214	0xbc405400	-0.011738777
215	0xbd0fb1d3	-0.035081696
216	0xbd786006	-0.06063845
217	0x3dabc751	0.08387626
218	0xbcb0ae2c	-0.021567427
219	0x3c29543f	0.010335027
220	0xbe0edb81	-0.13950922
221	0x3d45b533	0.04826851
222	0x3d0eef53	0.034896206
223	0xbd2b89b1	-0.04187936
224	0xbd8e49b1	-0.06947649
225	0xbe06a6ff	-0.13149641
226	0xbc904b0d	-0.017613912
227	0x3e1904d2	0.14943245
228	0xbe0078f6	-0.12546143
229	0x3d92c8b5	0.07167188
230	0xbd6508d7	-0.055916633
231	0xbce94103	-0.028473383
232	0xbc4abddd	-0.0123743685
233	0xbbed2eb2	-0.0072382325
234	0xbeb6ab54	-0.35677588
235	0xbd93bdcc	-0.07213935
236	0xbc5fc5ec	-0.013658028
237	0x3d53fb64	0.051753417
238	0x3ce48b55	0.02789847
239	0xbce40a86	-0.02783705
240	0x3d51cf81	0.05122328
241	0x3c1c4501	0.009537936
242	0x3d0d9c70	0.03457302
243	0xbcd744c2	-0.026277903
244	0x3e174550	0.14772534
245	0xbb8ba143	-0.0042611673
246	0xbe13a63f	-0.14418887
247	0xbe008278	-0.1254977
248	0xbe2f3d0f	-0.17113136
249	0x3d80156d	0.06254087
250	0x3df7e300	0.12103844
251	0xbdd8af73	-0.10580339
252	0x3b1b3b9b	0.002368665
253	0xbdd0dc4c	-0.10198268
254	0x3d8a37a0	0.06748891
255	0xbd8b12ff	-0.067907326

network_body._body_endoder.seq_layers.2.bias f4 [128]
0	0xbc1484c2	-0.009064855
1	0xbc1deb09	-0.009638556
2	0x3b9734f7	0.004614468
3	0x3bea0c50	0.007142581
4	0x3a84c1ef	0.0010128597
5	0xbc462274	-0.012093175
6	0xbc6e37cd	-0.014539671
7	0x3bcb1404	0.0061974544
8	0x3b820392	0.003967711
9	0xbbf9498f	-0.007607646
10	0xbc51877c	-0.01278865
11	0xbc57373b	-0.013135727
12	0xbc847493	-0.016168868
13	0xbc28b212	-0.0102963615
14	0xbc56f8c8	-0.0131208375
15	0xbc8c7e30	-0.017150015
16	0xbc3b5c42	-0.01143557
17	0xbbfc645a	-0.0077023925
18	0xbc205618	-0.009786151
19	0xbc1995ad	-0.009374064
20	0xbc0577e4	-0.00814626
21	0xbc794e0b	-0.015216361
22	0x3ca687c3	0.020328408
23	0x3c310614	0.010804672
24	0xbc92f8e2	-0.017940942
25	0xbc09b19b	-0.008404161
26	0xbc8c5326	-0.017129492
27	0x3be28ac8	0.0069135167
28	0xbc617191	-0.0137599865
29	0xbc05cd7b	-0.008166666
30	0x3c78b568	0.015179969
31	0xbc8e4f7b	-0.017371884
32	0xbc7aafab	-0.015300672
33	0xbc729e5e	-0.0148082655
34	0xbc5555b4	-0.0130209215
35	0xbc4d145d	-0.012517062
36	0xbb5a8315	-0.003334229
37	0xbc1ffb35	-0.009764482
38	0xbc890254	-0.016724743
39	0x3bada37b	0.0052990294
40	0xbc2456f0	-0.010030493
41	0x3aa84a4a	0.0012839523
42	0xbc72b260	-0.014813036
43	0xb9045d20	-0.00012623193
44	0xbc69df75	-0.014274468
45	0xbc63f600	-0.013913631
46	0xbc21583a	-0.009847695
47	0xbc59c449	-0.013291427
48	0xbc1ec4c3	-0.009690466
49	0x3c71bbf3	0.014754283
50	0xbbca43d3	-0.006172636
51	0xbc6b03b5	-0.014344146
52	0x3ca23143	0.01979888
53	0x3bcd795c	0.0062705707
54	0xbc2da438	-0.010598235
55	0x3c976ab5	0.018483499
56	0x3b2dde57	0.002653023
57	0xbbe3923e	-0.0069449237
58	0xbbea5a75	-0.0071518966
59	0xbafa067f	-0.0019075422
60	0x3ca84ce1	0.020544471
61	0x3b66a6a6	0.0035194545
62	0x3afb0b5c	0.0019153166
63	0x3bbf21d8	0.005832892
64	0x3bbe691c	0.00581087
65	0xbc684edc	-0.014178958
66	0xbc2df9ef	-0.010618671
67	0x3c09c033	0.00840764
68	0xbc6de09d	-0.014518884
69	0xbc7ad95e	-0.015310613
70	0x3c6157ba	0.013753826
71	0xbc7a53ff	-0.015278815
72	0xbc2a2c6e	-0.010386569
73	0xbb97e543	-0.0046354844
74	0x3bf7ffb4	0.007568324
75	0xbbbf97d5	-0.005846957
76	0xbba490f5	-0.005022163
77	0xbc07138d	-0.008244407
78	0xbcb439db	-0.022000244
79	0xbc83fb7c	-0.016111128
80	0xbbe65674	-0.007029349
81	0x3c6a1495	0.014287134
82	0x3c14dbf1	0.009085641
83	0x3c6edb72	0.014578687
84	0x3c93d8fc	0.018047802
85	0x3c8121e9	0.01576324
86	0xbbca9697	-0.0061825025
87	0x3c5e5b5f	0.013571589
88	0x387caf08	6.0244492e-05
89	0xbaf4a3d2	-0.0018664545
90	0x3cb5dd6e	0.022200312
91	0xba96b7f3	-0.0011498913
92	0xbc0ab792	-0.008466618
93	0xbbab11fa	-0.005220649
94	0x3c9a1950	0.018810898
95	0xbc33c11f	-0.010971337
96	0x3b302ef5	0.0026883457
97	0x3b85b1c5	0.0040800297
98	0xbbe3d049	-0.0069523198
99	0xbc0ceae3	-0.008600923
100	0x3c809123	0.015694207
101	0x3c5060fe	0.012718437
102	0xbb164a53	-0.0022932484
103	0x3c3b76c2	0.011441888
104	0x3c2edbca	0.010672519
105	0xbbc270c1	-0.0059338515
106	0xbbd62200	-0.006534815
107	0xbc0235b1	-0.007947371
108	0xbadfb36b	-0.001706702
109	0xbc8adc2f	-0.016950695
110	0x3c877c45	0.016538749
111	0x3caa4829	0.020786362
112	0xbc5e6937	-0.01357489
113	0xbc584af2	-0.013201462
114	0x3c0a02e2	0.008423539
115	0xbc8162fc	-0.01579427
116	0xbc8b9487	-0.017038597
117	0xbbf5bd91	-0.0074994047
118	0x3b6c4b0c	0.0036055474
119	0xbc1aad5d	-0.009440747
120	0x3c346c6d	0.011012179
121	0xbc307603	-0.010770324
122	0xbc129b08	-0.008948095
123	0xbc144fac	-0.009052198
124	0xbc2afda7	-0.010436452
125	0xbc8999d6	-0.016796988
126	0xbc978f02	-0.018500809
127	0x3ba2fb13	0.004973778

action_model._continuous_distribution.mu.weight f4 [1, 128]
0	0xb9eb5205	-0.00044883802
1	0x3bfdba18	0.0077431314
2	0xbc360c9b	-0.011111404
3	0xbc35529b	-0.011067058
4	0xbb22bf61	-0.002483331
5	0x3acc140a	0.0015569937
6	0x3d2d40bc	0.042298064
7	0xbd168c01	-0.036754612
8	0x3b59d5a5	0.0033238914
9	0x3c387f4c	0.011260819
10	0x3cc78113	0.02435354
11	0x3c8a7dee	0.016905751
12	0x3c921379	0.01783155
13	0x3c96dc20	0.01841551
14	0x3cda1b5d	0.026624376
15	0x3c7f49a9	0.015581527
16	0x3a49ab72	0.0007693089
17	0x3ca63786	0.020290148
18	0x3acbacea	0.0015539203
19	0x3c5f2bab	0.013621251
20	0x3b2580df	0.0025253815
21	0x3cde79ee	0.02715775
22	0xbc893bea	-0.016752202
23	0xbb649363	-0.0034877888
24	0x3ca35f8f	0.019943027
25	0x3cb3513e	0.021889325
26	0x3cd13b36	0.02554093
27	0xbc5c53fb	-0.013447757
28	0x3d05f08c	0.032700107
29	0x3c8f5d89	0.017500656
30	0xbbd9bfde	-0.006645187
31	0x3c89a70f	0.016803293
32	0x3a2c2811	0.00065672497
33	0x3c05b724	0.00816134
34	0xb900de5f	-0.00012289871
35	0x38d35b3b	0.00010078257
36	0xb9de8132	-0.00042439398
37	0x3b15a6b5	0.002283496
38	0x3bff711c	0.007795466
39	0xbbb6f6ce	-0.0055836206
40	0x3d24e0c7	0.040253427
41	0xbb4942cb	-0.0030709978
42	0x3c918766	0.017764758
43	0xbb009139	-0.001961781
44	0x3d16465b	0.03668819
45	0x3bc0189e	0.0058623096
46	0x3d313596	0.043263994
47	0x3aa4f9b4	0.0012586624
48	0x3c39dc24	0.0113439895
49	0xbd08fca2	-0.033444054
50	0x3b84d5d2	0.0040538097
51	0x3d125031	0.035721008
52	0xbac7848b	-0.0015221996
53	0xbc889a98	-0.016675279
54	0x3c854542	0.016268376
55	0xbc2688f0	-0.010164484
56	0x3b29cad8	0.0025908258
57	0x3b90ed81	0.004422844
58	0x3c72c88c	0.014818322
59	0x3a8363cd	0.001002425
60	0xbd3922f0	-0.045199335
61	0xbca75312	-0.020425353
62	0xbb6aa107	-0.0035801546
63	0xbcaac9a9	-0.020848112
64	0xbc53e8ab	-0.01293389
65	0x3cb1813d	0.02166807
66	0x3b677773	0.0035319
67	0xbd4074e0	-0.04698646
68	0x3ca560b5	0.020187715
69	0x3cb3bf2c	0.021941744
70	0xbca07487	-0.019586815
71	0x3cea4de5	0.028601596
72	0x3c289d03	0.010291341
73	0x3a640400	0.0008698106
74	0xbc9941bf	-0.018708108
75	0x3c339a10	0.010962024
76	0x3a8e4231	0.0010853467
77	0x3c7167b8	0.014734201
78	0x3c8f34cf	0.017481236
79	0x3d0fc1b0	0.035096824
80	0x3d17c611	0.037054125
81	0xbc8da60a	-0.017291088
82	0xba45f591	-0.0007551546
83	0xbc57eeed	-0.013179523
84	0xbc9c6280	-0.019089937
85	0xbcc7d7be	-0.024394866
86	0x3c2dee9f	0.010615974
87	0xbb81fafd	-0.0039666877
88	0xbacfecfc	-0.0015863474
89	0xb91eaecd	-0.00015133173
90	0xba90f927	-0.0011060581
91	0xba342884	-0.00068724924
92	0x3c8d5eb2	0.017257068
93	0x3c872e10	0.016501456
94	0xbc065443	-0.0081988005
95	0x3c83af34	0.016074754
96	0xbc180692	-0.00927891
97	0xbb59e68a	-0.0033248984
98	0x3c89b4b1	0.016809793
99	0x3cf83b27	0.030301644
100	0xbd18df19	-0.037322138
101	0xbc1aa950	-0.009439781
102	0x3c999d6e	0.018751826
103	0x3b06c71c	0.0020565456
104	0x3c8aae3d	0.016928786
105	0x3b859188	0.0040761866
106	0x3b6cbf18	0.0036124643
107	0x3c84784c	0.016170643
108	0x38eac5b4	0.000111948146
109	0x3cbb8456	0.022890251
110	0xba8c03d9	-0.0010682299
111	0xbcdfae9d	-0.027304942
112	0x3c4204f6	0.011842003
113	0x3b34f0dd	0.0027609386
114	0xbc4ea9a1	-0.012613685
115	0x3c3f0383	0.011658552
116	0x3c44ab52	0.012003737
117	0x3b49cbd4	0.0030791657
118	0x3cc8cccf	0.024511723
119	0x3b882e46	0.004155907
120	0xbcdc382d	-0.026882255
121	0x3c4e04c2	0.012574377
122	0x3c96b794	0.018398084
123	0x3b23521c	0.0024920767
124	0x3d21c698	0.039496034
125	0x3cb79607	0.022410406
126	0x3cab844d	0.02093711
127	0xbb875ff0	-0.0041313097

exp_avg f4 [128, 2]
0	0xb842a139	-4.6403355e-05
1	0x00000000	0.0
2	0x38d48d0b	0.00010135219
3	0x00000000	0.0
4	0xbc17062a	-0.009217778
5	0x00000000	0.0
6	0xbbc84d52	-0.006112733
7	0x00000000	0.0
8	0x3848fcf8	4.791931e-05
9	0x00000000	0.0
10	0x3ada7e0a	0.0016669643
11	0x00000000	0.0
12	0x39286590	0.00016059563
13	0x00000000	0.0
14	0x3b8059a5	0.0039169365
15	0x00000000	0.0
16	0xb8431b4b	-4.651704e-05
17	0x00000000	0.0
18	0xbb404889	-0.002934011
19	0x00000000	0.0
20	0xb7ade9e2	-2.0732117e-05
21	0x00000000	0.0
22	0xb7c7ec51	-2.3832692e-05
23	0x00000000	0.0
24	0xb904392b	-0.00012609798
25	0x00000000	0.0
26	0xb93e80e6	-0.0001816783
27	0x00000000	0.0
28	0x3b38d09c	0.0028200513
29	0x00000000	0.0
30	0x39ed0265	0.00045205947
31	0x00000000	0.0
32	0x3b0caaab	0.002146403
33	0x00000000	0.0
34	0x39008747	0.00012257426
35	0x00000000	0.0
36	0x3a3cb414	0.00071984646
37	0x00000000	0.0
38	0xb6e3351b	-6.7713095e-06
39	0x00000000	0.0
40	0x3b6e59d6	0.0036369464
41	0x00000000	0.0
42	0x398f65f2	0.0002735104
43	0x00000000	0.0
44	0x3a95470b	0.001138897
45	0x00000000	0.0
46	0xb81922db	-3.6510504e-05
47	0x00000000	0.0
48	0x39e764ff	0.00044135
49	0x00000000	0.0
50	0x399e8ef8	0.00030242628
51	0x00000000	0.0
52	0xbb8c205c	-0.0042763185
53	0x00000000	0.0
54	0xb847f006	-4.7668836e-05
55	0x00000000	0.0
56	0x391c7e20	0.00014924305
57	0x00000000	0.0
58	0xb76594f5	-1.3684145e-05
59	0x00000000	0.0
60	0xb9eb38e3	-0.00044865077
61	0x00000000	0.0
62	0xbb33f1ee	-0.0027457434
63	0x00000000	0.0
64	0xb865bf2c	-5.4775897e-05
65	0x00000000	0.0
66	0xbaaf991d	-0.0013397072
67	0x00000000	0.0
68	0xb8a0274b	-7.6367134e-05
69	0x00000000	0.0
70	0x3509030f	5.104093e-07
71	0x00000000	0.0
72	0x3b44dee3	0.0030040077
73	0x00000000	0.0
74	0xbb44c673	-0.0030025512
75	0x00000000	0.0
76	0x351e6164	5.900131e-07
77	0x00000000	0.0
78	0xb7fa2a34	-2.9821975e-05
79	0x00000000	0.0
80	0xba8dab6e	-0.0010808536
81	0x00000000	0.0
82	0xbabbd7bf	-0.0014331265
83	0x00000000	0.0
84	0x389a9b77	7.37225e-05
85	0x00000000	0.0
86	0x3a9433b6	0.0011306915
87	0x00000000	0.0
88	0xba89c27d	-0.0010510233
89	0x00000000	0.0
90	0xb82b61e4	-4.0860745e-05
91	0x00000000	0.0
92	0xbbc7b975	-0.0060951062
93	0x00000000	0.0
94	0xba3c8faa	-0.00071930385
95	0x00000000	0.0
96	0x36b7643a	5.465493e-06
97	0x00000000	0.0
98	0x384feb82	4.957198e-05
99	0x00000000	0.0
100	0x368a62da	4.1242283e-06
101	0x00000000	0.0
102	0xb90dfac5	-0.00013540227
103	0x00000000	0.0
104	0x3a96b12e	0.0011496895
105	0x00000000	0.0
106	0xbb411e0e	-0.0029467377
107	0x00000000	0.0
108	0xb7935323	-1.756248e-05
109	0x00000000	0.0
110	0x38a614d4	7.9193764e-05
111	0x00000000	0.0
112	0xb97e2937	-0.00024238681
113	0x00000000	0.0
114	0x3a81c162	0.0009899552
115	0x00000000	0.0
116	0xb80893c9	-3.2562562e-05
117	0x00000000	0.0
118	0xb9891aa8	-0.00026150537
119	0x00000000	0.0
120	0xbb56c82b	-0.0032773118
121	0x00000000	0.0
122	0xbb1a035c	-0.0023500537
123	0x00000000	0.0
124	0x3a94c516	0.001135024
125	0x00000000	0.0
126	0x3622fe19	2.4287785e-06
127	0x00000000	0.0
128	0xb75766b7	-1.2838914e-05
129	0x00000000	0.0
130	0xb8b67d25	-8.701746e-05
131	0x00000000	0.0
132	0x38d6dfec	0.00010246024
133	0x00000000	0.0
134	0x3946c2e7	0.00018955358
135	0x00000000	0.0
136	0x37e6aaaa	2.7497608e-05
137	0x00000000	0.0
138	0xb8a319cb	-7.77725e-05
139	0x00000000	0.0
140	0xbbcfe771	-0.0063447286
141	0x00000000	0.0
142	0xba766bb9	-0.0009400207
143	0x00000000	0.0
144	0x3a93e979	0.001128479
145	0x00000000	0.0
146	0x35682532	8.648086e-07
147	0x00000000	0.0
148	0x3b88300f	0.0041561197
149	0x00000000	0.0
150	0x38823252	6.208256e-05
151	0x00000000	0.0
152	0x39ea2fa7	0.00044667462
153	0x00000000	0.0
154	0xbb94e579	-0.004543957
155	0x00000000	0.0
156	0xb89de603	-7.5291864e-05
157	0x00000000	0.0
158	0xbaf56e50	-0.0018724892
159	0x00000000	0.0
160	0xb88455ad	-6.310209e-05
161	0x00000000	0.0
162	0xbbb274fb	-0.005446074
163	0x00000000	0.0
164	0x37ef2925	2.851018e-05
165	0x00000000	0.0
166	0xbbba3f81	-0.00568384
167	0x00000000	0.0
168	0xbc12c92e	-0.008959098
169	0x00000000	0.0
170	0x39a7244a	0.0003187976
171	0x00000000	0.0
172	0x3ae58456	0.0017510753
173	0x00000000	0.0
174	0x3abf8754	0.0014612474
175	0x00000000	0.0
176	0xbacdd6ed	-0.0015704312
177	0x00000000	0.0
178	0x3a30aca2	0.00067395915
179	0x00000000	0.0
180	0xbb39179f	-0.002824284
181	0x00000000	0.0
182	0x3bbca1a9	0.005756576
183	0x00000000	0.0
184	0x39fb5bf3	0.00047942958
185	0x00000000	0.0
186	0x3ad0e22c	0.0015936545
187	0x00000000	0.0
188	0xb74d9642	-1.2253937e-05
189	0x00000000	0.0
190	0x3ba49fb1	0.0050239195
191	0x00000000	0.0
192	0x3b0153a1	0.0019733685
193	0x00000000	0.0
194	0x3b44fd3e	0.003005817
195	0x00000000	0.0
196	0xbb33c339	-0.0027429594
197	0x00000000	0.0
198	0x3a8d2db2	0.0010771065
199	0x00000000	0.0
200	0x3a05b85d	0.00051010196
201	0x00000000	0.0
202	0xb7d34cb2	-2.5188874e-05
203	0x00000000	0.0
204	0x3aeed0c2	0.0018220174
205	0x00000000	0.0
206	0xbbe9c8e4	-0.0071345437
207	0x00000000	0.0
208	0x37adb277	2.0706311e-05
209	0x00000000	0.0
210	0x3b385e99	0.0028132556
211	0x00000000	0.0
212	0xb62a5828	-2.5383288e-06
213	0x00000000	0.0
214	0xbc4042b8	-0.011734657
215	0x00000000	0.0
216	0x3b9e1a2a	0.0048248963
217	0x00000000	0.0
218	0xbab5a116	-0.0013857211
219	0x00000000	0.0
220	0xbb412236	-0.0029469854
221	0x00000000	0.0
222	0xb8214863	-3.8452807e-05
223	0x00000000	0.0
224	0xbb564a91	-0.0032698254
225	0x00000000	0.0
226	0xbb05d378	-0.0020420235
227	0x00000000	0.0
228	0x397f97b9	0.00024375216
229	0x00000000	0.0
230	0xb74ab7fd	-1.2082976e-05
231	0x00000000	0.0
232	0x3ab10b67	0.0013507426
233	0x00000000	0.0
234	0x39eef69d	0.0004557864
235	0x00000000	0.0
236	0xb800d4ac	-3.0715644e-05
237	0x00000000	0.0
238	0xb7c2aac0	-2.3206114e-05
239	0x00000000	0.0
240	0x3b3887d8	0.002815714
241	0x00000000	0.0
242	0x3b0744cf	0.0020640378
243	0x00000000	0.0
244	0x3b2cfeaa	0.0026396909
245	0x00000000	0.0
246	0x3b59075f	0.0033115966
247	0x00000000	0.0
248	0xbb91fae7	-0.0044549587
249	0x00000000	0.0
250	0x3bd13982	0.0063850293
251	0x00000000	0.0
252	0xb9095041	-0.00013095235
253	0x00000000	0.0
254	0x3b13d704	0.002255858
255	0x00000000	0.0

exp_avg_sq f4 [128, 2]
0	0x32cf3fef	2.4127045e-08
1	0x00000000	0.0
2	0x342c0129	1.601917e-07
3	0x00000000	0.0
4	0x3b9e67e9	0.0048341644
5	0x00000000	0.0
6	0x3b11be49	0.0022238663
7	0x00000000	0.0
8	0x3411e2e9	1.3586727e-07
9	0x00000000	0.0
10	0x390fe4c6	0.00013722767
11	0x00000000	0.0
12	0x34417ba7	1.801951e-07
13	0x00000000	0.0
14	0x3a53b6de	0.00080762606
15	0x00000000	0.0
16	0x32fd91f3	2.9519446e-08
17	0x00000000	0.0
18	0x3a4abb9a	0.0007733643
19	0x00000000	0.0
20	0x321d2171	9.1462065e-09
21	0x00000000	0.0
22	0x3439ec9a	1.7315543e-07
23	0x00000000	0.0
24	0x3669024b	3.472104e-06
25	0x00000000	0.0
26	0x35a86b20	1.2548153e-06
27	0x00000000	0.0
28	0x39ed2c69	0.0004523725
29	0x00000000	0.0
30	0x3617cb5b	2.2619122e-06
31	0x00000000	0.0
32	0x394ce59a	0.0001954049
33	0x00000000	0.0
34	0x34dc1b26	4.0997946e-07
35	0x00000000	0.0
36	0x375f2372	1.33000885e-05
37	0x00000000	0.0
38	0x312ff672	2.560594e-09
39	0x00000000	0.0
40	0x3a30d081	0.00067449367
41	0x00000000	0.0
42	0x34f635a3	4.5860097e-07
43	0x00000000	0.0
44	0x38f1013a	0.00011492004
45	0x00000000	0.0
46	0x35acac57	1.2865156e-06
47	0x00000000	0.0
48	0x35ffbef7	1.9054559e-06
49	0x00000000	0.0
50	0x358a6327	1.0310658e-06
51	0x00000000	0.0
52	0x3aad5e29	0.0013226914
53	0x00000000	0.0
54	0x33097ae7	3.2009577e-08
55	0x00000000	0.0
56	0x342e3f8a	1.6228128e-07
57	0x00000000	0.0
58	0x33c64580	9.2327355e-08
59	0x00000000	0.0
60	0x3715c0fc	8.926025e-06
61	0x00000000	0.0
62	0x39e98e29	0.0004454714
63	0x00000000	0.0
64	0x33a9f0b0	7.9134566e-08
65	0x00000000	0.0
66	0x38d2b400	0.00010047108
67	0x00000000	0.0
68	0x33e5fde8	1.0709829e-07
69	0x00000000	0.0
70	0x330b5b3d	3.244644e-08
71	0x00000000	0.0
72	0x39ac09fc	0.00032813835
73	0x00000000	0.0
74	0x3a81dd4f	0.0009907874
75	0x00000000	0.0
76	0x31e06119	6.5302967e-09
77	0x00000000	0.0
78	0x32519b30	1.2200687e-08
79	0x00000000	0.0
80	0x38f5b9b2	0.00011717099
81	0x00000000	0.0
82	0x38d87c59	0.00010322844
83	0x00000000	0.0
84	0x33874451	6.298854e-08
85	0x00000000	0.0
86	0x37d8034e	2.5750745e-05
87	0x00000000	0.0
88	0x391b0686	0.00014784382
89	0x00000000	0.0
90	0x32981dc6	1.7708668e-08
91	0x00000000	0.0
92	0x3b264b2f	0.0025374403
93	0x00000000	0.0
94	0x37983cec	1.8148181e-05
95	0x00000000	0.0
96	0x3370d71e	5.6075002e-08
97	0x00000000	0.0
98	0x36ef87f2	7.138581e-06
99	0x00000000	0.0
100	0x32d3a44e	2.463835e-08
101	0x00000000	0.0
102	0x355d04b3	8.2335754e-07
103	0x00000000	0.0
104	0x38cfa29d	9.900818e-05
105	0x00000000	0.0
106	0x3a26d17d	0.00063636136
107	0x00000000	0.0
108	0x319b25c9	4.5153894e-09
109	0x00000000	0.0
110	0x37314ac2	1.0567428e-05
111	0x00000000	0.0
112	0x377049e4	1.4322319e-05
113	0x00000000	0.0
114	0x3841a654	4.616969e-05
115	0x00000000	0.0
116	0x324ba6a8	1.1854048e-08
117	0x00000000	0.0
118	0x3644a65e	2.9303114e-06
119	0x00000000	0.0
120	0x3a545b5b	0.0008100771
121	0x00000000	0.0
122	0x3982e7f6	0.00024968357
123	0x00000000	0.0
124	0x37cd9cf3	2.451099e-05
125	0x00000000	0.0
126	0x301d9873	5.733291e-10
127	0x00000000	0.0
128	0x32a346e0	1.9007928e-08
129	0x00000000	0.0
130	0x3437db63	1.7123016e-07
131	0x00000000	0.0
132	0x340c42e3	1.306285e-07
133	0x00000000	0.0
134	0x34de54cd	4.1412423e-07
135	0x00000000	0.0
136	0x34303684	1.641111e-07
137	0x00000000	0.0
138	0x34f90027	4.6379975e-07
139	0x00000000	0.0
140	0x3b30b197	0.002696132
141	0x00000000	0.0
142	0x38e15c18	0.0001074599
143	0x00000000	0.0
144	0x38c14cd1	9.217265e-05
145	0x00000000	0.0
146	0x34582e76	2.013347e-07
147	0x00000000	0.0
148	0x3a70b388	0.00091820257
149	0x00000000	0.0
150	0x337b5b9a	5.8523803e-08
151	0x00000000	0.0
152	0x35aa1000	1.2670644e-06
153	0x00000000	0.0
154	0x3ac93f48	0.0015353942
155	0x00000000	0.0
156	0x33bfc4ce	8.929929e-08
157	0x00000000	0.0
158	0x3994291b	0.00028259386
159	0x00000000	0.0
160	0x338ce8d0	6.5616064e-08
161	0x00000000	0.0
162	0x3b20c40e	0.002453092
163	0x00000000	0.0
164	0x32376732	1.0675466e-08
165	0x00000000	0.0
166	0x3b0e43c5	0.0021707874
167	0x00000000	0.0
168	0x3baba6ad	0.005238375
169	0x00000000	0.0
170	0x35648cc6	8.514147e-07
171	0x00000000	0.0
172	0x3915bc03	0.00014279787
173	0x00000000	0.0
174	0x38918a10	6.939855e-05
175	0x00000000	0.0
176	0x3950cea9	0.00019913413
177	0x00000000	0.0
178	0x36def28d	6.644352e-06
179	0x00000000	0.0
180	0x3a0d4be4	0.0005390032
181	0x00000000	0.0
182	0x3b1296fd	0.0022367828
183	0x00000000	0.0
184	0x375ab7b6	1.3036586e-05
185	0x00000000	0.0
186	0x38aa94c1	8.133939e-05
187	0x00000000	0.0
188	0x31cc9603	5.9542358e-09
189	0x00000000	0.0
190	0x3ac5b7e4	0.0015084711
191	0x00000000	0.0
192	0x39836166	0.00025058835
193	0x00000000	0.0
194	0x39aebc57	0.0003332819
195	0x00000000	0.0
196	0x39e6134d	0.000438834
197	0x00000000	0.0
198	0x387558b1	5.8495152e-05
199	0x00000000	0.0
200	0x36a10ed2	4.799899e-06
201	0x00000000	0.0
202	0x347ec61f	2.372767e-07
203	0x00000000	0.0
204	0x391b68bc	0.00014820968
205	0x00000000	0.0
206	0x3b708f51	0.0036706517
207	0x00000000	0.0
208	0x31f304e1	7.0727855e-09
209	0x00000000	0.0
210	0x3990a148	0.00027585984
211	0x00000000	0.0
212	0x2fc8ca67	3.6523604e-10
213	0x00000000	0.0
214	0x3bf41233	0.0074484586
215	0x00000000	0.0
216	0x3aa4059b	0.0012513878
217	0x00000000	0.0
218	0x38d3c962	0.000100987745
219	0x00000000	0.0
220	0x3a0bb12a	0.00053288287
221	0x00000000	0.0
222	0x328d3d7f	1.6442526e-08
223	0x00000000	0.0
224	0x3a6dc66c	0.00090703997
225	0x00000000	0.0
226	0x39b7f59a	0.00035087467
227	0x00000000	0.0
228	0x358609df	9.986651e-07
229	0x00000000	0.0
230	0x3102fd0b	1.9061328e-09
231	0x00000000	0.0
232	0x38799f36	5.9514503e-05
233	0x00000000	0.0
234	0x36504165	3.103248e-06
235	0x00000000	0.0
236	0x328e4499	1.656217e-08
237	0x00000000	0.0
238	0x367daf9e	3.780216e-06
239	0x00000000	0.0
240	0x3998397d	0.0002903453
241	0x00000000	0.0
242	0x396d46ff	0.0002262853
243	0x00000000	0.0
244	0x392e701a	0.00016635694
245	0x00000000	0.0
246	0x3a24d027	0.00062871206
247	0x00000000	0.0
248	0x3ab00f7f	0.0013432353
249	0x00000000	0.0
250	0x3b0c77b0	0.0021433644
251	0x00000000	0.0
252	0x361bf84a	2.3241323e-06
253	0x00000000	0.0
254	0x39202606	0.00015272954
255	0x00000000	0.0

exp_avg f4 [128]
0	0xb7de9601	-2.6534313e-05
1	0x38622b42	5.3922886e-05
2	0xb9c2c219	-0.00037147177
3	0xb98bd9c7	-0.00026674403
4	0x37df4131	2.6614029e-05
5	0xb8eb78c1	-0.000112281654
6	0x38683446	5.5361794e-05
7	0xb685f8a1	-3.992653e-06
8	0xb7df2156	-2.6599195e-05
9	0xb9113fc2	-0.00013852029
10	0xb7477d44	-1.189049e-05
11	0xb7388f47	-1.1000614e-05
12	0xb6451c5c	-2.9371795e-06
13	0xb7a3269c	-1.9449093e-05
14	0x37b3f209	2.145117e-05
15	0x3908e479	0.00013055083
16	0x38483802	4.7735877e-05
17	0x37c311f8	2.3254179e-05
18	0x390294ff	0.00012453271
19	0xb6855f6e	-3.9748184e-06
20	0x394a6fb6	0.00019305837
21	0x38b9f8c1	8.8678215e-05
22	0x378fc182	1.7137038e-05
23	0x37c10efe	2.3014374e-05
24	0x38ff225b	0.00012165747
25	0x38c81c88	9.5420575e-05
26	0xb88e6351	-6.789587e-05
27	0xb7e4a962	-2.7258593e-05
28	0x384e10a0	4.912971e-05
29	0xb6ef31e4	-7.128563e-06
30	0x38978317	7.2246585e-05
31	0xb803a280	-3.1384174e-05
32	0xb8036fb5	-3.133687e-05
33	0xb88a4e59	-6.594946e-05
34	0xb8372be6	-4.3671484e-05
35	0x349cb1c2	2.91866e-07
36	0x37cc22b4	2.4334855e-05
37	0x388f276e	6.826116e-05
38	0x34c20274	3.61371e-07
39	0xb78f0df8	-1.7053433e-05
40	0xb843315d	-4.6537596e-05
41	0x3865bc72	5.4773358e-05
42	0x38213554	3.8435057e-05
43	0x3880a2f0	6.133865e-05
44	0x38e7bce5	0.00011050123
45	0xb7c3ff96	-2.3364828e-05
46	0x38b79eae	8.7556764e-05
47	0xb8e60736	-0.00010968598
48	0x3651bc41	3.1253005e-06
49	0xb897de60	-7.241662e-05
50	0x36107923	2.1528183e-06
51	0xb84f008f	-4.9353166e-05
52	0xb8857f88	-6.365689e-05
53	0xb91fe096	-0.00015247086
54	0xb72898a1	-1.0049117e-05
55	0x37ae7225	2.0795569e-05
56	0xb90bf8f5	-0.00013348817
57	0xb7dc698c	-2.6275193e-05
58	0xb79c31b8	-1.8619801e-05
59	0xb845ff68	-4.7206326e-05
60	0x390c76c2	0.00013395681
61	0xb78e7903	-1.698407e-05
62	0x3934604d	0.00017202013
63	0x35addc48	1.2953615e-06
64	0xb6f656f6	-7.341495e-06
65	0xb850b37b	-4.975822e-05
66	0x3856e253	5.1232357e-05
67	0x3867ba91	5.5248445e-05
68	0x3788ecbf	1.6322707e-05
69	0xb7fd1412	-3.0169296e-05
70	0xb8ecc4be	-0.00011290003
71	0x37e8194c	2.7668335e-05
72	0x370371d8	7.834715e-06
73	0xb68bf494	-4.1709955e-06
74	0x398002cb	0.00024416143
75	0x380db0ee	3.37818e-05
76	0x391c7d2c	0.0001492395
77	0xb9832613	-0.00025014635
78	0xb834941a	-4.3053275e-05
79	0xb88d78eb	-6.745927e-05
80	0xb81759c7	-3.6084817e-05
81	0xb8a1bd5b	-7.7123485e-05
82	0x377e4f0f	1.5157987e-05
83	0xb8cb9873	-9.70819e-05
84	0xb916cefd	-0.00014382224
85	0x38cdfc0e	9.8221106e-05
86	0x38577200	5.1366165e-05
87	0xb8e3b01a	-0.00010857005
88	0xb8e1df55	-0.00010770435
89	0x393f306d	0.0001823322
90	0xb8c7097c	-9.490826e-05
91	0xb8bdbe74	-9.047697e-05
92	0x385a2fce	5.2019772e-05
93	0x3904b4f8	0.00012655917
94	0xb6eb0494	-7.0040787e-06
95	0x3959cd94	0.00020771316
96	0x3889db02	6.5734625e-05
97	0x38a0edc6	7.673683e-05
98	0x38075c08	3.227222e-05
99	0x38c28b4b	9.276586e-05
100	0x38cce4c7	9.770091e-05
101	0xb715d4f0	-8.93067e-06
102	0x3871fe34	5.7695623e-05
103	0xb997c399	-0.00028946696
104	0x37395150	1.1045791e-05
105	0x380c8d7f	3.351038e-05
106	0xb5cd05cd	-1.5275378e-06
107	0xb9b201c0	-0.0003395211
108	0x3918d6b9	0.0001457584
109	0xb90554b8	-0.00012715429
110	0xb64b83ca	-3.0326069e-06
111	0xb7b872c2	-2.1987948e-05
112	0x3932deb0	0.0001705836
113	0x362d9147	2.5863571e-06
114	0x38cfdd2a	9.911724e-05
115	0xb6e84b28	-6.922888e-06
116	0x386d9532	5.6644152e-05
117	0x38e6aa86	0.00010999017
118	0xb793861e	-1.7586219e-05
119	0x385ef005	5.315246e-05
120	0xb6b4520f	-5.373971e-06
121	0x36ad6ec3	5.168696e-06
122	0x3924a1ea	0.00015700576
123	0x38d710f6	0.00010255158
124	0xb7db5f92	-2.6151338e-05
125	0x39793f0a	0.00023769974
126	0x37cc0b58	2.4323977e-05
127	0x395b094b	0.0002088893

exp_avg_sq f4 [128]
0	0x320762f8	7.880537e-09
1	0x3362377e	5.2670195e-08
2	0x37a6f821	1.9904286e-05
3	0x37130106	8.762121e-06
4	0x3212152e	8.503134e-09
5	0x36318589	2.6452783e-06
6	0x32e34323	2.6456808e-08
7	0x36b86b3e	5.496112e-06
8	0x3225c682	9.6493995e-09
9	0x3665b2ca	3.4227728e-06
10	0x3149494d	2.9291016e-09
11	0x32c826bc	2.3300679e-08
12	0x32990843	1.7815301e-08
13	0x32020541	7.5681905e-09
14	0x3648412e	2.9840262e-06
15	0x3475c5e1	2.2889391e-07
16	0x357c70ed	9.4041644e-07
17	0x328e9a07	1.660102e-08
18	0x3478b00a	2.3160842e-07
19	0x3009ef77	5.018061e-10
20	0x362f761e	2.6145785e-06
21	0x33c89a9e	9.3413504e-08
22	0x352c5dce	6.4211497e-07
23	0x32ea15e9	2.7251149e-08
24	0x347f8aaf	2.3799178e-07
25	0x34174b8e	1.4090458e-07
26	0x37008f23	7.662721e-06
27	0x32335bd3	1.044005e-08
28	0x32bb0c4f	2.1775262e-08
29	0x326fda7a	1.3961307e-08
30	0x34a45576	3.0609561e-07
31	0x3632b277	2.6627947e-06
32	0x32d3fb0c	2.4677796e-08
33	0x34c148bd	3.6001975e-07
34	0x3314a9f3	3.4613503e-08
35	0x3226f437	9.718e-09
36	0x3618aa63	2.2748943e-06
37	0x3714de89	8.8733e-06
38	0x2fb58b1b	3.3022549e-10
39	0x318903eb	3.98767e-09
40	0x355b34eb	8.1660863e-07
41	0x35b1f64a	1.3259207e-06
42	0x328cf83f	1.6411034e-08
43	0x33e3c30c	1.060599e-07
44	0x3608346e	2.0296097e-06
45	0x31c6c0c4	5.7844733e-09
46	0x379dbacb	1.880284e-05
47	0x34b9d1d2	3.46116e-07
48	0x329678bb	1.75172e-08
49	0x34469adf	1.8496529e-07
50	0x31886ca1	3.9704706e-09
51	0x340fbdf4	1.3387017e-07
52	0x35a0b2a6	1.1972922e-06
53	0x3625ba1a	2.4695241e-06
54	0x30bd48db	1.3772267e-09
55	0x33987ab6	7.1003726e-08
56	0x352e8e0a	6.5026745e-07
57	0x34d43f5b	3.9534174e-07
58	0x31817d8f	3.7686685e-09
59	0x3420db45	1.4980931e-07
60	0x37111178	8.646741e-06
61	0x35b3e078	1.3401868e-06
62	0x34e78c66	4.3129256e-07
63	0x2eb6c981	8.312196e-11
64	0x31cce0e0	5.9627467e-09
65	0x336e8d6a	5.554231e-08
66	0x3324ea83	3.8397513e-08
67	0x32d05bc0	2.425611e-08
68	0x3293db02	1.7212646e-08
69	0x339f79c8	7.426166e-08
70	0x37669fb7	1.3746255e-05
71	0x353f8777	7.135017e-07
72	0x3528d2a5	6.2891405e-07
73	0x32e9349e	2.7148698e-08
74	0x366880b1	3.4645602e-06
75	0x32a48939	1.9154514e-08
76	0x34a64e3c	3.0976832e-07
77	0x36c6fed4	5.9305257e-06
78	0x32fa4348	2.9134426e-08
79	0x35ad5689	1.291469e-06
80	0x32b68080	2.1246024e-08
81	0x3762a297	1.3508506e-05
82	0x313331ea	2.6076301e-09
83	0x373daa1f	1.1304887e-05
84	0x37f21a52	2.8860904e-05
85	0x34115812	1.3536217e-07
86	0x354a998b	7.54743e-07
87	0x35a94ee3	1.261444e-06
88	0x354dfc53	7.673563e-07
89	0x35259a82	6.169213e-07
90	0x361a0492	2.2950449e-06
91	0x378926f6	1.6349815e-05
92	0x3374a05d	5.6956527e-08
93	0x34abd298	3.200446e-07
94	0x30b31a92	1.3031516e-09
95	0x36d53a11	6.3546545e-06
96	0x3594ae42	1.1077575e-06
97	0x360711a7	2.0126843e-06
98	0x3651dfa5	3.1273605e-06
99	0x347e9c4e	2.3712457e-07
100	0x3434860f	1.6812577e-07
101	0x3357ba77	5.0228177e-08
102	0x35430cdf	7.266189e-07
103	0x37823a7f	1.5524447e-05
104	0x30cd7203	1.4948117e-09
105	0x35e6e802	1.7203859e-06
106	0x2e944219	6.742002e-11
107	0x380cf93c	3.361072e-05
108	0x36c08fb7	5.7387765e-06
109	0x34e4def8	4.263054e-07
110	0x36808b81	3.8309377e-06
111	0x31b810ea	5.3570277e-09
112	0x371c0aae	9.300811e-06
113	0x36037fe4	1.9594963e-06
114	0x3470114d	2.2358036e-07
115	0x301cc251	5.702861e-10
116	0x34813127	2.4063885e-07
117	0x3437f0ca	1.7130802e-07
118	0x31b21c9f	5.1837357e-09
119	0x33a66d32	7.74984e-08
120	0x360cbee3	2.0972736e-06
121	0x359e496f	1.1793289e-06
122	0x3552b288	7.8490893e-07
123	0x364b034d	3.0251279e-06
124	0x3707dbd4	8.09781e-06
125	0x371befce	9.294554e-06
126	0x33180e05	3.540301e-08
127	0x35460f9b	7.3783457e-07
