Assets/IA/Pruebas/results/Pad06/PadBehavior/checkpoint.pt (torch, 438005 bytes, 30 tensors)

network_body._body_endoder.seq_layers.0.weight f4 [128, 5]
1.1116986 0.12722367 0.19441038 0.39903548 -0.24849309 0.66949296 -0.63380224 -0.6787932
0.025811903 -0.8391728 0.30858132 0.03104886 0.12703432 0.059120543 0.19594248 0.9379969
0.4727575 0.5074063 0.31475058 0.46539685 -0.20320496 -0.20255639 -0.5423602 0.48432845
-0.37113792 0.2678774 -0.015470426 -0.42476752 0.08098747 0.017162664 -0.42364344 0.41749814
0.4191472 -0.8469017 -0.047098435 0.5031888 -0.30925208 0.2423535 0.3747235 0.29864505
-0.025079181 0.23498118 0.19104515 0.15346232 -0.2613451 -0.048369996 -0.15364316 -0.07843234
0.17184862 -0.07194643 0.37775418 0.33891225 -0.087756395 0.14514105 0.36457625 -0.02454956
-0.4063052 0.30279356 -0.1402671 0.29537448 -0.289524 -0.2618733 -0.9412327 -0.19429418
-0.22606097 0.6115145 -0.046724975 -0.21327436 0.41477972 0.14934525 -0.10993084 -0.08851399
0.24841143 -0.8307962 0.19231299 -0.0020954146 0.7784192 -0.14600053 0.04243911 0.4972197
0.33544853 0.43523937 -0.5091777 0.4533517 0.29145756 0.62711364 0.4157229 0.9644673
-0.49023646 -0.38749585 -0.005266647 -0.49601182 0.6789231 -0.24685356 -0.11989668 0.51199055
-0.21498823 -0.37350404 -0.1679947 0.11459393 -0.15633626 0.3762369 0.8460574 -0.36451852
0.41873085 -0.7141659 -0.014853822 -0.1838554 0.12873529 0.24803099 -0.5208303 0.27556172
-0.20306018 0.4894127 -0.22007072 -0.15384884 -0.016280258 0.02695153 0.52760893 -0.06806527
-0.3834505 0.2670841 -0.7238459 -0.37171578 0.6180789 -0.23565355 -0.10988015 0.7951195
-0.14493845 0.19746587 -0.6915515 0.08144442 0.33204454 -0.5182172 -0.45949122 -1.0986487
0.40452704 0.083125636 -0.33066258 0.30201176 -0.58769786 0.15397508 0.28281975 -0.60390973
-0.6830143 -0.4187245 0.5607848 -0.033723768 0.015112876 0.70034224 -0.29094747 -0.10798974
-0.05775866 0.23825529 -0.06879075 -0.79344076 -0.28393218 0.21920642 0.690156 0.5487575
1.9220973 0.16384642 0.19991574 -0.20834322 0.38505217 -0.029482702 0.13675624 0.2060246
0.39976665 0.29621187 -0.77192444 -1.0261546 0.06086317 -0.10470192 0.6142082 -0.38269496
0.4133763 0.46151116 -0.09315113 -0.60148716 0.5330091 0.2591656 -0.102470644 -0.55866045
0.11915592 -1.1922392 -0.090531394 -0.5953132 -0.46586832 -0.19498464 -0.22373395 0.058010027
-0.5469512 0.6701505 -0.8365564 0.9718991 -0.08694146 0.4910707 -0.9641445 0.7922452
0.15550166 0.14804429 -0.15025891 -0.76671916 0.23903747 -0.4125626 -0.2142435 0.29064417
-0.0063211285 -0.8951061 0.6176357 0.39903408 0.4713905 0.30421808 -0.41822183 0.14690787
-0.040039912 0.16065185 0.8016672 0.26013213 0.099312395 -0.5841051 0.040022254 -0.19625735
-0.59852475 0.0810235 0.24680951 0.35055396 -0.0490189 0.31237206 0.59449 -0.10391243
0.3226896 0.08501901 -0.32160336 -0.16528593 -0.56255203 -0.19891457 -0.007562663 -0.52178794
0.16064814 0.1130248 0.6493154 0.14200671 0.083887324 0.10925002 -0.37368712 -1.0640808
0.4966223 -0.074770324 0.026359016 -0.1559537 -0.1396271 -0.109340176 -0.10459363 0.25852323
00000000: 244c 8e3f ec46 023e 8413 473e 614e cc3e
00000010: f974 7ebe e463 2b3f dd40 22bf 64c5 2dbf
00000020: 7c73 d33c 07d4 56bf 5ffe 9d3e 2e5a fe3c
00000030: 4915 023e 6228 723d 25a5 483e 9120 703f
00000040: 450d f23e 61e5 013f fd26 a13e 7f48 ee3e
00000050: f614 50be f16a 4fbe 1ed8 0abf e6f9 f73e
00000060: ca05 bebe 3a27 893e ab77 7dbc 217b d9be
00000070: c2dc a53d b798 8c3c cbe7 d8be 51c2 d53e
00000080: 769a d63e 8dce 58bf 4aea 40bd fbd0 003f
00000090: 4a56 9ebe 842b 783e c2db bf3e 01e8 983e
000000a0: db72 cdbc e89e 703e 57a1 433e 3a25 1d3e
000000b0: 06cf 85be 9e1f 46bd a254 1dbe 22a1 a0bd
000000c0: 16f9 2f3e a658 93bd ff68 c13e e885 ad3e
000000d0: a0b9 b3bd db9f 143e bda9 ba3e 291c c9bc
000000e0: 3c07 d0be c207 9b3e 2ea2 0fbe 533b 973e
000000f0: 7d3c 94be 4214 86be a0f4 70bf 0ef5 46be
00000100: 877c 67be 378c 1c3f b062 3fbd 9864 5abe
00000110: 025e d43e f6ed 183e 6c23 e1bd d346 b5bd
00000120: 915f 7e3e 0faf 54bf b2ed 443e 3953 09bb
00000130: 7b46 473f 2a81 15be a2d4 2d3d 9593 fe3e
00000140: e9bf ab3e b2d7 de3e 7859 02bf b71d e83e
00000150: ed39 953e 858a 203f a2d9 d43e 54e7 763f
00000160: 4600 fbbe db65 c6be d693 acbb 43f5 fdbe
00000170: e7cd 2d3f 2ec7 7cbe 648c f5bd d011 033f
00000180: e025 5cbe ec3b bfbe cd06 2cbe 39b0 ea3d
00000190: 9d16 20be 1fa2 c03e 3897 583f 2ca2 babe
000001a0: e463 d63e 94d3 36bf 725d 73bc 9744 3cbe
000001b0: 2fd3 033e d6fb 7d3e 2255 05bf 6d16 8d3e
000001c0: 02ef 4fbe 4d94 fa3e 385a 61be 8d8a 1dbe
000001d0: 2d5e 85bc 74c9 dc3c 6111 073f ce65 8bbd
000001e0: a053 c4be 3fbf 883e f74d 39bf 8851 bebe
000001f0: 6b3a 1e3f 2a4f 71be d808 e1bd f48c 4b3f
00000200: bf6a 14be 7e34 4a3e 8509 31bf 55cc a63d
00000210: be01 aa3e e2a9 04bf 6f42 ebbe 85a0 8cbf
00000220: 2b1e cf3e c63d aa3d 9b4c a9be 49a1 9a3e
00000230: 5e73 16bf a5ab 1d3e c0cd 903e d499 1abf
00000240: 06da 2ebf 0f63 d6be 988f 0f3f ef21 0abd
00000250: ff9b 773c a149 333f 11f7 94be ba29 ddbd
00000260: 5894 6cbd 32f9 733e 2ae2 8cbd ef1e 4bbf
00000270: 8f5f 91be a677 603e 10ae 303f 5f7b 0c3f
00000280: 4907 f63f 5bc7 273e b6b6 4c3e ed57 55be
00000290: 8f25 c53e b585 f1bc d409 0c3e 1df8 523e
000002a0: 37ae cc3e 15a9 973e d79c 45bf 0959 83bf
000002b0: a94b 793d f66d d6bd c03c 1d3f 98f0 c3be
000002c0: 0fa6 d33e 314b ec3e 05c6 bebd 10fb 19bf
000002d0: 4973 083f 5bb1 843e 21dc d1bd 5f04 0fbf
000002e0: 0508 f43d 4b9b 98bf 8668 b9bd 7266 18bf
000002f0: 4b86 eebe 0eaa 47be 831a 65be ec9b 6d3d
00000300: fe04 0cbf fc8e 2b3f 8f28 56bf 61ce 783f
00000310: 5d0e b2bd 9e6d fb3e 2dd2 76bf 95d0 4a3f
00000320: d43b 1f3e ec98 173e 79dd 19be b547 44bf
00000330: 3dc6 743e 683b d3be a662 5bbe 50cf 943e
00000340: 7821 cfbb ac25 65bf 601d 1e3f 324e cc3e
00000350: 185a f13e 79c2 9b3e 2c21 d6be 046f 163e
00000360: e400 24bd eb81 243e 103a 4d3f 0a30 853e
00000370: 4c64 cb3d e987 15bf 60ee 233d b0f7 48be
00000380: eb38 19bf a6ef a53d a2bb 7c3e cf7b b33e
00000390: 0bc8 48bd 3bef 9f3e 7f30 183f 0ad0 d4bd
000003a0: 9237 a53e 721e ae3d 32a9 a4be b740 29be
000003b0: 6903 10bf 43b0 4bbe 37d0 f7bb e593 05bf
000003c0: f280 243e 8c79 e73d 8939 263f 356a 113e
000003d0: 1ecd ab3d 79be df3d eb53 bfbe cd33 88bf
000003e0: 4745 fe3e 2f21 99bd ddee d73c 54b2 1fbe
000003f0: 68fa 0ebe beed dfbd 2f35 d6bd 285d 843e

network_body._body_endoder.seq_layers.0.bias f4 [128]
-0.037296023 0.13859503 -0.026441034 -0.0654468 -0.03219223 -0.027872408 -0.09029472 -0.027685039
-0.064599395 -0.11219556 -0.0826752 0.078468785 -0.01714355 -0.011844072 -0.1174094 -0.038023286
-0.09029746 -0.00854382 -0.076849 0.012811399 -0.039416943 0.051715598 0.002798795 -0.10608327
0.028693018 -0.014767128 0.029866213 0.023316218 -0.022478478 0.0023248487 -0.11147192 -0.029398967
0.02887349 -0.027287494 0.010563117 -0.0039731883 -0.021026673 -0.020761153 0.0010914012 -0.06887169
-0.01604129 0.04914084 -0.07703785 -0.045655407 0.019959986 -0.0084744785 -0.004643605 -0.08241043
-0.07275855 -0.061233032 -0.05118255 0.024028739 -0.11787813 0.026318101 0.06417491 -0.06581605
-0.03816039 0.002213362 -0.017311197 -0.027342074 -0.023542989 -0.01639984 -0.0290063 0.03847615
-0.035011575 -0.05080264 -0.03338911 -0.06806103 0.04101592 0.013595879 -0.022247659 -0.073624745
-0.005716538 -0.07726525 0.06031563 0.0032752384 0.014439554 -0.053467687 -0.022014685 -0.0024590362
0.04525382 -0.06297383 -0.031605434 -0.040962067 0.0048985314 0.026932893 -0.0022061884 -0.017583815
-0.01973053 -0.067272104 -0.09220365 -0.068206154 -0.0387939 -0.0021635997 -0.034513023 -0.032635193
-0.0949303 -0.0170215 -0.009030648 -0.04548825 -0.030118352 -0.021940814 0.053395044 0.015327525
-0.051965628 -0.052736517 -0.04666057 0.036986448 -0.00052184367 0.03912699 -0.014666678 -0.0642773
0.040307384 -0.07846994 -0.043457188 -0.013278926 0.0073463563 -0.03812526 -0.03051735 -0.09132708
-0.06262024 -0.087466404 -0.02672613 0.014393513 -0.05501217 -0.0087610725 0.04753862 0.016795829
00000000: b7c3 18bd dbeb 0d3e de9a d8bc f908 86bd
00000010: 00dc 03bd ad54 e4bc 70ec b8bd bccb e2bc
00000020: b04c 84bd c9c6 e5bd 9e51 a9bd 3eb4 a03d
00000030: a170 8cbc a30d 42bc 5774 f0bd 4ebe 1bbd
00000040: e0ed b8bd 61fb 0bbc 0263 9dbd e7e6 513c
00000050: a973 21bd bcd3 533d fd6b 373b 2f42 d9bd
00000060: 9f0d eb3c d3f1 71bc fda9 f43c a701 bf3c
00000070: c924 b8bc 7d5c 183b 644b e4bd 1ad6 f0bc
00000080: 1988 ec3c 068a dfbc ed10 2d3c 8531 82bb
00000090: 2140 acbc 4b13 aabc 590d 8f3a 9a0c 8dbd
000000a0: 0669 83bc e847 493d 05c6 9dbd 2a01 3bbd
000000b0: 2083 a33c 8ad8 0abc 6229 98bb cdc6 a8bd
000000c0: 6f02 95bd 7dcf 7abd cba4 51bd ebd7 c43c
000000d0: 176a f1bd 0f99 d73c 236e 833d 91ca 86bd
000000e0: 124e 1cbd 0d0e 113b 36d0 8dbc 7cfc dfbc
000000f0: 3add c0bc f558 86bc 9f9e edbc 2b99 1d3d
00000100: 4c68 0fbd 6e16 50bd 05c3 08bd 9563 8bbd
00000110: 4f00 283d 40c1 5e3c b940 b6bc 92c8 96bd
00000120: cc51 bbbb 3e3d 9ebd 860d 773d 62a5 563b
00000130: e193 6c3c ef00 5bbd 2458 b4bc c827 21bb
00000140: 125c 393d 6cf8 80bd b374 01bd d7c7 27bd
00000150: dc83 a03b 5fa2 dc3c b395 10bb ef0b 90bc
00000160: eca1 a1bc f5c5 89bd 44d5 bcbd abaf 8bbd
00000170: 5ae6 1ebd 2ecb 0dbb 875d 0dbd 7bac 05bd
00000180: d16a c2bd ac70 8bbc 48f5 13bc e351 3abd
00000190: c3ba f6bc 39bd b3bc c3b4 5a3d 4d20 7b3c
000001a0: e9d9 54bd 3f02 58bd 271f 3fbd 1a7f 173d
000001b0: 56cc 08ba 9f43 203d 824c 70bc d1a3 83bd
000001c0: 5b19 253d d9b4 a0bd 2a00 32bd da8f 59bc
000001d0: b4b9 f03b 3c29 1cbd 86ff f9bc b109 bbbd
000001e0: 0a3f 80bd 9621 b3bd c2f0 dabc c5d2 6b3c
000001f0: 7154 61bd 9a8a 0fbc dbb7 423d 6897 893c

network_body._body_endoder.seq_layers.2.weight f4 [128, 128]
-0.04143797 -0.18048117 0.037024897 -0.036895778 -0.14051287 -0.1047712 -0.12945215 -0.041572183
-0.07483048 -0.056678038 -0.04705525 -0.08389821 0.034360368 -0.01870215 0.18362132 0.05714271
0.103714705 0.028929919 -0.07140907 -0.07873084 -0.02655926 0.017339222 -0.07896577 -0.024470003
-0.18161951 -0.09560857 -0.103916265 0.0021549975 -0.08590237 -0.018430222 0.003682354 -0.08379475
-0.14328548 -0.12083941 -0.097141415 -0.14442225 0.03754609 -0.048715997 -0.09712132 -0.03574214
-0.036083598 -0.010557489 -0.015502611 -0.010527401 0.07254309 -0.059797578 -0.03378616 -0.04308953
-0.011340917 -0.092887476 -0.027311692 -0.13753024 0.045818143 -0.27406934 0.045176566 -0.13933884
0.050341193 0.10498547 -0.16760086 0.004175132 -0.03898344 0.025237659 -0.267029 -0.123649724
0.000309389 0.06295772 -0.21422423 -0.02353918 0.11650759 -0.107198074 0.04322807 -0.018022668
-0.05149321 0.022239922 -0.20480137 0.03342311 -0.05817658 -0.06876774 -0.031993996 -0.104246415
0.07384835 0.14360212 -0.08889716 -0.24232908 -0.23011726 -0.026555307 0.12704493 -0.062873565
-0.050390385 0.069325745 -0.15504114 0.0013088998 0.18425696 -0.0068764985 -0.17448466 0.09134422
0.025020543 -0.22741291 0.0012501151 -0.009293253 0.041994233 -0.012475003 -0.06382407 -0.010934903
-0.024277477 0.043120064 -0.11311048 -0.051213305 0.11179654 -0.12627837 0.056481052 -0.009380733
-0.193282 0.09958771 -0.062520035 -0.015601848 -0.106948026 0.03454159 -0.025977872 0.05167831
-0.015781622 0.18086404 0.10145919 -0.062404905 0.061708618 -0.026536465 -0.067970306 -0.020925106
0.014665144 -0.10731147 -0.067949764 0.16329029 -0.14473347 0.008386257 0.10175287 -0.047319792
-0.12874308 0.13293767 0.09475162 -0.008902466 -0.0434428 0.07006881 0.061560992 -0.029469335
-0.009463833 0.07191719 -0.012140067 -0.26904628 -0.15330726 -0.07484488 0.016833585 -0.050703146
0.17120051 -0.021238664 0.03351923 0.09764189 0.097407945 -0.07698591 0.04995819 0.12545778
-0.10374859 -0.10249435 0.020043308 0.044535995 0.08780645 -0.108480416 -0.009301356 -0.10853534
0.06062331 -0.07768245 0.019050589 -0.071179785 -0.051841673 0.07914986 -0.08292264 -0.0068158126
-0.0645017 0.026860088 -0.17061839 -0.15220493 -0.01185872 -0.11131641 -0.035949826 -0.17707889
0.055342797 0.09232693 0.085968584 0.122854695 -0.1468984 -0.12755463 -0.14925957 0.0590528
0.009700295 0.1290716 -0.036725607 -0.03761679 0.032711312 0.018869927 -0.19871631 0.043246705
-0.023619454 0.018086417 -0.16128373 -0.06749158 0.10954507 0.122585416 0.13547151 -0.12939495
-0.039563548 -0.027106794 -0.0031776142 0.05572028 -0.0739096 -0.10779832 -0.067143604 -0.18414538
-0.20672901 -0.15105477 -0.14076035 0.021588579 -0.016705323 0.017842056 0.054946348 -0.11163893
-0.08542756 -0.13506506 -0.083074756 -0.12121023 0.018779293 -0.20418295 -0.23424356 -0.10454841
0.034733452 -0.012984626 -0.113588676 -0.0531775 0.124784164 -0.070743136 -0.085684866 -0.071097605
-0.054782856 0.009585855 0.0211564 -0.021886924 -0.01207472 0.023883834 -0.089028805 -0.059714094
0.003872604 -0.07760575 -0.08975971 -0.13229796 0.20117067 -0.15233661 0.062417578 -0.024506621
00000000: dcba 29bd 0ed0 38be 6ba7 173d 0720 17bd
00000010: 9be2 0fbe 4892 d6bd 1b8f 04be 9847 2abd
00000020: b940 99bd 3b27 68bd 01bd 40bd d3d2 abbd
00000030: 75bd 0c3d 4035 99bc 3a07 3c3e 790e 6a3d
00000040: 6068 d43d 70fe ec3c eb3e 92bd a23d a1bd
00000050: ce92 d9bc fc0a 8e3c ceb8 a1bd 5175 c8bc
00000060: 77fa 39be 6dce c3bd 0dd2 d4bd dc3a 0d3b
00000070: 95ed afbd fafa 96bc a653 713b 959c abbd
00000080: 6eb9 12be a77a f7bd 14f2 c6bd 6de3 13be
00000090: eec9 193d 6d8a 47bd 8be7 c6bd 5a66 12bd
000000a0: 65cc 13bd 51f9 2cbc aafe 7dbc 1f7b 2cbc
000000b0: 7991 943d 4eee 74bd 5b63 0abd a67e 30bd
000000c0: 41cf 39bc ca3b bebd c5bc dfbc bad4 0cbe
000000d0: ceab 3b3d d152 8cbe 100b 393d d7ae 0ebe
000000e0: 9132 4e3d 9f02 d73d 8f9f 2bbe 8ccf 883b
000000f0: 19ad 1fbd 35bf ce3c 06b8 88be 113c fdbd
00000100: 7d35 a239 faef 803d 995d 5bbe 3dd5 c0bc
00000110: 889b ee3d aa8a dbbd eb0f 313d 46a4 93bc
00000120: 8bea 52bd 7f30 b63c 73b7 51be ace6 083d
00000130: 914a 6ebd 1ad6 8cbd 230c 03bd 257f d5bd
00000140: ce3d 973d 6f0c 133e b70f b6bd 1d25 78be
00000150: dca3 6bbe 848a d9bc 1118 023e dbc3 80bd
00000160: 2666 4ebd a8fa 8d3d 1bc3 1ebe 648f ab3a
00000170: dbad 3c3e 4054 e1bb 1bac 32be ae12 bb3d
00000180: e2f7 cc3c eede 68be e7da a33a ba42 18bc
00000190: 2502 2c3d f463 4cbc 32b6 82bd 4f28 33bc
000001a0: 8fe1 c6bc aa9e 303d 78a6 e7bd 0bc5 51bd
000001b0: 96f5 e43d 1e4f 01be ad58 673d a5b1 19bc
000001c0: b7eb 45be a4f4 cb3d 810a 80bd e59e 7fbc
000001d0: 9107 dbbd 7b7b 0d3d 8ccf d4bc a3ac 533d
000001e0: 7648 81bc 6c34 393e d6c9 cf3d 499c 7fbd
000001f0: 2dc2 7c3d 0063 d9bc 0434 8bbd 216b abbc
00000200: 1246 703c 1ec6 dbbd 3f29 8bbd 9235 273e
00000210: 0335 14be 8366 093c cf63 d03d 66d2 41bd
00000220: 3ad5 03be d020 083e 230d c23d a6db 11bc
00000230: 14f1 31bd 3c80 8f3d 6127 7c3d ad69 f1bc
00000240: 310e 1bbc 5249 933d 22e7 46bc 6fc0 89be
00000250: 94fc 1cbe 4648 99bd 96e6 893c 1aae 4fbd
00000260: 304f 2f3e b5fc adbc 764b 093d 79f8 c73d
00000270: d17d c73d caaa 9dbd f6a0 4c3d 0178 003e
00000280: 247a d4bd 8fe8 d1bd dd31 a43c 606b 363d
00000290: ded3 b33d fb2a debd b764 18bc c747 debd
000002a0: 2650 783d fa17 9fbd fb0f 9c3c b5c6 91bd
000002b0: ef57 54bd 5219 a23d 58d3 a9bd 2e57 dfbb
000002c0: 7819 84bd b009 dc3c 96b6 2ebe 9cdb 1bbe
000002d0: 144b 42bc dcf9 e3bd 2040 13bd 2b54 35be
000002e0: 21af 623d e715 bd3d 4c10 b03d 3e9b fb3d
000002f0: 896c 16be ae9d 02be 80d7 18be 59e1 713d
00000300: fced 1e3c 582b 043e 976d 16bd 1014 1abd
00000310: 4cfc 053d 1b95 9a3c 4a7c 4bbe 7523 313d
00000320: 967d c1bc f729 943c 9027 25be 0739 8abd
00000330: 2a59 e03d 100e fb3d 0bb9 0a3e 1c80 04be
00000340: 630d 22bd 110f debc 853f 50bb f33a 643d
00000350: eb5d 97bd 5ec5 dcbd 9682 89bd 9b90 3cbe
00000360: c5b0 53be 1aae 1abe 7b23 10be 88da b03c
00000370: 9ad9 88bc 8129 923c 6c0f 613d f4a2 e4bd
00000380: a5f4 aebd 7f4e 0abe 1923 aabd 123d f8bd
00000390: 08d7 993c 5615 51be 8bdd 6fbe 7a1d d6bd
000003a0: aa44 0e3d 78bd 54bc 2ea1 e8bd a6d0 59bd
000003b0: d78e ff3d c7e1 90bd 8c7b afbd 9f9b 91bd
000003c0: fd63 60bd fd0d 1d3c 3050 ad3c 354c b3bc
000003d0: 0cd5 45bc 08a8 c33c bc54 b6bd c496 74bd
000003e0: 84cb 7d3b c3ef 9ebd f0d3 b7bd 1e79 07be
000003f0: afff 4d3e 21fe 1bbe 93a9 7f3d 1cc2 c8bc

network_body._body_endoder.seq_layers.2.bias f4 [128]
-0.04987874 -0.046415266 -0.013986345 -0.035516508 -0.08751362 0.010047073 -0.031699922 -0.035331406
-0.023016809 -0.058411006 -0.031635363 -0.013054003 0.027996814 -0.064537466 0.0013715916 -0.01627237
0.021535639 -0.06886311 0.047126155 -0.03490526 -0.06618887 -0.017772505 -0.06974405 -0.044022307
-0.06040111 0.029810438 0.016124165 0.012481051 0.03230404 0.004629295 -0.01625315 -0.013884646
0.06995528 0.028224697 0.013020498 -0.036689326 -0.035969153 -0.04892296 -0.03052283 -0.035044663
0.04683495 -0.037074253 -0.04292833 0.012184541 -0.039579447 -0.069655634 -0.047227755 0.01201389
-0.052679863 -0.0018431619 -0.027086215 -0.02854411 -0.018822346 0.0022548067 -0.011316282 -0.024123186
-0.06623337 -0.037626207 -0.0017155594 0.0023826333 -0.049066618 -0.07098211 -0.058819294 -0.01629038
-0.03361736 -0.0056853513 -0.032500923 -0.09071675 -0.07804366 -0.046104513 -0.0036528336 -0.0035168144
-0.041515414 -0.0052590147 -0.030326368 -0.0116128 0.0554754 0.06733725 -0.0008316379 -0.0041417866
-0.044557046 -0.013237876 -0.016359398 -0.035726987 -0.032509338 -0.0020382165 -0.021381926 0.063637756
0.011402139 -0.041631028 -0.016038181 -0.026695913 -0.043237016 -0.07655846 -0.014226277 0.01721665
0.020128174 -0.013884767 -0.06458254 -0.03430107 0.015177281 -0.022906573 0.038435273 -0.016086936
0.029428564 -0.03948148 -0.028440084 0.021895003 -0.047529858 -0.06619221 0.016314685 -0.04714082
-0.044043142 -0.063705035 -0.043930843 -0.06925132 -0.06703149 -0.013815917 0.022410182 -0.064358816
-0.014735232 -0.01573854 -0.06449088 0.010987509 -0.059173286 -0.06966861 -0.077416226 0.005026757
00000000: a64d 4cbd ef1d 3ebd fc26 65bc c279 11bd
00000010: 573a b3bd 7a9c 243c c7d7 01bd aab7 10bd
00000020: bf8d bcbc 6140 6fbd 1594 01bd 75e0 55bc
00000030: 9359 e53c 382c 84bd fac6 b33a a24d 85bc
00000040: 826b b03c 1a08 8dbd 5b07 413d d1f8 0ebd
00000050: 088e 87bd a597 91bc f8d5 8ebd bc50 34bd
00000060: 2867 77bd 0535 f43c d316 843c 527d 4c3c
00000070: 3e51 043d 57b1 973b 5325 85bc 6d7c 63bc
00000080: b744 8f3d 7b37 e73c ed53 553c 8c47 16bd
00000090: 6454 13bd 7163 48bd 040b fabc fe8a 0fbd
000000a0: 01d6 3f3d 2cdb 17bd 9ed5 2fbd aba1 473c
000000b0: 0f1e 22bd 9da7 8ebd e471 41bd e8d5 443c
000000c0: d7c6 57bd 4096 f1ba e9e3 ddbc 56d5 e9bc
000000d0: 5231 9abc 61c5 133b ed67 39bc fd9d c5bc
000000e0: 5ca5 87bd f01d 1abd 9fdc e0ba f425 1c3b
000000f0: 14fa 48bd 125f 91bd 80ec 70bd 6773 85bc
00000100: 5bb2 09bd 2f4c babb b01f 05bd b4c9 b9bd
00000110: 5bd5 9fbd 16d8 3cbd 6164 6fbb 5b7a 66bb
00000120: 110c 2abd d053 acbb 016f f8bc 9d43 3ebc
00000130: 2c3a 633d 1de8 893d 4602 5aba d3b7 87bb
00000140: 7381 36bd ade3 58bc 2504 86bc 7656 12bd
00000150: 8328 05bd 9993 05bb 2629 afbc 8354 823d
00000160: 0ad0 3a3c 4c85 2abd 8162 83bc 63b1 dabc
00000170: 4c19 31bd afca 9cbd 5515 69bc ef09 8d3c
00000180: d7e3 a43c ef7c 63bc da43 84bd 477f 0cbd
00000190: 21aa 783c 91a6 bbbc 4e6e 1d3d c0c8 83bc
000001a0: 2c14 f13c 55b7 21bd 2efb e8bc 265d b33c
000001b0: abae 42bd c88f 87bd 60a6 853c bc16 41bd
000001c0: 9566 34bd c977 82bd d4f0 33bd a3d3 8dbd
000001d0: ce47 89bd 285c 62bc 8f95 b73c 8ece 83bd
000001e0: 0b6c 71bc 1cee 80bc cb13 84bd f404 343c
000001f0: b05f 72bd 6bae 8ebd 668c 9ebd 7eb7 a43b

action_model._continuous_distribution.mu.weight f4 [1, 128]
-0.06407765 -0.06389844 0.049961798 -0.022526776 0.0112403715 -0.1097328 -0.013684625 -0.033658773
-0.091240235 -0.024341455 -0.027801195 -0.026272679 0.035182495 -0.0312538 0.0411221 -0.038547732
0.015516423 -0.012672576 0.033815846 -0.033789303 -0.0020744787 -0.056591235 -0.03635345 -0.023770142
-0.059528526 0.039209638 0.020133767 0.02800712 0.059901513 -0.03244569 -0.030897563 -0.031077543
0.05622463 0.051268026 0.028998904 0.0010860682 -0.01754831 -0.046653483 -0.0330952 -0.012681254
0.009339659 -0.041760027 -0.005523298 -0.0024535784 -0.034935545 0.019057933 -0.025106147 -0.02308938
0.0007280593 0.0107569145 0.0073269526 0.011150702 -0.023790868 -0.03858422 -0.06625804 0.0041355724
-0.028825782 -0.034996945 0.033642385 -0.022526896 -0.016788164 0.00014051047 -0.04245322 -0.011208929
-0.015322638 0.015231857 -0.03639374 0.01371357 -0.015478322 0.011631669 0.05179271 0.018291522
-0.0349584 0.007955585 -0.06725119 -0.013378201 0.07563576 0.034480818 -0.009114266 -0.006936271
-0.023098238 -0.020303883 -0.012156963 -0.012861059 0.0019921653 -0.018803287 -0.063310444 0.026200505
0.0016325061 -0.017227542 0.005042095 0.023266446 -0.019477246 -0.016034402 -0.015785776 0.018608179
0.036012523 0.02307902 -0.062938645 -0.030265478 -0.019845873 -0.025845736 0.023060942 -0.021048449
0.038691744 -0.025301466 -0.04475209 -0.014956088 -0.022150392 -0.05168343 -0.011097284 -0.014467613
-0.046777397 -0.016104946 -0.018073946 0.0017156375 -0.03450102 -0.034842085 -0.001399446 -0.060698494
0.02548262 -0.022173014 -0.03039032 0.048768785 -0.05650405 -0.029448189 -0.014810558 -0.05358675
00000000: 253b 83bd 2fdd 82bd bea4 4c3d 138a b8bc
00000010: 8929 383c 97bb e0bd 7a35 60bc c8dd 09bd
00000020: 29dc babd bb67 c7bc 55bf e3bc cd39 d7bc
00000030: 851b 103d fc03 00bd a66f 283d 3ae4 1dbd
00000040: 9838 7e3c a3a0 4fbc 7c82 0a3d a766 0abd
00000050: faf3 07bb 36cc 67bd 5be7 14bd 9ab9 c2bc
00000060: 2fd4 73bd 499a 203d 92ef a43c 306f e53c
00000070: 4a5b 753d c6e5 04bd e31c fdbc 5596 febc
00000080: cc4b 663d 6cfe 513d 1c8f ed3c 675a 8e3a
00000090: 79c1 8fbc b917 3fbd d58e 07bd 09c5 4fbc
000000a0: 5e05 193c 900c 2bbd c8fc b4bb 37cc 20bb
000000b0: 9318 0fbd 621f 9c3c 68ab cdbc f025 bdbc
000000c0: 3cdb 3e3a c53d 303c ef16 f03b 6fb1 363c
000000d0: 11e5 c2bc 7d0a 1ebd 4cb2 87bd b283 873b
000000e0: 0c24 ecbc f558 0fbd 99cc 093d 538a b8bc
000000f0: 5587 89bc fe55 1339 6de3 2dbd a8a5 37bc
00000100: cd0b 7bbc 0a8f 793c 9a11 15bd e2ae 603c
00000110: ca98 7dbc c192 3e3c 9824 543d 1ad8 953c
00000120: 8a30 0fbd 2458 023c feba 89bd 3e30 5bbc
00000130: ece6 9a3d c23b 0d3d 0154 15bc a949 e3bb
00000140: 8438 bdbc 5454 a6bc 002e 47bc 31b7 52bc
00000150: fd8e 023b 5a09 9abc e8a8 81bd 71a2 d63c
00000160: d1f9 d53a c620 8dbc 2938 a53b 4699 be3c
00000170: bf8e 9fbc 945a 83bc 2c51 81bc 2e70 983c
00000180: de81 133d 3710 bd3c fae5 80bd 4fef f7bc
00000190: d093 a2bc 70ba d3bc 4dea bc3c cc6d acbc
000001a0: 3c7b 1e3d 0545 cfbc f84d 37bd 610a 75bc
000001b0: bd74 b5bc 01b2 53bd 62d1 35bc 9109 6dbc
000001c0: a899 3fbd 85ee 83bc d00f 94bc 3edf e03a
000001d0: f150 0dbd 93b6 0ebd 9e6d b7ba fc9e 78bd
000001e0: edc0 d03c 2ea4 b5bc 1ff5 f8bc c7c1 473d
000001f0: ca70 67bd 543d f1bc fca7 72bc c87d 5bbd

exp_avg f4 [128, 5]
0.0033218584 0.0122861415 0.0013564981 -0.06549967 -0.014549952 0.0018255307 -0.0002823381 0.00056804187
-0.023738721 0.0010298691 -0.0020395843 0.0074334852 0.00030922037 0.005445634 -0.004710281 0.0025684885
0.007956421 0.0015664839 -0.049059603 -0.006871726 -0.00011707469 -0.004820451 0.000279399 0.0029647353
0.007201919 0.0012291597 0.0014032361 -0.0020624294 -0.04597931 -0.005429207 -1.2484831e-05 -0.0080288695
0.007208533 0.034766126 0.007385223 0.001586661 0.0068656025 2.1279397e-05 -0.026571456 -0.0068943016
-0.00021452531 3.6345107e-05 -0.00077073905 0.0022850782 -0.00042465108 -0.00063808373 0.0032486226 -1.6422964e-05
-0.005108346 -0.0027094325 0.00096768915 0.0016753463 -0.0005841781 -0.005309749 -0.00805293 -0.0011966411
-0.002272067 -0.0014790554 0.010098031 0.0020367205 -0.00018656367 -0.004232378 0.0006197187 -0.001357125
0.001691402 0.0015267408 0.00493175 0.00044395868 -0.016293578 -0.0075423853 -0.00019746616 0.0043633017
-0.00086564495 -0.0050158934 -0.0010747104 9.747158e-05 0.00070579373 -0.00043240038 -0.0055536036 -0.0008326173
-0.00012553201 -0.0012857498 -0.0004856605 0.0077865263 -0.00019475425 -0.0013216833 -0.004327476 0.007848288
0.037585348 0.008690833 -0.0031863577 0.0071438397 -0.00027940245 0.01005212 -0.00047946814 0.0014772291
0.005226147 -0.0054308632 -0.038741913 -0.0077426285 0.0018211439 -0.007860437 0.0015470852 0.0010038192
0.0021510925 -0.0036931243 -0.010299725 -0.0013422059 0.082049884 0.007482616 -0.0010561567 -0.0040100142
3.176018e-05 0.013849486 0.00443384 -0.00080684765 -0.00052068796 -0.0004806835 0.016364375 0.0010215578
-0.0015826686 0.0077842977 -0.006338156 -0.02691106 -0.005290574 2.2934713e-05 -0.0013904675 0.0017461616
0.0063786674 0.0025904104 0.0020729702 -0.0108299 0.007886309 0.029416837 0.0074516786 0.0017117934
-0.008559327 0.0056614336 0.023985634 0.0055588377 -0.00035412636 -0.010415969 0.0074867546 0.03744733
0.010906841 0.00019955776 0.00024022454 -0.00042822165 -0.0024379476 0.0022556065 0.0013553229 -0.0018118386
0.00018596202 -0.011655952 0.0053015924 2.9032403e-06 -0.003825557 -0.00026537685 0.01857426 0.0038797595
-0.0041819545 0.0348539 -0.0152197415 -0.09926812 -0.035165478 0.0010340321 0.0017415689 0.00025953253
-0.0063773254 -0.0025256851 0.0010948865 -0.0036908966 -0.001119757 0.017433345 0.0054871733 -0.00049471745
-0.022154182 0.0045545334 0.034697067 0.00954546 -0.00026850138 -0.0020235155 0.0006474342 0.011071952
0.00062326255 0.0023792689 -0.013229498 0.0045903237 0.0129980715 0.005099552 0.0009977912 -0.0018470655
0.00047128389 -0.0039201644 0.0041081826 -0.002120533 0.0021932588 -0.0029549191 -0.010601509 -0.0020554
-2.925535e-05 -0.006910669 0.007341767 0.03244795 0.0073232045 0.0001062735 -0.0035951256 0.004208647
0.029089713 0.004516641 0.0023953966 -0.00027243685 0.000483957 -0.027162574 -5.736028e-05 -0.0005386756
0.0023388541 -0.00013496634 0.012756663 -0.001673619 0.0008264822 -0.0078340685 0.004129487 0.011761491
0.007897726 0.0023295572 0.011063653 -0.0057881842 -0.043736365 -0.008069939 -0.0003253787 0.0073425933
6.1848834e-05 -0.020910837 -0.000106878855 0.0027976357 -0.0040407935 -0.00075700524 -0.012519916 -0.00042387703
0.00019113332 -0.0018021768 -0.0008571934 0.005854661 -0.0014408719 -0.00021486246 -0.0012197795 0.00067841035
-0.0043618986 0.0028500685 -0.0028099183 0.00062027713 -0.0009588475 0.011369845 -0.00058833184 0.0012462176
00000000: 89b3 593b d04b 493c 86cc b13a b124 86bd
00000010: ec62 6ebc a546 ef3a c706 94b9 a5e8 143a
00000020: b577 c2bc acfc 863a 8caa 05bb 9894 f33b
00000030: db1e a239 4a71 b23b b358 9abb 1654 283b
00000040: a65b 023c 7a52 cd3a b9f2 48bd 372c e1bb
00000050: ff85 f5b8 e0f4 9dbb 4d7c 9239 014c 423b
00000060: 13fe eb3b c11b a13a caec b73a d329 07bb
00000070: cd54 3cbd 7de7 b1bb f175 51b7 858b 03bc
00000080: 8f35 ec3b ed66 0e3d beff f13b 82f7 cf3a
00000090: d9f8 e03b 2881 b237 62ac d9bc 98e9 e1bb
000000a0: 33f2 60b9 4371 1838 6c0b 4aba 40c1 153b
000000b0: b4a3 deb9 1345 27ba d8e6 543b 0cc4 89b7
000000c0: ea63 a7bb bc90 31bb 85ac 7d3a 4b97 db3a
000000d0: 8723 19ba 67fd adbb 70f0 03bc 9dd8 9cba
000000e0: f5e6 14bb dddc c1ba 3672 253c 807a 053b
000000f0: 4ea0 43b9 c3af 8abb 9e74 223a 8fe1 b1ba
00000100: 09b2 dd3a ec1c c83a 849a a13b 20c3 e839
00000110: 1c7a 85bc 1d26 f7bb eb0e 4fb9 07fa 8e3b
00000120: 73ec 62ba 5d5c a4bb 4cdd 8cba a869 cc38
00000130: 0405 393a ccb3 e2b9 01fb b5bb 0044 5aba
00000140: 3ea1 03b9 9b86 a8ba 40a0 feb9 1e26 ff3b
00000150: f236 4cb9 553c adba 80cd 8dbb 1b96 003c
00000160: 18f3 193d ff63 0e3c 36d2 50bb df16 ea3b
00000170: c37c 92b9 a6b1 243c 2061 fbb9 959f c13a
00000180: 1940 ab3b 62f5 b1bb d7af 1ebd e0b5 fdbb
00000190: 73b3 ee3a 10c9 00bc 91c7 ca3a 9592 833a
000001a0: 58f9 0c3b 5808 72bb 2ec0 28bc f5ec afba
000001b0: c509 a83d bc30 f53b bd6e 8aba 7066 83bb
000001c0: 3c36 0538 f4e8 623c bf49 913b a182 53ba
000001d0: c77e 08ba 3f04 fcb9 950e 863c cbe5 853a
000001e0: 8c71 cfba 6c13 ff3b 4eb0 cfbb 9574 dcbc
000001f0: 8d5c adbb ec63 c037 5940 b6ba 76df e43a
00000200: 2404 d13b e0c3 293b abda 073b e56f 31bc
00000210: 9435 013c 94fb f03c 362d f43b 415e e03a
00000220: 6b3c 0cbc 8c83 b93b 857d c43c e926 b63b
00000230: 09aa b9b9 bea7 2abc 7353 f53b 5f62 193d
00000240: 9bb2 323c 6140 5139 c9e4 7b39 f082 e0b9
00000250: f9c5 1fbb ccd2 133b 17a5 b13a 377b edba
00000260: cdfe 4239 9bf8 3ebc fbb8 ad3b 4ad5 4236
00000270: 32b6 7abb 4722 8bb9 0c29 983c 9043 7e3b
00000280: c708 89bb f7c2 0e3d 395c 79bc 164d cbbd
00000290: ad09 10bd 5c88 873a 5b45 e43a de11 8839
000002a0: e2f8 d0bb f785 25bb 4b82 8f3a f8e2 71bb
000002b0: cfc4 92ba 60d0 8e3c bfcd b33b edaf 01ba
000002c0: b07c b5bc 323e 953b 831e 0e3d 9064 1c3c
000002d0: a5c5 8cb9 f59c 04bb 93b8 293a 2267 353c
000002e0: 7162 233a 82ed 1b3b 89c0 58bc 6d6a 963b
000002f0: ddf5 543c 251a a73b 51c8 823a 3c19 f2ba
00000300: a716 f739 b974 80bb ef9d 863b a4f8 0abb
00000310: c7bc 0f3b 51a7 41bb f4b1 2dbc e4b3 06bb
00000320: 6369 f5b7 e572 e2bb 3593 f03b 24e8 043d
00000330: 7ef7 ef3b 27df de38 339c 6bbb b1e8 893b
00000340: 8d4d ee3c 5500 943b 16fc 1c3b dbd5 8eb9
00000350: 9cbb fd39 0c84 debc 2296 70b8 e835 0dba
00000360: 7647 193b c085 0db9 5301 513c 565d dbba
00000370: 48a8 583a 775a 00bc a650 873b 45b3 403c
00000380: 7765 013c 7cab 183b 5344 353c cfaa bdbb
00000390: e724 33bd c737 04bc 9797 aab9 239a f03b
000003a0: d7b4 8138 344d abbc 2624 e0b8 8a58 373b
000003b0: a268 84bb c371 46ba 5520 4dbc d03b deb9
000003c0: f66a 4839 0537 ecba 46b5 60ba 75d8 bf3b
000003d0: a3db bcba b44c 61b9 02e1 9fba 59d7 313a
000003e0: 42ee 8ebb 37c8 3a3b 9b26 38bb 189a 223a
000003f0: 2b5b 7bba 9648 3a3c 483a 1aba 2058 a33a

exp_avg_sq f4 [128, 5]
0.00059707515 0.006947666 0.0019942676 0.027158882 0.0061330255 2.2581862e-05 0.00024534887 8.398137e-05
0.00075385196 0.00011774688 0.00013238225 0.0015401309 0.0005410406 0.005340514 0.0013048291 0.00026761435
0.003828274 0.0011869842 0.011333889 0.0033564165 7.194311e-05 0.0012673689 0.0002825988 0.004302892
0.00087887235 0.00011733846 0.0014191349 0.00047853563 0.0058604083 0.00127256 8.911336e-05 0.00079585455
0.00016387537 0.0045231986 0.00036605855 0.0001252424 0.0011686342 0.00035228633 0.0064602736 0.0013044121
1.944738e-05 0.00024207385 8.8703775e-05 0.0005785195 0.00020288806 1.4570247e-05 0.00011486129 5.047357e-05
0.00029226855 0.00013968306 0.00018947259 0.004036658 0.0009628368 0.007995502 0.0024160098 2.1976315e-05
0.00017251361 5.4808184e-05 0.0008977958 0.0001301617 3.5365192e-05 0.000508596 0.00020317888 0.00087178504
0.00025934295 0.0001723146 0.0015674091 0.00048528914 0.0036951911 0.0019309047 1.1767681e-05 6.639594e-05
3.088289e-05 0.00024912998 5.745022e-05 1.8433828e-05 0.00049098715 0.000117428935 0.0019266121 0.00034739866
1.3128606e-05 0.0003004559 6.3991894e-05 0.00042075574 0.00025163934 0.00011555999 0.00088223675 0.00022245142
0.0048109004 0.0005427091 7.687478e-05 0.00056383485 0.00022247476 0.0019225883 0.0003844079 6.274747e-05
0.00045817613 0.00018790901 0.0020620092 0.00030667384 6.470409e-05 0.0007303409 0.00017389652 0.0024693436
0.0005373671 0.00021804044 0.00425057 0.0011067915 0.028734425 0.0046891156 5.0989842e-05 0.000690453
0.00018776688 0.0032441563 0.0007340193 2.5511703e-05 0.00055740535 0.0001477136 0.0018003536 0.0004851672
0.00010033624 0.0010596794 0.0004162241 0.005493122 0.0006313182 3.294959e-05 0.00047165906 0.00021811646
0.0019751487 0.00035306156 0.00016533927 0.0012767452 0.00030859822 0.007341654 0.00071854156 0.00011479755
0.0020804412 0.0005919156 0.006194242 0.0012669227 0.00024392776 0.0022844535 0.0006595389 0.01031457
0.0015841003 6.3554144e-05 0.0010298674 0.00022301638 0.005617168 0.0006942622 1.582863e-05 0.00014417815
5.556245e-05 0.0012724316 0.000200156 0.000112006695 0.0017575051 0.00065534195 0.0042107357 0.002152118
0.0028915363 0.027152205 0.008910957 0.0842545 0.024321225 3.9140912e-05 0.0008885134 0.0002766929
0.0022762532 0.00083278783 0.00019885038 0.0022949947 0.0008790629 0.0075048674 0.0023676248 0.00027710226
0.0024543195 0.00071886263 0.008960584 0.0020594723 1.5308578e-05 0.00021125357 4.4633205e-05 0.000532662
5.1920306e-05 5.7244957e-05 0.0005354079 0.00013815261 0.0040936414 0.0003232282 3.5980476e-05 0.0006511261
0.00019008302 0.0013555182 0.0003383087 0.00011788654 0.0011282904 0.00034585487 0.0039412784 0.0006715657
0.00013651654 0.0011756232 0.000354997 0.0062221624 0.0007449716 0.00016743901 0.0011758788 0.00037215865
0.003345355 0.000809467 0.00013536656 0.0012156715 0.00039419485 0.005970016 0.0012994547 1.5208992e-05
0.00029966823 9.880287e-05 0.0004629815 0.00023433763 0.00012845766 0.0008913057 0.00034884986 0.0042346213
0.0010164223 9.2524264e-05 0.001538907 0.00041554347 0.005803417 0.0011411484 0.0002841133 0.0026555827
0.00078261184 0.0120777115 0.002313319 2.6437885e-05 0.00012987453 6.407146e-05 0.00036959452 0.00016590719
2.6955568e-05 0.00025566565 9.130108e-05 0.0005058084 0.0001515111 5.629441e-05 0.00092943676 0.000267384
0.0011305014 0.0006569409 5.671544e-05 0.00054185424 0.0001472044 0.0020695091 0.00026075167 0.00023765837
00000000: 0985 1c3a 3fa9 e33b 42b2 023b 4e7c de3c
00000010: 8cf7 c83b 2e6e bd37 2ba2 8039 281f b038
00000020: 269e 453a e0ee f638 17d0 0a39 38de c93a
00000030: 9fd4 0d3a 7aff ae3b cd06 ab3a 974e 8c39
00000040: c8e3 7a3b 9594 9b3a c7b1 393c 53f7 5b3b
00000050: 2ae0 9638 d81d a63a c529 9439 46ff 8c3b
00000060: 2064 663a 9b13 f638 4402 ba3a f7e3 fa39
00000070: ab08 c03b 07cc a63a 5fe2 ba38 e5a0 503a
00000080: f6d5 2b39 5737 943b 8ceb bf39 8053 0339
00000090: db2c 993a 12b3 b839 b4b0 d33b cff8 aa3a
000000a0: ee22 a337 34d5 7d39 7a06 ba38 c9a7 173a
000000b0: 59be 5439 bc72 7437 afe1 f038 95b3 5338
000000c0: 9f3b 9939 e377 1239 29ad 4639 f145 843b
000000d0: e266 7c3a 91ff 023c eb55 1e3b c759 b837
000000e0: c5e4 3439 d7e1 6538 0e5a 6b3a 047c 0839
000000f0: 1655 1438 4d53 053a 6a0c 5539 8188 643a
00000100: 6cf8 8739 59af 3439 8671 cd3a 686e fe39
00000110: 052b 723b 6916 fd3a ce6d 4537 0d3e 8b38
00000120: 4088 0138 a99d 8239 b4f6 7038 58a2 9a37
00000130: 97b5 003a 2e44 f638 6086 fc3a 0f23 b639
00000140: ef42 5c37 8286 9d39 6333 8638 e198 dc39
00000150: 76ee 8339 cc58 f238 e845 673a d941 6939
00000160: c2a4 9d3b 9744 0e3a d537 a138 51ce 133a
00000170: 1d48 6939 5cff fb3a 5b8a c939 4b97 8338
00000180: 5c37 f039 7109 4539 c622 073b 11c9 a039
00000190: beb1 8738 5974 3f3a fe57 3639 b6d4 213b
000001a0: 18de 0c3a c9a1 6439 5e48 8b3b c311 913a
000001b0: 7564 eb3c 27a7 993b eddd 5538 84ff 343a
000001c0: 4ae3 4439 e99b 543b 346b 403a f701 d637
000001d0: d71e 123a 91e3 1a39 d8f9 eb3a 0a5e fe39
000001e0: 9c6b d238 f1e4 8a3a a738 da39 a6ff b33b
000001f0: 0c7f 253a 5a33 0a38 0249 f739 31b6 6439
00000200: 7f71 013b 1f1b b939 ec5e 2d39 7658 a73a
00000210: 5acb a139 4292 f03b 825c 3c3a 77bf f038
00000220: 0358 083b c92a 1b3a 11f9 ca3b df0e a63a
00000230: dcc6 7f39 c5b6 153b e8e4 2c3a 71fe 283c
00000240: 96a1 cf3a 5f48 8538 9efc 863a 81d9 6939
00000250: 3810 b83b 26ff 353a b9c7 8437 872e 1739
00000260: ba0b 6938 b8c7 a63a f8e0 5139 23e5 ea38
00000270: 165c e63a 41cb 2b3a 36fa 893b 8c0a 0d3b
00000280: ee7f 3d3b 4d6e de3c 43ff 113c a08d ac3d
00000290: 4e3d c73c 3c2b 2438 20eb 683a 1811 9139
000002a0: 312d 153b 724f 5a3a 7e82 5039 9f67 163b
000002b0: ea70 663a 64eb f53b 272a 1b3b 0948 9139
000002c0: a6d8 203b 0e72 3c3a 6acf 123c 36f8 063b
000002d0: ec6a 8037 f383 5d39 8a34 3b38 57a2 0b3a
000002e0: 01c5 5938 4e1a 7038 9e5a 0c3a 0fdd 1039
000002f0: f423 863b f476 a939 bee9 1638 55b0 2a3a
00000300: 0651 4739 a5ab b13a 065f b139 db39 f738
00000310: 25e3 933a db53 b539 d725 813b 030c 303a
00000320: e125 0f39 5e17 9a3a e41e ba39 48e3 cb3b
00000330: 334a 433a 9192 2f39 f21f 9a3a 4a1e c339
00000340: be3d 5b3b 6932 543a 2ff1 0d39 2b57 9f3a
00000350: f0ab ce39 20a0 c33b 7752 aa3a 202a 7f37
00000360: ca1c 9d39 6334 cf38 53bc f239 87b8 7539
00000370: 97b2 0639 83a6 693a d6e5 b639 94c2 8a3b
00000380: 7939 853a 9609 c238 26b5 c93a 4ddd d939
00000390: 972a be3b 9692 953a 0bf5 9439 4909 2e3b
000003a0: 3128 4d3a 98e1 453c 0d9b 173b edc6 dd37
000003b0: ee2e 0839 1a5e 8638 23c6 c139 5ff7 2d39
000003c0: a41e e237 dd0a 8639 e578 bf38 3a98 043a
000003d0: f4de 1e39 aa1d 6c38 72a5 733a ac2f 8c39
000003e0: 552d 943a 8f36 2c3a bde1 6d38 390b 0e3a
000003f0: e15a 1a39 9aa0 073b 7fb5 8839 ef33 7939

exp_avg f4 [128]
-0.0035274383 -0.0010228335 -0.002129597 -0.0023527464 0.00035246587 -0.002081054 -0.00052694045 -0.0011621064
1.6927632e-05 -0.0004756636 -0.00087999646 -0.00063929457 0.0003504693 -0.00048528053 1.4500862e-05 0.0003498839
0.00040347772 -0.0009465555 -0.0011379465 0.0010062176 0.0006495241 0.0047082882 0.00079903315 0.0009400414
5.7876132e-05 0.00024164008 5.045088e-05 0.00021684014 -0.00087786483 0.0010946087 -0.000535182 0.0011868745
-0.0008464442 -0.00016659283 0.00048219183 -0.0010362604 -0.00030022534 0.0005696331 3.1268395e-05 -0.00039576064
-0.0003654104 -0.0002578182 -0.0013359254 0.000817769 -0.0006727496 0.0009684304 -0.002821248 0.0008261832
0.00017626723 -0.0002823566 -0.0008748482 -0.00068302744 -4.9384165e-05 -0.0022181068 -5.2691037e-05 -0.001763066
-0.00020958122 -0.00097124133 0.00029553118 0.0005391964 0.00067554804 0.00083120074 0.0011838771 0.0013423099
-0.00055101677 -0.000124332 0.0017272691 -0.0014884938 -0.0078904675 -0.0016295261 0.000752195 -0.00031148063
-0.0010904833 -0.0017793649 -6.8745125e-05 0.0011723471 0.00067807134 0.0003735612 -0.00028399125 5.4027198e-05
-0.0010548844 -6.4485444e-05 -3.916019e-05 0.0011819158 0.0014378516 -0.0009851363 0.0002605681 0.00026198375
0.0011096012 -0.0012107396 0.0009740885 -0.00020896239 0.00077061035 0.000301206 -5.456757e-05 -0.000104302555
-0.00056385214 -0.00015516591 0.0011176873 0.0005409888 -0.00034477963 -0.00025661103 -0.0011936459 -0.0006405324
-6.336637e-05 0.0014654512 -0.0003093156 -0.0015331337 0.0019762032 0.0018085948 0.00019016725 0.0008765354
0.0008480214 0.00016181568 -3.5137247e-05 0.00046800514 -0.0025213298 -0.0001412942 -0.00056370534 0.0002918262
0.00051669206 0.00033242814 0.0018104749 -0.0020861947 0.00078640954 0.00041108584 -0.0012376031 0.0028599792
00000000: 982c 67bb 9910 86ba b590 0bbb 8930 1abb
00000010: 2bcb b839 4b62 08bb 6022 0aba d251 98ba
00000020: d0ff 8d37 7d62 f9b9 90af 66ba 5596 27ba
00000030: 31bf b739 406d feb9 ba48 7337 9f70 b739
00000040: dd89 d339 4422 78ba 2627 95ba 0fe3 833a
00000050: d344 2a3a fc47 9a3b 3576 513a 1c6d 763a
00000060: 06c0 7238 c460 7d39 389b 5338 955f 6339
00000070: 8320 66ba f978 8f3a 754b 0cba e690 9b3a
00000080: e9e3 5dba 6caf 2eb9 b1ce fc39 21d3 87ba
00000090: 9067 9db9 6e53 153a 2f26 0338 187e cfb9
000000a0: 8e94 bfb9 c62b 87b9 381a afba 8c5f 563a
000000b0: 765b 30ba 44de 7d3a b0e4 38bb 3794 583a
000000c0: 60d4 3839 4309 94b9 1256 65ba 320d 33ba
000000d0: d821 4fb8 a85d 11bb 9200 5db8 ae16 e7ba
000000e0: 08c3 5bb9 e79a 7eba 86f1 9a39 dc58 0d3a
000000f0: 4317 313a f0e4 593a 532c 9b3a 72f0 af3a
00000100: 1c72 10ba 1e5f 02b9 8965 e23a 9019 c3ba
00000110: 0547 01bc d395 d5ba f42e 453a 394e a3b9
00000120: 8cee 8eba 9439 e9ba 422b 90b8 71a9 993a
00000130: 99c0 313a 89da c339 a9e4 94b9 439b 6238
00000140: 0c44 8aba 5c3c 87b8 ef3f 24b8 83ea 9a3a
00000150: 4b76 bc3a b01f 81ba dc9c 8839 dd5a 8939
00000160: 0a70 913a aeb1 9eba f959 7f3a ea1c 5bb9
00000170: c902 4a3a 2feb 9d39 7bdf 64b8 02bd dab8
00000180: 7acf 13ba 08b4 22b9 5d7f 923a 25d1 0d3a
00000190: 8ac3 b4b9 c089 86b9 1c74 9cba 67e9 27ba
000001a0: 90e3 84b8 6214 c03a a32b a2b9 6ef3 c8ba
000001b0: 3083 013b 5f0e ed3a a267 4739 4cc7 653a
000001c0: c14d 5e3a 11ad 2939 5560 13b8 965e f539
000001d0: e53c 25bb 5f28 14b9 a0c5 13ba 4000 9939
000001e0: 9e72 073a c049 ae39 754d ed3a 8ab8 08bb
000001f0: 0d27 4e3a 0287 d739 1237 a2ba 7d6e 3b3b

exp_avg_sq f4 [128]
0.00028921643 1.3746587e-05 7.2059185e-05 0.0001729257 5.515559e-05 6.5338274e-05 3.7125636e-05 5.5970595e-05
1.2584488e-05 6.421047e-06 0.00013241683 8.314016e-06 2.4591756e-05 7.345511e-05 5.605342e-06 1.7019604e-05
9.218326e-06 4.613173e-05 2.4638799e-05 2.1566822e-05 3.2142885e-05 0.00021503461 3.4195116e-05 2.0019324e-05
4.9856437e-05 2.9557796e-05 5.7249465e-05 6.9861824e-05 0.00010300472 4.6421414e-05 1.059091e-05 8.0795435e-05
0.0012131953 2.9228548e-05 0.00010019485 0.000102133825 7.065338e-06 2.7344282e-05 2.5940446e-05 4.444358e-05
5.1755935e-05 5.947839e-05 6.157448e-05 1.1177622e-05 4.659772e-05 6.791676e-05 0.00011429015 8.469289e-06
1.0287727e-05 3.440529e-05 1.9493007e-05 8.971133e-05 2.0299258e-05 0.0006746063 3.0548614e-05 7.74845e-05
1.4073903e-05 6.165486e-05 1.6264903e-05 7.003808e-06 7.702038e-05 7.153554e-06 2.3931992e-05 0.00011415918
0.00014185629 3.1729174e-05 3.872928e-05 2.7148737e-05 0.0006124057 4.013967e-05 2.4056768e-05 8.647527e-06
3.6893347e-05 6.593916e-05 0.000331701 9.4704745e-05 1.4275458e-05 4.509797e-05 5.7593836e-05 1.0082963e-05
2.8279992e-05 6.824736e-05 5.8263806e-05 2.2455855e-05 0.00021674208 1.3588579e-05 8.8763745e-06 7.1593866e-05
1.8035369e-05 1.3194894e-05 1.4333898e-05 2.3555784e-05 4.8243135e-05 3.2196516e-05 3.40883e-05 2.5022371e-05
1.6257962e-05 1.0006928e-05 2.268007e-05 2.353585e-05 2.0588612e-05 1.2300631e-05 3.2501775e-05 1.56929e-05
1.04430155e-05 1.4067847e-05 1.7842414e-05 2.6004e-05 7.235924e-05 5.1071456e-05 3.0100207e-05 1.8363515e-05
5.3209882e-05 1.1883701e-05 1.5407577e-05 5.100631e-05 0.00020211439 1.9161744e-05 4.3641507e-05 2.7649425e-05
9.628416e-06 9.0707335e-06 3.6583147e-05 3.289801e-05 3.4388734e-06 4.4628607e-05 3.4792523e-05 0.00026798187
00000000: f9a1 9739 24a1 6637 7b1e 9738 6453 3539
00000010: dd56 6738 3806 8938 59b7 1b38 f8c1 6a38
00000020: f721 5337 6074 d736 5fd9 0a39 6d7c 0b37
00000030: 654a ce37 e90b 9a38 8515 bc36 52c5 8e37
00000040: 69a8 1a37 917d 4138 6baf ce37 66ea b437
00000050: 29d1 0638 ea7a 6139 ba6c 0f38 2cef a737
00000060: f11c 5138 e2f2 f737 251f 7038 c882 9238
00000070: 3d04 d838 9db4 4238 9daf 3137 b870 a938
00000080: 1404 9f3a d42f f537 b31f d238 ae30 d638
00000090: cb12 ed36 6661 e537 af9a d937 ee68 3a38
000000a0: 8314 5938 6f78 7938 8c21 8138 8587 3b37
000000b0: ec71 4338 886e 8e38 0faf ef38 5217 0e37
000000c0: 7399 2c37 664e 1038 ea84 a337 6723 bc38
000000d0: 5348 aa37 10d8 303a 5321 0038 2d7f a238
000000e0: f41e 6c37 b34c 8138 9d70 8837 4102 eb36
000000f0: 0086 a138 9008 f036 90c1 c837 be68 ef38
00000100: 42bf 1439 f114 0538 3f71 2238 78bd e337
00000110: da89 203a a45b 2838 84cd c937 d814 1137
00000120: eebd 1a38 d148 8a38 28e8 ad39 399c c638
00000130: a080 6f37 9427 3d38 e990 7138 ff29 2937
00000140: d23a ed37 0620 8f38 4960 7438 955f bc37
00000150: 4245 6339 81fa 6337 bdeb 1437 aa24 9638
00000160: a94a 9737 a35f 5d37 a07b 7037 a999 c537
00000170: ac58 4a38 bf0a 0738 09fa 0e38 22e7 d137
00000180: b561 8837 6ee3 2737 1441 be37 da6e c537
00000190: b5b5 ac37 cf5e 4e37 8452 0838 3fa4 8337
000001a0: 6934 2f37 f104 6c37 4bac 9537 2a23 da37
000001b0: 92bf 9738 8f35 5638 b47f fc37 590b 9a37
000001c0: ad2d 5f38 1b60 4737 853f 8137 9cef 5538
000001d0: abee 5339 88bd a037 b60b 3738 b0f0 e737
000001e0: bb89 2137 812e 1837 db70 1938 f8fb 0938
000001f0: 65c7 6636 9a2f 3b38 30ee 1138 eb7f 8c39

exp_avg f4 [128, 128]
1.5906337e-05 -1.1204072e-05 2.1926223e-06 2.8496179e-05 1.5709473e-05 -1.0898228e-07 8.415596e-05 1.2943296e-05
8.940837e-06 2.2326592e-06 1.6040613e-05 4.126163e-06 7.688533e-06 1.9208868e-05 7.205842e-05 3.0668914e-05
3.480771e-05 5.5908615e-05 1.2492306e-05 1.031884e-05 4.0798954e-05 8.294671e-06 3.0498644e-05 2.5672141e-05
3.4899356e-05 9.2561295e-06 4.7444246e-05 3.2436106e-05 5.5749406e-05 2.342557e-05 8.80072e-06 3.5902012e-05
2.8207625e-05 2.7120775e-05 -3.0344581e-06 1.4440789e-05 5.724408e-05 3.4206285e-05 2.5570442e-05 8.8131404e-05
7.1728755e-05 -8.749365e-06 1.6824431e-05 4.1565538e-05 4.180743e-06 1.1537913e-05 -5.378002e-06 -8.576943e-06
8.930066e-06 1.4030057e-05 4.243271e-06 1.204016e-05 2.4569676e-05 1.7135086e-05 1.5005901e-05 1.5284246e-05
-1.07085945e-07 3.4697157e-05 6.1803294e-05 5.1096624e-05 5.9851078e-05 6.786392e-05 -1.7672472e-06 -1.7258284e-06
3.5884008e-05 2.0964984e-05 1.3340782e-05 2.8905926e-05 2.9403307e-06 -5.341185e-06 1.0789039e-05 3.757096e-05
2.35686e-05 1.142287e-05 2.27824e-05 9.965674e-06 -1.1482737e-05 2.561351e-06 7.483368e-06 9.0785625e-06
1.50926335e-05 2.4693638e-05 4.24093e-05 3.2827732e-06 1.1299579e-06 5.8541173e-06 3.9750055e-05 2.8684368e-05
1.6916334e-05 3.6082365e-05 5.137374e-05 2.953822e-05 1.8179595e-05 2.368339e-05 5.618651e-05 8.416609e-05
7.066516e-06 9.056278e-05 9.9628574e-05 4.9505405e-05 -2.1256428e-06 -3.8069138e-06 -8.323134e-06 7.8745354e-05
5.723843e-05 3.627874e-05 -2.4140743e-06 1.7853625e-06 2.6747415e-05 3.6411966e-05 5.5361485e-05 7.960411e-05
2.9935509e-05 4.3267686e-05 2.5495641e-05 2.524152e-05 1.0326048e-05 -5.67427e-06 1.9977437e-05 1.0717945e-05
5.31246e-05 6.210849e-05 -1.5413509e-06 -6.6603666e-06 7.1510076e-05 -7.766464e-06 5.7710742e-05 2.740299e-06
5.055343e-05 -2.7897788e-06 7.1569407e-06 6.06713e-05 7.2165036e-05 1.8352861e-06 0.0006701059 8.6085645e-05
7.0085584e-06 1.6960661e-05 2.8300181e-05 5.6891007e-05 4.0648654e-05 8.6955304e-05 0.0005839497 7.838507e-05
9.511093e-05 0.00044406648 8.826921e-05 9.454514e-05 0.00034678518 2.6308991e-05 6.5681816e-05 8.649889e-05
0.00030143812 7.374257e-05 0.00036091788 0.00028709232 0.00042488004 0.00010202615 3.292742e-05 0.00015226101
0.000244389 8.072211e-05 4.078904e-05 0.00010748498 0.00045999215 0.0002662116 5.6817764e-05 0.0007348099
0.0005833555 -2.1563146e-05 2.2460905e-05 0.00015421938 2.6615258e-05 8.049241e-05 -1.3198135e-05 -5.4193177e-05
-1.2563496e-06 0.00010389777 2.7337248e-05 0.00010226529 7.1557326e-05 0.00011461464 5.373749e-05 2.1677326e-05
-1.2129962e-05 0.00024449555 0.0005191458 0.0004116416 0.00050466135 0.0005723218 5.454356e-05 1.6623211e-05
0.00028772996 0.00016444518 2.6041262e-05 9.2645605e-05 2.4896515e-05 -3.627478e-06 5.0105748e-05 0.00032645054
0.00020212236 2.2393866e-05 0.00018589378 2.0586658e-05 -1.7495237e-05 2.9816378e-05 6.971736e-05 6.400663e-05
0.00012193675 0.00021634212 9.9380464e-05 3.0185058e-05 1.6142067e-05 1.1181065e-05 0.00032387962 0.00023789343
3.386918e-05 8.58158e-05 0.0003856179 0.00022288132 0.00013953321 0.00019753314 0.00044065362 0.0006768981
3.8925933e-05 0.0007300647 0.0008090329 0.00038327416 2.3232591e-05 4.0140978e-07 -1.8370474e-05 0.0006277304
0.0004796444 8.954622e-05 3.6246507e-05 6.348109e-05 7.217972e-05 0.0003280923 0.0004580145 0.0002536004
6.113282e-05 0.00033355772 7.19108e-05 5.349436e-05 1.8674826e-05 -3.359704e-05 3.9046634e-05 7.0835034e-05
0.00044159574 0.00050530705 -1.3565601e-06 -1.2215479e-05 0.0005809207 -1.3303771e-05 0.00042894427 3.799764e-05
00000000: 996e 8537 1ff9 3bb7 f724 1336 140b ef37
00000010: d6c7 8337 a409 eab3 e37c b038 0827 5937
00000020: 9a00 1637 cbd4 1536 f48e 8637 7873 8a36
00000030: fffd 0037 bb22 a137 121e 9738 7fa2 0038
00000040: 7efe 1138 6b7f 6a38 0c96 5137 151f 2d37
00000050: 8b1f 2b38 5729 0b37 57d7 ff37 815a d737
00000060: e660 1238 c64a 1b37 dffe 4638 010c 0838
00000070: 78d4 6938 0782 c437 cea6 1337 7e95 1638
00000080: 6a9f ec37 6c81 e337 98a3 4bb6 b746 7237
00000090: 5d19 7038 b878 0f38 1b80 d637 30d3 b838
000000a0: 156d 9638 3dca 12b7 3122 8d37 a856 2e38
000000b0: 4f48 8c36 f692 4137 af74 b4b6 b1e5 0fb7
000000c0: 57d2 1537 a362 6b37 6c61 8e36 1800 4a37
000000d0: fa1a ce37 51bd 8f37 dbc1 7b37 ab36 8037
000000e0: 1ff7 e5b3 ca87 1138 649c 8138 9550 5638
000000f0: 9b08 7b38 2a52 8e38 2732 edb5 03a3 e7b5
00000100: 2982 1638 f6dd af37 39d2 5f37 017b f237
00000110: 7f52 4536 6e38 b3b6 9202 3537 8395 1d38
00000120: 2fb5 c537 daa4 3f37 d51c bf37 3e32 2737
00000130: fba5 40b7 ade3 2b36 a419 fb36 2150 1837
00000140: 5e36 7d37 2f25 cf37 a4e0 3138 9d4d 5c36
00000150: 0fa9 9735 7c6e c436 4cb9 2638 369f f037
00000160: 8de7 8d37 2557 1738 227a 5738 d8c8 f737
00000170: 6280 9837 b1ab c637 cea9 6b38 5382 b038
00000180: e91c ed36 86ec bd38 afef d038 06a4 4f38
00000190: 44a6 0eb6 487a 7fb6 97a3 0bb7 1724 a538
000001a0: 4c13 7038 002a 1838 7b01 22b6 97a0 ef35
000001b0: a35f e037 0db9 1838 f133 6838 22f1 a638
000001c0: 041e fb37 537a 3538 79df d537 c0bd d337
000001d0: 0a3e 2d37 9c65 beb6 3895 a737 39d1 3337
000001e0: 1bd2 5e38 3e40 8238 6ae0 ceb5 1d7c dfb6
000001f0: aef7 9538 b54c 02b7 700e 7238 fae5 3736
00000200: 5509 5438 0938 3bb6 a725 f036 5079 7e38
00000210: 4f57 9738 f353 f635 0caa 2f3a e188 b438
00000220: 0f2b eb36 be46 8e37 2d66 ed37 419e 6e38
00000230: 297e 2a38 c65b b638 3314 193a aa62 a438
00000240: 4b76 c738 98d1 e839 2c1d b938 8946 c638
00000250: b8d0 b539 21b2 dc37 a8be 8938 bd66 b538
00000260: 570a 9e39 3ea6 9a38 9439 bd39 e184 9639
00000270: 6fc2 de39 dff6 d538 8c1b 0a38 41a8 1f39
00000280: 5621 8039 5a49 a938 e614 2b38 8f69 e138
00000290: 1a2b f139 5192 8b39 9c4f 6e38 42a0 403a
000002a0: 53ec 183a 81e2 b4b7 6d6a bc37 f3b5 2139
000002b0: d543 df37 09ce a838 8f6d 5db7 7b4d 63b8
000002c0: d89f a8b5 b1e3 d938 4b52 e537 4277 d638
000002d0: 0c11 9638 445d f038 3164 6138 b4d7 b537
000002e0: ca81 4bb7 a32f 8039 4917 083a 9ad1 d739
000002f0: 404b 043a de07 163a b4c5 6438 1372 8b37
00000300: 76da 9639 eb6e 2c39 2f73 da37 bb4a c238
00000310: dcd8 d037 996f 73b6 a328 5238 7327 ab39
00000320: cff0 5339 76da bb37 7bec 4239 83b1 ac37
00000330: bcc2 92b7 2f1e fa37 3935 9238 4c3b 8638
00000340: 4bb8 ff38 e5d9 6239 7b6a d038 eb35 fd37
00000350: d368 8737 4f96 3b37 63ce a939 0873 7939
00000360: c10e 0e38 02f8 b338 c22c ca39 40b5 6939
00000370: a94f 1239 e620 4f39 8707 e739 dd71 313a
00000380: 6744 2338 d061 3f3a 4715 543a 30f2 c839
00000390: 9ce3 c237 5781 d734 4b1a 9ab7 468e 243a
000003a0: c878 fb39 c3ca bb38 6407 1838 2721 8538
000003b0: 315f 9738 ce03 ac39 aa21 f039 abf5 8439
000003c0: 6f34 8038 5ce1 ae39 d1ce 9638 225f 6038
000003d0: e2a7 9c37 8cea 0cb8 01c6 2338 458d 9438
000003e0: fa85 e739 9576 043a 0d13 b6b5 15f1 4cb7
000003f0: ee48 183a 4333 5fb7 ede3 e039 a85f 1f38
