Assets/IA/Pruebas/results/Pad01/PadBehavior/PadBehavior-31330.onnx (onnx, 75090 bytes, 5 tensors)

network_body._body_endoder.seq_layers.0.weight f4 [128, 7]
000000 9c 65 99 3e ee 4b 26 3e b3 87 27 bd c7 4d c7 3e
       0.29960334 0.16239902 -0.040900897 0.38926527
000010 f2 a0 d4 bd 2d 26 a3 3e 47 0c 89 be 68 d6 20 bc
       -0.103822604 0.31865063 -0.2676718 -0.009816743
000020 08 f9 1f bf f3 34 53 be 62 c3 79 bd 38 99 7e bd
       -0.62489367 -0.20625667 -0.060977347 -0.06215784
000030 14 01 c0 bc 39 6a 22 3f c3 e8 ce 3c a4 0a 8e bc
       -0.023438014 0.6344333 0.025257474 -0.017339058
000040 e7 35 c3 3e 9c c2 77 be e6 0a c4 3e c1 28 ba 3e
       0.38127062 -0.24195331 0.38289565 0.36359218
000050 e2 6b 4b 3d de e0 54 bf 54 12 a4 3e 29 44 fe 3d
       0.049663432 -0.8315562 0.32045233 0.12415344
000060 28 3d 0f bf 75 e3 40 3d af 1b 07 bf e8 33 53 3e
       -0.5595269 0.04709192 -0.52776617 0.2062527
000070 3d 9c 92 bd 59 a6 08 bf c7 f1 8e 3d 1e 6c fa be
       -0.07158706 -0.53378826 0.06979709 -0.48910612
000080 41 d5 ee 3e 15 5d e9 be b0 85 c4 be de 57 12 3e
       0.46647075 -0.45578828 -0.38383245 0.14291331
000090 00 84 01 be 10 da af 3e ef 1c c4 be cb dd 61 3f
       -0.1264801 0.34346056 -0.38303325 0.88229054
0000a0 12 1d 7d be 5b 01 b9 3e 0d f3 c1 be 6b c5 63 bc
       -0.2471812 0.36133847 -0.37880746 -0.013902049
0000b0 37 70 30 be 22 d4 15 be ba 26 55 3f b3 f1 7e 3e
       -0.17230307 -0.14631703 0.8326222 0.24896888
0000c0 7b 97 bd 3e 2c 12 d7 3e f1 4f 73 3e 85 f0 8c bc
       0.37029633 0.42006052 0.23760964 -0.017204532
0000d0 98 b2 74 3e bb 82 d0 3e 89 2a 38 3e 0c 3c 2d 3e
       0.23896253 0.4072474 0.17984976 0.16917437
0000e0 fc 0b 01 bf ae f7 1a bd 37 8b 8a 3d d7 94 f4 3d
       -0.5040891 -0.037833862 0.067648344 0.119424514
0000f0 63 ff ea be 74 44 f1 bd 27 64 7a be bc ed 9a be
       -0.4589797 -0.117806345 -0.24452268 -0.30259502
000100 8a 20 d6 be df 5e a4 3e c9 15 22 3e e5 eb aa be
       -0.418217 0.3210363 0.15828623 -0.33383098
000110 9c 3e 29 bd ca 1d 8c 3e 35 9f ef be 97 39 99 3e
       -0.041319475 0.27366477 -0.46801153 0.2992675
000120 e5 88 bf be 1b 42 5d be c5 4f ef bd 7a 7f 69 3d
       -0.3740913 -0.21607248 -0.11685137 0.057006337
000130 df a8 17 3f 9f 1a 2e bf b6 c9 8f 3e 58 f6 f0 3d
       0.5924205 -0.6800937 0.2808358 0.11765736
000140 c6 39 2f 3e 28 36 f8 be c5 6c 05 bf 18 36 19 bd
       0.17111883 -0.48478818 -0.52119094 -0.037405103
000150 7a 89 d1 be 79 76 fa 3e 9e c0 c2 3e 21 e2 93 3e
       -0.409252 0.48918512 0.3803758 0.2888346
000160 77 0b 9a 3e 5e b3 80 be 87 92 b2 3e f6 3e 8e 3e
       0.30086872 -0.25136846 0.34877416 0.2778241
000170 5a bd 10 bf 44 ef 44 be ea 4a 2f 3e cb 56 b9 3e
       -0.5653893 -0.19231898 0.17118421 0.3619903
000180 93 da e7 bd ad 56 f6 3d 4e 22 e1 3d 56 86 5b be
       -0.113209866 0.12028251 0.10992871 -0.21437964
000190 fc 1d 74 be 10 df 02 bd 2c 53 0f bf c3 2f a3 3d
       -0.23839563 -0.03195101 -0.55986285 0.07968094
0001a0 f3 45 07 3f a0 6a 28 3e 8c 87 f3 3e 20 31 8c bf
       0.5284111 0.16446924 0.47564352 -1.0952492
0001b0 5b bf f2 3d 70 0f 04 3e 14 7b 73 3f 5c 80 10 3e
       0.118529044 0.12896514 0.9510968 0.14111465
0001c0 7b 93 13 3e 5f 61 27 3e a9 93 fc bd 3a 72 3a 3e
       0.14411728 0.16345738 -0.123328514 0.18207636
0001d0 f3 97 ee bd 5e ac 2d 3e 3c 71 05 3e 40 52 56 3e
       -0.11650076 0.16960284 0.13031477 0.20929813
0001e0 15 ee 45 bd 1a 76 96 3e e5 ed 09 3d fe 5b a3 be
       -0.048322756 0.2938698 0.03367414 -0.31906122
0001f0 6d 62 0b 3e f8 9b ee 3d 17 a4 25 3e 43 bd 96 bd
       0.13611765 0.116508424 0.16175877 -0.073603176
000200 d0 69 e5 3c 04 db 46 be 40 54 8a be 0a 19 83 3e
       0.028004557 -0.19419485 -0.27017403 0.2560504
000210 b9 82 81 be 7f e8 52 3d 80 99 c4 3e 57 59 53 3e
       -0.25295046 0.051491257 0.3839836 0.20639549
000220 1d 4c af be 38 11 30 3f 94 39 c1 3e b2 ac d5 3b
       -0.34237757 0.68776274 0.3773924 0.006520831
000230 87 5f c9 bd e9 ee e2 be c1 88 eb bd c6 18 b8 be
       -0.098326735 -0.443229 -0.11500693 -0.359564
000240 b0 4d 46 bf 54 65 c1 3c 05 1d 6a bd b4 cd ed 3e
       -0.7746229 0.023607887 -0.05715658 0.46446002
000250 02 d6 2a 3e 2c 72 12 3f 23 30 db 3d ef 19 05 3f
       0.166832 0.5720546 0.10702541 0.51992697
000260 61 03 56 3f 87 b7 a4 3c f1 87 1d bf 05 2c 47 3d
       0.83598906 0.020107044 -0.61535555 0.048625965
000270 e3 5a fa 3d e4 51 0f 3e 27 ac c8 be d7 0a 02 be
       0.122243665 0.13996083 -0.39193842 -0.12699448
000280 1b 61 cf be 37 e6 24 bf b9 b6 5e bd 4e ed 14 be
       -0.40503773 -0.6441378 -0.054373477 -0.1454365
000290 42 82 d8 3d ba ef 05 bb 4c f4 5a be 2f 07 b3 3c
       0.1057172 -0.0020437078 -0.21382254 0.021854011
0002a0 f6 b8 49 bf ed 42 8b be d5 63 4d be 88 8c ec 3e
       -0.78797853 -0.27199498 -0.20057614 0.46200967
0002b0 41 1b d4 3e a5 6d 9f 3e 9c 8f 57 bd 2c 63 78 be
       0.41427043 0.3113834 -0.05262719 -0.24256581
0002c0 5a 80 1c bf 67 4e 4c be a6 c2 92 3d 78 6e 70 bd
       -0.6113335 -0.19951783 0.071660325 -0.0586991
0002d0 f5 cb da 3e c4 f4 2a bd 47 72 32 bd 4c 22 0f be
       0.42733732 -0.041737333 -0.043566015 -0.13977927
0002e0 5e 38 95 be 76 e5 b2 3e f3 cb e8 3e 6b 7e 81 bf
       -0.29144567 0.3494069 0.454681 -1.0116705
0002f0 1b 34 e3 3e 5a 77 96 3e e6 6c 8e be b4 d8 8e be
       0.4437569 0.29387933 -0.27817458 -0.27899706
000300 28 95 9e be 1c 25 89 be 0a 62 46 be c9 5a 8c be
       -0.30973172 -0.26786125 -0.19373336 -0.27413014
000310 ae 5e cc 3e f1 70 59 3e 08 67 9a 3e 48 f3 82 bb
       0.39915985 0.2123449 0.30156732 -0.0039962865
000320 c5 71 07 3e b6 fa 8b be ae 12 9f bd 72 60 d3 3e
       0.13226993 -0.27339715 -0.07767235 0.4128452
000330 a2 6c 01 3f cd 42 fb 3e 8a 25 0c be 08 fd db 3e
       0.50556386 0.49074402 -0.13686195 0.42966485
000340 6c 7c c2 be 63 a5 1b 3e bf ca 65 bf 91 33 e0 be
       -0.3798555 0.15199809 -0.8976249 -0.43789342
000350 01 c8 d3 3e c6 1b 5a 3e 01 e8 36 3f 6f 0b 33 be
       0.41363528 0.21299657 0.7144776 -0.1748483
000360 1f bc 10 bd 12 e9 be 3e 11 b5 31 bf 39 d4 25 3e
       -0.035335656 0.37287194 -0.6941691 0.16194238
000370 96 12 fc be 69 54 19 3e 8c 74 ab 3e cb 2f f0 bd
       -0.4923293 0.14973606 0.33487356 -0.11727866
000380 81 09 c9 be 78 6f ba be 2a 19 c2 3e 6a 3a 2d 3d
       -0.39265063 -0.3641317 0.37909824 0.042292036
000390 49 aa 38 3e d7 06 0b 3f 49 5d 20 3d 95 38 62 be
       0.18033709 0.5430731 0.039151464 -0.22091897
0003a0 24 b1 76 3e 02 9b a7 3e 0b 0b e6 3e b2 e6 18 3d
       0.24091011 0.3273545 0.449303 0.037329383
0003b0 9d 9a bb 3d f3 1a 45 3e 22 89 09 be 84 c3 86 be
       0.091603495 0.19248562 -0.13431218 -0.26321042
0003c0 b6 b8 87 3e 7d 36 fb be 4f 3e 07 3f 5f 42 3e 3e
       0.2650811 -0.4906501 0.5282945 0.18580006
0003d0 d2 2c 6c 3d c1 b3 21 3d 3c 5b 46 3d e5 05 8d be
       0.05765993 0.039478067 0.04842685 -0.2754356
0003e0 a1 20 a3 3e 35 4a 05 bf 89 15 32 3d a6 27 a4 3e
       0.3186083 -0.52066356 0.04347757 0.320615
0003f0 fe 79 47 bf 01 e1 8f 3e fc 4a cc 3e 2f 52 5f 3e
       -0.7792052 0.28101352 0.3990096 0.21808694

network_body._body_endoder.seq_layers.0.bias f4 [128]
000000 08 af 8a bc 4f cf 80 3a 5a 5d 23 bd 90 e1 51 bc
       -0.016929165 0.0009827408 -0.03988395 -0.012810126
000010 ef ab a7 bc 64 41 cf bc 22 e1 64 bd 97 0a 58 bc
       -0.020467727 -0.025299735 -0.055878766 -0.013186119
000020 4e 16 fa 3c e6 42 67 bc ef 78 3d 3c 1a bc 62 bd
       0.030528214 -0.014115071 0.011564477 -0.05535517
000030 d6 1e 6b bb 32 1d 6b bc 60 bf 33 bd 81 e5 00 bd
       -0.0035876534 -0.014350222 -0.04388368 -0.031468872
000040 1d c8 ee bc c0 4c 02 3c be 40 86 bc 73 11 fb bc
       -0.029148156 0.007952869 -0.016388293 -0.030647969
000050 0f 25 c2 bc 1e 8f 3e bd d7 a0 ad 3c dd c3 87 b9
       -0.023699312 -0.046523206 0.021194858 -0.00025895136
000060 fc ba af bb e4 78 e2 bc 18 4b 02 bd 52 a1 75 bc
       -0.0053628664 -0.027645536 -0.031809896 -0.014992075
000070 bc bf d4 bc b1 13 df bc a0 16 d5 ba 9e da 9c 39
       -0.025970332 -0.02723107 -0.0016257353 0.0002991752
000080 d7 8c 44 bc 0c 18 1d bc 6e 21 6d bc 3b f0 c2 bc
       -0.011996469 -0.009588253 -0.014473302 -0.023796191
000090 0c 05 6b 3c 2b 4d 34 3b 9b 75 c5 3c ad ef 04 bd
       0.014344465 0.0027511816 0.02410393 -0.032455135
0000a0 c0 dd a9 bb a0 49 81 bc df 8b f8 bc 86 b7 09 3c
       -0.0051839054 -0.015782177 -0.030340133 0.008405572
0000b0 80 54 e0 ba 4a 46 e2 bc 92 4e 99 3c cb 2f 16 bd
       -0.0017115027 -0.027621407 0.018714223 -0.036666673
0000c0 b8 db 93 3b 37 68 fe bb ad 94 92 bc 75 21 0d bd
       0.0045122765 -0.007763888 -0.01789316 -0.034455735
0000d0 4a 63 0c bc 82 0e 0c bd fd 71 d4 bc 87 4c 8d bc
       -0.008568594 -0.034193523 -0.02593326 -0.017248405
0000e0 de 3c 5a bd 5f b4 c6 bc 67 15 85 bc 7e e0 70 3a
       -0.053280704 -0.02425593 -0.016245557 0.00091887254
0000f0 0b d9 c7 bb 11 1a c5 bc 10 88 a3 bc 99 07 ce bb
       -0.0060988716 -0.024060281 -0.01996234 -0.006287527
000100 c8 ed 1b 3c ad a1 86 bd 62 71 07 bc 80 7f 21 3b
       0.009517141 -0.06573806 -0.008266779 0.0024642646
000110 e3 9f 01 3c 08 b9 13 bd 04 6f c1 3b 1c 72 eb b9
       0.007911655 -0.03606513 0.0059031267 -0.0004490771
000120 ce a1 76 bc df 4b 3a bc 3e 19 0b 3c 35 fc 1d bd
       -0.015053226 -0.011370628 0.008489905 -0.0385706
000130 61 d5 9c 3b 87 79 16 bd 22 55 be bc 75 cb 28 bd
       0.004786179 -0.03673699 -0.023233954 -0.041209657
000140 42 8c 03 bc c9 6e 0d bc 35 a3 13 bc 2c 2c c5 3c
       -0.008029046 -0.00863237 -0.00901108 0.024068914
000150 c3 da b3 bc 44 97 b7 3c c7 08 83 bb 02 ea d1 bc
       -0.0219549 0.022410996 -0.003998849 -0.025624279
000160 b5 f1 19 bd cb 7a c4 bc 38 b5 40 bc 8c eb 8f bc
       -0.037584025 -0.023984334 -0.011761956 -0.017568372
000170 51 8c 4d bd de c3 3e bd bd 58 de bc b9 88 e9 3c
       -0.050182644 -0.046573512 -0.027141923 0.028507577
000180 65 31 d2 bb fc 42 eb bc 54 09 d8 bc f4 bc de bc
       -0.0064145797 -0.028718464 -0.026371635 -0.02718971
000190 72 27 a5 bb cd 15 9c 3c a4 b5 18 bc 8b 6a fe bb
       -0.0050401026 0.019053364 -0.00932065 -0.0077641658
0001a0 32 e8 da bc 24 00 1e bd 4f 94 4e bc d8 f5 d5 bc
       -0.026722047 -0.038574353 -0.012608602 -0.026118204
0001b0 7e 6f cb bd d8 79 4b 3d 61 a3 fe bb 0a 03 86 bc
       -0.09933375 0.049676746 -0.007770941 -0.016358871
0001c0 50 ce c2 bc e6 fd ad b9 e6 fc 20 3c ac 66 43 bb
       -0.023780018 -0.000331863 0.009825921 -0.0029815836
0001d0 1e cd c1 bb ce 9c 9b bc 1e 21 02 bd f3 f1 5c ba
       -0.0059143445 -0.018995669 -0.031769864 -0.0008428387
0001e0 52 7f 0e 3b 6e 68 81 bc 90 00 d4 bc 13 a7 35 bb
       0.002174337 -0.015796866 -0.025879174 -0.0027717992
0001f0 88 95 3d bc 06 71 0b bd 7f af 5c bc 63 a3 eb 3b
       -0.011571296 -0.034043334 -0.013469576 0.007191108

network_body._body_endoder.seq_layers.2.weight f4 [128, 128]
000000 a9 a5 9c 3c 9d 01 85 bc 00 e2 34 bc 43 37 17 3e
       0.019121962 -0.01623612 -0.011040211 0.14767174
000010 f4 df c3 3d 34 63 b1 bd ef e5 92 3d 62 f2 9f bb
       0.095642 -0.086614996 0.071727626 -0.004881189
000020 da 51 8f 3d 07 13 44 bd 6c ee 9b 3d 48 67 6e bc
       0.06998034 -0.04786971 0.07613835 -0.014550991
000030 5a bf 3f 3d 87 01 14 be 54 17 ef bd 18 4a f9 bc
       0.046813346 -0.14453708 -0.11674371 -0.030430838
000040 1f 3e 5d bd 16 c3 aa 3d bf bc cb bd b2 0f 8a 3d
       -0.05401432 0.08337991 -0.0994811 0.06741275
000050 57 db 11 3e e2 be 15 3d f4 06 2b 3d 5e e1 c6 bd
       0.14243828 0.036558993 0.041754678 -0.09710954
000060 47 9f 3c 3d be b4 47 bd aa 4a f9 3d 08 d6 04 3e
       0.046050336 -0.048756354 0.12172444 0.12972271
000070 30 6a 57 bd fc 4a a5 3d cd 82 b3 3d 70 91 f1 3d
       -0.052591503 0.08070943 0.08765183 0.11795318
000080 29 55 23 be bb 95 3a bd c2 2c bf bd 42 24 12 3e
       -0.15950455 -0.04555295 -0.09334709 0.14271644
000090 00 c1 c9 bd 7c 81 05 3e dd cc e3 bb 8e d2 dc bd
       -0.09851265 0.13037676 -0.006951912 -0.107823476
0000a0 ac 01 d6 bd 73 30 89 3e 69 2f fc bc f1 87 3d be
       -0.10449538 0.26794776 -0.030784326 -0.18508889
0000b0 9a 88 17 3e e6 44 97 3c bd af e5 3c aa 92 31 bd
       0.14798203 0.01846547 0.0280379 -0.04335276
0000c0 08 72 5b 3e d7 24 41 bd a3 9e e7 3c dc 0b 03 bc
       0.21430218 -0.047154274 0.028273886 -0.007998433
0000d0 e5 79 5b 3b 79 e7 44 3d 53 bb a7 bd 8e 84 9a bc
       0.0033489403 0.048072312 -0.08190026 -0.018862035
0000e0 aa d3 51 bc 11 a5 bc 3d 6d 61 fe bd 03 2b cd 3d
       -0.012806812 0.092111714 -0.12420926 0.100179695
0000f0 c7 e7 57 3d 58 f7 2f 3e 5f 10 e8 bd f4 d9 cc bd
       0.052711274 0.17184198 -0.113312475 -0.10002509
000100 69 0d 76 3c 6e 09 ce bb fe 4d a8 3e cc d9 41 be
       0.015017846 -0.006287745 0.32872003 -0.18930739
000110 c9 1e 46 bd 71 a4 37 3d 5f 0e d1 3d 72 28 06 3d
       -0.048369203 0.044834558 0.10207819 0.032753415
000120 0b 22 f0 3d c6 8b 5e 3d 55 87 b9 3c 6d 1a b3 3d
       0.11725243 0.054332517 0.02264754 0.08745275
000130 a2 4b 76 bd 75 a7 07 bd 66 f6 cf bd 78 f4 59 3e
       -0.060130723 -0.033118684 -0.10154419 0.21284664
000140 cb a0 1a be 6e 6b 4f bd 6c aa 91 3c 40 2a 4d 3d
       -0.151004 -0.050639562 0.017781459 0.05008912
000150 33 8e 82 3c 75 51 3c bb a3 db c2 3c 41 f9 80 3c
       0.015936946 -0.0028735076 0.023786372 0.015743854
000160 a4 34 8c bc 86 6d 7b bd 71 6e 60 3d 3d 32 66 3d
       -0.017114945 -0.061383747 0.054792825 0.056200255
000170 32 9b 2b bc 52 67 33 be cd 45 90 bd f3 b8 31 3d
       -0.010474013 -0.17519882 -0.070445634 0.043389272
000180 c4 a7 02 be 23 c7 29 3d 8d cc 43 be 21 2f c7 3c
       -0.1275931 0.041449677 -0.19120999 0.024314465
000190 51 67 f0 bd 7e 71 51 bd a3 42 2c 3e 7b ed df bd
       -0.11738456 -0.051133625 0.16822295 -0.10933968
0001a0 ba ca 20 bc 8d f8 43 3b 4e 24 0d 3d 24 07 71 bd
       -0.009813959 0.0029902786 0.03445845 -0.0588447
0001b0 94 b3 bd bd 7c 02 56 3d 6a d7 1f 3e 77 da b5 bc
       -0.092627674 0.052248463 0.15609518 -0.022198899
0001c0 d7 ea c4 3d 31 44 c2 bd 94 84 2d bd 13 b6 1d bd
       0.09615105 -0.09485663 -0.042362764 -0.038503718
0001d0 f6 f1 9e 3d cf 46 13 bd 67 0f ee 3c ea a6 c2 3b
       0.07760994 -0.0359562 0.029060079 0.005940308
0001e0 4d 9a 3e bd a2 70 9d bd 43 29 e5 3c 0c 85 b4 3d
       -0.04653387 -0.07687499 0.027973777 0.08814439
0001f0 ad c0 9a bc 12 ad 8c bd b0 36 84 bd cf d2 52 3d
       -0.018890703 -0.06868948 -0.06455743 0.051470574
000200 e4 3b 8e bc fd 92 dd bc 8b ec 89 3d e4 43 e3 bc
       -0.017362542 -0.027047629 0.0673457 -0.027742334
000210 8b da f5 bd 95 30 b7 bd 0f 37 32 3d ed 31 0a 3d
       -0.120045744 -0.08944813 0.04350954 0.03373902
000220 a0 2a 33 3e 7a e4 8c 3d d2 50 a4 3d 9d 12 c4 3d
       0.17496729 0.06879516 0.08023228 0.09573863
000230 b7 e0 ef bd 91 ab 6a bd 3b 2f 03 3e 44 06 f6 3a
       -0.11712783 -0.057292525 0.12810986 0.0018770178
000240 99 0f 95 bd 97 71 e5 ba 46 da 71 bc 77 e4 87 3d
       -0.07278366 -0.0017505166 -0.014761513 0.06635373
000250 ad 9b 22 3e ee 38 5e bd f6 d6 66 3e d2 69 05 3e
       0.15879698 -0.05425351 0.22542939 0.13028648
000260 49 18 e4 bc 68 43 f1 bd fd 32 ea bd 00 3e 74 bd
       -0.027843611 -0.11780435 -0.114355065 -0.05962944
000270 76 fa a7 bd ea 94 01 3c ad 37 e3 bc f9 9f 9d 3d
       -0.082020685 0.007909039 -0.02773651 0.07696528
000280 ae eb e1 3d 86 4d 8b bd d9 86 6d 3d b8 c4 83 bd
       0.110312805 -0.06801896 0.05798993 -0.064340055
000290 65 34 d0 3d f9 08 0f be 1f aa b9 3d 78 ac a4 bc
       0.101662435 -0.13968267 0.09065651 -0.02010177
0002a0 1e bb 17 bd 88 71 dd 3d b1 0d f5 3d dd c2 01 3e
       -0.037043683 0.1081267 0.11965502 0.1267199
0002b0 22 fa 58 bd 62 e2 0b 3d 36 4c 3a 3d 27 39 f8 bc
       -0.05297292 0.034151442 0.045482837 -0.03030069
0002c0 7b aa fc bc 5e 7f d5 3d 08 ad ef bc ad 08 07 bc
       -0.03084301 0.10424684 -0.029257312 -0.008241815
0002d0 09 d7 57 be eb 20 d8 bd ae 0d bc bd 47 e9 5f bd
       -0.21078123 -0.105531536 -0.09182297 -0.05466583
0002e0 0b 7a db bb e3 38 e3 bb c7 d6 c0 bd 0a 42 db bc
       -0.0066978983 -0.0069342717 -0.094159655 -0.026764888
0002f0 ab 94 3d bd 67 56 5c bd d8 01 e1 ba b2 4e 2e bd
       -0.04628436 -0.053793337 -0.0017166687 -0.04255552
000300 26 02 3e 3e 62 7d b2 3d 02 cc f2 3c 74 a4 37 3e
       0.18555507 0.08715321 0.029638294 0.17933828
000310 4f 8b ce bd a5 7a 3f 3d 6b 72 be 3d 99 80 9b 3d
       -0.10085165 0.046747822 0.09299167 0.075928874
000320 66 67 fd bc 05 12 c3 bc b8 3a 92 bd 20 d9 0f 3e
       -0.030933093 -0.023812303 -0.07140106 0.1404767
000330 08 21 cf 3c b8 27 94 3d cd cb 45 bd 7d b3 1c be
       0.025284305 0.07234138 -0.048290063 -0.15302844
000340 06 e9 3c bc d7 1a 50 be f5 71 bd bb 1f c7 9d 3d
       -0.0115301665 -0.20322739 -0.005781407 0.07703995
000350 66 8c af bd 9f 55 90 3d 71 08 a0 3d 63 77 d8 bd
       -0.08571701 0.07047581 0.0781411 -0.10569646
000360 03 01 0a 3b e3 07 be bc c0 02 c2 3c 44 ea b8 bd
       0.0021057732 -0.02319712 0.023682952 -0.090290576
000370 bf 9a ca 3d db 67 15 bc b1 0c fa 3c ee 49 2e 3c
       0.09892797 -0.009118999 0.03052363 0.010637743
000380 08 ae 9e bd 6f ee 03 be 1e f5 a4 3d a2 06 9a 3d
       -0.077480376 -0.12883924 0.08054565 0.07520796
000390 d1 e4 73 bd a0 8b c7 bc e7 b6 5d bb fb d4 1f bd
       -0.05954439 -0.02435857 -0.0033830942 -0.039021473
0003a0 28 90 37 3e 6d 64 e8 bc 8f d8 4d bd c5 20 27 3e
       0.17926085 -0.0283682 -0.050255354 0.16321094
0003b0 55 59 7b bc df 1d 82 be 27 d3 2b 3e 72 36 cd 3d
       -0.015341123 -0.25413415 0.16779767 0.1002015
0003c0 a2 81 31 3e 55 6f 4e 3d 9c 1f d4 bc 15 81 4b 3c
       0.17334607 0.050399143 -0.025893979 0.012420912
0003d0 e9 f5 eb 3c e5 e3 aa bc f9 41 21 bc d0 de 0c 3e
       0.028803783 -0.020860622 -0.009842389 0.13756871
0003e0 be cb a0 3d 00 c3 8c 3d 95 8e 25 be 48 86 b4 bc
       0.07851361 0.06873131 -0.16167672 -0.022036687
0003f0 bb c9 b3 3d 07 ce 38 bd 77 da 5e 3d f2 76 85 3d
       0.087787114 -0.045118358 0.054407563 0.06516828

network_body._body_endoder.seq_layers.2.bias f4 [128]
000000 4e 5b 5c bc 6e 4e f9 3c 9e 49 40 bd 8f bc 55 bb
       -0.013449503 0.030432906 -0.046945207 -0.003261361
000010 1e 3d 2e bc 01 04 f7 bc 52 e1 a5 3b 60 36 8b bc
       -0.010634689 -0.030153276 0.0050622607 -0.016993701
000020 b6 23 89 bc f6 7d 8b bc 69 90 09 bd 62 67 68 bb
       -0.016740661 -0.017027836 -0.033584986 -0.0035462012
000030 49 5a be ba 0a 09 d6 bc d3 1e 1b bd 4f c0 65 bc
       -0.0014522757 -0.026127357 -0.037871193 -0.014022901
000040 66 ce c1 3c 8a 48 4f bc 93 8b 6a 3b c2 99 a7 bb
       0.023657989 -0.012651572 0.003578876 -0.005114765
000050 61 68 84 bc 30 5b 86 bb c6 cc 48 bc 03 ae c5 bc
       -0.016163053 -0.004100226 -0.012255853 -0.024130827
000060 7e 6d 3d 3b 34 25 82 bc 53 76 69 3c 86 ba cb bc
       0.0028904374 -0.01588688 0.014249402 -0.024869215
000070 b6 2e ba bc 3a d4 b1 3c 92 92 c2 bc 29 b5 95 bb
       -0.022727352 0.021707643 -0.02375153 -0.004568715
000080 12 68 fb 3b b6 9a 17 bd ec f3 c6 bc 0d 20 20 bc
       0.0076723183 -0.03701278 -0.024286233 -0.0097732665
000090 f7 e0 fc bc 86 f2 69 3b 84 f6 a8 3c 67 b2 a7 bc
       -0.03086899 0.0035697534 0.02062536 -0.020470811
0000a0 dc cc 87 bc 07 23 96 ba e3 55 52 bc 00 0f ce bc
       -0.016577177 -0.0011454531 -0.01283786 -0.025153637
0000b0 ea b5 00 bc d4 99 d6 bc 6f ad 66 bc 46 6d a8 bc
       -0.007855872 -0.026196398 -0.014079436 -0.020559918
0000c0 77 8b 03 bc 1b bb c3 bc 49 55 03 3b 9a 34 1c 3c
       -0.0080288565 -0.02389293 0.0020039848 0.009534026
0000d0 dc dc f3 bc e0 2e 15 bc 27 41 5c 3b 9a a5 03 3c
       -0.0297684 -0.009105414 0.003360817 0.008035088
0000e0 b2 79 83 bb 94 8e 72 bc ba 6e 4b bd 8f 4f cc bc
       -0.00401231 -0.014804501 -0.049666144 -0.02494028
0000f0 f9 65 7b 3b 44 04 ac bc cb f1 59 bc 8f b5 dc bb
       0.003836034 -0.020998128 -0.013302277 -0.0067355107
000100 5a f7 d0 bc 1f fc d7 3b d8 85 d4 bc c1 c8 2a bd
       -0.025508571 0.0065913345 -0.025942728 -0.04169536
000110 78 c0 7e 3b 15 10 d5 bc 02 49 9b bc 86 f2 10 bc
       0.0038872045 -0.026008645 -0.018955711 -0.008846885
000120 7e 03 c9 bc bd b5 9b 3c e0 a7 85 3c 8a d2 f1 3a
       -0.024537798 0.019007558 0.0163154 0.0018449586
000130 cb 23 3e b8 e3 90 dd bc 1f 58 85 ba 83 26 16 bd
       -4.5332865e-05 -0.027046626 -0.0010173357 -0.03665782
000140 39 d6 c1 bb e7 0e 44 bc 0f 4a 40 bc b1 f7 92 bb
       -0.00591543 -0.011966444 -0.011736407 -0.0044850935
000150 bb 47 4e bc ef 93 71 bc 46 d4 81 bb a4 7b d8 bc
       -0.012590344 -0.014744743 -0.0039620725 -0.026426144
000160 fb b8 17 3d af 43 21 bb 41 e0 c6 bc 7c 37 7e bc
       0.037041645 -0.0024606993 -0.024276854 -0.015516158
000170 52 d0 8a bc db 28 9f bc a4 1a 50 3b 66 3f e0 bb
       -0.016945038 -0.019428661 0.003175416 -0.006843495
000180 7b 4f c2 3c 26 03 ac 3b b6 46 17 bd 62 7b 0f bc
       0.02371954 0.0052493988 -0.03693267 -0.008757444
000190 f0 9c cd ba 7d 5e 12 3d e5 59 17 bd 97 62 2d bd
       -0.001568703 0.035734642 -0.036950964 -0.04233035
0001a0 2a a2 cc bb 23 52 91 bc a2 0d 89 3b 48 e8 03 bd
       -0.0062449174 -0.017739361 0.0041825334 -0.032203943
0001b0 44 23 e2 3c 7f b1 d4 bc 53 f9 97 bc 45 45 1c bc
       0.027604707 -0.025963543 -0.018551504 -0.0095379995
0001c0 89 a3 87 bc ed 8e e9 ba 02 ab f7 ba 78 68 44 bd
       -0.016557472 -0.0017819084 -0.0018895569 -0.04795119
0001d0 4d ac bf bc 25 37 9e bb 0b d4 c7 bc 4c 83 96 bc
       -0.02339759 -0.004828351 -0.024393102 -0.018373154
0001e0 9c 1e 1e bb 14 63 38 bb c7 59 c7 ba 0f 4c 51 3c
       -0.0024127131 -0.0028135227 -0.0015209251 0.012774481
0001f0 63 34 09 bd ce 5b a3 bc ec e4 17 bd 3e f9 59 bc
       -0.033497225 -0.019941237 -0.03708355 -0.013304053

action_model._continuous_distribution.mu.weight f4 [1, 128]
000000 5b 87 8a bc 6c 77 01 3d 02 71 b2 ba 36 69 5a bc
       -0.016910246 0.03160803 -0.0013614001 -0.013330748
000010 2b c6 e6 38 9e df 22 3c c2 b3 83 bc 6f 37 1a 3c
       0.00011004166 0.00994101 -0.016076926 0.00941263
000020 ca 57 d6 3b 64 99 16 3d f6 d8 8d 3c 4a ca 9d 3c
       0.006541227 0.03676738 0.01731537 0.019261498
000030 4f 33 97 bc aa ca a0 3c d0 0f a3 3b 4c d7 b6 bb
       -0.018457083 0.019627888 0.00497625 -0.0055798646
000040 05 14 81 3b 98 2d 46 3d f6 fe 57 bc ea b4 b2 3c
       0.003939154 0.048383325 -0.013183346 0.021814782
000050 5c 42 e0 bb ab 0a 89 bc c8 b2 7f 39 25 8f 20 bc
       -0.006843848 -0.01672872 0.00024385296 -0.009799753
000060 57 61 11 bc f0 4c cb 3c e5 de 02 bc 56 ed f5 ba
       -0.008873305 0.02481696 -0.0079877125 -0.0018762748
000070 b6 7f ef 3b aa 2b 44 bc 4c 30 fa 3b ad e7 2b ba
       0.0073089255 -0.011973301 0.007635152 -0.00065576547
000080 f5 24 eb 3b e2 e7 b2 3c e1 92 a6 3b 2a 2f 8a 3c
       0.0071760365 0.021839086 0.0050834273 0.016868193
000090 07 bc 72 3b dc a4 33 bd 12 16 ad ba 6b f2 12 3b
       0.0037038343 -0.043858394 -0.001320543 0.0022422324
0000a0 45 cd 32 bc ea af 06 bd 56 8d 7a bb d2 08 84 bb
       -0.010913198 -0.03288261 -0.0038231215 -0.004029372
0000b0 32 ae c0 bc 85 54 52 3c db 2b e3 3c 24 ec 39 3b
       -0.023520563 0.012837534 0.027730873 0.002836951
0000c0 93 41 ea bb db 05 41 3c 09 a8 0c bd b0 a1 27 bd
       -0.0071489303 0.011781181 -0.03433994 -0.04092568
0000d0 f1 c8 dd 3c b3 dd a5 3c 97 b2 7b bc 14 a1 3f 3b
       0.027073355 0.020247316 -0.015362403 0.0029240297
0000e0 99 c4 13 3c d4 49 18 bb d4 a8 53 3b 21 1c 17 3c
       0.0090190405 -0.0023237364 0.0032296674 0.009223015
0000f0 28 12 72 3c 5e 03 b5 3b 2c 4b f8 3a 06 71 dc bb
       0.014774837 0.005524083 0.0018943301 -0.0067273406
000100 fd 8d 1c 3c 48 92 15 bc 83 f8 2c 3a 00 68 65 ba
       0.009555337 -0.009129114 0.00065983104 -0.0008751154
000110 35 f4 a2 bc 5f 77 45 3b f5 1c 09 bc 9a ce d2 bb
       -0.019891838 0.0030130965 -0.00836872 -0.00643332
000120 10 dd 6d bc 63 37 8d bb 62 99 8b bc 1f 8b 3f bc
       -0.014518037 -0.004309581 -0.017040912 -0.011690884
000130 6d 3e a8 3b 3c 4f a9 bb 1e d0 84 3b 5b 78 94 3c
       0.005134395 -0.005166916 0.00405313 0.018123796
000140 fa 4f 9c ba c8 53 ef 3b b6 d6 92 3c 4b bb c4 3a
       -0.001192569 0.0073036887 0.017924648 0.0015009431
000150 29 68 48 bc b1 59 bd 3c a0 92 aa bb 2a 2e 22 3d
       -0.012231865 0.023114057 -0.0052054673 0.039594807
000160 8d 03 af bb f2 fe 97 3a 7b 68 a9 bc 41 8d aa 3b
       -0.0053409995 0.0011596365 -0.020679703 0.005204827
000170 d7 10 45 3b 73 ad 98 3c c4 16 99 3c 90 e9 c8 3c
       0.0030069852 0.018637395 0.018687613 0.024525434
000180 8c c3 ee bc d3 3e 08 bd 0a c2 a1 bb de fb 9c bb
       -0.029145978 -0.03326304 -0.0049364613 -0.004790767
000190 5b 64 2e bc 3f a0 28 3c d6 6c 9d ba 37 68 bf 3b
       -0.010644044 0.010292112 -0.0012010585 0.005841281
0001a0 2f d6 43 bc 6f bb c9 bc 4e 0e 7a 3c c2 85 df ba
       -0.011952921 -0.024625508 0.0152622 -0.0017053413
0001b0 84 27 d5 b8 dd 95 df 3a da 0d 11 3c 7e b4 2f 3c
       -0.00010163992 0.0017058213 0.0088534 0.010724185
0001c0 12 2c 0c 3c 23 91 ca 3b 02 52 8b bc f8 25 e5 3b
       0.008555429 0.0061818524 -0.017006878 0.0069930516
0001d0 1c 58 b5 3c e4 17 95 bc d6 54 f7 3b 35 fe aa 3a
       0.02213674 -0.018199869 0.007547955 0.001304573
0001e0 dd dc 7e bd 50 cd 56 bc a8 3a c7 3c ee 6b b4 bc
       -0.06222235 -0.013110474 0.024319962 -0.022024121
0001f0 88 fd 94 3c b7 77 70 3b b1 a6 00 bb 75 e5 8b 3c
       0.0181873 0.003669245 -0.0019630606 0.017077187
