Assets/IA/Pruebas/results/Pad07/PadBehavior/PadBehavior-200011.pt (torch, 438525 bytes, 30 tensors)

network_body._body_endoder.seq_layers.0.weight f4 [128, 5]
00000000: 1986 73bf 625b 0f3f ec85 bebd 2734 7abf
00000010: 9ea4 833e 653d 0b3c 23a1 9c3e a0ac 8e3e
00000020: d128 3fbf 8b19 01bf 079c 6a3e d24e 033f
00000030: 0322 3f3c ff9f 53be d372 283f 7f3a fa3e
00000040: d71d 96be 1a06 5d3e 9b75 ac3e d5e7 963e
00000050: ee75 153e 3d54 17be ae75 68be 2f5b 983e
00000060: 4781 363e 0e26 2d3e d0cf 043f ed55 06be
00000070: d1c3 ebbe 50bd 903d 5d98 a7be 68df 66bf
00000080: 452b 45bd 7dcb 433d d8af b43e 6d3e 82be
00000090: 63b4 823e e33d b9be 9b0f 70be 0371 ddbe
000000a0: 3406 0c3f 2709 2abf ea8c 843d fbe5 eb3e
000000b0: cbcc 12bf b201 943d 91b1 40be 2064 24bf
000000c0: 7185 f5be 2535 903e 9aeb 83bf c6ac 533e
000000d0: 4136 5a3f 53c3 ca3e 9724 023e c50c 293d
000000e0: 96f0 113f a44f f13d 0177 abbe d7fd 7abe
000000f0: 4dfc 5d3f 6e50 c5be 785f 3fbf 2ab5 1fbe
00000100: ceba ab3c 994a ce3e 4e91 203c 1cd5 dcbe
00000110: 3252 5e3e fe27 c03e 0720 c1be 5715 3f3f
00000120: 1d2c cf3e 8ebb 2f3e c004 d23d fc23 05bf
00000130: d898 953e 826a f7be e92d d6bd d8b3 1f3d
00000140: 1800 aebe 10cd 07bf 19a6 4b3f 06a8 05bd
00000150: 800b e93e f6bc 203e 7851 73be 77f5 89bd
00000160: 369d c23e 347f 903e 5eb3 ac3e 14b6 e23e
00000170: 0eb3 333f d0f5 8dbf 2ed2 3a3e 9bb8 923e
00000180: 9720 733e 7e96 0b3f 0b3e 9d3d 61e8 82be
00000190: f182 293e d287 32be 2221 fdbe 2a0b 0cbe
000001a0: df02 51bf 25a1 053f e904 c6be 7124 2abf
000001b0: 623e f8be c77b 463e 67a9 d4be 8c59 25bf
000001c0: 61ca 2a3d f2b2 59be 3ed3 b83d df0b 67be
000001d0: e472 fc3d 6127 1c3f c23e 9bbe 0f18 953e
000001e0: 4b07 b03e 81fc 023e 01de d93e 6532 9fbe
000001f0: 73c9 f13d 624c a93e 722f 9a3b 0d17 c93d
00000200: ec74 633d 9d95 a53d cf72 07bd 7f01 ebbd
00000210: a82b 04bf ac93 51be 5b1d c13e cb8e 853e
00000220: c29e 98be 1751 1c3e c85e 893e 0c87 17bf
00000230: 9667 a13d ffc2 453f 198d 0dbe 6678 af3e
00000240: 7ae7 cc3e eeb7 933f bcd7 ad3e 9311 95be
00000250: c112 18bf 5c7c 41be e8e0 d53e 78c3 06be
00000260: fe2c cdbd 118f 27be 1345 6dbe 50ce 97be
00000270: 728b 2c3e 49f9 573e 550c 563d 3586 22bd
00000280: feaf 203d 7cb5 453e 1702 3bbe b278 2dbe
00000290: 31d3 073d 20e5 083f 7bde c1be 52a9 a6be
000002a0: b6ad 803d eece 433f bb35 16bf a35e 7b3d
000002b0: 5098 04bf f8a4 883e eb2e 053e 5319 b63e
000002c0: e004 cabe 018a 35be 8d98 3a3d bf68 5fbd
000002d0: 32a6 2e3d 5bae 2a3f 76ee ce3e 2a46 ec3e
000002e0: 5126 b6bc 1a55 27be 8df9 57bf 3e32 9b3c
000002f0: 3c9e 833f 9bb3 94be 506e da3e 42cf 29bf
00000300: 86ba 8a3e a5a4 95bf 7c58 a8bd f0e7 c93d
00000310: 594e 27bf 370b 94be 5fac a03d 38b6 85be
00000320: 0bab 5a3f 50d2 4ebe 5ea8 2f3d eddb 4e3e
00000330: a666 8d3e 37ba f83d 6235 a33c f355 e03d
00000340: 540d ccbe bb97 4abc 8fe6 bf3e 110c 0a3e
00000350: c592 edbd e3b3 8b3c 632a 15bf 85ae a7be
00000360: 3263 5d3e 4437 a03e 71f6 0abf 68bd ba3e
00000370: 33f0 c73e 5bc2 103f 1d44 e339 70a9 8abe
00000380: d05d 9dbe 85ee e2be aa92 da3e c601 56be
00000390: c776 e53e 1ca4 93be 2989 7ebe ff46 243d
000003a0: c95d e7bd 18ad b3bd 0781 5dbe 1647 203f
000003b0: ee02 d3be 0d3a d4bd 15cb 44be 3d4c 1a3d
000003c0: 7ad9 ebbe effc 1e3e fa4a b6be 0baa 083f
000003d0: 2975 793c 22ed c83e 7636 013f 173a 15be
000003e0: fc4b b1bd fc7a 09bf 475f 783f 4040 763e
000003f0: 5769 ad3e 3a19 473c 9f89 01bd edf0 2d3f
-0.9512649 0.55998814 -0.09302887 -0.9773583 0.2571153 0.008498524 0.30591688 0.27866077
-0.74671656 -0.504296 0.22911082 0.51292145 0.011665824 -0.20666502 0.6580021 0.48872754
-0.2931964 0.21584359 0.33683476 0.2947375 0.14595768 -0.14778228 -0.22701141 0.29757068
0.17822753 0.16909048 0.51879597 -0.13118716 -0.46047834 0.070673585 -0.3273343 -0.9018464
-0.04813697 0.047801483 0.35290408 -0.25438252 0.2552825 -0.36180028 -0.23443453 -0.43250284
0.54696965 -0.66420215 0.0647219 0.460739 -0.5734374 0.07226886 -0.18817736 -0.6421528
-0.4795337 0.28165546 -1.0306275 0.20671377 0.85239035 0.39602146 0.1270927 0.041271944
0.5700773 0.11782768 -0.3348923 -0.24510895 0.86713105 -0.38537925 -0.7475505 -0.15596452
0.020963099 0.40291288 0.009800268 -0.4313134 0.21711043 0.37530512 -0.37719747 0.74641937
0.40463343 0.1716139 0.10254812 -0.5200803 0.29218173 -0.48323447 -0.104579754 0.03898987
-0.33984447 -0.53047276 0.7955032 -0.032630943 0.45516586 0.15697083 -0.23761547 -0.06736272
0.38010567 0.28222048 0.33730596 0.4427954 0.7019509 -1.1090641 0.1824424 0.28656468
0.23742901 0.5452651 0.076778494 -0.25567916 0.16553856 -0.17434624 -0.4943934 -0.13676134
-0.81645006 0.5219901 -0.3867562 -0.66461855 -0.48485094 0.19383155 -0.41535494 -0.6458976
0.04169691 -0.21259668 0.09024666 -0.22563122 0.12326601 0.6099759 -0.30321318 0.29119918
0.34380564 0.12791635 0.42552188 -0.31093135 0.118060015 0.33066088 0.004705363 0.0981885
0.055531427 0.08085177 -0.033068474 -0.11474895 -0.51629114 -0.20466489 0.3771771 0.26085505
-0.29808623 0.15265308 0.26830125 -0.5919044 0.078810856 0.77250665 -0.13823356 0.34271544
0.40020353 1.1540506 0.33953655 -0.2911497 -0.59403616 -0.18895096 0.41773152 -0.13160503
-0.10018347 -0.16363169 -0.23170881 -0.2964959 0.16850069 0.21091188 0.052257854 -0.03967877
0.03923034 0.19307512 -0.18262516 -0.16940573 0.033160392 0.53474617 -0.37865052 -0.32551056
0.06283133 0.76487625 -0.58675736 0.06136955 -0.5179491 0.2668836 0.13006179 0.35566196
-0.39456844 -0.17728426 0.04555564 -0.054543253 0.042638965 0.66672295 0.40416306 0.4614728
-0.022235068 -0.16341057 -0.8436516 0.018944856 1.0282664 -0.29043278 0.42662287 -0.66331875
0.2709543 -1.169087 -0.08220002 0.09858692 -0.65353924 -0.28914806 0.07845377 -0.26115584
0.8541724 -0.20197415 0.042885177 0.20201083 0.27617377 0.12144893 0.019922916 0.109538935
-0.3985392 -0.012365277 0.3748059 0.13481165 -0.1160026 0.01705355 -0.582678 -0.32750335
0.21619871 0.31292164 -0.5428229 0.3647263 0.39050445 0.5654656 0.00043347562 -0.27082396
-0.30735636 -0.443226 0.4269002 -0.20899114 0.44817182 -0.28836143 -0.2485701 0.04010677
-0.11297185 -0.087732494 -0.21631251 0.6260847 -0.41213173 -0.10362635 -0.19218095 0.037670363
-0.4606436 0.15526174 -0.35604078 0.53384465 0.015225687 0.39243418 0.50473726 -0.14572941
-0.08657071 -0.53703284 0.9702038 0.24047947 0.3386943 0.012152011 -0.031625386 0.6794575

network_body._body_endoder.seq_layers.0.bias f4 [128]
00000000: 4804 34bc 06c0 92bd f523 aabd 1b38 24bd
00000010: 2a99 92bd 02bb 8139 55a6 de3c 87c2 64bd
00000020: 6b0a c3bc 790a 0b3d f64f 233c 65f9 d6bd
00000030: 1fdf 0d3d 0a61 2abd 29bd 84bb e0f8 5ebd
00000040: 59ad 7a3d 4a58 c5bd 4a02 ea3b 1413 5ebd
00000050: b442 2ebd 99dc 58bc 83c0 a5bb 44d2 59ba
00000060: 5a19 07bd 463f 62bd bf1c 223d 6a4e 80bd
00000070: d7fb 1f39 af2c b23c a39d 53bd c7f5 b7ba
00000080: 8813 ffbd 81cb 63bb 4400 e5bc e8e4 46bb
00000090: 34bb ddbb b3a6 d4bc 23f2 a9bd 6552 94bc
000000a0: f3a0 04bc 12e3 68bc 1246 a23c e55a d93b
000000b0: ef5a cf3c c3f5 3bbd 8bf3 53bd a12b cfbd
000000c0: 1c9a 33bd d335 cc3c d71e 04bd 8bd7 4fbc
000000d0: 5ac8 bdbd c933 c5ba 9fc9 18bd 13fb 903c
000000e0: f1a6 56bb 1e46 4a3d 7430 c23b 64b4 33bd
000000f0: b3d0 6e3d 2cf4 f6bc f47c 93bc 560b f7bc
00000100: 73d6 17bc 7e37 1ebd a539 6dbd 0ed4 c7bd
00000110: 152e 383d c879 33bd 939f 8dbd de27 2ebd
00000120: 07ae 143c bb0e 24bd 7fbd 6ebd 5ff9 423d
00000130: 6e88 bdbc ea35 ce3c e848 16bd f8b9 243d
00000140: 08f3 943d a98a 133c 8c5c 21bd 26bd 04bc
00000150: 9911 d9bd a9bb 1ebd 1b91 b4bd 89e2 db3c
00000160: 40df 49bd 7fd1 90bd cff3 f13c b764 733d
00000170: 3357 c73c 10d5 21bd 3792 26bd 9714 44bc
00000180: 4ec4 bd3d 3dab 6fbd d7b0 96bc 9972 8dbc
00000190: 3c33 aabc 9491 303d 77f3 46bc 915d f6bc
000001a0: 434c 29bd 4e04 25bd b67f 8ebd d1f6 86bd
000001b0: 0a78 53bd 7dba d63c 359a 663d 7828 eabc
000001c0: ec99 afbc e15d 01be 6763 42bc c8ca a3bd
000001d0: 9d63 933b d7cf 1d3d d9e6 9cbc 95c4 0abd
000001e0: 2ecb 183d 333d fabb 726f d3bc 4179 02bd
000001f0: dba2 463c 0fe1 acbd a7fa b9bd c6fe a7bb
-0.010987349 -0.07165532 -0.083076395 -0.04009257 -0.0715812 0.0002474413 0.027178923 -0.05584958
-0.023808679 0.033945534 0.009967795 -0.10496787 0.034636613 -0.04159645 -0.00405087 -0.054436564
0.061200473 -0.096359804 0.007141386 -0.054217413 -0.04254408 -0.013236188 -0.0050583496 -0.0008309225
-0.03298316 -0.055236124 0.039578196 -0.06264956 0.0001525724 0.021749822 -0.051664006 -0.0014035039
-0.12454897 -0.003475875 -0.027954228 -0.003034884 -0.006766701 -0.025958395 -0.08298137 -0.018105695
-0.008095014 -0.014214294 0.019808803 0.00663315 0.025311915 -0.045888674 -0.051745933 -0.101157434
-0.043848142 0.02492801 -0.032255974 -0.012685667 -0.0926673 -0.001504534 -0.037301656 0.017697847
-0.0032753313 0.049383275 0.005926186 -0.043873206 0.0583045 -0.030145727 -0.018003918 -0.030156773
-0.009267437 -0.03862714 -0.057916302 -0.09757243 0.044965822 -0.04381731 -0.06915202 -0.04251849
0.0090746945 -0.04005311 -0.058286186 0.0476011 -0.023136344 0.025172193 -0.036690623 0.040216416
0.07272917 0.009005227 -0.0393949 -0.008101737 -0.105990596 -0.038753185 -0.08816739 0.026841419
-0.049285173 -0.07071208 0.029535202 0.05942222 0.024333572 -0.039509833 -0.040666785 -0.0119678
0.09265958 -0.058512915 -0.01839487 -0.017266558 -0.020776384 0.043107584 -0.0121430075 -0.030073913
-0.041332494 -0.04028731 -0.06957953 -0.06590045 -0.05162815 0.026211971 0.056299407 -0.02858375
-0.0214357 -0.12633468 -0.01186452 -0.07997662 0.004497959 0.03852829 -0.019153045 -0.03387888
0.037303142 -0.00763669 -0.025809977 -0.031853918 0.012123789 -0.08441364 -0.09081011 -0.005126807

network_body._body_endoder.seq_layers.2.weight f4 [128, 128]
00000000: 4ec2 73be b1cc e13b f068 fabc db6a 08bc
00000010: 3134 8a3c 6c97 febd 14c4 3f3d 6649 db3c
00000020: b120 79bd 338b 50bd 85ab e13d 8f00 b0bd
00000030: 756d 60bd 77d4 2d3d 3bb4 e6bc 8b2f 40bd
00000040: 7792 a33d af66 e3bc 84d7 60bc 6213 09bd
00000050: b43e e23d 2916 3fbd b038 2ebd 2cf1 c4bd
00000060: 3068 393d b741 bebd 7231 8d3c 758f f43a
00000070: 194c 2cbd 52f8 e3bd ef00 0bbe 395b 9f3d
00000080: 24d7 0fbe 8519 6b3d ad29 e4bd 740c b63d
00000090: c7ff df3d f942 9f3d c9fa aabd d51a 55be
000000a0: 0e20 1dbe 74b7 c43c b318 9b3d 2ac4 02bd
000000b0: 3f1a 933a 5cdc edbd 89df 7abd 2129 253c
000000c0: 2f99 343e 576b 31be dd5f dbbd 6f18 75bd
000000d0: 5e5f 143d 86ef 85be b43d 0d3c 0667 39be
000000e0: c1e5 be3d c391 ea3d f72a 32bd 68dc 48be
000000f0: ab68 aebd 90de 8c3d 7979 5e3d f9b4 0b3e
00000100: 56e3 853d ab42 cc3d 9e6f 04bd 492d fabb
00000110: d3d0 59bd 682e ac3c 2ad5 0b3d cb7e 333d
00000120: 3e30 113d 54b9 c3bc b78d 1bbd b37e f7bd
00000130: 8891 2c3d 107d 97bd 8138 f83d 9124 a33c
00000140: 460f ac3d 3382 6fbd f115 1c3d aaf9 13be
00000150: 3271 cb3d f08a 15be 13a5 05be 7d7f 1e3e
00000160: 210f a1bd 3015 03bd 0677 953d 9d98 9d3d
00000170: f9c4 26be b94e 89bd 4342 34bd 0c22 fdbc
00000180: 59a2 01be 4bdf 423d 3e71 943c f228 283e
00000190: 4b63 adbb 78b3 08bd 0e09 a7bc 7641 613d
000001a0: e525 9d3d 4124 bebd 356d 49bd b06f 97bd
000001b0: 8e1a 4a3d b3e9 5fbd 93c3 ef3d e308 c83c
000001c0: ee5a 8b3d c90a 36bd 31cc be3d ed49 983d
000001d0: 5e2f be3d c4e7 523d 9f83 41bd 9e40 c3bd
000001e0: 1180 0c3d 348d fdbd 076c 21bc 11af a8bc
000001f0: ce38 91bd 4950 5b3d 3c67 3d3d 9a0f 3abd
00000200: 6ee6 f5bd ada8 5f3d 0180 bd3c 403f d33d
00000210: 0f80 08bd 2199 d7bc 811c 093b c413 66bc
00000220: d27d aabd f553 9a3c e308 abba ab6f 823d
00000230: 01a6 703c ddd8 1dbd 82bf 423d d37a 513d
00000240: 4e56 4d3e ee1e b1bd b4a0 b13c 9e95 15be
00000250: 13be ae3c 4fbe 343c 8722 79bd 6ae2 8ebd
00000260: e4a6 b53d 7994 79bd 7028 1dbe 2633 2dbe
00000270: 9477 613e 2fda a2bd 47ea 01bd d94c 653e
00000280: c3e2 36bd 9dd5 8cbc dac2 49bb 6cf6 22bd
00000290: a5fd 183d e274 973b 106c 22bd 95f2 01be
000002a0: 06fc 04be 73be 2ebd 2cb8 3cbd ad96 423d
000002b0: 7f38 113e b0d8 763e da2d e0bc 3b05 223d
000002c0: 617a 043d b34c b03d b43d 18bd 06c4 95be
000002d0: 8246 a8bd 40b3 c8bd ae6c b4bd fdff 44be
000002e0: 6d88 dabc 4ed4 983d 7a46 3f3e 587f eebb
000002f0: 12ba cb3d 2936 2fbd 0734 343e 2c62 e33d
00000300: d376 e0bd 6ab9 753d ffe0 503d 8044 64be
00000310: 05f0 8ebd d2c6 9b3d b6ec 6abd 3809 f4bd
00000320: 11b8 323e 2d64 99bd f562 2e3d efdd 143e
00000330: 6176 8f3d 6ed5 19be bba9 82bd 90d0 96bd
00000340: fc83 61bc 4a13 713d 465d 0f3e f6a6 84bd
00000350: b6f0 ffbb 9874 713e 86a5 113d c0e0 3b3e
00000360: a952 ad3d 1a0e c8bd b447 a1bd c9cb 59bd
00000370: cc9f f33d ac01 98bb ae29 29be 32fd 1dbc
00000380: 4551 e7bc 3014 08be e687 6a3d b427 0cbd
00000390: 6fe3 763d 2a5c 7a3d 4185 cfbd 65f3 1f3e
000003a0: 51f9 c53d 5247 1d3d 57cd f4bd e319 183e
000003b0: 6ff2 2cb9 7f23 fabc a460 3d3d 15d1 bfbd
000003c0: b7b6 193e 2b5c 5c3d 1153 ab3d ab93 17be
000003d0: 6cc4 fd3d 08ca df3d dfbc 1ebe c618 77bd
000003e0: 5773 8a3e b7a5 c4bd 9e5e b63d 235a 373e
000003f0: 37c9 fc3a 510c b4bd 4a53 c7bc 1f4d d7bd
-0.2380459 0.006890856 -0.030567616 -0.008326258 0.01687059 -0.12431225 0.046817854 0.026768398
-0.060822193 -0.050914 0.11019043 -0.085938565 -0.054791886 0.04243895 -0.028162112 -0.04692034
0.0798692 -0.027758924 -0.013723258 -0.03346575 0.11047116 -0.046651993 -0.04253453 -0.096163124
0.045265377 -0.09289878 0.017235491 0.0018658476 -0.04206476 -0.11131348 -0.13574575 0.07781071
-0.14046913 0.057397384 -0.111407615 0.08889094 0.109374575 0.07776446 -0.08348615 -0.20811017
-0.15344259 0.024013259 0.075730704 -0.031925358 0.0011223032 -0.11614296 -0.061248336 0.010080607
0.1763656 -0.17326103 -0.10711644 -0.059837755 0.03622376 -0.26159304 0.008620668 -0.18105707
0.09321166 0.11453583 -0.043498006 -0.19615328 -0.085160576 0.06878388 0.054315064 0.13643254
0.065375015 0.099736534 -0.03233301 -0.007634793 -0.053177666 0.021018222 0.034138836 0.04382209
0.035446398 -0.023892082 -0.037976947 -0.12084713 0.042130977 -0.07396901 0.12120152 0.019914897
0.08401351 -0.058473777 0.038106862 -0.14450708 0.099337 -0.14603782 -0.13051252 0.1547832
-0.07864214 -0.032002628 0.072980925 0.07695124 -0.16286077 -0.06704468 -0.044008505 -0.030900024
-0.12659587 0.04757623 0.018120404 0.1642187 -0.0052913777 -0.03337428 -0.02039006 0.05499407
0.076732434 -0.09284259 -0.049176414 -0.073943496 0.04934173 -0.054666232 0.11707225 0.0244183
0.06804453 -0.04444388 0.0931629 0.07435975 0.09286378 0.05149056 -0.047244664 -0.09533809
0.03430182 -0.12380448 -0.009852416 -0.02059129 -0.07090913 0.053543363 0.04624103 -0.045425035
-0.120068416 0.05460422 0.023132326 0.10314798 -0.03332525 -0.026318135 0.002092153 -0.014042798
-0.083247796 0.018838862 -0.0013048913 0.06368955 0.014688016 -0.038536895 0.047545917 0.051142525
0.20052454 -0.086484775 0.021683075 -0.14607856 0.021330869 0.011031701 -0.060823943 -0.06976779
0.088697225 -0.06093261 -0.15347457 -0.16914043 0.22018272 -0.079517715 -0.031717565 0.22392596
-0.04464985 -0.017191702 -0.0030786307 -0.039785787 0.03735127 0.004622088 -0.039653838 -0.12690194
-0.12986764 -0.042662095 -0.046074077 0.047506977 0.14181708 0.24106097 -0.027365614 0.03955577
0.032343272 0.08608379 -0.03716822 -0.29251117 -0.08216573 -0.09799814 -0.088097915 -0.19238277
-0.026676381 0.07462369 0.18679228 -0.007278364 0.099475995 -0.04277626 0.17597972 0.11102709
-0.10960164 0.059991278 0.050995823 -0.22291756 -0.06979374 0.07606281 -0.05735465 -0.11915821
0.17453028 -0.0748981 0.04257484 0.14537786 0.07005001 -0.15022823 -0.0638003 -0.07363999
-0.013764378 0.058856286 0.14000425 -0.06477158 -0.0078106774 0.23579633 0.035558246 0.18347454
0.08463032 -0.09768315 -0.078750044 -0.05317286 0.11895713 -0.004638871 -0.16519806 -0.009642886
-0.028236995 -0.13288951 0.05725851 -0.03421755 0.06027549 0.06112305 -0.10132838 0.15620191
0.09666694 0.038398094 -0.11953228 0.14853625 -0.00016493512 -0.030534504 0.04623474 -0.09366051
0.15011106 0.053798836 0.08365453 -0.14802425 0.1239098 0.10927206 -0.15501736 -0.06032636
0.27041122 -0.0960192 0.089047655 0.17905478 0.0019286041 -0.08791412 -0.024331708 -0.105127566

network_body._body_endoder.seq_layers.2.bias f4 [128]
00000000: ab55 943c 5264 5d3d 727d 983d d457 77b9
00000010: bdf3 0e3d 30bf 543a 20c1 b4bc 75d3 6abd
00000020: d1ce 5a3d 29f9 20bd 6b4c 563c fc58 f0bc
00000030: e148 87bd 90a7 85bc 00b6 3fbd 0e0b 0abc
00000040: 74af 173d 5ae7 70ba e1f8 e7bc a622 2d3b
00000050: 30f0 8dbd edf3 a13c c89b 82bc 49fe 64bd
00000060: e993 6a3d 1ee8 4f3d 57ae 113d fbdf 553c
00000070: 2e8e 343c 030a 773d 76c1 35bd ddb1 ebbc
00000080: df1d 72bd 5106 c23c afc5 883d 3285 c13c
00000090: 8fe0 d3bc 0354 50bd 5a14 02bd 7893 c83b
000000a0: 205d 1ebc 6603 71bd f006 d33a 4cf2 1c3c
000000b0: 7a98 4c3b e872 28bd 28a5 643c 8a37 b1bc
000000c0: e37d 80bd af57 0bbd 5df8 4fbd c196 f3bc
000000d0: d074 3bbd 570b 5d3c 17db 1cbb fe0c 8c3c
000000e0: a928 1ebd 448f 223d 0c36 5c3c 2db9 5ebc
000000f0: 89cf c73c 8203 593d 7d05 debc 4275 39bc
00000100: 8f1f cc3c fd23 38bd 9d53 dcb9 3ca4 1abd
00000110: 7189 d6bc f0b3 dbbc e660 cbbc a44c 6f3c
00000120: 6ab4 12bd 642c f3bc a554 063b b801 013d
00000130: 335b dc3b aac6 70bd 6fde a2bc 7e0e 0dbd
00000140: aed1 cb3b adc4 f5ba ceff adb9 0919 dfbc
00000150: 80d1 31bc 3c0a 803c e2f8 493d d60f 39bd
00000160: 5d06 6a3c 8fc1 d53b eccd 6ebc 1d16 9d3c
00000170: 45df 60bd d35f 7e3c b6c9 343d 0cdd 463d
00000180: 9fec 2b3d f0af 303c 9192 2c3d cb46 79bd
00000190: cfd3 cd3c f532 46bc 90ab 9abd 92f6 e03c
000001a0: 6b82 36bc 96e8 b4bc e3d3 34bc 985e 60bc
000001b0: 73a2 763d cd5f 2ebd ee3e 8dbc 981b 5bbd
000001c0: a440 67bd 01a7 1e3b d5ef 2f3b 7dc7 c0bc
000001d0: 4711 2d3d c39b 98bd d53b f5bc 96a1 a3bd
000001e0: 319d acbc f5d2 24bd d627 3ebd 9070 843b
000001f0: d802 843d 54cb ddbc 7432 81bc 6398 c83c
0.018107256 0.05405075 0.07445802 -0.00023588474 0.034900416 0.00081156474 -0.022064745 -0.057330567
0.05341989 -0.039300118 0.013079743 -0.029339306 -0.066056974 -0.016315252 -0.046804428 -0.008425487
0.03703256 -0.00091897475 -0.028316917 0.0026418357 -0.06930578 0.019769633 -0.015943423 -0.055906568
0.057269964 0.050758474 0.035566654 0.013053889 0.011020226 0.060312282 -0.04437395 -0.028771335
-0.05911052 0.023684653 0.0667833 0.023623083 -0.025863914 -0.05086137 -0.03175769 0.0061210953
-0.009665757 -0.05884113 0.001610009 0.009579252 0.0031218813 -0.04112521 0.013955392 -0.021632928
-0.06274011 -0.03401917 -0.050773967 -0.029734971 -0.045765698 0.013491473 -0.0023934299 0.017096039
-0.038612995 0.03968741 0.01344062 -0.013593954 0.024390953 0.05298186 -0.027102226 -0.01131946
0.024917392 -0.044956196 -0.00042023967 -0.037754282 -0.026188584 -0.0268192 -0.024826478 0.014605675
-0.035816588 -0.029684253 0.002049723 0.03149578 0.006724739 -0.05878321 -0.019881455 -0.03443765
0.006220064 -0.001875063 -0.0003318772 -0.027233617 -0.010853171 0.01562988 0.04930962 -0.045181118
0.014283744 0.006523318 -0.014575463 0.019175583 -0.054900426 0.015525776 0.04413768 0.04855065
0.041973706 0.010784134 0.042131964 -0.06085853 0.025125412 -0.01209711 -0.07552254 0.027461324
-0.0111394925 -0.022083562 -0.011036846 -0.013694428 0.060213517 -0.04257183 -0.017241921 -0.053493112
-0.05645813 0.0024208429 0.0026845832 -0.023532623 0.042252805 -0.07451584 -0.029935757 -0.079898044
-0.021071048 -0.040240247 -0.04642471 0.004041739 0.06445855 -0.027074493 -0.015771128 0.024486726

action_model._continuous_distribution.mu.weight f4 [1, 128]
00000000: 5ffa a83c e7e1 4f3d 7ca6 343d ae7b 76bc
00000010: 27d7 433d 5c6d ac3c 4434 eebc 6a8e a9bb
00000020: a446 3b3d bae9 cfbc 3353 1abd 0522 c7bc
00000030: ef37 9fbc 882b bfbc 724b 3dbc 8167 4ebd
00000040: e1f0 223d 9781 8dbd 743d 87bc b5dc 073d
00000050: aba5 6c3c 9bd0 e6bc 5e8f 64bd eccf 0cbd
00000060: a973 e63c 2ea5 2f3d 04e9 2a3d b33c 44bc
00000070: 25f8 d8bc d8dd c23c 451e bd3b 2a7e 31bc
00000080: 189c 43bc 1113 e7bc e249 403c e6f2 393d
00000090: 6622 85bb 4aca 76bb 02ec 04bd 272e acbc
000000a0: 835d 8a3d 6c64 523b d9bc 0ebd 2ef3 11bd
000000b0: 37e8 953c 4a66 78bc c194 c9bc 2daa ddbc
000000c0: cee4 3c3c e9cb c6bc c7f2 54bc cee5 de3b
000000d0: aa16 c2bb b6f6 d33b 61d1 c3bb b1c1 9fbc
000000e0: 2a79 153b 39d4 9c3d 2b5d 0a3d 0087 093d
000000f0: 9264 5e3d f293 29bd 6382 05bd fbb5 16bd
00000100: cb7e d83c 1b7f b4bc 456a 303d d29a 1dbd
00000110: fced f0bc cb81 3cbd 4446 5bbd 68f5 a6bc
00000120: c35b 56bd 6718 19bd 3e76 0e3d 7c54 303d
00000130: 6446 853c 9cf4 49bc 9b76 ccbc fe7d 85bc
00000140: 75ca 4f3d b21a 973c 4b0e 7bbd 0514 013d
00000150: b994 51bc 59b4 c63c 1801 483d f510 b2bc
00000160: d7bf c2bc deee 5a3c cc37 663c d47f 6cbc
00000170: 3cd1 1ebd fb39 223d a540 f13b d05e 653d
00000180: 5aed 4a3d d802 11bd c08a 74bd 6cd8 0dbd
00000190: 6659 a63c 246d d33c c0b4 ad3b 70d1 9bbb
000001a0: 60aa ac3c 2d43 98bc 2c56 c83c 8c97 08bd
000001b0: bd30 aa3c f0ec d9bc 29b4 2abd d400 16bd
000001c0: 8313 28bc 8042 973b 3d59 473b be0d 00bc
000001d0: 945a 24bd 951c ecba 8052 24bc 2c44 fbbb
000001e0: 2159 1bbc 2b38 4dbc d8f6 a83b ac18 e03c
000001f0: 1f3d c83d aa62 c23c 6cfc 35bd fc52 31bd
0.020627199 0.050752547 0.044104084 -0.015044136 0.047812607 0.02104824 -0.029077657 -0.005174448
0.045721665 -0.025380004 -0.037677 -0.024308214 -0.01943585 -0.023336187 -0.011553632 -0.050391678
0.0397805 -0.06909483 -0.016508795 0.033169467 0.014443795 -0.028175643 -0.055800788 -0.034377977
0.028131323 0.042882137 0.041726127 -0.011977362 -0.026485512 0.023787424 0.0057714307 -0.0108333025
-0.011939071 -0.028207334 0.011736365 0.04539766 -0.0040629385 -0.0037657195 -0.032451637 -0.0210181
0.06756117 0.0032103313 -0.034848068 -0.035632305 0.018299205 -0.015161106 -0.024607064 -0.027058685
0.011529161 -0.024267154 -0.012997336 0.006802297 -0.005923112 0.006468619 -0.0059758876 -0.019501539
0.0022807815 0.07657666 0.03378026 0.03357601 0.05429513 -0.041400857 -0.03259505 -0.036794644
0.026427647 -0.022033265 0.043070097 -0.038477726 -0.029410355 -0.046022218 -0.053533807 -0.02038069
-0.052333605 -0.037376788 0.034780733 0.04304932 0.016268916 -0.012326386 -0.0249589 -0.01629543
0.050730187 0.018445347 -0.061292928 0.031513233 -0.012791806 0.024255918 0.048829168 -0.021736601
-0.023773117 0.013362614 0.014051389 -0.0144347735 -0.03877376 0.039606076 0.0073624426 0.055998623
0.049542762 -0.035403103 -0.059702635 -0.034630224 0.0203063 0.025808878 0.005301088 -0.0047551915
0.021077335 -0.01858672 0.024455152 -0.03334765 0.020775193 -0.026602238 -0.04167572 -0.036621884
-0.010258558 0.0046160817 0.003041818 -0.007815776 -0.040125445 -0.0018013889 -0.010029435 -0.007668039
-0.009481699 -0.0125255985 0.005156379 0.027355514 0.09777283 0.023728687 -0.04443018 -0.04329203

exp_avg f4 [128, 5]
00000000: e82c 94b9 8e82 5c3a 80de 2f37 5948 ec38
00000010: 6067 84b9 aa6e bab9 e16e 8dba ec9f 04b9
00000020: 4d7f 58ba 969e ed38 1f61 7238 4b84 deb9
00000030: 33af 25b9 27d5 23ba 5642 ad39 dfc6 36bb
00000040: 89d3 e43b 2880 eab9 5979 3eb9 12b6 48b8
00000050: 2784 0cba 43df 6b3b 5f07 7db9 a3a8 96b6
00000060: d941 17b8 4b3d 843a e771 28bb c3b2 96b9
00000070: a996 cbba 54fa 9a3a 5e5a 683c bde9 40bb
00000080: c641 fb39 5914 a23a baa7 03ba 1302 a4b9
00000090: 769a f9ba bd9e 78b7 250f 04ba 25a6 ecb7
000000a0: 8103 56bc 492f 2a3b 5e7c 8eb9 5bac 11ba
000000b0: 8330 12b9 0bb7 4d3a c17e 4b3a 3e7e efb5
000000c0: ab07 3f3a 60ab 133a c08b b83a d096 c63b
000000d0: 5d2d 69b9 d68f c739 cd11 2339 f129 b039
000000e0: e38d dbb9 1c66 ecb7 33b3 86b8 fec4 55b7
000000f0: 57a8 0cbc 0dc6 5c3c 358b 8bba 7969 76ba
00000100: 14b2 9f3a 362b f2b9 ef72 35ba 6c29 beb8
00000110: ae3b 1aba a4d0 b5b8 5c12 0239 48d9 f239
00000120: 9791 0339 131b 2b3a 2a9f 86b6 9928 08ba
00000130: 088e 00bb 39b3 a037 7716 a8b9 57a9 61b8
00000140: b5a2 8f3c b20e 9eb7 cfea 193a 7460 293b
00000150: 3c71 44ba 7754 9d3a 1475 c63a f836 15b9
00000160: 3df9 05b9 5974 4cb8 23e3 3fb8 483a 2e39
00000170: 7a03 dab8 16e2 46b9 3381 bf39 da01 59ba
00000180: 2250 763a 485f 8bb8 fdf5 81b9 50cd 03b8
00000190: cd2a b9b9 4a97 213b 5d5e 07b9 3132 7f37
000001a0: 22be 1b39 6fd5 c9b9 a584 053c a11b 01ba
000001b0: 53fd 3838 e3d8 e039 0df0 a53b f7e0 903b
000001c0: 597e d8b8 496c 2d3a d155 acb7 a09f 2b3a
000001d0: cf6a 923a fc00 c738 0a78 c639 7463 18ba
000001e0: c813 4e39 88b1 743a 8d6d 18b8 5e34 5c38
000001f0: abe8 c7b8 ab61 1dbb 01a6 7f3b 7e1d c2b9
00000200: e40d 71ba c5ff b1b8 865e 133b fb37 77ba
00000210: 795d d338 ebb7 143a ec60 d939 0e3d 51bb
00000220: bb8e 97ba 67e7 f436 b832 bdb8 3e00 bfb8
00000230: 5975 11b9 7ebf bc37 3e4f 13b7 8733 e5b8
00000240: afa1 5a38 1bf3 cfbb 374f b03c 6aa1 cdba
00000250: b8d5 8eba f705 953a 4c6b f5bb 99fd c63b
00000260: c84f 1aba 2a91 32ba 75bf 263a e346 743a
00000270: 2024 203b 87f4 3437 72d7 dc39 e40a c738
00000280: 026d 9aba b4ee 9aba 00ef 75b9 eda0 83ba
00000290: d76b dc39 149e 3dba c8d5 fb3a e57d 0bb9
000002a0: db61 c6b9 ca3f 0738 6e66 a6b9 3179 8939
000002b0: eb45 bb38 4ac0 9239 903a e538 c461 b6ba
000002c0: 3051 183c ea63 08ba 68d9 bdb6 9381 3b39
000002d0: 36c2 0839 8972 8bb9 bcf8 4238 2ca7 d5b8
000002e0: edc6 ae38 2729 a5bb adb3 1b3b d2b5 2ab9
000002f0: 5868 29b8 a9cd 34b8 8975 67ba cd3e bc3b
00000300: 2cc6 a8b9 a229 9f37 5e51 f7b8 87eb 263b
00000310: 155a 423b 25a1 36b8 af4e c139 a78b 80b9
00000320: 00a8 cabb 8522 2b3c a570 3aba 2012 86ba
00000330: 8fbc 51b8 098f 26bb 28e8 cf3a a405 80b9
00000340: eed3 acb9 c8b1 f939 7aec 28bb 0e2b 9b3b
00000350: 5f13 8bb9 b1d0 dc37 e790 97b8 37f9 4239
00000360: bff6 463a 751c 1eb6 b987 f139 f017 f537
00000370: 76eb 1c3a a139 82b9 42dd bb38 ca0e 0e3a
00000380: 6e4f 7139 28eb 303a c08f 0c3b 9717 28b8
00000390: f40f 5d39 32d0 e138 b61e e8ba c9e0 01bb
000003a0: 4e8b 68b7 322a 07ba 4939 4d38 dc0c 24bb
000003b0: 8254 b83b fd40 cfb9 4882 1cb9 3825 e239
000003c0: 92f0 2f39 88e3 3c3a 3dae 9037 f9da 8739
000003d0: f726 4c38 18b8 1c3a 3a8c d8b9 9a5e e237
000003e0: f49e 1339 5f71 a738 14b4 73bb 7f99 4c3c
000003f0: 8e42 57ba f370 3aba 86ae a138 5b58 9abb
-0.00028262218 0.0008411788 1.0482618e-05 0.00011266833 -0.00025254022 -0.00035559136 -0.0010790491 -0.00012648077
-0.00082587154 0.000113305796 5.7787747e-05 -0.00042441706 -0.00015800893 -0.0006249719 0.00033046555 -0.0027889533
0.006983225 -0.00044727442 -0.00018165018 -4.7853282e-05 -0.00053602684 0.0035991229 -0.00024130706 -4.4899803e-06
-3.606253e-05 0.0010089068 -0.0025702657 -0.00028743417 -0.0015532571 0.0011823871 0.0141817015 -0.0029436194
0.00047923456 0.0012365683 -0.00050222466 -0.00031282063 -0.0019043225 -1.4818911e-05 -0.0005037657 -2.821076e-05
-0.013062359 0.0025968126 -0.0002717701 -0.0005556994 -0.00013941717 0.0007847405 0.0007762723 -1.7843629e-06
0.00072872144 0.0005633142 0.0014079735 0.0060604587 -0.0002223751 0.00038063404 0.00015551523 0.00033600585
-0.0004187665 -2.818094e-05 -6.4229964e-05 -1.2741655e-05 -0.008585057 0.013474953 -0.0010646345 -0.0009399872
0.0012183809 -0.00046190032 -0.00069217285 -9.0676214e-05 -0.0005883527 -8.669615e-05 0.00012404606 0.00046319724
0.0001254737 0.00065271667 -4.0120403e-06 -0.0005194038 -0.0019615907 1.9156943e-05 -0.00032060195 -5.380189e-05
0.01753364 -1.884191e-05 0.0005871476 0.0025844844 -0.000749368 0.0012003322 0.0015141093 -0.00014230225
-0.00012776717 -4.8745747e-05 -4.5749486e-05 0.00016615645 -0.000103956976 -0.00018966975 0.0003652662 -0.0008278169
0.0009396096 -6.645784e-05 -0.00024788073 -3.1424046e-05 -0.0003531784 0.0024656826 -0.00012909756 1.52108705e-05
0.00014852782 -0.00038496728 0.008149301 -0.00049250765 4.4104945e-05 0.00042886203 0.0050640167 0.004421349
-0.00010323217 0.0006615562 -2.054396e-05 0.00065469183 0.0011170747 9.489243e-05 0.0003785494 -0.00058131595
0.0001965306 0.00093343155 -3.634165e-05 5.2500858e-05 -9.532397e-05 -0.0024014513 0.0039008858 -0.00037024537
-0.000919549 -8.4876585e-05 0.002248676 -0.0009430644 0.00010078675 0.0005673158 0.00041461678 -0.003192726
-0.0011562923 7.2987054e-06 -9.0216694e-05 -9.107635e-05 -0.00013871993 2.2500517e-05 -8.780333e-06 -0.00010929169
5.212583e-05 -0.006346119 0.021522148 -0.0015688364 -0.0010897433 0.0011369576 -0.0074895974 0.0060727117
-0.0005886522 -0.0006811792 0.0006360927 0.0009318424 0.0024435595 1.07857695e-05 0.0004212219 9.491088e-05
-0.0011781754 -0.0011820407 -0.00023454055 -0.0010042466 0.00042042017 -0.00072333333 0.0019213492 -0.00013302972
-0.0003783841 3.2245916e-05 -0.00031738303 0.0002622097 8.929878e-05 0.00027990557 0.00010930479 -0.0013914634
0.0092967 -0.00052028766 -5.6579483e-06 0.0001788198 0.0001304232 -0.0002659748 4.6484856e-05 -0.0001018777
8.3340194e-05 -0.005040306 0.0023758218 -0.00016280197 -4.0389918e-05 -4.310688e-05 -0.0008829465 0.005744791
-0.00032191107 1.8973664e-05 -0.000117930336 0.0025469975 0.0029655744 -4.354226e-05 0.00036870452 -0.00024518112
-0.006184578 0.010445242 -0.0007112122 -0.001022879 -5.0005092e-05 -0.0025414845 0.0015862035 -0.00024418265
-0.00032964296 0.00047625438 -0.0025775717 0.004735357 -0.0002652658 2.6323223e-05 -7.227231e-05 0.00018594122
0.00075898686 -2.3560399e-06 0.00046068223 2.9217423e-05 0.0005986014 -0.0002483847 8.958067e-05 0.0005419074
0.00023013141 0.0006748908 0.0021447986 -4.007629e-05 0.00021082145 0.000107676155 -0.0017709348 -0.001981782
-1.3860712e-05 -0.0005156129 4.892916e-05 -0.002503208 0.0056253085 -0.00039530537 -0.00014925853 0.0004313381
0.0001677892 0.00072055357 1.7247274e-05 0.00025912354 4.867368e-05 0.000597836 -0.00041303207 2.6985352e-05
0.00014078227 7.9842976e-05 -0.0037186192 0.012487768 -0.00082115165 -0.00071121677 7.709586e-05 -0.00471024

exp_avg_sq f4 [128, 5]
00000000: 105f 4d38 365e 133a dbcb 1439 af09 053b
00000010: c289 a739 4112 5638 9073 e439 8217 0239
00000020: 090a 3e3b 940c d639 e5a8 0439 3cbd be3a
00000030: c356 b739 5f55 ee3b cfe4 743a 3e46 4738
00000040: 5ff5 303a 6a24 2a39 6ddb 7a3b c913 ba39
00000050: b270 ae37 0cc4 8e39 9674 b138 74a8 a43a
00000060: 8b05 2539 fedb 643a 193d 003c 7737 133b
00000070: 7c90 393d d26f c43b 75ae 873a a286 383c
00000080: 3925 343b a3ab 093d 0947 ab3b 3131 cb37
00000090: 604a d139 2597 9f38 917f db3a 22f3 2839
000000a0: c163 8e3a 3250 3a3c 4153 323b c1ed 443d
000000b0: e438 bc3b 42be ec38 7e33 bf3a 899d e139
000000c0: dbe7 0a3c 57a8 ad3a 406d a939 87ce 693b
000000d0: b4fa a13a 390b ec3c bfdd 483b 791d 3238
000000e0: 0763 ca39 1447 b038 550b 223b 2581 8939
000000f0: 5f82 a43a 4d6f 513c 818f 5b3b a6fa 3c3d
00000100: 12e6 db3b 5a24 7739 0120 7f3b 33fc a43a
00000110: 6229 bb3c 6a4e 213b cd8e 2a39 a419 343b
00000120: 1238 5f3a a4bf 863c fa99 d13a f062 ac37
00000130: be62 a139 d3bc 3239 ffa9 543a 1691 7639
00000140: e3a4 213b 0599 d23c 6519 d73b fbc9 ea3d
00000150: 88fe 7c3c 5e97 aa37 bc91 dc39 e7fb 1439
00000160: d245 513b 21b6 8a39 adcc 6b38 98b3 723a
00000170: e0ab 4539 a4ba 483b 1403 e039 913f 6c38
00000180: 5593 b539 9219 1a39 e487 873b 9004 ed39
00000190: 64a4 9637 4bb5 3239 528d 8138 db71 9c3a
000001a0: ec6e 3939 5864 7c38 6883 103a ec9f 3239
000001b0: c81c 623b b360 fd39 d4e5 d738 8ac3 913a
000001c0: b994 5139 623e 353b 5c29 ed39 2e0c 3639
000001d0: 2f81 9d3a c52d d039 c4af 0d3c c46b 973a
000001e0: 1ff0 9737 bdc0 1c39 978c f937 c305 6d3a
000001f0: b516 0d39 147e e039 6dff 9f3b 88ed c73a
00000200: f1a3 083d eb47 493b e549 9c38 3b81 8f3a
00000210: 97f9 af39 4d4e a23b 2e1b 293a f6c6 c838
00000220: 553f 933a bd64 ae39 6b78 043c ee81 483a
00000230: 3710 bf37 41b6 3c39 8023 9838 b746 d53a
00000240: 792b 7b39 62ff b53a e50c 813c 6322 5d3b
00000250: 2b6d 3b3d e7cd e13b 3c8c d939 e325 a43b
00000260: 0a39 8f3a 4f14 883c 0f3c 0a3b 7c6f 5639
00000270: 75e7 713b 6365 993a 271d b63c efd2 163b
00000280: 3f09 3039 867f 013b 4d21 1b3a 01a9 313c
00000290: e80a be3a d621 1638 8d20 093a af28 f638
000002a0: 9907 cf3a bae7 7639 6f88 e438 f719 2d3b
000002b0: b593 453a e9a7 363c 0200 953a 2b94 b138
000002c0: 4e14 253a 8a51 2439 64a2 ae3a 2f58 8939
000002d0: 25e8 0238 1ef5 0f3a 2a64 1d39 e434 3d3b
000002e0: a0eb a339 f1e7 5238 b879 1b3a c28e 1439
000002f0: 093e 243b 1a2d 9f39 0e58 b037 d761 4339
00000300: c94d 3d38 d09c f839 f115 d738 f06d 3c38
00000310: c2c3 183a ba67 6b39 f2c1 ce3a b321 9b39
00000320: 87cb 2c3a 176f 0f3c 843b 283b d57a 583d
00000330: 3aa2 af3b 582d 6039 caf2 013b a763 e939
00000340: 41bc 2a3c a533 b13a 418e fc37 24c8 f139
00000350: f752 0c39 4e2f 163b 1eec a439 6f58 8238
00000360: 395f 8639 1947 b638 524c a13a 34a6 8239
00000370: 30b6 2938 465b e239 b205 da38 2a2b 2a3b
00000380: a42e ba39 984e fc38 b8ad 0d3b 2fac 2e3a
00000390: af66 553c 0e26 a43a 7862 9b37 5742 8139
000003a0: db97 6438 8077 ad3a 657e d838 7573 2939
000003b0: 06bb ba3a de1c ad39 6d83 f53b 7662 693a
000003c0: faf3 5338 8fcf 163a 6ea1 5739 d0b5 a43b
000003d0: 66d2 013a 979a 2b38 acd8 433a 337d 5b39
000003e0: 0250 763b 4721 f339 a121 173a dbdf a73b
000003f0: e485 b43a 74d2 ed3c c2e2 603b 3f54 953a
4.8964343e-05 0.00056216435 0.00014190322 0.0020299961 0.0003195536 5.1038576e-05 0.0004357365 0.00012406523
0.002899768 0.00040826632 0.00012651419 0.0014552246 0.00034969122 0.0072733606 0.00093419565 4.7510715e-05
0.00067504303 0.00016226029 0.003827776 0.00035491426 2.0794894e-05 0.00027230417 8.4617335e-05 0.001256241
0.00015737691 0.0008730291 0.007827067 0.002246348 0.045303807 0.0059947753 0.0010351675 0.011262568
0.0027488007 0.03361095 0.005226974 2.4222392e-05 0.00039919 7.609864e-05 0.0016746392 0.00016112303
0.0010863469 0.011371659 0.0027210268 0.048078302 0.0057440866 0.00011288795 0.001458749 0.00043032717
0.00847813 0.0013249022 0.0003231559 0.0035676078 0.001235804 0.028813945 0.003064975 4.2465956e-05
0.00038602224 8.405573e-05 0.0024725993 0.00026226896 0.0012551061 0.012782884 0.0033502283 0.046137474
0.006710776 0.00023569298 0.0038928988 0.0012587368 0.022846881 0.0024613389 0.00016265661 0.0027481103
0.000851513 0.016448803 0.0015991323 2.055007e-05 0.00030781882 0.00017045745 0.00081124896 0.00023514437
0.002466493 0.025707731 0.0065643066 0.11464306 0.015441544 2.0336065e-05 0.0004207025 0.00014208221
0.0031932485 0.00026457108 5.6218985e-05 0.0009258329 0.00018851412 0.0030628825 0.00042726903 5.6325985e-05
0.0003463278 0.0001469611 0.0041360725 0.00045207562 1.7957944e-05 0.0001704294 6.177522e-05 0.0011935787
0.00017684296 6.0174934e-05 0.0005512745 0.00017034978 0.0034502018 0.00048327967 0.00010294808 0.0011120897
0.00019987197 0.0027655591 0.00045234978 0.0001736141 0.0012016649 0.00039706953 0.008647863 0.0011552502
1.8112418e-05 0.0001494912 2.974858e-05 0.0009041691 0.00013455267 0.00042818545 0.004882744 0.0015253285
0.03335947 0.0030713032 7.4524236e-05 0.0010948548 0.0003356456 0.004953182 0.00064508885 9.5738025e-05
0.0011234084 0.00033262922 0.0080853505 0.00076487556 2.2776525e-05 0.00017996972 7.254537e-05 0.0016271685
0.0002395342 0.0013885314 0.015753219 0.003374242 0.045758408 0.0068910006 0.00041493948 0.0050093993
0.0010927033 0.016611246 0.0021092927 0.00020450162 0.003691164 0.0011703189 0.022230698 0.002301391
0.00016788112 0.0019759848 0.0005917743 0.010843516 0.00144991 3.57943e-05 0.00052309857 0.00011737772
0.0015795111 0.00023546713 0.000108973 0.0026413181 0.00075369637 0.011148431 0.00113678 8.467616e-05
0.0006297276 0.00015670634 0.0013323543 0.00026196378 3.1210617e-05 0.00054915424 0.00015010001 0.0028870637
0.00031265337 5.0283914e-05 0.0005930918 0.00014167561 0.002506139 0.00030360447 2.1021839e-05 0.00018633097
4.5133555e-05 0.0004741908 0.00010256086 4.492508e-05 0.000582751 0.00022449988 0.0015774353 0.00029589012
0.0006591607 0.008754513 0.002567024 0.052851517 0.005359915 0.00021379197 0.0019828551 0.0004451547
0.01042086 0.001351942 3.0106983e-05 0.00046116218 0.00013382347 0.002291638 0.0003145644 6.215355e-05
0.00025629418 8.691679e-05 0.001230607 0.00024919363 4.0462415e-05 0.00043174083 0.00010396111 0.002596567
0.00035511435 0.000120309356 0.0021618437 0.00066632306 0.01302497 0.0012523548 1.8523293e-05 0.00024654224
5.4500862e-05 0.0013234466 0.000103232254 0.00016160107 0.0014246411 0.0003301864 0.007492474 0.00089029165
5.053354e-05 0.00057529745 0.00020564135 0.0050265566 0.0004952311 4.091355e-05 0.00074709463 0.00020932108
0.003758431 0.00046373365 0.0005765204 0.005123121 0.0013772813 0.029031016 0.0034314846 0.0011392905

exp_avg f4 [128]
00000000: 5664 42ba a67a 843a 69b3 88b8 c815 1fbb
00000010: 423a e9ba 0eaa 733b d491 9abb 3a0e 943a
00000020: 31ab 903b 6a17 1a39 dd60 78bb c927 6d39
00000030: 2dcf b0b9 3f0a 203a 21d8 9dba f395 a03a
00000040: 6171 f2bb 9df5 86ba ac62 9e35 dfb8 5539
00000050: 3838 6db9 3934 34bb 0f4a 74bb 5d52 9fba
00000060: 6690 51b9 07ee b839 2f19 7439 5667 6d3a
00000070: 6b06 49ba d535 39bb 2b25 443a d71f 13bb
00000080: 316d be3a 0968 f9b8 408d e6b9 f7fb 3abb
00000090: 3c7a 3eb9 969f c639 e079 11bb e35b 09bb
000000a0: 7ee9 cbba f624 4f3a f9e9 f8b9 6b1c 7aba
000000b0: f616 8739 0e4d 08bb a028 003b 01d7 7bba
000000c0: d2f6 31ba 16bc 203a aacc afba 98c7 e239
000000d0: 7dcd bdb9 c5ee 93ba b3fa b5b9 8dc6 f838
000000e0: 874f 93ba 47ae 1fbc 0a04 313a a0d1 5ebb
000000f0: cc2b 6bbb 935f 82b8 a7ae 4cba 6207 8138
00000100: fd3f f7b9 181a 27bb 5151 83ba a524 2b39
00000110: 89ef ddba ecd3 92ba 23bf 9bba 9cbf 27ba
00000120: f6cc 5bbb 1df3 2aba 7864 1b38 c2d7 f3b9
00000130: 5b68 fbb9 445c 26ba bf65 0339 17d4 b83a
00000140: 98ae b7bb 2035 12bb cff8 73ba 0620 fdb9
00000150: abc4 9fba 958f 01bb 7ba1 14b8 807a 8ebb
00000160: a217 6cba d5b8 cc3a 62d8 81bb 4502 53bb
00000170: f8d8 85bb 2ebf 6a39 1739 093b 90dc 0c39
00000180: f78d a9ba b40f f6ba 1a46 aa3a b922 08ba
00000190: f637 303a a4e3 7fbb 314d e4ba 9095 b0ba
000001a0: a00f 14ba f051 45bb 28e7 42ba e4d4 23ba
000001b0: 805f 12ba 96cd a4b9 f9c7 38bb eaeb b8b9
000001c0: 9ed4 c03a 5b7f a4b9 73d6 01ba 32f3 4e38
000001d0: fb02 93bb 9204 8ebb 9daa 6c3b aafc e13a
000001e0: 9840 43bb e10c c0ba c14f 05ba f3ab 83ba
000001f0: 0ca0 58ba ebf2 b7ba 017e 2fba d263 a9bb
-0.0007415464 0.0010107353 -6.518403e-05 -0.0024274457 -0.0017793851 0.0037180218 -0.004717091 0.0011295744
0.004414939 0.00014695307 -0.0037899532 0.00022616902 -0.00033723694 0.00061050424 -0.0012042561 0.001225172
-0.0073987697 -0.0010296587 1.1800635e-06 0.00020382133 -0.00022623024 -0.0027496947 -0.0037275588 -0.0012155283
-0.00019985586 0.0003527256 0.00023279035 0.0009056231 -0.0007668498 -0.0028260846 0.0007482345 -0.0022449398
0.0014528391 -0.00011892623 -0.00043974258 -0.002853153 -0.00018165348 0.00037884404 -0.0022197887 -0.002095931
-0.0015557257 0.0007901931 -0.0004747657 -0.0009540978 0.00025766314 -0.0020797881 0.0019555464 -0.0009606928
-0.0006788793 0.00061315426 -0.0013412435 0.00043254788 -0.0003620199 -0.0011286369 -0.00034709796 0.000118625445
-0.0011238911 -0.009746141 0.0006752616 -0.0033999458 -0.003588426 -6.216685e-05 -0.00078080076 6.1525745e-05
-0.00047159186 -0.002549773 -0.0010018741 0.00016321482 -0.0016932349 -0.0011202074 -0.0011882525 -0.00063990965
-0.0033538914 -0.0006521212 3.704845e-05 -0.00046509324 -0.00047952202 -0.0006346146 0.00012531037 0.0014101294
-0.00560553 -0.0022309497 -0.000930679 -0.0004827978 -0.0012189349 -0.001976942 -3.543634e-05 -0.004348099
-0.0009006207 0.0015619049 -0.0039625624 -0.0032197398 -0.0040847026 0.00022387199 0.002093857 0.00013433606
-0.0012935986 -0.001877299 0.0012990863 -0.00051931624 0.0006722206 -0.0039045596 -0.0017418024 -0.0013472307
-0.000564808 -0.0030108653 -0.00074349577 -0.000624968 -0.00055836886 -0.0003143369 -0.0028195365 -0.00035270985
0.0014711802 -0.00031375405 -0.0004952915 4.934072e-05 -0.0044864393 -0.004334041 0.0036112436 0.0017241437
-0.002979314 -0.0014652276 -0.00050854316 -0.0010045752 -0.0008263595 -0.0014034187 -0.0006694496 -0.00516937

exp_avg_sq f4 [128]
00000000: 5a1a 9b37 5a0a 8d37 cc47 4838 2848 db37
00000010: de3d 3c37 1c90 a239 521d bd39 a5dc 6737
00000020: 563b c639 9d4e 9138 a16c 2139 60b2 8537
00000030: cd82 f339 3441 1339 cc1c e138 5098 4b37
00000040: 7094 5f3a fbc8 8e37 2fec ef37 a3cd a337
00000050: 68ee 2537 f208 e137 09d8 1538 d4f6 5f38
00000060: 7bda e736 1526 3439 b37d 3438 36e3 4038
00000070: c405 3b37 1adb f439 e647 2339 6b58 0f39
00000080: adde 8438 007d 7b37 84c9 bb38 28a0 be37
00000090: fd16 a537 761d a637 e5c9 fa36 a541 b437
000000a0: 59cb 9f39 485f 9738 4b06 9737 b8da 7d37
000000b0: 8ebb 9537 c0bc b038 0a84 2837 c679 6e38
000000c0: e004 d437 e3db de37 007b 4239 e498 cb39
000000d0: 3091 8f36 e405 a939 f7da 3438 b94b c138
000000e0: f24c 4638 445d 3d3a ccd6 2638 9f34 4139
000000f0: c017 9939 a70e 8737 910b 4438 5983 5238
00000100: b5d9 f636 2cac 4738 2226 db37 5861 8e37
00000110: 543f dc39 a260 bf37 3769 7137 5345 3c37
00000120: 9c71 3738 dddc 4a37 0cdc 0e37 67bd 3339
00000130: 1fd2 2d37 cd4c 9c39 6ca0 1438 2bf1 7a39
00000140: 2207 c839 342f f837 f14b cd37 a358 3f38
00000150: b0df 9737 0bec 7038 7423 9138 ab90 3739
00000160: 61c6 0936 fbc0 3c37 8e4c e338 8e48 8539
00000170: d8a0 4f39 a116 0238 6394 1838 9611 9238
00000180: c213 323a 6a87 cd38 3a71 de37 366e af37
00000190: 383d 1f38 3533 d138 fbad 8838 173f 8639
000001a0: b979 1537 674c bf38 baf4 b538 ea09 1637
000001b0: e578 8a37 e4fd 8137 cb61 a138 264e 2637
000001c0: ca0e 9f37 290a 0137 ed65 0a38 ede1 3a37
000001d0: b9df 8f39 ab3c f238 b872 5e38 3e45 4c37
000001e0: 9801 8339 10a6 a939 d6f8 a937 4da4 7f38
000001f0: beff 3738 d553 fd37 fcda 2d37 0585 b038
1.848971e-05 1.681333e-05 4.7750582e-05 2.6140435e-05 1.1220078e-05 0.00031006418 0.00036070734 1.3820046e-05
0.00037809712 6.928782e-05 0.00015394624 1.5937898e-05 0.00046446026 0.00014043303 0.000107342 1.2135206e-05
0.0008528894 1.7021308e-05 2.8601002e-05 1.9526871e-05 9.890275e-06 2.6826256e-05 3.5725567e-05 5.339722e-05
6.909771e-06 0.00017180324 4.303241e-05 4.5987974e-05 1.1147411e-05 0.0004670255 0.00015571676 0.00013670481
6.335727e-05 1.498987e-05 8.95439e-05 2.2724344e-05 1.9680238e-05 1.980246e-05 7.474084e-06 2.148824e-05
0.0003047835 7.2179886e-05 1.8003533e-05 1.51309e-05 1.7849521e-05 8.4274914e-05 1.0044323e-05 5.6857032e-05
2.527464e-05 2.6566855e-05 0.00018547103 0.0003883309 4.278634e-06 0.0003223858 4.311927e-05 9.2170616e-05
4.727854e-05 0.00072236755 3.977753e-05 0.00018425517 0.0002920013 1.6100077e-05 4.6740814e-05 5.019023e-05
7.3567157e-06 4.7605645e-05 2.6124591e-05 1.6973048e-05 0.00042008853 2.2813972e-05 1.4389217e-05 1.1221814e-05
4.3736407e-05 1.2091562e-05 8.515093e-06 0.00017141328 1.0360526e-05 0.0002981186 3.5435354e-05 0.000239317
0.00038152287 2.9585884e-05 2.4473267e-05 4.5620498e-05 1.8104765e-05 5.744029e-05 6.9207425e-05 0.00017506133
2.0530063e-06 1.1250605e-05 0.00010838463 0.00025421794 0.00019800977 3.101549e-05 3.637782e-05 6.965098e-05
0.0006793105 9.8003846e-05 2.6517188e-05 2.0912947e-05 3.796557e-05 9.975435e-05 6.517392e-05 0.00025605477
8.909433e-06 9.121821e-05 8.6763364e-05 8.943005e-06 1.6507178e-05 1.5496225e-05 7.6952936e-05 9.912566e-06
1.8961164e-05 7.691365e-06 3.299669e-05 1.1139066e-05 0.00027441772 0.000115507595 5.3035765e-05 1.2175469e-05
0.00024987455 0.00032357918 2.0262243e-05 6.0949755e-05 4.386878e-05 3.0198988e-05 1.036259e-05 8.417111e-05

exp_avg f4 [128, 128]
00000000: d079 e538 4473 8839 77ad a039 7de9 a8b9
00000010: 2e35 abb8 cabb 8f39 343a 0fbb 0f6b 4f39
00000020: c080 95ba fc52 7eb9 bdfe 8eb9 585f 9e39
00000030: 8c23 fcb9 13b1 1939 132c ad39 7428 1339
00000040: 52bc b7ba 7a43 5cb9 6e4c 8d39 b9ca 9039
00000050: 0fa6 1bb9 58dd f7b9 70f7 caba 9a32 0c38
00000060: f2bf 3239 befe df38 a9f0 2eb9 660b d5b9
00000070: a8a6 b539 99d3 3d39 a434 90b8 d59d af38
00000080: 12e1 8439 fd9c ffb9 b9ca ebb8 2924 1aba
00000090: f5e7 b939 0320 f7ba 4173 92ba 9100 a5ba
000000a0: ff62 45b9 e229 5f38 ab77 2239 e3bd bf38
000000b0: d650 8939 6d96 7139 6977 9137 ed47 fab9
000000c0: 0be7 9738 96b7 8b39 2381 6c39 5f83 56b7
000000d0: 7044 6fb8 8540 2a39 479c 6f38 73d3 90b7
000000e0: 7b19 9e39 dee3 01bb ed8a 0337 0d62 03bb
000000f0: af3d 58ba 160f c7ba 103a ad39 13ee 9239
00000100: 6cd1 8639 21e5 92ba 9d20 9c39 4a40 8639
00000110: fc3a ed38 3c1a 7638 c974 a538 5212 78b9
00000120: 06fc f7b9 f060 6eb7 d5c5 4aba c280 e8ba
00000130: b52f 3939 9242 2338 197c 9639 3c73 34b8
00000140: 483a d3b9 37b2 8c39 8890 4eba 6bce 80ba
00000150: 94a0 eeb8 604b 91b8 f99f 67ba e1e5 3db9
00000160: 9eb9 34b9 07d0 2fb9 1749 a3ba 8ae2 b0ba
00000170: 2cd7 aa38 1e17 8239 dd64 46ba 02bb 9439
00000180: 779e 29b8 5fbc 02bb b906 9039 5c54 b2b8
00000190: 4382 7439 351b 93b9 1107 0139 7aee 35ba
000001a0: 6601 3339 01b2 ddb9 65e6 4439 9989 9a38
000001b0: 7ff3 8f39 ce89 7439 0326 afb7 4a23 9bb9
000001c0: eba8 2439 4b9d 71ba a4d6 8e39 e9c7 3f39
000001d0: 3f97 f6b9 ee92 e3ba 304c 1738 150f 81b9
000001e0: 478a feba 5a85 9539 f3b5 acb9 f1b8 88b9
000001f0: 594c dcb9 e799 e938 eaec 98ba 6f05 f3ba
00000200: c5b4 df39 7d14 563a ca6c 7b3a ff68 42ba
00000210: 37b6 5ab9 fc24 673a e6e3 fdbb a8b1 273a
00000220: 6a8c 5fbb c293 4dba 790f 5aba b1e3 783a
00000230: 9703 71ba 5679 293a 7119 843a 4874 043a
00000240: 1240 a6bb 8272 28ba 0c65 603a b979 703a
00000250: 9b51 e6b9 303b a0ba 0f5d babb ef56 bc38
00000260: 2dcd 303a 13c0 fd39 5be6 14ba b9a5 96ba
00000270: 8346 833a 4d75 723a 8df0 9137 8dbb 8b39
00000280: e899 563a fe41 a2ba 75a4 beb9 a0f3 e1ba
00000290: 0966 8b3a 1d4c d5bb 54ad 6dbb 5ab4 8abb
000002a0: 2ea1 c537 bfa8 5a39 9c7c 2b3a 0082 a639
000002b0: 1ac4 573a c275 4f3a baba edb6 3e2f 9bba
000002c0: d56c 8a39 21b5 5a3a cd73 8c3a e313 da39
000002d0: 6699 39b9 c6b6 803a a4fa 8739 2615 8638
000002e0: 7732 6d3a c956 eabb f809 9e38 456d ebbb
000002f0: a605 4cbb 5888 bbbb cfd6 823a d588 723a
00000300: 474a 623a 8473 86bb 2d92 773a 6a5e 513a
00000310: 6f42 603a 381f f439 559e 6339 66be e7b9
00000320: 6d70 caba 8637 dd39 1c0b 3cbb 421f d3bb
00000330: 56f5 2e3a e531 1a3a 1cc6 653a 0768 4438
00000340: 6761 c5ba bd88 693a e26a 36bb 4c2a 76bb
00000350: 0499 06ba e54b 20b9 253f 4dbb eb0d 2bba
00000360: c882 deb9 410f 3fba d045 93bb e971 9bbb
00000370: 1847 8f39 bd6b 633a 2c06 13bb 5e62 543a
00000380: 9c94 203a d415 e8bb d583 683a 7f01 a1b9
00000390: 1a66 503a 1020 64ba 4d36 f039 8ae0 deba
000003a0: e19b 173a 8155 50ba 6740 493a cb3d 3d39
000003b0: 669d 923a 8b2d 393a 99a4 b8b8 ee9e 8bba
000003c0: e032 0a3a 8202 2abb e46f 663a 3124 2c3a
000003d0: 0683 e8ba 1b2b d2bb f3c6 3539 dce6 83ba
000003e0: 84f9 efbb 7a29 943a c069 aaba 8088 5fba
000003f0: eed5 81ba fa9e 4b3a 1fc6 8cbb cd17 d9bb
0.0001094226 0.0002602582 0.0003064682 -0.0003221742 -8.163821e-05 0.00027415 -0.002185476 0.00019780941
-0.0011406168 -0.00024254242 -0.00027274145 0.00030207145 -0.0004809167 0.00014657182 0.0003302997 0.00014034082
-0.0014017916 -0.00021005972 0.0002695056 0.0002761686 -0.00014843814 -0.00047276425 -0.0015485119 3.3425727e-05
0.00017046908 0.00010680918 -0.00016683586 -0.00040635018 0.0003464718 0.00018103271 -6.87626e-05 8.374049e-05
0.00025344692 -0.00048754356 -0.00011243433 -0.0005880022 0.0003545877 -0.0018854145 -0.0011173264 -0.001258867
-0.00018824263 5.320635e-05 0.00015494104 9.142959e-05 0.00026190904 0.00023039589 1.7340952e-05 -0.00047737305
7.243276e-05 0.00026648928 0.00022554821 -1.2785981e-05 -5.7045778e-05 0.00016236499 5.7127585e-05 -1.7264601e-05
0.00030155093 -0.0019819657 7.840555e-06 -0.0020047456 -0.00082489377 -0.0015186991 0.0003304039 0.0002802467
0.00025714503 -0.0011207202 0.00029778937 0.0002560637 0.00011312027 5.8675403e-05 7.889566e-05 -0.00023657948
-0.00047299283 -1.42084755e-05 -0.0007735168 -0.0017738568 0.00017660747 3.8924227e-05 0.0002870269 -4.3022665e-05
-0.0004028848 0.0002683566 -0.0007879813 -0.0009827142 -0.000113786344 -6.9281785e-05 -0.00088357885 -0.00018110081
-0.00017235285 -0.00016766797 -0.0012457696 -0.0013495248 8.1463106e-05 0.00024812756 -0.00075681304 0.0002836809
-4.044032e-05 -0.0019948704 0.0002747083 -8.5034146e-05 0.0002331818 -0.00028058296 0.00012305031 -0.0006940138
0.00017071291 -0.00042285028 0.00018777845 7.368922e-05 0.00027456504 0.0002332099 -2.0879326e-05 -0.00029590196
0.00015703186 -0.0009216859 0.0002724427 0.00018289652 -0.00047033463 -0.0017362514 3.607216e-05 -0.00024616034
-0.0019419872 0.0002851885 -0.0003294196 -0.00026077733 -0.00042018553 0.00011138972 -0.0011667286 -0.0018541048
0.00042668558 0.0008166505 0.0009591101 -0.00074161583 -0.0002085798 0.0008817462 -0.007748115 0.0006397017
-0.0034110793 -0.0007842147 -0.00083183456 0.0009494378 -0.00091939553 0.0006464919 0.0010078383 0.00050527276
-0.0050735557 -0.00064257544 0.0008559979 0.00091734115 -0.0004392982 -0.001222467 -0.005687363 8.980731e-05
0.0006744441 0.00048399027 -0.00056800776 -0.0011493481 0.0010015521 0.00092490466 1.7397362e-05 0.00026651882
0.0008186386 -0.0012379286 -0.00036362154 -0.0017238744 0.0010635267 -0.0065093176 -0.0036266642 -0.0042329254
2.3559285e-05 0.00020852963 0.00065417006 0.00031758845 0.00082308205 0.00079139706 -7.0848882e-06 -0.0011839641
0.00026402497 0.00083430303 0.0010715664 0.00041595017 -0.0001770012 0.0009820096 0.00025935948 6.393557e-05
0.00090483524 -0.007151459 7.535884e-05 -0.007184657 -0.0031131296 -0.0057230406 0.0009982231 0.0009251957
0.0008632284 -0.004103126 0.0009444084 0.0007986786 0.0008554821 0.00046562566 0.0002170739 -0.0004420161
-0.0015444882 0.00042193773 -0.0028693145 -0.006442935 0.0006674131 0.00058820687 0.00087651773 4.6826925e-05
-0.0015058935 0.000890862 -0.0027834703 -0.0037561832 -0.00051344954 -0.00015287062 -0.0031318155 -0.0006525206
-0.0004244058 -0.0007288345 -0.0044944063 -0.0047438038 0.00027328054 0.0008675417 -0.0022434099 0.0008101816
0.000612566 -0.0070826802 0.0008869742 -0.00030709428 0.00079497846 -0.00087022875 0.00045816824 -0.0017004174
0.00057834206 -0.00079473114 0.0007677138 0.00018047464 0.0011185824 0.00070639764 -8.8044624e-05 -0.0010652223
0.0005271863 -0.0025941436 0.0008790477 0.0006566672 -0.0017739243 -0.00641383 0.0001733562 -0.0010063308
-0.0073234458 0.0011303865 -0.0013001487 -0.0008527115 -0.0009905675 0.0007767525 -0.004296079 -0.0066251517
