Assets/IA/Pruebas/results/Pad07/PadBehavior/PadBehavior-2944.pt (torch, 444539 bytes, 30 tensors)

network_body._body_endoder.seq_layers.0.weight f4 [128, 7]
0.35719422 0.39040607 -0.566458 -0.23511054 0.42408282 0.583972 0.30107152 0.289221
0.3293737 -0.040041275 -0.29779366 -0.14699338 0.40159667 0.31554613 -0.031781632 -0.735718
0.077141926 -0.17461596 0.52926606 -0.23200072 -0.27067938 -0.77083373 -0.08322417 0.38180155
0.2253556 0.4196594 -0.17402337 0.415923 0.05331369 1.2226121 -0.3242243 0.019239191
0.47150528 -0.40689296 -0.8463583 -0.9290791 -0.59530276 0.8497968 -0.17353615 0.10238694
-0.4544155 0.10049128 -0.013163677 0.20246604 0.01585037 -0.33612776 0.24146523 0.49406528
-0.027261442 -0.4395797 0.036442515 0.25064033 0.41309085 0.26048145 -0.13132128 0.12563229
-0.5849121 0.02901892 0.48993897 0.27436668 0.12981328 0.036510084 0.04586387 0.77353615
0.39703178 0.47087342 -0.4969858 -0.20787159 -0.021724535 0.09527154 -0.012228243 0.10911253
-0.2371323 -0.16376586 0.20257446 -0.10825442 -0.5740335 -0.2039338 0.2679814 -0.9252574
0.14999421 0.04018164 0.05583088 0.36177805 -0.1563723 0.3250961 0.10547215 0.08443816
0.6023679 -0.56359136 0.010529 -0.53958887 -0.5113816 -0.30613703 0.0957187 0.2249092
-0.080501355 0.16440813 -0.20463493 0.08663872 0.34256312 0.3523119 -0.04817805 -0.3576483
0.5351883 -0.15985921 0.47672495 0.017966323 -0.12682354 0.43014714 0.6301133 -0.12928687
0.2822578 0.33764938 0.10627721 0.16568056 -0.058339003 -0.570532 -0.50947225 0.18428124
-0.4024513 0.2622799 -0.11989338 -0.33902794 -0.5321617 0.09468149 0.1408072 0.3002356
0.1605254 -0.22980028 -0.22241928 -0.43760917 -0.4395326 -0.7430759 -0.37097967 -0.26954818
0.15919739 0.15033743 -0.42640197 0.31117964 -0.11948899 0.18341689 0.09901738 0.20840356
-0.11970099 -0.71124184 -0.16744001 0.49425057 0.25346288 0.09510416 -0.16446085 0.06031033
0.05805478 -0.4807 -0.096157305 -0.66491616 0.21993305 -0.023260247 -0.45855165 -0.1192626
-0.04190437 0.6519876 0.30689293 0.14229287 -0.41296756 -0.11019429 0.4282317 -0.37924019
0.8403857 0.059919566 -0.52805537 -0.21766075 -0.50292903 0.009685746 0.19875924 -0.1337514
-0.347222 0.031229112 -0.110276796 0.23231453 0.18123588 -0.0336032 -0.3583306 0.070086285
-0.07270507 0.00039171113 0.37374228 -0.56638896 0.5055387 0.25719452 0.006648528 -0.5458219
-0.59547275 0.12379813 0.3312901 0.055145856 -0.6651973 -0.6378953 0.01122988 -0.5450906
-0.091677934 0.7785784 -0.26444012 0.4828993 -0.40318176 0.019388335 0.2256509 -0.24291939
0.059563432 -0.25092003 -0.38924176 0.40663695 0.39444456 0.32213405 -0.07438723 0.09355333
-0.44474825 -0.014017334 0.18028112 0.1523087 -0.43852267 0.034985118 0.24825782 -0.017292807
0.04769927 -0.3056839 0.44946074 0.3052091 0.8375796 -0.2659977 0.31079087 -0.05868729
0.06021439 0.20650834 0.12478633 -0.39842564 -0.6153605 0.6192846 0.19358788 0.22165993
-0.17918721 -0.09546899 0.2850251 0.069241375 -0.46729767 0.15227892 -0.021999422 0.19543648
0.0790774 -0.0071131005 -0.26688382 0.07641977 -0.39636818 0.49382874 -0.5311686 0.57068634
00000000: 29e2 b63e 4ee3 c73e 6403 11bf d1c0 70be
00000010: 6221 d93e 307f 153f 0c26 9a3e c614 943e
00000020: aba3 a83e 5202 24bd 6978 98be 6f85 16be
00000030: 149e cd3e 438f a13e 752d 02bd 0458 3cbf
00000040: 96fc 9d3d 87ce 32be fb7d 073f 9991 6dbe
00000050: 7d96 8abe 5c55 45bf 6f71 aabd 7e7b c33e
00000060: 9ec3 663e 99dd d63e 2f33 32be dcf3 d43e
00000070: 755f 5a3d 8e7e 9c3f ba00 a6be 829b 9d3c
00000080: 2469 f13e 4654 d0be f0aa 58bf 21d8 6dbf
00000090: c365 18bf 488c 593f 76b3 31be 3eb0 d13d
000000a0: 26a9 e8be 5fce cd3d 77ac 57bc 4253 4f3e
000000b0: a3d8 813c f018 acbe a942 773e 20f6 fc3e
000000c0: 6353 dfbc 9710 e1be bf44 153d ee53 803e
000000d0: a580 d33e d35d 853e 1679 06be c0a5 003e
000000e0: cdbc 15bf 16b9 ed3c 48d9 fa3e ca79 8c3e
000000f0: c6ed 043e 998b 153d c1db 3b3d 7706 463f
00000100: c047 cb3e 5216 f13e ec74 febe 4adc 54be
00000110: a7f7 b1bc ba1d c33d f858 48bc 6476 df3d
00000120: cfd2 72be 3db2 27be ae6f 4f3e 7eb4 ddbd
00000130: dcf3 12bf 06d4 50be dc34 893e abdd 6cbf
00000140: 1598 193e 8195 243d ecae 643d f93a b93e
00000150: 0f20 20be ff72 a63e c801 d83d eaed ac3d
00000160: c834 1a3f 8647 10bf d481 2c3c 7f22 0abf
00000170: e8e9 02bf febd 9cbe 2a08 c43d 994e 663e
00000180: e5dd a4bd 9b5a 283e d28b 51be a46f b13d
00000190: 6f64 af3e 3a62 b43e 5956 45bd ae1d b7be
000001a0: 1a02 093f 22b2 23be 4b15 f43e 1c2e 933c
000001b0: 08de 01be 3f3c dc3e 1b4f 213f c763 04be
000001c0: 1884 903e 61e0 ac3e dea7 d93d 2aa8 293e
000001d0: e1f4 6ebd 630e 12bf c66c 02bf 39b4 3c3e
000001e0: 190e cebe 8d49 863e a98a f5bd 1295 adbe
000001f0: c03b 08bf 5ee8 c13d c32f 103e 7bb8 993e
00000200: c560 243e c450 6bbe e1c1 63be 4f0e e0be
00000210: 6b0a e1be 393a 3ebf 0cf1 bdbe 3802 8abe
00000220: a404 233e 0ef2 193e 5c51 dabe f052 9f3e
00000230: a5b6 f4bd a3d1 3b3e a0c9 ca3d be67 553e
00000240: cb25 f5bd f213 36bf 6575 2bbe 690e fd3e
00000250: e3c5 813e f8c5 c23d 6d68 28be f707 773d
00000260: d9ca 6d3d 4f1e f6be 1fee c4bd f237 2abf
00000270: 2136 613e 468c bebc 48c7 eabe f33f f4bd
00000280: eba3 2bbd a9e8 263f 1221 9d3e 39b5 113e
00000290: 7c70 d3be 8bad e1bd 2f41 db3e c52b c2be
000002a0: 8423 573f 386e 753d a32e 07bf 76e2 5ebe
000002b0: f5bf 00bf f7b0 1e3c 8b87 4b3e 21f6 08be
000002c0: 15c7 b1be 32d4 ff3c cdd8 e1bd dce3 6d3e
000002d0: e695 393e 82a3 09bd 1c77 b7be 6689 8f3d
000002e0: 65e6 94bd 945e cd39 265b bf3e defe 10bf
000002f0: fc6a 013f 00af 833e e5db d93b fcba 0bbf
00000300: e770 18bf e089 fd3d db9e a93e 9fe0 613d
00000310: 5f4a 2abf 1b4d 23bf 88fd 373c 0f8b 0bbf
00000320: a4c1 bbbd ea50 473f b264 87be 943e f73e
00000330: d76d cebe 49d4 9e3c 0811 673e dcbf 78be
00000340: c9f8 733d 9778 80be b24a c7be b832 d03e
00000350: a3f4 c93e c1ee a43e 5558 98bd e398 bf3d
00000360: 0bb6 e3be f6a8 65bc 9d9b 383e d0f6 1b3e
00000370: 0b86 e0be 8e4c 0f3d 4c37 7e3e a5a9 8dbc
00000380: 4f60 433d 9a82 9cbe b81f e63e 5e44 9c3e
00000390: 9e6b 563f da30 88be fb1f 9f3e 1562 70bd
000003a0: 5da3 763d ec76 533e fa8f ff3d 72fe cbbe
000003b0: 4488 1dbf 6f89 1e3f e73b 463e d2fa 623e
000003c0: da7c 37be 3f85 c3bd cfee 913e 6cce 8d3d
000003d0: a441 efbe 01ef 1b3e 2238 b4bc 8020 483e
000003e0: 55f3 a13d 0315 e9bb ffa4 88be f881 9c3d
000003f0: c5f0 cabe 1fd7 fc3e aafa 07bf 8018 123f

network_body._body_endoder.seq_layers.0.bias f4 [128]
-2.133034e-05 0.005860829 -0.005536133 -0.008745504 -0.0068150754 -0.0045614764 0.012586246 -0.0029192634
-0.00575721 0.002878749 0.0010253628 -0.0068020294 0.0030929192 -0.018894196 -0.00059333455 0.018424517
-0.014508606 0.0008701857 -0.0018620208 -0.0070454483 -0.023413576 -0.008333526 -0.00052023446 0.016725887
-0.0035377706 0.0016745557 -0.0021891354 -9.761542e-05 -0.0014116392 -0.008556325 -0.004655582 0.0017804842
-0.0013598549 -0.0044541215 -0.00154626 -0.0010988343 -0.010584554 -0.0053835195 -0.0028151025 -0.00077628554
0.0024856888 -0.005638802 -0.0032886227 -0.00037187163 -0.0024543623 -0.003576569 0.008020207 0.0045687053
-0.009509993 -0.00605528 0.0021661757 0.006435659 0.015515626 0.0030413514 -0.0058242255 -0.014540817
-0.011124894 -0.00058282696 0.004094382 -0.0022899613 0.0013573458 -0.0010129178 0.011778141 -0.005411075
-0.022416305 -0.0028494082 0.007744055 -0.0076552597 -0.00516263 -0.00083216815 -0.0028247966 -0.005001364
0.0034652266 -0.0024844965 0.0046210745 0.003919998 -0.007301963 -0.0016571813 -0.0028671895 -0.0062068957
-0.0016942541 -0.0067358683 -0.011878397 -0.007862053 -0.0025857757 0.0005070023 -0.009937808 -0.00576748
-0.0031733909 0.0013164342 -0.008694814 -0.009711407 -0.0027128588 -0.0076666255 0.0029799677 0.0035886588
-0.0009922745 -0.0043760114 -0.0008462741 0.00073398126 -0.006563431 -0.005492384 -0.0034506698 -0.0056513823
0.0026181072 -0.0042127483 -0.012272827 -0.00031813985 -0.012587095 -0.00191044 -0.0016230962 -0.003394907
0.004663703 -0.00033947252 0.0033386322 -0.0018412216 0.0020066674 -0.010074131 -0.010329849 -0.0035259202
-0.0062569585 0.0035278026 -0.004099759 -0.0050023645 0.005544294 -0.001872789 -0.0105009945 -0.0021514092
00000000: 8eee b2b7 320c c03b 7368 b5bb 4d49 0fbc
00000010: ff50 dfbb 7078 95bb 8b36 4e3c 1d51 3fbb
00000020: faa6 bcbb 65a9 3c3b 7765 863a 8fe3 debb
00000030: 93b2 4a3b 00c8 9abc 028a 1bba 03ef 963c
00000040: 81b5 6dbc 2c1d 643a 0d0f f4ba 81dd e6bb
00000050: d4cd bfbc 5789 08bc 5860 08ba ba04 893c
00000060: f1d9 67bb c47c db3a 9977 0fbb e1b6 ccb8
00000070: c006 b9ba d42f 0cbc da8d 98bb 235f e93a
00000080: 293d b2ba e1f3 91bb e0ab caba c306 90ba
00000090: d66a 2dbc 3c68 b0bb 957d 38bb a47f 4bba
000000a0: f0e6 223b b3c5 b8bb ef85 57bb c4f7 c2b9
000000b0: 5ed9 20bb df64 6abb 3067 033c 14b5 953b
000000c0: cdcf 1bbc 5f6b c6bb 66f6 0d3b 38e2 d23b
000000d0: 4135 7e3c 6951 473b 25d9 bebb 9b3c 6ebc
000000e0: 3045 36bc dbc8 18ba 2a2a 863b 2d13 16bb
000000f0: f8e8 b13a e2c3 84ba 1bf9 403c 634f b1bb
00000100: 66a2 b7bc 23bd 3abb d7c1 fd3b f9d8 fabb
00000110: 482b a9bb dc25 5aba 3920 39bb 7be2 a3bb
00000120: db18 633b efd2 22bb 626c 973b 5473 803b
00000130: 4e45 efbb c735 d9ba 75e7 3bbb 3763 cbbb
00000140: bc11 deba 8fb8 dcbb 9c9d 42bc d7cf 00bc
00000150: 1e76 29bb 59e8 043a 30d2 22bc 21fd bcbb
00000160: aaf8 4fbb 348c ac3a b174 0ebc 981c 1fbc
00000170: 38ca 31bb 5138 fbbb 904b 433b b42f 6b3b
00000180: 350f 82ba a564 8fbb 7ed8 5dba a668 403a
00000190: 0d12 d7bb 75f9 b3bb a224 62bb 3b2f b9bb
000001a0: 8d94 2b3b 180b 8abb f813 49bc 02cc a6b9
000001b0: 1a3a 4ebc bb67 faba 12be d4ba 177d 5ebb
000001c0: fad1 983b 3bfb b1b9 f4cc 5a3b 2555 f1ba
000001d0: 4b82 033b f80d 25bc 873e 29bc 2013 67bb
000001e0: 2c07 cdbb b532 673b 4557 86bb e0ea a3bb
000001f0: e9ac b53b 5f78 f5ba 5d0c 2cbc a8fe 0cbb

network_body._body_endoder.seq_layers.2.weight f4 [128, 128]
0.012081484 -0.007837326 -0.13038187 -0.063545056 0.028294655 -0.041564755 -0.13143082 -0.11134039
-0.109089695 -0.13408001 0.025679197 -0.050382584 0.11679093 -0.13342908 -0.18448423 0.14939272
0.07366721 0.06238598 -0.0650233 -0.08642181 0.10037428 -0.005701306 -0.09856344 0.039589874
-0.04219967 -0.021524353 0.06086855 0.07597003 -0.076631375 -0.13284712 -0.10736976 0.110693455
-0.08158237 0.14921136 0.09513874 -0.23376341 -0.042202175 0.1370022 -0.14678091 -0.027935725
0.029510392 -0.026440367 -0.10038214 -0.026472352 -0.03249227 0.023739452 -0.050206967 0.05082747
0.0670353 0.0016417167 0.028171243 0.087757275 -0.14155392 -0.037555803 0.0069497433 -0.029049056
-0.013253144 0.06325785 -0.00696827 0.07431487 -0.070661746 -0.02344022 -0.0028598688 -0.03258746
0.112995096 0.011190563 0.011150622 -0.060203075 -0.08261704 0.191675 -0.06069411 0.012198502
-0.05287789 0.0030688252 -0.069806784 -0.0014616053 -0.039920162 0.074219994 -0.14068758 -0.02821758
0.01840642 0.03722136 0.21775064 -0.02995096 0.0890711 -0.013223745 0.0034904294 -0.12640134
0.085334525 -0.0738855 -0.113031685 -0.043477584 0.08454566 -0.031725924 -0.15789722 0.020080782
0.105870165 -0.06205344 -0.075119354 -0.1269904 -0.045519568 0.048423912 -0.30386844 0.13372932
-0.031114196 0.09042978 -0.052077066 0.011436015 -0.032357432 -0.033656996 0.0643518 0.0124427015
0.05412593 -0.16806763 0.08387606 -0.14790918 0.14130744 0.0713477 0.025685083 0.04660782
-0.10986708 -0.08539729 0.05486504 0.039010953 -0.14486152 0.06397371 -0.029265262 0.22545163
0.06050912 -0.0123363845 -0.060120292 -0.08683203 0.04631349 -0.073057875 0.09696888 -0.077135466
0.03044445 -0.101307094 -0.045405447 0.0381142 0.002961995 0.04470703 -0.043029908 -0.075651854
0.092660494 0.0015330825 -0.17519428 0.026366295 -0.07444083 -0.13709275 0.07902589 -0.015719276
-0.025276184 0.007499615 -0.030425068 0.16515777 -0.06471641 -0.029062785 -0.061799902 0.0550621
0.107266895 -0.17564863 -0.36804265 -0.025227226 0.045033645 0.06603563 0.036385838 -0.03484733
0.07037193 0.2549729 -0.093528725 -0.011983338 -0.07952624 0.030652018 -0.19804685 0.06482373
-0.0014206769 0.08462935 0.082034744 -0.08430667 0.08511381 -0.064818524 0.16318002 0.08625776
0.07752775 0.035119712 -0.09057747 0.04341223 0.09235779 0.13903601 0.122922406 0.011152086
-0.1336543 -0.09003588 0.07786534 -0.0038415047 0.15742804 0.0049904 0.10577564 -0.14255981
-0.027952673 0.122677274 0.06334692 -0.027356854 -0.03802499 0.009160755 0.071688615 0.15320133
-0.12336133 -0.08780353 -0.035755876 -0.08106806 0.066328555 -0.07702036 -0.1335873 -0.18766147
0.023572994 0.05913051 -0.028764693 -0.012532486 0.09791802 -0.006195499 -0.1437863 -0.055461995
-0.051369075 -0.2321217 0.010642354 0.09797292 0.13278428 0.049942184 -0.05516749 -0.051907703
-0.03322767 0.025150748 -0.07563856 -0.0555453 0.06919367 0.09299179 -0.034836363 -0.038005598
0.0015596644 0.14943339 -0.0331666 -0.03604361 -0.006529923 0.05747954 -0.14035505 0.19154018
-0.15241356 -0.029729357 -0.076770365 0.042089373 0.112572804 0.10975446 0.019115293 0.05892544
00000000: 6bf1 453c 2168 00bc d382 05be e923 82bd
00000010: 31ca e73c ce3f 2abd cd95 06be 6e06 e4bd
00000020: 6b6a dfbd 454c 09be 2e5d d23c f85d 4ebd
00000030: 1530 ef3d a2a1 08be 6fe9 3cbe 68fa 183e
00000040: d6de 963d 7188 7f3d f02a 85bd ebfd b0bd
00000050: 0891 cd3d 05d2 babb a1db c9bd fe28 223d
00000060: 90d9 2cbd d753 b0bc 4d51 793d 2d96 9b3d
00000070: e9f0 9cbd 1309 08be ade4 dbbd 40b3 e23d
00000080: a814 a7bd ddca 183e 1ad8 c23d ad5f 6fbe
00000090: 30dc 2cbd 4e4a 0c3e bc4d 16be 76d9 e4bc
000000a0: c7bf f13c 7899 d8bc 2795 cdbd 8cdc d8bc
000000b0: 9d16 05bd 3d79 c23c d2a5 4dbd 7730 503d
000000c0: ce49 893d df2e d73a 61c7 e63c 16ba b33d
000000d0: 83f3 10be 1dd4 19bd acba e33b 49f8 edbc
000000e0: b723 59bc 558d 813d 1656 e4bb 6532 983d
000000f0: 1bb7 90bd b405 c0bc a36c 3bbb 6e7a 05bd
00000100: f969 e73d a058 373c 19b1 363c 8097 76bd
00000110: 1f33 a9bd 7446 443e 639a 78bd 3adc 473c
00000120: 7d96 58bd 581e 493b dcf6 8ebd 5693 bfba
00000130: 5383 23bd a700 983d 6810 10be 8e28 e7bc
00000140: 0fc9 963c 6d75 183d 06fa 5e3e b75b f5bc
00000150: e96a b63d 68a8 58bc b0bf 643b 5a6f 01be
00000160: dec3 ae3d 4851 97bd 287d e7bd 8d15 32bd
00000170: 4626 ad3d 0bf3 01bd cfaf 21be 7480 a43c
00000180: 75d2 d83d bf2b 7ebd 2dd8 99bd c509 02be
00000190: ba72 3abd 2758 463d a594 9bbe 57f0 083e
000001a0: 33e3 febc 4033 b93d c34e 55bd 205e 3b3c
000001b0: 3a89 04bd ebdb 09bd e0ca 833d 79dc 4b3c
000001c0: 27b3 5d3d ec19 2cbe 36c7 ab3d 8175 17be
000001d0: e6b2 103e be1e 923d 8669 d23c d7e7 3e3d
000001e0: fe01 e1bd c6e4 aebd 2aba 603d f3c9 1f3d
000001f0: 9456 14be a604 833d b4bd efbc cbdc 663e
00000200: 69d8 773d 8c1e 4abc b240 76bd fed4 b1bd
00000210: 37b3 3d3d 5e9f 95bd 9f97 c63d 33f9 9dbd
00000220: a466 f93c 187a cfbd 10fb 39bd a31d 1c3d
00000230: 081e 423b b81e 373d 2140 30bd 5cef 9abd
00000240: c9c4 bd3d b6f1 c83a 2166 33be 21fe d73c
00000250: 6f74 98bd 0b62 0cbe 53d8 a13d b6c5 80bc
00000260: 0010 cfbc 55bf f53b fe3d f9bc 1e1f 293e
00000270: 0a8a 84bd 1415 eebc e521 7dbd cc88 613d
00000280: bfae db3d 3cdd 33be 1670 bcbe 54a9 cebc
00000290: 3375 383d b03d 873d 5109 153d 13bc 0ebd
000002a0: 291f 903d cf8b 823e fd8b bfbd c355 44bc
000002b0: a7de a2bd f119 fb3c cbcc 4abe 4ec2 843d
000002c0: 0236 baba 2752 ad3d d501 a83d faa8 acbd
000002d0: 2650 ae3d 93bf 84bd aa18 273e e9a7 b03d
000002e0: dec6 9e3d b0d9 0f3d ae80 b9bd 06d1 313d
000002f0: 1526 bd3d 755f 0e3e bebe fb3d 3db7 363c
00000300: acdc 08be bb64 b8bd dd77 9f3d c1c1 7bbb
00000310: d134 213e 8286 a33b e6a0 d83d 33fb 11be
00000320: 01fd e4bc 393e fb3d 08bc 813d 7b1b e0bc
00000330: 18c0 1bbd fe16 163c 7bd1 923d cfe0 1c3e
00000340: dda4 fcbd 56d2 b3bd c174 12bd 0307 a6bd
00000350: 44d7 873d dabc 9dbd 1ccb 08be 542a 40be
00000360: 271c c13c d532 723d efa3 ebbc 0e55 4dbc
00000370: 3e89 c83d 9d03 cbbb b73c 13be 1e2c 63bd
00000380: 6168 52bd 50b1 6dbe 455d 2e3c 07a6 c83d
00000390: 9af8 073e 2d90 4c3d 4ef7 61bd 2c9d 54bd
000003a0: bd19 08bd f108 ce3c 64e8 9abd 7883 63bd
000003b0: 69b5 8d3d 7b72 be3d 93b0 0ebd c2ab 1bbd
000003c0: a76d cc3a 1105 193e b3d9 07bd 77a2 13bd
000003d0: f7f8 d5bb ab6f 6b3d 3cb9 0fbe 1c23 443e
000003e0: 4d12 1cbe fb8a f3bc c839 9dbd e865 2c3d
000003f0: 928c e63d f2c6 e03d ad97 9c3c cd5b 713d

network_body._body_endoder.seq_layers.2.bias f4 [128]
0.004391856 -0.003270743 -0.0005124702 -0.003553428 -0.00064713054 -0.0011404015 0.00045250065 -0.004962997
-0.0045878044 -0.0023674767 -0.006469911 -0.0055551925 -0.006264999 0.0014482077 -0.00033171667 0.0013177661
-0.012535915 -0.0044256914 -0.0029329872 -0.005331346 -0.0052639293 -0.0012354534 0.00032061845 -0.00032154995
-0.0053586117 -0.0048246207 -0.002414876 0.00036894286 0.0012057311 0.00077862473 0.0013398719 -0.005509275
0.00041868072 -0.00556367 0.0028849195 0.0046269065 -0.0031720789 -0.0044297064 -0.004525527 0.0009403437
-0.004688008 -0.0020923568 -0.0029153312 0.0022661122 -0.0019219599 0.0016575147 -0.0026282978 -0.0041431063
-0.008563974 0.008553969 -0.0066562924 -0.0007009489 -0.004284713 -0.005560968 -0.0037576642 -0.0040490716
-0.005128451 -0.0019953123 -0.001991665 0.0034744148 -0.008877855 -0.0036518194 -0.0025679953 -9.998488e-05
-0.0038735876 0.005948077 -0.0047681443 0.0021335636 -0.00044752265 -0.0046076695 -0.0050018467 -0.00217064
-0.0093505895 -0.0009569071 -0.011636737 -0.0024755194 -0.0027431909 -0.0018573113 -0.0059379973 0.00016163045
0.0032334507 -0.0010846244 -0.0003139692 0.004965834 -0.005882931 -0.000243897 -0.0028936234 -0.004374792
-0.0037529878 0.00072140555 0.0025359734 -0.00069357303 -0.0023392078 -0.0021192485 -0.00954246 -0.00450794
0.0036544136 -0.0007699674 0.0036317494 -0.0054137274 -0.004800867 -0.0023099368 0.0007434579 0.0005033114
-0.006953894 -0.0061711385 0.0009097293 0.0008233543 -0.0034666748 0.010711753 -0.0035282332 -0.006532219
-0.0037528567 -0.0026120385 0.0007997054 -0.00094070355 -0.0032382386 -0.0065977983 -0.0027073044 -0.004502526
-0.0026044399 -0.0027206247 0.008950149 -0.00029163368 -0.003816867 -0.0048423414 -0.0015704518 -0.0035890862
00000000: 8fe9 8f3b f659 56bb 4b57 06ba a1e0 68bb
00000010: 32a4 29ba 8679 95ba 9c3d ed39 a3a0 a2bb
00000020: 4b55 96bb ab27 1bbb 8c01 d4bb 5508 b6bb
00000030: 9f4a cdbb c9d1 bd3a 42ea adb9 e5b8 ac3a
00000040: 7063 4dbc 6405 91bb 5c37 40bb 92b2 aebb
00000050: 0a7d acbb f0ee a1ba ae18 a839 b495 a8b9
00000060: 4b97 afbb da17 9ebb e542 1ebb ac6e c139
00000070: 9f09 9e3a 9f1c 4c3a a49e af3a 2687 b4bb
00000080: 6082 db39 724f b6bb eb10 3d3b 4e9d 973b
00000090: a7e2 4fbb 1227 91bb df4a 94bb 6681 763a
000000a0: dd9d 99bb ec1f 09bb 240f 3fbb 0e83 143b
000000b0: 46ea fbba f740 d93a 853f 2cbb e5c2 87bb
000000c0: e94f 0cbc f225 0c3c 071d dabb e2bf 37ba
000000d0: c766 8cbb c838 b6bb 2543 76bb 13ae 84bb
000000e0: 910c a8bb c9c3 02bb 9886 02bb 02b3 633b
000000f0: 6c74 11bc 5d53 6fbb d04b 28bb f9ae d1b8
00000100: 04dc 7dbb 16e8 c23b 183e 9cbb 42d3 0b3b
00000110: 79a1 eab9 effb 96bb 88e6 a3bb 4c41 0ebb
00000120: 3733 19bc f3d8 7aba 03a8 3ebc 533c 22bb
00000130: 1bc7 33bb 0771 f3ba 8893 c2bb 587b 2939
00000140: 4de8 533b f529 8eba 3c9c a4b9 6fb8 a23b
00000150: 9ac5 c0bb 9abe 7fb9 f2a2 3dbb 6a5a 8fbb
00000160: b0f4 75bb b51c 3d3a 9332 263b e6d0 35ba
00000170: 654d 19bb 17e3 0abb fa57 1cbc 57b7 93bb
00000180: e37e 6f3b a3d7 49ba a502 6e3b a365 b1bb
00000190: 9750 9dbb 4f62 17bb 9de4 423a a8f0 033a
000001a0: 7edd e3bb 4337 cabb e67a 6e3a 5fd6 573a
000001b0: 2731 63bb 5980 2f3c ee39 67bb 390c d6bb
000001c0: 7df2 75bb bc2e 2bbb 52a3 513a 8c99 76ba
000001d0: a138 54bb 5832 d8bb 086d 31bb ed89 93bb
000001e0: 40af 2abb 824c 32bb a5a3 123c 69e6 98b9
000001f0: 6724 7abb 81ac 9ebb 9ed7 cdba e036 6bbb

action_model._continuous_distribution.mu.weight f4 [1, 128]
0.013032656 -0.012309291 -0.010973836 -0.02815618 0.018656654 -0.019739274 -0.022168893 0.0037282752
0.027129976 0.027209967 0.006046199 -0.02933513 -0.00023986612 0.02185407 -0.008447624 0.008906211
-0.00022436398 0.0054069567 0.014765428 0.00039016735 -0.003448445 -0.009367158 0.0054959324 -0.009354439
-0.0017869717 -0.000680563 0.024658183 0.016522955 -0.009180211 -0.024716295 0.01472329 0.007357758
-0.007980685 0.00036679071 -0.023640689 -0.03162583 0.0052636797 0.021537565 0.000382237 -0.036467694
0.005740767 -0.0011890157 -0.020019863 -0.0077861967 0.021286936 -0.019498985 -0.0038804708 -0.0020579048
-0.000511318 0.012506327 0.01235248 0.033251975 0.007269335 0.0035254047 0.05539629 0.010009796
-0.0025059287 0.01222015 -0.015506988 0.026151787 0.0010141595 0.011990605 0.00030080814 -0.014009515
0.009898684 0.023873193 -0.012333216 0.031775314 -0.007896025 -0.004112313 0.0039665615 0.011535211
5.344242e-05 -0.008446002 0.00021859219 -0.00064597063 0.020599637 -0.0088558905 0.003103395 0.032547615
0.018053876 -0.012982725 -0.010527716 -0.02506872 0.002800077 -0.018722638 0.0034385263 0.008291674
0.00071088795 0.008910173 0.014691443 -0.016813168 0.019380653 0.024807245 0.0014823774 0.005308682
0.024468785 0.006214122 0.022032095 0.007726274 0.0062207286 -0.004647471 -0.008084571 -0.024334952
0.00655996 -1.5814078e-06 -0.02949494 -0.025176499 -0.0054777493 0.027644904 7.536955e-05 0.0018156911
0.01813837 -0.007679226 0.0045252177 0.0101648895 -0.003960907 -0.000919032 0.018322144 0.0035317915
-0.012123956 0.015329256 -0.026197637 0.044273805 0.0018631668 0.007988049 -0.014567153 -0.00021554455
00000000: ec86 553c e9ac 49bc 9bcb 33bc caa7 e6bc
00000010: d7d5 983c 42b4 a1bc 8a9b b5bc 1456 743b
00000020: af3f de3c 70e7 de3c 311f c63b 3a50 f0bc
00000030: 9284 7bb9 4e07 b33c e767 0abc 5beb 113c
00000040: 3f43 6bb9 d72c b13b b2ea 713c 608f cc39
00000050: 4eff 61bb b578 19bc 3917 b43b 5c43 19bc
00000060: d238 eaba cf67 32ba f5ff c93c 265b 873c
00000070: 9968 16bc d479 cabc f439 713c 5919 f13b
00000080: 6bc1 02bc d14d c039 1eaa c1bc 168a 01bd
00000090: f27a ac3b 8c6f b03c fb66 c839 265f 15bd
000000a0: 0b1d bc3b bfd8 9bba b200 a4bc 5a23 ffbb
000000b0: f161 ae3c 56bc 9fbc 7f4f 7ebb eadd 06bb
000000c0: f809 06ba 56e7 4c3c 0e62 4a3c 3933 083d
000000d0: 9a33 ee3b 7a0a 673b 38e7 623d 2100 243c
000000e0: 823a 24bb 0637 483c 0611 7ebc 463c d63c
000000f0: 8ced 843a 3e74 443c c9b5 9d39 2a88 65bc
00000100: 172e 223c b791 c33c 4211 4abc d526 023d
00000110: 545e 01bc 95c0 86bb eef9 813b 2efe 3c3c
00000120: 5d27 6038 1a61 0abc e535 6539 5b56 29ba
00000130: 92c0 a83c 4c18 11bc 5462 4b3b a650 053d
00000140: b9e5 933c 7fb5 54bc 717c 2cbc eb5c cdbc
00000150: 7f81 373b 3860 99bc e658 613b cdd9 073c
00000160: e25a 3a3a f9fb 113c 61b4 703c c5bb 89bc
00000170: 2dc4 9e3c 9038 cb3c 554c c23a 74f4 ad3b
00000180: c372 c83c d59f cb3b a77c b43c af2c fd3b
00000190: 41d7 cb3b d049 98bb 2675 04bc 185a c7bc
000001a0: eff4 d63b c240 d4b5 5f9f f1bc f23e cebc
000001b0: b17e b3bb 9177 e23c b80f 9e38 7cfc ed3a
000001c0: eb96 943c 04a2 fbbb 4748 943b a38a 263c
000001d0: 7fca 81bb 32eb 70ba 5218 963c a175 673b
000001e0: 8fa3 46bc 8f27 7b3c 6d9c d6bc 7358 353d
000001f0: 8135 f43a 4ee0 023c 11ab 6ebc cd03 62b9

exp_avg f4 [128, 7]
-1.4295714e-06 1.0367435e-05 -5.125906e-06 -1.5626574e-05 8.6634045e-06 -2.935814e-05 8.807441e-06 2.1694843e-05
-0.0001743319 0.000101650985 0.00032058498 -0.00017919659 0.000114772214 -3.443167e-05 -2.4269507e-06 -4.1142383e-05
2.1089536e-05 8.0381054e-05 -4.4875687e-05 4.7523416e-05 -1.4257024e-05 6.7929172e-06 -0.001097658 0.0005566792
0.0019792293 -0.0011058246 0.00088725507 -0.0002661765 2.5369538e-09 3.4214054e-08 -1.5880707e-08 -6.215865e-08
3.4580257e-08 -8.8118504e-08 2.6435561e-08 -6.1863495e-05 0.0056825043 -0.0029238022 -0.0103445565 0.005778867
-0.004910569 0.0014731706 8.518505e-06 1.7886921e-05 -6.268325e-06 -3.9541334e-05 2.200167e-05 -4.9087965e-05
1.4726383e-05 2.697569e-05 0.00012786391 -5.425518e-05 -0.00024754278 0.0001382435 -0.00013263003 3.9789018e-05
-2.0691039e-05 0.0016971404 -0.00087543443 -0.003093883 0.0017285576 -0.0014003196 0.00042009592 -5.08145e-07
1.24475155e-05 -6.420097e-06 -2.2027132e-05 1.2275587e-05 -2.1759737e-05 6.5279196e-06 -7.4895606e-06 6.8361046e-06
-5.401113e-06 -4.4473572e-06 2.4804788e-06 -2.9169846e-06 8.750965e-07 2.2323944e-05 4.069683e-06 2.9101946e-06
-3.4576693e-05 1.9268724e-05 -3.3321423e-05 9.996423e-06 -2.4987752e-08 6.461247e-08 -3.699258e-08 -8.3207865e-08
4.6221e-08 -1.3046535e-07 3.913958e-08 -7.277052e-05 0.00064190384 -0.00034203805 -0.0010791919 0.0006032054
-0.00039807928 0.0001194238 3.9326078e-05 0.00082358177 -0.00042100507 -0.0015857198 0.0008855026 -0.00087112794
0.00026133837 4.9245642e-05 0.00012561445 -4.0278774e-05 -0.00024379429 0.00013527485 -0.000435431 0.00013062931
4.1339854e-07 0.000101545 -5.272166e-05 -0.00018904069 0.00010558907 -9.54581e-05 2.863743e-05 3.170025e-05
-0.00036001875 0.00019258808 0.0006265837 -0.00035003497 0.00029617897 -8.885371e-05 -9.027868e-07 4.9519217e-06
-2.756581e-06 -8.08211e-06 4.5100655e-06 -5.4581715e-06 1.6374513e-06 1.796947e-05 0.00023979296 -0.0001117185
-0.0004352401 0.00024317585 -0.00019486363 5.8459096e-05 1.0176005e-05 -1.1700595e-05 8.049073e-06 8.027833e-06
-4.516215e-06 -7.163891e-06 2.1491699e-06 -7.46773e-05 0.00024830128 -0.00015654496 -0.00041069405 0.0002301151
4.611871e-05 -1.38356445e-05 -0.00010830258 0.0022126778 -0.0011525371 -0.0039111567 0.0021849587 -0.0018445648
0.0005533695 2.2385091e-05 -3.5576697e-05 3.0683084e-05 6.45718e-05 -3.6493813e-05 -0.00011610101 3.483032e-05
-2.0737216e-05 0.00057602924 -0.000305753 -0.0010526725 0.0005880233 -0.00051468046 0.00015440414 0.00027552238
-0.005559645 0.00293334 0.00995376 -0.005560544 0.0047281086 -0.0014184326 4.2386873e-08 -1.1187868e-07
6.5762364e-08 1.5147208e-07 -8.442812e-08 1.45644e-07 -4.3693188e-08 9.12345e-07 2.1786806e-05 -9.917047e-06
-3.749009e-05 2.0847816e-05 -4.8460548e-05 1.4538164e-05 0.00029447468 -0.012015829 0.006267521 0.02185387
-0.012207846 0.010573423 -0.0031720267 8.507936e-05 -0.0026332538 0.0013788377 0.004767639 -0.00266319
0.0023316753 -0.00069950265 0.00044470013 -0.014281028 0.007479521 0.025897365 -0.014466305 0.01263366
-0.0037900978 1.6866927e-05 4.878375e-07 4.0359864e-06 -1.9111258e-05 1.066909e-05 -1.284966e-05 3.854907e-06
-3.7540856e-05 -0.00034355564 0.00016351961 0.0006602253 -0.00036875132 0.00033992404 -0.00010197723 -0.00016033996
-0.0030578705 0.0014333136 0.0054541742 -0.0030462935 0.0028022593 -0.0008406778 -5.5381247e-06 -3.110321e-05
1.5626978e-05 6.700393e-05 -3.740743e-05 4.172226e-05 -1.2516676e-05 1.0084186e-05 0.0010271971 -0.0005172069
-0.0018737265 0.0010466316 -0.0009247583 0.00027742746 1.1662081e-05 0.0011216331 -0.0005764752 -0.0020867395
00000000: b3df bfb5 cbef 2d37 32ff abb6 d015 83b7
00000010: 0a59 1137 2046 f6b7 acc3 1337 52fd b537
00000020: ddcc 36b9 752d d538 3014 a839 b8e6 3bb9
00000030: ddb1 f038 b96a 10b8 b2de 22b6 4c90 2cb8
00000040: 6fe9 b037 4092 a838 e738 3cb8 e153 4738
00000050: 7431 6fb7 b7ee e336 4adf 8fba 1cee 113a
00000060: f5b5 013b 51f1 90ba ae96 683a 9b8d 8bb9
00000070: 9056 2e31 c0f2 1233 0b6a 88b2 147c 85b3
00000080: 6585 1433 a93b bdb3 6a14 e332 b6bc 81b8
00000090: 4d34 ba3b 439d 3fbb 377c 29bc a65c bd3b
000000a0: d7e8 a0bb 6717 c13a b3ea 0e37 df0b 9637
000000b0: 8054 d2b6 2fd9 25b8 3a90 b837 cde3 4db8
000000c0: 5511 7737 da49 e237 3513 0639 0e90 63b8
000000d0: a1c8 81b9 75f5 1039 9a12 0bb9 22e3 2638
000000e0: ab91 adb7 9572 de3a 697d 65ba bec2 4abb
000000f0: c590 e23a ee8a b7ba 5240 dc39 7567 08b5
00000100: acd5 5037 376c d7b6 e8c6 b8b7 3ff3 4d37
00000110: ae88 b6b7 670a db36 d64e fbb6 b161 e536
00000120: 353b b5b6 823a 95b6 4d76 2636 6ac1 43b6
00000130: 2ce8 6a35 4e44 bb37 508e 8836 c34c 4336
00000140: 7106 11b8 45a3 a137 9bc2 0bb8 4fb6 2737
00000150: a6a4 d6b2 15c1 8a33 c6e1 1eb3 02b0 b2b3
00000160: 8784 4633 0b16 0cb4 6c1a 2833 609c 98b8
00000170: 7045 283a 9253 b3b9 ac73 8dba 6e20 1e3a
00000180: 4cb5 d0b9 2a73 fa38 0ef2 2438 a3e5 573a
00000190: 58ba dcb9 edd7 cfba 1321 683a 685c 64ba
000001a0: 3e04 8939 1b8d 4e38 5fb7 0339 01f1 28b8
000001b0: 08a3 7fb9 91d8 0d39 8f4a e4b9 8af9 0839
000001c0: 10f1 dd34 8ff4 d438 7421 5db8 3939 46b9
000001d0: b36f dd38 ad30 c8b8 6a3a f037 e2f5 0438
000001e0: e6c0 bcb9 78f1 4939 5241 243a e684 b7b9
000001f0: 7848 9b39 f956 bab8 0957 72b5 af28 a636
00000200: b3fd 38b6 6698 07b7 2b55 9736 5625 b7b6
00000210: 66c6 db35 25bd 9637 ef70 7b39 6a4a eab8
00000220: f030 e4b9 05fd 7e39 4f54 4cb9 fa31 7538
00000230: 9cb9 2a37 ac4d 44b7 810a 0737 48af 0637
00000240: fe89 97b6 5b61 f0b6 753a 1036 129c 9cb8
00000250: 6f2e 8239 3826 24b9 6c52 d7b9 0d4b 7139
00000260: 966f 4138 a41f 68b7 8120 e3b8 9302 113b
00000270: ba10 97ba 2929 80bb 8631 0f3b 53c5 f1ba
00000280: 0010 113a 9ec7 bb37 3038 15b8 b6b1 0038
00000290: b96a 8738 ef10 19b8 417b f3b8 c516 1238
000002a0: d5f4 adb7 ab00 173a 794d a0b9 d4f9 89ba
000002b0: 9325 1a3a 9feb 06ba 8ce7 2139 fd73 9039
000002c0: af2d b6bb 473d 403b 1815 233c 3935 b6bb
000002d0: 40ee 9a3b b3ea b9ba dc0c 3633 f441 f0b3
000002e0: 3e39 8d33 54a4 2234 da4e b5b3 5162 1c34
000002f0: 2ba9 3bb3 dfe7 7435 cfc2 b637 6461 26b7
00000300: ad3e 1db8 58e2 ae37 1e42 4bb8 f0e8 7337
00000310: b963 9a39 0ade 44bc c75f cd3b e306 b33c
00000320: 6b03 48bc 263c 2d3c c7e1 4fbb a26c b238
00000330: ab92 2cbb 1eba b43a db39 9c3b ea88 2ebb
00000340: 05cf 183b d45e 37ba a426 e939 f9fa 69bc
00000350: c516 f53b b626 d43c 1504 6dbc 69fd 4e3c
00000360: 4a63 78bb 737d 8d37 f0f3 0235 dc6c 8736
00000370: 1d51 a0b7 65ff 3237 df94 57b7 6659 8136
00000380: 3075 1db8 421f b4b9 7676 2b39 f812 2d3a
00000390: f754 c1b9 d537 b239 9cdc d5b8 ee20 28b9
000003a0: 8e66 48bb 06de bb3a eeb8 b23b 53a4 47bb
000003b0: 1ca6 373b ef60 5cba 21d4 b9b6 d174 02b8
000003c0: ae16 8337 7684 8c38 ece5 1cb8 f0fe 2e38
000003d0: b7fe 51b7 402f 2937 04a3 863a 2b95 07ba
000003e0: d497 f5ba 212f 893a 7b6b 72ba af73 9139
000003f0: 42a8 4337 c303 933a 991e 17ba aec1 08bb

exp_avg_sq f4 [128, 7]
1.4730001e-07 1.6011714e-06 6.234508e-07 6.021751e-06 1.8378037e-06 0.00011473882 1.032649e-05 4.6357858e-08
1.2529844e-06 3.8911455e-07 2.904853e-06 1.3998772e-06 2.9319533e-05 2.6387559e-06 1.4429246e-08 7.54594e-05
2.1736221e-05 3.077637e-06 8.876446e-05 4.711742e-06 4.2405648e-07 4.3207842e-07 0.00059203705 0.00017942548
0.002226128 0.00069630856 0.00015879988 1.4291974e-05 7.0162e-11 3.055479e-10 1.7654456e-10 1.5043413e-09
4.549516e-10 6.890703e-08 6.2016245e-09 2.7240774e-06 0.008561261 0.0024630474 0.026886253 0.010054958
0.0007874998 7.0875125e-05 4.1048928e-08 2.0622308e-06 7.2925684e-07 7.734216e-06 2.3916689e-06 1.5436452e-05
1.3892792e-06 5.7104977e-08 0.00018277908 5.30508e-05 0.00068979413 0.0002159552 1.8797795e-05 1.6918036e-06
1.9955885e-06 0.005172155 0.0015139782 0.019453263 0.0060975626 0.0006886018 6.1974126e-05 2.6158975e-07
0.0006052579 0.00016998965 4.1908478e-07 0.0007056581 4.1247735e-05 3.712294e-06 1.833996e-08 1.0391289e-07
4.202108e-08 4.0054334e-07 1.2304659e-07 2.1900827e-05 1.971073e-06 1.2574109e-08 4.977186e-07 1.6263019e-07
7.167392e-06 2.2365211e-06 8.580877e-06 7.722805e-07 1.55432e-12 1.2167879e-11 4.83043e-12 4.3415285e-11
1.33688165e-11 1.0803995e-09 9.7236e-11 1.2696762e-07 0.00043777036 0.00012623807 0.001488342 0.0005169317
3.6196707e-05 3.2577068e-06 2.2861923e-07 0.0004941221 0.00014386306 0.0010585206 0.0005799391 7.0857226e-05
6.3771563e-06 8.397237e-08 1.0915773e-05 3.1412592e-06 3.9541446e-05 1.2246537e-05 7.570221e-05 6.8131976e-06
3.8753385e-08 0.00021408785 6.22476e-05 0.0008111607 0.00025405246 1.3718691e-05 1.2346815e-06 6.15679e-07
0.001561188 0.00044903884 0.0035987182 0.0018328187 0.00014867657 1.3380898e-05 3.948351e-09 5.7345287e-06
1.5692355e-06 3.036631e-08 6.5968698e-06 5.255255e-07 4.729727e-08 1.7002579e-07 0.00080734433 0.0002338279
0.0030400888 0.0009534871 5.6050427e-05 5.044539e-06 4.9043415e-08 0.00016085946 4.6957968e-05 0.00060924
0.000191213 1.4497765e-05 1.3047983e-06 1.0506353e-06 3.4033495e-05 1.2286324e-05 0.00012968213 4.0225557e-05
0.0005428101 4.885291e-05 8.237122e-07 0.0019019746 0.0005453643 0.0056742686 0.0022275993 0.00023880893
2.1492813e-05 2.1213573e-08 2.076278e-06 5.830672e-07 6.6126936e-06 2.3095627e-06 1.9849726e-05 1.7864757e-06
2.8402565e-07 0.0005588277 0.00015594634 5.769433e-06 0.0006496539 4.148865e-05 3.733979e-06 1.4800137e-06
0.0010226275 0.00029644955 0.0013442744 0.0011906726 0.00047864814 4.30783e-05 1.7247946e-12 1.8883778e-11
5.97056e-12 6.59777e-11 2.0221531e-11 1.6000163e-09 1.440016e-10 6.702703e-07 4.0057366e-06 1.6993263e-06
1.5131204e-05 4.579829e-06 0.0006373475 5.7361198e-05 2.9471978e-06 0.0025643497 0.00077146443 0.007344713
0.0030055393 0.0010062809 9.056528e-05 4.4090604e-07 0.0005757232 0.00016772118 0.001137033 0.00067503675
0.00014962896 1.3466608e-05 1.31972065e-05 0.027490223 0.0080392035 0.10354119 0.032402385 0.00471878
0.00042469005 3.168315e-07 3.702343e-05 1.0442596e-05 1.0794215e-05 4.253781e-05 0.00020278839 1.8250941e-05
1.7591935e-07 0.00013279008 4.077406e-05 0.0004944576 0.00015460404 4.6800054e-05 4.2120055e-06 7.939698e-06
0.019146455 0.0055417432 0.05435712 0.02252037 0.0021297138 0.00019167416 3.3044452e-07 2.4337942e-06
1.0327749e-06 9.040926e-06 2.7518688e-06 0.00025066643 2.255996e-05 7.715052e-07 0.0023165278 0.0006667873
0.006718866 0.0027275628 0.00019447616 1.7502869e-05 9.888552e-08 6.1004714e-05 1.8484761e-05 0.00022946732
00000000: 8529 1e34 d5e7 d635 365b 2735 720e ca36
00000010: 74aa f635 ef9f f038 f03f 2d37 011b 4733
00000020: 372c a835 7fe7 d034 fff0 4236 6ae3 bb35
00000030: 38f3 f537 7b15 3136 7fe4 7732 f53f 9e38
00000040: 2e56 b637 6789 4e36 0e27 ba38 8e19 9e36
00000050: e1a9 e334 68f8 e734 ef32 1b3a 2924 3c39
00000060: 3be4 113b 7a88 363a 8583 2639 90c7 6f37
00000070: b249 9a2e 0bfa a72f e01c 422f 4ec1 ce30
00000080: bf1c fa2f 0afa 9333 1116 d531 4bcf 3636
00000090: 8844 0c3c 146b 213b 8f40 dc3c 8dbd 243c
000000a0: 3870 4e3a cba2 9438 c64d 3033 db64 0a36
000000b0: 26c2 4335 34c2 0137 8f80 2036 877d 8137
000000c0: 4577 ba35 9643 7533 63a8 3f39 dd82 5e38
000000d0: 4dd3 343a 0872 6239 f5af 9d37 ee11 e335
000000e0: f3eb 0536 2e7b a93b ae70 c63a 735c 9f3c
000000f0: 10ce c73b 4983 343a 1bf8 8138 9f70 8c34
00000100: 2caa 1e3a 403f 3239 93fe e034 eafb 383a
00000110: 6b01 2d38 ba20 7936 008a 9d32 b726 df33
00000120: ab7a 3433 420a d734 ca1e 0434 abb7 b737
00000130: c746 0436 8405 5832 f69a 0535 729f 2e34
00000140: 6e7f f036 2417 1636 96f6 0f37 b64e 4f35
00000150: 48c0 da2b 410f 562d a5f4 a92c 44f1 3e2e
00000160: cc2f 6b2d 2e7d 9430 00d3 d52e 9854 0834
00000170: 8b84 e539 c65e 0439 7814 c33a b382 073a
00000180: ebd1 1738 fa9e 5a36 607a 7534 f987 013a
00000190: f2d9 1639 0fbe 8a3a 0e07 183a 2f99 9438
000001a0: 5bfb d536 4c54 b433 e322 3737 6cce 5236
000001b0: 4ed9 2538 7a76 4d37 51c2 9e38 ec9c e436
000001c0: cc71 2633 c57c 6039 ed8a 8238 13a4 543a
000001d0: 5832 8539 5429 6637 55b7 a535 2445 2535
000001e0: c7a0 cc3a f96c eb39 79d8 6b3b 313b f03a
000001f0: 10e6 1b39 857e 6037 10aa 8731 3a6b c036
00000200: 859e d235 1c6c 0233 ae5a dd36 d611 0d35
00000210: e623 4b33 5590 3634 f6a3 533a b32f 7539
00000220: 3a3c 473b 70f3 793a b017 6b38 4344 a936
00000230: cea3 5233 62ac 2839 bcf4 4438 68b5 1f3a
00000240: 5980 4839 6d3b 7337 8720 af35 8e03 8d35
00000250: 30bf 0e38 5c21 4e37 48fb 0739 ddb7 2838
00000260: 5f4b 0e3a 6ae7 4c38 121d 5d35 ad4b f93a
00000270: c7f6 0e3a 37ef b93b eafc 113b c968 7a39
00000280: 774b b437 2439 b632 2f56 0b36 1384 1c35
00000290: 9be2 dd36 fcfd 1a36 f682 a637 d6c6 ef35
000002a0: 307c 9834 4b7e 123a 8785 2339 0d97 c136
000002b0: 894d 2a3a 1904 2e38 4595 7a36 e2a4 c635
000002c0: af09 863a c96c 9b39 5d32 b03a 5810 9c3a
000002d0: 11f3 fa39 f9ae 3438 46be f22b 7d1a a62d
000002e0: 0612 d22c 2516 912e d7de b12d 92e7 db30
000002f0: d954 1e2f a0ec 3335 0469 8636 6814 e435
00000300: 07dc 7d37 6eac 9936 ab13 273a 1e97 7038
00000310: 79c8 4536 a60e 283b 1a3c 4a3a ebab f03b
00000320: 95f8 443b 2fe5 833a dded bd38 aab5 ec34
00000330: 21ec 163a 50de 2f39 7f08 953a f3f4 303a
00000340: b8e5 1c39 a4ee 6137 9269 5d37 2d33 e13c
00000350: ddb6 033c 670d d43d 5db8 043d ff9f 9a3b
00000360: efa8 de39 fd18 aa34 9b49 1b38 9c32 2f37
00000370: cd18 3537 a06a 3238 98a3 5439 9919 9937
00000380: 58e4 3c34 913d 0b39 d004 2b38 7d9e 013a
00000390: 351d 2239 2d4b 4438 da54 8d36 be34 0537
000003a0: 07d9 9c3c 8397 b53b 92a5 5e3d a47c b83c
000003b0: ab92 0b3b 24fc 4839 f367 b134 4454 2336
000003c0: e09d 8a35 7bae 1737 bfac 3836 e16b 8339
000003d0: 253f bd37 6f19 4f35 e3d0 173b 57cb 2e3a
000003e0: ef29 dc3b e9c0 323b 4cec 4b39 20d3 9237
000003f0: e45a d433 50df 7f38 b90f 9b37 2a9d 7039

exp_avg f4 [128]
-2.935815e-06 1.1477217e-05 4.7523417e-06 8.872551e-05 -8.811852e-09 -0.0004910569 -4.9087953e-06 -1.3263005e-05
-0.00014003197 -2.1759738e-06 -2.9169829e-07 -3.3321446e-06 -1.30465345e-08 -3.980792e-05 -8.71128e-05 -4.354312e-05
-9.54581e-06 2.961789e-05 -5.458171e-07 -1.9486368e-05 -7.163899e-07 4.611876e-06 -0.00018445647 -1.1610101e-05
-5.1468047e-05 0.0004728109 1.4564391e-08 -4.8460543e-06 0.001057342 0.00023316746 0.0012633661 -1.2849686e-06
3.3992404e-05 0.00028022597 4.1722265e-06 -9.247581e-05 -9.987235e-05 -8.108945e-06 -0.0006222153 -9.4860814e-11
-2.5009388e-06 0.0003459694 1.1923105e-06 -3.129412e-07 -1.2171283e-05 6.830579e-06 2.1855804e-07 1.5207598e-06
0.000107780885 2.817894e-05 -3.1396808e-06 -0.00013224281 -3.9198265e-05 -1.8127736e-07 5.7668317e-06 -1.726028e-07
-2.3142342e-05 7.8001887e-07 -0.00016137701 0.00038867863 2.7758895e-06 -0.0006238333 -8.359459e-05 0.0005883009
-8.43339e-05 -0.00020315497 -3.883989e-05 -0.00017303991 -0.00013147084 -0.00035035488 1.5451269e-05 1.3660768e-06
-1.3178534e-06 0.0010856319 1.3392885e-07 -3.1849427e-07 0.00042736818 7.343196e-09 2.329137e-05 0.00021210863
-0.00016521337 0.00033320335 0.000117605065 2.8093213e-05 -3.6423444e-05 -4.707228e-08 -0.0001043432 -7.06895e-08
0.0008009831 -1.3215775e-08 -3.4738037e-05 -0.00015456283 5.495239e-06 5.656373e-07 -1.7559587e-05 -1.8803206e-05
-0.00045497276 -3.8983988e-05 0.00036723592 -0.0003358233 -0.0006781092 4.179002e-07 1.47561395e-05 -9.27643e-05
9.4093026e-05 -2.0210813e-05 -4.6633384e-05 0.00018805389 -0.00012252027 -0.00023651672 -3.5078202e-07 0.00035652868
6.2523377e-06 -0.00054454966 9.186124e-07 -0.00021466783 -3.3425087e-05 -0.00076497963 -0.0002670487 1.34637785e-08
0.00025185867 6.254946e-05 -0.0001083737 2.4656206e-06 -1.3826852e-07 1.2130458e-05 -5.396176e-06 3.5900705e-06
00000000: eb04 45b6 468e 4037 4e76 9f36 2512 ba38
00000010: ef62 17b2 45ba 00ba 3bb6 a4b6 2c84 5eb7
00000020: 8cd5 12b9 f206 12b6 b59a 9cb4 cf9d 5fb6
00000030: 4423 60b2 6ef7 26b8 54b0 b6b8 12a2 36b8
00000040: f126 20b7 ef73 f837 4484 12b5 a876 a3b7
00000050: f04d 40b5 b7bf 9a36 a86a 41b9 01c9 42b7
00000060: 65df 57b8 9be3 f739 de36 7a32 4a9b a2b6
00000070: 8396 8a3a 6a7e 7439 8897 a53a 2f77 acb5
00000080: 1193 0e38 4beb 9239 27ff 8b36 93ef c1b8
00000090: 8f72 d1b8 a70b 08b7 291c 23ba e499 d0ae
000000a0: cdd5 27b6 3a63 b539 7a07 a035 5002 a8b4
000000b0: 4333 4cb7 3a32 e536 c7ac 6a34 e91c cc35
000000c0: 6c08 e238 d061 ec37 4eb3 52b6 a9aa 0ab9
000000d0: d168 24b8 24a5 42b4 b580 c136 b254 39b4
000000e0: cd21 c2b7 7d62 5135 5037 29b9 90c7 cb39
000000f0: 6b49 3a36 be88 23ba 814f afb8 3538 1a3a
00000100: 6bdc b0b8 ff05 55b9 04e8 22b8 0c72 35b9
00000110: 6fdb 09b9 d6af b7b9 599d 8137 0b5a b735
00000120: 19e1 b0b5 c34b 8e3a 15ce 0f34 85fd aab4
00000130: 6310 e039 6f4f fc31 d661 c337 7a69 5e39
00000140: 203d 2db9 ccb1 ae39 bda2 f638 b7a9 eb37
00000150: 60c5 18b8 852c 4ab3 d4d2 dab8 f7cd 97b3
00000160: 11f9 513a 980b 63b2 afb3 11b8 2512 22b9
00000170: be63 b836 4dd6 1735 ed4c 93b7 94bb 9db7
00000180: 6989 eeb9 bd82 23b8 9289 c039 7111 b0b9
00000190: 23c3 31ba c45b e034 2391 7737 748a c2b8
000001a0: cf53 c538 648a a9b7 3798 43b8 5530 4539
000001b0: c978 00b9 7901 78b9 1d53 bcb4 78ec ba39
000001c0: 2ccb d136 1cc0 0eba 9096 7635 7518 61b9
000001d0: ea31 0cb8 ea88 48ba ab02 8cb9 534e 6732
000001e0: e60b 8439 fc2c 8338 b046 e3b8 0a77 2536
000001f0: f676 14b4 ec83 4b37 cd10 b5b6 f1ec 7036

exp_avg_sq f4 [128]
1.1473884e-06 2.9319514e-07 4.711743e-08 1.5880007e-06 6.890683e-10 7.875003e-06 1.5436459e-07 1.8797812e-07
6.886021e-06 4.124771e-07 2.190083e-07 8.580886e-08 1.08039905e-11 3.619674e-07 7.0857254e-07 7.570222e-07
1.3718686e-07 1.4867667e-06 5.25525e-09 5.60504e-07 1.4497778e-07 5.4281e-06 2.3880916e-06 1.9849716e-07
4.148863e-07 4.786482e-06 1.6000156e-11 6.373478e-06 1.0062818e-05 1.496288e-06 4.7187812e-05 2.0278817e-06
4.6800002e-07 2.1297135e-05 2.5066638e-06 1.9447605e-06 3.4374557e-07 4.1742836e-09 2.407134e-05 2.5768604e-12
3.961824e-07 5.5363244e-06 2.4875806e-07 1.6320765e-06 7.05427e-07 1.9806664e-06 8.188869e-10 3.5730545e-07
1.8494198e-06 1.4042197e-06 8.459037e-09 3.4274178e-06 8.5287866e-07 2.9592692e-10 9.960738e-07 5.1007074e-08
1.2417759e-06 6.8012214e-09 5.466235e-07 9.990708e-06 9.755934e-07 7.568543e-06 4.6605114e-06 1.7200487e-05
5.995661e-07 1.9707627e-06 1.595401e-07 2.636328e-06 3.9641313e-07 6.6974117e-06 1.5530337e-06 1.9393048e-10
9.238284e-09 4.069971e-05 4.469965e-08 1.9133375e-09 4.1489393e-06 2.5629646e-10 1.210213e-07 2.4343706e-06
1.2819187e-06 6.6044095e-06 8.761512e-07 5.639747e-07 1.6428075e-06 6.8304455e-09 3.2777456e-07 4.926904e-09
1.3517902e-05 5.651167e-11 2.5681397e-06 7.723927e-06 1.4133593e-08 9.899974e-09 6.71278e-07 1.7240262e-05
8.057411e-06 2.833603e-06 1.3794137e-05 1.14826635e-05 2.0936704e-06 1.9560012e-10 1.6491379e-06 1.3055875e-06
1.4662704e-06 8.278603e-07 2.8816925e-07 1.9129302e-06 1.175849e-06 3.2252042e-06 2.4851906e-06 9.75487e-06
3.8442742e-09 1.0457287e-05 1.0592049e-06 4.3971886e-06 1.4686604e-07 1.0009376e-05 3.5603216e-06 1.5185502e-11
6.3950374e-06 6.5836334e-06 3.3031727e-06 4.3797947e-08 8.051074e-11 8.1877647e-07 1.8549782e-06 1.2397654e-06
00000000: f7ff 9935 6f68 9d34 2a5e 4a33 4a23 d535
00000010: df68 3d30 e11e 0437 6abf 2534 08d7 4934
00000020: 780e e736 6c72 dd34 8b28 6b34 eb45 b833
00000030: d910 3e2d 6c54 c234 bc34 3e35 2b36 4b35
00000040: a34d 1334 ea8c c735 ab91 b431 8b75 1635
00000050: 30ab 1b34 0623 b636 1a43 2036 7c22 5534
00000060: 8abd de34 919b a036 26bd 8c2d c2db d536
00000070: 79d3 2837 10d4 c835 87eb 4538 be16 0836
00000080: 6f41 fb34 40a7 b237 2838 2836 bb82 0236
00000090: 088c b834 636d 8f31 cfec c937 9754 352c
000000a0: e5b2 d434 aac4 b936 0c8d 8534 b90d db35
000000b0: 935c 3d35 97eb 0436 0b18 6130 b0d3 bf34
000000c0: 9539 f835 9f78 bc35 3d53 1132 9702 6636
000000d0: 60f1 6435 03b0 a22f d6b0 8535 df12 5b33
000000e0: 18ab a635 2db0 e931 aebb 1235 c49d 2737
000000f0: 22f1 8235 4af5 fd36 7d61 9c36 c449 9037
00000100: def1 2035 7241 0436 0c4e 2b34 c5eb 3036
00000110: 9bd2 d434 54ba e036 d571 d035 943a 552f
00000120: 67b6 1e32 fbb4 2a38 c9fb 3f33 ca7b 0331
00000130: 1e37 8b36 85e6 8c2f 15f2 0134 2b5e 2336
00000140: 640e ac35 729b dd36 a730 6b35 0c64 1735
00000150: 707e dc35 3cb1 ea31 fef8 af34 8249 a931
00000160: f2ca 6237 7c8a 782e 4e58 2c36 0496 0137
00000170: 33d0 7232 8c14 2a32 df31 3435 2e9f 9037
00000180: 512e 0737 ee28 3e36 5e6d 6737 aaa5 4037
00000190: fc80 0c36 8a10 572f f257 dd35 a53b af35
000001a0: abcc c435 203a 5e35 aeb5 9a34 e45f 0036
000001b0: ddd1 9d35 9670 5836 40c7 2636 d9a8 2337
000001c0: 9816 8431 b571 2f37 012a 8e35 908b 9336
000001d0: 3bb2 1d34 f1ed 2737 dced 6e36 b692 852d
000001e0: f494 d636 fbe8 dc36 13ac 5d36 5a1c 3c33
000001f0: 840b b12e e4c9 5b35 91f8 f835 0466 a635

exp_avg f4 [128, 128]
8.3965756e-07 -8.438411e-07 -2.917627e-07 -1.2869813e-07 -7.4397e-09 -1.0802744e-06 -1.8507768e-06 2.2578153e-05
3.3236694e-05 1.3081731e-07 2.3364012e-07 -5.1088364e-07 1.480999e-09 9.898462e-06 3.6853173e-06 -6.1787277e-06
-4.2903577e-07 -4.9271152e-06 1.2059075e-09 -2.0462849e-06 -6.597241e-07 -6.972469e-07 4.274882e-05 -4.5146508e-06
-3.355441e-07 2.2534655e-06 -1.2136672e-11 4.152988e-07 3.3254488e-05 4.4616405e-05 3.923875e-05 5.3741377e-07
-8.922608e-07 -1.2635422e-06 2.185608e-07 -2.1352898e-06 4.6296922e-05 -3.905528e-08 4.019756e-05 -3.2801278e-10
3.476369e-07 3.6629386e-05 1.0648553e-07 2.5629325e-07 3.6396967e-05 3.0282748e-05 -1.0789567e-09 5.781317e-07
1.3504772e-05 -2.6378366e-06 4.944922e-08 -8.00276e-06 -4.025259e-06 4.2117203e-09 6.012514e-05 5.1319073e-08
-1.1699451e-06 1.1513872e-07 3.6570487e-05 4.3616415e-05 1.752202e-05 7.7665514e-05 -2.3541977e-06 -2.9471582e-06
4.1333566e-05 4.6422774e-06 -7.1738e-07 5.205277e-06 4.0044888e-05 3.4449382e-05 -3.5204562e-07 -3.3300964e-08
-1.5043568e-08 1.30760645e-05 7.3693904e-09 1.7700572e-08 3.103807e-05 2.1576041e-11 -1.35344e-06 8.7334636e-05
2.505947e-05 9.682398e-05 6.608068e-05 6.3337466e-05 7.786443e-05 -1.0889596e-09 2.3392001e-06 3.844313e-09
4.4185766e-05 6.868497e-10 9.704008e-05 5.720376e-05 -2.0871241e-07 -4.2998877e-07 -3.670343e-06 -3.880117e-07
1.2831088e-05 7.100195e-05 -6.7940828e-06 7.5457225e-05 -1.3094742e-06 -5.741712e-09 -4.6215842e-08 0.000108488755
-2.615753e-06 1.0261934e-05 -3.5463363e-06 3.426061e-06 5.4095937e-05 2.9872226e-06 2.0499344e-08 4.8908925e-05
-1.9755148e-06 -1.915755e-06 -4.0276194e-07 -6.540656e-06 -1.1604849e-06 5.5659475e-06 9.645515e-05 -7.5947604e-10
0.00010004467 6.03132e-05 3.7645008e-05 1.8803276e-07 7.737602e-09 -1.7189647e-06 4.7638103e-05 -9.171883e-07
-7.441174e-07 -1.8770615e-06 -1.0767918e-05 -2.477602e-06 -1.0753392e-09 8.395868e-05 1.0980567e-06 0.00025553844
0.00037100725 -2.0227091e-07 -5.086873e-07 -2.191919e-07 -2.9655056e-09 8.612368e-05 0.00018898114 4.354e-06
-6.9512603e-06 7.6256314e-05 -3.012643e-07 -1.1474277e-05 -1.0490597e-05 -4.1007843e-06 0.0006790454 -1.3956179e-06
-9.624957e-06 4.435838e-05 -2.647095e-09 -3.414993e-07 0.00031273928 0.00074403617 0.00041029308 -7.582596e-07
-1.602146e-05 -1.1621654e-05 -1.0058274e-06 2.7579965e-06 0.00036637977 -2.8949842e-06 0.0007499309 3.9887058e-13
-3.4409982e-07 0.00054090604 -9.592875e-08 -2.0934532e-07 0.0003918317 0.00038956062 -5.5401305e-08 -4.936701e-07
0.0002454521 1.8746435e-06 -1.627419e-06 -8.1874606e-07 4.0029536e-06 -1.0179302e-08 0.0007926409 -5.7339424e-08
-3.758788e-06 -1.5788083e-07 0.00055900094 0.00054359203 0.00016144248 0.0010588263 2.1558074e-06 2.7361093e-05
0.00044871643 0.0001280433 -8.334367e-06 0.00026621524 0.00056620414 0.00048715956 -7.2024836e-06 -2.1140696e-07
-1.8163009e-07 0.00022327283 -9.262179e-09 -2.8031392e-08 0.0005529092 -4.926482e-10 -6.3776833e-06 0.001135171
0.00015074636 0.0011046894 0.0008508097 0.0008091585 0.0011979366 -3.9980352e-09 5.299082e-05 -5.7327454e-09
0.0005778151 -1.4007483e-09 0.0013177476 0.00075899146 -1.9438944e-06 -5.1975103e-06 -7.1236063e-06 -1.4847599e-05
7.8238445e-05 0.0009998279 -7.557011e-06 0.0007988936 4.404911e-05 -1.0575737e-07 -2.9250148e-06 0.0011726245
2.4657338e-05 7.207232e-05 3.0427851e-05 -2.0502348e-05 0.0006951574 6.990752e-05 -1.1546282e-06 0.0003759545
-6.955907e-06 5.6483026e-05 -3.115474e-06 1.8509043e-05 -1.4533355e-05 0.0002281015 0.001313488 -1.1195224e-09
0.0013809685 0.0007596665 0.0005135523 -2.3808875e-07 -1.7566482e-08 1.0314144e-06 0.00070131867 -4.9798505e-06
00000000: d464 6135 5284 62b5 8fa3 9cb4 4630 0ab4
00000010: 4ba0 ffb1 f2fd 90b5 3568 f8b5 3766 bd37
00000020: a167 0b38 ca76 0c34 82de 7a34 a823 09b5
00000030: 058c cb30 9211 2637 4551 7736 de52 cfb6
00000040: 3a56 e6b4 9953 a5b6 19bd a530 e852 09b6
00000050: e517 31b5 712a 3bb5 324d 3338 8e7c 97b6
00000060: d424 b4b4 3e3a 1736 b682 55ad 3cf6 de34
00000070: bc7a 0b38 8022 3b38 4994 2438 cb42 1035
00000080: b283 6fb5 fb96 a9b5 89ad 6a34 004c 0fb6
00000090: f12e 4238 bcbd 27b3 cd99 2838 b253 b4af
000000a0: daa2 ba34 81a2 1938 0aad e433 ad98 8934
000000b0: f2a8 1838 b507 fe37 6a4a 94b0 e830 1b35
000000c0: 8e92 6237 b005 31b6 fe61 5433 9843 06b7
000000d0: b610 87b6 afb6 9031 e12e 7c38 eb69 5c33
000000e0: 0207 9db5 2e42 f733 4363 1938 c5f0 3638
000000f0: 40fc 9237 5be0 a238 cffc 1db6 cbc7 45b6
00000100: 945d 2d38 dcc4 9b36 fa91 40b5 fda8 ae36
00000110: dff5 2738 be7d 1038 c800 bdb4 cc06 0fb3
00000120: 2839 81b2 4561 5b37 d835 fd31 f80b 9832
00000130: e02e 0238 edc8 bd2d d8a7 b5b5 6d27 b738
00000140: cd36 d237 fa0d cb38 cc94 8a38 0bd4 8438
00000150: 264b a338 5caa 95b0 27fb 1c36 ef16 8431
00000160: 1b54 3938 c0cc 3c30 ff81 cb38 12ee 6f38
00000170: 6e1a 60b4 35d9 e6b4 0350 76b6 ec4f d0b4
00000180: 1a45 5737 e2e6 9438 baf8 e3b6 ca3e 9e38
00000190: 31c1 afb5 a248 c5b1 db7e 46b3 7584 e338
000001a0: 4b8a 2fb6 ac2a 2c37 98fd 6db6 48eb 6536
000001b0: 12e5 6238 1878 4836 8916 b032 8f23 4d38
000001c0: 1693 04b6 6c90 00b6 2e3b d8b4 cf77 dbb6
000001d0: f5c1 9bb5 20c3 ba36 f747 ca38 60c3 50b0
000001e0: 13cf d138 cef8 7c38 05e5 1d38 0de6 4934
000001f0: 55ee 0432 2db7 e6b5 06cf 4738 b334 76b5
00000200: 5cbf 47b5 58ef fbb5 dba7 34b7 e144 26b6
00000210: 22cb 93b0 f912 b038 f160 9335 caf9 8539
00000220: c083 c239 ce2f 59b4 ba8c 08b5 035b 6bb4
00000230: bac9 4bb1 4c9d b438 3d29 4639 9318 9236
00000240: df3e e9b6 cceb 9f38 73bd a1b4 a581 40b7
00000250: c500 30b7 7899 89b6 f701 323a 1151 bbb5
00000260: e07a 21b7 730d 3a38 30e8 35b1 4e57 b7b4
00000270: 28f7 a339 6c0b 433a 9b1c d739 348b 4bb5
00000280: d365 86b7 a0fa 42b7 f7ff 86b5 0516 3936
00000290: a916 c039 7347 42b6 0397 443a 4f8b e02a
000002a0: b8bc b8b4 97cb 0d3a 6301 ceb3 67c8 60b4
000002b0: c36e cd39 f13d cc39 61f2 6db3 c084 04b5
000002c0: 06b0 8039 439c fb35 b16d dab5 cdc7 5bb5
000002d0: 1c51 8636 0be1 2eb2 3bc9 4f3a 5d45 76b3
000002e0: 7c3f 7cb6 f485 29b4 eb89 123a d87f 0e3a
000002f0: e348 2939 51c8 8a3a 7dac 1036 8085 e537
00000300: b341 eb39 5d43 0639 d5d3 0bb7 ce92 8b39
00000310: 516d 143a 7369 ff39 ddac f1b6 1aff 62b4
00000320: 1906 43b4 581e 6a39 7e1f 1fb2 afc9 f0b2
00000330: 1cf1 103a 096b 07b0 e2ff d5b6 05ca 943a
00000340: ab11 1e39 3acb 903a df08 5f3a b51d 543a
00000350: 1504 9d3a 175f 89b1 7642 5e38 c3f9 c4b1
00000360: 8478 173a 7384 c0b0 46b8 ac3a 0ef7 463a
00000370: da73 02b6 4666 aeb6 5007 efb6 f419 79b7
00000380: f213 a438 a80c 833a 3b92 fdb6 d86c 513a
00000390: 5fc1 3838 bb1c e3b3 5f4b 44b6 c0b2 993a
000003a0: 3bd7 ce37 8825 9738 503f ff37 75fc abb7
000003b0: 393b 363a 509b 9238 b9f8 9ab5 c21b c539
000003c0: c966 e9b6 30e8 6c38 7013 51b6 de43 9b37
000003d0: 49d4 73b7 882e 6f39 5829 ac3a b1dd 99b0
000003e0: 9d01 b53a 5b24 473a e99f 063a 56a5 7fb4
000003f0: 1ae5 96b2 216f 8a35 b3d8 373a 9718 a7b6
