Assets/IA/Pruebas/results/PadF/PadBehavior/checkpoint.pt (torch, 444149 bytes, 30 tensors)

network_body._body_endoder.seq_layers.0.weight f4 [128, 7]
000000 05 96 db 3e 1d 16 59 3e 13 7e ef 3e 03 56 56 3f
       0.42887893 0.21199842 0.46775874 0.83724993
000010 e8 07 e9 bd 52 24 3a bf ed cb dc 3c e0 f6 72 3d
       -0.11378461 -0.7271167 0.026952708 0.05931747
000020 4b 4f 8b 3e 9b 1c 32 3e 70 8d 02 3e c5 a6 93 be
       0.27208933 0.17393725 0.12749267 -0.28838173
000030 0c b3 14 3e 55 e1 e4 3e 22 53 13 3f f2 2d 9c bb
       0.14521426 0.44703165 0.57548726 -0.0047662193
000040 32 ba 54 bd bd ce 14 3e 06 7b 2b bf 06 d0 dc 3d
       -0.051935382 0.1453199 -0.66984594 0.10781865
000050 9a d6 c6 be 16 d0 65 be e7 70 0c 3e c3 83 c4 be
       -0.38835603 -0.2244266 0.13714944 -0.38381776
000060 7d e1 77 be 15 ca 36 3e 75 0a 78 3e 4e e9 0b 3d
       -0.2420711 0.17850526 0.24222739 0.034158044
000070 79 15 d4 3e bb 2a 89 3d ff 09 13 3f 91 1e a1 be
       0.41422632 0.06697603 0.5743713 -0.31468633
000080 f2 f3 f3 be a2 74 fb 3d 19 8a ac 3e c8 3d 88 3d
       -0.47647053 0.12278105 0.3369911 0.06652409
000090 ed 1d f6 bd 04 78 78 3f 0f 8d 30 3e 20 49 c9 be
       -0.12017427 0.9705813 0.1724131 -0.39313602
0000a0 61 9d 8c bd 78 c1 4a bd 32 15 ae 3f ff f2 4b 3e
       -0.06865955 -0.049500912 1.3600218 0.19916914
0000b0 68 f8 18 bd ba 81 0d bf 64 13 07 3f b9 69 45 be
       -0.037346274 -0.5527607 0.5276396 -0.19278611
0000c0 d8 dd ee 3e 98 ed 9d 3c e6 fc 53 3e 9f 18 14 bf
       0.46653628 0.019278333 0.20701942 -0.5785007
0000d0 dc 38 50 3f 7c 28 10 be 45 a7 d5 be f3 05 c9 bd
       0.8133676 -0.14077944 -0.4172918 -0.09815588
0000e0 90 9e 00 3f 91 e7 2a be 40 cf 1f 3e 0c 27 07 3e
       0.5024195 -0.16689898 0.15606403 0.13198489
0000f0 7a 24 7c bf 54 f2 64 3e 24 7e 83 bc 00 55 3c 3e
       -0.9849316 0.22358066 -0.01605136 0.183918
000100 ba 90 2e 3f e1 08 13 3f a8 e2 44 bf 60 02 f1 be
       0.68189585 0.57435423 -0.7690835 -0.47072124
000110 82 d3 a1 3e 18 ef 97 3e a2 33 dd 3e d6 cb 4e bf
       0.3160668 0.29674602 0.43203455 -0.8077978
000120 e5 a2 e3 3d b2 57 af be 00 8b e5 3d 9e 74 7f be
       0.11115054 -0.34246594 0.11208153 -0.2494683
000130 5a 05 a5 be 1d ad d4 be b9 6c 1a be c6 98 fb be
       -0.32230645 -0.41538325 -0.15080537 -0.49139994
000140 75 d1 f0 be d7 75 03 3e 5f c9 1d bf db d6 7c be
       -0.47034803 0.12837921 -0.6163539 -0.24691336
000150 fd cd 3b bf 99 da f7 bd f5 3b 8a 3f 83 f4 31 bf
       -0.7336119 -0.12102241 1.0799547 -0.6951372
000160 ec 99 c9 be c9 ac a2 3d ec 8b de 3c 2e 1c 08 bf
       -0.39375246 0.079431124 0.02716633 -0.53168
000170 61 36 7a 3f ee 3a 6f 3e 56 d2 03 bf e6 77 4b 3f
       0.97739226 0.23362324 -0.5149282 0.79479825
000180 55 24 ea 3d d2 d9 4f be c1 6d 00 3f 4d e1 c0 3d
       0.11432711 -0.20297936 0.5016747 0.09417973
000190 f4 38 ae 3e 08 49 02 3e 51 a4 0a 3e 82 96 41 bd
       0.34027827 0.12723172 0.13539244 -0.047262676
0001a0 2c 8a 06 3d bc 71 7a 3e c5 41 33 be fd ea 25 bf
       0.032846615 0.24457449 -0.17505558 -0.6481169
0001b0 90 f9 b1 3e b0 f0 b7 3c df c4 82 be 5e 7d c7 be
       0.34760714 0.022453636 -0.25540826 -0.38962835
0001c0 d2 96 fb 3e 25 19 d5 3e dd f9 f1 3e 59 ea 9e 3e
       0.49138504 0.41620746 0.47260943 0.31038168
0001d0 24 ac 22 bf 58 1e eb 3e 43 ff d6 3e 23 93 48 3f
       -0.63543916 0.45921588 0.41991624 0.7834951
0001e0 cd 82 81 be bd c7 12 be 92 2e e3 be 0d 61 d8 3c
       -0.25295106 -0.14334007 -0.44371468 0.026413465
0001f0 c7 09 d6 3e e6 8b 07 bd 42 f7 0d bf ec ef 99 be
       0.41804335 -0.033092402 -0.5545541 -0.30065858
000200 8d 22 0f bf d3 b1 78 bd e5 83 31 3e e7 ac 96 bd
       -0.55912095 -0.06071646 0.1733547 -0.07357197
000210 2c 84 2e 3f b6 82 ea 3e 1e e0 02 3f c0 70 cd 3e
       0.6817043 0.4580285 0.51123226 0.40125084
000220 ac 40 75 be 7c a5 0a bf 7c e3 cb be e8 8e 3a 3f
       -0.23950452 -0.5415876 -0.39821994 0.7287431
000230 4e 87 02 bd 7b cc 22 3f ae d7 77 3e a6 88 5b bd
       -0.031867318 0.6359326 0.24203369 -0.053597115
000240 68 93 a3 be 96 65 13 3f cc eb db be 6a 8d 4b be
       -0.319484 0.5757688 -0.42953336 -0.19878164
000250 5e 43 0d 3f e9 5c 52 bf d0 25 bc 3e a6 67 1a 3f
       0.5518092 -0.8217302 0.367476 0.60314405
000260 af f9 8a be 39 6e e1 be 48 2c 42 be ff f8 83 3e
       -0.27143618 -0.44029406 -0.18962204 0.25775906
000270 43 85 a9 be 86 b6 90 bd 09 3d 46 3f a9 8b 32 bf
       -0.33109483 -0.070660636 0.7743688 -0.69744354
000280 26 1f 9d 3d fe 8b 75 be 00 ea d2 3e 72 b4 c8 be
       0.07671957 -0.23979184 0.41194153 -0.3920017
000290 b5 43 a4 3d db 1e 95 bd 69 86 28 3f 18 53 20 be
       0.080207266 -0.07281276 0.65830094 -0.15656698
0002a0 f6 27 a0 bd 02 47 e7 3e 83 ad 6f bf df 6a 44 3e
       -0.07820122 0.45171362 -0.9362413 0.19181393
0002b0 ef cf 5d 3e 61 50 e1 bd 62 07 19 bd b8 5a 9c 3e
       0.21661352 -0.11001659 -0.037360556 0.30537963
0002c0 cb 8d c6 3e 44 32 6d bf 08 9f 8b be 5a 5a eb 3d
       0.38780054 -0.92654824 -0.2726977 0.114918426
0002d0 2d a0 78 3e ba 54 06 3f 58 e0 95 be d1 58 5e be
       0.24279852 0.5247303 -0.29272723 -0.21713568
0002e0 23 1c 2f 3e 1c 19 97 3b c8 50 9d be 8d 84 a5 be
       0.17100577 0.0046111476 -0.30725694 -0.3232769
0002f0 7b 82 d9 3e b8 a4 25 3e e4 22 e3 3d aa 49 45 3f
       0.4248236 0.16176116 0.11090639 0.7706553
000300 19 38 83 bd 57 6d a3 be e4 f2 11 bf 91 31 32 3d
       -0.06407184 -0.31919357 -0.57011247 0.0435043
000310 10 05 3a 3e cc 06 c4 3e 03 29 34 3f 2c e9 20 bc
       0.18165994 0.38286436 0.7037508 -0.0098212175
000320 5e 7a 34 3d ef dc 3c be 97 2e 40 be 80 14 f8 bd
       0.04406201 -0.18443654 -0.18767773 -0.12113285
000330 74 7e e9 bc 8e 95 66 bf 89 9b ed 3d b0 45 8c be
       -0.02850268 -0.9007195 0.116019316 -0.27396917
000340 7d 57 d9 3e 71 95 a8 be d3 31 a7 be ea 9a 5e 3e
       0.4244956 -0.32926515 -0.326552 0.21738783
000350 9c e1 0e bf 33 87 81 be 68 d9 ea bd dd 1b 7b be
       -0.55813 -0.2529846 -0.11467248 -0.24522348
000360 75 d2 8a 3d 37 2a b0 3e 3c 1b 31 3e 9e bb b1 be
       0.06778423 0.34407207 0.17295545 -0.34713453
000370 8f d7 c9 3e 87 aa de bb 7d dc 90 be e1 02 71 3e
       0.3942227 -0.006795231 -0.2829322 0.23536254
000380 87 22 6e 3f ef 59 98 be 66 97 50 3e f4 02 0d bd
       0.93021435 -0.29756114 0.20370254 -0.034426644
000390 c3 1c 4c bf 54 c6 c7 bd 9a a5 10 be 8c 71 12 be
       -0.79731387 -0.09754625 -0.14125672 -0.14301127
0003a0 6a f8 19 3e fd b6 c2 be 1d 00 1f be 02 59 f1 3d
       0.15036169 -0.38030234 -0.15527387 0.11784555
0003b0 06 40 ae bd 66 ed 77 3e 37 a5 b0 3e 74 76 4c bf
       -0.08508305 0.24211654 0.3450105 -0.79868245
0003c0 39 95 32 3e 95 0f 01 3e 4a a0 ec 3e 96 d7 a2 be
       0.17439736 0.126036 0.4621604 -0.31805104
0003d0 77 a4 c6 bc df 2a 16 be fd b3 26 bf 80 43 95 3e
       -0.024248345 -0.14664792 -0.6511839 0.2915306
0003e0 30 05 62 be 60 92 8f 3c 73 8f 0b 3e 4e 9c 7c bd
       -0.22072291 0.017525852 0.1362894 -0.0616725
0003f0 9a d2 dd bd bb 7d 46 3c 0f de 2b 3f c0 a0 4c bd
       -0.10831185 0.012114937 0.6713571 -0.04995799

network_body._body_endoder.seq_layers.0.bias f4 [128]
000000 72 7d 6a bd 8b 76 e4 bb 76 4d 6c 3a 4a de 49 bd
       -0.05724854 -0.0069721392 0.0009014228 -0.049284257
000010 77 6a 76 3c 3a a6 a7 3d 0b d6 9e bc 80 7d 38 be
       0.015040032 0.08186002 -0.019389173 -0.18016624
000020 5a 62 3c bd 1c f8 8f bd 39 4b b8 bc 33 86 50 bd
       -0.045992233 -0.07029745 -0.022496806 -0.050909232
000030 88 0c 1d 3d eb a2 28 bd a9 31 a7 3c f5 bd 04 be
       0.03834203 -0.041170996 0.020409422 -0.12963088
000040 4e 02 b7 bc 2a 99 3b be 8f 8a 43 3b 4f 3a 95 bc
       -0.022339966 -0.18320146 0.0029837226 -0.01821628
000050 b3 54 2d be 4c fc 54 3c 5c 41 5c bd b6 47 4b bd
       -0.16926841 0.012999605 -0.05377327 -0.049628936
000060 17 da 38 3d 73 fd cd bd 2b d9 be bd 22 d6 37 bd
       0.04512986 -0.10058107 -0.09318765 -0.044881947
000070 8a 7c ac bd 23 74 93 bd 60 52 94 bd 73 fe 66 be
       -0.084221914 -0.07199886 -0.07242274 -0.22558002
000080 98 da dd 3d 03 1a fa bc fa da a1 3b ac 54 56 bd
       0.10832709 -0.030529981 0.004939434 -0.052326843
000090 1f 41 ef bd 23 85 a8 bd c3 52 42 bc 50 f3 c6 bb
       -0.11682343 -0.08228519 -0.011860552 -0.0060714856
0000a0 ca 42 8e bd cc 51 1c 3d 65 a6 7c 3b c3 d6 6f bd
       -0.06946333 0.038163945 0.0038551327 -0.058554422
0000b0 99 fd 03 bd 96 7e a5 3d 68 6a c7 bc 18 da d4 3c
       -0.03222427 0.08080785 -0.02434273 0.025982901
0000c0 77 9d 42 bd 2d f9 be bb 57 a0 11 bd ad a5 14 bd
       -0.04751345 -0.005828044 -0.035553303 -0.036290813
0000d0 d4 9f 3e bd ff a7 40 3d bd 59 8e bd 96 23 ba bd
       -0.046539143 0.047035214 -0.0695071 -0.09088819
0000e0 1b 02 9d bd 87 07 b7 ba df aa 8a bc dd 8d de bc
       -0.07666417 -0.0013964035 -0.01692718 -0.027167255
0000f0 4d f8 12 3e 6d b3 db bd ee 2c 24 bd 0d 8a ba bd
       0.14352532 -0.10727582 -0.04008191 -0.09108362
000100 2a bf c7 bd 72 23 47 be 76 04 8e 3c f8 12 cd 3c
       -0.097532585 -0.19447115 0.017336112 0.025033459
000110 13 f2 4b bc c9 f5 1e bd 58 6b b8 3c a7 7b 2b bd
       -0.012447852 -0.038808618 0.022512123 -0.04186597
000120 02 ac 64 3d a5 36 26 3d 4a 76 f7 bc aa 77 84 bd
       0.055828102 0.040579457 -0.030207772 -0.064681366
000130 fb 1b 1e be 5b 74 a8 3c 59 af 40 bd 0f 3b 13 bd
       -0.15440361 0.020563295 -0.047042225 -0.035944995
000140 a8 cf 74 3d c5 ef f3 3d 2a 91 62 3c ca 66 60 bb
       0.05976835 0.11910967 0.013828555 -0.0034240955
000150 ef 2d 1e bd 08 8c 93 bc 68 26 30 bd 93 80 a3 3c
       -0.038618024 -0.018011108 -0.043005377 0.01995877
000160 55 b3 16 be bf c3 f0 3c 6e a7 f5 bc ba 4d 96 3d
       -0.14716847 0.029390214 -0.029987063 0.07339044
000170 07 5e 9c bd 3e 1e 99 bd 87 c2 4d bd ec e2 12 be
       -0.07635122 -0.07476471 -0.050234344 -0.14344376
000180 8b ec 72 bc 76 39 55 bd a8 1e cb 3d 1d 21 af bd
       -0.014826904 -0.052056752 0.099179566 -0.08551238
000190 2e 60 38 bb b7 65 56 3d fe 5a 12 bd 50 e5 75 bd
       -0.00281335 0.052343097 -0.03573131 -0.060033143
0001a0 b1 a6 bf bd 7e 37 d0 3d 0c 63 24 bd cf 2f 4f bc
       -0.09357966 0.10166834 -0.04013352 -0.012645676
0001b0 e8 54 cf ba 51 4c ce bd 3c 95 1b be b9 36 3f 3d
       -0.0015818151 -0.1007315 -0.15193647 0.046683047
0001c0 ad 11 dd 3d 93 55 93 bc 47 85 ec bd 7f 6b 5b bd
       0.10794387 -0.01798514 -0.11548858 -0.053569313
0001d0 86 40 cc bc c8 3e cd bb e3 f6 33 bd 78 c7 64 bd
       -0.02493311 -0.0062635876 -0.04393662 -0.05585429
0001e0 fb 62 2e be 85 10 e0 bd 36 48 c3 bc fe b3 33 bd
       -0.17029946 -0.10940651 -0.023838144 -0.043872826
0001f0 d7 ba 48 bd 0b c1 37 3d 25 6b 69 be 10 27 75 3d
       -0.04900631 0.044861834 -0.22794779 0.059851706

network_body._body_endoder.seq_layers.2.weight f4 [128, 128]
000000 ae 91 77 bd cc 1b 17 bd 95 90 76 bd 69 82 4d bd
       -0.060441665 -0.036891744 -0.060196478 -0.050173197
000010 4b 81 94 3d 98 9e a9 be ba 9b 1e bd 8a d9 94 3d
       0.07251223 -0.3312881 -0.03872273 0.07268055
000020 f6 f3 0a be 45 dc da 3d 40 d1 13 3d 9e ee c9 bd
       -0.13569626 0.10686544 0.03608823 -0.09859966
000030 f6 11 80 3c f8 d7 fe 3c 80 3a 39 bd 24 2f 04 be
       0.015633564 0.031108841 -0.045221806 -0.12908608
000040 cb ee be bd 05 c2 ad bc 6f 6b 38 3e 9a 7d 8f 3d
       -0.0932289 -0.02121068 0.18009733 0.070063785
000050 4f 31 a0 3d af 07 b4 bd cf 9c f3 bd f0 11 2a bb
       0.07821905 -0.08790528 -0.11895143 -0.0025950633
000060 00 11 84 3d 30 3a e7 3d e9 2b f2 3d ec 60 42 bd
       0.06448555 0.11290395 0.118247814 -0.047455713
000070 4f 51 41 bd 13 a0 15 3d 64 fe d1 bc ad b3 14 be
       -0.047196683 0.03652961 -0.025633998 -0.14521666
000080 13 ae 6e be 83 f5 cc 3d 27 88 34 bd 0b 4b 19 be
       -0.23308592 0.10007765 -0.044075157 -0.14970033
000090 05 3f e5 3c 23 d6 c5 bd 75 3f 0a bd 20 f5 b0 bd
       0.027984152 -0.09659984 -0.033751924 -0.08640504
0000a0 45 be 6b bd 6f 27 68 bd dd 20 2e bd 6e 3a af bc
       -0.057554502 -0.05667823 -0.04251181 -0.021390166
0000b0 c3 62 8b 3d 41 70 a1 3d 1e 96 fd bd 17 2f e0 3d
       0.06805947 0.07882739 -0.12382148 0.10946482
0000c0 06 56 b5 3d 6e f7 65 3c ca 24 14 3e 02 13 03 3c
       0.08854298 0.014036043 0.14467159 0.008000137
0000d0 70 d4 42 bc f0 b2 d9 3c fc 73 5b bd df 4d 0e be
       -0.011891469 0.026574582 -0.05357741 -0.13896893
0000e0 46 28 35 be 25 62 4d bd d0 4f 4c 3d 5e 2c 95 bd
       -0.17691144 -0.050142426 0.049880803 -0.07283853
0000f0 fd 59 e6 3d 3a df ae 3d 1a 6c ec bd 0c 01 16 3e
       0.11247633 0.08538671 -0.11544056 0.14648837
000100 fe e0 2f bd 6a a9 d7 3c 82 39 a8 3c 87 b6 a9 bd
       -0.04293918 0.0263259 0.020535234 -0.082867675
000110 b7 f2 8c be de 04 f4 bd 04 69 e1 3d bb b0 11 be
       -0.27528927 -0.11914991 0.11006358 -0.14227574
000120 45 4e 0f 3d 2b 1c ae bc 05 aa 49 bd c9 3b 6a 3d
       0.034986753 -0.021253666 -0.04923441 0.05718592
000130 2d 98 2f be d1 02 bd 3d 3f 40 20 bc d3 15 fb bd
       -0.17147894 0.09229053 -0.009780942 -0.12260022
000140 56 6f 0e be f0 e0 11 3e 12 32 e1 bc b3 81 10 3e
       -0.13909659 0.14245963 -0.027489696 0.14111976
000150 71 fe c6 bc d9 bc af 3d c9 76 30 3e 69 47 54 3e
       -0.024291249 0.08580942 0.17232813 0.20730366
000160 48 9c 74 3d 27 44 2c 3e 6f f7 63 3d bb bf 72 bd
       0.059719354 0.16822873 0.055655893 -0.05926488
000170 44 b2 81 3b 91 6b 55 be 0f cd 99 3e af 66 b0 bd
       0.0039580185 -0.20841815 0.3003926 -0.08613335
000180 0a 76 b1 3d 51 5c 00 3e f0 a9 f4 3d 36 1b 6e bd
       0.08665092 0.12535216 0.119464755 -0.05813142
000190 11 93 e3 bd 8a 25 62 be 08 54 8d 3e 00 9e 31 3e
       -0.11112035 -0.22084633 0.27603173 0.17345428
0001a0 a8 ed 73 3e f9 c4 23 3e a0 60 1f bd f4 d3 23 be
       0.23821127 0.15993108 -0.03891051 -0.15998822
0001b0 0a 36 62 3d f0 36 27 be e5 82 66 be 60 1d 6e bc
       0.055227317 -0.1632955 -0.2251087 -0.014533371
0001c0 fe 75 f6 bd b8 40 d3 3d 09 62 d7 bd 15 39 a7 bc
       -0.12034224 0.103150785 -0.105167456 -0.020412961
0001d0 a5 f8 10 3e 92 f8 c9 bd 72 14 9f 3d 2c f1 63 bd
       0.1415735 -0.09861864 0.077675715 -0.05564992
0001e0 a7 2b 84 bd 9d 59 e0 bd c5 be 1d bc 1b 01 51 be
       -0.064536385 -0.109545924 -0.0096280025 -0.20410578
0001f0 52 60 b2 3d f7 b5 91 be ca 96 15 3d b2 0f 95 bd
       0.08709778 -0.2845914 0.036520757 -0.07278384
000200 73 a5 05 be 72 3b 35 3c 7d 6f 1a be 56 ab c7 bb
       -0.13051395 0.011061536 -0.15081592 -0.006093423
000210 1c 73 2a bd cb 88 d3 bd 74 e1 ad be a6 36 9a 3d
       -0.041613683 -0.103288256 -0.3396107 0.075299546
000220 5a 26 02 be 80 5e e2 bd ca 48 3f bd 2a 6f 3a be
       -0.12709942 -0.11053181 -0.046700276 -0.18206468
000230 f7 57 e5 3c e9 84 bc bd 4d 62 36 3e a0 43 c1 bd
       0.027996046 -0.09205038 0.17810936 -0.094367266
000240 8e f1 3a be 96 a3 18 be 82 54 f6 3c b8 57 10 be
       -0.18256208 -0.14906153 0.030069593 -0.14095962
000250 bc 60 f2 bd 6e c3 6a bc d8 12 92 3b 90 ef b8 bd
       -0.11834857 -0.014328821 0.0044578128 -0.09030068
000260 66 5b 83 bd 5f 59 e5 bd ec 57 1d bd 70 4a 02 be
       -0.06413917 -0.11198687 -0.038413927 -0.12723708
000270 85 a3 83 3c f4 44 06 be a2 b5 03 be fb 5e 2f bb
       0.016069183 -0.13112241 -0.12862256 -0.0026759494
000280 28 b2 99 bd 1a 7b 20 be 62 bf ae 3d fa 12 ec bc
       -0.07504684 -0.1567196 0.08532597 -0.028817642
000290 92 79 d2 bd b2 4b c5 bd d0 04 1a be cb 49 62 bd
       -0.10277094 -0.09633578 -0.15040898 -0.055246156
0002a0 a3 14 da bd af 04 d1 bc 00 e8 bf bb f0 82 1e be
       -0.106484674 -0.025514929 -0.005856514 -0.15479636
0002b0 c0 32 05 bd 41 b5 30 3b 4b 13 f0 bd 9b a4 2d be
       -0.032519102 0.0026963504 -0.1172243 -0.16957323
0002c0 ea 21 9e bd 52 ce 59 bd c4 98 6a bd 0c 26 10 be
       -0.07721312 -0.053175278 -0.057274595 -0.14077014
0002d0 36 b8 da 3c 4c e6 8c bd 6e 19 15 3d a3 de 37 be
       0.026699167 -0.06879863 0.036401205 -0.17956023
0002e0 58 4e 81 bd 50 f0 80 bd e1 42 ae bc c9 8f 3c be
       -0.06313771 -0.06295836 -0.021272125 -0.18414225
0002f0 db b5 0c 3e 2f 30 6b bc d5 08 92 be 41 ee 68 3d
       0.13741247 -0.01435475 -0.28522363 0.05686784
000300 39 0e a9 bd 9e d5 3c 3d c7 b0 43 bd 36 67 8a 3d
       -0.08254666 0.04610216 -0.04777601 0.06757967
000310 0c dc e9 bd 50 29 68 bc 37 d7 2a be e9 6f cb bd
       -0.11418924 -0.014170006 -0.1668366 -0.099334545
000320 9d a7 e6 bd bb 09 b6 bd 63 e9 48 bd 5b 84 72 3c
       -0.112624384 -0.08888575 -0.0490507 0.014802064
000330 e8 7c 3c 3c 84 f9 af 3c 2d 49 62 3b 74 67 75 bd
       0.011504389 0.021481283 0.003452848 -0.059913114
000340 8c 3e 08 bc d4 54 31 be 9f 9e e2 bd be 82 b6 bc
       -0.008315694 -0.17317516 -0.11065411 -0.02227914
000350 be b1 09 be 86 59 86 bd 3a 42 c1 bd 04 10 99 be
       -0.1344671 -0.06560044 -0.0943646 -0.2989503
000360 3a ef 14 be e8 c4 86 be 88 7c dc bd a7 a9 9f bd
       -0.14544383 -0.26322103 -0.1076594 -0.077960305
000370 3a 89 64 bc 96 82 63 be 52 4f 18 be c0 b0 3c be
       -0.013948733 -0.22217783 -0.14874008 -0.184268
000380 76 15 0b 3e 95 16 3b 3d d4 6f 8f 3c 98 d6 01 be
       0.13582405 0.045675833 0.017509378 -0.12679517
000390 98 47 04 3c 89 f6 f3 bd 1c ca 90 bd 57 01 ce bd
       0.00807371 -0.11912257 -0.07069799 -0.10058849
0003a0 e3 5d b8 3d 83 98 43 be 2e 7e dd bc a1 8d c8 bd
       0.090022825 -0.19101147 -0.027037706 -0.097926386
0003b0 54 4b 07 3d 32 ad 01 bd af 3e 57 bc a0 0e 25 be
       0.033030823 -0.031659313 -0.0131375035 -0.1611886
0003c0 6d ad 61 bd 09 6a 0d be c9 cc 1f be 70 2c e7 3c
       -0.055097032 -0.1380998 -0.15605463 0.028219432
0003d0 b8 4b 89 bd 50 b9 b3 3d 5b 72 65 be cb 82 97 bc
       -0.06703895 0.0877558 -0.22406904 -0.018494984
0003e0 91 90 7b 3b a3 59 c0 3d 6e 60 33 be ab 9b 15 bd
       0.003838573 0.09392097 -0.17517254 -0.03652541
0003f0 19 52 fa bd f1 6e 50 3d 15 69 86 bd 23 c5 1e bd
       -0.1222269 0.050887052 -0.065630116 -0.038762223

network_body._body_endoder.seq_layers.2.bias f4 [128]
000000 28 fd e0 bc d4 ff 13 be 1b c1 0a 3b 20 42 c7 bc
       -0.027464464 -0.1445306 0.0021172229 -0.024323523
000010 47 72 a2 bb 14 72 31 bc 34 18 94 3b 16 ed 8f bc
       -0.0049574706 -0.010830421 0.004519487 -0.017569106
000020 cd 67 58 3c 3c f2 69 bd a3 81 2c bc 7b 8a 12 bd
       0.013208342 -0.05711578 -0.010528955 -0.035776597
000030 69 3a 52 bd 12 90 61 bd 28 c9 45 bd 94 af 3a 3a
       -0.051325236 -0.055069037 -0.04828754 0.00071215
000040 3b 96 96 bc 46 7c 2d 3b f2 66 35 bd 41 b5 96 bd
       -0.018382182 0.0026471778 -0.04428763 -0.0735879
000050 dc 34 5d bd 4c 8f f2 bd ae b8 a5 bc 58 1f e6 bc
       -0.05400549 -0.11843738 -0.020229664 -0.028091118
000060 cd de d0 bd e8 7a 1c 3d 9a 15 59 bd c9 f7 20 bc
       -0.10198746 0.03820315 -0.052999116 -0.009824702
000070 a1 d3 3f 39 47 b6 16 bd 8d ae 61 bc c3 63 b5 bd
       0.00018294017 -0.036794927 -0.013774526 -0.08856919
000080 19 7b d4 bc 19 65 01 bd 8c 09 1e bc 2b 84 ad bd
       -0.025937604 -0.031590555 -0.009645831 -0.08472475
000090 ef ce 9f be b3 b6 91 bc e9 10 15 bd 44 dc f2 bc
       -0.31212565 -0.017787313 -0.03639308 -0.029646046
0000a0 f3 6c cc bb 6f b6 b2 bc e3 32 e5 bc 19 80 bf bd
       -0.0062385737 -0.021815507 -0.027978366 -0.093506046
0000b0 93 2b 39 bd 19 03 0f 3c 30 d4 db 3b f1 dd 0e bc
       -0.04520757 0.008728766 0.0067086443 -0.008719907
0000c0 0b 0b 0f bd 03 72 31 bc b2 d5 db bb 0c 2f f5 bc
       -0.03492264 -0.010830405 -0.006708824 -0.02992966
0000d0 ff a1 0d 3d ae 99 39 bc b6 23 10 bc 35 d4 2e bd
       0.03457832 -0.011328144 -0.008797577 -0.042682845
0000e0 d6 e9 56 bd 8f 7f 94 bc a2 3c 51 be f8 53 c5 bc
       -0.052469097 -0.01812723 -0.20433286 -0.024087891
0000f0 6f c2 40 bc a6 89 3d bd 7e de fb 3b a3 4a 39 bd
       -0.011765107 -0.04627385 0.0076864352 -0.045237195
000100 8d 6c 7e bc 71 0b 62 3c df 75 9a bd 4f f3 da bc
       -0.01552881 0.013796673 -0.075420134 -0.026727347
000110 5f d8 b1 bc 0f 1a 1f bd 9f 07 c7 bb 06 62 4c bc
       -0.02170962 -0.03884321 -0.0060739066 -0.0124745425
000120 29 3b 05 bd 59 35 92 bd be 9e 58 bd 41 d5 23 bd
       -0.032527123 -0.071390815 -0.052885763 -0.039998297
000130 4b 5f 78 bc b9 18 a6 3c 7d 4a 02 bd de 68 8a bc
       -0.015159438 0.02027546 -0.03180932 -0.016895708
000140 36 07 53 bd 2a 66 30 bd 66 af f2 bc 82 6f aa bc
       -0.05152055 -0.04306618 -0.029624652 -0.020805124
000150 a5 26 4f bd 13 89 da bc b1 6f ba bc 12 3b 60 bd
       -0.050573964 -0.02667669 -0.022758337 -0.054743834
000160 e9 01 27 bd cb 89 08 bd f1 63 8c bc 2a 2d 4e bd
       -0.040773306 -0.033334535 -0.0171375 -0.05033604
000170 ce 6e 64 bd 6f 91 54 bd 12 3f 95 be 61 4c 00 bd
       -0.055769734 -0.05189651 -0.2914968 -0.03132284
000180 33 86 76 bc f9 bd 96 be 9b bf 1c bd 01 8b a3 bc
       -0.015046644 -0.29441813 -0.038268667 -0.019963743
000190 ce b6 ab bc 2e 9f 12 bd 6f dd de bc 2a 03 09 bd
       -0.020961192 -0.035796337 -0.027205197 -0.033450283
0001a0 81 83 66 bc 58 ae cd bc 3f c0 00 bd 7b f5 69 3c
       -0.014069439 -0.025107548 -0.03143334 0.0142797185
0001b0 88 6d 2c bd 93 72 79 bd 1d a7 99 bc d1 aa b6 bc
       -0.042096645 -0.060900282 -0.018756444 -0.022298248
0001c0 27 6c 1a bd 37 e6 16 bd 4e b8 05 bd 97 46 e0 bc
       -0.0377008 -0.036840644 -0.03264647 -0.02737741
0001d0 a6 ee 0b bd 38 60 05 3b b6 70 d2 bc 2b d5 ee bc
       -0.03416314 0.002035154 -0.02568851 -0.02915438
0001e0 4e ea 50 bd 7d b8 b5 3c 97 43 59 bd 22 cd 02 bc
       -0.0510047 0.022182697 -0.053042974 -0.007983478
0001f0 5d 19 3f bd 5a d6 90 bc 73 53 2a bc 0b 78 5c bc
       -0.046655048 -0.017680336 -0.010395872 -0.013456355

action_model._continuous_distribution.mu.weight f4 [1, 128]
000000 5e c7 07 3c f1 ff 23 3b fe 1d 93 bd 2b 02 d4 bc
       0.008287279 0.002502438 -0.07183455 -0.02587994
000010 19 39 2b bd 5c 6a 6a 3d d2 5e 79 bd 2d 74 9c bc
       -0.0418025 0.05723034 -0.060881443 -0.019098366
000020 dd 30 e0 3d 95 ec 1b bc 61 db 1b bd 5c 1c 05 bc
       0.1094682 -0.009516855 -0.038051013 -0.008124437
000030 d0 79 41 3b 6b 03 39 bb 95 91 cf bc 7f 43 54 3d
       0.0029522069 -0.0028230797 -0.025337974 0.05182218
000040 b0 13 3c bb b8 ea 24 bd 64 ce 04 3b 46 10 3c ba
       -0.0028698258 -0.040262908 0.002026462 -0.0007174056
000050 b7 9c e7 bb bc 7d 9a bb d1 c2 fe bb 62 8d 76 3c
       -0.0070682424 -0.0047146957 -0.007774689 0.015048357
000060 56 8e 29 bb a4 ea 89 bd 0f 97 f1 bb ea 5b a6 3d
       -0.0025872192 -0.06734207 -0.007372744 0.08123
000070 5d 1a 31 bd a5 2c 3b bb b5 1a 34 3d 1b 8b 0c bc
       -0.043238033 -0.0028560546 0.043970782 -0.008578087
000080 f3 15 d5 bb 3d a3 4d bb 82 0f 81 3d dd e0 d8 3c
       -0.0065028607 -0.0031377815 0.06301786 0.02647441
000090 fa d0 a3 ba 40 7a a3 3d 79 59 0d bb 0e 93 3b 3d
       -0.0012498193 0.07982302 -0.0021568222 0.04579454
0000a0 be b1 2f 3d 77 31 1d bd 98 2c 94 3b a5 95 cd bb
       0.042894118 -0.03837725 0.0045219176 -0.0062739425
0000b0 04 c3 2a 3b 49 c4 3b bd 5b 34 9f 3d fc 1b 77 bc
       0.002605618 -0.04584149 0.07773658 -0.015082356
0000c0 34 63 1f 3d 45 f8 41 3d 2d 6e 09 bd 45 32 c3 bc
       0.038912967 0.04735591 -0.033552337 -0.023827681
0000d0 04 a9 00 be ef 52 26 3c 88 8d fd 3c 19 c7 cd bc
       -0.12564474 0.010151609 0.030951276 -0.025119351
0000e0 08 94 a2 bb a1 a2 78 bc af 0f 5e bb c3 0e 33 3d
       -0.0049614944 -0.0151754925 -0.003388386 0.04371525
0000f0 54 52 6b bd bf 0a 11 bc aa 69 ae 3d 2b a0 fd bb
       -0.05745156 -0.00885266 0.085162476 -0.007740041
000100 41 b2 71 bd b1 01 b3 3d 6e 5b 88 bb 30 d4 8b bc
       -0.059007887 0.08740557 -0.00416129 -0.017068952
000110 78 2b 66 3d d6 35 eb 3b 5f 40 67 bd a4 10 3c 3a
       0.0561938 0.0071780486 -0.056457873 0.00071741105
000120 de d5 36 3a 80 d9 0e 3b 37 c7 be bb 14 d6 2a 3d
       0.0006974618 0.002179712 -0.005822088 0.041708067
000130 47 0e 2f 3c 72 66 54 bd 72 26 08 3d 4e 05 01 bd
       0.010684556 -0.051855512 0.03323979 -0.0314992
000140 54 e4 90 3c 64 a9 b1 bb 6b 5e 06 3b 06 59 4e 3d
       0.017687 -0.0054218043 0.0020503055 0.050377868
000150 46 f8 de 3b 30 07 21 3d 67 60 c3 3b f2 ff 5a 3d
       0.006804499 0.039313495 0.00596242 0.053466745
000160 d0 15 e0 bc 5b f6 e4 bc c3 77 67 bc 89 95 51 3c
       -0.027354151 -0.027949503 -0.0141276745 0.012792
000170 13 53 f8 39 88 53 48 bc 47 63 da 3b 6e 50 b5 b9
       0.0004736414 -0.012226947 0.006664667 -0.00034582935
000180 86 56 0a 3d 48 67 4f bb a6 a1 b4 3b cc b3 ab b9
       0.03377392 -0.0031647254 0.005512434 -0.0003274962
000190 7a 46 9d 3d c0 ef 8c bc 52 c1 87 bb 03 68 3e 3b
       0.07679458 -0.017204165 -0.0041429186 0.0029053695
0001a0 e9 6e 69 3c fe a3 e4 3c c1 97 02 3d a5 4a a8 bd
       0.014247634 0.027910229 0.031883005 -0.08217362
0001b0 55 1b 41 3c 23 e9 b0 ba f1 e1 fb bc ed 8f 96 bb
       0.011786302 -0.0013497215 -0.030747386 -0.004594794
0001c0 5e 8e 07 3c 3c f9 10 b9 14 b8 a6 3b 1a 67 40 bb
       0.008273689 -0.00013825757 0.005087862 -0.0029358328
0001d0 8a 02 d1 3c b3 8e 85 bd 1d 78 7a 3b ed 8e d0 3c
       0.025513906 -0.06521358 0.0038218566 0.025458777
0001e0 30 a8 46 3b ef 9f 68 bd 39 86 3c bb 0c 8a 97 bd
       0.003031265 -0.05679315 -0.0028766526 -0.07399377
0001f0 30 00 b9 3c c9 60 2e bc 21 3c 89 3d 12 66 70 3c
       0.022583097 -0.010643193 0.06700922 0.014672773

exp_avg f4 [128, 7]
000000 e6 78 4a 3b 62 d8 fd ba 97 67 a9 b9 da 27 77 3b
       0.0030894815 -0.0019366855 -0.00032311372 0.0037712962
000010 87 5e 84 3b 37 32 79 3d 2f 96 00 3d a9 5d a6 b9
       0.004039589 0.060838904 0.031393226 -0.0003173177
000020 cf 8e 78 3a 11 a1 3d 3a 3f d9 e9 ba 47 eb 6c ba
       0.00094817294 0.00072337786 -0.0017841234 -0.00090377446
000030 02 de c5 bb a0 d3 17 3a 13 3f 02 3b bb ae 8e bb
       -0.0060384283 0.00057917275 0.001987402 -0.0043543256
000040 12 b9 1b bb 4d ef bd 3b 58 ee 43 3b 85 49 b1 3d
       -0.0023761434 0.005796349 0.0029896703 0.08656601
000050 51 01 07 3d f4 0b d2 39 ce ca 74 39 18 e6 36 39
       0.03296024 0.00040063227 0.00023345204 0.00017442589
000060 0d b2 7a 3a 0e 5b 5b 3a 2b 99 47 bb aa 95 8a ba
       0.0009563275 0.0008367755 -0.0030456285 -0.0010573168
000070 af 99 ee 3a e1 7e fe 3a cd 81 f3 3a c9 0d 46 bb
       0.001820376 0.0019416475 0.0018578112 -0.003022062
000080 a2 b2 c1 3a fe cf 86 bb 3e ef 3b 3c 76 b0 8d 3c
       0.0014777968 -0.00411415 0.011470614 0.017296057
000090 56 73 8d bc 30 aa 92 bb 56 b4 c8 3c 97 5c c7 3c
       -0.01726691 -0.0044758543 0.024500053 0.024336142
0000a0 be c9 c5 3e f8 b7 46 3e 8e 8b f7 3a 34 85 8b ba
       0.3863048 0.19406116 0.0018886195 -0.0010644556
0000b0 f9 7e 33 3a 75 ed 92 3a 88 b2 22 3b f4 1d 15 3d
       0.00068472285 0.0011209684 0.0024825651 0.03640552
0000c0 85 f7 cf 3c 89 ba 33 b9 4a 54 6d 3a 41 d8 a2 38
       0.025386581 -0.0001714026 0.00090533926 7.7650424e-05
0000d0 22 cf 86 ba 88 d6 98 b9 d2 5c 33 bc 32 b5 58 bb
       -0.0010285119 -0.00029151537 -0.010947423 -0.0033066985
0000e0 3f 58 64 ba 6d a2 77 b9 b7 4e 27 ba 6e ae cc ba
       -0.00087106595 -0.00023616264 -0.0006382274 -0.0015615949
0000f0 31 dd c2 ba 54 db 09 3c de 9e 41 3b ed 1f 05 38
       -0.0014866946 0.008414108 0.0029544155 3.1739404e-05
000100 5e 15 7a 39 b0 52 0b 39 ab 08 1c ba 20 29 f6 b8
       0.00023849818 0.00013286876 -0.00059522194 -0.00011737854
000110 b1 0e 24 bb 5a 36 a9 b8 9a ae df 3a 38 e1 c7 ba
       -0.002503317 -8.068672e-05 0.0017065585 -0.0015249616
000120 22 aa dd b9 92 63 14 3b d0 06 16 3b df 7b 18 3d
       -0.00042279164 0.0022642356 0.0022892244 0.037227508
000130 ed a0 94 3c 62 e3 35 bb fd 70 0f 3b d7 61 a4 39
       0.018143142 -0.002775394 0.0021887415 0.00031353414
000140 42 f6 81 bb 4a fc 76 bb f1 22 76 bd a3 58 f2 bc
       -0.003966124 -0.0037686997 -0.060091916 -0.02958328
000150 43 fe 55 3b f9 8e 2d bb 0c 46 50 ba 6f 22 49 3b
       0.0032652772 -0.0026482923 -0.0007945008 0.003069069
000160 15 29 5a 3b 2f f6 66 3d 1a d9 e1 3c b6 4a 0d bc
       0.0033288647 0.056387123 0.027569342 -0.0086237695
000170 ba b1 75 3c 09 fd 02 3b 5c e6 f8 bb 43 18 23 bc
       0.014995987 0.0019987246 -0.0075958204 -0.009954515
000180 49 b6 17 be 1f b2 9f bd f5 8e 70 3b 7d aa 1e bb
       -0.1481563 -0.07797646 0.0036706303 -0.0024210506
000190 69 0c 05 3a e4 31 47 3b 6e 40 af 3b d5 49 89 3d
       0.00050753966 0.0030394727 0.005348257 0.067035355
0001a0 f4 7a 27 3d 81 32 6f b9 ae cd d7 3a 30 ca cd 39
       0.04088874 -0.0002281163 0.0016464496 0.00039251288
0001b0 a6 a4 b2 ba 2c 7e 9a b9 0b 51 59 bc 9e c4 66 bb
       -0.0013629391 -0.00029467174 -0.013263951 -0.0035212408
0001c0 56 20 73 ba 3a e5 eb 39 6f ed 8e b8 ef 17 b8 ba
       -0.0009274533 0.0004499348 -6.815313e-05 -0.0014045219
0001d0 9a 84 af ba 64 d1 f6 bb 6f 7a 60 bb 8d 30 c8 38
       -0.0013390959 -0.0075322855 -0.0034252664 9.5457865e-05
0001e0 f7 6f f9 b7 25 97 68 b8 44 58 5d 38 d0 1b bf 38
       -2.973525e-05 -5.5453875e-05 5.277271e-05 9.11277e-05
0001f0 56 b7 f4 3a d6 e6 48 3a 49 08 f8 ba ea aa 68 bb
       0.0018670361 0.0007663792 -0.0018923368 -0.0035502263
000200 19 54 20 bb 47 cf 15 3b f8 11 ce ba 6c ca 0b 3c
       -0.0024464189 0.0022859143 -0.0015721908 0.008532148
000210 a1 95 29 bc 74 aa 8f 3b 89 04 ad bb 91 ee 4d ba
       -0.010350616 0.0043843333 -0.0052800816 -0.00078556786
000220 c9 45 b5 3b c2 6d af 3b 7f 48 c9 3d 6d 79 49 3d
       0.0055320007 0.0053536603 0.09828281 0.049188066
000230 1a 1c 51 39 10 5d c7 38 74 ef 0b 39 4b f5 3b 3a
       0.00019942262 9.506394e-05 0.00013345276 0.00071700354
000240 02 68 c0 39 aa 63 03 bb 2c 45 b7 ba be fe 24 bc
       0.00036698586 -0.0020048418 -0.0013982407 -0.010070501
000250 92 d4 6c 3c 75 4d 87 3b 00 99 a2 bc 6c 39 67 bc
       0.014454978 0.0041291066 -0.019848347 -0.014112812
000260 e0 1e 8c be 4f cf f8 bd 0e a8 5e bb 25 00 7e 3b
       -0.27367306 -0.12148916 -0.003397468 0.003875741
000270 be 60 4c 3a b0 7f b8 bb 73 c9 9c bb 8e 15 a8 bd
       0.0007796398 -0.005630456 -0.004784757 -0.08207236
000280 2c 0b 1f bd 39 c8 4f 3a 05 ee 2f b9 65 e9 42 39
       -0.038829014 0.0007926259 -0.0001677797 0.00018588228
000290 8d e9 c7 3a 00 32 a8 3a 44 f0 93 3a 5e 38 6d 3a
       0.0015252099 0.0012832284 0.0011286815 0.0009049232
0002a0 45 d0 fd bb 5b 2c 40 3c 34 a0 30 3b 9c dd 60 bc
       -0.007745775 0.011729325 0.0026950957 -0.013724711
0002b0 07 c8 26 bc 61 42 51 be 48 e7 bf bd 48 7a b1 b8
       -0.010179526 -0.20435478 -0.09370285 -8.462794e-05
0002c0 e9 5d ff b9 f0 8a a8 b9 60 c1 f4 39 2a 36 83 b8
       -0.0004870736 -0.00032146974 0.00046683382 -6.2566556e-05
0002d0 f6 a3 91 3b 4a b4 a0 39 47 27 2f ba 70 a5 2d 3a
       0.0044445945 0.00030651904 -0.0006681573 0.00066240784
0002e0 04 5d 66 38 be 45 ad ba 94 30 e4 b9 99 f4 88 bc
       5.49229e-05 -0.0013219637 -0.00043523742 -0.016718196
0002f0 5f 4c a1 bb 84 fc a0 3b 9c 84 a2 bb cf 7d 4d ba
       -0.004922434 0.0049129147 -0.004959656 -0.00078388763
000300 9a fd e6 3b 02 f8 e1 3b bf 4e e0 3d e1 a8 64 3d
       0.0070492746 0.00689602 0.109525196 0.055825118
000310 65 ac b3 3a b8 70 f7 ba 1b 1e d9 b9 24 2a 1c 3b
       0.0013707994 -0.0018878197 -0.00041411896 0.0023828829
000320 18 90 fe 3a 69 3c 0e 3d 1f 94 84 3c ed 24 0b 39
       0.0019421605 0.03472558 0.01618391 0.00013269829
000330 82 8a 21 b8 76 24 e6 37 f0 b1 84 39 01 ad 6c 39
       -3.8514387e-05 2.7435115e-05 0.00025309576 0.00022571163
000340 86 e7 46 3a 33 86 c3 39 fa 58 99 ba 19 13 b3 3a
       0.00075876 0.00037293285 -0.0011699491 0.0013662308
000350 fa 6b 92 39 aa 13 e0 ba d0 88 c4 ba 49 32 de bc
       0.0002792774 -0.0017095704 -0.0014994387 -0.027123587
000360 25 7b 59 bc 90 2f 02 ba 73 8a 9a 3a 8d b2 03 3a
       -0.013273989 -0.0004966194 0.0011790529 0.00050238596
000370 5e 06 d9 ba 12 8c 4b ba 57 38 b0 bc 7a 02 04 bc
       -0.0016557684 -0.00077647076 -0.02151124 -0.008057231
000380 0f 8a 94 3c 48 99 a0 bc 24 dc e0 bb 9c ef ed 3c
       0.018132238 -0.01960434 -0.0068621803 0.029044919
000390 e8 58 d1 3c 85 b4 fa 3e 1a f7 69 3e 22 e0 52 ba
       0.02555509 0.4896585 0.22848168 -0.00080442626
0003a0 d7 cb 94 3a 85 b5 3b 39 1a c4 58 ba 52 3a 69 ba
       0.0011352253 0.00017901331 -0.00082689675 -0.0008896935
0003b0 e7 6c ac bc dd 8f 34 bc b2 ea 91 3a 5b cc df b9
       -0.021048022 -0.011020628 0.0011132567 -0.0004268613
0003c0 86 b1 a4 b9 83 f3 18 3a 8c a1 c2 3a fe 0b 94 3c
       -0.00031412783 0.0005834626 0.001484917 0.018072125
0003d0 93 eb 34 3c 11 4f 2a b9 25 39 d6 b7 8c 73 f8 b8
       0.011042493 -0.00016241918 -2.5537398e-05 -0.00011847084
0003e0 9b cb e7 b9 6c b8 cb b9 d9 06 1f 3b 4b 56 4b 3a
       -0.0004421145 -0.00038856582 0.0024265556 0.0007756694
0003f0 62 05 47 39 f4 57 c3 b8 bf d5 24 b8 54 21 76 39
       0.00018980124 -9.314707e-05 -3.9299714e-05 0.00023472804

exp_avg_sq f4 [128, 7]
000000 94 a7 1a 39 4e 2b 2e 39 f8 e3 93 37 2c e7 ae 39
       0.00014749012 0.00016610065 1.7629922e-05 0.00033360103
000010 18 75 33 39 d6 e6 71 3c e5 1c 22 3b 34 f8 2c 39
       0.00017114391 0.014764508 0.002473646 0.00016495661
000020 fa 64 f9 38 d6 72 c6 37 ac 2b 95 39 5c 07 16 39
       0.000118920536 2.3656914e-05 0.00028452033 0.00014307856
000030 ad a0 62 3c 73 5e 10 3b 78 4e bd 3a 6c 71 13 3a
       0.013832253 0.0022028952 0.0014442941 0.0005624506
000040 1f 3e 09 39 34 88 07 3b 2f ab 99 3a ab ef e4 3d
       0.0001308848 0.0020680549 0.001172399 0.111785255
000050 20 67 94 3c 19 fd 25 39 d5 b1 80 38 03 fe 9f 37
       0.01811558 0.00015829912 6.1366394e-05 1.907256e-05
000060 0c 94 78 39 f9 cb 04 39 10 68 41 3c a6 6d fa 3a
       0.00023706275 0.00012664487 0.011804596 0.0019106164
000070 a5 73 b4 39 3e 34 9b 39 49 a6 52 38 68 0a 49 3a
       0.00034418437 0.00029602827 5.0222767e-05 0.0007669092
000080 1d 6c db 39 48 9b 06 3d 54 ca ab 3b e1 1c be 3b
       0.00041851486 0.03286293 0.0052426253 0.0058017825
000090 3c f4 9b 3b 14 14 1b 3a 2c 1f 2b 3c 19 42 c5 3b
       0.0047593396 0.00059157726 0.010444444 0.0060198423
0000a0 eb 7b 02 3f be 24 af 3d 77 44 65 39 67 d0 7e 39
       0.50970334 0.0855193 0.00021864647 0.00024300964
0000b0 cc 03 0b 38 77 d9 09 3a 7e dc 8c 39 a7 86 c0 3c
       3.314372e-05 0.000525854 0.0002686716 0.023501707
0000c0 5b 14 78 3b 48 e4 a4 36 84 ad 02 37 43 d0 49 35
       0.003785393 4.9141563e-06 7.789004e-06 7.5181396e-07
0000d0 1d 47 57 37 da fc d6 36 da 58 14 3a 91 63 cd 38
       1.2831556e-05 6.407133e-06 0.0005658992 9.7937074e-05
0000e0 21 f9 22 3a 73 04 6c 39 e5 af 83 38 82 72 6b 3a
       0.00062169327 0.00022508371 6.27933e-05 0.00089816016
0000f0 8b d9 fc 39 eb 66 3d 3d 91 32 f4 3b 30 7a 18 38
       0.00048227268 0.04624073 0.007452317 3.635342e-05
000100 eb 8e 64 37 b9 61 6d 36 8b 1e 65 38 c7 ea fc 37
       1.3623135e-05 3.5372634e-06 5.46263e-05 3.0150068e-05
000110 fd 31 3a 3b fd 86 f0 39 9f 2d e9 37 13 ea e6 37
       0.0028411143 0.0004587694 2.7797008e-05 2.7527136e-05
000120 08 af 8a 36 7a c1 5b 38 bb 4b 1f 38 06 22 36 3b
       4.133097e-06 5.2393858e-05 3.7979084e-05 0.0027791276
000130 2d 2d ef 39 31 54 26 39 e9 82 3f 39 f6 c2 9c 37
       0.0004561929 0.00015862357 0.00018263947 1.8687435e-05
000140 eb d9 c0 39 b7 e9 41 39 18 76 82 3c d7 cd 2f 3b
       0.00036783455 0.0001849298 0.015925452 0.002682557
000150 b8 e1 62 39 9a d7 2d 39 5f 8a d2 37 08 38 e1 39
       0.00021637126 0.00016578884 2.5098385e-05 0.0004295709
000160 84 5c 65 39 3d ea 98 3c ef 48 4c 3b fd 95 2f 3b
       0.00021873607 0.018666381 0.0031171401 0.002679228
000170 eb 66 04 3b 92 61 ce 39 25 87 a9 3b 3a 1d 31 3b
       0.0020202945 0.00039364077 0.005173581 0.0027025477
000180 37 0d 71 3e ec 69 1e 3d 77 f7 ab 39 a1 70 ab 39
       0.23540197 0.038675234 0.00032800037 0.00032699577
000190 a6 f0 5b 38 5d cd 40 3a 0e a2 d2 39 db 22 08 3d
       5.243779e-05 0.000735482 0.0004017506 0.033236366
0001a0 d7 c6 b4 3b 99 ca 34 37 66 b5 03 37 be 74 c3 35
       0.0055168676 1.0776007e-05 7.850444e-06 1.4562609e-06
0001b0 eb db 74 37 eb ac 17 37 ea 71 56 3a 20 8d 0c 39
       1.4594737e-05 9.040562e-06 0.00081804267 0.00013404014
0001c0 46 eb 48 3a 31 ad 8d 39 40 3b 9b 38 d3 26 91 3a
       0.0007664453 0.00027022653 7.402012e-05 0.0011074193
0001d0 cb 75 1d 3a 11 ec 67 3d 8c 0e 15 3c 88 f6 0e 38
       0.0006006627 0.056621615 0.0090977065 3.408504e-05
0001e0 7e 09 91 37 c2 e7 b1 36 de ca 74 38 17 2a 05 38
       1.7289767e-05 5.301991e-06 5.8363068e-05 3.174887e-05
0001f0 2c 7b 39 3b a6 f2 ea 39 b8 dc f7 39 46 17 df 39
       0.0028302176 0.00044812745 0.0004727596 0.00042551215
000200 1c ee 57 38 36 aa 78 3a e9 45 09 3a b0 aa 2b 3d
       5.148175e-05 0.00094858126 0.00052365527 0.041910827
000210 d1 08 de 3b 14 94 c7 39 c6 29 f0 39 2e 65 3c 38
       0.0067759533 0.00038066565 0.0004580749 4.4916924e-05
000220 40 15 65 3a 7b 41 eb 39 c5 56 1d 3d 80 ca cf 3b
       0.0008738823 0.0004487148 0.038412828 0.0063412786
000230 d6 f9 5b 38 00 b4 a7 37 8d 39 e3 36 a9 23 8e 38
       5.2446347e-05 1.999177e-05 6.771827e-06 6.77773e-05
000240 f8 50 1e 38 3b 57 96 3b 82 1a 41 3a 86 38 00 3b
       3.7745544e-05 0.0045880354 0.00073663157 0.001956494
000250 a3 92 0a 3b 6b bb 60 39 41 f7 80 3b 0d 96 09 3b
       0.0021144531 0.00021432123 0.003935725 0.0020993978
000260 7d 92 42 3e 84 fe 03 3d 1f 92 76 39 0b f9 85 39
       0.19001193 0.032225147 0.00023514823 0.00025553288
000270 52 92 db 37 4a 21 04 3a b4 ee 88 39 bf cb b4 3c
       2.617497e-05 0.0005040361 0.0002611779 0.02206981
000280 73 1d 76 3b 27 ae 3b 39 e2 78 89 38 c6 29 94 37
       0.0037554174 0.00017898587 6.555185e-05 1.7662427e-05
000290 cf 94 8b 39 7a dc 1a 39 5a b9 5e 3c a7 bd 0f 3b
       0.00026623017 0.00014768718 0.013593996 0.002193311
0002a0 91 b1 ea 3a 16 7a e1 3a b0 93 45 39 62 e6 5f 3b
       0.0017905702 0.0017202522 0.00018842402 0.0034164418
0002b0 05 d8 ee 3a 8c 86 26 3e 5f 3c e1 3c 4f 9e 13 38
       0.0018222338 0.16262263 0.027494607 3.5194967e-05
0002c0 fb 62 81 37 cf 5b 88 36 c9 a3 6a 38 b9 7e 07 38
       1.542409e-05 4.0638038e-06 5.5942484e-05 3.2304528e-05
0002d0 9f 75 44 3b 2b dd fb 39 17 74 e9 37 99 d0 09 38
       0.0029977334 0.00048039234 2.7829823e-05 3.2857617e-05
0002e0 8b eb 9c 36 09 7d 8a 38 15 c2 0d 38 b3 7a 3e 3b
       4.676583e-06 6.6036424e-05 3.3797773e-05 0.0029064834
0002f0 92 d6 fa 39 1b f8 f3 39 6f 3e 03 3a 90 09 5e 38
       0.00047843583 0.00046533425 0.0005006557 5.293783e-05
000300 5c ac 82 3a 4b d3 0a 3a 13 5d 33 3d d7 04 f3 3b
       0.000996958 0.00052957673 0.043789934 0.0074163484
000310 0e b1 02 38 fa 16 21 38 c1 ff 80 36 4b 54 9a 38
       3.115931e-05 3.840679e-05 3.844471e-06 7.358993e-05
000320 ab c9 23 38 f0 f6 58 3b 4e 7d 14 3a ea 11 6a 37
       3.9050046e-05 0.003310617 0.0005664424 1.3951658e-05
000330 92 78 e6 36 4d b3 31 36 99 9e 9c 37 2e 6b 29 37
       6.8685704e-06 2.6479422e-06 1.8670502e-05 1.009814e-05
000340 ed f2 84 3a 33 a7 28 39 a8 cf 10 38 f4 20 21 38
       0.0010143198 0.00016084015 3.452567e-05 3.841608e-05
000350 89 e8 79 36 69 88 9c 38 52 98 21 38 10 31 53 3b
       3.7239245e-06 7.464068e-05 3.852725e-05 0.0032225288
000360 fb b9 0d 3a 08 25 52 37 cf 6c 11 37 0d 28 b9 35
       0.00054064364 1.2525597e-05 8.6680075e-06 1.379523e-06
000370 c6 45 ac 37 37 74 58 37 06 e3 6f 3a 38 fe 1e 39
       2.0536489e-05 1.2901662e-05 0.00091509556 0.00015162758
000380 08 d1 c1 3b de f1 c9 3b 15 28 3c 3a 1a 50 4d 3c
       0.005914811 0.006162866 0.00071776035 0.012531305
000390 36 26 eb 3b cf 24 1c 3f f5 e5 d2 3d 07 34 1b 38
       0.007176186 0.60993665 0.10297767 3.7003334e-05
0003a0 72 51 17 38 35 ae 8f 36 24 36 99 38 14 a4 21 38
       3.6077057e-05 4.2820125e-06 7.305693e-05 3.85382e-05
0003b0 cf f1 51 3b bf 89 0c 3a 20 f2 9d 37 ae 93 82 37
       0.0032034998 0.0005361102 1.8828607e-05 1.5565976e-05
0003c0 ed aa a4 36 d2 a1 ed 37 0f a1 d2 37 b5 4d e8 3a
       4.9074793e-06 2.8327955e-05 2.510895e-05 0.0017723354
0003d0 25 f2 8c 39 8b 4a 0b 37 fb 5a b6 36 84 e7 cc 35
       0.00026883293 8.3024015e-06 5.434614e-06 1.5266564e-06
0003e0 4d 4c 4c 37 c0 89 df 36 d1 8a 5c 3a 1b 2e 0d 39
       1.2177113e-05 6.661954e-06 0.0008413019 0.00013463983
0003f0 31 29 9f 37 02 34 4d 37 4f 0d 96 36 5f ea 24 38
       1.8973458e-05 1.2231061e-05 4.4718977e-06 3.9318922e-05

exp_avg f4 [128]
000000 9b 69 47 bc 81 51 05 3b 76 7c 88 bc a1 e1 d6 b9
       -0.012171174 0.002034277 -0.01666091 -0.00040985367
000010 ac dd c2 3a ac bc 9b bd 2e 6a f4 bb 4f f6 11 3b
       0.0014867089 -0.07604346 -0.0074589467 0.0022272056
000020 8b d5 11 b9 a2 a5 ab 39 fa 53 f4 bb a4 52 46 3c
       -0.00013907829 0.00032739068 -0.0074563 0.012104664
000030 09 e5 2a bc 0b 7c ec 3c 71 23 5c bc 3e 91 31 3b
       -0.010430583 0.028867742 -0.013436184 0.0027094628
000040 94 ae 17 3b 3e 84 15 ba db 5b 0c bb 3c 67 9b bc
       0.0023144828 -0.00057036045 -0.0021417055 -0.018970124
000050 7d 5a 3e b8 cf bc 5f 3d eb 97 86 3c 9d 62 87 ba
       -4.5383804e-05 0.05462342 0.016429862 -0.0010329072
000060 cf c9 26 3d 1a e7 51 ba e0 85 4b 3b b6 da b3 bc
       0.040719803 -0.0008007154 0.0031055138 -0.021954875
000070 a4 02 e4 bb 17 d5 4b b9 d2 06 ab 3b 3a 57 8e 3b
       -0.0069583226 -0.00019438971 0.005219319 0.0043438943
000080 61 6b c5 bd 1a dd 73 3b 02 96 62 bb ae e1 c8 b9
       -0.096396215 0.0037210644 -0.0034574275 -0.00038315117
000090 b3 c5 0d ba b4 77 89 b9 b6 59 4f 3b b2 86 d2 bc
       -0.00054081826 -0.00026219862 0.0031639165 -0.025698993
0000a0 6d 86 0c bb aa 07 81 3c 1b f1 5c bc 7e d1 d3 bc
       -0.0021442429 0.015750725 -0.013485218 -0.02585673
0000b0 4b 25 3f ba c5 bc 01 bd 75 bf 5a 3a b7 4f 79 3c
       -0.0007291629 -0.031674165 0.00083445694 0.015216759
0000c0 fb 2d 5f bc b1 8d e2 3c e0 d8 8e ba d8 8d 38 3c
       -0.013621802 0.027655454 -0.0010898374 0.011264287
0000d0 10 c3 6b 3c de 4c 1d bd 14 93 47 bb cf fd e3 3a
       0.014389768 -0.038403384 -0.0030452656 0.0017394366
0000e0 84 6a 66 3a 76 e5 a4 bc 1d ef 29 bb 6f f5 33 bb
       0.0008789676 -0.020128947 -0.0025929876 -0.0027459522
0000f0 ed 7f 99 bd 4d e7 a0 b8 e7 63 ff 38 c9 78 e8 bb
       -0.07495103 -7.672478e-05 0.00012177956 -0.007094477
000100 db 8c 0b 3c 07 57 42 ba 11 c6 5f 3d 55 b2 d5 bc
       0.008517469 -0.0007413481 0.05463225 -0.026086012
000110 a4 43 06 bb 01 6d f1 b9 3f 4d a2 3c 4f fb a5 3c
       -0.0020487094 -0.00046048316 0.019812224 0.020261435
000120 ad 1a 40 3d 4b 8b 7a 3d 58 86 db 3a de 2a 09 bb
       0.04690044 0.061167996 0.0016748412 -0.0020930092
000130 14 32 09 3a 68 14 05 bd 54 96 ca 3c 02 b2 df 3c
       0.00052335975 -0.032490164 0.024729885 0.02730656
000140 d6 1a 4c bd 97 db 8e 3d b2 a8 f2 bb 6c 0d 11 bd
       -0.04983028 0.06975477 -0.007405364 -0.03541319
000150 ce 76 64 ba 3a 6b 3c ba 55 ac 82 ba 5f 45 3b 3d
       -0.0008715213 -0.0007187609 -0.0009969572 0.045720454
000160 35 d2 97 3a a2 e1 ef 3c 45 7a 44 3c 92 2b ce bb
       0.0011583032 0.029282395 0.011992042 -0.006291815
000170 fe cd 33 b9 1b 28 19 bb 57 bb 2d 3b 50 45 ca 3b
       -0.00017147508 -0.0023369852 0.0026509368 0.0061728135
000180 02 f3 4a bc d1 fc a9 bc 98 57 b3 3c 59 02 17 b8
       -0.012387039 -0.020750435 0.021892354 -3.6003392e-05
000190 09 a0 b8 bc 63 44 e2 3c a4 6f 99 3c 59 fd 27 3a
       -0.022537248 0.0276205 0.018729992 0.0006408296
0001a0 e7 87 df 3b cf 30 9d 3c a5 9e f9 ba 51 41 6e b9
       0.0068216207 0.019188313 -0.0019044472 -0.00022721781
0001b0 ff 8c ca bb b9 68 e4 3c d1 a5 67 bb 07 d1 62 3c
       -0.006181359 0.027881967 -0.0035346637 0.013843781
0001c0 77 a2 9b bd ab 74 bd ba e6 4d 65 3b e8 40 b1 ba
       -0.07599347 -0.0014454325 0.0034989058 -0.0013523372
0001d0 e2 8e 96 ba e8 a5 0f 3b a3 56 40 b8 6f d1 54 bc
       -0.0011486674 0.0021918956 -4.5857054e-05 -0.012989386
0001e0 31 03 e7 b8 cf cf 0e 38 ab 55 90 3a 49 7c 83 3c
       -0.00011015533 3.4048975e-05 0.0011011859 0.016050475
0001f0 9c 71 ab bc a3 40 30 bc e7 ff 2f b9 ec 4f 08 3c
       -0.020928197 -0.010757598 -0.00016784632 0.008319836

exp_avg_sq f4 [128]
000000 1d e2 1a 3a 9c f4 0b 3a 81 63 95 3b b3 ad f6 39
       0.00059083273 0.0005338879 0.004558981 0.00047050192
000010 cf 0a aa 3a 7c 5c a6 3c 8d b1 7a 3a ff 7e bf 37
       0.0012973192 0.020307772 0.00095632003 2.2828111e-05
000020 ea 0d f3 3a b2 03 ed 38 2a 74 e8 38 da 52 27 3a
       0.0018543575 0.00011301729 0.00011084259 0.000638289
000030 b5 90 45 3a ab 8a 1b 3c 4b 18 af 3a d5 67 04 38
       0.00075365166 0.00949351 0.001335868 3.1567954e-05
000040 4b 33 14 3b f9 5e ed 38 41 03 dc 3a 16 00 cb 3a
       0.002261358 0.00011318731 0.0016785638 0.0015487697
000050 87 45 40 39 d0 46 f6 3b 24 54 67 3a a0 60 0e 3a
       0.00018336448 0.0075157657 0.00088244886 0.00054312684
000060 e3 2d d4 3b 0a b3 f7 38 4b cf f3 38 f2 d1 e5 3a
       0.0064751967 0.000118112264 0.00011625754 0.0017533882
000070 1a e8 0a 39 2a f4 29 38 a3 15 07 39 d4 cf 1b 38
       0.0001324717 4.0520135e-05 0.00012882664 3.7148435e-05
000080 77 a1 c9 3c 11 cb 05 39 a0 1c 91 38 98 ee 0a 38
       0.024613125 0.00012759517 6.9194706e-05 3.312397e-05
000090 f1 bc 7e 38 df 71 b1 38 60 8a 27 3b 4b 16 ec 3a
       6.0734284e-05 8.461228e-05 0.0025564656 0.0018012015
0000a0 65 71 b1 39 a6 3a 98 3b 86 3e 0c 3a 78 69 09 3b
       0.00033844556 0.0046456633 0.0005349893 0.0020967405
0000b0 2b 08 16 3a 9a 78 f1 3b 04 46 07 39 1a f6 74 3b
       0.0005723263 0.007369113 0.00012900686 0.0037378133
0000c0 85 b5 07 3a 92 08 51 3b 0b f0 ac 3a 48 25 3f 3a
       0.000517689 0.0031895977 0.0013194097 0.0007291627
0000d0 21 6a 80 3a 17 e1 13 3c 70 f9 63 39 c5 20 3d 37
       0.0009797254 0.009025834 0.0002174133 1.1272908e-05
0000e0 fc b8 eb 38 be 56 8a 3b 4f f3 6d 3b 11 ee 7b 3a
       0.00011240129 0.0042217663 0.0036308353 0.0009610365
0000f0 0f 53 74 3c c2 1a 7b 39 c7 48 19 39 3f 66 f7 38
       0.014912381 0.00023947193 0.00014618329 0.000117969226
000100 dd 98 98 39 e2 12 4f 38 dd 3b 0e 3c 88 75 c1 3b
       0.0002910559 4.9370232e-05 0.008681265 0.0059039034
000110 3c f3 36 38 05 59 8d 38 26 2d f8 3b bc d2 90 3a
       4.361871e-05 6.739985e-05 0.0075737415 0.0011049132
000120 00 a6 16 3c 72 e8 72 3c b2 f0 22 3b 98 28 a4 38
       0.009194851 0.014825927 0.0024862704 7.8276906e-05
000130 1f 38 0e 38 e9 89 23 3b 6c 09 ca 3a 8f 34 37 3b
       3.3907705e-05 0.0024954027 0.0015414185 0.0027954911
000140 d9 cb fd 3b 8b 62 17 3d ed fb a7 3b 6f 75 56 3b
       0.007745248 0.036959212 0.0051264674 0.0032723804
000150 dc 8e d1 39 77 66 d4 39 5b 0a c5 3a 97 33 d8 3b
       0.00039970025 0.00040512133 0.0015032993 0.006597947
000160 3a 6c 18 3a 26 49 87 3b 34 aa 53 3a d7 50 15 3b
       0.0005814467 0.004128593 0.00080743735 0.002278378
000170 11 00 82 39 11 c7 47 38 b2 30 6a 39 e3 40 5a 39
       0.00024795582 4.7630692e-05 0.0002233412 0.00020814272
000180 e9 23 d5 39 6b 3f 70 3a 42 d3 b6 3c a5 1f ac 38
       0.0004065328 0.00091647235 0.022317532 8.2074934e-05
000190 c7 96 e0 3a 57 88 f6 3b dc 4d d8 3a 00 d7 0e 39
       0.0017134779 0.007523577 0.0016502696 0.00013622269
0001a0 33 66 85 39 c7 b0 44 3c f1 2f 93 3a 5e 95 5d 3a
       0.0002544388 0.012005038 0.0011229498 0.00084527384
0001b0 bf 75 e6 3a 5f d4 17 3b c6 8e b6 38 af 14 06 3c
       0.0017582698 0.0023167355 8.70503e-05 0.008183642
0001c0 92 f6 e2 3c 9f 03 8d 3a 15 ff 23 38 db 4e 2d 3a
       0.027705465 0.0010758525 3.9099792e-05 0.00066111767
0001d0 70 52 d4 39 b9 d9 aa 39 89 3b 8e 3a 5e b0 db 39
       0.00040497212 0.00032587143 0.0010851483 0.0004190234
0001e0 6c 15 ce 39 05 ff 19 38 bb 7b 8a 3a 84 0c a2 3a
       0.00039307342 3.6715548e-05 0.0010565439 0.0012363349
0001f0 ea bd bd 3a 7c fb 61 3b 67 f5 91 38 f7 c7 4b 3b
       0.0014476154 0.0034482172 6.9598485e-05 0.003109453
