Assets/IA/Pruebas/results/Pad21/PadBehavior/PadBehavior-20012.pt (torch, 438460 bytes, 30 tensors)

network_body._body_endoder.seq_layers.0.weight f4 [128, 5]
0.42996395 0.17298038 0.43226597 -0.65734345 -0.3676422 -0.08712453 0.120154224 0.07518837
-0.5869637 0.51879704 -1.0987288 -0.39901343 0.34654573 0.023454463 -0.23142388 0.11068607
-0.14673556 0.46316227 -0.0110930735 -0.1953183 -0.33886367 -0.26690766 0.26432827 0.08725034
0.37213162 0.26335937 -0.10142763 -0.19065706 0.28966138 0.07772902 -0.5380926 0.55234027
-0.82465667 -0.085136585 -0.2964447 0.6829347 0.032630336 -0.59962386 0.14437418 0.084661916
0.62591416 -0.1146647 -0.83579975 -0.30353495 -0.038911615 0.26810983 -0.01523902 0.10024726
0.22582227 -0.4188455 -0.44478893 -0.6597085 -0.94294626 -0.23007384 0.61388147 0.20413962
0.20619445 -0.16196945 0.7645829 -0.04645956 0.99276894 -0.1681487 0.27177402 0.19733618
-0.4100852 -0.31793728 0.015043998 0.12542309 0.087860756 0.8411651 -0.22799344 0.054742105
0.045233697 0.09601777 -1.5342324 -0.5898018 0.1786742 -0.3746907 0.34130117 -0.3395667
0.6688434 0.4130936 -0.49393234 -0.22696167 0.68558943 -0.65640754 -0.15711083 0.10848226
0.042359617 0.3538035 -0.049069613 0.2861633 0.26679355 -0.24081482 0.21218918 0.36481756
0.22191311 0.021449799 0.4329684 -0.8089409 -0.2617163 0.40028 -0.1745018 -0.015090581
0.73484504 -0.24549705 -0.033162247 0.06019347 1.0694798 0.62292415 -0.54651684 -0.2770175
-0.17669705 0.82733154 0.20979159 -0.43843374 -0.5983376 -1.0276521 0.69475096 0.117117554
-0.00055553816 0.10398953 0.18501994 0.8759741 -0.04903353 0.46141967 -0.19053702 -0.032242008
0.37030023 0.3782312 0.9369904 -0.6321677 -0.24649267 0.074232586 -0.5396474 0.046791986
0.56195855 0.00697244 -0.8040764 -0.058020074 0.0257255 0.46157295 0.32045874 -0.3337419
0.47313067 -0.017207382 1.0333785 -0.010940199 -0.101304516 0.31758446 0.1946827 -0.83459324
0.1579216 -0.19212583 -0.017035924 -0.60474604 -0.094292834 0.026466 -0.05448255 -0.50411916
-0.10132901 -0.12317628 0.1616609 0.11363326 0.36375135 -0.06169925 0.5913585 -0.16867353
0.6915245 -0.20908885 -0.16628282 -0.8024636 0.43365702 0.50022155 0.08995889 0.8794455
-0.30787385 0.6086478 0.60955393 -0.6663175 0.90970546 -0.6380571 0.24696209 -0.05742346
-0.27589214 -0.31652784 0.5711529 0.06623153 0.9253836 -0.2588587 0.06400205 -0.3241723
0.08145726 -0.26632228 -0.090739176 0.30730465 0.031333435 -0.27358165 0.3341091 0.048222225
-0.35893986 -0.5142093 -0.06361271 -0.21318279 0.63219184 -0.1550226 -0.28682494 -1.0403527
-1.2522 -0.61768913 0.45071334 0.5450209 0.34493953 -0.25808528 0.18597443 0.43744302
0.24518472 0.8459494 -0.30151826 0.77235585 -0.15900567 -0.10780801 -0.4227854 0.2929612
-0.4263885 0.16636962 0.13319953 0.06968979 -0.35025045 -0.13270934 -0.15649301 0.0071454267
-0.8450888 0.33535898 0.21102262 -0.1013521 -0.08242927 -0.050993342 -0.2248123 0.3916234
0.22700611 -0.69263315 -0.29059604 -0.27552724 -0.57487047 -0.19676767 -0.049252823 0.44596025
-0.82740855 0.29611742 0.28892532 -0.21691458 -0.33856806 0.2803496 -0.22571431 -0.54440665
00000000: 3c24 dc3e c521 313e f751 dd3e a947 28bf
00000010: 993b bcbe 586e b2bd 6b13 f63d 5cfc 993d
00000020: 4143 16bf e2cf 043f 25a3 8cbf 7d4b ccbe
00000030: 716e b13e 9323 c03c 62fa 6cbe 61af e23d
00000040: d941 16be 9b23 ed3e b9bf 35bc 8501 48be
00000050: 8a7f adbe 1fa8 88be 0956 873e 4eb0 b23d
00000060: 0988 be3e 0ad7 863e 4ab9 cfbd 9b3b 43be
00000070: 7f4e 943e 6430 9f3d 70c0 09bf 2c66 0d3f
00000080: b31c 53bf 175c aebd 9ac7 97be cfd4 2e3f
00000090: 63a7 053d f380 19bf d3d6 133e 3a63 ad3d
000000a0: e93b 203f 54d5 eabd f9f6 55bf ef68 9bbe
000000b0: c961 1fbd b145 893e 15ad 79bc 6f4e cd3d
000000c0: f43d 673e eb72 d6be 60bb e3be a8e2 28bf
000000d0: ed64 71bf 7a98 6bbe 5627 1d3f fa09 513e
000000e0: a324 533e 52db 25be b4bb 433f 614c 3ebd
000000f0: 1b26 7e3f 2c2f 2cbe f725 8b3e 7f12 4a3e
00000100: b0f6 d1be adc8 a2be 1a7b 763c e96e 003e
00000110: 57f0 b33d 9956 573f 1d77 69be 4239 603d
00000120: f846 393d f7a4 c43d ba61 c4bf 40fd 16bf
00000130: 5ff6 363e 76d7 bfbe 07bf ae3e b0db adbe
00000140: 5239 2b3f 0181 d33e b3e4 fcbe a468 68be
00000150: ca82 2f3f 530a 28bf a9e1 20be f22b de3d
00000160: 4781 2d3d bb25 b53e 38fd 48bd ff83 923e
00000170: 2a99 883e 2998 76be 1f48 593e 5ec9 ba3e
00000180: 313d 633e 7db7 af3c 09ae dd3e c016 4fbf
00000190: aeff 85be 80f1 cc3e 9ab0 32be 7c3e 77bc
000001a0: ce1e 3c3f 9463 7bbe 23d5 07bd 6e8d 763d
000001b0: b7e4 883f f577 1f3f 87e8 0bbf 3dd5 8dbe
000001c0: 12f0 34be 00cc 533f 9bd3 563e 637a e0be
000001d0: a72c 19bf 1b8a 83bf 33db 313f 54db ef3d
000001e0: 89a1 11ba 76f8 d43d de75 3d3e d73f 603f
000001f0: 62d7 48bd 333f ec3e 231c 43be 3210 04bd
00000200: fe97 bd3e 85a7 c13e 9ade 6f3f bed5 21bf
00000210: 9368 7cbe 4107 983d 5526 0abf f4a8 3f3d
00000220: 84dc 0f3f 1179 e43b f3d7 4dbf 75a6 6dbd
00000230: 49be d23c 4a53 ec3e 2b13 a43e 38e0 aabe
00000240: 2f3e f23e 7ff6 8cbc bf45 843f 853e 33bc
00000250: be78 cfbd 6e9a a23e e75a 473e e7a7 55bf
00000260: 33b6 213e a2bc 44be ec8e 8bbc a3d0 1abf
00000270: 9a1c c1bd 3acf d83c 1829 5fbd f40d 01bf
00000280: 9685 cfbd d843 fcbd 6f8a 253e 8eb8 e83d
00000290: 9e3d ba3e 5ab8 7cbd 4563 173f c1b8 2cbe
000002a0: c007 313f 631b 56be 0b46 2abe 416e 4dbf
000002b0: 4b08 de3e 850e 003f 5e3c b83d 5723 613f
000002c0: a4a1 9dbe 58d0 1b3f ba0b 1c3f c993 2abf
000002d0: 75e2 683f b657 23bf a1e3 7c3e dd34 6bbd
000002e0: bc41 8dbe f00f a2be 1437 123f 65a4 873d
000002f0: f1e5 6c3f 2189 84be 8213 833d e9f9 a5be
00000300: 10d3 a63d 655b 88be 76d5 b9bd 0957 9d3e
00000310: 7d57 003d e512 8cbe 5910 ab3e ab84 453d
00000320: f7c6 b7be 38a3 03bf 6147 82bd 974c 5abe
00000330: 53d7 213f 3fbe 1ebe b8da 92be 472a 85bf
00000340: 1748 a0bf e020 1ebf e6c3 e63e 7d86 0b3f
00000350: ea9b b03e c123 84be 1570 3e3e 88f8 df3e
00000360: b411 7b3e 2490 583f 9a60 9abe 1db9 453f
00000370: 62d2 22be 72ca dcbd 5477 d8be 03ff 953e
00000380: 984f dabe cc5c 2a3e 7565 083e 85b9 8e3d
00000390: 0754 b3be f5e4 07be b43f 20be 2f24 ea3b
000003a0: bd57 58bf 2cb4 ab3e 5016 583e b191 cfbd
000003b0: add0 a8bd 65de 50bd 3235 66be dd82 c83e
000003c0: 4a74 683e 6850 31bf 01c9 94be e811 8dbe
000003d0: b62a 13bf 777d 49be 54bd 49bd e754 e43e
000003e0: 0cd1 53bf b49c 973e 05ee 933e db1e 5ebe
000003f0: cb58 adbe fc89 8f3e a721 67be 3c5e 0bbf

network_body._body_endoder.seq_layers.0.bias f4 [128]
0.0040345336 -0.01552653 0.0021117348 -0.006442206 -0.012033437 -0.00391822 -0.0066497885 0.012266639
-0.009861649 0.002802195 -0.00019097894 -0.017467286 -0.011512381 -0.0041146628 -0.014362008 0.0029187184
0.0050828084 0.0034028953 0.007598546 -0.014270364 -0.018379966 -0.0031538184 -0.0024433907 -0.017410554
-0.014539375 -0.025223356 -0.023648636 -0.0020482873 0.011092328 -0.012096338 -0.006377814 -0.0020605337
-0.008187402 -0.009142781 0.015954232 0.005624954 -0.017389027 -0.01377287 0.00799767 -0.006291661
0.002235431 -0.015259393 0.022354146 -0.009926173 -0.015392737 -0.0102528455 -0.0017133522 -0.020504974
-0.019315084 -0.013184704 -0.013940543 0.010108689 -0.014686002 -0.022131557 -0.019055452 0.023027036
0.0054732123 -0.01569421 0.00021604824 -0.01598435 -0.004315709 0.017627658 -0.011692087 -0.0039533903
-0.010790719 -0.005178963 0.002861563 0.012893322 -0.02582419 0.0001653331 -0.009247853 -0.0015079314
-0.020283137 -0.005692269 -0.010632017 -0.0034930892 -0.016757542 -0.0054049203 -0.011646077 -0.017421141
0.0019580834 -0.009264892 0.009103833 0.021339744 -0.005534855 -0.0038792137 -0.015218468 0.010402788
0.012182177 -0.0019036328 -0.011113622 0.0023364793 -0.011342519 -0.011451107 -0.012976338 0.015610842
-0.011733241 0.006606751 -0.008638844 -0.014370661 0.007897782 0.0077566844 -0.001271585 -0.020554582
-0.0010817361 -0.0135072125 0.00026219868 0.0074787494 -0.01695384 -0.007946184 0.001501783 -0.027559442
-0.018079484 -0.007259313 -0.007029826 -0.0025151048 -0.006824351 -0.0050015594 -0.022054825 -0.013704666
0.010847913 0.0008921249 0.000769694 -0.0018030156 -0.037373118 0.0042314553 -0.0048550703 -0.019930441
00000000: 1f34 843b fd62 7ebc 0865 0a3b 2419 d3bb
00000010: e527 45bc 6964 80bb 78e6 d9bb 03fa 483c
00000020: c192 21bc 08a5 373b 8541 48b9 8e17 8fbc
00000030: 6d9e 3cbc 4bd4 86bb a14e 6bbc f847 3f3b
00000040: b08d a63b 1c03 5f3b 39fd f83b 3fce 69bc
00000050: 9591 96bc 4bb0 4ebb 4b21 20bb 94a0 8ebc
00000060: 8f36 6ebc 36a1 cebc c9ba c1bc 8f3c 06bb
00000070: 98bc 353c b82f 46bc fbfc d0bb 050a 07bb
00000080: 7424 06bc 9acb 15bc 73b2 823c 8951 b83b
00000090: 6f73 8ebc 9ba7 61bc a908 033c 472a cebb
000000a0: 4f80 123b 8802 7abc 0b20 b73c 63a1 22bc
000000b0: d231 7cbc 8dfb 27bc 8f92 e0ba 0cfa a7bc
000000c0: ab3a 9ebc a804 58bc e066 64bc ea9e 253c
000000d0: 8f9d 70bc 3d4d b5bc 2e1a 9cbc 32a3 bc3c
000000e0: a258 b33b 2591 80bc 028b 6239 9df1 82bc
000000f0: cb6a 8dbb e167 903c 2b90 3fbc 718b 81bb
00000100: 8ecb 30bc 4ab4 a9bb 1089 3b3b 833e 533c
00000110: 408d d3bc 445d 2d39 4f84 17bc c8a5 c5ba
00000120: d228 a6bc 3786 babb e931 2ebc 50ec 64bb
00000130: 1d47 89bc c21b b1bb 30cf 3ebc c8b6 8ebc
00000140: 3053 003b c6cb 17bc 3e28 153c b0d0 ae3c
00000150: bb5d b5bb 683a 7ebb e256 79bc 7570 2a3c
00000160: c197 473c 5183 f9ba e915 36bc 9e1f 193b
00000170: f9d5 39bc 6d9d 3bbc b59a 54bc 9ec4 7f3c
00000180: c83c 40bc 727d d83b f089 0dbc ec72 6bbc
00000190: b365 013c c92b fe3b 50ab a6ba 1562 a8bc
000001a0: 0ac9 8dba 5b4d 5dbc b677 8939 4c10 f53b
000001b0: c8e2 8abc b630 02bc 7ad7 c43a 57c4 e1bc
000001c0: 6d1b 94bc 88df edbb 745a e6bb 75d4 24bb
000001d0: ce9e dfbb 1fe4 a3bb 52ac b4bc 8989 60bc
000001e0: 72bb 313c 7ddd 693a 4ac5 493a 2a53 ecba
000001f0: 8e14 19bd 05a8 8a3b 4817 9fbb 2a45 a3bc

network_body._body_endoder.seq_layers.2.weight f4 [128, 128]
0.02771337 0.24823591 -0.17790341 0.042713974 -0.03493116 -0.026534045 0.021000754 0.08396279
-0.04026489 -0.108976796 -0.024723332 0.015944127 0.03168956 -0.03424099 -0.004275459 0.04217635
-0.10100177 -0.03039438 0.18064433 0.026988778 -0.01691916 -0.044083722 0.017834997 0.005381615
0.023979686 -0.109084606 -0.047941078 -0.12683448 0.07232794 -0.08962245 -0.009687146 -0.10809358
0.06694549 0.032597255 -0.11320223 0.01914202 0.021307893 0.090538755 0.18187353 -0.07843044
0.095456086 0.037004143 0.001095372 -0.029205138 0.056096617 -0.0941309 -0.113369435 -0.035852797
0.07245571 -0.09284635 -0.10265817 0.046050698 -0.06211026 -0.124582425 0.07628551 -0.10424517
-0.047527708 0.036980566 0.092672095 0.03124571 0.0052378927 0.04319267 0.046005774 -0.10152865
-0.022422824 0.0018867999 0.1253768 0.007167636 -0.061396975 -0.03199444 0.063065626 0.04283778
0.077549435 0.11687951 -0.22509597 0.019376446 -0.065051116 -0.033333436 -0.03786934 -0.023401037
0.1962907 0.07952794 -0.021221632 -0.006565135 0.25046408 0.15314424 0.07149291 0.096624695
0.09099828 0.06149428 0.052975696 -0.12333094 0.062634185 -0.030637737 -0.097649395 0.15827832
0.10102769 0.10720988 0.026035022 0.11563705 0.0308763 -0.22261779 -0.049246736 0.05534697
-0.118134916 -0.026638096 0.13624926 -0.054988865 0.06757983 0.06335394 0.061264116 0.011182792
0.063544676 -0.08751656 0.056334652 -0.14791203 0.10333392 -0.0021485535 -0.09660056 0.102759704
-0.10602166 -0.11582545 0.056695197 0.015708787 -0.09873651 0.0002602608 -0.034076326 -0.06595034
0.06626346 -0.07381214 0.10028326 0.17238611 -0.03751473 0.07633097 -0.020661853 -0.067004755
-0.19467181 0.16208965 0.008794494 -0.09992252 -0.052100074 0.04078466 -0.10854174 0.08342595
0.0637328 0.06985256 -0.19848926 0.041309357 -0.015896758 0.14426173 0.022810757 0.07205792
-6.744459e-05 0.046689253 -0.03150717 -0.030717896 0.049633853 -0.12145771 0.067981355 -0.037213508
-0.056974385 -0.045834582 0.022440674 -0.16925728 -0.09374892 -0.07998735 0.18263212 -0.00598936
-0.14897335 0.024367074 0.13240556 0.03984728 -0.082816176 -0.10523698 0.1361621 0.07249827
0.006929143 0.034662794 0.21153668 -0.019239163 0.08610163 0.13429153 0.07761212 0.10346092
-0.085834235 -0.0655778 -0.13175513 -0.080972046 -0.09592327 -0.12905051 0.15076561 0.06993324
-0.042298034 -0.15452954 -0.2375474 0.03134502 -0.022242943 0.0826915 -0.1306553 0.0027631181
-0.036492284 -0.13309056 -0.17602791 -0.1997375 -0.12542532 -0.031889558 0.025885193 0.04188305
0.039553776 0.06268586 0.22476944 0.013282946 0.05652641 -0.16519678 -0.05673137 0.05683298
-0.036703277 0.07274049 -0.017253373 -0.002080342 0.017153827 0.06640988 -0.077684164 -0.11851838
-0.09464007 0.02186835 0.16382262 0.03154112 -0.16547778 -0.018631507 0.024482982 -0.037558805
-0.0831279 -0.22352767 -0.06262191 -0.012951459 0.03824635 0.08788399 0.19264783 0.09303431
-0.10293813 -0.06353071 0.030682985 -0.11701736 0.00404942 -0.005226299 0.06946304 -0.021236572
-0.043904386 0.07346852 0.09458972 -0.011092377 -0.050224975 -0.09524925 -0.016074277 0.0075945524
00000000: 2607 e33c 8e31 7e3e 502c 36be d9f4 2e3d
00000010: fa13 0fbd ed5d d9bc c609 ac3c aff4 ab3d
00000020: ccec 24bd 3a2f dfbd 9688 cabc 429d 823c
00000030: e9cc 013d 4840 0cbd 2619 8cbb 1cc1 2c3d
00000040: 04da cebd a3fd f8bc d4fa 383e 9217 dd3c
00000050: 0d9a 8abc 2291 34bd b31a 923c 4258 b03b
00000060: 0c71 c43c c067 dfbd dd5d 44bd e6e0 01be
00000070: ac20 943d fa8b b7bd d6b6 1ebc 2b60 ddbd
00000080: b81a 893d b384 053d 92d6 e7bd bacf 9c3c
00000090: e48d ae3c 626c b93d 0e3d 3a3e 23a0 a0bd
000000a0: 7b7e c33d a891 173d 9692 8f3a 9d3f efbc
000000b0: 91c5 653d b4c7 c0bd 3c2e e8bd 62da 12bd
000000c0: a963 943d 3a26 bebd 723e d2bd a89f 3c3d
000000d0: 5467 7ebd 1225 ffbd 943b 9c3d 7e7e d5bd
000000e0: 6aac 42bd ef78 173d deca bd3d 01f7 ff3c
000000f0: a1a2 ab3b ccea 303d 8d70 3c3d 41ee cfbd
00000100: 12b0 b7bc 804e f73a c762 003e 7dde ea3b
00000110: 657b 7bbd 9a0c 03bd 8d28 813d ab76 2f3d
00000120: 3dd2 9e3d 865e ef3d 8f7f 66be 5abb 9e3c
00000130: 8539 85bd a488 08bd e21c 1bbd 88b3 bfbc
00000140: 6e00 493e 8bdf a23d fdd8 adbc 5820 d7bb
00000150: d43c 803e d8d1 1c3e e06a 923d 2be3 c53d
00000160: 4e5d ba3d 6de1 7b3d 0bfd 583d ef94 fcbd
00000170: 5a46 803d fefb fabc 68fc c7bd b613 223e
00000180: 9be7 ce3d db90 db3d 6647 d53c 1ed3 ec3d
00000190: 4bf0 fc3c ebf5 63be f2b6 49bd 81b3 623d
000001a0: b8f0 f1bd 2338 dabc ed84 0b3e 013c 61bd
000001b0: 4b67 8a3d b6bf 813d 15f0 7a3d 0738 373c
000001c0: b623 823d e23b b3bd 2abf 663d 4076 17be
000001d0: bca0 d33d bfce 0cbb 84d6 c5bd ae73 d23d
000001e0: e221 d9bd e535 edbd 3939 683d b7af 803c
000001f0: 5e36 cabd 9d73 8839 9e93 0bbd f910 87bd
00000200: 23b5 873d d22a 97bd 4f61 cd3d fc85 303e
00000210: 0ca9 19bd 6953 9c3d 0c43 a9bc ca39 89bd
00000220: 0c58 47be d4fa 253e c816 103c 2ea4 ccbd
00000230: e366 55bd d10d 273d 224b debd 39db aa3d
00000240: 5886 823d dc0e 8f3d c540 4bbe 0034 293d
00000250: eb39 82bc 59b9 133e a0dd ba3c 1a93 933d
00000260: 0a71 8db8 3b3d 3f3d aa0d 01bd 19a4 fbbc
00000270: de4c 4b3d d2be f8bd cf39 8b3d 316d 18bd
00000280: f95d 69bd 0bbd 3bbd 81d5 b73c c851 2dbe
00000290: 6fff bfbd 68d0 a3bd ea03 3b3e 6542 c4bb
000002a0: 788c 18be 759d c73c 5395 073e e736 233d
000002b0: 879b a9bd 7c86 d7bd 146e 0b3e f979 943d
000002c0: dd0d e33b 93fa 0d3d 129d 583e 739b 9dbc
000002d0: 0d56 b03d b883 093e 1af3 9e3d 52e3 d33d
000002e0: dcc9 afbd a74d 86bd d1ea 06be acd4 a5bd
000002f0: 6b73 c4bd d125 04be 4d62 1a3e 2939 8f3d
00000300: b440 2dbd fe3c 1ebe a03f 73be a363 003d
00000310: d536 b6bc 295a a93d 81ca 05be 6e15 353b
00000320: ef78 15bd e448 08be a940 34be fd87 4cbe
00000330: 7f6f 00be a09e 02bd 2f0d d43c 908d 2b3d
00000340: 2403 223d 7261 803d f629 663e b7a0 593c
00000350: 3d88 673d 5829 29be 275f 68bd b3c9 683d
00000360: 2d56 16bd f7f8 943d f256 8dbc 5956 08bb
00000370: 2f86 8c3c e701 883d e018 9fbd c4b9 f2bd
00000380: a7d2 c1bd 4125 b33c 1ec1 273e 4331 013d
00000390: 0273 29be 1aa1 98bc 8990 c83c 43d7 19bd
000003a0: f63e aabd 70e4 64be ea3f 80bd 5b32 54bc
000003b0: 34a8 1c3d 85fc b33d 7945 453e c688 be3d
000003c0: 3ad1 d2bd 641c 82bd e25a fb3c cca6 efbd
000003d0: ffb0 843b 6041 abbb a342 8e3d 52f8 adbc
000003e0: 16d5 33bd aa76 963d 41b8 c13d cdbc 35bc
000003f0: b4b8 4dbd 0a12 c3bd 34ae 83bc b9db f83b

network_body._body_endoder.seq_layers.2.bias f4 [128]
-0.008109254 0.0013067347 -0.008794765 0.000590395 -0.014977454 -0.002096466 -0.009801913 6.328237e-06
-0.0013547093 -0.009244516 0.0008494488 -0.008205444 0.0036844604 0.0011216202 0.0054204613 -0.017910162
-0.020905484 0.0017955245 0.0040461267 0.003822717 -0.0038622788 -0.019785918 -0.005171811 0.0063155633
-0.00970138 -0.0077745444 -0.007843762 -0.013773316 -0.01232357 0.003777992 -0.021287905 -0.0048045325
-0.013495037 -0.006662947 -0.019841438 -0.0023350473 -0.018034268 -0.015039448 0.0075839125 -0.006249431
0.0014622109 0.0012535519 -0.013395815 -0.01925842 0.015444066 -0.007667871 0.0026506716 -0.010855189
0.0049622688 -0.013236369 -0.0016675662 0.0069152196 -0.0061727306 0.00085078285 -0.0036180592 -0.0020706365
-0.031266417 -0.0040065427 -0.014314494 -0.015616079 -0.0017119696 0.026451632 -0.004961643 -0.01220176
-0.0054719783 -0.015106699 -0.012996356 -0.0077377427 -0.0194816 0.014349096 -0.0072419927 -0.0033743898
0.0026711265 -0.013724933 -0.0046098162 -0.020202225 -0.0041239387 -0.0034343656 -0.00063896616 -0.020310156
-0.0032082922 0.0047812667 0.0011694833 0.014425236 -0.014563535 -0.0093609225 -0.016730666 -0.014866381
0.0069960468 -0.023685727 -0.0028984535 -0.010962836 -0.0014613931 -0.020525051 0.0020507693 0.0025742503
-0.012134052 -0.008733368 -0.010504253 -0.004140687 -0.0022631935 -0.0014769809 -0.015475886 -0.009643447
-0.003591248 -0.014090564 -0.0076060053 -0.0030123086 -0.010846597 -0.00038439606 -0.0036224595 -0.004311707
-0.009053276 0.0048467573 -0.010341397 -0.015227923 0.012658045 -0.018365197 -0.0053650085 -0.009455286
-0.0020279647 -0.015364821 -0.017493611 -0.013350757 -0.009274673 -0.021803798 0.0058387644 -0.0061706225
00000000: addc 04bc be46 ab3a eb17 10bc bdc4 1a3a
00000010: ff63 75bc dd64 09bb 3498 20bc 2457 d436
00000020: 8090 b1ba 4f76 17bc 8bad 5e3a 2070 06bc
00000030: fd76 713b 5403 933a 209e b13b 55b8 92bc
00000040: fa41 abbc ce57 eb3a 5f95 843b 8c86 7a3b
00000050: 491e 7dbb 1416 a2bc 4c78 a9bb c9f2 ce3b
00000060: 89f2 1ebc 9bc1 febb 1f83 00bc 79a9 61bc
00000070: cde8 49bc 3098 773b f963 aebc 576f 9dbb
00000080: 4a1a 5dbc da54 dabb 838a a2bc 9807 19bb
00000090: 9abc 93bc 0468 76bc 7882 f83b 07c8 ccbb
000000a0: a8a7 bf3a 394e a43a 1f7a 5bbc d6c3 9dbc
000000b0: 1c09 7d3c c442 fbbb e4b6 2d3b f6d9 31bc
000000c0: 879a a23b 5bdd 58bc 3d92 daba 1199 e23b
000000d0: 9e44 cabb 1207 5f3a f61c 6dbb 84b3 07bb
000000e0: 3711 00bd 5149 83bb 5787 6abc 95da 7fbc
000000f0: 2b64 e0ba 18b1 d83c 4795 a2bb e4e9 47bc
00000100: 484e b3bb 1782 77bc abee 54bc e48c fdbb
00000110: e097 9fbc 7918 6b3c 3d4e edbb de24 5dbb
00000120: 110e 2f3b 8bde 60bc f10d 97bb 237f a5bc
00000130: 1b22 87bb 1813 61bb 4b80 27ba 7c61 a6bc
00000140: 3642 52bb 2cac 9c3b 5949 993a d357 6c3c
00000150: e59b 6ebc 8e5e 19bc c00e 89bc 1f92 73bc
00000160: 183f e53b 9208 c2bc fbf3 3dbb 789d 33bc
00000170: 378c bfba 2724 a8bc 3366 063b c1b4 283b
00000180: e7cd 46bc 6616 0fbc 081a 2cbc 9aae 87bb
00000190: 1652 14bb 4197 c1ba 928e 7dbc 8cff 1dbc
000001a0: 255b 6bbb 1cdc 66bc cc3b f9bb 276a 45bb
000001b0: edb5 31bc c488 c9b9 c966 6dbb 3849 8dbb
000001c0: 3154 14bc 8cd1 9e3b f66e 29bc 8a7e 79bc
000001d0: b063 4f3c 9c72 96bc f4cc afbb 58ea 1abc
000001e0: 9ae7 04bb bbbc 7bbc c34e 8fbc 22bd 5abc
000001f0: ccf4 17bc e19d b2bc 1b53 bf3b ef32 cabb

action_model._continuous_distribution.mu.weight f4 [1, 128]
-0.0054658474 -0.019129848 -0.0064842696 0.008992393 -0.0030755005 -0.0016482061 -0.0010480771 0.030978607
0.018999867 -0.0013813754 -0.02336407 -0.018470041 -0.021027645 -0.013964264 0.03343774 -0.0012407475
-0.0018940571 -0.040085763 0.028314242 -0.0068309815 0.0012583713 -0.00610882 -0.01642778 0.0151821915
0.025864774 0.005137111 -0.0004828549 0.0043226946 -0.0028855659 0.011107707 -0.03697391 0.018908828
-0.0043214797 0.0027822603 -0.00017626757 -0.027326504 -0.010527105 -0.0065664942 -0.019077282 -0.02098217
-0.02961509 -0.020970616 0.0066657597 0.0055819317 0.05399902 0.005221687 -0.024832722 -0.020354081
0.024078136 -0.0038110546 -0.009761389 0.007696833 -0.038493264 0.027443562 0.013074698 0.008705543
-0.0019027882 0.0082921805 -0.0031510561 0.0007024812 0.0069441623 0.013021873 0.012649023 -0.023408387
-0.01336553 0.0027825155 0.0065626395 -0.008296315 -0.0026196127 0.029661613 -0.008331548 0.0047269566
0.00020622533 -0.0053152163 0.016033452 -0.007867028 0.0004365151 -0.001482978 -0.011234181 -0.004406104
-0.029621163 0.010679592 0.025807431 0.026004655 -0.0012564299 -0.0035418281 -5.1155985e-05 0.0033388264
0.02043731 -0.0044049053 -0.018177882 -0.028461918 -0.016870124 -0.0035918318 0.027665589 0.0011263274
-0.007089202 -0.026233293 -0.0047426787 0.021046339 -0.022836985 -0.03231304 -0.003967512 -0.0067401906
0.01096897 0.005397354 -0.0022411824 -0.027164076 0.00513693 0.009416162 0.010391143 0.023330595
0.015809273 0.036070935 0.005651063 -0.026790729 0.011433639 0.0016365569 -0.0032848476 -0.0049603744
0.00013388254 -0.063006215 -0.012478567 -0.0032956402 -0.02401194 -0.0061303875 0.0046126735 -0.036369964
00000000: da1a b3bb 33b6 9cbc ff79 d4bb d454 133c
00000010: 568e 49bb 9f08 d8ba a25f 89ba d9c6 fd3c
00000020: 9ca5 9b3c 440f b5ba 0266 bfbc 7c4e 97bc
00000030: 2b42 acbc 5eca 64bc 03f6 083d 94a0 a2ba
00000040: 0342 f8ba f830 24bd 45f3 e73c 6dd6 dfbb
00000050: efef a43a 7f2c c8bb 8d93 86bc babe 783c
00000060: 5de2 d33c 3655 a83b b027 fdb9 64a5 8d3b
00000070: c31b 3dbb 1afd 353c f471 17bd b0e6 9a3c
00000080: 339b 8dbb 9556 363b 77d4 38b9 d5db dfbc
00000090: e179 2cbc bf2b d7bb f647 9cbc cde2 abbc
000000a0: 589b f2bc 92ca abbc 726c da3b a3e8 b63b
000000b0: 142e 5d3d af1a ab3b fe6d cbbc 9abd a6bc
000000c0: 833f c53c e3c2 79bb 3cee 1fbc b735 fc3b
000000d0: 1dab 1dbd 52d1 e03c 4237 563c b2a1 0e3c
000000e0: fa66 f9ba eddb 073c f381 4ebb b726 383a
000000f0: db8b e33b b259 553c d93d 4f3c f2c2 bfbc
00000100: 19fb 5abc dd5a 363b 690b d73b 44ed 07bc
00000110: cfad 2bbb e9fc f23c 0c81 08bc 96e4 9a3b
00000120: 313e 5839 442b aebb 9658 833c b5e4 00bc
00000130: 11dc e439 7c60 c2ba 920f 38bc 1461 90bb
00000140: 15a8 f2bc 75f9 2e3c 1b6a d33c b707 d53c
00000150: cbae a4ba 041e 68bb 5290 56b8 36d0 5a3b
00000160: 256c a73c 0657 90bb c8e9 94bc f828 e9bc
00000170: 3733 8abc f064 6bbb f2a2 e23c 47a1 933a
00000180: 894c e8bb 34e7 d6bc 7968 9bbb 5f69 ac3c
00000190: a114 bbbc ae5a 04bd e701 82bb d1dc dcbb
000001a0: 32b7 333c 49dc b03b cde0 12bb 3287 debc
000001b0: b153 a83b 3f46 1a3c 9d3f 2a3c ce1f bf3c
000001c0: 7382 813c 1ebf 133d 8d2c b93b 3b78 dbbc
000001d0: 2854 3b3c bd81 d63a 9946 57bb a38a a2bb
000001e0: d262 0c39 6709 81bd e772 4cbc abfb 57bb
000001f0: b0b4 c4bc 6be1 c8bb e925 973b acf8 14bd

exp_avg f4 [128, 5]
0.0053133997 0.0046830242 -0.0016697815 -0.02681994 0.009834508 -0.0056901923 -0.009173555 0.0002740076
0.034841638 -0.013978264 0.004602248 0.0031924995 -0.0005429457 0.020770809 -0.0048265625 0.00032953997
0.0025271182 0.0016877308 0.0016009951 0.0011673288 0.001899936 0.0014051435 -0.00048062298 0.006718236
-0.001438594 -0.00042552422 -0.00064714486 -0.0003813402 -0.004408148 0.00037620857 0.0006816257 0.0017290233
-0.00028628166 -0.0036374703 0.002476555 -0.002936891 -0.0022784541 0.00045334696 0.0006176648 -0.0015495402
-0.0075060404 -0.0074289027 0.0010134426 0.022491321 -0.009215646 -0.0019241174 0.0008441898 0.0010108665
-0.0012495777 -0.00031403298 0.001362081 0.0014827832 -0.00012516891 0.00092125277 0.00046973163 0.0005880588
-0.0019608845 -0.0025595136 -0.0031639938 -0.00080084894 0.0007846377 0.0017720426 -0.0016904707 0.0025753463
-0.00048810625 -0.003986689 -0.0012055372 0.0030577462 0.0053627323 -0.0013166401 -0.0001230188 0.0019136758
1.9569654e-05 0.0006986156 0.0007641458 0.00048584086 -0.0010325442 -0.0011190131 -0.0004503555 -0.00040339393
-0.0029212546 0.00031079262 0.0035781024 -0.00032923845 0.0013613227 0.001403656 -0.00034685837 -0.0023250221
0.011189941 -0.0045745955 0.0033661374 0.0029217536 -0.0008354306 -0.026986403 0.008856064 -0.00030851818
-0.00015922012 -0.00040094095 -0.0009972355 5.2633473e-05 -0.0020098551 -0.0019273998 -0.00023414979 0.00017607638
-0.00069521094 0.0002145115 -0.0005736583 0.0005772162 0.0013118547 -8.151663e-05 0.0031423315 -0.0042589842
-0.003027666 0.0005052338 -0.000878132 -0.0003212817 -0.00049128034 8.086643e-05 0.0005514864 -0.0006187962
0.0020026772 -0.0046064416 -0.0050216615 -0.0008083291 -0.0027903859 -0.00034335392 0.0012519924 0.00072628295
-0.0015453008 0.0011879496 0.0007517025 -0.0017088889 0.00027902957 -0.0011411365 0.00035240862 -0.0018965709
-0.002272945 -9.5912255e-05 0.00019402166 -0.0010916473 0.0030886568 -0.0013728858 -0.0046345233 -0.023503339
0.004404898 -0.0012000691 0.0005142128 0.0016429528 -0.0100482395 0.0031189567 0.000939937 0.0016464799
-0.00026411618 -0.009976051 0.003165643 0.0033422832 0.0048263203 -0.0008614681 0.02118449 -0.00567937
0.0040356577 -0.0013654953 -0.00513719 0.00062698545 -0.0027075743 0.00102286 -0.0034029898 -0.004277724
-0.0032972156 -0.0017271305 0.000654872 0.0016679681 -0.0012529035 0.0027971324 -0.001103145 0.00011387249
0.00037776347 -0.0009227665 0.0010712207 -0.0012595601 -0.005134116 -0.002099533 0.00013906287 0.014616417
-0.005516958 0.0019457367 -0.0037126194 -0.004474324 -0.0012861599 -0.0022938645 0.0033672326 0.0039044642
-0.00033240963 0.008809611 -0.0011488284 0.0026061041 -0.004998016 -0.005465706 -0.0030735582 -0.002601384
0.0038442838 0.0020092851 -0.0006257168 -0.01225573 0.0045273863 -0.0055459887 -0.0065492326 0.00074952043
0.039025873 -0.01362023 -0.00034268174 -0.00022308814 0.0015139288 -0.023622548 0.008151451 -0.0032165197
-0.0030800486 0.0027755636 0.013683571 -0.0038906785 0.0008173043 5.222322e-05 -0.00019803552 0.0023903656
-0.000111018766 -0.0056907125 -0.004875046 0.0005984954 0.034296356 -0.012037512 -0.00059275795 -0.00019206892
6.2476705e-05 -0.0010820507 -0.00046464536 -0.0041268547 -0.0047322563 0.00059288973 0.020606564 -0.008100326
-0.0019249337 -0.0014992458 -9.610258e-06 0.033976786 -0.010569255 -0.0012570227 -0.00062676595 0.0017448276
-0.010193192 0.003505477 0.0007894095 0.00011209978 0.00013123863 0.00021803111 0.00043623365 0.0077670654
00000000: 071c ae3b 0e74 993b 92dc daba 7eb5 dbbc
00000010: eb20 213c cb74 babb ae4c 16bc ada8 8f39
00000020: 1bb6 0e3d 1705 65bc 74ce 963b 4139 513b
00000030: 7854 0eba 8b27 aa3c 2428 9ebb 1bc6 ac39
00000040: 029e 253b d936 dd3a 7bd8 d13a 0e01 993a
00000050: 4607 f93a cb2c b83a 20fc fbb9 a624 dc3b
00000060: 348f bcba e518 dfb9 28a5 29ba 9eee c7b9
00000070: 3a72 90bb dc3d c539 20af 323a 65a0 e23a
00000080: 1318 96b9 a062 6ebb b34d 223b db78 40bb
00000090: 1e52 15bb 33af ed39 c8ea 213a f119 cbba
000000a0: 3bf5 f5bb 276e f3bb 7ed5 843a b83f b83c
000000b0: 39fd 16bc ab32 fcba 9e4c 5d3a 0d7f 843a
000000c0: dfc8 a3ba cba4 a4b9 db87 b23a f359 c23a
000000d0: c63f 03b9 3a80 713a 5046 f639 f527 1a3a
000000e0: 2f82 00bb 83bd 27bb 025b 4fbb 10f0 51ba
000000f0: 25b0 4d3a e243 e83a c992 ddba 24c7 283b
00000100: 83e8 ffb9 c5a2 82bb 1e03 9eba 7864 483b
00000110: dcb9 af3b 1c93 acba 9cfe 00b9 4ed4 fa3a
00000120: 8329 a437 4d23 373a f550 483a 75b8 fe39
00000130: 6f56 87ba d9ab 92ba b11d ecb9 9e7e d3b9
00000140: 8572 3fbb e1f1 a239 997e 6a3b a39d acb9
00000150: 696e b23a e1fa b73a 8bda b5b9 665f 18bb
00000160: 0456 373c 7de6 95bb 6a9a 5c3b e47a 3f3b
00000170: cc00 5bba 9712 ddbc 0619 113c 9cc0 a1b9
00000180: 53f4 26b9 6235 d2b9 acb5 82ba c3c2 5c38
00000190: c6b7 03bb cea0 fcba 1b86 75b9 25a1 3839
000001a0: d13e 36ba 7eee 6039 8f61 16ba 5350 173a
000001b0: 8af2 ab3a e8f3 aab8 93ef 4d3b f38e 8bbb
000001c0: ce6b 46bb ab71 043a 7132 66ba b371 a8b9
000001d0: 44c9 00ba d696 a938 a091 103a b636 22ba
000001e0: 593f 033b a2f1 96bb c08c a4bb 0ce6 53ba
000001f0: e8de 36bb 2f04 b4b9 e519 a43a 0664 3e3a
00000200: b18b caba f9b4 9b3a e70d 453a ccfc dfba
00000210: b74a 9239 3092 95ba 7cc3 b839 5c96 f8ba
00000220: b0f5 14bb 8024 c9b8 4b72 4b39 9b15 8fba
00000230: 106b 4a3b 67f2 b3ba 33dd 97bb 138a c0bc
00000240: f656 903b a34b 9dba 3dcc 063a 5958 d73a
00000250: 5fa1 24bc 6967 4c3b 1b66 763a b3ce d73a
00000260: 1379 8ab9 9772 23bc ad76 4f3b 350a 5b3b
00000270: 1c26 9e3b 25d4 61ba 188b ad3c 021a babb
00000280: 8d3d 843b 6bfa b2ba e055 a8bb 485c 243a
00000290: 8f71 31bb 7c11 863a b204 5fbb 262c 8cbb
000002a0: 1916 58bb e260 e2ba b7ab 2b3a b99f da3a
000002b0: 7738 a4ba 1850 373b 6797 90ba d4ce ee38
000002c0: 8e0e c639 d0e5 71ba 3468 8c3a d317 a5ba
000002d0: 163c a8bb 5298 09bb 68d1 1139 b279 6f3c
000002e0: 99c7 b4bb 1708 ff3a 6b4f 73bb 5a9d 92bb
000002f0: 5d94 a8ba a954 16bb caac 5c3b 0ae2 7f3b
00000300: 4447 aeb9 3056 103c 4994 96ba 2ccb 2a3b
00000310: 66c6 a3bb aa19 b3bb c06d 49bb fb7b 2abb
00000320: 61f0 7b3b 36ae 033b 2507 24ba 42cc 48bc
00000330: 785a 943b 20bb b5bb f29a d6bb 777b 443a
00000340: 98d9 1f3d 6327 5fbc f7a9 b3b9 c4ec 69b9
00000350: 056f c63a 1384 c1bc aa8d 053c 3fcc 52bb
00000360: a4da 49bb 3be6 353b 0e31 603c c1fa 7ebb
00000370: 5d40 563a 410a 5b38 c1a7 4fb9 aea7 1c3b
00000380: bfd2 e8b8 2879 babb dabe 9fbb 59e4 1c3a
00000390: 567a 0c3d fc38 45bc 5063 1bba 1c66 49b9
000003a0: ed05 8338 99d3 8dba a59b f3b9 913a 87bb
000003b0: 0b11 9bbb 286c 1b3a 19cf a83c 3bb7 04bc
000003c0: 0f4e fcba 5782 c4ba be3b 21b7 3e2b 0b3d
000003d0: ab2a 2dbc afc2 a4ba 8d4d 24ba b3b2 e43a
000003e0: 5901 27bc 25bc 653b 60f0 4e3a 1c17 eb38
000003f0: 1a9d 0939 489f 6439 4ab6 e439 de82 fe3b

exp_avg_sq f4 [128, 5]
6.931266e-05 0.00055908837 0.00011712549 0.0032977152 0.00033776308 2.8217191e-05 0.00023389072 5.1954e-05
0.0013574198 0.00014602828 3.8226215e-05 0.0004958426 9.712239e-05 0.0022574535 0.0002188991 1.5746582e-05
0.00011655698 1.7254646e-05 0.0005021593 5.792579e-05 8.019311e-06 7.042558e-05 1.7892991e-05 0.0003110107
3.4508725e-05 2.1959404e-05 0.00025045229 5.987661e-05 0.00030150314 0.000110805864 2.9431369e-05 0.00018108633
4.8222963e-05 0.0006868828 0.000116351046 8.766393e-05 0.000786677 0.00021925007 0.0013836246 0.00037029508
7.299441e-05 0.0006854592 0.00013512558 0.0033294503 0.00033772422 3.1106738e-05 0.00017267108 3.6586905e-05
0.0008863069 0.00013030245 6.5872146e-06 6.0163493e-05 1.5758826e-05 0.00023983688 2.6708662e-05 5.078249e-06
3.9791557e-05 1.3434277e-05 0.00014107728 2.218398e-05 1.7771868e-05 0.00013372384 3.5133737e-05 0.00071447424
8.042629e-05 9.2306955e-06 5.7693484e-05 1.7920653e-05 0.000521843 4.4369946e-05 2.5647287e-05 0.00014799004
4.3989145e-05 0.00040518498 0.00011091654 1.0266674e-05 7.506226e-05 2.3773357e-05 8.3571824e-05 3.206741e-05
4.637474e-05 0.00035685604 7.6039614e-05 0.0009696724 0.00013606407 3.6164276e-06 3.573344e-05 1.00152165e-05
9.991493e-05 1.6398511e-05 7.037e-06 3.837178e-05 9.497178e-06 0.00060116244 5.1285515e-05 5.765225e-06
2.351261e-05 8.478946e-06 8.4839485e-05 1.9618286e-05 5.481037e-06 4.584709e-05 8.314985e-06 0.00026161768
3.0870473e-05 1.1833468e-05 8.838614e-05 1.4845849e-05 0.00018765018 3.7082318e-05 6.889845e-05 0.0004929838
0.00012943434 0.0018248927 0.00038993728 2.0600912e-05 0.000226493 7.06237e-05 0.00035208307 0.00011494943
3.9981212e-05 0.00033141312 9.4757204e-05 0.00041813258 0.00015737035 1.7622884e-06 1.4764184e-05 4.6012333e-06
5.967402e-05 1.1590022e-05 8.622278e-06 0.00010971637 2.1606362e-05 0.00023601619 4.2279655e-05 5.6733247e-06
5.4580752e-05 9.385124e-06 0.00030899458 2.360373e-05 3.0463176e-05 0.00025488512 5.9777263e-05 0.0006925074
0.00010443401 2.2717766e-05 0.00017997436 4.3652875e-05 0.00021730964 5.941191e-05 3.0010713e-06 2.2200638e-05
6.893826e-06 0.00015313181 1.9302852e-05 2.3182096e-05 0.00021324956 4.0833587e-05 0.0012198018 9.993773e-05
1.9676112e-05 0.00018318347 4.5325443e-05 0.00082109106 0.000101373524 1.5608499e-05 9.5467985e-05 3.0327394e-05
0.00034385684 6.3024105e-05 4.5424535e-05 0.00077737094 0.000150073 0.0008326282 0.0001979664 2.1011198e-05
0.00010734811 3.0143692e-05 0.00018751822 6.3996304e-05 4.8163078e-05 0.0006347997 0.000120564415 0.00255751
0.00026849104 2.8985885e-05 0.00019106746 5.759969e-05 0.000750707 0.00011915865 2.660999e-05 0.00027887223
7.098838e-05 0.00095316564 0.00014059953 8.982821e-05 0.00074260635 0.00014370121 0.0028502378 0.00038566987
1.3710668e-05 0.00015207006 3.147566e-05 0.0009380238 7.077387e-05 3.8752463e-05 0.00030528815 7.304519e-05
0.001757766 0.00018902341 4.3921077e-06 2.142443e-05 7.812486e-06 0.000121235906 2.1394104e-05 1.8612793e-05
0.00010076016 2.3529212e-05 0.0006161487 5.6518304e-05 6.616724e-06 4.291037e-05 1.3504895e-05 9.76793e-05
2.4596184e-05 1.833736e-05 0.00014076277 3.1324016e-05 0.0011731143 0.000111465364 1.1161675e-05 9.2891e-05
2.2916265e-05 0.00039448228 6.131523e-05 1.835162e-05 0.00021732922 4.0142007e-05 0.0015452162 0.000109755114
8.73021e-06 4.82334e-05 9.91127e-06 0.0002755464 3.461955e-05 5.1578245e-06 5.08171e-05 1.3307712e-05
0.00015401548 2.3336217e-05 8.0161235e-06 4.815899e-05 1.5242109e-05 0.00031503625 5.3181702e-05 7.072053e-05
00000000: f35b 9138 c98f 123a 45a1 f538 7b1e 583b
00000010: cb15 b139 f5b3 ec37 9040 7539 2fe9 5938
00000020: 73eb b13a 2b1f 1939 1655 2038 6ffb 013a
00000030: 30ae cb38 c9f1 133b 4888 6539 8717 8437
00000040: 0d70 f438 12be 9037 57a3 033a 58f5 7238
00000050: ae8a 0637 72b1 9338 e818 9637 260f a339
00000060: 76bd 1038 7635 b837 234f 8339 0524 7b38
00000070: 1113 9e39 7260 e838 62e3 f637 fee1 3d39
00000080: 0343 4a38 ed0f 343a 7e01 f438 37d8 b738
00000090: 0039 4e3a 7ee6 6539 bd5a b53a 2a24 c239
000000a0: 9314 9938 63b0 333a 7fb0 0d39 e832 5a3b
000000b0: 9410 b139 9b78 0238 0a0f 3539 e474 1938
000000c0: 0d57 683a cca1 0839 be07 dd36 0f58 7c38
000000d0: d231 8437 b97c 7b39 6a0c e037 d465 aa36
000000e0: dce5 2638 c863 6137 25ee 1339 bc17 ba37
000000f0: cc14 9537 3838 0c39 905c 1338 8e4b 3b3a
00000100: 89aa a838 89dd 1a37 e8fb 7138 4f54 9637
00000110: 4acc 083a de19 3a38 2125 d737 c62d 1b39
00000120: fc80 3838 026f d439 dd9b e838 073f 2c37
00000130: be6a 9d38 e56c c737 4843 af38 1f80 0638
00000140: 7f82 4238 6818 bb39 7577 9f38 9d31 7e3a
00000150: 6cac 0e39 c1b1 7236 7de0 1538 0707 2837
00000160: 6b89 d138 898f 8937 5f1f ec36 63f1 2038
00000170: 1256 1f37 5497 1d3a 671b 5738 e872 c136
00000180: f23c c537 cc40 0e37 daeb b138 f391 a437
00000190: c0e9 b736 f04b 4038 9780 0b37 bb29 8939
000001a0: eb7a 0138 5c88 4637 f35b b938 7012 7937
000001b0: f6c3 4439 d688 1b38 937d 9038 953b 013a
000001c0: c4b8 0739 3d31 ef3a 7f70 cc39 1fd0 ac37
000001d0: c07e 6d39 cf1b 9438 ca97 b839 0111 f138
000001e0: 80b1 2738 84c1 ad39 63b8 c638 ce38 db39
000001f0: c803 2539 c587 ec35 b0b3 7737 4b64 9a36
00000200: 7e4a 7a38 c472 4237 67a8 1037 8717 e638
00000210: 4f3f b537 1d7b 7739 6f55 3138 7d5d be36
00000220: a3ed 6438 cd74 1d37 8d00 a239 a000 c637
00000230: 2c8b ff37 1aa2 8539 59b9 7a38 6389 353a
00000240: 9503 db38 0892 be37 80b7 3c39 eb17 3738
00000250: 9ddd 6339 0d31 7938 0366 4936 823b ba37
00000260: 8451 e736 0292 2039 8fec a137 2c77 c237
00000270: be9b 5f39 bb44 2b38 c2e1 9f3a a995 d138
00000280: 210e a537 f014 4039 d31b 3e38 7d3e 573a
00000290: 7f98 d438 ffee 8237 fc35 c838 9567 fe37
000002a0: af47 b439 cf2b 8438 3986 3e38 7bc8 4b3a
000002b0: ea5c 1d39 bc44 5a3a 3395 4f39 3441 b037
000002c0: 1420 e138 16dd fc37 8aa0 4439 c135 8638
000002d0: b602 4a38 b068 263a 87d7 fc38 e69b 273b
000002e0: 42c4 8c39 b726 f337 4859 4839 3297 7138
000002f0: 18cb 443a d0e4 f938 8538 df37 9935 9239
00000300: 99df 9438 dddd 793a e66d 1339 2762 bc38
00000310: 78ab 423a 80ae 1639 0ecb 3a3b bc33 ca39
00000320: df06 6637 ff74 1f39 bc04 0438 b6e5 753a
00000330: 6f6c 9438 248a 2238 150f a039 d62f 9938
00000340: d764 e63a 9634 4639 eb5f 9336 9db8 b337
00000350: 5f12 0337 0840 fe38 7d77 b337 ab22 9c37
00000360: 334f d338 9960 c537 0a85 213a 110e 6d38
00000370: 3a05 de36 a9fa 3338 1593 6237 2dd9 cc38
00000380: e753 ce37 2ed3 9937 b899 1339 e861 0338
00000390: 2fc3 993a 83c2 e938 0743 3b37 7ace c238
000003a0: 4e3c c037 84d2 ce39 5d96 8038 cef1 9937
000003b0: dee2 6339 275e 2838 da88 ca3a 542c e638
000003c0: f777 1237 384e 4a38 9548 2637 3677 9039
000003d0: 7534 1138 6011 ad36 7224 5538 3044 5f37
000003e0: 377f 2139 25c2 c337 fd7c 0637 52fe 4938
000003f0: 5cb8 7f37 732b a539 6b0f 5f38 cc4f 9438

exp_avg f4 [128]
0.0010659436 -0.0019457018 -0.0015977212 0.00035890387 -0.00059098855 -0.00011516647 0.00045638735 -0.0004593403
-0.0010344365 -0.00025552706 -0.00015459621 -0.000583245 -0.0004488417 0.00022184294 0.00014767126 -0.00018380294
0.00048588502 -0.00128098 0.0014462996 -0.0002243782 0.00020304836 0.00013946285 -3.5077384e-05 -5.0219307e-05
-0.0008062215 5.8581576e-05 0.00034013015 5.147555e-05 4.179273e-05 0.00040412185 0.0004939778 -0.0014457835
-0.001371555 -0.0009280638 -0.0006916464 -0.0003272417 -0.0006904786 -0.0007085225 -0.0005746022 -0.00095695344
0.00062830804 -0.0018934977 0.0017903645 9.742183e-05 0.00020510182 -0.0019210657 -0.00022826903 -0.00096696493
-0.0019969207 0.0010099135 0.00022063933 0.0010939176 0.00029668427 0.00017039277 0.00013181771 -1.6583923e-06
0.00036992857 -0.00051369495 -0.000103015045 -0.00010200497 -0.00045769033 -0.00050517824 -0.002397822 -0.0005572439
0.00036432952 0.0011703662 -0.0044889194 -0.0012522611 -0.00046990786 -0.0007944794 7.522513e-05 -5.0679027e-05
0.0006959563 -0.0018338934 0.00012903522 3.624841e-05 0.000709428 0.0018735421 0.0001370702 0.0001859986
-0.00048685615 -0.00013930019 0.0005349466 0.0005103271 -0.00030215384 0.00028505168 -0.0003771989 0.0005154016
0.001211767 0.0014392859 -0.0006042322 -0.0015681634 -0.002445585 -0.00067140925 4.68284e-05 0.001054548
-0.0005572686 0.0009817964 -0.0006331046 -0.0017815987 -0.00017896525 0.001500294 -0.00021431105 -0.00021130516
-0.00014063403 1.3907802e-05 -0.0015815344 0.0008353289 2.8896027e-05 0.0008837847 0.0012160495 0.0007177903
0.0009230247 -0.00070576026 -0.00084987644 0.00028415857 -0.002809816 -0.0012194383 -8.997558e-05 -0.0017322631
-0.0020568834 0.00089671277 0.0008376296 -0.0006485378 -0.00020712339 0.0003953291 6.633361e-05 -0.00086454785
00000000: 22b7 8b3a eb06 ffba a16a d1ba 432b bc39
00000010: 92ec 1aba 8785 f1b8 4647 ef39 9dd3 f0b9
00000020: ee95 87ba 43f8 85b9 1b1b 22b9 e9e4 18ba
00000030: 8352 ebb9 839e 6839 34d8 1a39 3abb 40b9
00000040: 62be fe39 8ee6 a7ba c391 bd3a 1047 6bb9
00000050: 61e9 5439 c63c 1239 0e20 13b8 92a2 52b8
00000060: 9c58 53ba 7db5 7538 7f53 b239 73e7 5738
00000070: 9a4a 2f38 51e0 d339 4a7e 013a 7280 bdba
00000080: c0c5 b3ba 4f49 73ba 9b4f 35ba a391 abb9
00000090: 3c01 35ba 24bc 39ba e7a0 16ba 0fdc 7aba
000000a0: 0ab5 243a 3d2f f8ba aaaa ea3a f24e cc38
000000b0: 9a10 5739 45cc fbba 805b 6fb9 eb7b 7dba
000000c0: c5de 02bb 135f 843a 6b5b 6739 c961 8f3a
000000d0: 4a8c 9b39 76ab 3239 8c38 0a39 ed95 deb5
000000e0: f9f2 c139 7ca9 06ba c809 d8b8 80eb d5b8
000000f0: 28f6 efb9 f06d 04ba c724 1dbb 0114 12ba
00000100: 7b03 bf39 f966 993a c917 93bb e922 a4ba
00000110: f75d f6b9 9c44 50ba 2fc2 9d38 3190 54b8
00000120: d670 363a 405f f0ba a14d 0739 6f09 1838
00000130: e8f8 393a a491 f53a 80ba 0f39 9e08 4339
00000140: ba40 ffb9 1c11 12b9 a93b 0c3a 79c7 053a
00000150: 676a 9eb9 fd72 9539 c8c2 c5b9 041c 073a
00000160: 27d4 9e3a 6ca6 bc3a 5665 1eba d58a cdba
00000170: 1c46 20bb 8301 30ba 9d69 4438 c238 8a3a
00000180: aa15 12ba 9faf 803a eef6 25ba 8884 e9ba
00000190: 9ea8 3bb9 83a5 c43a afb8 60b9 cc91 5db9
000001a0: 2977 13b9 8e55 6937 7d4b cfba f9f9 5a3a
000001b0: bf65 f237 caad 673a da63 9f3a 172a 3c3a
000001c0: 24f7 713a c502 39ba 3eca 5eba 1efb 9439
000001d0: e424 38bb 8fd5 9fba 46b1 bcb8 1b0d e3ba
000001e0: c7cc 06bb 6011 6b3a 5f94 5b3a a302 2aba
000001f0: 432f 59b9 2c44 cf39 961c 8b38 d3a2 62ba

exp_avg_sq f4 [128]
2.6691981e-05 1.0814132e-05 1.7986737e-05 4.280363e-06 2.611964e-06 7.785975e-06 8.014156e-06 3.0509853e-05
2.8575767e-05 7.9647025e-06 2.5791835e-06 1.8246761e-06 6.664278e-06 3.4100358e-06 7.015679e-06 2.5615393e-06
1.2928274e-05 1.2092536e-06 3.3172287e-06 1.2000344e-06 2.0389414e-06 2.96637e-06 2.2240005e-05 8.3796385e-06
1.1564153e-05 5.7138993e-07 3.128586e-06 2.1377314e-06 8.904784e-06 6.2410836e-06 1.2899121e-06 9.189754e-06
7.4563277e-06 4.253665e-06 1.9438761e-05 4.6341274e-06 2.2071068e-05 8.821813e-06 1.0464242e-05 3.0908308e-05
6.5622844e-06 1.4872776e-05 1.3877484e-06 4.87512e-06 1.695536e-06 7.6998185e-06 3.882292e-06 9.599146e-06
2.3001005e-06 1.9298095e-06 2.8378329e-06 3.1432657e-05 1.2834813e-06 7.3849883e-06 1.4348703e-06 7.80592e-06
7.2124476e-06 3.0003598e-06 3.6314013e-06 2.4111825e-06 1.3950624e-05 7.751873e-06 2.9306515e-05 2.0958043e-06
1.5539271e-06 1.4350302e-05 2.3067872e-05 5.93852e-06 7.9384347e-07 2.1266994e-06 2.2740041e-06 2.480501e-06
2.465129e-06 4.4850476e-05 3.0708409e-06 2.176879e-06 3.2606679e-06 1.3904182e-05 1.0914314e-06 1.2274569e-06
2.2426055e-05 1.3558351e-06 4.012644e-06 1.0045066e-05 1.4448578e-05 1.0512503e-06 2.643996e-06 1.6951168e-05
9.219977e-06 4.374609e-06 4.635737e-06 2.7684464e-06 1.0523732e-05 6.1312603e-06 1.0057414e-05 6.85776e-06
8.320305e-07 2.761981e-05 2.452357e-06 4.026215e-06 1.3355778e-06 7.68467e-06 2.7795291e-05 2.7598096e-06
3.8769385e-06 9.592645e-06 6.8303552e-06 4.8093993e-06 1.4914039e-06 3.3445385e-06 3.5835542e-06 3.916174e-06
1.7700164e-05 1.6256236e-06 9.4309835e-06 8.844925e-06 3.9415972e-06 4.5924744e-06 1.3229296e-06 4.7674844e-06
1.1373723e-05 4.7058193e-06 1.8421857e-05 2.301914e-06 1.1523499e-06 8.48671e-06 5.5551627e-06 3.2249347e-06
00000000: 98e8 df37 586e 3537 39e2 9637 0aa0 8f36
00000010: 3349 2f36 82a0 0237 8a74 0637 69ef ff37
00000020: feb5 ef37 23a0 0537 0916 2d36 65e7 f435
00000030: b69d df36 f8d7 6436 3968 eb36 e9e6 2b36
00000040: 84e6 5837 a34d a235 8e9d 5e36 de10 a135
00000050: bfd4 0836 d911 4736 0c90 ba37 4696 0c37
00000060: a903 4237 9e61 1935 b3f4 5136 f275 0f36
00000070: c265 1537 806a d136 0b21 ad35 b12d 1a37
00000080: 5e31 fa36 b4ba 8e36 6c10 a337 da7e 9b36
00000090: 4225 b937 6601 1437 948f 2f37 8ba3 0138
000000a0: 9831 dc36 1686 7937 ac42 ba35 f694 a336
000000b0: 2c92 e335 782e 0137 a244 8236 050c 2137
000000c0: 6d5b 1a36 e081 0136 9971 3e36 8fd6 0338
000000d0: 1544 ac35 91cc f736 c595 c035 2cf6 0237
000000e0: 7402 f236 ca59 4936 00b3 7336 cdcf 2136
000000f0: 790d 6a37 0b0e 0237 43d7 f537 a5a5 0c36
00000100: 8790 d035 14c2 7037 e181 c137 8043 c736
00000110: 8218 5535 6bb8 0e36 189b 1836 af76 2636
00000120: 986e 2536 d51d 3c38 a514 4e36 7f16 1236
00000130: d9d1 5a36 0246 6937 4c7d 9235 19bf a435
00000140: 961f bc37 24fa b535 59a4 8636 3b87 2837
00000150: 2c68 7237 af18 8d35 816f 3136 5b32 8e37
00000160: 80af 1a37 9bc9 9236 ad8c 9b36 8cc9 3936
00000170: 168f 3037 20bb cd36 44bc 2837 b61b e636
00000180: b358 5f35 17b1 e737 2c93 2436 ec18 8736
00000190: 1b42 b335 68ed 0037 ef29 e937 2b35 3936
000001a0: a616 8236 19f0 2037 4e30 e536 6d60 a136
000001b0: 3f2c c835 bc72 6036 fe7c 7036 ae67 8336
000001c0: d07a 9437 0030 da35 c439 1e37 aa64 1437
000001d0: 1042 8436 0e19 9a36 848f b135 61f8 9f36
000001e0: c5d1 3e37 aee6 9d36 a388 9a37 957a 1a36
000001f0: 71aa 9a35 2462 0e37 7c66 ba36 f56b 5836

exp_avg f4 [128, 128]
-0.006497569 -0.007997281 0.0014297817 0.00037553094 0.0009405605 -0.00028731776 -0.0003475959 -0.00045814147
-0.0041270284 -0.00021243116 -0.002905696 0.00030424306 -0.0004527591 -0.0004285044 0.00029461316 7.4591764e-05
-0.006859055 0.0008679474 -0.0029535198 -0.00019730702 -0.0021314314 0.0013925652 0.00018884394 -0.00034500018
0.0009594216 -6.214993e-05 -0.000103560706 -0.009413613 -0.004854782 -0.0021447528 -0.0008045212 0.00050996884
0.00058258045 0.00093307474 0.0001024219 -0.00043569025 -0.00073677977 0.0016405741 -0.0019914096 -0.0003110499
-0.0030723177 -0.010236577 -0.0039137197 -0.00492708 -0.00013132126 -0.003763072 -0.0002525044 -0.0034733107
7.239922e-05 -0.009135195 -0.0003953513 -0.0002022869 -0.00047982862 0.00013482387 -0.00023914718 2.7603624e-05
-0.003669767 -0.0009636172 0.00040761163 0.00024637338 -0.0008619454 0.0009869077 0.00064847106 -0.0035081105
0.0006688049 -0.0021608288 -0.0025875166 -0.005368161 0.00084039057 0.0006360752 -0.00038586394 -0.000120007215
0.000352895 -0.0070619946 4.5353936e-05 0.00019814518 0.0010249119 -0.0047406703 -0.00041494623 -0.0018602642
-0.0006145396 -0.008824968 0.0026287145 0.0029061334 0.0008868104 -0.00024631582 -0.005373264 0.00065173465
-0.004330009 -0.0057049757 -0.0013077562 -0.00022495358 -0.0042046993 -0.0007273192 -0.0077002724 -0.0035854625
0.00011479626 -0.0060432693 0.0014765839 -0.000461607 -0.00017222561 -0.001230488 0.0012334704 0.00039170007
-0.0034072548 -2.2566013e-05 -0.0024943468 -0.0053282636 -0.00038618958 -0.0020619358 0.0006190294 -0.000117488125
-8.607582e-05 0.00020929266 -0.0012290044 -2.5296054e-05 -0.0055206176 -0.007310477 -0.004373947 -0.009798153
-0.0021986451 -0.0014661206 0.0012893924 -0.0024919605 -0.0019088865 -0.00017154083 0.0001268834 -0.0018032612
0.00081012934 0.0019279424 -1.4709369e-05 0.00031863202 0.0015245865 -0.0009885272 -0.00055794267 -0.0017759888
0.0006377777 -0.00063962775 0.0005805389 0.0010143201 -0.0018410942 0.004674675 0.0010012903 5.9006474e-05
0.0018099704 0.0014298166 0.003195221 -0.00095575245 0.004156327 0.0050618174 0.0008870925 -0.00095554366
0.003155187 -0.00038913137 -0.0015270276 0.0013488306 0.0055154376 0.0055786567 -0.000936265 -0.00022642301
0.0016191787 0.002794798 -0.0003126382 -0.0012562368 -0.0014929961 0.005057445 -9.447333e-05 -0.0009846912
0.00030389053 0.0017991161 0.004740318 0.008635062 -0.0002478227 0.0003828904 -0.00093385205 0.0007530676
-0.00075688044 0.001785971 -0.0011450519 0.0012038081 -0.0012365291 3.5769284e-05 -0.0006806041 0.00033368927
8.102351e-05 -6.357214e-05 0.0011425206 -0.0002239106 -0.00092672475 0.0034693223 -4.4099356e-06 0.00081395573
0.0021485635 0.0030245963 -0.00033488518 0.00085015374 0.003068673 0.0020774023 -0.0016555389 -0.00077794434
0.00053101586 0.00072991167 0.00012280035 0.0005376217 0.003382959 0.001586016 -0.0013105733 0.0012346657
-0.001745761 0.0020158594 0.009153769 0.007326134 0.0031750887 2.8742113e-05 0.0056971586 0.003429358
0.00030709495 0.00066957035 2.2474918e-05 0.002556281 0.00027349536 -0.00037065145 0.0022744192 0.0004924616
0.00037742508 0.0007824822 0.005175706 0.00040029178 -0.00038677026 -0.00024473574 -0.0005111414 0.0007827328
0.00021097681 0.00013603362 0.0015118985 0.00043935273 -0.0015331936 0.0001050275 0.0023659968 -0.00029758655
-0.0012307403 5.0596045e-05 -0.0006604147 -0.0005044694 0.00060857367 0.0007913101 0.004156119 0.0057523646
-0.00051846856 -0.00077446934 0.0040480406 -7.743559e-05 0.0006843074 -0.00026027753 1.6963755e-05 0.0026782942
00000000: 8fe9 d4bb 0707 03bc 8367 bb3a e9e2 c439
00000010: f28f 763a 23a3 96b9 883d b6b9 b532 f0b9
00000020: 063c 87bb 0ec0 5eb9 7d6d 3ebb d082 9f39
00000030: 4c60 edb9 e3a8 e0b9 4f76 9a39 266e 9c38
00000040: ecc1 e0bb f786 633a d78f 41bb 33e4 4eb9
00000050: 7caf 0bbb bc86 b63a 6904 4639 24e1 b4b9
00000060: b281 7b3a 7d56 82b8 bb2e d9b8 8e3b 1abc
00000070: dd14 9fbb fb8e 0cbb 81e6 52ba 6eaf 053a
00000080: 50b8 183a 9699 743a 57cb d638 5b6d e4b9
00000090: 7424 41ba 8808 d73a 4f82 02bb 6914 a3b9
000000a0: f058 49bb 51b7 27bc a93e 80bb 5873 a1bb
000000b0: 48b3 09b9 df9d 76bb 9162 84b9 7ca0 63bb
000000c0: 09d5 9738 c9ab 15bc 2747 cfb9 fa1c 54b9
000000d0: 8291 fbb9 825f 0d39 95c3 7ab9 558e e737
000000e0: 7980 70bb 419b 7cba b5b4 d539 ad2b 8139
000000f0: 2df4 61ba 215b 813a 28fe 293a 54e8 65bb
00000100: bd52 2f3a b19c 0dbb 5393 29bb 66e7 afbb
00000110: a84d 5c3a 49be 263a c84d cab9 62ac fbb8
00000120: c404 b939 4e68 e7bb 6b3a 3e38 31c5 4f39
00000130: 5656 863a a057 9bbb 248d d9b9 1cd4 f3ba
00000140: 0e19 21ba 9996 10bc 8346 2c3b d474 3e3b
00000150: d778 683a f323 81b9 3512 b0bb 2cd9 2a3a
00000160: c0e2 8dbb cef0 babb 0469 abba 84e1 6bb9
00000170: 93c7 89bb 91a9 3eba 9152 fcbb 14fa 6abb
00000180: c6be f038 9e06 c6bb ef89 c13a d803 f2b9
00000190: 7697 34b9 5348 a1ba 66ac a13a 185d cd39
000001a0: 404c 5fbb 254c bdb7 3278 23bb b798 aebb
000001b0: 7d79 cab9 8b21 07bb 5c46 223a f563 f6b8
000001c0: 9b83 b4b8 9275 5b39 8b16 a1ba dd32 d4b7
000001d0: 4ce6 b4bb ba8c efbb 5453 8fbb 6f88 20bc
000001e0: 2517 10bb d82a c0ba d400 a93a 2950 23bb
000001f0: 9a33 faba a4df 33b9 010c 0539 685b ecba
00000200: dc5e 543a 03b3 fc3a 42c8 76b7 110e a739
00000210: a2d4 c73a 7891 81ba e642 12ba 4cc8 e8ba
00000220: 8930 273a b1ac 27ba 4e2f 183a eff2 843a
00000230: df50 f1ba 042e 993b ba3d 833a b87d 7738
00000240: 873c ed3a af68 bb3a ea66 513b 768b 7aba
00000250: cc31 883b 9add a53b c58b 683a 737d 7aba
00000260: 41c7 4e3b 5404 ccb9 8b26 c8ba 3fcb b03a
00000270: d8ba b43b 2acd b63b ae6f 75ba f76b 6db9
00000280: 9f3a d43a ee28 373b 97e9 a3b9 50a8 a4ba
00000290: a3b0 c3ba ecb8 a53b fc1f c6b8 c110 81ba
000002a0: 7f53 9f39 52d0 eb3a ab54 9b3b 137a 0d3c
000002b0: 33ee 81b9 aebe c839 c0cd 74ba 8369 453a
000002c0: 6369 46ba 3e17 ea3a 9115 96ba 19c9 9d3a
000002d0: 0813 a2ba fa06 1638 916a 32ba 04f3 ae39
000002e0: 2aeb a938 0852 85b8 a1c0 953a 8bc9 6ab9
000002f0: 72ef 72ba 925d 633b 0ff9 93b6 a55f 553a
00000300: eace 0c3b 4e38 463b 8793 afb9 dadc 5e3a
00000310: ca1b 493b 0725 083b abfe d8ba f6ee 4bba
00000320: df33 0b3a 8b57 3f3a f8c3 0039 2eef 0c3a
00000330: a2b4 5d3b dee1 cf3a 8bc7 abba 82d4 a13a
00000340: 05d2 e4ba 821c 043b b1f9 153c 1110 f03b
00000350: 2615 503b 381b f137 3baf ba3b 14bf 603b
00000360: 9601 a139 1b86 2f3a 8588 bc37 4787 273b
00000370: ed63 8f39 ff53 c2b9 6c0e 153b 8a18 013a
00000380: 23e1 c539 7e1f 4d3a f898 a93b 41de d139
00000390: 6dc7 cab9 e04f 80b9 1efe 05ba 4f30 4d3a
000003a0: a839 5d39 3fa4 0e39 e52a c63a ed58 e639
000003b0: 71f5 c8ba 3642 dc38 d70e 1b3b 6405 9cb9
000003c0: cb50 a1ba 1737 5438 ae1f 2dba 5e3e 04ba
000003d0: b088 1f3a ec6f 4f3a 0e30 883b 557e bc3b
000003e0: d6e9 07ba c205 4bba 6da5 843b ea64 a2b8
000003f0: 1863 333a dc75 88b9 634d 8e37 5286 2f3b
