Assets/IA/Pruebas/results/Pad16/PadBehavior/checkpoint.pt (torch, 438005 bytes, 30 tensors)

network_body._body_endoder.seq_layers.0.weight f4 [128, 5]
000000 e5 f2 f5 3b 08 48 14 3e 43 18 e7 3e ff cf 10 bd
       0.007505762 0.14480603 0.45135698 -0.03535461
000010 02 d7 0c 3e c7 2d 95 be 75 a2 8d 3e 29 4b 3c be
       0.13753894 -0.29136488 0.27663007 -0.18388046
000020 f6 ec 58 bd c6 dd 74 be 00 8d c0 be f9 55 82 bf
       -0.05296036 -0.23912725 -0.37607574 -1.0182487
000030 75 2d 7f 3e a9 98 2b 3e 4c 26 d3 3e e4 a9 49 bf
       0.24919684 0.16757454 0.41240156 -0.7877486
000040 47 20 40 bf 2c 94 83 bf 98 0e 4c 3e ec fe 23 bf
       -0.7504925 -1.0279593 0.19927442 -0.64060855
000050 f5 7b 36 3e 6e 0a 38 3d b0 95 af bd 4b 04 e1 3c
       0.17820723 0.04493182 -0.085734725 0.027467867
000060 69 5b 8a be c1 9c 34 bf 12 f5 0d 3f 31 23 b4 be
       -0.27022865 -0.7055169 0.5545207 -0.351831
000070 72 ae 7c be 0d c6 83 be b6 fb be 3e ba c4 4f 3f
       -0.2467592 -0.25737038 0.37301415 0.81159556
000080 83 a4 88 bf ea 52 cc be 55 97 ac be 95 99 1e 3e
       -1.0675205 -0.39907008 -0.33709207 0.15488274
000090 25 89 e3 be 22 f7 13 bf b0 3a b5 3e 58 22 11 3f
       -0.4444057 -0.5779897 0.35396338 0.5669303
0000a0 5c 09 6d bf 11 dd 1d 3f 35 b2 50 3c 44 a1 d5 3e
       -0.92592406 0.61665446 0.0127378 0.41724598
0000b0 8e bd fc 3e 9d f7 62 3f eb d6 89 3d f2 2a 1d 3e
       0.4936337 0.8865908 0.067304455 0.15348414
0000c0 e4 81 47 bf 92 2c 0a bf 33 f3 2f 3d b9 08 00 3f
       -0.7793257 -0.5397426 0.042956542 0.5001331
0000d0 6b c9 d7 3c f9 ba c1 be 61 55 1a 3c 2d e0 26 3e
       0.02634116 -0.3783796 0.00941977 0.16296454
0000e0 3d 97 a2 bd e4 35 51 be 5c 92 85 be 24 83 7a be
       -0.07939003 -0.20430714 -0.26088226 -0.24464089
0000f0 8c aa d5 3e 50 1b bf be b1 3f 4b bf 8b c4 01 bd
       0.4173168 -0.37325525 -0.7939406 -0.03168158
000100 18 5e e7 3e 64 f4 87 3f 23 94 0c 3f ca 29 00 bf
       0.45188975 1.0621457 0.5491354 -0.50063765
000110 93 a3 0c 3f 92 db 67 bf 71 47 e7 3c 6f 18 b4 bd
       0.54937094 -0.9056941 0.028232308 -0.08793723
000120 9a 38 80 bd ad 56 ee 3e c0 65 42 be 8d 1c 38 be
       -0.06260796 0.46550503 -0.18984127 -0.17979641
000130 ce f4 3b 3f 9e 45 08 3f cb 97 94 bf d7 ff 29 3e
       0.7342042 0.5323123 -1.1608824 0.16601501
000140 01 d9 d6 3d 54 08 5d bf 1f 51 07 3f 40 3c 06 bf
       0.10490609 -0.8634083 0.52858156 -0.52435684
000150 3f 8a 90 3e dd 07 be 3d 1c c0 98 3e 15 05 9f 3d
       0.28230473 0.092788436 0.29834068 0.07764641
000160 c1 ed 2c 3f 04 16 78 bb a0 0e e0 be 81 fa 3e bf
       0.67550284 -0.003785492 -0.43761158 -0.7460099
000170 55 ff 2a 3f 51 a6 ef 3e ec 8f 90 3d 22 ff 22 bd
       0.66795856 0.46806577 0.07058701 -0.039794095
000180 ff fc f3 bd ca 65 3a 3e 3c fc 93 3e 6f d4 67 3e
       -0.119134896 0.18202892 0.28903377 0.2263963
000190 bf fb b9 3e 7f 4e 78 3d 7c 0f 1c bd da a0 e1 bd
       0.3632488 0.060621735 -0.038100705 -0.11017008
0001a0 17 e1 23 bd 49 a2 04 bf 5c b5 e4 be 1c 89 5f bd
       -0.040009584 -0.5181013 -0.44669616 -0.054574117
0001b0 3d 4a bf 3d d8 0d 18 3f 59 b2 16 bf e0 54 59 3f
       0.09340332 0.59396124 -0.58865887 0.84895134
0001c0 b2 e7 66 be 5d e5 80 3e de be 04 bf 0a f3 8f be
       -0.22549322 0.2517499 -0.5185374 -0.28115112
0001d0 3f dd 18 be e0 4a 61 be a2 b5 c8 3d fd 11 a3 be
       -0.14928149 -0.22001219 0.09800269 -0.3184966
0001e0 3f 6c 3d be 12 b5 29 3e de 64 1c 3f f3 33 ed 3c
       -0.18498324 0.16572979 0.6109141 0.028955435
0001f0 59 75 c7 be 66 e1 39 3f 2d 69 50 bc 25 a1 81 bf
       -0.38956717 0.72609556 -0.012720388 -1.0127302
000200 4d f4 11 bf 34 c0 cd 3e a7 5c 14 be f4 70 0e 3f
       -0.570134 0.40185702 -0.14488469 0.556411
000210 b4 ee 5d 3f 18 26 23 bf e7 d4 23 3e 96 35 ee be
       0.8669236 -0.6373 0.15999185 -0.46525258
000220 61 48 4d 3e 6e 1b 15 be e3 a3 c1 be 3d d2 fb 3e
       0.20047142 -0.14561245 -0.37820348 0.49183837
000230 1e 43 47 be 15 c0 f1 bd 96 62 73 be c2 2c 44 3e
       -0.19459197 -0.11804215 -0.23768076 0.19157699
000240 42 60 41 3f b4 dc 9e be 91 bd 32 bf b6 9d ae 3e
       0.755375 -0.31027758 -0.69820505 0.341047
000250 fa b6 f6 bd f4 49 b6 3e e1 9f c4 3d 62 01 e3 3e
       -0.12046619 0.35603297 0.09600807 0.44336993
000260 d5 f9 3c bd b7 1d a7 be ef c6 17 3f 1c cc 97 be
       -0.046136696 -0.32639858 0.59287924 -0.2964791
000270 1f f1 90 be b5 77 3c bf 37 d2 18 3e da b8 f9 be
       -0.2830896 -0.7362016 0.1492394 -0.48773843
000280 07 16 47 bf 60 f9 8f bf 24 ea a0 be b8 e9 ba bd
       -0.77767986 -1.1247978 -0.31428635 -0.091266096
000290 2e 87 ca be 75 0d 90 be bc 8c 4c 3e e3 f1 f2 bd
       -0.3955626 -0.28135267 0.19975561 -0.118625425
0002a0 11 7f 03 3f 38 db 12 bf 64 57 81 3e a5 d3 04 bf
       0.5136576 -0.5736575 0.25261986 -0.51885444
0002b0 cd 2f 59 3f c9 70 6e bf 2d f5 06 3f 33 bf dc 3e
       0.84838563 -0.93140846 0.5271786 0.43114623
0002c0 22 09 0d bf 05 67 7b bf 33 04 25 be 51 80 75 3e
       -0.5509206 -0.9820407 -0.16114883 0.2397473
0002d0 77 84 81 be 3a 8d f9 be 06 de ae be 89 91 3e 3f
       -0.25296375 -0.4874056 -0.34153765 0.7444082
0002e0 7b 69 85 3d d0 b4 eb 3e bb f5 5a bd 09 a6 15 3f
       0.065142594 0.46036386 -0.053457003 0.58456475
0002f0 4b 03 5d 3e 84 e6 8e bd 58 81 f0 3e 5e fa d9 3e
       0.21583287 -0.06977561 0.4697368 0.42573828
000300 33 e5 02 3e fe 71 92 3d 29 35 77 3e 49 71 e0 bc
       0.12782745 0.071506485 0.24141373 -0.027397769
000310 16 26 a8 3e b1 39 34 3f 7d c9 67 bc a1 9c f4 3e
       0.32841557 0.7040053 -0.01414716 0.47775748
000320 fc 59 d5 3d d3 e3 14 bf 94 ce 9d be ae 7a 8f 3d
       0.10417554 -0.5816013 -0.3082167 0.07005821
000330 21 6e 45 3f c9 95 c0 bd c9 7a 9f 3d 0c 3e 6f be
       0.7712117 -0.09403569 0.07787091 -0.23363513
000340 9e 6d f8 3e c2 6f c8 bd bc 83 2b 3f 3c b7 e3 bd
       0.4852113 -0.09786941 0.66997886 -0.111189336
000350 17 51 4b be 4f 00 d2 bc 3e 54 c1 be 37 15 84 3e
       -0.19855152 -0.025634913 -0.37759584 0.25797436
000360 de 4d 9a be 19 54 a2 be 45 89 2c bf 7d 5d d7 be
       -0.30137533 -0.31704786 -0.67396957 -0.42063513
000370 05 63 37 bf 9f 05 75 3e d7 fe 49 bf fc 59 ea be
       -0.71635467 0.23927926 -0.7890448 -0.45771778
000380 f0 dd 28 be 7d 32 f2 3e 32 d4 56 bf 58 09 3f 3e
       -0.16490912 0.47304145 -0.83917534 0.18655908
000390 b3 98 ef 3d 93 2e 80 bd e0 d0 a6 3e 19 0d 4d 3f
       0.11699047 -0.06258883 0.32581234 0.8009811
0003a0 f6 65 55 3e 23 ca 28 be 6b 5b 4b be 20 30 d4 3d
       0.20839676 -0.16483359 -0.19859092 0.103607416
0003b0 cb f7 6a 3f 2f b8 8b 3e 3e b1 5b bf 82 c8 d2 be
       0.9178435 0.27288958 -0.85817325 -0.411686
0003c0 9a 57 05 bf d8 53 e0 be 65 6b af be d2 84 1a be
       -0.52086794 -0.43813968 -0.34261623 -0.1508973
0003d0 2b a0 2f be 67 ec c9 bd 4f 50 19 3f 4d 81 b0 3d
       -0.17150943 -0.09859543 0.59888166 0.08618412
0003e0 ec 57 7c 3d 31 3f 48 3d 13 b4 1e be b1 74 60 be
       0.061607286 0.04888839 -0.1549838 -0.21919514
0003f0 48 de 05 3f b3 79 c4 be 8b 67 03 3f 8b 1c de be
       0.522923 -0.383741 0.5132987 -0.43381152

network_body._body_endoder.seq_layers.0.bias f4 [128]
000000 27 3c 5d bc 35 06 87 bb a3 a5 1b 3d 95 42 b1 3c
       -0.013503111 -0.004120613 0.03799976 0.021638194
000010 76 f2 14 bc ce 34 1d 3b f5 c4 6a bc f8 55 5c bc
       -0.00909101 0.0023987773 -0.014329185 -0.013448231
000020 bf db af 3c 80 2b 08 3c fd c4 0f bd 43 96 7d 3c
       0.021467088 0.008311152 -0.035099972 0.01547772
000030 cb 88 99 bb b8 e5 ca bb 6c 4f 60 bc 46 16 3e 3a
       -0.0046854964 -0.0061919354 -0.013690811 0.0007251244
000040 ae b5 f6 3c 23 66 bf 3b ff 26 29 bc be e8 57 3c
       0.030115929 0.005841033 -0.010324239 0.013178049
000050 f8 96 21 bc f6 c4 15 3d e3 0b bc b8 26 a2 05 3c
       -0.009862654 0.03656479 -8.966753e-05 0.008156335
000060 99 8f 99 3c 90 97 fd bc f9 f9 31 bc 9c 7d f6 3c
       0.01874523 -0.03095606 -0.010862821 0.030089192
000070 75 63 47 3c 33 2e 09 3d 27 32 1f 3d d3 b6 35 bb
       0.0121697085 0.033491325 0.03886619 -0.002772738
000080 46 cc 9d bc 9c a9 6b b9 8b 79 c8 3c 89 b9 a4 3c
       -0.019262444 -0.00022474531 0.024472019 0.020108001
000090 4c 22 81 bc 2d 0f 0f 3c 44 b5 57 bc df 58 9d 3c
       -0.015763424 0.0087316455 -0.013165776 0.019207416
0000a0 b3 1a ba bb 87 3a de b9 e8 6e 49 3c 7b 64 6c bc
       -0.0056794523 -0.00042386746 0.0122945085 -0.014428253
0000b0 d6 29 ee 3b 61 4d 08 3d 98 84 a1 bc 13 7e ca bc
       0.007268171 0.03327692 -0.019716546 -0.02471832
0000c0 f5 3c 81 bc 60 95 1e 3c 7b b7 09 bb ab 6f 39 3c
       -0.015776137 0.009679168 -0.0021013904 0.011318128
0000d0 ec e3 50 bc e3 e8 e5 3c 1e 18 73 bc 43 a8 30 3c
       -0.012749653 0.02806515 -0.014837293 0.010782304
0000e0 bf ff 9e 3a 67 ca c3 ba 6e 79 4b bb 39 f0 76 39
       0.0012130662 -0.001493764 -0.003104772 0.00023549878
0000f0 f9 3a 0c bc ac f4 b5 b9 fc a6 2c 3c ec 19 23 3d
       -0.008558982 -0.00034705305 0.010537859 0.039819643
000100 fc b4 1d bc 41 a1 02 bc a5 94 b5 bc c4 d0 02 3c
       -0.00962567 -0.007973016 -0.022165606 0.007984344
000110 19 01 88 3c a5 17 a8 bc 2c 3a 1e bc 70 8d a5 bc
       0.016602086 -0.020519087 -0.009657424 -0.020209044
000120 11 1f 4f 3c 11 b5 b4 3c 3b 4f 37 3c 3a 42 19 bd
       0.012641684 0.022058995 0.011188324 -0.037416674
000130 44 2a c5 bb 15 31 51 3a 06 48 29 3b da 0e 27 bc
       -0.0060170013 0.0007980031 0.0025830283 -0.010196412
000140 03 3b 70 bc 10 4a ab 3b 82 e6 8f bc 47 e7 56 3b
       -0.014662507 0.005227335 -0.01756597 0.003279166
000150 34 39 6a bb c8 8f b9 39 04 3b ae bb 65 a7 29 bb
       -0.0035739662 0.00035393075 -0.005317094 -0.0025887128
000160 96 06 d8 3c 52 a9 a4 bb 43 22 96 ba 5c c4 b6 bb
       0.026370328 -0.0050250674 -0.0011454303 -0.005577607
000170 f7 13 c0 3c d2 79 39 3c 45 56 b9 3c d8 6e 83 3c
       0.02344702 0.011320548 0.022624144 0.016044065
000180 05 8e de bc b2 f6 36 3d 6e 27 eb 3c f9 0e 2b 3c
       -0.02716733 0.04466886 0.028705325 0.0104405815
000190 71 7c 16 ba fd ac 1b bc b6 43 2b bc ca a1 a4 3c
       -0.0005740589 -0.009501693 -0.010453155 0.020096678
0001a0 93 91 af ba 0d f2 3e bb b3 fe 3f 3d 2b 90 a3 3c
       -0.0013394825 -0.0029135973 0.04687376 0.019966206
0001b0 89 57 9f 3c a9 b3 26 bc 0b c3 05 3c 92 dd f9 bb
       0.01945092 -0.01017467 0.008164178 -0.00762529
0001c0 93 e3 41 3c b7 b6 ca 3c 93 39 a2 3a 3a 36 57 bc
       0.011834043 0.024745328 0.0012376778 -0.013135487
0001d0 fe a5 53 b9 28 b9 a8 bb 06 17 bd 3b a4 93 92 ba
       -0.00020184365 -0.0051490255 0.005770567 -0.0011182916
0001e0 4e 7c cc 3c 5a 06 0d 3c 7d aa ff 3c 30 07 98 bc
       0.024961617 0.008607471 0.031209225 -0.018558115
0001f0 5b 33 db bb fa ce 74 3c 72 33 5e 3c 4b 4e 09 bc
       -0.0066894717 0.014941925 0.01356207 -0.008380483

network_body._body_endoder.seq_layers.2.weight f4 [128, 128]
000000 98 f9 2f 3e 39 ed 46 3e 50 fb 55 3e 2b 8d 85 bd
       0.17185056 0.19426431 0.2089665 -0.06521066
000010 f6 e5 a7 bd 30 e6 4a bc 98 25 ca bd 87 e2 2c 3e
       -0.081981584 -0.012383983 -0.09870452 0.16883288
000020 75 db 05 3e 31 58 fe bd b8 46 c1 bd 29 23 fc 3b
       0.13071997 -0.12419165 -0.09437317 0.007694621
000030 32 8b ad bb 68 a3 9b bd c5 8f 52 be f5 4a e3 3b
       -0.0052961344 -0.07599527 -0.20562656 0.006936426
000040 e2 90 84 3b 81 b7 aa 3b 1a 8b 6c 3c cb ff 11 3e
       0.0040455917 0.0052098637 0.014437461 0.14257734
000050 59 a0 71 bd 06 b8 ee bc 2c 85 75 3d 12 ab a6 3d
       -0.05899081 -0.029140484 0.059941456 0.08138098
000060 a0 d4 bf bd 1d ce c1 3d 04 c7 d2 3d 3e b4 33 bd
       -0.09366727 0.09463141 0.102918655 -0.043873064
000070 d3 e5 37 3d 4a 86 cd bd d8 28 3c 3e 9e 84 88 3d
       0.04489691 -0.10035379 0.18374956 0.0666592
000080 24 44 ae ba 9d ef b5 bc dc 66 6b bd e2 4b b0 bd
       -0.0013295454 -0.022208983 -0.05747114 -0.086082235
000090 41 84 03 be e9 ab 30 3d 4d a8 fc bc 5f 13 b0 bd
       -0.1284342 0.043132696 -0.03084197 -0.08597445
0000a0 13 85 51 bc 8f 4d 6d 3d 2a 80 15 bc a2 47 ee bd
       -0.012788075 0.057935294 -0.009124795 -0.116347566
0000b0 9c f8 13 3e d5 21 91 bd 1f d7 16 bb 3d 2c 2a bc
       0.14450306 -0.07086531 -0.0023016406 -0.010386524
0000c0 33 34 0a bd 20 68 be bc 5c 7c f0 bd 9e 03 39 bd
       -0.033741187 -0.02324301 -0.1174247 -0.045169465
0000d0 cc 2b 1d 3d 8c 11 d3 3c 9f 08 94 bd 4c 5d b0 3d
       0.038371846 0.025765203 -0.07228207 0.08611545
0000e0 3d cb 02 bc 44 0d ea bb 21 db bd bc bb ab 89 3c
       -0.007983026 -0.0071426947 -0.023175778 0.01680552
0000f0 aa 15 c2 3d d6 e0 9f bd 31 69 7b 3d 97 60 4b ba
       0.09476788 -0.07806556 0.061379615 -0.00077582285
000100 c9 3d cd bc 49 b6 9f b9 eb 6c 62 bd 90 ea 22 3d
       -0.025053876 -0.00030462656 -0.055279654 0.039774477
000110 61 12 10 3e f7 af f5 bd ff af d6 3d d4 5f 81 bc
       0.14069511 -0.11996453 0.10482787 -0.015792765
000120 2b 1e c1 3d c0 7a cd bd 28 94 35 3e e0 50 37 bd
       0.09429582 -0.10033178 0.17732298 -0.044754863
000130 3c 10 0c 3d ba 46 b9 3c c9 d5 fd 3d 7a d4 21 bb
       0.03419517 0.022616733 0.12394292 -0.0024693296
000140 58 24 ec 3d f9 7b a1 bc 40 de c3 bc fa fc 40 3c
       0.115303695 -0.019712435 -0.023909688 0.011779064
000150 e9 6e c0 3c b6 bf a7 3d 07 cb 23 be 3d f3 c0 bc
       0.023490386 0.08190863 -0.15995418 -0.023553485
000160 2e 88 c2 bd e2 98 85 bb 6f 86 51 bd 1f f0 79 bd
       -0.094986305 -0.004077063 -0.051153596 -0.061020013
000170 4d b9 fe 3d e6 a4 06 bd ed 8b 6d 3a ba ca 71 bd
       0.12437687 -0.032872103 0.0009061683 -0.059031226
000180 68 83 42 be f5 5c 83 3d c1 58 c0 bd 4f 86 7d bc
       -0.1899544 0.064142145 -0.093919285 -0.015473916
000190 8d cf 35 bd 29 92 47 bd 1f 86 c3 3d 46 7a 64 bd
       -0.04438739 -0.048723374 0.09547066 -0.05578067
0001a0 27 85 9b bc 08 52 35 3e 60 07 e9 3c 9a 40 41 bc
       -0.01898439 0.17707074 0.0284459 -0.011795187
0001b0 7e 7c 8c 3c 80 3c 95 bc ef b8 8e 3d 44 8d 9d 3c
       0.017149206 -0.018217325 0.06968867 0.0192324
0001c0 82 f1 a6 3d 33 f5 44 3e fd 36 49 3d 89 71 b9 bd
       0.08151533 0.19234161 0.049124707 -0.09054858
0001d0 b3 64 3d bc 7a a9 57 bd b9 d2 82 3d 4a 60 b4 3c
       -0.011559653 -0.05265186 0.063878484 0.02201857
0001e0 03 6e 38 bd ae 78 b9 3c 98 26 9b 3d 97 5a 5c 3d
       -0.04502679 0.022640552 0.075757205 0.05379733
0001f0 b6 ca 3c bd 10 10 05 bd de 75 03 3e f5 db 87 bd
       -0.046091758 -0.03248602 0.12837932 -0.0663375
000200 78 1e 02 3c 53 e3 7d bb 7d 68 b8 bb af 82 7d bb
       0.007941835 -0.0038740232 -0.0056276903 -0.003868263
000210 4f 88 3c 3d 69 3e 32 3e 7e ca 6e bd 46 48 7d bd
       0.04602843 0.1740662 -0.05829858 -0.061836503
000220 44 c2 c6 3c 9f 56 c0 3c c9 58 c4 3c 59 35 78 bd
       0.024262555 0.023478804 0.023968117 -0.06059775
000230 b2 fd 12 bd 96 cd 65 3d 8e 43 17 3e 19 12 22 3e
       -0.035886474 0.056104265 0.14771864 0.15827216
000240 89 50 c2 3d f9 26 74 bd 91 08 ea bc 74 58 7e 3d
       0.09488017 -0.05960748 -0.028568538 0.062096074
000250 00 f1 d6 3d 20 2f 0e be 0b c7 93 3c 8a cd 9b 3c
       0.10495186 -0.13885164 0.018039247 0.019018907
000260 14 43 86 bd 7d 68 b3 bd e5 ce 4e bd 34 dc 08 be
       -0.06555763 -0.08760164 -0.05049028 -0.13365251
000270 50 d8 14 be 91 dd 2f 3e 5b 9a 9b 3c 1b d7 8a bb
       -0.14535642 0.17174365 0.0189945 -0.0042370684
000280 77 e0 38 bd dc df 31 3d de d5 8b bd 09 0b 29 3d
       -0.04513594 0.04342638 -0.06827901 0.04127029
000290 9b ed 78 3c 3c 1b 30 bc ad 71 35 3d 2e e0 d5 3c
       0.015193368 -0.010748681 0.044297863 0.026107874
0002a0 f6 8e 87 3d 5e 66 fd bd 75 29 73 be 25 5c 7a 3d
       0.066190645 -0.123730406 -0.23746283 0.061123032
0002b0 bd f1 51 3d 5e 41 e4 bd b5 c8 fd 3d 04 99 25 3d
       0.05125593 -0.1114528 0.123917975 0.04042913
0002c0 a6 7c 14 be 3c 4e df bd 5c ef 22 bd 34 04 e6 3d
       -0.14500675 -0.10903594 -0.039779052 0.112312704
0002d0 cd 2f 1f 3d e4 46 57 bd 57 1a b2 bc 13 18 56 be
       0.038863946 -0.05255784 -0.021741075 -0.20907621
0002e0 ec 97 c2 3d cd be 82 3d c6 fa ec 3d 97 e9 8f bd
       0.09501633 0.063840486 0.11571269 -0.070269756
0002f0 62 9c bf bd a7 a6 2d bd cd 33 c4 3c e1 c3 5e 3d
       -0.093559995 -0.04239526 0.023950482 0.054386023
000300 4c af f0 3d 08 f9 da bd 6b 22 42 3d 60 95 c8 bd
       0.11752185 -0.1069203 0.047396105 -0.09794116
000310 ae ca 9e 3c a0 31 2a 3d 03 2c 01 3e f3 e5 4f 3c
       0.019383755 0.041551232 0.12614445 0.0126891015
000320 50 10 26 3e 44 aa 0f 3e d7 ca 85 3d 87 4e 1b 3e
       0.1621716 0.14029795 0.06532829 0.15166675
000330 46 4c 4e 3d 2f cd 8b bc 15 61 2b be 3d 4c 38 3e
       0.05036571 -0.017065613 -0.16736253 0.17997833
000340 81 a5 4e be d1 b2 8c bd eb ca bd 3d de 48 26 3d
       -0.20180322 -0.06870044 0.09267219 0.040596835
000350 40 25 f4 bd 1d e2 01 bd c0 79 d2 3d e1 19 40 3e
       -0.119211674 -0.03170978 0.10277128 0.18759872
000360 10 f3 0c 3a 0e 71 d1 bd 73 4b 4b 3e bc dc 01 be
       0.00053767953 -0.102266416 0.19853 -0.1268186
000370 fe 89 4d bd 76 3b e1 3d b8 05 7c bd 3b 47 c4 3d
       -0.050180428 0.109976694 -0.06152889 0.09583899
000380 07 e4 a3 3d 14 89 a5 3c 2b a5 01 3d 75 ea 92 bd
       0.08002477 0.020206966 0.031651657 -0.071736254
000390 c0 b8 43 bd de 08 cc bc 8c 3d 08 3e 0e 95 2a be
       -0.047783613 -0.024906572 0.13304728 -0.16658422
0003a0 fe 71 71 3d 1c 45 95 3d a0 09 84 be c1 cc 2a 3d
       0.058946602 0.07288572 -0.25788593 0.041699175
0003b0 bf ec 44 3d cd 22 04 3d 6d 22 d2 bd fb 26 b7 3d
       0.04807734 0.03225975 -0.102604724 0.08942982
0003c0 9b fb 59 bd c5 da b1 3d 20 de 5a be 5f f5 60 3b
       -0.053218465 0.08684305 -0.21373796 0.003432594
0003d0 6a e0 50 bd d4 de 7a bd b4 1c cf bd 86 d7 ed bc
       -0.050995268 -0.06124766 -0.101128966 -0.029033434
0003e0 43 31 a4 bd 8b 4e 43 ba ed cf f6 bd c5 3c 48 bc
       -0.080172084 -0.00074503635 -0.120513774 -0.01222152
0003f0 9e ad 40 3e 8f 05 65 bb 4b d0 8d be 7e a3 07 3e
       0.1881623 -0.003494594 -0.27697977 0.13245961

network_body._body_endoder.seq_layers.2.bias f4 [128]
000000 d0 e2 8b 3c c3 01 bd bb d3 4b 43 bb 8e 8c 10 3d
       0.017075926 -0.0057680323 -0.0029799833 0.035290293
000010 35 95 f5 3b 87 65 3b bc ed 87 fa 3c 04 5c e9 3b
       0.0074945935 -0.01143778 0.030582393 0.007121565
000020 cc 03 6c ba 29 51 df 3a e7 df f2 3c d4 b2 56 bc
       -0.00090032513 0.0017037737 0.02964778 -0.013104159
000030 8e 03 3a 3c 56 d9 3c 3c a5 f6 13 bc b0 bd fe 3c
       0.011353387 0.011526426 -0.009030973 0.03109631
000040 90 1b 85 3c 7a 9f 83 3c 5d 33 28 bc 21 d5 6c 3c
       0.016248494 0.016067255 -0.010266152 0.014455111
000050 70 40 26 3c e6 fa 84 bc b5 cf 73 3b 63 1d 10 3c
       0.010147199 -0.016232919 0.003720266 0.008796069
000060 1a 62 1a 3b c0 3e 87 bc e4 b2 10 bc fd 70 9a bc
       0.0023557008 -0.016509414 -0.008831713 -0.018852705
000070 65 ea a9 bc 6f f0 8a 3b 9e a6 cc bb 19 c4 b2 bc
       -0.02074165 0.0042400877 -0.0062454483 -0.021822022
000080 6c e9 51 bb 93 f5 6a 3c ad 06 96 bb 8d eb 88 bb
       -0.003203 0.014340776 -0.0045784325 -0.0041784705
000090 6c 72 45 3c f7 42 fe bb 96 df 22 ba 75 84 12 3b
       0.012051206 -0.0077594477 -0.00062131265 0.0022356783
0000a0 38 dd bd ba 9d 70 6c 3b 81 fb 38 bc db 6d eb 3c
       -0.0014485484 0.0036077865 -0.011290432 0.028738907
0000b0 09 4f 53 bc 4a e7 e5 bb c1 81 26 bc 69 bb c8 3c
       -0.012897261 -0.007016097 -0.010162772 0.024503427
0000c0 4c 89 33 3c dc 1a de 3b fb 1f 29 bb 33 d9 d0 3b
       0.010958027 0.006778104 -0.0025806415 0.0063735484
0000d0 7b f0 64 bb 68 a5 9a 3c fe de f8 bb 92 64 a7 bb
       -0.0034933377 0.0188777 -0.007594942 -0.0051084245
0000e0 1e f5 26 3b 93 1e fb 3c 7f 1e 00 3d da 3a 8d 3c
       0.002547569 0.030654227 0.031279083 0.017239977
0000f0 5b a0 63 3a ca 3d 80 bc b9 7b 94 bc 95 e4 d7 3b
       0.00086832576 -0.015654463 -0.018125402 0.0065885284
000100 87 cb 64 bc ed 08 df 3c ce 67 6f 3c 7c 93 56 3c
       -0.01396454 0.027225936 0.014612151 0.013096686
000110 cb 43 c9 bc 2c 3c 9c 3a 7c b5 46 bc eb e1 c3 3b
       -0.024568459 0.0011919788 -0.01212823 0.0059778593
000120 bc 93 7f 3a 00 8c 8e bc bf 54 7a 3b f8 4b 54 3c
       0.0009749492 -0.017400742 0.0038197485 0.0129575655
000130 93 51 a3 bc 95 d8 27 bc 13 e3 ba b8 40 8d 84 3c
       -0.019936359 -0.010244508 -8.911467e-05 0.016180634
000140 a3 de 80 3c 33 57 92 3c 63 03 4c bc 3d 3d 9e 3c
       0.015731161 0.017863845 -0.012451979 0.01931631
000150 25 8e 99 3c ce 3a 9b 3c 30 69 9c bc b6 b8 5b 3b
       0.018744538 0.018948939 -0.019093126 0.0033526844
000160 4d be 2a bd c5 89 08 3c d1 45 5d 3c c1 10 8f bc
       -0.04168539 0.008333628 0.013505415 -0.017464044
000170 c0 87 80 bc db c8 8d bc 34 47 d7 bb bb af ba bb
       -0.01568973 -0.01730769 -0.0065697674 -0.0056972182
000180 14 61 c2 3b 7a a0 d1 3b b4 d2 37 3c 3f d2 17 3d
       0.005931983 0.006397304 0.011219669 0.03706574
000190 d0 ca fe bc 8d 7d e3 3b b7 80 16 bb c2 dd 6b 3c
       -0.031102568 0.006942457 -0.0022964904 0.014396133
0001a0 8f 3d 94 3c df de 69 3c aa 36 14 3c 9c 41 cf 3c
       0.01809576 0.014274328 0.009046236 0.02529984
0001b0 67 84 ac 3c 49 cb a0 3a 93 59 05 3d ba 01 93 3c
       0.021059228 0.0012267615 0.032556128 0.01794516
0001c0 74 d6 f4 ba 16 45 56 bc 34 2c 7e bc 67 20 e8 3c
       -0.0018679635 -0.013077995 -0.0155134685 0.028335763
0001d0 5e 23 9f 3b 40 60 9e 3a 06 d6 84 3c 97 90 b2 3c
       0.004856511 0.0012083128 0.016215336 0.021797461
0001e0 ef bd 08 bc f7 55 ac 3b 7c 30 35 bc 3c 35 a1 3c
       -0.008346065 0.0052592712 -0.011058923 0.019678704
0001f0 72 11 64 3c b2 77 2a bc 66 7c c4 bb 04 9e ab bc
       0.013920175 -0.010404514 -0.0059962748 -0.020949371

action_model._continuous_distribution.mu.weight f4 [1, 128]
000000 54 81 6d 3c f3 bd a8 bc 34 b1 93 bc 10 60 89 3d
       0.014496166 -0.020598387 -0.018028833 0.067077756
000010 23 2c ef bc 1f 44 9c bc af 85 4b 3d 21 14 7c bc
       -0.02919585 -0.019075451 0.049688037 -0.0153856585
000020 e0 19 28 3c 96 3c 3d 3c b2 11 45 3d ac e6 85 bc
       0.010260075 0.011550089 0.04811258 -0.016345344
000030 b9 c5 4a 3c 06 fc f8 3c ea b1 c2 bc fd 02 4e 3d
       0.012376242 0.030393612 -0.023766477 0.05029582
000040 e8 66 a7 3b c9 32 59 3c 11 86 49 b8 11 37 45 3c
       0.005108703 0.013256737 -4.8046993e-05 0.012037055
000050 0a 2a c0 bc 9f 60 74 bb 1c 98 88 3c 1f 0c 41 bc
       -0.023457546 -0.0037289036 0.016674094 -0.011782675
000060 c6 3d 31 ba a0 6e 88 bc 68 4f 5a bb 3d 21 95 38
       -0.0006761219 -0.016654313 -0.003331149 7.111065e-05
000070 94 20 85 bc 6b 59 47 3c b3 05 ca bb 20 ba 8e bc
       -0.016250886 0.012167315 -0.00616523 -0.017422736
000080 59 95 00 bd 94 2c ca 3c 72 62 76 bb d8 31 ea 3a
       -0.03139243 0.02467946 -0.00375953 0.0017867638
000090 71 f6 83 3c f7 14 d7 bb e1 f7 4c 38 81 35 f7 bb
       0.016108723 -0.0065637785 4.8868245e-05 -0.00754422
0000a0 f7 a7 15 bd 96 53 94 bc 06 e5 20 bc a0 0b b1 3c
       -0.036537137 -0.018106263 -0.009820228 0.021611989
0000b0 7f 88 88 bc 39 8a 41 3c d9 02 45 bb dd af 65 3d
       -0.016666649 0.01181274 -0.0030061512 0.05607592
0000c0 f0 83 14 3c 75 90 78 3c 45 37 93 3c e6 b3 c4 3c
       0.0090646595 0.01517116 0.01797069 0.024011564
0000d0 74 4c 7b bc 97 42 45 3c 12 56 a8 bc c4 70 d1 bc
       -0.015338052 0.012039802 -0.020548854 -0.025566466
0000e0 1e 49 07 bd d7 a5 d8 3c 9b ac cc 3c 6d de 90 3c
       -0.033028714 0.026446266 0.024984648 0.017684186
0000f0 63 b4 8c 3a 9e e7 b9 bb 0e 18 8a bb cb 99 db 3c
       0.0010734912 -0.005673363 -0.0042142933 0.026806733
000100 dd ab 03 bc 41 59 22 3d 5c 67 13 3d 31 08 30 3d
       -0.008036581 0.0396359 0.035987243 0.042976562
000110 c9 f9 dc bc b2 d6 03 bc 1f 66 9a bc 52 21 ab 3b
       -0.026974576 -0.008046793 -0.018847523 0.005222478
000120 6c 74 05 3c f7 d2 8f bc b5 65 8d 3c 8c 2c f2 3c
       0.008145433 -0.01755665 0.017260412 0.029562257
000130 bb 9a e9 ba 74 ab bc b9 8b 16 8b bb 1d dc 80 3c
       -0.0017822603 -0.00035985897 -0.0042446307 0.015729958
000140 f1 96 6d 3c 08 d2 90 3c 32 67 74 bc 51 7d 67 bd
       0.014501319 0.017678276 -0.014917182 -0.056515995
000150 8b 84 0c 3d 80 53 45 3d ba 70 d3 bb 88 7f a0 3c
       0.03430609 0.048175335 -0.006452647 0.019592062
000160 c3 c2 7d bc 86 c6 63 3c bf 85 f9 3c 4d 3a 34 bc
       -0.015488329 0.013902312 0.030459283 -0.011000228
000170 42 91 c0 bb 7c a7 5d bc 4f 3a 38 bd 42 08 16 bd
       -0.005876691 -0.013528701 -0.044977482 -0.03662897
000180 bc 04 bd 3c 0d 72 86 3b 1f 34 ea 3b 9d 69 ed 3c
       0.023073547 0.0041029514 0.0071473266 0.028981024
000190 4c 11 09 bb 91 54 9e bc a5 6b 1c 3c 1e f6 fc 3c
       -0.002091485 -0.019327434 0.009547149 0.030879077
0001a0 26 da 34 3c 31 31 1d 3d 38 2a ea 3c b9 37 53 3d
       0.011038339 0.03837699 0.028584585 0.051566813
0001b0 fb d6 e6 3c 0b 7a 9f 39 08 e5 4c 3d 3d 27 9e 3c
       0.028178683 0.00030417772 0.05002311 0.01930582
0001c0 b6 8b 77 3c 97 e5 0b bc 74 29 c3 3b 8d 13 d2 3c
       0.015108993 -0.008538625 0.0059558693 0.025644088
0001d0 11 62 c4 3c 0a 28 3e bb c3 22 66 3c ab 6e cc 3c
       0.023972543 -0.0029015564 0.014046374 0.024955114
0001e0 cd 63 5c ba b1 15 ba 3b e8 fa d2 bc e4 3d f8 3c
       -0.00084072055 0.0056788553 -0.025754407 0.03030295
0001f0 28 01 5e 3c dc 99 0d bc 3f 0b 8b bc c8 27 2d bc
       0.01355008 -0.00864264 -0.016973136 -0.010568567

exp_avg f4 [128, 5]
000000 b7 d6 a8 3a c3 a0 c0 3a 59 6d 7a 39 96 27 89 ba
       0.0012881373 0.0014696348 0.00023882593 -0.0010464068
000010 89 4b 34 3a d5 ee cb 3a cf 09 99 3b 20 c2 f8 b8
       0.00068777107 0.0015558848 0.0046703587 -0.0001186172
000020 b3 9e 17 3b 89 3b bf 39 0a 05 b7 3a a2 9c 3b bb
       0.0023135364 0.00036474716 0.0013963294 -0.0028627296
000030 39 eb 4b ba be bc c9 3a e3 84 6e ba bf d3 ba ba
       -0.00077788864 0.0015391333 -0.0009098781 -0.0014253779
000040 90 86 43 3b ca 34 44 3a de 60 e0 39 e0 a1 95 3a
       0.0029834844 0.0007484673 0.0004279678 0.001141604
000050 cc 0f cb ba 2b 2b 96 3b c0 dc 5d 3a d1 84 a2 3b
       -0.0015492379 0.0045827827 0.0008463375 0.0049596806
000060 83 35 e3 3a ff f8 0f 3b 7f 59 b0 3b 45 ca 16 39
       0.0017334673 0.0021968482 0.0053817625 0.00014380466
000070 18 4b 85 bb ce f9 8f b9 3c bc c5 39 81 71 41 3b
       -0.0040677898 -0.00027461204 0.00037715014 0.0029517116
000080 3e 9c 62 b9 0d a4 6e 3b 3f 92 9f b9 c3 2d a9 38
       -0.00021611244 0.00364137 -0.00030435805 8.067072e-05
000090 fd c8 81 38 98 d8 54 b8 de f7 9e b9 22 c1 d7 b8
       6.188636e-05 -5.0746457e-05 -0.00030320784 -0.00010287973
0000a0 c0 19 cd 39 75 6f e3 38 d2 a4 27 39 84 ab cd 39
       0.00039119832 0.00010844964 0.00015987761 0.00039228436
0000b0 e7 5e 28 3a 0b fe 06 3b 9d 0c 84 ba 2e 97 50 b9
       0.0006422833 0.0020598199 -0.001007456 -0.00019892745
0000c0 29 43 0b bc 3c 9f 84 ba 6e dc c1 ba 5b 8a 4f bb
       -0.008499899 -0.0010118256 -0.0014790425 -0.003166816
0000d0 a4 e3 a8 b9 8f a3 40 3b 55 d1 0c ba 87 fe 41 b9
       -0.00032213063 0.0029394364 -0.0005371769 -0.00018500733
0000e0 c3 7c 6a 3a 7a 4a 22 3a d6 f4 6e bb 52 80 e3 39
       0.00089449825 0.00061909074 -0.0036461852 0.0004339242
0000f0 d7 5e b0 39 cb 91 28 39 0b d1 8c 39 e8 67 e5 ba
       0.00033639997 0.0001607604 0.0002685863 -0.001750228
000100 65 ce 67 39 5c 88 f8 ba 8e b6 bd ba 7c b5 8a 39
       0.00022106765 -0.0018961537 -0.0014473961 0.00026456628
000110 b7 4a 6a b9 87 a4 64 ba c7 03 5b 3a 62 1c 71 3b
       -0.00022343812 -0.0008722026 0.000835475 0.00367906
000120 8c fc d2 b8 0a 07 21 39 d1 66 fc b7 31 c7 4d 3b
       -0.00010060621 0.00015356779 -3.0088619e-05 0.0031399245
000130 fc a7 1f 3c 0a 13 d7 b9 da 0a a7 3b 14 c3 83 39
       0.00974464 -0.0004102218 0.005097729 0.00025131612
000140 39 16 62 3b 59 4c af bb c1 74 23 b8 cd 40 95 bc
       0.003449811 -0.0053496775 -3.8970964e-05 -0.018219376
000150 22 57 ac ba 9c 56 0a 3b e2 c2 06 3c b0 99 4f b8
       -0.0013148526 0.0021108752 0.008225175 -4.949578e-05
000160 44 bf d6 3a 1f 9e 1f 3a de a3 92 b9 bd 82 06 3a
       0.0016383906 0.00060889305 -0.0002796938 0.0005131176
000170 1a 2e d2 38 1e 6b 41 b9 a7 f9 1d 39 44 ad d8 39
       0.000100221674 -0.00018445819 0.0001506569 0.00041327823
000180 5e a3 5d 3a 78 d7 c2 37 eb 76 10 3a 3b 63 ab 39
       0.00084548246 2.3226938e-05 0.0005510884 0.00032689594
000190 32 b9 f7 ba c4 19 8e b9 c5 c2 d1 38 96 10 fd 3a
       -0.0018899797 -0.00027103547 0.00010002175 0.0019307311
0001a0 84 ab 92 b9 b0 cd ce 39 d8 f1 4a bb ba 16 d2 b9
       -0.0002797508 0.0003944463 -0.0030966904 -0.00040071254
0001b0 12 79 c6 3a e8 a0 99 ba 23 d8 92 3a d7 77 74 3b
       0.0015142283 -0.0011720927 0.001120333 0.0037302875
0001c0 d4 17 cd b8 b5 5f 30 3a 38 22 9e 38 f1 1c c8 38
       -9.7796e-05 0.00067281286 7.540401e-05 9.542134e-05
0001d0 19 ab 12 39 d3 60 0e 39 32 c4 2e 39 78 5f 76 39
       0.00013987384 0.00013578245 0.00016667022 0.00023495953
0001e0 70 8b ed 3a f5 4b c7 3b 95 6b 34 b9 62 d4 29 3a
       0.0018123221 0.006082053 -0.00017206215 0.0006478486
0001f0 ad 2f d9 b7 49 2f 72 ba bf ef 8a b9 d8 a7 e1 b9
       -2.5890617e-05 -0.00092386134 -0.00026500036 -0.00043040398
000200 c6 3c b4 3a e3 0e 75 ba a5 1f 2e 3b 8c 2d d2 3b
       0.0013751022 -0.00093482266 0.0026569155 0.006414121
000210 17 5a 7a 37 ee e4 6f ba db 77 2d 39 43 c3 af 3a
       1.4922137e-05 -0.00091512396 0.00016543215 0.0013409633
000220 9d 49 81 3a 1f db 27 3a c3 6d 08 bc 81 ec 14 3a
       0.0009863857 0.0006403196 -0.0083269505 0.0005680994
000230 7a ff 4a 3a 88 87 68 3a 10 27 2a 39 13 4d d4 3a
       0.00077437575 0.00088702934 0.00016227015 0.0016197286
000240 8d da 5d 3a 6f b4 67 3b af 62 bd bb 29 69 e5 b9
       0.00084630476 0.003535535 -0.0057795863 -0.00043756634
000250 ed f3 54 bc 8b 2c a3 ba 54 a7 c0 3a 7f b4 cf 3a
       -0.01299761 -0.0012449188 0.0014698305 0.0015846639
000260 36 48 20 3a 3f a2 e9 bb 6e fd 2b 3a 8e 40 83 b9
       0.0006114276 -0.007129937 0.0006560896 -0.00025034364
000270 47 77 b2 38 83 73 e1 38 46 9b 3e b8 d5 f6 16 39
       8.5099186e-05 0.00010750352 -4.544414e-05 0.00014397067
000280 74 c5 c1 ba 38 ee 4c 3b a0 2a 46 3a be bf 79 3b
       -0.0014783577 0.003126992 0.0007559452 0.0038108672
000290 39 19 02 3b 88 c7 b9 39 f4 ca 33 3a a1 77 c7 b5
       0.001985146 0.00035434612 0.00068585505 -1.4861472e-06
0002a0 11 c9 fe b9 44 82 fa b8 07 47 25 3b 62 d0 5b bb
       -0.0004859646 -0.00011945193 0.0025219338 -0.0033540954
0002b0 de 07 09 39 c1 38 47 bc 8f 52 47 ba fb 8d 06 3b
       0.00013068269 -0.012159527 -0.000760355 0.0020531404
0002c0 62 32 04 bb 6c 54 a8 39 71 f3 53 bc 94 25 9e b9
       -0.0020171632 0.00032106356 -0.012936459 -0.00030164106
0002d0 a0 c9 99 b9 d5 fc 39 39 58 ce 7c 38 b4 bc a2 39
       -0.00029332656 0.00017737162 6.0273655e-05 0.00031039643
0002e0 8e c8 14 39 ee 7b d4 b8 75 fa 3b ba 62 43 67 38
       0.00014189092 -0.000101320315 -0.0007170805 5.5137447e-05
0002f0 00 53 00 b9 c0 d7 43 39 59 00 73 b9 24 2e 07 bb
       -0.00012237951 0.00018677022 -0.00023174415 -0.0020626867
000300 48 2f 1e 39 fb 0b f1 b8 45 e4 eb 39 f3 c8 67 ba
       0.00015085668 -0.00011494007 0.00044992767 -0.00088418945
000310 76 25 cc bb 15 7d 0f 3a 14 99 0d bb 2a 16 a9 3a
       -0.0062300516 0.0005473656 -0.0021606134 0.0012900282
000320 cb 49 20 3b 42 01 23 bb e1 dd a7 39 b0 a0 ea bb
       0.0024458047 -0.0024872576 0.00032018035 -0.0071602687
000330 75 19 4e 3a 30 22 64 39 bd b8 b8 3a b5 f7 5e b7
       0.000786207 0.0002175651 0.0014093142 -1.3289905e-05
000340 1c 10 85 39 9a 0f 28 39 c4 6b 8c ba ad 13 54 ba
       0.0002537974 0.0001602754 -0.0010713269 -0.000809009
000350 65 f7 e5 39 0c 0c 8e ba 3b 0b db 39 56 31 a2 3a
       0.00043862607 -0.001083733 0.00041779302 0.0012374322
000360 85 e9 8b ba 5f cf aa 39 85 a0 fd bb 21 96 82 39
       -0.0010674453 0.0003257943 -0.0077400827 0.00024907387
000370 09 00 a7 ba ac 38 2e 3a 83 6c 21 ba f3 f1 3a 3c
       -0.0012741099 0.0006646018 -0.0006157832 0.011410224
000380 a0 1f ba 39 16 b1 01 3a 6e 3e 6c ba d2 4e 15 b7
       0.00035500247 0.00049473473 -0.00090119883 -8.899444e-06
000390 dd c9 25 bb ef 69 a9 b9 b9 9d 2e ba 0f bd 0e bb
       -0.0025297322 -0.0003231312 -0.0006661076 -0.0021780168
0003a0 b1 0a 18 b9 91 cc 09 3b cd c5 8d b9 d1 ed 2f ba
       -0.00014499832 0.0021026472 -0.0002704099 -0.00067111576
0003b0 13 55 bb 3a 23 03 57 ba f9 d9 21 3c 0f 56 49 ba
       0.0014292322 -0.00082020665 0.009878629 -0.0007680365
0003c0 2e e6 fb 39 5e ea 34 ba 22 4c 4e b9 f6 67 76 b7
       0.00048045948 -0.00069013785 -0.00019674053 -1.4686948e-05
0003d0 39 f9 39 b7 16 a7 8a ba 20 50 b2 bb ef d2 a4 39
       -1.1084886e-05 -0.001057836 -0.0054416806 0.00031437675
0003e0 67 22 fc b9 9c c9 3c 3a 49 27 23 3a 7b 34 fc b9
       -0.00048090817 0.0007201673 0.00062238105 -0.00048104287
0003f0 9c 4b 61 39 29 7b df ba b8 8e 16 3a c9 da b2 3a
       0.00021485839 -0.0017050254 0.00057433126 0.0013645525

exp_avg_sq f4 [128, 5]
000000 1a 27 bd 37 2a 50 da 38 64 da 82 36 6a d7 18 39
       2.2548764e-05 0.00010409982 3.899726e-06 0.00014576098
000010 a0 da 69 38 8a 73 36 37 ed f6 7e 38 44 e8 ea 36
       5.575514e-05 1.0874946e-05 6.0788287e-05 7.0007827e-06
000020 68 c9 42 39 32 1c 0a 38 8e 2d 4c 39 16 be 8a 39
       0.00018576311 3.2928023e-05 0.00019471926 0.00026463036
000030 70 f5 31 39 43 ed 01 3b 4a 49 e8 39 5e cd 38 38
       0.00016971468 0.0019825257 0.00044305093 4.406028e-05
000040 4d 63 bf 38 55 1e ce 38 f3 89 aa 39 a3 35 f9 38
       9.126086e-05 9.828495e-05 0.00032527707 0.00011883236
000050 b7 8d 3d 39 bc cc 47 39 d7 ef a7 38 9e 0d ea 3a
       0.00018077237 0.00019054388 8.007854e-05 0.0017856841
000060 37 cf 8b 39 a7 1a a9 38 9c 26 02 3a 50 51 f6 38
       0.00026666533 8.063512e-05 0.00049648597 0.0001174534
000070 91 08 29 3a d6 7e 7f 39 bd 2f cb 37 b9 2e 94 38
       0.0006448115 0.00024365945 2.4221716e-05 7.065893e-05
000080 c9 85 84 37 c8 4f 4b 39 6c 82 40 38 8c 34 d6 37
       1.5797925e-05 0.0001938931 4.5897832e-05 2.5535257e-05
000090 15 43 f9 37 fb 84 1c 37 4f ae 09 3a 05 dc 1d 38
       2.971435e-05 9.3292865e-06 0.0005252109 3.7636626e-05
0000a0 d7 9f 72 38 c8 6e 57 39 47 0f f0 38 9c 65 1d 3a
       5.784616e-05 0.00020545267 0.000114469374 0.00060042157
0000b0 0b 09 6b 39 5f 26 ca 38 00 cc eb 38 07 79 5c 38
       0.00022414715 9.639258e-05 0.00011243671 5.2564803e-05
0000c0 a8 14 79 3a 2c 98 24 39 a2 a9 0b 38 61 58 ca 38
       0.0009501674 0.00015696947 3.3298165e-05 9.6485724e-05
0000d0 b0 a3 b9 37 95 01 9d 39 81 4f 95 38 9f f2 87 38
       2.2129941e-05 0.00029946552 7.1196824e-05 6.482493e-05
0000e0 1d f1 c9 38 5b 6b 83 38 f0 ee a5 39 f9 32 47 39
       9.629338e-05 6.266563e-05 0.00031649275 0.00018997108
0000f0 b4 c0 48 38 7c 96 4c 38 ca da 07 38 15 2d 1a 3a
       4.7863185e-05 4.877754e-05 3.239027e-05 0.00058813515
000100 94 35 ae 38 bf 6e b7 38 38 b9 41 39 46 00 8c 38
       8.306946e-05 8.746748e-05 0.00018474914 6.675771e-05
000110 d7 9c b2 39 06 2c 11 39 61 3f 54 39 5b 54 0d 3a
       0.0003406766 0.00013844678 0.00020241506 0.0005391293
000120 21 bc a7 38 e6 62 ab 3a 37 ad b8 39 1d fd 5d 38
       7.998222e-05 0.0013075739 0.0003522427 5.2926236e-05
000130 03 a0 a0 39 4c fd 80 37 ba 7d 78 39 75 bc 53 38
       0.00030636796 1.537674e-05 0.0002369796 5.0481834e-05
000140 c3 e1 d1 39 ff c1 c0 39 e3 18 35 39 ee 78 84 3b
       0.00040031792 0.00036765632 0.00017270776 0.0040427363
000150 1a 3a 19 3a 7f fa 12 3a 4d e3 b4 3a 18 e0 8c 39
       0.00058451446 0.0005606785 0.0013800651 0.00026869844
000160 95 cd bc 3b 10 04 81 3a b2 9e 65 36 d8 4b 94 36
       0.005761812 0.000984313 3.4216032e-06 4.419573e-06
000170 70 e6 9e 34 a8 bd bb 38 95 db 09 37 59 21 9a 38
       2.959746e-07 8.952181e-05 8.216962e-06 7.349504e-05
000180 3f db fe 38 6b 43 3e 37 86 33 a6 3a e3 b8 df 38
       0.000121525016 1.13405795e-05 0.001268015 0.000106679065
000190 78 d1 23 39 e6 73 6b 39 69 ae de 38 d7 cc 3e 3a
       0.00015622925 0.00022454522 0.00010618271 0.00072784483
0001a0 d6 3a 9b 39 81 74 b2 39 2a 14 0e 3a 52 d3 03 3a
       0.0002960774 0.00034037608 0.0005419875 0.00050287426
0001b0 bc 93 7b 3b 4e 0e 99 3a b1 a2 4c 38 43 42 14 39
       0.0038387617 0.0011677237 4.878891e-05 0.00014139064
0001c0 0d dc fd 37 26 bb 19 3a 4a 40 05 39 a3 3c b1 37
       3.026242e-05 0.0005864374 0.00012707818 2.112828e-05
0001d0 11 20 6a 38 7b 92 d1 37 b0 e6 8f 39 8b 79 ad 38
       5.581981e-05 2.4982952e-05 0.0002744696 8.271922e-05
0001e0 0a 09 ec 38 a6 df f5 39 14 aa f8 37 b1 5b 81 3a
       0.000112550406 0.00046896673 2.9643103e-05 0.0009869245
0001f0 31 51 6c 39 5f 25 4d 38 8d 6e 00 39 c9 db 92 38
       0.0002253696 4.8910613e-05 0.00012248215 7.002761e-05
000200 90 4f 9c 39 3f 76 48 39 00 71 3a 38 ce 5f a4 39
       0.00029813917 0.00019117536 4.4451095e-05 0.00031351898
000210 31 fd 25 37 09 26 c7 38 8e e7 49 38 f8 fa ba 38
       9.893717e-06 9.496144e-05 4.8137787e-05 8.915918e-05
000220 1e f6 4e 39 64 c5 2e 39 34 e9 85 3a 77 8a 98 39
       0.00019737377 0.00016667467 0.0010216595 0.00029094864
000230 17 34 86 39 f3 b7 04 3a 9a 36 b5 39 63 a4 0d 3b
       0.00025597282 0.0005062811 0.00034563692 0.0021612875
000240 37 a9 48 3a 36 dc a0 39 d9 53 f9 39 79 81 58 39
       0.00076546095 0.00030681648 0.00047555452 0.00020647598
000250 40 d1 50 3b b9 09 35 3a 91 f5 2a 39 b7 d4 b6 39
       0.0031863004 0.0006906051 0.00016303944 0.0003487223
000260 cd 4b 3e 39 d7 d5 52 3a 0b 62 c2 39 8f 50 b9 38
       0.0001814805 0.0008042729 0.0003707561 8.8364926e-05
000270 4d fd 23 39 9c 03 1a 38 c5 f1 bc 3a 60 1f 58 39
       0.00015639253 3.6719823e-05 0.0014415315 0.00020611053
000280 d2 bd 14 39 77 fb 63 39 ad 63 44 39 3b 8c ad 3a
       0.00014185093 0.00021742085 0.00018729149 0.0013240644
000290 b7 a9 ce 39 b4 ef f9 37 d3 82 29 38 7b ab 4a 37
       0.0003941783 2.9794734e-05 4.041458e-05 1.2080064e-05
0002a0 f6 ed e0 39 cf a7 88 38 a5 2a 28 39 f0 1d 2c 39
       0.00042901904 6.516242e-05 0.00016037615 0.00016414351
0002b0 13 e6 d8 38 bc 82 db 3a de c0 8c 39 7c 5c 47 39
       0.00010342537 0.0016747336 0.00026846578 0.00019012572
0002c0 91 2a 60 39 f8 23 33 39 04 76 0d 3b 88 fd c2 39
       0.00021378162 0.0001708417 0.0021585235 0.0003719146
0002d0 b5 c0 1d 38 a9 a5 e0 37 ac d6 5b 37 58 6f 73 3a
       3.761119e-05 2.6780022e-05 1.3103399e-05 0.0009286306
0002e0 f9 c3 98 38 2b fb 21 38 95 4c 1c 38 f8 46 97 36
       7.2844276e-05 3.861931e-05 3.726462e-05 4.5084125e-06
0002f0 bf be 25 3a 4f c2 9d 38 1b fd 16 38 72 50 b7 38
       0.0006322674 7.522536e-05 3.599851e-05 8.741104e-05
000300 53 26 50 37 f5 2d aa 39 96 88 33 38 6c cf 8a 38
       1.2406689e-05 0.00032459167 4.280413e-05 6.618988e-05
000310 d1 74 32 39 88 99 8c 37 da ec 3b 3a 19 55 28 39
       0.0001701892 1.6760794e-05 0.00071687775 0.0001605343
000320 e4 d4 3c 39 85 66 95 39 ac 9f 4c 39 42 5c d7 3a
       0.00018008385 0.00028495878 0.00019514438 0.0016430693
000330 dd 3c d5 39 7d 38 b7 38 ec 62 e4 38 bf c1 89 37
       0.00040671873 8.736642e-05 0.00010890313 1.6421893e-05
000340 35 7e e4 3a 88 cc 2b 39 22 5b 37 38 a7 1b b4 38
       0.0017432632 0.00016384025 4.3715474e-05 8.5882195e-05
000350 b5 f1 d5 37 9d 39 92 39 6c cc 94 38 3f 80 5c 38
       2.5504132e-05 0.00027890215 7.0952665e-05 5.2571526e-05
000360 f7 23 12 38 cb a9 56 37 9f 9e 42 3a 74 fc 83 38
       3.4842607e-05 1.2794927e-05 0.0007424149 6.29359e-05
000370 c9 be d8 38 1f 2f 4e 39 2c 40 45 39 7d d4 ca 3a
       0.00010335219 0.00019663245 0.0001881129 0.0015474703
000380 cd 0b 95 39 25 80 61 38 c0 7d 18 38 e1 fb a7 36
       0.00028428287 5.3763524e-05 3.6356738e-05 5.0063104e-06
000390 d3 b3 58 3a 68 ad a8 38 69 1b 13 39 f1 68 e6 39
       0.0008266542 8.043164e-05 0.00014029224 0.00043947206
0003a0 34 c6 82 38 ec 35 81 3a 16 b2 82 39 e0 11 25 39
       6.235801e-05 0.0009857989 0.00024928217 0.00015742285
0003b0 3a dd 73 39 b5 b8 9b 38 51 9e d5 3a 8c cd a0 39
       0.00023256699 7.42538e-05 0.0016297792 0.00030670722
0003c0 d4 f3 e5 36 ab 83 9c 37 be d2 83 37 b7 89 60 38
       6.853117e-06 1.8657962e-05 1.5714551e-05 5.353402e-05
0003d0 65 a8 ee 37 43 14 8f 38 74 d8 4d 39 fa 38 01 38
       2.8450226e-05 6.8225454e-05 0.00019630959 3.080906e-05
0003e0 6b b4 27 3a 86 91 0a 39 05 80 c4 37 60 21 0a 38
       0.0006397429 0.00013214917 2.3424634e-05 3.2932847e-05
0003f0 e7 94 e8 37 21 2a 8f 39 06 ef 94 38 8f 29 3d 38
       2.7725893e-05 0.00027306474 7.1017115e-05 4.5099816e-05

exp_avg f4 [128]
000000 3e 9b d0 39 64 97 08 3a f7 3b 3f 3a bb b7 f2 b9
       0.00039788516 0.0005210547 0.0007295007 -0.00046294727
000010 04 ba 7b ba 4b 69 aa 3a dc dd 51 39 5b 29 da b7
       -0.00096026086 0.001300135 0.00020014442 -2.6006883e-05
000020 b2 a7 85 39 13 f5 8c 3a b4 cb 33 ba af fb 12 b9
       0.0002549268 0.001075419 -0.0006858662 -0.00014017404
000030 b7 88 dd 38 06 19 27 ba a3 38 0a 3a b1 89 9e 3a
       0.00010563566 -0.0006374273 0.0005272722 0.0012095479
000040 63 34 e0 3a 10 a3 ce 3a a0 1a 6e b8 c3 62 9f 39
       0.0017105456 0.0015765149 -5.676842e-05 0.00030400426
000050 ab a1 42 ba b6 0e 4c 3a ca 03 2e 3a 74 d5 10 b9
       -0.0007424603 0.00077841745 0.0006638138 -0.00013812428
000060 bf d1 89 3a fb e3 28 b9 6c 99 93 3a 65 4d 55 3a
       0.001051478 -0.00016106658 0.0011260933 0.0008136838
000070 41 93 e9 39 be 34 f5 3a ac 0b 52 3a 45 53 a4 b8
       0.00044550936 0.0018707735 0.00080126035 -7.8356396e-05
000080 22 10 5a ba 76 a5 a2 b8 ef a0 89 3a 98 e9 8b 3a
       -0.0008318444 -7.7555815e-05 0.0010500232 0.0010674475
000090 e9 94 3d 38 b2 52 3b b9 4e 5b b6 b9 25 89 30 ba
       4.5199795e-05 -0.00017864516 -0.00034781772 -0.00067343033
0000a0 53 53 7e 3a 01 b6 83 39 eb b9 ee b9 ab 97 18 3a
       0.00097017473 0.0002512187 -0.00045533417 0.000582094
0000b0 51 c2 6f ba cb 8b 2e 39 51 b3 0d ba e9 4c d3 b9
       -0.0009146082 0.0001664601 -0.00054054434 -0.0004030236
0000c0 9a e5 74 39 f3 30 38 ba f3 62 6d 39 d4 a4 01 3a
       0.00023355187 -0.0007026337 0.00022638943 0.0004945521
0000d0 bc 64 ae 39 ee 28 99 3a da ff 48 ba 0e 09 0b 3b
       0.0003326292 0.0011685172 -0.00076675194 0.0021215114
0000e0 b8 ad 87 b8 a1 c2 4f b9 b2 7f 2e ba b7 47 3c 3a
       -6.469659e-05 -0.00019813563 -0.00066566013 0.0007182317
0000f0 1a b2 93 b9 c6 bc 54 39 75 b1 3b ba 9e f8 97 3a
       -0.0002817072 0.00020288219 -0.0007159927 0.001159448
000100 94 52 8e 39 19 90 e0 38 c7 49 64 ba 13 e1 d6 3a
       0.00027145876 0.000107079926 -0.00087085034 0.0016393982
000110 f6 1f 48 ba 81 b1 22 3a 65 a1 25 39 4a 1f 7f b9
       -0.0007634157 0.000620626 0.0001579575 -0.00024330351
000120 60 d2 53 37 32 bf 93 3a 6a b5 13 3a 67 20 ee b9
       1.2625562e-05 0.0011272191 0.0005634638 -0.0004541904
000130 9d e0 b5 39 58 9f 7e b9 fb 16 30 38 14 d9 88 38
       0.0003469036 -0.00024282688 4.1983072e-05 6.525419e-05
000140 4d 88 38 b9 fb 33 c2 ba 4e 41 07 b9 e7 b9 5c 3a
       -0.00017598383 -0.0014816517 -0.00012898931 0.00084200356
000150 bc 3f 49 ba f4 a7 69 3a fa c2 2b 3a 6b a8 37 ba
       -0.00076770387 0.00089132716 0.0006552186 -0.0007005992
000160 26 38 d2 39 bf 60 25 ba ed c5 8e 39 ef 5a 1b 3a
       0.00040096155 -0.0006308667 0.00027231817 0.0005926331
000170 68 b6 56 3a 8b 13 99 38 3d e9 5d 3a 37 a3 3a b9
       0.0008190633 7.299249e-05 0.0008465236 -0.00017799145
000180 4c 4a 9d 36 64 2c ef 39 7b 14 90 39 39 d5 d0 39
       4.687614e-06 0.00045618706 0.0002748108 0.00039831715
000190 99 de d2 b8 73 a0 ee b8 3e 68 4b ba 9e 96 70 3a
       -0.000100550424 -0.0001137861 -0.0007759369 0.0009177717
0001a0 bc e5 15 b8 5b c6 7e 3a 14 43 56 3a e5 8d cf 3a
       -3.5738325e-05 0.00097188883 0.00081734476 0.0015835135
0001b0 a8 c3 ef 39 57 d2 80 37 cc 56 fc b7 ae a5 b8 b9
       0.00045731408 1.5356736e-05 -3.0081159e-05 -0.00035218656
0001c0 94 8d c6 b9 c4 f8 32 3a 29 f9 66 3a 3f a5 65 37
       -0.00037870987 0.000682723 0.00088109315 1.3687938e-05
0001d0 5d 4f 81 39 15 db 12 39 2f ab 37 3a 17 f0 a0 b9
       0.00024663928 0.0001400526 0.00070064043 -0.0003069646
0001e0 7e 36 8c 3a e8 56 03 ba a9 28 e7 3a bc e3 ff 39
       0.0010697392 -0.00050102035 0.0017636019 0.00048807065
0001f0 2f aa 88 37 d7 b7 0e 3a 21 2a a2 ba 45 9a 8c ba
       1.6291711e-05 0.00054442644 -0.0012372175 -0.0010727128

exp_avg_sq f4 [128]
000000 97 91 8d 36 d3 f2 51 36 f6 c5 15 38 f8 bc 26 37
       4.2190763e-06 3.128477e-06 3.5708734e-05 9.938369e-06
000010 45 d4 d7 37 bf bd ad 37 dc 24 87 36 bd ff 97 36
       2.5728843e-05 2.0711565e-05 4.0276045e-06 4.5299225e-06
000020 b8 47 69 37 df f3 5e 37 0e 84 b7 36 ae 6f 51 37
       1.3904581e-05 1.3289012e-05 5.469198e-06 1.2483373e-05
000030 b5 06 da 36 da a0 44 37 9b 3c 06 38 94 04 21 37
       6.497687e-06 1.1719962e-05 3.2004533e-05 9.597414e-06
000040 9b fa 56 38 f9 4a c8 38 f8 f2 53 35 7a 3c 4a 37
       5.125497e-05 9.550708e-05 7.895719e-07 1.2054219e-05
000050 85 8d a0 37 1c 09 98 38 ef 65 26 37 88 97 bd 36
       1.9139386e-05 7.2496216e-05 9.918104e-06 5.6502795e-06
000060 f1 80 ac 37 9a 6c 1c 37 e8 74 10 37 cb 37 95 37
       2.056404e-05 9.32361e-06 8.610288e-06 1.7788165e-05
000070 c5 35 47 38 f3 38 7b 38 d9 d7 d2 37 1f 20 89 37
       4.7495374e-05 5.98961e-05 2.5134463e-05 1.634663e-05
000080 21 32 0a 38 3b f7 ab 36 78 34 ae 37 62 3c e8 37
       3.294845e-05 5.1249785e-06 2.0766849e-05 2.7684673e-05
000090 38 d8 dd 36 b7 7e c0 36 df a4 ad 36 06 ae 34 37
       6.6114844e-06 5.7367974e-06 5.1749953e-06 1.0769354e-05
0000a0 6e fb e4 37 5a 5e 83 37 68 a4 bf 36 b5 fb de 36
       2.7296799e-05 1.5660353e-05 5.711383e-06 6.645418e-06
0000b0 7c 27 a0 37 f1 34 e5 36 c2 cb bb 37 36 c9 c3 37
       1.9091873e-05 6.830895e-06 2.238702e-05 2.3339508e-05
0000c0 00 f3 06 36 82 cb 3f 37 22 29 8e 36 71 07 c6 36
       2.0109e-06 1.143187e-05 4.2367183e-06 5.901726e-06
0000d0 d4 9f 2e 37 3b c9 83 38 11 07 d9 36 0c 20 8a 38
       1.0408421e-05 6.284049e-05 6.4679266e-06 6.586322e-05
0000e0 a2 ff 94 35 6b 39 f5 36 f0 2b 85 37 2c bf 70 37
       1.1101258e-06 7.3082533e-06 1.5875296e-05 1.4349625e-05
0000f0 96 0e b3 36 4b 3a ad 36 14 28 b5 37 bb b7 1a 38
       5.3363137e-06 5.162588e-06 2.1595544e-05 3.6887574e-05
000100 12 67 fc 37 48 52 3a 36 82 65 0c 38 aa a3 94 38
       3.0088737e-05 2.7764054e-06 3.3473138e-05 7.087675e-05
000110 85 cf 06 38 c3 ec 0d 37 45 5f 0e 37 f7 1c 37 36
       3.2141357e-05 8.45938e-06 8.486041e-06 2.7285985e-06
000120 ac 01 9d 37 7b ce 84 38 23 6e 1f 38 e5 16 c0 36
       1.8716637e-05 6.3327105e-05 3.8011127e-05 5.724711e-06
000130 05 fd 46 37 74 72 f3 37 9b 41 ae 37 e5 19 af 36
       1.186063e-05 2.9021154e-05 2.0772966e-05 5.218421e-06
000140 ce eb 0b 36 72 ef ce 37 bd 05 48 37 ad 43 c8 37
       2.084987e-06 2.4668614e-05 1.1922265e-05 2.3873372e-05
000150 e7 03 15 38 40 7d 8a 37 0b 6f 93 37 c1 b6 04 37
       3.5528003e-05 1.6509206e-05 1.7575474e-05 7.910364e-06
000160 b5 bf 09 38 7a 14 21 37 66 10 5a 36 a2 46 78 37
       3.2841886e-05 9.601115e-06 3.2494077e-06 1.4798397e-05
000170 50 8b 2a 38 53 8f 8f 36 94 96 17 38 cf 8e 48 36
       4.0660903e-05 4.2784172e-06 3.6141442e-05 2.9885448e-06
000180 46 55 35 37 00 33 ae 36 0d 95 c2 37 fe 0e a3 37
       1.0808295e-05 5.1915413e-06 2.319601e-05 1.9438095e-05
000190 a2 a2 81 36 72 f8 9b 36 4d fa 92 36 59 e0 e0 37
       3.8634325e-06 4.648283e-06 4.380278e-06 2.680735e-05
0001a0 75 c1 8c 35 29 37 91 38 ed 50 41 38 b7 61 6e 38
       1.0487116e-06 6.924413e-05 4.6090154e-05 5.6834626e-05
0001b0 ba dc 69 38 fa ce 80 37 67 b7 07 37 fa c6 b3 37
       5.5757097e-05 1.535517e-05 8.089329e-06 2.1431119e-05
0001c0 66 75 02 37 dc b4 1c 38 9c 8c d5 37 e4 55 b9 36
       7.775938e-06 3.7361737e-05 2.5457055e-05 5.5234286e-06
0001d0 e4 79 9d 37 84 19 67 36 b5 89 b3 37 99 46 c1 36
       1.8772618e-05 3.4436534e-06 2.1402588e-05 5.760067e-06
0001e0 28 56 e8 37 cb 09 58 36 ca 7d 84 38 fd 18 3e 37
       2.7696675e-05 3.2192208e-06 6.3176805e-05 1.13307005e-05
0001f0 58 07 83 36 16 99 89 37 44 33 a9 38 16 b7 8e 37
       3.904959e-06 1.6402959e-05 8.068097e-05 1.7012975e-05
