Assets/IA/Pruebas/results/Pads03/PadBehavior/PadBehavior-4735.pt (torch, 429179 bytes, 30 tensors)

network_body._body_endoder.seq_layers.0.weight f4 [128, 2]
0.15393429 -0.13058826 -0.17698374 -0.14147 0.24558513 0.9230237 0.87669003 -0.16359453
0.5290644 0.036403093 -0.21400855 -0.42110753 0.5320188 -0.78356606 -0.32719946 -0.2651567
0.81382674 0.83528614 0.18476476 -1.1938117 -0.16337691 -1.5515264 0.7612937 -0.21344075
0.7450563 0.2121616 0.41639912 0.72445685 0.9635295 0.8012041 -0.45927283 0.39381492
-0.1840288 -0.16164203 -1.1440194 -0.46114635 0.45624602 -0.48069453 -0.19241408 0.53821146
0.0635488 0.31303763 -0.6484282 -0.63237566 -0.40370318 0.50207496 0.36762995 0.89066666
0.16880475 0.1740742 -0.7580681 0.030149532 0.27901995 -0.27850884 0.11835734 -0.5079594
-0.8181129 0.83256143 1.716041 0.106772535 -0.21497509 -0.17110848 -0.07762251 -0.46786883
1.0472991 0.25638345 0.58837605 -0.5604811 -0.43160716 -0.45663017 0.27620098 0.06836395
-0.9099068 -0.5646806 0.07552253 0.7357468 1.271801 -0.13143066 0.0007791845 -0.5731164
-0.24325044 -1.1114442 0.8354104 -0.2612479 0.7557025 -0.5518154 -0.8698244 -0.23264356
1.0042443 -0.5315775 0.92108613 -0.5589069 0.2547965 0.9175682 -1.5090077 0.6853686
0.37779236 0.36569536 -0.33269256 -0.9936674 -0.6468149 -0.5325389 1.5434294 -0.42854926
-0.7483332 -0.7906704 -0.5343342 0.46022528 0.57951236 0.13773656 0.24730714 0.02559603
-0.3879109 -0.3627408 -1.1277114 0.5036648 0.19943193 -0.64414334 0.2930234 0.1787206
0.06831316 0.036785617 1.1624174 -0.09165332 0.4741638 0.26516595 0.7807459 -1.8748857
0.026961213 -0.021247396 -0.53662604 -0.92760897 -0.41885996 0.005665212 0.30257758 0.15676941
0.08878511 0.2385127 -0.25857854 0.22196107 0.9904226 -1.2930117 -0.6240429 1.1355301
-0.18876468 0.3111065 -1.12013 0.6422584 -0.164587 -0.84807026 -1.055802 -0.2957434
-1.2749211 -0.6559876 -0.99301845 -0.4048814 -0.6014277 0.19916607 -0.73224795 -0.3594952
-0.5040014 -0.1075771 -0.24941128 0.46920046 -0.39788792 -0.3523952 2.0027354 -0.3735796
0.23919697 -0.13554491 -0.01865846 -0.4352443 -1.3012973 -1.0501708 -0.89174134 0.109411806
0.08395574 0.60449547 -0.3912218 0.095511235 -0.39482668 -0.35354385 0.21710773 0.4694288
0.2175359 0.60802037 0.8394258 0.39519185 -0.022127777 -0.0927702 0.48954636 0.9154362
-0.3111415 -0.24138214 0.7871553 0.5086287 -1.0197133 -0.7718054 1.0102175 0.015094554
-0.18588729 -0.77041024 0.21239105 0.116126284 0.6347087 -0.69861513 0.59535646 -0.5493823
0.53133994 -0.10981719 -0.3796224 -0.43900853 -0.35328475 1.0777618 0.17971666 0.68819916
-0.33352923 -0.6326688 0.47018164 1.1889194 -0.04740867 -0.4525337 -0.021082629 -0.9993188
-0.12171617 0.3765173 -0.62965995 -0.3658786 -0.38777447 0.7627246 1.3984059 -0.76663166
0.30231097 -0.25515783 0.66352427 0.12452022 -0.34135512 0.19687891 0.7872431 0.54605365
-0.8646452 0.7478632 -0.2595565 -0.066122994 1.2125635 -0.4727883 -0.31428373 -1.7628047
-0.4914899 -1.058086 -0.17965911 -0.3374088 0.436547 0.833723 -0.90080214 -0.61296624
00000000: f3a0 1d3e eeb8 05be 3a3b 35be 83dd 10be
00000010: ab7a 7b3e 484b 6c3f c26e 603f 5385 27be
00000020: c470 073f 691b 153d 0f25 5bbe 689b d7be
00000030: 6232 083f c997 48bf b086 a7be 9ec2 87be
00000040: f356 503f 50d5 553f f932 3d3e d2ce 98bf
00000050: 474c 27be 6b98 c6bf 25e4 423f 3690 5abe
00000060: 02bc 3e3f e440 593e 4432 d53e 0176 393f
00000070: dfa9 763f b61b 4d3f cf25 ebbe 1ca2 c93e
00000080: 0c72 3cbe 7d85 25be 3a6f 92bf 601b ecbe
00000090: 1499 e93e 981d f6be 3208 45be 3ac8 093f
000000a0: e025 823d 7846 a03e 64ff 25bf 5fe3 21bf
000000b0: 2fb2 cebe fc87 003f fe39 bc3e bb02 643f
000000c0: 27db 2c3e 8240 323e c010 42bf 27fc f63c
000000d0: b4db 8e3e b698 8ebe 5565 f23d a109 02bf
000000e0: d96f 51bf bf22 553f 3ba7 db3f 8fab da3d
000000f0: 6e22 5cbe 1037 2fbe 8df8 9ebd 818c efbe
00000100: e60d 863f b144 833e d09f 163f b07b 0fbf
00000110: 9dfb dcbe 6ecb e9be 376a 8d3e 6602 8c3d
00000120: a7ef 68bf e88e 10bf 8eab 9a3d e759 3c3f
00000130: 60ca a23f c295 06be 3042 4c3a c2b7 12bf
00000140: a516 79be ce43 8ebf 75dd 553f 49c2 85be
00000150: b875 413f c643 0dbf d0ac 5ebf 1d3a 6ebe
00000160: 148b 803f 7715 08bf 4dcc 6b3f 8614 0fbf
00000170: b074 823e c0e5 6a3f 2a27 c1bf 5174 2f3f
00000180: 006e c13e 6c3c bb3e ae56 aabe fd60 7ebf
00000190: a995 25bf 7854 08bf 188f c53f cf6a dbbe
000001a0: c492 3fbf 6069 4abf 20ca 08bf a6a2 eb3e
000001b0: ec5a 143f d00a 0d3e 153e 7d3e c4ae d13c
000001c0: 429c c6be 2ab9 b9be d958 90bf 2df0 003f
000001d0: e237 4c3e 94e6 24bf 2a07 963e 8802 373e
000001e0: c5e7 8b3d 84ac 163d 18ca 943f bcb4 bbbd
000001f0: 99c5 f23e d5c3 873e f7de 473f 41fc efbf
00000200: c3dd dc3c 050f aebc 5360 09bf c877 6dbf
00000210: d074 d6be 3ea3 b93b 73eb 9a3e 2988 203e
00000220: f8d4 b53d ac3c 743e 6864 84be c349 633e
00000230: 568c 7d3f 6881 a5bf 47c1 1fbf 0d59 913f
00000240: 874b 41be 5a49 9f3e 6b60 8fbf 0c6b 243f
00000250: 7f89 28be 221b 59bf 8524 87bf ae6b 97be
00000260: 9d30 a3bf ceee 27bf 7536 7ebf 9d4c cfbe
00000270: 2af7 19bf 31f2 4b3e 9a74 3bbf c10f b8be
00000280: 3c06 01bf 6251 dcbd ac65 7fbe 0b3b f03e
00000290: f7b7 cbbe 256d b4be d12c 0040 d345 bfbe
000002a0: 0df0 743e 49cc 0abe a0d9 98bc 57d8 debe
000002b0: e990 a6bf ff6b 86bf 2949 64bf 4c13 e03d
000002c0: fdf0 ab3d 37c0 1a3f 394e c8be 659b c33d
000002d0: b926 cabe b303 b5be 7d51 5e3e f958 f03e
000002e0: bbc1 5e3e 39a7 1b3f 9ce4 563f 9656 ca3e
000002f0: 5045 b5bc 4dfe bdbd d2a5 fa3e 075a 6a3f
00000300: f04d 9fbe e12c 77be 0283 493f 7e35 023f
00000310: f785 82bf 0a95 45bf cf4e 813f 264f 773c
00000320: 3d59 3ebe 9b39 45bf 0a7d 593e 9ed3 ed3d
00000330: 457c 223f 71d8 32bf 4869 183f 52a4 0cbf
00000340: e505 083f d6e7 e0bd de5d c2be bac5 e0be
00000350: bde1 b4be 19f4 893f a507 383e d22d 303f
00000360: 58c4 aabe 95f6 21bf a6bb f03e 832e 983f
00000370: 982f 42bd 7fb2 e7be 7ab5 acbc 5bd3 7fbf
00000380: 5446 f9bd e0c6 c03e 6531 21bf 7154 bbbe
00000390: 608a c6be eb41 433f f7fe b23f f941 44bf
000003a0: 81c8 9a3e 0ca4 82be badc 293f 7504 ff3d
000003b0: 19c6 aebe a09a 493e c488 493f 2cca 0b3f
000003c0: 6359 5dbf f673 3f3f 97e4 84be 7e6b 87bd
000003d0: 4835 9b3f 4f11 f2be cce9 a0be 96a3 e1bf
000003e0: 90a4 fbbe 5d6f 87bf 8ff8 37be d9c0 acbe
000003f0: 1783 df3e df6e 553f f89a 66bf 5beb 1cbf

network_body._body_endoder.seq_layers.0.bias f4 [128]
-0.013716145 0.015839918 0.004218474 -0.027380165 -0.007096069 -0.004573431 -0.0075060166 -0.01033018
-0.00944359 -0.010583192 0.01673667 -0.008047355 -0.007366933 -0.0039987103 0.00032201115 0.019498056
-0.012515509 -0.0053532314 -0.021204872 0.010082954 0.00018910372 0.017369637 0.02468848 -0.004733988
-0.0015343368 -0.019784305 -0.014141052 0.00069589546 -0.01689571 -0.010877979 0.011389249 0.013044074
-0.014442589 -0.0061142 -0.020665953 -0.01254973 -0.016378015 -0.0024990907 -0.00041539047 -0.005177977
-0.0098198205 5.8449044e-05 -0.0060584047 -0.006437447 -0.012985021 -0.0029934521 -0.023128426 0.0076957163
-0.0021757577 -0.024852108 -0.025128452 0.0012437653 -0.028832793 -0.017564943 -0.0022212653 -0.0021056563
0.01754908 -0.0071264594 0.0009579012 -0.0142751895 -0.0036822893 -0.0022457493 -0.0053002383 -0.0038715284
-0.009009096 -0.01760436 0.027848588 -0.0035545537 0.006043114 0.021533556 -0.0038284769 -0.021661462
-0.008360778 -0.005920273 0.00059981813 -0.010085829 0.002127568 -0.010283434 0.0036347036 -0.019750768
-0.010930039 0.010268379 0.02326823 -0.008372333 -0.012290408 0.005442501 0.0032862504 -0.023726303
-0.001714681 -0.023052918 -0.023347832 -0.0030883572 -0.015341083 -0.0058257454 0.0022661842 0.00033839638
0.012690121 -0.020365918 -0.005260007 -0.0006172316 -0.015376879 -0.009807692 -0.02965797 -0.0025471007
-0.004570766 0.02331385 0.023111619 -0.0014877849 -0.0039488417 -0.016103651 0.043468397 -0.0029466841
-0.008866318 -0.029026223 -0.025408825 -0.00029394974 -0.0040518516 -0.0091482485 0.026014423 -0.0036661054
-0.025406962 0.00942032 -0.025214339 -0.021794321 0.012942077 -0.010458288 -0.0047865654 0.007997
00000000: afb9 60bc b7c2 813c 203b 8a3b 5e4c e0bc
00000010: 2486 e8bb b8dc 95bb 08f5 f5bb ea3f 29bc
00000020: 4ab9 1abc 2065 2dbc 571b 893c 0ed9 03bc
00000030: 5066 f1bb 9d07 83bb 9bd3 a839 63ba 9f3c
00000040: d90d 4dbc 296a afbb d7b5 adbc f932 253c
00000050: 254a 4639 c54a 8e3c 7f3f ca3c 921f 9bbb
00000060: cd1b c9ba b212 a2bc dfaf 67bc c16c 363a
00000070: df68 8abc 8d39 32bc f999 3a3c d0b6 553c
00000080: 9ca0 6cbc a159 c8bb a54b a9bc 629d 4dbc
00000090: 302b 86bc c9c7 23bb c4c8 d9b9 05ac a9bb
000000a0: 50e3 20bc 2f27 7538 9585 c6bb 38f1 d2bb
000000b0: 20bf 54bc cb2d 44bb d377 bdbc 592c fc3b
000000c0: 2897 0ebb a696 cbbc 2fda cdbc d705 a33a
000000d0: c032 ecbc 5be4 8fbc a692 11bb 0dff 09bb
000000e0: 17c3 8f3c 1385 e9bb a91b 7b3a 7ce2 69bc
000000f0: 9052 71bb 6c2d 13bb 9fad adbb 78b9 7dbb
00000100: e39a 13bc 0537 90bc b922 e43c 84f3 68bb
00000110: 5005 c63b 2467 b03c 2fe7 7abb 6173 b1bc
00000120: a5fb 08bc d9fe c1bb 1d3d 1d3a 083f 25bc
00000130: ab6e 0b3b d97b 28bc 3534 6e3b 5dcc a1bc
00000140: e813 33bc b43c 283c 049d be3c 1c2c 09bc
00000150: b55d 49bc 0257 b23b 225e 573b aa5d c2bc
00000160: 26bf e0ba 79d9 bcbc f443 bfbc 0966 4abb
00000170: 2a59 7bbc e5e5 bebb 4384 143b cb6a b139
00000180: 3aea 4f3c 6dd6 a6bc 235c acbb b6cd 21ba
00000190: 4eef 7bbc 71b0 20bc 45f5 f2bc 42ed 26bb
000001a0: 5dc6 95bb b0fc be3c 9454 bd3c c701 c3ba
000001b0: 4965 81bb ceeb 83bc eb0b 323d 281d 41bb
000001c0: 0844 11bc 67c8 edbc 2b26 d0bc 441d 9ab9
000001d0: 65c5 84bb 89e2 15bc 331c d53c 0b43 70bb
000001e0: 4322 d0bc b057 1a3c 4d8e cebc 018a b2bc
000001f0: 010b 543c 3d59 2bbc 9fd8 9cbb d905 033c

network_body._body_endoder.seq_layers.2.weight f4 [128, 128]
0.027679186 -0.20076433 -0.028780721 0.03524394 0.018673016 -0.07491512 0.004328884 0.019898886
-0.08655914 0.10006657 0.18339348 0.119971745 -0.025197003 0.10867087 0.058742892 0.009632262
0.0130030075 -0.09533986 -0.049294 0.036423463 -0.08986539 0.007160702 -0.12623884 -0.2041733
0.014663105 -0.08164227 0.11792815 -0.0462612 0.009766936 -0.052392915 0.037476737 0.054927465
-0.12579755 -0.05674631 0.07955732 -0.058865264 -0.04757408 0.093074106 -0.03793861 -0.012186543
0.020495666 0.13222979 -0.08577449 0.05742018 -0.11223499 -0.011776984 0.12578121 0.018107515
-0.08911889 -0.0071610073 0.066761024 0.017620303 0.30202317 -0.111556575 0.16426842 0.040145356
0.081589796 0.047803238 -0.09967299 0.0016310307 -0.03527069 0.020347428 -0.05898735 -0.0012034212
-0.12846655 0.012947209 0.05158448 -0.002665377 0.07212763 0.123955876 0.12878764 0.20059644
-0.073220976 -0.057590313 0.14799897 -0.045193397 -0.044379923 0.12163551 0.08959977 0.030251924
-0.10134782 0.13937451 -0.06462064 -0.033833034 -0.075889066 -0.09460734 0.046124607 0.06910644
-0.103829466 -0.11627225 -0.032130096 -0.06454635 0.028887052 0.12537248 0.091548905 -0.07366567
-0.009777415 -0.059531316 0.16803518 0.04753207 0.010132923 0.10491743 -0.0774272 0.122661136
-0.08869254 0.09818673 0.10209739 -0.11861284 -0.10549192 -0.13595307 0.16273619 0.15413678
-0.13415812 0.09694114 -0.04511412 -0.045346588 -0.03880572 0.16537364 0.048630815 0.11961249
0.0038179338 0.030192427 0.06803877 -0.08478319 -0.06013084 -0.1175885 -0.15689877 0.12453707
-0.17235717 -0.04744094 -0.0906458 0.029972386 0.16394386 -0.04140423 0.15027097 -0.14932914
-0.018393109 -0.048578016 0.012625053 -0.092349924 -0.028524736 0.00061378325 0.068662114 0.037182588
-0.1436131 0.010703348 -0.051576585 0.12234565 0.07430678 0.007210291 -0.14774238 0.00054508244
-0.00030756774 0.011398771 -0.09845994 -0.22860438 0.07471619 0.03647265 0.036068063 0.1655471
0.12642826 -0.11928612 -0.123924516 -0.06121338 0.08068353 0.0957435 -0.05838748 0.19278786
-0.04407272 -0.038679432 -0.007312521 0.22816995 -0.038388986 0.10448929 0.0426117 0.03139341
-0.19344847 0.095246695 -0.02221024 -0.015657749 0.06278737 -0.16410984 0.17808598 -0.1074162
-0.032704562 0.018256627 0.019535499 0.0077741896 0.028733505 -0.08880533 -0.0024946718 0.05323908
-0.0075217383 -0.057694063 0.07221918 -0.0052262116 -0.17336923 0.027666954 0.18730922 0.13983732
0.025991077 -0.04790859 0.047845334 -0.022836868 -0.08672895 0.060709964 0.14688009 0.038775597
-0.052210722 -0.080568545 -0.10279454 0.09978516 0.054942098 -0.110141896 -0.10246662 0.016144302
0.0265001 -0.03463611 -0.076742694 -0.006868398 -0.03763832 0.112438016 0.10147453 0.03930504
-0.09818988 -0.019805828 0.06703839 -0.015130233 -0.16852233 -0.102485836 0.11725371 -0.024023313
0.05626355 0.10168609 0.03918692 -0.009949089 0.012529234 0.20076719 0.036605712 -0.052106682
-0.07473638 -0.05753906 -0.014630816 -0.06694536 -0.038968477 -0.033031832 0.09676633 -0.008403742
0.04619876 0.031719897 -0.043767203 -0.033816773 -0.08279784 0.10481342 -0.08146759 0.029580545
00000000: 76bf e23c 2a95 4dbe 8cc5 ebbc f35b 103d
00000010: 27f8 983c 196d 99bd 50d9 8d3b fd02 a33c
00000020: eb45 b1bd b4ef cc3d 80cb 3b3e bfb3 f53d
00000030: f269 cebc d58e de3d 639c 703d a3d0 1d3c
00000040: 910a 553c 8b41 c3bd 81e8 49bd c530 153d
00000050: 580b b8bd 52a4 ea3b c144 01be ce12 51be
00000060: 853d 703c 1034 a7bd 5084 f13d 627c 3dbd
00000070: 8005 203c f499 56bd 3581 193d 9ffb 603d
00000080: 13d1 00be d26e 68bd f3ee a23d b41c 71bd
00000090: 0add 42bd a39d be3d 8465 1bbd 11aa 47bc
000000a0: 87e6 a73c 3f67 073e 89aa afbd 6c31 6b3d
000000b0: 75db e5bd 40f4 40bc cacc 003e 3656 943c
000000c0: f783 b6bd e2a6 eabb 01ba 883d 7458 903c
000000d0: c8a2 9a3e c677 e4bd fb35 283e 756f 243d
000000e0: 8d18 a73d 54cd 433d 5a21 ccbd 4fc8 d53a
000000f0: 0078 10bd a6af a63c b89c 71bd 1dbc 9dba
00000100: bc8c 03be 8820 543c 3f4a 533d 9bad 2ebb
00000110: a7b7 933d 94dc fd3d e8e0 033e 2769 4d3e
00000120: e1f4 95bd d2e3 6bbd 0b8d 173e b61c 39bd
00000130: b9c7 35bd 0a1c f93d 1680 b73d e2d2 f73c
00000140: 728f cfbd 31b8 0e3e d357 84bd 8294 0abd
00000150: ba6b 9bbd 7ec1 c1bd 28ed 3c3d ad87 8d3d
00000160: 8ba4 d4bd 2520 eebd d99a 03bd e030 84bd
00000170: 8aa4 ec3c a561 003e fe7d bb3d 07de 96bd
00000180: 7331 20bc 1cd7 73bd 6a11 2c3e fdb0 423d
00000190: 8f04 263c f3de d63d 2792 9ebd c335 fb3d
000001a0: 6fa4 b5bd 2016 c93d 7018 d13d 4aeb f2bd
000001b0: 260c d8bd 4837 0bbe 51a4 263e 08d6 1d3e
000001c0: bf60 09be 1489 c63d 95c9 38bd 58bd 39bd
000001d0: bff2 1ebd b557 293e 1b31 473d 65f7 f43d
000001e0: 4d36 7a3b 1c56 f73c e957 8b3d cfa2 adbd
000001f0: c14b 76bd 3dd2 f0bd 12aa 20be 4b0d ff3d
00000200: 667e 30be 6e51 42bd 81a4 b9bd a688 f53c
00000210: e6e0 273e 7b97 29bd a2e0 193e bde9 18be
00000220: 25ad 96bc bef9 46bd 4fd9 4e3c f521 bdbd
00000230: b5ac e9bc 4ce6 203a b99e 8c3d c54c 183d
00000240: 500f 13be 185d 2f3c f841 53bd 5b90 fa3d
00000250: 272e 983d 4e44 ec3b c749 17be dde3 0e3a
00000260: 0b41 a1b9 e9c1 3a3c 5da5 c9bd 4417 6abe
00000270: cd04 993d 5864 153d 1bbc 133d 2e85 293e
00000280: 6976 013e 484c f4bd 23cc fdbd e2ba 7abd
00000290: 683d a53d 2b15 c43d b627 6fbd 2e6a 453e
000002a0: 9985 34bd 536e 1ebd df9d efbb 62a5 693e
000002b0: c53d 1dbd 7bfe d53d 9b89 2e3d 6096 003d
000002c0: 5b17 46be b310 c33d 40f2 b5bc ae44 80bc
000002d0: aa96 803d 690c 28be 2c5c 363e 06fd dbbd
000002e0: 38f5 05bd ec8e 953c e908 a03c a1be fe3b
000002f0: 8762 eb3c 92df b5bd a67d 23bb 3911 5a3d
00000300: ea78 f6bb 9c50 6cbd a6e7 933d a440 abbb
00000310: b487 31be cfa5 e23c fdcd 3f3e 8431 0f3e
00000320: 3deb d43c cc3b 44bd 78f9 433d 6214 bbbc
00000330: f39e b1bd 03ab 783d bc67 163e 29d3 1e3d
00000340: e9da 55bd 1f01 a5bd f285 d2bd 295c cc3d
00000350: f70a 613d 1392 e1bd 05da d1bd 0e41 843c
00000360: bd16 d93c 98de 0dbd 462b 9dbd 4c10 e1bb
00000370: a42a 1abd e745 e63d e1d1 cf3d 52fe 203d
00000380: c717 c9bd d53f a2bc 6c4b 893d cce4 77bc
00000390: 1e91 2cbe 18e4 d1bd b722 f03d 8acc c4bc
000003a0: 9c74 663d cc40 d03d 7782 203d 8101 23bc
000003b0: 6b47 4d3c ea95 4d3e dfef 153d d16d 55bd
000003c0: 630f 99bd 14ae 6bbd 17b6 6fbc a61a 89bd
000003d0: 699d 1fbd 634c 07bd 6d2d c63d d9af 09bc
000003e0: e93a 3d3d b9ec 013d 3d45 33bd 7583 0abd
000003f0: ea91 a9bd 6ba8 d63d 7bd8 a6bd e652 f23c

network_body._body_endoder.seq_layers.2.bias f4 [128]
-0.0032996163 0.00023085307 5.221099e-05 -0.0050985157 -0.0022262495 0.008080052 -0.00601608 -0.015780983
0.015664555 -0.0051024114 -0.0038142127 0.02004316 0.019649513 -0.0065510953 -0.0057128984 -0.00014038867
0.013188418 0.00033772108 0.012157745 -0.0040879534 -0.0014681406 -0.004279571 -0.0031659217 -0.014420055
-0.00707788 -0.0046736486 0.016027842 -0.0072277114 0.0034064245 0.011262025 -0.009000447 -0.0026150385
0.014782413 -0.0013834083 -0.019283703 0.036314655 -0.0012996282 -0.011111496 0.0004672784 0.0025226793
0.015249932 0.011195613 0.010240655 0.01485282 -0.017806724 -0.0035844967 0.00020243385 0.01700543
0.004133446 0.00025181085 0.01676286 -0.017477956 -0.0058772066 -0.0045566447 0.01976107 -0.00079649343
0.00049882254 0.0234876 0.011814132 -0.00042637493 0.024840156 0.0003585052 0.0077625723 0.029354112
-0.004609945 -0.004542664 -0.0025503007 -0.006303014 -0.006671459 -0.0046661366 0.0020123462 0.016920857
-0.0041101594 -0.010010761 -0.008310266 -0.0019381763 0.006994844 0.012502014 -0.005116368 0.0027264096
0.00014379623 -0.0048975474 -0.0019427334 -0.016893215 0.022394065 -0.006337368 -0.004659638 0.0088700345
-0.005485099 -0.017000102 0.014577474 0.011958349 0.0006019832 -0.010726557 -0.007388626 -0.0014209863
-0.0014199832 -0.01083886 -0.017732406 -0.013052572 0.0013496936 0.023924517 -0.0064129587 -0.00037803888
0.022608595 -0.0037475307 0.01973759 -0.008792211 0.011750665 0.0005373558 0.0013373127 0.015377419
0.018551208 -0.0035529104 -0.011893925 -0.00023368432 -0.007942217 -0.0049729836 -4.7951118e-05 0.015932206
0.025576144 0.016192656 -0.008199197 0.017148303 0.005966748 -0.00036790545 0.015726933 -0.004468144
00000000: 603e 58bb 2611 7239 20fd 5a38 7311 a7bb
00000010: 45e6 11bb 3262 043c 8922 c5bb 1f47 81bc
00000020: f452 803c 2132 a7bb dff7 79bb 8e31 a43c
00000030: 04f8 a03c 92aa d6bb 4433 bbbb 4c35 13b9
00000040: 3c14 583c 2810 b139 4731 473c 3df4 85bb
00000050: a06e c0ba a53b 8cbb 5a7b 4fbb 1842 6cbc
00000060: 90ed e7bb 6825 99bb d24c 833c 70d6 ecbb
00000070: 523e 5f3b 5b84 383c 9c76 13bc 1161 2bbb
00000080: ef31 723c 7b53 b5ba dbf8 9dbc adbe 143d
00000090: 4958 aaba fe0c 36bc 0cfd f439 8953 253b
000000a0: dada 793c ce6d 373c 6cc8 273c 3e59 733c
000000b0: 68df 91bc e0e9 6abb 6c44 5439 f94e 8b3c
000000c0: dc71 873b 7b05 8439 4452 893c ee2d 8fbc
000000d0: 9595 c0bb e84f 95bb f8e1 a13c c5cb 50ba
000000e0: 6ac3 023a 1169 c03c 1090 413c 138b dfb9
000000f0: 957d cb3c c1f5 bb39 2d5d fe3b 0978 f03c
00000100: 060f 97bb a1da 94bb f222 27bb 8389 cebb
00000110: 419c dabb 64e6 98bb 91e1 033b 9c9d 8a3c
00000120: 84ae 86bb 2d04 24bc c827 08bc 680a feba
00000130: 0135 e53b 3fd5 4c3c 35a7 a7bb 90ad 323b
00000140: 02c8 1639 9b7b a0bb 51a3 feba a463 8abc
00000150: c273 b73c b2a9 cfbb e0af 98bb 9f53 113c
00000160: 58bc b3bb cc43 8bbc 5cd6 6e3c f3ec 433c
00000170: 69ce 1d3a 71be 2fbc 4a1c f2bb 6340 baba
00000180: bb1e baba 7995 31bc 8d43 91bc 74da 55bc
00000190: 34e8 b03a 59fd c33c cc23 d2bb 8533 c6b9
000001a0: a935 b93c 2299 75bb bab0 a13c 350d 10bc
000001b0: dc85 403c 56dd 0c3a c548 af3a 92f1 7b3c
000001c0: b4f8 973c f2d7 68bb bdde 42bc 2809 75b9
000001d0: 1320 02bc 69f4 a2bb 1f1f 49b8 4284 823c
000001e0: 1085 d13c 76a6 843c ed55 06bc 997a 8c3c
000001f0: b684 c33b 6fe3 c0b9 c5d5 803c 8269 92bb

action_model._continuous_distribution.mu.weight f4 [1, 128]
-0.00014263207 -0.023307873 -0.015923597 0.0012315512 -0.0070650973 -0.0019193188 0.0072060255 0.00034826214
-0.0050908145 0.012099957 -0.005214826 -0.002255715 -0.01744101 -0.0019995365 0.011814886 -0.015253903
-0.0017781436 -0.0014186702 0.02500926 0.03567536 -0.020596778 0.01530479 -0.0022038564 0.009438746
0.006698027 0.007663819 -0.014896618 0.023986844 -0.0068159443 -0.012773385 0.019466778 -0.0070130974
-0.010109564 0.0038937605 0.026415125 -0.0057310206 -0.010250924 0.0016413062 -0.01610927 -0.023265708
-0.041378446 0.004663835 0.002076981 -0.025279256 -0.0008103204 -0.0005020962 -0.016380012 0.00564898
0.031972513 -0.018204626 -0.018254856 0.00011093102 0.0068675005 -0.00078746333 -0.020164674 -0.009916067
-0.019586017 -0.0045760847 0.045991603 0.0013651974 0.0006969396 -0.033747464 0.023621041 -0.0057971333
-0.000818172 0.010250156 -0.0047786017 -0.0009239923 -0.0015240776 -0.004285585 -0.026189655 -0.003112917
0.019282006 0.032316502 0.0033166916 -0.007393193 4.2550655e-05 -0.02659307 0.013772366 0.0006071719
-0.03025753 -0.0026394953 -0.006000845 0.00699616 -0.0068314183 0.013457223 -0.0011154796 -0.004502181
0.0123523595 0.00975145 -0.0012672438 -0.026366252 -0.00568121 0.000792172 0.0013194566 -0.008026532
-0.022001708 0.03371834 0.0074663325 0.0009629342 -0.019945761 -0.016314102 0.007950985 -0.013892618
-0.010534628 -0.003263632 -0.004246969 -0.00054459745 0.006794624 -0.0057462114 0.0025740461 -0.010697073
-0.006479767 0.012304213 -0.00019271843 -0.011944795 -0.0027494985 0.014260624 -0.027366603 0.013197214
-0.0038039621 -0.010310153 0.0029235187 -0.008369102 -1.5598194e-05 -0.014942975 -0.0068646143 0.008377137
00000000: 818f 15b9 27f0 bebc 3472 82bc 006c a13a
00000010: 5582 e7bb a791 fbba 8620 ec3b f496 b639
00000020: d9d0 a6bb e63e 463c 22e1 aabb 9ed4 13bb
00000030: 73e0 8ebc a80a 03bb 3993 413c 82eb 79bc
00000040: 9910 e9ba acf2 b9ba 38e0 cc3c 5420 123d
00000050: 93ba a8bc f1c0 7a3c 936e 10bb f8a4 1a3c
00000060: 1f7b db3b c620 fb3b f210 74bc 0f80 c43c
00000070: 4958 dfbb 7647 51bc cb78 9f3c 20ce e5bb
00000080: 96a2 25bc 762e 7f3b 8864 d83c 49cb bbbb
00000090: 7ef3 27bc 1921 d73a 96f7 83bc ba97 bebc
000000a0: 727c 29bd 15d3 983b f51d 083b 7116 cfbc
000000b0: ae6b 54ba 1b9f 03ba 602f 86bc 141b b93b
000000c0: 9cf5 023d de21 95bc 358b 95bc a3a3 e838
000000d0: c508 e13b c56d 4eba 6330 a5bc 0077 22bc
000000e0: db72 a0bc fbf2 95bb b161 3c3d 6cf0 b23a
000000f0: d3b2 363a c83a 0abd ea80 c13c e1f5 bdbb
00000100: 987a 56ba 45f0 273c d195 9cbb 1338 72ba
00000110: 8fc3 c7ba 186e 8cbb b08b d6bc 1502 4cbb
00000120: 4cf5 9d3c 4f5e 043d da5c 593b 9942 f2bb
00000130: 6b78 3238 b6d9 d9bc 7da5 613c 9e2a 1f3a
00000140: a4de f7bc 62fb 2cbb bda2 c4bb 0b40 e53b
00000150: 17da dfbb af7b 5c3c 4935 92ba 0887 93bb
00000160: 8d61 4a3c 8cc4 1f3c a519 a6ba 0afe d7bc
00000170: 7229 babb c3a9 4f3a 9ef1 ac3a b781 03bc
00000180: ed3c b4bc 3e1c 0a3d 23a8 f43b 6c6d 7c3a
00000190: 4b65 a3bc 27a5 85bc d944 023c dd9d 63bc
000001a0: 6f99 2cbc a9e2 55bb 282a 8bbb 51c3 0eba
000001b0: 70a5 de3b b74a bcbb 54b1 283b c742 2fbc
000001c0: 3a54 d4bb 9c97 493c 7614 4ab9 1ab4 43bc
000001d0: ee30 34bb 64a5 693c ed2f e0bc 2139 583c
000001e0: e54b 79bb eaeb 28bc 8198 3f3b 8f1e 09bc
000001f0: ded8 82b7 61d3 74bc 8ff0 e0bb 4240 093c

exp_avg f4 [128, 2]
0.0009601236 0.0 0.0006924983 0.0 -0.0003372897 0.0 0.0073873815 0.0
0.0057336655 0.0 -8.931646e-05 0.0 0.017372105 0.0 -0.00010169062 0.0
-0.0014202966 0.0 0.0015639458 0.0 0.00011563747 0.0 -0.0027099652 0.0
-0.009589589 0.0 0.0058908905 0.0 0.00022802825 0.0 -0.00042474625 0.0
-0.00028785272 0.0 0.00018504371 0.0 0.0036663765 0.0 0.00021336909 0.0
-0.0049868003 0.0 -5.690789e-05 0.0 -0.00024770352 0.0 0.007834445 0.0
0.0030907376 0.0 -2.8972856e-05 0.0 -0.001577821 0.0 -0.004766654 0.0
0.00020586785 0.0 -0.003633794 0.0 -9.2137634e-05 0.0 -3.5329944e-05 0.0
-0.0030249278 0.0 -0.0016471501 0.0 6.204777e-05 0.0 0.00031495508 0.0
9.420297e-05 0.0 0.0075871497 0.0 0.002908725 0.0 0.00026636495 0.0
0.0001281879 0.0 0.015140371 0.0 0.01568726 0.0 0.00011938925 0.0
-0.0044587385 0.0 0.011662193 0.0 0.0027136512 0.0 0.00015684456 0.0
-0.004063998 0.0 0.000101519814 0.0 0.00016428342 0.0 0.020344254 0.0
8.43849e-05 0.0 -0.0002662241 0.0 -0.008147115 0.0 0.013169044 0.0
-0.00015603872 0.0 0.00014584904 0.0 -0.0039219395 0.0 0.008518 0.0
-0.006407785 0.0 -0.0060677943 0.0 0.008134044 0.0 0.001611242 0.0
-0.005587019 0.0 0.00024235283 0.0 6.286658e-05 0.0 8.536471e-06 0.0
0.0021471335 0.0 2.3267557e-05 0.0 0.0034815876 0.0 0.00012721687 0.0
-0.00013890541 0.0 0.00018416914 0.0 0.00022518975 0.0 -2.5881976e-05 0.0
0.00014150479 0.0 0.00016368083 0.0 -0.00026672674 0.0 1.6304139e-05 0.0
6.0296334e-05 0.0 -4.5329158e-05 0.0 -0.00010695222 0.0 0.005091127 0.0
0.0008184107 0.0 0.0030818773 0.0 0.00019058191 0.0 0.00029996806 0.0
0.0038950553 0.0 0.00028324203 0.0 0.00036431456 0.0 -0.009118055 0.0
0.0014542893 0.0 -0.0036010416 0.0 0.0013749443 0.0 0.007929297 0.0
-0.0001377823 0.0 0.0024013098 0.0 0.00014339441 0.0 0.0075281877 0.0
-0.00035748025 0.0 -0.0041796607 0.0 -0.0017446021 0.0 0.008611158 0.0
0.0040595005 0.0 -0.00021066243 0.0 -0.0002885285 0.0 0.006499002 0.0
-0.00038600393 0.0 0.0015211353 0.0 -0.0023838438 0.0 -0.0015982485 0.0
-0.00022577967 0.0 0.00014822933 0.0 -6.576189e-05 0.0 0.01805219 0.0
0.00022563187 0.0 -0.0017921652 0.0 -0.00021000391 0.0 0.012377665 0.0
0.0001345575 0.0 -5.072607e-05 0.0 0.0034471427 0.0 -1.0152518e-05 0.0
-0.00036576416 0.0 5.9105434e-05 0.0 8.6636974e-05 0.0 -6.770454e-05 0.0
00000000: ceb0 7b3a 0000 0000 c688 353a 0000 0000
00000010: 42d6 b0b9 0000 0000 d911 f23b 0000 0000
00000020: 79e1 bb3b 0000 0000 694f bbb8 0000 0000
00000030: f24f 8e3c 0000 0000 bc42 d5b8 0000 0000
00000040: 3f29 baba 0000 0000 50fd cc3a 0000 0000
00000050: 6582 f238 0000 0000 ac99 31bb 0000 0000
00000060: a71d 1dbc 0000 0000 5f08 c13b 0000 0000
00000070: de1a 6f39 0000 0000 7ab0 deb9 0000 0000
00000080: f0ea 96b9 0000 0000 4b08 4239 0000 0000
00000090: 9747 703b 0000 0000 d4bb 5f39 0000 0000
000000a0: 5068 a3bb 0000 0000 62b0 6eb8 0000 0000
000000b0: 34de 81b9 0000 0000 0b5c 003c 0000 0000
000000c0: f98d 4a3b 0000 0000 bc0a f3b7 0000 0000
000000d0: e3ce ceba 0000 0000 9831 9cbb 0000 0000
000000e0: 3bde 5739 0000 0000 f224 6ebb 0000 0000
000000f0: 043a c1b8 0000 0000 3d2f 14b8 0000 0000
00000100: de3d 46bb 0000 0000 30e5 d7ba 0000 0000
00000110: a51f 8238 0000 0000 8e20 a539 0000 0000
00000120: d68e c538 0000 0000 a09d f83b 0000 0000
00000130: 4fa0 3e3b 0000 0000 e6a6 8b39 0000 0000
00000140: 2d6a 0639 0000 0000 520f 783c 0000 0000
00000150: 9282 803c 0000 0000 9e60 fa38 0000 0000
00000160: 9c1a 92bb 0000 0000 c812 3f3c 0000 0000
00000170: 83d7 313b 0000 0000 a476 2439 0000 0000
00000180: 492b 85bb 0000 0000 09e7 d438 0000 0000
00000190: 7f43 2c39 0000 0000 fea8 a63c 0000 0000
000001a0: ccf7 b038 0000 0000 fe93 8bb9 0000 0000
000001b0: 7a7b 05bc 0000 0000 f9c2 573c 0000 0000
000001c0: 539e 23b9 0000 0000 0eef 1839 0000 0000
000001d0: 9d83 80bb 0000 0000 158f 0b3c 0000 0000
000001e0: 66f8 d1bb 0000 0000 59d4 c6bb 0000 0000
000001f0: a744 053c 0000 0000 4f30 d33a 0000 0000
00000200: 5013 b7bb 0000 0000 1820 7e39 0000 0000
00000210: 3dd7 8338 0000 0000 dd37 0f37 0000 0000
00000220: ecb6 0c3b 0000 0000 b32e c337 0000 0000
00000230: 592b 643b 0000 0000 8565 0539 0000 0000
00000240: 23a7 11b9 0000 0000 871d 4139 0000 0000
00000250: ea20 6c39 0000 0000 1f1d d9b7 0000 0000
00000260: e760 1439 0000 0000 bda1 2b39 0000 0000
00000270: 75d7 8bb9 0000 0000 dfc4 8837 0000 0000
00000280: b2e6 7c38 0000 0000 d01f 3eb8 0000 0000
00000290: 894b e0b8 0000 0000 78d3 a63b 0000 0000
000002a0: 9d8a 563a 0000 0000 52f9 493b 0000 0000
000002b0: f1d6 4739 0000 0000 0845 9d39 0000 0000
000002c0: 2f44 7f3b 0000 0000 1a80 9439 0000 0000
000002d0: 7901 bf39 0000 0000 e563 15bc 0000 0000
000002e0: da9d be3a 0000 0000 74ff 6bbb 0000 0000
000002f0: 7a37 b43a 0000 0000 e2e9 013c 0000 0000
00000300: a879 10b9 0000 0000 4b5f 1d3b 0000 0000
00000310: 255c 1639 0000 0000 04af f63b 0000 0000
00000320: 306c bbb9 0000 0000 89f5 88bb 0000 0000
00000330: 22ab e4ba 0000 0000 d015 0d3c 0000 0000
00000340: 8f05 853b 0000 0000 44e5 5cb9 0000 0000
00000350: a445 97b9 0000 0000 95f5 d43b 0000 0000
00000360: 9260 cab9 0000 0000 d560 c73a 0000 0000
00000370: 433a 1cbb 0000 0000 527c d1ba 0000 0000
00000380: 45bf 6cb9 0000 0000 026e 1b39 0000 0000
00000390: a5e9 89b8 0000 0000 30e2 933c 0000 0000
000003a0: 9897 6c39 0000 0000 16e7 eaba 0000 0000
000003b0: 7f34 5cb9 0000 0000 b1cb 4a3c 0000 0000
000003c0: 0118 0d39 0000 0000 b4c2 54b8 0000 0000
000003d0: 75e9 613b 0000 0000 bc54 2ab7 0000 0000
000003e0: 09c4 bfb9 0000 0000 fae7 7738 0000 0000
000003f0: dfb0 b538 0000 0000 99fc 8db8 0000 0000

exp_avg_sq f4 [128, 2]
0.0001199377 0.0 1.575497e-05 0.0 8.644275e-05 0.0 0.00023457728 0.0
0.00024276273 0.0 2.7160693e-06 0.0 0.0021337306 0.0 4.9549186e-07 0.0
8.270072e-05 0.0 3.56716e-05 0.0 2.791714e-06 0.0 0.00024727455 0.0
0.0015302887 0.0 0.00035857747 0.0 4.5583056e-05 0.0 4.9289986e-07 0.0
2.8962395e-05 0.0 4.2240086e-07 0.0 7.499291e-05 0.0 1.4928324e-05 0.0
0.0003763389 0.0 6.1363146e-08 0.0 3.9673589e-07 0.0 0.0006697309 0.0
0.00020576801 0.0 3.995525e-08 0.0 2.685239e-05 0.0 0.0005621856 0.0
2.7363492e-07 0.0 0.0010606155 0.0 7.3350875e-06 0.0 1.0175611e-06 0.0
0.00020583425 0.0 0.0003128513 0.0 1.163122e-06 0.0 3.133703e-05 0.0
3.1144623e-07 0.0 0.0009880697 0.0 0.0004986854 0.0 4.9030965e-05 0.0
2.8501308e-06 0.0 0.0028779828 0.0 0.002314768 0.0 9.123872e-08 0.0
0.00013547827 0.0 0.0015978228 0.0 6.6086286e-05 0.0 2.0539034e-07 0.0
0.00036512283 0.0 7.3218604e-07 0.0 5.794725e-07 0.0 0.0049975985 0.0
8.492248e-08 0.0 1.6785107e-07 0.0 0.0012811517 0.0 0.0027853423 0.0
2.8293607e-07 0.0 2.3205513e-07 0.0 9.9238736e-05 0.0 0.0007564555 0.0
0.0013117293 0.0 0.0014441786 0.0 0.0011064362 0.0 0.000391035 0.0
0.00077430165 0.0 7.7983935e-07 0.0 2.818036e-07 0.0 0.00016808748 0.0
3.067549e-05 0.0 5.347806e-07 0.0 0.00019580824 0.0 3.9878336e-07 0.0
1.9435753e-05 0.0 5.6862564e-07 0.0 1.5055582e-05 0.0 5.509084e-08 0.0
2.2380078e-07 0.0 2.3979342e-07 0.0 1.0501035e-07 0.0 9.237215e-08 0.0
2.9122012e-07 0.0 1.1353671e-06 0.0 1.10729694e-07 0.0 0.00037729935 0.0
5.5529938e-05 0.0 2.0384858e-05 0.0 4.94061e-07 0.0 5.9641087e-07 0.0
0.00036704293 0.0 2.7474543e-06 0.0 3.0203742e-06 0.0 0.0018570375 0.0
0.0001328319 0.0 0.0007418557 0.0 1.1051796e-05 0.0 0.0004040609 0.0
1.8397643e-07 0.0 0.00021583958 0.0 2.6180055e-07 0.0 0.0010517125 0.0
1.2023911e-05 0.0 0.0002815248 0.0 1.641571e-05 0.0 0.0004923434 0.0
0.00041020726 0.0 1.0510348e-06 0.0 5.482768e-07 0.0 0.00038056725 0.0
3.5629859e-07 0.0 6.0496644e-05 0.0 2.3789893e-05 0.0 6.094078e-05 0.0
4.4161347e-06 0.0 2.205746e-07 0.0 7.9740676e-07 0.0 0.0022254635 0.0
0.00019914939 0.0 0.00035942488 0.0 4.3230887e-07 0.0 0.0017921834 0.0
1.4289705e-07 0.0 1.4424147e-06 0.0 5.222765e-05 0.0 1.2846455e-06 0.0
2.842599e-07 0.0 7.416867e-07 0.0 6.8158086e-05 0.0 3.9863032e-08 0.0
00000000: 1087 fb38 0000 0000 8a29 8437 0000 0000
00000010: 9948 b538 0000 0000 dcf8 7539 0000 0000
00000020: 208e 7e39 0000 0000 b745 3636 0000 0000
00000030: 0fd6 0b3b 0000 0000 f101 0535 0000 0000
00000040: 9c6f ad38 0000 0000 179e 1538 0000 0000
00000050: 4859 3b36 0000 0000 a1a4 8139 0000 0000
00000060: f893 c83a 0000 0000 74ff bb39 0000 0000
00000070: 6f30 3f38 0000 0000 d24f 0435 0000 0000
00000080: 45f4 f237 0000 0000 55c6 e234 0000 0000
00000090: 8345 9d38 0000 0000 aa74 7a37 0000 0000
000000a0: 5a4f c539 0000 0000 bfc6 8333 0000 0000
000000b0: f7fe d434 0000 0000 e190 2f3a 0000 0000
000000c0: 6ec3 5739 0000 0000 439b 2b33 0000 0000
000000d0: 1241 e137 0000 0000 a35f 133a 0000 0000
000000e0: 19e8 9234 0000 0000 5a04 8b3a 0000 0000
000000f0: ec1f f636 0000 0000 2293 8835 0000 0000
00000100: 36d5 5739 0000 0000 3106 a439 0000 0000
00000110: 911c 9c35 0000 0000 e16f 0338 0000 0000
00000120: d834 a734 0000 0000 1e82 813a 0000 0000
00000130: 36ba 023a 0000 0000 99a6 4d38 0000 0000
00000140: e044 3f36 0000 0000 8a9c 3c3b 0000 0000
00000150: 5db3 173b 0000 0000 04ef c333 0000 0000
00000160: 2c0f 0e39 0000 0000 096e d13a 0000 0000
00000170: ce97 8a38 0000 0000 4489 5c34 0000 0000
00000180: f56d bf39 0000 0000 718b 4435 0000 0000
00000190: 0c8d 1b35 0000 0000 e5c2 a33b 0000 0000
000001a0: a15e b633 0000 0000 8d3a 3434 0000 0000
000001b0: 51ec a73a 0000 0000 4a8a 363b 0000 0000
000001c0: 70e6 9734 0000 0000 d42a 7934 0000 0000
000001d0: 641e d038 0000 0000 df4c 463a 0000 0000
000001e0: 55ee ab3a 0000 0000 984a bd3a 0000 0000
000001f0: d705 913a 0000 0000 d403 cd39 0000 0000
00000200: 81fa 4a3a 0000 0000 2756 5135 0000 0000
00000210: cb4a 9734 0000 0000 a440 3039 0000 0000
00000220: 8ea9 0038 0000 0000 d88d 0f35 0000 0000
00000230: e051 4d39 0000 0000 5e18 d634 0000 0000
00000240: f609 a337 0000 0000 a8a3 1835 0000 0000
00000250: 3b97 7c37 0000 0000 059d 6c33 0000 0000
00000260: e44d 7034 0000 0000 f5bc 8034 0000 0000
00000270: 0d82 e133 0000 0000 205e c633 0000 0000
00000280: fd58 9c34 0000 0000 eb62 9835 0000 0000
00000290: 4bca ed33 0000 0000 43d0 c539 0000 0000
000002a0: d1e8 6838 0000 0000 2600 ab37 0000 0000
000002b0: 9d9f 0435 0000 0000 0b19 2035 0000 0000
000002c0: ab6f c039 0000 0000 e860 3836 0000 0000
000002d0: a2b1 4a36 0000 0000 d767 f33a 0000 0000
000002e0: cb48 0b39 0000 0000 1879 423a 0000 0000
000002f0: 1a6b 3937 0000 0000 23d8 d339 0000 0000
00000300: 0e8b 4534 0000 0000 ff52 6239 0000 0000
00000310: 988d 8c34 0000 0000 9ed9 893a 0000 0000
00000320: 4eba 4937 0000 0000 9e99 9339 0000 0000
00000330: 78b4 8937 0000 0000 9b10 013a 0000 0000
00000340: 1611 d739 0000 0000 4811 8d35 0000 0000
00000350: 4b2d 1335 0000 0000 df86 c739 0000 0000
00000360: 4e49 bf34 0000 0000 c7bd 7d38 0000 0000
00000370: 6890 c737 0000 0000 aa9a 7f38 0000 0000
00000380: 4f2e 9436 0000 0000 16d7 6c34 0000 0000
00000390: 600d 5635 0000 0000 15d9 113b 0000 0000
000003a0: c2d2 5039 0000 0000 3171 bc39 0000 0000
000003b0: 1418 e834 0000 0000 b2e7 ea3a 0000 0000
000003c0: 3e6f 1934 0000 0000 fe98 c135 0000 0000
000003d0: 030f 5b38 0000 0000 156c ac35 0000 0000
000003e0: 629c 9834 0000 0000 5218 4735 0000 0000
000003f0: 18f0 8e38 0000 0000 de35 2b33 0000 0000

exp_avg f4 [128]
5.6798624e-05 0.00043546458 1.638487e-05 0.0012521064 0.0008951697 2.2516115e-05 0.002791237 1.33389e-06
-0.0003878605 0.00021941971 9.679895e-05 -0.0004023427 -0.0016038523 0.0010161764 0.0002562627 -2.160683e-05
-0.000293428 9.056877e-05 0.000529425 0.0002176874 -0.0007387044 -6.722593e-06 -9.81412e-06 0.0012129785
0.0005728231 -4.5837514e-06 -0.00030681613 -0.0006808447 4.5543824e-05 -0.00068448356 7.967179e-05 3.431913e-05
-0.00065720145 -0.00045000872 -1.8933279e-05 9.7826205e-06 3.662232e-05 0.0011210659 0.00024936296 -1.681963e-05
2.8730672e-05 0.0025245047 0.0027269989 2.7770244e-05 -0.00097479107 0.0021036041 0.00031104105 8.9616944e-05
-0.0009010442 -4.042074e-06 7.339884e-06 0.003431812 1.5658321e-05 -5.667006e-05 -0.0014285895 0.0021116785
-9.241954e-06 7.227003e-05 -0.0006390818 0.0011903953 -0.0010147411 -0.0008000449 0.0013020284 0.00011321386
-0.0009688186 2.2127968e-05 3.204511e-05 0.00015858255 0.00047852396 8.274823e-05 0.0006764391 4.0227824e-06
-0.00017414753 9.530727e-05 0.00018194034 -4.232269e-06 7.848786e-05 6.0088645e-05 -3.9662627e-05 1.843719e-06
8.098445e-06 0.00011218952 4.0131304e-06 0.00093278324 0.00024198266 0.00055536133 0.00010302881 8.573585e-05
0.0005103467 -4.8841277e-05 -4.1022322e-05 -0.001597697 0.00019208147 -0.000304701 0.00025545136 0.0013118646
-1.0761542e-05 0.00016257325 5.5502536e-05 0.0014026458 -0.00026896055 -0.00067827624 -0.0004126579 0.0015486329
0.0006520387 8.426344e-05 6.7090195e-06 0.0010841799 -4.885121e-05 0.00032710753 -0.0004264322 -0.00024633788
-0.00010074807 1.2128452e-05 -5.1700863e-05 0.0032485193 -2.935519e-05 -0.00036761598 5.5894347e-05 0.0021305815
3.620278e-05 0.00011371873 0.0005910126 -4.9008617e-05 -4.098931e-05 4.2113894e-05 -3.408069e-05 -1.5563903e-05
00000000: 0f3b 6e38 114f e439 3e72 8937 b81d a43a
00000010: d2a9 6a3a fde0 bc37 30ed 363b 1d08 b335
00000020: c159 cbb9 0814 6639 8a00 cb38 86f1 d2b9
00000030: 5a38 d2ba 3931 853a ff5a 8639 5040 b5b7
00000040: 3dd7 99b9 bdef bd38 1cc9 0a3a 0443 6439
00000050: 9da5 41ba a292 e1b6 53a7 24b7 cefc 9e3a
00000060: 8229 163a 20ce 99b6 2adc a0b9 b77a 32ba
00000070: 4f06 3f38 ea6e 33ba 7715 a738 e3f1 0f38
00000080: 0b48 2cba 26ef ebb9 e8d2 9eb7 0920 2437
00000090: eb9a 1938 bbf0 923a eebc 8239 e117 8db7
000000a0: a602 f137 2972 253b 73b7 323b 25f4 e837
000000b0: 1f89 7fba 9fdc 093b 3913 a339 bbf0 bb38
000000c0: 0d34 6cba 27a1 87b6 2049 f636 40e8 603b
000000d0: fd59 8337 03b1 6db8 823f bbba 1664 0a3b
000000e0: e40d 1bb7 ad8f 9738 0e88 27ba 0a07 9c3a
000000f0: 1001 85ba 1bba 51ba d3a8 aa3a 3a6d ed38
00000100: 51f8 7dba 739f b937 2d68 0638 2e49 2639
00000110: 66e2 fa39 1e89 ad38 0f53 313a 70fb 8636
00000120: 5f9b 36b9 b3df c738 3dc7 3e39 ea02 8eb6
00000130: d999 a438 b107 7c38 6c5b 26b8 b475 f735
00000140: 8ede 0737 4a47 eb38 87a8 8636 0686 743a
00000150: babc 7d39 ab95 113a 2c11 d838 15cd b338
00000160: cac8 053a ecda 4cb8 620f 2cb8 d169 d1ba
00000170: 7a69 4939 47c0 9fb9 1aee 8539 dff2 ab3a
00000180: 798c 34b7 6d78 2a39 65cb 6838 fcd8 b73a
00000190: 4603 8db9 59ce 31ba 015a d8b9 7ffb ca3a
000001a0: 94ed 2a3a 97b6 b038 0a1e e136 0a1b 8e3a
000001b0: 96e5 4cb8 a17f ab39 c392 dfb9 e926 81b9
000001c0: b548 d3b8 4e7b 4b37 61d9 58b8 1ce5 543b
000001d0: ca3f f6b7 95bc c0b9 1970 6a38 3aa1 0b3b
000001e0: 70d8 1738 477c ee38 2fee 1a3a 9a8e 4db8
000001f0: f0eb 2bb8 73a3 3038 ddf1 0eb8 3a8f 82b7

exp_avg_sq f4 [128]
1.2897332e-06 1.8818587e-06 5.361497e-07 3.5108485e-06 2.6395458e-06 7.298975e-08 2.0438349e-05 5.8072814e-08
9.487172e-07 2.6537364e-07 8.234058e-08 1.8882066e-06 1.2834958e-05 4.467061e-06 2.8271156e-06 8.380345e-08
9.076053e-07 1.1217115e-07 7.9680484e-07 3.9311234e-07 2.6675252e-06 1.2341837e-08 3.3854377e-08 5.0743492e-06
2.5988315e-06 5.507897e-09 6.2080767e-07 3.873091e-06 3.5399275e-08 1.0176529e-05 2.2325175e-07 9.648135e-08
3.5264088e-06 5.6036106e-06 1.2762372e-07 2.8129003e-07 6.616876e-08 7.087614e-06 2.9749376e-06 6.6046545e-07
4.4465096e-08 2.9539118e-05 2.6546188e-05 1.0644646e-08 3.6519532e-06 1.821475e-05 5.3457177e-07 6.335695e-08
6.2308422e-06 6.989159e-08 1.254821e-07 4.8463997e-05 1.425472e-08 3.10486e-08 1.2622796e-05 2.4377443e-05
2.5679922e-08 6.337393e-08 6.6986445e-07 4.6107257e-06 9.455761e-06 9.072221e-06 8.42241e-06 2.75792e-06
6.6428574e-06 4.955936e-08 3.3729222e-08 1.0490951e-06 1.7067802e-06 1.6114006e-07 3.4029908e-06 4.9957166e-08
5.447979e-07 1.5957188e-07 3.6204025e-07 1.1663119e-08 6.6422594e-08 5.1397393e-08 1.114637e-08 9.982721e-09
2.2746418e-08 1.9566207e-07 3.193644e-08 5.2416663e-06 7.5208993e-07 6.123536e-07 1.4190546e-07 1.2029922e-07
2.1564028e-06 3.3771923e-07 4.1602559e-07 1.6974314e-05 7.9502126e-07 4.9677765e-06 1.7899664e-07 4.2401025e-06
2.537844e-08 1.3972183e-06 5.336348e-08 1.2332245e-05 1.0585708e-06 2.3793752e-06 4.836347e-07 7.7667e-06
4.2033093e-06 4.443036e-07 1.4828827e-07 4.012015e-06 3.09579e-08 8.637187e-07 3.664272e-07 8.141944e-07
2.5578055e-07 4.1896268e-08 1.18537365e-07 3.4112854e-05 1.9859815e-06 4.398869e-06 1.17420726e-07 1.9010311e-05
2.8040427e-08 2.0188722e-07 1.0839908e-06 1.7699935e-07 2.2164322e-08 6.707444e-08 6.105515e-07 6.2956156e-09
00000000: e51a ad35 2c94 fc35 edeb 0f35 eb9b 6b36
00000010: 0d23 3136 8abe 9c33 0573 ab37 bc6b 7933
00000020: 59ab 7e35 ad78 8e34 36d3 b033 496e fd35
00000030: ba55 5737 c3e3 9536 7ab9 3d36 6ff7 b333
00000040: 29a2 7335 bee2 f033 03e4 5535 f30c d334
00000050: bc03 3336 f907 5432 4867 1133 5444 aa36
00000060: 9667 2e36 f93f bd31 94a5 2635 99f5 8136
00000070: ea09 1833 dcbb 2a37 f9b6 6f34 2f31 cf33
00000080: 3ea7 6c36 a606 bc36 f108 0934 3504 9734
00000090: a918 8e33 24d2 ed36 0aa5 4736 d74a 3135
000000a0: e4f9 3e33 c6ca f737 81af de37 a6df 3632
000000b0: 1414 7536 e1cb 9837 7e7f 0f35 da0e 8833
000000c0: 8712 d136 4f17 9633 42bc 0634 d245 4b38
000000d0: ece4 7432 4c5a 0533 7fc6 5337 297e cc37
000000e0: bf96 dc32 3018 8833 bcd0 3335 d5b5 9a36
000000f0: 2fa4 1e37 e434 1837 fa4d 0d37 b414 3936
00000100: b6e5 de36 18db 5433 acdd 1033 a2ce 8c35
00000110: 8514 e535 d805 2d34 f05e 6436 7c90 5633
00000120: 3a3e 1235 c956 2b34 6f5e c234 f15e 4832
00000130: 35a4 8e33 08c0 5c33 417e 3f32 7980 2b32
00000140: e763 c332 2e17 5234 7d2a 0933 92e1 af36
00000150: 3ae3 4935 9e60 2435 ad5e 1834 992b 0134
00000160: b8b6 1036 c74f b534 1f5a df34 1064 8e37
00000170: 7269 5535 e0b0 a636 3932 4034 3446 8e36
00000180: c8ff d932 0e88 bb35 c431 6533 97e6 4e37
00000190: 3714 8e35 5bad 1f36 20d3 0135 b94d 0237
000001a0: 270a 8d36 9f88 ee34 2b39 1f34 f29e 8636
000001b0: 92f6 0433 4cda 6735 5fb9 c434 038f 5a35
000001c0: 3652 8934 6ff1 3333 9b8e fe33 6614 0f38
000001d0: e746 0536 ff99 9336 ba28 fc33 5578 9f37
000001e0: 8ddd f032 56c6 5834 a47d 9135 360d 3e34
000001f0: dc63 be32 900a 9033 c8e4 2335 d250 d831

exp_avg f4 [128, 128]
-4.2581464e-06 2.2257766e-06 -7.864596e-06 -3.5017463e-05 -1.9999457e-05 2.4607493e-06 -2.0128095e-05 2.6238185e-06
-3.240084e-05 -5.4058746e-06 2.1360677e-06 -3.0138868e-05 -2.9422754e-05 -1.5062529e-05 -3.9085953e-05 2.4272706e-06
2.3609657e-06 1.3916936e-06 -1.6630489e-05 2.3296413e-06 -1.5295619e-06 2.0800023e-06 2.5208362e-06 -1.2922846e-05
-4.905417e-06 1.8938275e-06 -9.000235e-06 -3.1719642e-06 1.8096194e-06 -7.152975e-05 2.4330006e-06 1.2798649e-06
-4.2510437e-05 -2.257163e-05 2.491954e-06 -8.928583e-06 1.6810513e-06 -1.8794929e-06 -5.245624e-05 1.4264641e-08
2.5640813e-06 -3.3518878e-05 -2.9972698e-05 1.7414766e-06 -4.063281e-05 -3.7221005e-05 -7.984131e-06 9.899744e-07
-1.33281455e-05 2.6321118e-06 2.0781708e-06 -6.426923e-05 1.9093548e-06 2.2845184e-06 -2.2212338e-05 -7.889666e-06
2.5471088e-06 1.4105859e-06 -5.988636e-06 -9.640796e-06 -1.6386272e-06 -4.7670637e-05 -1.758436e-05 -3.1054275e-05
-5.3744e-07 2.2872616e-06 2.498451e-06 -1.0133783e-05 -2.3390828e-06 2.542748e-06 -4.022449e-05 2.1197793e-06
2.3740342e-06 1.4200234e-06 2.1855958e-06 1.4941874e-06 1.2418557e-06 1.5766079e-06 2.156417e-06 1.9358442e-06
2.3505697e-06 2.538392e-06 2.5304985e-06 -8.3933795e-05 -7.465354e-06 3.146306e-07 1.2121309e-06 1.7036631e-06
-2.1244796e-06 2.5623794e-06 2.5570066e-06 -6.6447146e-06 -6.5780587e-06 -3.358813e-05 4.0784656e-07 -1.8342314e-05
2.6073844e-06 -3.1144034e-05 1.5449863e-06 -4.1119914e-05 2.3763841e-06 -6.398504e-06 -2.4294179e-05 -2.2982258e-05
-2.0111462e-05 2.5547572e-06 2.5813367e-06 -5.309589e-06 2.6149592e-06 -1.7290624e-05 7.049112e-07 4.4656304e-07
1.8899586e-06 2.1089652e-06 2.5677314e-06 -5.7987243e-05 -1.010585e-05 -2.584465e-05 2.5869444e-06 -3.1373987e-05
1.7399783e-06 2.5606912e-06 -4.96344e-05 2.6389498e-06 2.3669495e-06 2.3131197e-06 -1.5894193e-05 1.7002675e-06
0.0019975258 -0.00059004757 0.0035656926 0.01451764 0.008515406 -0.00060978066 0.0085666375 -0.000581462
0.013465729 0.0025118843 -0.0005809809 0.012559736 0.012277607 0.006533977 0.016084453 -0.0004947144
-0.0006077705 -0.00021926459 0.007190927 -0.0005996947 0.00068382226 -0.00037589774 -0.00053341186 0.0056723305
0.0022707267 -0.00032295552 0.0040847296 0.0014657804 -0.00030133655 0.028940156 -0.0006054571 -0.00042909212
0.017473618 0.009548897 -0.0005137045 0.0040491116 -0.00027253677 0.0008475377 0.02137489 -5.136886e-07
-0.0006118179 0.01387951 0.012482073 -0.00028528285 0.01673388 0.015349845 0.0036598379 -0.00015799454
0.0058440515 -0.00057935825 -0.00037443766 0.02603504 -0.00032674524 -0.0004411553 0.009401022 0.0035861332
-0.00054396136 -0.00022237026 0.0027675938 0.0043421523 0.0007398792 0.019487005 0.0075488845 0.0129158115
0.00023865394 -0.00044083234 -0.00052367314 0.004529502 0.001050855 -0.00060247997 0.01653968 -0.0003870566
-0.0006077912 -0.00022393982 -0.0005885607 -0.0002367544 -0.00019567333 -0.00025156012 -0.00040034865 -0.00033390516
-0.00046305647 -0.0006055727 -0.00053736713 0.03385456 0.0034171576 -0.0001306803 -0.00019115633 -0.00027738046
0.00096478505 -0.00054210325 -0.0005396557 0.0030584477 0.0030432176 0.013921126 -0.00016134472 0.007840486
-0.00058763905 0.01298054 -0.00024563103 0.016889349 -0.0006093421 0.00296095 0.010285055 0.009694947
0.008558456 -0.0005492908 -0.0005651411 0.0024527349 -0.00057740277 0.007446452 -0.00027546965 -0.0001673335
-0.000550535 -0.00038355612 -0.00054423313 0.023550661 0.0045227935 0.010856301 -0.00057162525 0.013035296
-0.0002853982 -0.0006042441 0.020296082 -0.0005890896 -0.0004718701 -0.0006024149 0.0068792976 -0.00027644468
00000000: 33e1 8eb6 8d5e 1536 2ff2 03b7 b7df 12b8
00000010: 82c4 a7b7 5a23 2536 c1d8 a8b7 dc14 3036
00000020: 23e6 07b8 1c64 b5b6 5d59 0f36 bad2 fcb7
00000030: e2d0 f6b7 12b5 7cb7 39f0 23b8 31e4 2236
00000040: 1571 1e36 3aca ba35 b481 8bb7 ef56 1c36
00000050: 594b cdb5 2b96 0b36 a32b 2936 33cf 58b7
00000060: 3699 a4b6 6b2f fe35 b7ff 16b7 eedd 54b6
00000070: 0de2 f235 3e02 96b8 a246 2336 d3c7 ab35
00000080: 3c4d 32b8 3558 bdb7 723b 2736 f9cb 15b7
00000090: 7ca0 e135 e242 fcb5 7504 5cb8 8e10 7532
000000a0: 9512 2c36 9f96 0cb8 e16d fbb7 aebc e935
000000b0: 266d 2ab8 c01d 1cb8 95f3 05b7 43df 8435
000000c0: f39b 5fb7 56a3 3036 b476 0b36 48c8 86b8
000000d0: 7722 0036 ba4f 1936 a254 bab7 dc5d 04b7
000000e0: ffee 2a36 5d53 bd35 fef1 c8b6 e7be 21b7
000000f0: cdee dbb5 f5f1 47b8 2082 93b7 4640 02b8
00000100: 9844 10b5 db7e 1936 10ab 2736 4404 2ab7
00000110: 23f9 1cb6 14a4 2a36 b8b6 28b8 8841 0e36
00000120: 9951 1f36 a297 be35 40ac 1236 e38b c835
00000130: d6ad a635 d69b d335 f6b6 1036 8de9 0136
00000140: 7bbe 1d36 3e59 2a36 a2d1 2936 9d05 b0b8
00000150: e77e fab6 80ea a834 80b0 a235 6ba9 e435
00000160: 4892 0eb6 58f5 2b36 0a99 2b36 aaf5 deb6
00000170: 18b9 dcb6 fbe0 0cb8 01f6 da34 d2dd 99b7
00000180: 86fa 2e36 a7a0 02b8 535d cf35 2c78 2cb8
00000190: f879 1f36 bbb2 d6b6 5acb cbb7 06ca c0b7
000001a0: 09b5 a8b7 6572 2b36 073b 2d36 0629 b2b6
000001b0: a87c 2f36 550b 91b7 2139 3d35 28bf ef34
000001c0: 7caa fd35 bf87 0d36 4a51 2c36 5437 73b8
000001d0: 4c8c 29b7 f7cc d8b7 5e9b 2d36 9097 03b8
000001e0: 3389 e935 57d8 2b36 882e 50b8 d018 3136
000001f0: e2d7 1e36 183b 1b36 8554 85b7 bf34 e435
00000200: ece8 023b 6cad 1aba 65ae 693b 65db 6d3c
00000210: 3484 0b3c b0d9 1fba 155b 0c3c 416d 18ba
00000220: 5c9f 5c3c 6d9e 243b f84c 18ba 5ac7 4d3c
00000230: 0428 493c f91a d63b 8bc3 833c b9af 01ba
00000240: ca52 1fba 64ea 65b9 dea1 eb3b d434 1dba
00000250: 8942 333a 2414 c5b9 aad4 0bba f5de b93b
00000260: 79d0 143b 5b52 a9b9 32d9 853b 6e1f c03a
00000270: b5fc 9db9 e813 ed3c 8ab7 1eba c5f7 e0b9
00000280: d524 8f3c fa72 1c3c 20aa 06ba 69ae 843b
00000290: 44e3 8eb9 4b2d 5e3a 651a af3c 69e4 09b5
000002a0: 6762 20ba e266 633c 9c81 4c3c 0492 95b9
000002b0: 7d15 893c eb7d 7b3c e4d9 6f3b 56ab 25b9
000002c0: 757f bf3b 13e0 17ba 2c50 c4b9 7047 d53c
000002d0: 014f abb9 dd4a e7b9 bf06 1a3c 5505 6b3b
000002e0: a198 0eba 102c 69b9 8560 353b 9d48 8e3b
000002f0: 74f4 413a 36a3 9f3c a25c f73b d79c 533c
00000300: 2e3f 7a39 841f e7b9 1c47 09ba 376c 943b
00000310: d8bc 893a bfef 1dba 397e 873c dced cab9
00000320: 2d54 1fba 63d1 6ab9 a449 1aba 4641 78b9
00000330: a92d 4db9 d4e3 83b9 e3e5 d1b9 fe0f afb9
00000340: 63c6 f2b9 4cbf 1eba 19de 0cba 14ab 0a3d
00000350: 64f2 5f3b 3a07 09b9 2371 48b9 606d 91b9
00000360: a1e9 7c3a ef1b 0eba ae77 0dba 3d70 483b
00000370: b870 473b 6f15 643c a52e 29b9 6275 003c
00000380: ca0b 1aba 55ac 543c 0ac8 80b9 885b 8a3c
00000390: 42bc 1fba 7f0c 423b a682 283c 8ed7 1e3c
000003a0: c438 0c3c 48fe 0fba fa25 14ba 10be 203b
000003b0: d85c 17ba 5e01 f43b e96c 90b9 3f76 2fb9
000003c0: c751 10ba 0818 c9b9 deaa 0eba 51ed c03c
000003d0: f133 943b a0de 313c 1fd9 15ba ff91 553c
000003e0: 7fa1 95b9 2366 1eba f843 a63c 226d 1aba
000003f0: 5565 f7b9 61eb 1dba bb6b e13b c7ef 90b9
