Assets/IA/Pruebas/results/Pad13/PadBehavior/PadBehavior.onnx (onnx, 75090 bytes, 5 tensors)

network_body._body_endoder.seq_layers.0.weight f4 [128, 7]
00000000: cf99 89be ea9e a73e c4f2 433e d721 c6bd
00000010: 22fe 12be ab8f 58bd a1ac 0cbf 803c d1bd
00000020: 1149 54be 7720 e1be f3d3 0fbd cd2b dd3d
00000030: 4005 8dbe 94b5 e1be dd82 43be c9ea 283f
00000040: ccc5 88be c252 033e 2524 a53e ce33 9c3e
00000050: 442b 77be ca72 7cbe 9a71 3fbe 8631 c0bc
00000060: f583 ea3e 3a70 4b3a c3cc a6b9 f61d 753e
00000070: 2ea5 11bf 2d62 c23e 8000 80bc 940b 02be
00000080: ce22 eb3e bcf5 5ebe 83a4 3e3e 58b6 19be
00000090: 9b94 403e 346a 1a3f 8a2d 25bf 7355 9bbd
000000a0: cf0f cf3d 37f0 393e dcd4 b93e c077 3fbd
000000b0: 56d9 39bf 4656 16bf 83a5 6bbf 9ebc 2abf
000000c0: 0c20 d73c 12ba 50bf 6a2a 453f 2198 e73d
000000d0: 668e 193f da82 3b3f 1cd4 0f3e 1ad6 a3be
000000e0: 59c1 7c3f 6129 19bf ad45 253f d4f9 67be
000000f0: ea2b d03e 2a15 433e f9ff 99bd 7337 a2be
00000100: e725 acbe cd54 443f dbed bdbd 9460 303c
00000110: f46a aa3d c98f e83d 9fa3 793e 3e89 2bbe
00000120: dcc7 e2bc e145 813e 5d34 82be d46b 7dbe
00000130: 7dbb 1abd fb38 973e 2b0c 073f 0301 273e
00000140: 2d8b 24bf 6048 e9be 345a 8ebe 49f1 3ebd
00000150: 5e13 afbe eeb0 6fbf 648e dfbc a000 c0be
00000160: 01d2 afbe 468f 9e3e 09af ef3e 4a3f ca3d
00000170: 801d c9be e563 413f ec0a 283e 10c4 e2be
00000180: 9f7d c33d ce78 b73a feeb 353e 166a 5b3e
00000190: 5934 0c3f 59be 1b3c 7dde d7be a27e 9abe
000001a0: f8dd ae3e 44a3 babe 4fad e53e 5146 b4bd
000001b0: 4e46 86be 6fd2 943d 83f4 5b3e e1d6 0cbe
000001c0: 3278 94bc 3b63 a0bc ed73 543e 8e6f 053f
000001d0: e3da d63e 0c63 1dbf fcc4 f83d 3a57 10bc
000001e0: 4296 853f bf84 ebbe 6e8e 09be 360e adbe
000001f0: b017 e43e c6e1 a3bd 977b cabe d517 8d3e
00000200: 13a2 313d 8a47 093e f194 813f ce62 22be
00000210: 1820 763e e6da a3be 2f62 273f e1ca 2dbf
00000220: 43e1 103e 4935 1cbf 9c73 503e 09fc 193e
00000230: 1067 20be 74f6 2ebf d0d6 d33d b363 b53d
00000240: 8741 81be 5a24 423e 606e 4bbe 31bd 463f
00000250: c6fc 423e 3487 963e 020c fcbe a710 41be
00000260: f57d 0e3e 9bd2 15bf 8da3 0f3e e3cc 303f
00000270: cbd7 4cbd 2638 7b3e b9f1 853e 8a02 76bd
00000280: 4a02 bfbe 7e4a 1ebf e992 4f3f 1e03 4fbf
00000290: 1e67 a53d 26ab fabc 2865 343c 83a5 f63e
000002a0: 4cce b8bd 6cdc 0f3f 2dc6 8e3d 1477 cabe
000002b0: 038a 0c3e f35e 46be ba02 4f3e fd8f 07bf
000002c0: e482 853e 3592 1bbf 5682 d53e 2c36 3dbf
000002d0: b782 edbe 7a9d 20bf 8c48 17bf 7455 00bf
000002e0: b140 d93c c523 303f 7db5 6b3d b02e 23be
000002f0: 720f 92bb 7107 473e 998c 85be fedf 65be
00000300: 3f82 2abf 116a ff3c bff5 133e cc6b 1c3f
00000310: 7d49 a53e d9a8 233d e8a7 0a3f 9fe6 adbd
00000320: 23c9 87be 4e7a 34be 1e98 f7be c506 3cbf
00000330: 4bb3 633d a729 8cbe a4a2 693e d812 623e
00000340: eb08 fb3e be76 9d3d 0221 9abf 17c9 81bf
00000350: 48da 9abf c953 093f 4564 bb3e 5a9a 0ebe
00000360: a25b f2bd ecfe 093f 7a8b 81be ab81 6b3f
00000370: c941 b4be a804 c83e 6cb5 7d3d 210f a4be
00000380: b5a3 4abe cd86 68be 5f14 343e c671 8b3d
00000390: 1cd9 203e bd66 67be 0687 a73d 149d f03e
000003a0: 877b 34bf d7af ba3d 6727 06bc 8b60 8ebe
000003b0: 39df 653e 3bf7 0dbe 4c54 59bc 7889 fe3e
000003c0: 2438 3c3f 1c9f 63be 56a0 393f 7287 c2bd
000003d0: 2066 1ebe 15dd bebd 5f80 15bf 620a d9bc
000003e0: 176e 99bd bf34 4e3d e187 133f a028 2e3f
000003f0: db0d 963e ffb4 aabd 1abb 5c3e b9ee abbd
-0.2687516 0.3273843 0.19135576 -0.09674423 -0.14354756 -0.052871387 -0.5495091 -0.102166176
-0.20730998 -0.4397008 -0.03511424 0.1079937 -0.27543068 -0.44083846 -0.19092889 0.65983254
-0.26713407 0.12824538 0.3225414 0.30508274 -0.24137598 -0.24653164 -0.1869568 -0.023461115
0.458038 0.00077605585 -0.00031814547 0.2393721 -0.5689267 0.37965527 -0.015625238 -0.12699729
0.4592499 -0.21773428 0.18617444 -0.15010965 0.18806688 0.60318303 -0.6452261 -0.075846575
0.10110437 0.18158041 0.3629521 -0.046745062 -0.72597253 -0.5872539 -0.92049426 -0.66694057
0.026260398 -0.8153392 0.77017844 0.11308313 0.5998291 0.7324654 0.14045757 -0.31999284
0.98732525 -0.59828764 0.6455944 -0.22653896 0.40658504 0.19051042 -0.07519526 -0.3168293
-0.33622667 0.76691896 -0.09273883 0.0107652135 0.08321181 0.1135555 0.24378823 -0.16751572
-0.027683191 0.25248626 -0.25430575 -0.24748164 -0.03777646 0.2953566 0.5275294 0.1630898
-0.64274865 -0.4556303 -0.27803195 -0.046616826 -0.34194463 -0.9362935 -0.027289577 -0.37500477
-0.34339908 0.30968684 0.4681323 0.09875353 -0.3928032 0.7554305 0.16410416 -0.4429021
0.09545445 0.0013997795 0.17765805 0.21427187 0.54767376 0.009505832 -0.42161933 -0.30174738
0.34153724 -0.36452687 0.44858786 -0.08802474 -0.26225513 0.072666995 0.21479993 -0.13753845
-0.01812372 -0.019578567 0.20747347 0.52123344 0.41963872 -0.6147926 0.12146947 -0.008809859
1.043648 -0.45999715 -0.13433239 -0.33799905 0.44549322 -0.08002047 -0.39547417 0.27557245
0.043367457 0.13406196 1.0123578 -0.15858003 0.2403568 -0.32002944 0.6538419 -0.67887694
0.1414843 -0.61018807 0.20356601 0.1503755 -0.15664315 -0.6834481 0.103437066 0.08856907
-0.25245306 0.1895918 -0.19866323 0.77632433 0.19041738 0.29400027 -0.4922791 -0.18854009
0.13915236 -0.58524483 0.14027233 0.6906263 -0.050010484 0.24533138 0.26160982 -0.060061015
-0.37306434 -0.61832416 0.8108354 -0.8086413 0.08076309 -0.030599188 0.011010446 0.4817315
-0.09023723 0.5619571 0.06971393 -0.39543974 0.13724522 -0.19372158 0.20215884 -0.52954084
0.26076424 -0.6076997 0.41701 -0.73910785 -0.4638879 -0.6274029 -0.5909507 -0.5013039
0.026520105 0.6880458 0.057546128 -0.15935779 -0.0044574076 0.19436432 -0.2608383 -0.22448727
-0.6660499 0.031178506 0.14449213 0.61101985 0.3228263 0.039955948 0.54162455 -0.08491253
-0.26520643 -0.1762478 -0.48358244 -0.7344783 0.05559091 -0.27375528 0.22815949 0.22077501
0.4903024 0.07688664 -1.2041323 -1.0139493 -1.2097864 0.5364347 0.36599937 -0.13926068
-0.11833884 0.53904605 -0.25301725 0.9199473 -0.3520644 0.39066052 0.061940596 -0.32042792
-0.19789012 -0.22707672 0.17585896 0.0680881 0.1570782 -0.22597785 0.081800506 0.4699484
-0.7050099 0.0911557 -0.008188105 -0.2780803 0.22448434 -0.13863842 -0.013264727 0.49714255
0.73523164 -0.22228664 0.7251028 -0.094984904 -0.15468645 -0.09319512 -0.58399004 -0.026494209
-0.07491701 0.05034327 0.5762921 0.6803074 0.29307446 -0.083353035 0.21555749 -0.08395142

network_body._body_endoder.seq_layers.0.bias f4 [128]
00000000: c982 93bc 1f3c 0bbc 66dc 19bd 9792 c93c
00000010: 7827 83bc 96d2 b0bb d897 81bd 6b33 933c
00000020: 22af fa3c 8f48 c5bc b7b5 62bd 2ada 36bc
00000030: ccf0 c23b 9ef4 953b 7178 82bd 0423 96bc
00000040: 5423 33bd 8626 08bd 6ec8 fc3c ca99 e2bc
00000050: 7d6a 82bc 97fe f13c 3098 dc3c ea8a 843d
00000060: d822 a4bc d8e7 803b 5c29 3c3d 276b b0bd
00000070: 5cf5 993a 96a1 39bd 22f8 c83d 2b28 783d
00000080: 92f7 b8bd e440 74bc d113 8d38 30de c0bc
00000090: 61a0 d9bc 82c0 a1bc 5305 2b3c 620d 463c
000000a0: 78c8 0bbd 86c5 d6bd de1a 09bd 045f e2bb
000000b0: 928f 06be b9b1 80bd e710 59bc 85c2 70bd
000000c0: 80a0 b5bc eea8 28bc 4532 f4bb dd00 3abd
000000d0: df12 16bd 9956 77bd 0080 263d 016d 9fbd
000000e0: 83e1 d03c c941 91bc 46cb 86bd bf07 7b3c
000000f0: 2138 a8bc 3075 c03c c3f4 b5bd 5168 85bd
00000100: 1455 e4bb 1717 113d ac71 96bc f10c 96bd
00000110: 0ba5 5c3d 4764 343d 0124 93bd 1594 fdbc
00000120: 9501 bdbd bea2 70bd be06 79bd 806d a7bc
00000130: 482d 0c3c 9716 25bc a4b7 c03c 145f 88bb
00000140: a33a 10bd 94fe c33c 043d e93c 05ff 183d
00000150: d42f 76bd 5559 d6bc b55d 993c 7f9a 7c3c
00000160: 7625 6bbd ffd5 15bd a348 b6bc ef29 3f3c
00000170: 4288 08bd 85e7 9abb 43f4 c0bd 7508 1bbd
00000180: 3f1f 23bd 3004 15bd 5e54 92bc 7f81 56bd
00000190: fd8c 51bd 8b2f 90bb 736c 63bc f2ae 1abd
000001a0: b3dd 15bd dd7a 983c 0ba1 253d 321e 12bd
000001b0: eaa0 d8bc 74cb 043c 35db 07bd dbd2 2b3d
000001c0: 550d d43b d0f3 69bd a977 d6bd e7a1 9fbc
000001d0: 59db a1ba c500 aabc c9d2 aabc 017d 1cbd
000001e0: c7e0 2abd bc45 debc 8148 8ebc 0ab3 40bd
000001f0: bb4c 07bd 9639 403b 3dd3 02bd 25dc 4d3d
-0.0180067 -0.008498221 -0.037563704 0.024606032 -0.016010031 -0.0053961975 -0.0632779 0.017968854
0.030601088 -0.02408245 -0.055349078 -0.011160413 0.0059491154 0.00457628 -0.063706286 -0.018327244
-0.043734863 -0.033239864 0.030857291 -0.027661223 -0.015919918 0.029540343 0.026928037 0.06471808
-0.020036146 0.003933888 0.04593788 -0.08614188 0.0011746096 -0.045320116 0.098129526 0.060585182
-0.09031595 -0.014908049 6.727095e-05 -0.023543447 -0.026565732 -0.019745115 0.010438281 0.012088152
-0.03412673 -0.10486893 -0.03347289 -0.0069082994 -0.13140705 -0.06283898 -0.013248659 -0.05877926
-0.022171259 -0.010294182 -0.0074522817 -0.04541098 -0.03663909 -0.06038532 0.040649414 -0.07784463
0.025498157 -0.017731564 -0.0658174 0.015321671 -0.020534577 0.02349338 -0.08884575 -0.065140374
-0.00696815 0.03542241 -0.01836475 -0.07326687 0.053868335 0.044040944 -0.071846016 -0.0309544
-0.092288174 -0.058748953 -0.060797445 -0.020437956 0.008555718 -0.010076187 0.023525067 -0.004161725
-0.03521217 0.023925103 0.028471477 0.03735258 -0.060104206 -0.026165644 0.01872144 0.015417694
-0.057408772 -0.036581036 -0.022251433 0.011667713 -0.03333307 -0.0047273063 -0.09421589 -0.037849862
-0.03982472 -0.036380947 -0.017862495 -0.05236959 -0.051159848 -0.004400199 -0.013880837 -0.037764497
-0.036588382 0.018613273 0.040436786 -0.035673328 -0.026443917 0.008105148 -0.033168036 0.041949134
0.006471316 -0.057117283 -0.10472042 -0.01948638 -0.0012348696 -0.02075232 -0.020852463 -0.03820515
-0.04171827 -0.027132861 -0.017368557 -0.047045745 -0.03303216 0.00293312 -0.031939734 0.050258774

network_body._body_endoder.seq_layers.2.weight f4 [128, 128]
00000000: 6947 26bd 33aa 043c 376b 8b3c 5c3a a33c
00000010: a17e adbd 0ca4 6ebb dc8e ae3d 3021 92bd
00000020: dad5 013e 433a 6a3e d746 41bd 98ad 12be
00000030: 21a3 debd bb49 973d 265f 07be f3b1 75bd
00000040: 89d4 40bd 36bd 9ebd 50a4 2cbe cee8 033c
00000050: c688 803b 1dd6 a73d 9c3b ecbd a95c d5bd
00000060: dbf8 183d 8e51 d7bd 674f 733d b2a0 40bd
00000070: b60a 123e 1e47 45be cbae 0f3d d5ab 243e
00000080: a557 9abd b69e 7c3d 6ac0 70bd 3cb8 033b
00000090: e25d 873d d2bf 42be 15a1 c23d 1c58 213d
000000a0: b59e 06bd f49c 4d3d 9256 c0bd f6d9 3ebe
000000b0: f76a 8b3d a0b5 a5bd d30b 453d c3de 6cbd
000000c0: 2936 6d3d ea5a 153d a84e 35be d5f5 18be
000000d0: 21d4 243e ae15 923e feea 093d a025 223e
000000e0: efff 873c 5c15 a3bc a564 01be 92fc 0fbe
000000f0: b0eb 683d 5f63 3ebe f221 bcba 03b7 12be
00000100: a727 01bd 8ff2 ac3d eb4b 2ebe a709 2cbd
00000110: 10be 7cbd 0684 b6bd 9f48 efbd 1a25 84bd
00000120: b792 d4bd c891 dc3d d28f e83c a474 0b3e
00000130: e0e4 203d 5418 9dbd fef6 403d 2f3c e13d
00000140: c84d 1ebd 1da0 01be 6877 663d 1d4c 28bc
00000150: 5dde 37be a7b1 483e 0f99 1b3d 77bc f53c
00000160: 0469 b3bd 51a3 99bd 2e42 103d fcf3 d03c
00000170: 6b60 58be 5346 ea3d dfdf 9c3d 3824 78bd
00000180: afb1 09be dff2 db3c 1a5a a63a c331 253e
00000190: b59c 72bd 2577 ea3b a54a d3bd 0493 bbbd
000001a0: 3b6d e2bd 8ff9 9c3d 9eeb 303c 1bf3 cf3c
000001b0: 7b6c 823e 27f7 babd fc6c a43d 513b 9f3d
000001c0: 1c71 4d3d c6f0 06bd 2ca9 95bc 7ad8 aa3a
000001d0: 9b71 333d c46b 17bc df69 9b3d 29ee 3dbd
000001e0: 319b 33bc 7a1d fa3d 4317 24ba 19b8 a63c
000001f0: eed6 ef3d ad81 313e cf3b ba3c 83ed 23bd
00000200: 896a cebb 02c4 85bc 7fd1 bbba 4f19 0a3e
00000210: 23e3 4abc 00df 4dbe dbb1 4dbd 74ef b83d
00000220: 9768 16bc 446d f7bd 52de fbbd 9c63 29be
00000230: de5d 503d 024b ad3d 5b8e d1bd 201e 293c
00000240: 2456 8cbd f88a 70bd 5c71 ed3a 6fb1 363d
00000250: 126e d53c d582 4c3d 000c 813d 2cf8 803d
00000260: bb2e 8d3c 97e9 dfbd e981 64bd f3d1 11bd
00000270: 3831 a63d a003 5f3b 0cbb 1f3d 27bd b3bd
00000280: 3e44 193b 45f9 1ebd f481 bf3d 80f5 d0bd
00000290: 2345 b4bd 1a30 0fbe 1909 39be 7be3 ac3c
000002a0: e89d 083d 9dff 54bd 9038 f0bc 528e 443c
000002b0: 72ad 4b3c a0ed 6ebd 9ec4 c5bd 50c6 41bc
000002c0: fbe2 aebd 6b95 0e3e 6833 b33c 4741 96bd
000002d0: 5f5c d4bd b194 26bd 676f a13d fd9e 2dbe
000002e0: 6d41 263d 135c 863c 243c 503e a3eb 8ebd
000002f0: 9a66 73bd 4acb 123d d89b 4fbd 7ce3 a1bd
00000300: b83f 2a3e de76 24be 040f 093d cdf2 27be
00000310: 9a62 32bd da15 c9bd b24a 453e 4f3d 4bbe
00000320: 9af7 66bd 3c3a 003d a239 13be 9188 c73d
00000330: a7dc 34be cdc0 20be e943 25be 0425 8f3d
00000340: 0b06 4cbd 47f8 ecbc e1e8 8dbc 6149 2c3d
00000350: 1dd4 2dbe 9338 b6bd 5be9 8cbd 4780 f7bc
00000360: 7dac 56bd 23b9 c33d 48b1 f6bd fb84 943d
00000370: 8364 81bd f820 0dbe 842f 29bd 28dc a6bd
00000380: 291e 1dbc 4dc3 adbd c8a2 27be 6d7e 8f3d
00000390: 62c9 59be 9368 a1bb 6b39 11bd 2ecd 823d
000003a0: b654 c8bd 15db 7f3d b6de 5fbd cbd0 84bd
000003b0: 8530 883d 7c18 aa3c 9c8a a6bc b751 f5bd
000003c0: 540c 14bd df46 c3bd 7978 9bbd 065b 01be
000003d0: 94ff f93c 0b87 87bd f9ff f1bd 6dc5 2ebc
000003e0: 4d5e b5bd 03ae 5c3d 8125 853d 1c14 fe3b
000003f0: fd3f fdbc 2cd8 f93b 142d 3f3c b2ad 5c3e
-0.040595446 0.008097219 0.017018897 0.019925289 -0.08471418 -0.0036413698 0.08523342 -0.07135236
0.12679234 0.22873788 -0.0471867 -0.14324033 -0.10870958 0.0738711 -0.1321989 -0.05998416
-0.04707769 -0.07750933 -0.16859555 0.00805111 0.0039225547 0.08195136 -0.11534807 -0.10418064
0.037346702 -0.10513602 0.059401896 -0.04702825 0.14261898 -0.1926541 0.035078805 0.16081174
-0.07536248 0.061674796 -0.05877725 0.0020098826 0.066097036 -0.19018486 0.0950338 0.03939067
-0.0328662 0.05019851 -0.09391512 -0.18637833 0.06807511 -0.08091283 0.04810698 -0.05782963
0.05791298 0.036463656 -0.17705786 -0.14937527 0.16096546 0.28532165 0.03367137 0.15834665
0.01660153 -0.019907646 -0.12636049 -0.14061192 0.056865394 -0.18592595 -0.0014353378 -0.14327626
-0.031531956 0.08444702 -0.17021148 -0.042001393 -0.061704695 -0.089119 -0.11683773 -0.06452389
-0.10379546 0.10769993 0.028388891 0.13618714 0.039280772 -0.07670656 0.04711055 0.10997807
-0.038648397 -0.12658735 0.05626622 -0.010272053 -0.17955919 0.19599019 0.037987765 0.029997094
-0.087602645 -0.07501853 0.035219364 0.025506966 -0.2113053 0.114391945 0.076598875 -0.060581416
-0.13446687 0.026849208 0.0012691647 0.16132264 -0.05923148 0.0071553164 -0.10316972 -0.091589004
-0.1105599 0.07664787 0.010798363 0.025384476 0.2547339 -0.09129172 0.080285996 0.077749856
0.050156698 -0.032944463 -0.018269144 0.0013034486 0.043809514 -0.009242002 0.07588553 -0.046369705
-0.0109622935 0.122126535 -0.000625957 0.020351456 0.117109165 0.17334624 0.022733597 -0.04002143
-0.006299321 -0.016328815 -0.0014329402 0.13486217 -0.012383255 -0.20104599 -0.050218444 0.09030047
-0.00918021 -0.12081388 -0.122982636 -0.16541904 0.05087077 0.08461572 -0.1023223 0.010322124
-0.068523675 -0.05872628 0.0018115449 0.044602808 0.026053462 0.04992946 0.06301117 0.06297335
0.017234197 -0.109332256 -0.055787954 -0.035600614 0.081148565 0.003402926 0.03899674 -0.08776312
0.0023386623 -0.03881194 0.093509585 -0.102030754 -0.08802249 -0.13983193 -0.18069877 0.021104565
0.033353716 -0.052001584 -0.029323846 0.011996822 0.012431489 -0.058332086 -0.096566424 -0.011827067
-0.08539387 0.13924186 0.021875098 -0.073366694 -0.10369181 -0.040669147 0.078825764 -0.1695518
0.04058974 0.016401326 0.20335442 -0.06978538 -0.05942402 0.035838403 -0.050685734 -0.07904717
0.1662587 -0.16060969 0.033461586 -0.16401215 -0.043551065 -0.09818621 0.19266775 -0.19847606
-0.056388475 0.031305537 -0.14377454 0.09742845 -0.17662297 -0.15698548 -0.16139187 0.06989482
-0.04981045 -0.028926982 -0.01732296 0.042062167 -0.16975446 -0.088975094 -0.068804465 -0.030212535
-0.05241059 0.095567964 -0.120455325 0.072519265 -0.06317999 -0.13782108 -0.04130508 -0.0814746
-0.00958971 -0.08484516 -0.1637069 0.07006536 -0.21268228 -0.0049257963 -0.03545515 0.06386791
-0.09781782 0.062464792 -0.054655753 -0.064851366 0.06649879 0.020763628 -0.020329766 -0.119784765
-0.03614457 -0.09535002 -0.07591338 -0.12632379 0.030517377 -0.06617554 -0.11816401 -0.010667187
-0.08855877 0.053876888 0.06501294 0.007753862 -0.030914301 0.0076246466 0.011668462 0.21550635

network_body._body_endoder.seq_layers.2.bias f4 [128]
00000000: b626 61bc 4538 59bc 07ef ccbc fb04 19bd
00000010: f386 b0bc fae1 cb3c 128e babc 8f2e 03bb
00000020: 76a0 17bd 230f bcbc 5768 e83b 2320 16bd
00000030: 6f74 02bd d5aa 29bd 0811 d03b d0c9 27bc
00000040: 328a 19bc 2725 853c 9627 9dbb ade4 c9bc
00000050: 10cd a8bc 2312 3d3a 251b 9fbc 5f2a 36bc
00000060: 127d 87bc 80b0 87bc c2cb e7bc 7b94 813c
00000070: 6819 1fbe b106 ea3b cf99 a5bd 23ca 19bc
00000080: 733a 2bbd 23dc 88bc 3127 8cbc e4c3 94bc
00000090: 9f7e b3bc 9046 0abc 17d2 4f3c 77d8 bcbc
000000a0: 1e7f fd3c 677a 73bb 3020 e0bb 3059 e1bc
000000b0: b069 69bd ea67 eebb ad46 b23b 4249 ad39
000000c0: 24d8 0cbc 26a8 273c c9c3 d1bb 8fb6 55bd
000000d0: 456b b7bc 2db3 4bbd a438 1dbc c762 a5bc
000000e0: 1830 873c c6cf 0fbc 17a0 b1bc e0b7 afbd
000000f0: bfde fd3b d90d 3dbd 153d 94ba 7e23 02bb
00000100: 42ef 15bd 2646 1fbb fe98 46bd 2e0a 62bd
00000110: a0e6 b53c 897d 20bc 0d2f fcbc 66da 24bb
00000120: ec6b 9a3b deac 95bc 3c4d 3dba 9a64 baba
00000130: f26e 0abc 09a2 92bc 2906 823c 2529 86bc
00000140: 3fb0 78bc 1b29 cebc 97c0 28bd 109b 05bd
00000150: 7da4 3cbd ed0b 0ebb 7a90 51bc 9bbf febc
00000160: 8ca0 06bc 10eb 55bd 375f c93a c349 0fbc
00000170: 7f7e 33be de36 bbbc 8def be3c cea0 5bbc
00000180: a1cd d53a 1b8e 67bc 1b08 51bc ce14 acbc
00000190: b85b fabc f68c 94bb 2c89 a5bc d8f7 37bd
000001a0: bf37 13bc 80ec 94bc e99a 83bc b543 49bc
000001b0: 202c 143c 2e41 873c 6dd3 2dba b12b b6bc
000001c0: 657d b23c b967 adbc 8a45 fdbc 7e43 a4bc
000001d0: 2c82 923c 7dbb a3bc 45ae ddbc 89de c5bc
000001e0: 639e 79bc 8b6d 18bd 3164 99bc f3b3 db3c
000001f0: 66c7 80bc 4e7a 7fbb a938 1abc 5013 2dbd
-0.01374214 -0.013258045 -0.02501632 -0.037358265 -0.021548724 0.024888027 -0.022772823 -0.0020016765
-0.03701826 -0.022956436 0.0070925164 -0.03665174 -0.03184932 -0.041422684 0.0063496865 -0.010240987
-0.009371327 0.016253067 -0.004795979 -0.024645174 -0.020605594 0.00072124804 -0.019422123 -0.0111185005
-0.01653913 -0.016563654 -0.028295401 0.015817871 -0.15537035 0.007141911 -0.08085977 -0.009386572
-0.04180379 -0.016706532 -0.017108532 -0.018159814 -0.021910964 -0.008439675 0.012684367 -0.023052437
0.030944403 -0.0037151815 -0.0068397745 -0.027508348 -0.056985557 -0.007275571 0.005440554 0.00033051713
-0.008596454 0.010232961 -0.0064015132 -0.052176055 -0.022390017 -0.049731422 -0.009596024 -0.020188702
0.016502425 -0.008777564 -0.021682782 -0.08579993 0.0077475007 -0.046155784 -0.0011309708 -0.001985758
-0.036605127 -0.0024303286 -0.04848575 -0.05518549 0.022204697 -0.009795555 -0.030784154 -0.002515459
0.0047125723 -0.018270906 -0.00072212867 -0.0014220655 -0.008449303 -0.01789953 0.015872078 -0.016377041
-0.015178739 -0.025166085 -0.041199293 -0.032618582 -0.046055306 -0.0021674589 -0.012790794 -0.031097224
-0.008216988 -0.052226126 0.0015363459 -0.0087456135 -0.17528723 -0.022853311 0.023307586 -0.013405038
0.0016311893 -0.014133002 -0.01275828 -0.021006014 -0.030561313 -0.0045334054 -0.02020701 -0.044914097
-0.008985459 -0.018179178 -0.016065078 -0.012284209 0.009043723 0.016510572 -0.0006630931 -0.02223763
0.021788308 -0.021167623 -0.030916948 -0.020051714 0.017884336 -0.019986862 -0.027060637 -0.024153965
-0.015235516 -0.037213843 -0.018724533 0.026819205 -0.01572008 -0.0038982811 -0.009412923 -0.042254746

action_model._continuous_distribution.mu.weight f4 [1, 128]
00000000: 59ee 0cbd 0628 43bc 2aed b7bc ac4b ddbc
00000010: ed0b 3cbd 3acc a3bd c772 e03c 74f8 423d
00000020: aaba cb3b 5fea 2a3d bcc9 37bd a56c 8a3c
00000030: aeda e6bc 8d14 aebb 018e 4fbd 02f2 6abd
00000040: ee09 b7bc c417 453d 8747 773d 0d40 243a
00000050: ec34 723d 8ddb e5bc 16cf 553d 93b0 17bd
00000060: 1b42 30bd cec0 95bc 2fe4 fa3b 61d1 243d
00000070: 6200 6bbb 1fa6 53bd e597 523c 90d8 2a3d
00000080: 3e4f 783c 19b2 9bbc e1a6 053d baa7 303d
00000090: f12a 9cbc 4f34 5a3d 55ce cc3d 0d88 21bb
000000a0: 46ba 87bd fb12 d83c ab12 d2bc 43ca 363d
000000b0: 8f9d 023c 2067 4b3d c438 803d d3e6 4b3d
000000c0: e081 55bd b6ad a73d b1be 41bd 073b c8bb
000000d0: 6191 093d 415b c33b 9039 93bc 9c36 7fbd
000000e0: 3993 cfbd 8580 9e3c 76e9 a1bb c251 8b3b
000000f0: 6f65 9f3d 6c9e babc 3509 2fbd b876 8dbd
00000100: 9977 86bc bb36 143d d2c7 823c fde8 aab9
00000110: aaa2 89bd 6e45 853b e39f 8ebc 4b08 d9bc
00000120: 93f7 713d bab9 943c 8cb7 4abd a511 5dbd
00000130: a8cb 29bd 8ee7 f6bc 476f cd3d 0ecc 47bd
00000140: 09ec 5d3d 4678 23bd 1632 1abb 121b bfbb
00000150: 825c d73b db17 d43d 0b16 e3bc 185f 77bc
00000160: 35f9 453d 8195 c6bb 0232 8e3d d559 823d
00000170: ed3a 4dbb d97b 8a3b 375e b0bd a1c4 02bd
00000180: bee8 73bb bac4 0abd ef9e 25bd 298c 53bb
00000190: a5de a2bc 0092 2c3d ec3b 7c3c a786 7d3d
000001a0: ce55 5abd 314a 1cbc 34dc 28bd d6aa 693d
000001b0: ed56 093d 42c0 d1bd 87e9 983c a663 efbb
000001c0: 6c50 2f3e aaef 0bbd 5f91 bd3b 0e09 3f3c
000001d0: e580 3fbd e17a ab3c 0057 0f3d 06e7 743c
000001e0: 262f a5bb 94ac dbbc 7547 0fbd 7cf0 13bd
000001f0: 79dd 413d 2b90 1a3d 05de 92bc 5909 6f3c
-0.034406994 -0.011911398 -0.022451956 -0.027013622 -0.04590981 -0.079979375 0.02739848 0.047600225
0.0062173204 0.04172742 -0.044870123 0.016897509 -0.028180446 -0.0053125084 -0.050672535 -0.057359703
-0.022343602 0.048118368 0.06037095 0.0006265648 0.0591325 -0.028058792 0.052199446 -0.03703363
-0.043031793 -0.018280413 0.007656596 0.04023874 -0.0035858382 -0.051672097 0.012853597 0.041710436
0.015155612 -0.019005822 0.03262985 0.043128707 -0.019063445 0.05327254 0.10000292 -0.0024647743
-0.06627326 0.026376238 -0.025643667 0.044626486 0.007972135 0.049658895 0.06260827 0.049780678
-0.05212581 0.081874296 -0.047300998 -0.006110552 0.03358591 0.005961806 -0.017971784 -0.06230794
-0.10135502 0.019348392 -0.004941161 0.0042516897 0.07783019 -0.02278062 -0.04273339 -0.069074094
-0.01641445 0.036185008 0.015964422 -0.00032598517 -0.06720479 0.0040671146 -0.017410224 -0.026493212
0.059073996 0.018154968 -0.04949145 -0.053971905 -0.041453987 -0.03013971 0.1003099 -0.048778586
0.05418018 -0.039909624 -0.0023528389 -0.0058320845 0.006572307 0.103561126 -0.027720472 -0.015098356
0.048333365 -0.0060603027 0.06943132 0.0636479 -0.003131564 0.0042261896 -0.0861172 -0.0319258
-0.0037217583 -0.03387902 -0.040434774 -0.0032279587 -0.019881556 0.042131424 0.015395146 0.061895993
-0.053304486 -0.009539173 -0.041225627 0.057047687 0.033530165 -0.102417484 0.018666042 -0.00730558
0.17120522 -0.03416411 0.005785152 0.011659874 -0.046753783 0.020932617 0.03499508 0.014947658
-0.005041021 -0.02681569 -0.034980256 -0.036118016 0.047330353 0.037735146 -0.017928133 0.014589631
