Assets/IA/Pruebas/results/Pad13/PadBehavior/PadBehavior-200006.pt (torch, 444669 bytes, 30 tensors)

network_body._body_endoder.seq_layers.0.weight f4 [128, 7]
000000 cf 99 89 be ea 9e a7 3e c4 f2 43 3e d7 21 c6 bd
       -0.2687516 0.3273843 0.19135576 -0.09674423
000010 22 fe 12 be ab 8f 58 bd a1 ac 0c bf 80 3c d1 bd
       -0.14354756 -0.052871387 -0.5495091 -0.102166176
000020 11 49 54 be 77 20 e1 be f3 d3 0f bd cd 2b dd 3d
       -0.20730998 -0.4397008 -0.03511424 0.1079937
000030 40 05 8d be 94 b5 e1 be dd 82 43 be c9 ea 28 3f
       -0.27543068 -0.44083846 -0.19092889 0.65983254
000040 cc c5 88 be c2 52 03 3e 25 24 a5 3e ce 33 9c 3e
       -0.26713407 0.12824538 0.3225414 0.30508274
000050 44 2b 77 be ca 72 7c be 9a 71 3f be 86 31 c0 bc
       -0.24137598 -0.24653164 -0.1869568 -0.023461115
000060 f5 83 ea 3e 3a 70 4b 3a c3 cc a6 b9 f6 1d 75 3e
       0.458038 0.00077605585 -0.00031814547 0.2393721
000070 2e a5 11 bf 2d 62 c2 3e 80 00 80 bc 94 0b 02 be
       -0.5689267 0.37965527 -0.015625238 -0.12699729
000080 ce 22 eb 3e bc f5 5e be 83 a4 3e 3e 58 b6 19 be
       0.4592499 -0.21773428 0.18617444 -0.15010965
000090 9b 94 40 3e 34 6a 1a 3f 8a 2d 25 bf 73 55 9b bd
       0.18806688 0.60318303 -0.6452261 -0.075846575
0000a0 cf 0f cf 3d 37 f0 39 3e dc d4 b9 3e c0 77 3f bd
       0.10110437 0.18158041 0.3629521 -0.046745062
0000b0 56 d9 39 bf 46 56 16 bf 83 a5 6b bf 9e bc 2a bf
       -0.72597253 -0.5872539 -0.92049426 -0.66694057
0000c0 0c 20 d7 3c 12 ba 50 bf 6a 2a 45 3f 21 98 e7 3d
       0.026260398 -0.8153392 0.77017844 0.11308313
0000d0 66 8e 19 3f da 82 3b 3f 1c d4 0f 3e 1a d6 a3 be
       0.5998291 0.7324654 0.14045757 -0.31999284
0000e0 59 c1 7c 3f 61 29 19 bf ad 45 25 3f d4 f9 67 be
       0.98732525 -0.59828764 0.6455944 -0.22653896
0000f0 ea 2b d0 3e 2a 15 43 3e f9 ff 99 bd 73 37 a2 be
       0.40658504 0.19051042 -0.07519526 -0.3168293
000100 e7 25 ac be cd 54 44 3f db ed bd bd 94 60 30 3c
       -0.33622667 0.76691896 -0.09273883 0.0107652135
000110 f4 6a aa 3d c9 8f e8 3d 9f a3 79 3e 3e 89 2b be
       0.08321181 0.1135555 0.24378823 -0.16751572
000120 dc c7 e2 bc e1 45 81 3e 5d 34 82 be d4 6b 7d be
       -0.027683191 0.25248626 -0.25430575 -0.24748164
000130 7d bb 1a bd fb 38 97 3e 2b 0c 07 3f 03 01 27 3e
       -0.03777646 0.2953566 0.5275294 0.1630898
000140 2d 8b 24 bf 60 48 e9 be 34 5a 8e be 49 f1 3e bd
       -0.64274865 -0.4556303 -0.27803195 -0.046616826
000150 5e 13 af be ee b0 6f bf 64 8e df bc a0 00 c0 be
       -0.34194463 -0.9362935 -0.027289577 -0.37500477
000160 01 d2 af be 46 8f 9e 3e 09 af ef 3e 4a 3f ca 3d
       -0.34339908 0.30968684 0.4681323 0.09875353
000170 80 1d c9 be e5 63 41 3f ec 0a 28 3e 10 c4 e2 be
       -0.3928032 0.7554305 0.16410416 -0.4429021
000180 9f 7d c3 3d ce 78 b7 3a fe eb 35 3e 16 6a 5b 3e
       0.09545445 0.0013997795 0.17765805 0.21427187
000190 59 34 0c 3f 59 be 1b 3c 7d de d7 be a2 7e 9a be
       0.54767376 0.009505832 -0.42161933 -0.30174738
0001a0 f8 dd ae 3e 44 a3 ba be 4f ad e5 3e 51 46 b4 bd
       0.34153724 -0.36452687 0.44858786 -0.08802474
0001b0 4e 46 86 be 6f d2 94 3d 83 f4 5b 3e e1 d6 0c be
       -0.26225513 0.072666995 0.21479993 -0.13753845
0001c0 32 78 94 bc 3b 63 a0 bc ed 73 54 3e 8e 6f 05 3f
       -0.01812372 -0.019578567 0.20747347 0.52123344
0001d0 e3 da d6 3e 0c 63 1d bf fc c4 f8 3d 3a 57 10 bc
       0.41963872 -0.6147926 0.12146947 -0.008809859
0001e0 42 96 85 3f bf 84 eb be 6e 8e 09 be 36 0e ad be
       1.043648 -0.45999715 -0.13433239 -0.33799905
0001f0 b0 17 e4 3e c6 e1 a3 bd 97 7b ca be d5 17 8d 3e
       0.44549322 -0.08002047 -0.39547417 0.27557245
000200 13 a2 31 3d 8a 47 09 3e f1 94 81 3f ce 62 22 be
       0.043367457 0.13406196 1.0123578 -0.15858003
000210 18 20 76 3e e6 da a3 be 2f 62 27 3f e1 ca 2d bf
       0.2403568 -0.32002944 0.6538419 -0.67887694
000220 43 e1 10 3e 49 35 1c bf 9c 73 50 3e 09 fc 19 3e
       0.1414843 -0.61018807 0.20356601 0.1503755
000230 10 67 20 be 74 f6 2e bf d0 d6 d3 3d b3 63 b5 3d
       -0.15664315 -0.6834481 0.103437066 0.08856907
000240 87 41 81 be 5a 24 42 3e 60 6e 4b be 31 bd 46 3f
       -0.25245306 0.1895918 -0.19866323 0.77632433
000250 c6 fc 42 3e 34 87 96 3e 02 0c fc be a7 10 41 be
       0.19041738 0.29400027 -0.4922791 -0.18854009
000260 f5 7d 0e 3e 9b d2 15 bf 8d a3 0f 3e e3 cc 30 3f
       0.13915236 -0.58524483 0.14027233 0.6906263
000270 cb d7 4c bd 26 38 7b 3e b9 f1 85 3e 8a 02 76 bd
       -0.050010484 0.24533138 0.26160982 -0.060061015
000280 4a 02 bf be 7e 4a 1e bf e9 92 4f 3f 1e 03 4f bf
       -0.37306434 -0.61832416 0.8108354 -0.8086413
000290 1e 67 a5 3d 26 ab fa bc 28 65 34 3c 83 a5 f6 3e
       0.08076309 -0.030599188 0.011010446 0.4817315
0002a0 4c ce b8 bd 6c dc 0f 3f 2d c6 8e 3d 14 77 ca be
       -0.09023723 0.5619571 0.06971393 -0.39543974
0002b0 03 8a 0c 3e f3 5e 46 be ba 02 4f 3e fd 8f 07 bf
       0.13724522 -0.19372158 0.20215884 -0.52954084
0002c0 e4 82 85 3e 35 92 1b bf 56 82 d5 3e 2c 36 3d bf
       0.26076424 -0.6076997 0.41701 -0.73910785
0002d0 b7 82 ed be 7a 9d 20 bf 8c 48 17 bf 74 55 00 bf
       -0.4638879 -0.6274029 -0.5909507 -0.5013039
0002e0 b1 40 d9 3c c5 23 30 3f 7d b5 6b 3d b0 2e 23 be
       0.026520105 0.6880458 0.057546128 -0.15935779
0002f0 72 0f 92 bb 71 07 47 3e 99 8c 85 be fe df 65 be
       -0.0044574076 0.19436432 -0.2608383 -0.22448727
000300 3f 82 2a bf 11 6a ff 3c bf f5 13 3e cc 6b 1c 3f
       -0.6660499 0.031178506 0.14449213 0.61101985
000310 7d 49 a5 3e d9 a8 23 3d e8 a7 0a 3f 9f e6 ad bd
       0.3228263 0.039955948 0.54162455 -0.08491253
000320 23 c9 87 be 4e 7a 34 be 1e 98 f7 be c5 06 3c bf
       -0.26520643 -0.1762478 -0.48358244 -0.7344783
000330 4b b3 63 3d a7 29 8c be a4 a2 69 3e d8 12 62 3e
       0.05559091 -0.27375528 0.22815949 0.22077501
000340 eb 08 fb 3e be 76 9d 3d 02 21 9a bf 17 c9 81 bf
       0.4903024 0.07688664 -1.2041323 -1.0139493
000350 48 da 9a bf c9 53 09 3f 45 64 bb 3e 5a 9a 0e be
       -1.2097864 0.5364347 0.36599937 -0.13926068
000360 a2 5b f2 bd ec fe 09 3f 7a 8b 81 be ab 81 6b 3f
       -0.11833884 0.53904605 -0.25301725 0.9199473
000370 c9 41 b4 be a8 04 c8 3e 6c b5 7d 3d 21 0f a4 be
       -0.3520644 0.39066052 0.061940596 -0.32042792
000380 b5 a3 4a be cd 86 68 be 5f 14 34 3e c6 71 8b 3d
       -0.19789012 -0.22707672 0.17585896 0.0680881
000390 1c d9 20 3e bd 66 67 be 06 87 a7 3d 14 9d f0 3e
       0.1570782 -0.22597785 0.081800506 0.4699484
0003a0 87 7b 34 bf d7 af ba 3d 67 27 06 bc 8b 60 8e be
       -0.7050099 0.0911557 -0.008188105 -0.2780803
0003b0 39 df 65 3e 3b f7 0d be 4c 54 59 bc 78 89 fe 3e
       0.22448434 -0.13863842 -0.013264727 0.49714255
0003c0 24 38 3c 3f 1c 9f 63 be 56 a0 39 3f 72 87 c2 bd
       0.73523164 -0.22228664 0.7251028 -0.094984904
0003d0 20 66 1e be 15 dd be bd 5f 80 15 bf 62 0a d9 bc
       -0.15468645 -0.09319512 -0.58399004 -0.026494209
0003e0 17 6e 99 bd bf 34 4e 3d e1 87 13 3f a0 28 2e 3f
       -0.07491701 0.05034327 0.5762921 0.6803074
0003f0 db 0d 96 3e ff b4 aa bd 1a bb 5c 3e b9 ee ab bd
       0.29307446 -0.083353035 0.21555749 -0.08395142

network_body._body_endoder.seq_layers.0.bias f4 [128]
000000 c9 82 93 bc 1f 3c 0b bc 66 dc 19 bd 97 92 c9 3c
       -0.0180067 -0.008498221 -0.037563704 0.024606032
000010 78 27 83 bc 96 d2 b0 bb d8 97 81 bd 6b 33 93 3c
       -0.016010031 -0.0053961975 -0.0632779 0.017968854
000020 22 af fa 3c 8f 48 c5 bc b7 b5 62 bd 2a da 36 bc
       0.030601088 -0.02408245 -0.055349078 -0.011160413
000030 cc f0 c2 3b 9e f4 95 3b 71 78 82 bd 04 23 96 bc
       0.0059491154 0.00457628 -0.063706286 -0.018327244
000040 54 23 33 bd 86 26 08 bd 6e c8 fc 3c ca 99 e2 bc
       -0.043734863 -0.033239864 0.030857291 -0.027661223
000050 7d 6a 82 bc 97 fe f1 3c 30 98 dc 3c ea 8a 84 3d
       -0.015919918 0.029540343 0.026928037 0.06471808
000060 d8 22 a4 bc d8 e7 80 3b 5c 29 3c 3d 27 6b b0 bd
       -0.020036146 0.003933888 0.04593788 -0.08614188
000070 5c f5 99 3a 96 a1 39 bd 22 f8 c8 3d 2b 28 78 3d
       0.0011746096 -0.045320116 0.098129526 0.060585182
000080 92 f7 b8 bd e4 40 74 bc d1 13 8d 38 30 de c0 bc
       -0.09031595 -0.014908049 6.727095e-05 -0.023543447
000090 61 a0 d9 bc 82 c0 a1 bc 53 05 2b 3c 62 0d 46 3c
       -0.026565732 -0.019745115 0.010438281 0.012088152
0000a0 78 c8 0b bd 86 c5 d6 bd de 1a 09 bd 04 5f e2 bb
       -0.03412673 -0.10486893 -0.03347289 -0.0069082994
0000b0 92 8f 06 be b9 b1 80 bd e7 10 59 bc 85 c2 70 bd
       -0.13140705 -0.06283898 -0.013248659 -0.05877926
0000c0 80 a0 b5 bc ee a8 28 bc 45 32 f4 bb dd 00 3a bd
       -0.022171259 -0.010294182 -0.0074522817 -0.04541098
0000d0 df 12 16 bd 99 56 77 bd 00 80 26 3d 01 6d 9f bd
       -0.03663909 -0.06038532 0.040649414 -0.07784463
0000e0 83 e1 d0 3c c9 41 91 bc 46 cb 86 bd bf 07 7b 3c
       0.025498157 -0.017731564 -0.0658174 0.015321671
0000f0 21 38 a8 bc 30 75 c0 3c c3 f4 b5 bd 51 68 85 bd
       -0.020534577 0.02349338 -0.08884575 -0.065140374
000100 14 55 e4 bb 17 17 11 3d ac 71 96 bc f1 0c 96 bd
       -0.00696815 0.03542241 -0.01836475 -0.07326687
000110 0b a5 5c 3d 47 64 34 3d 01 24 93 bd 15 94 fd bc
       0.053868335 0.044040944 -0.071846016 -0.0309544
000120 95 01 bd bd be a2 70 bd be 06 79 bd 80 6d a7 bc
       -0.092288174 -0.058748953 -0.060797445 -0.020437956
000130 48 2d 0c 3c 97 16 25 bc a4 b7 c0 3c 14 5f 88 bb
       0.008555718 -0.010076187 0.023525067 -0.004161725
000140 a3 3a 10 bd 94 fe c3 3c 04 3d e9 3c 05 ff 18 3d
       -0.03521217 0.023925103 0.028471477 0.03735258
000150 d4 2f 76 bd 55 59 d6 bc b5 5d 99 3c 7f 9a 7c 3c
       -0.060104206 -0.026165644 0.01872144 0.015417694
000160 76 25 6b bd ff d5 15 bd a3 48 b6 bc ef 29 3f 3c
       -0.057408772 -0.036581036 -0.022251433 0.011667713
000170 42 88 08 bd 85 e7 9a bb 43 f4 c0 bd 75 08 1b bd
       -0.03333307 -0.0047273063 -0.09421589 -0.037849862
000180 3f 1f 23 bd 30 04 15 bd 5e 54 92 bc 7f 81 56 bd
       -0.03982472 -0.036380947 -0.017862495 -0.05236959
000190 fd 8c 51 bd 8b 2f 90 bb 73 6c 63 bc f2 ae 1a bd
       -0.051159848 -0.004400199 -0.013880837 -0.037764497
0001a0 b3 dd 15 bd dd 7a 98 3c 0b a1 25 3d 32 1e 12 bd
       -0.036588382 0.018613273 0.040436786 -0.035673328
0001b0 ea a0 d8 bc 74 cb 04 3c 35 db 07 bd db d2 2b 3d
       -0.026443917 0.008105148 -0.033168036 0.041949134
0001c0 55 0d d4 3b d0 f3 69 bd a9 77 d6 bd e7 a1 9f bc
       0.006471316 -0.057117283 -0.10472042 -0.01948638
0001d0 59 db a1 ba c5 00 aa bc c9 d2 aa bc 01 7d 1c bd
       -0.0012348696 -0.02075232 -0.020852463 -0.03820515
0001e0 c7 e0 2a bd bc 45 de bc 81 48 8e bc 0a b3 40 bd
       -0.04171827 -0.027132861 -0.017368557 -0.047045745
0001f0 bb 4c 07 bd 96 39 40 3b 3d d3 02 bd 25 dc 4d 3d
       -0.03303216 0.00293312 -0.031939734 0.050258774

network_body._body_endoder.seq_layers.2.weight f4 [128, 128]
000000 69 47 26 bd 33 aa 04 3c 37 6b 8b 3c 5c 3a a3 3c
       -0.040595446 0.008097219 0.017018897 0.019925289
000010 a1 7e ad bd 0c a4 6e bb dc 8e ae 3d 30 21 92 bd
       -0.08471418 -0.0036413698 0.08523342 -0.07135236
000020 da d5 01 3e 43 3a 6a 3e d7 46 41 bd 98 ad 12 be
       0.12679234 0.22873788 -0.0471867 -0.14324033
000030 21 a3 de bd bb 49 97 3d 26 5f 07 be f3 b1 75 bd
       -0.10870958 0.0738711 -0.1321989 -0.05998416
000040 89 d4 40 bd 36 bd 9e bd 50 a4 2c be ce e8 03 3c
       -0.04707769 -0.07750933 -0.16859555 0.00805111
000050 c6 88 80 3b 1d d6 a7 3d 9c 3b ec bd a9 5c d5 bd
       0.0039225547 0.08195136 -0.11534807 -0.10418064
000060 db f8 18 3d 8e 51 d7 bd 67 4f 73 3d b2 a0 40 bd
       0.037346702 -0.10513602 0.059401896 -0.04702825
000070 b6 0a 12 3e 1e 47 45 be cb ae 0f 3d d5 ab 24 3e
       0.14261898 -0.1926541 0.035078805 0.16081174
000080 a5 57 9a bd b6 9e 7c 3d 6a c0 70 bd 3c b8 03 3b
       -0.07536248 0.061674796 -0.05877725 0.0020098826
000090 e2 5d 87 3d d2 bf 42 be 15 a1 c2 3d 1c 58 21 3d
       0.066097036 -0.19018486 0.0950338 0.03939067
0000a0 b5 9e 06 bd f4 9c 4d 3d 92 56 c0 bd f6 d9 3e be
       -0.0328662 0.05019851 -0.09391512 -0.18637833
0000b0 f7 6a 8b 3d a0 b5 a5 bd d3 0b 45 3d c3 de 6c bd
       0.06807511 -0.08091283 0.04810698 -0.05782963
0000c0 29 36 6d 3d ea 5a 15 3d a8 4e 35 be d5 f5 18 be
       0.05791298 0.036463656 -0.17705786 -0.14937527
0000d0 21 d4 24 3e ae 15 92 3e fe ea 09 3d a0 25 22 3e
       0.16096546 0.28532165 0.03367137 0.15834665
0000e0 ef ff 87 3c 5c 15 a3 bc a5 64 01 be 92 fc 0f be
       0.01660153 -0.019907646 -0.12636049 -0.14061192
0000f0 b0 eb 68 3d 5f 63 3e be f2 21 bc ba 03 b7 12 be
       0.056865394 -0.18592595 -0.0014353378 -0.14327626
000100 a7 27 01 bd 8f f2 ac 3d eb 4b 2e be a7 09 2c bd
       -0.031531956 0.08444702 -0.17021148 -0.042001393
000110 10 be 7c bd 06 84 b6 bd 9f 48 ef bd 1a 25 84 bd
       -0.061704695 -0.089119 -0.11683773 -0.06452389
000120 b7 92 d4 bd c8 91 dc 3d d2 8f e8 3c a4 74 0b 3e
       -0.10379546 0.10769993 0.028388891 0.13618714
000130 e0 e4 20 3d 54 18 9d bd fe f6 40 3d 2f 3c e1 3d
       0.039280772 -0.07670656 0.04711055 0.10997807
000140 c8 4d 1e bd 1d a0 01 be 68 77 66 3d 1d 4c 28 bc
       -0.038648397 -0.12658735 0.05626622 -0.010272053
000150 5d de 37 be a7 b1 48 3e 0f 99 1b 3d 77 bc f5 3c
       -0.17955919 0.19599019 0.037987765 0.029997094
000160 04 69 b3 bd 51 a3 99 bd 2e 42 10 3d fc f3 d0 3c
       -0.087602645 -0.07501853 0.035219364 0.025506966
000170 6b 60 58 be 53 46 ea 3d df df 9c 3d 38 24 78 bd
       -0.2113053 0.114391945 0.076598875 -0.060581416
000180 af b1 09 be df f2 db 3c 1a 5a a6 3a c3 31 25 3e
       -0.13446687 0.026849208 0.0012691647 0.16132264
000190 b5 9c 72 bd 25 77 ea 3b a5 4a d3 bd 04 93 bb bd
       -0.05923148 0.0071553164 -0.10316972 -0.091589004
0001a0 3b 6d e2 bd 8f f9 9c 3d 9e eb 30 3c 1b f3 cf 3c
       -0.1105599 0.07664787 0.010798363 0.025384476
0001b0 7b 6c 82 3e 27 f7 ba bd fc 6c a4 3d 51 3b 9f 3d
       0.2547339 -0.09129172 0.080285996 0.077749856
0001c0 1c 71 4d 3d c6 f0 06 bd 2c a9 95 bc 7a d8 aa 3a
       0.050156698 -0.032944463 -0.018269144 0.0013034486
0001d0 9b 71 33 3d c4 6b 17 bc df 69 9b 3d 29 ee 3d bd
       0.043809514 -0.009242002 0.07588553 -0.046369705
0001e0 31 9b 33 bc 7a 1d fa 3d 43 17 24 ba 19 b8 a6 3c
       -0.0109622935 0.122126535 -0.000625957 0.020351456
0001f0 ee d6 ef 3d ad 81 31 3e cf 3b ba 3c 83 ed 23 bd
       0.117109165 0.17334624 0.022733597 -0.04002143
000200 89 6a ce bb 02 c4 85 bc 7f d1 bb ba 4f 19 0a 3e
       -0.006299321 -0.016328815 -0.0014329402 0.13486217
000210 23 e3 4a bc 00 df 4d be db b1 4d bd 74 ef b8 3d
       -0.012383255 -0.20104599 -0.050218444 0.09030047
000220 97 68 16 bc 44 6d f7 bd 52 de fb bd 9c 63 29 be
       -0.00918021 -0.12081388 -0.122982636 -0.16541904
000230 de 5d 50 3d 02 4b ad 3d 5b 8e d1 bd 20 1e 29 3c
       0.05087077 0.08461572 -0.1023223 0.010322124
000240 24 56 8c bd f8 8a 70 bd 5c 71 ed 3a 6f b1 36 3d
       -0.068523675 -0.05872628 0.0018115449 0.044602808
000250 12 6e d5 3c d5 82 4c 3d 00 0c 81 3d 2c f8 80 3d
       0.026053462 0.04992946 0.06301117 0.06297335
000260 bb 2e 8d 3c 97 e9 df bd e9 81 64 bd f3 d1 11 bd
       0.017234197 -0.109332256 -0.055787954 -0.035600614
000270 38 31 a6 3d a0 03 5f 3b 0c bb 1f 3d 27 bd b3 bd
       0.081148565 0.003402926 0.03899674 -0.08776312
000280 3e 44 19 3b 45 f9 1e bd f4 81 bf 3d 80 f5 d0 bd
       0.0023386623 -0.03881194 0.093509585 -0.102030754
000290 23 45 b4 bd 1a 30 0f be 19 09 39 be 7b e3 ac 3c
       -0.08802249 -0.13983193 -0.18069877 0.021104565
0002a0 e8 9d 08 3d 9d ff 54 bd 90 38 f0 bc 52 8e 44 3c
       0.033353716 -0.052001584 -0.029323846 0.011996822
0002b0 72 ad 4b 3c a0 ed 6e bd 9e c4 c5 bd 50 c6 41 bc
       0.012431489 -0.058332086 -0.096566424 -0.011827067
0002c0 fb e2 ae bd 6b 95 0e 3e 68 33 b3 3c 47 41 96 bd
       -0.08539387 0.13924186 0.021875098 -0.073366694
0002d0 5f 5c d4 bd b1 94 26 bd 67 6f a1 3d fd 9e 2d be
       -0.10369181 -0.040669147 0.078825764 -0.1695518
0002e0 6d 41 26 3d 13 5c 86 3c 24 3c 50 3e a3 eb 8e bd
       0.04058974 0.016401326 0.20335442 -0.06978538
0002f0 9a 66 73 bd 4a cb 12 3d d8 9b 4f bd 7c e3 a1 bd
       -0.05942402 0.035838403 -0.050685734 -0.07904717
000300 b8 3f 2a 3e de 76 24 be 04 0f 09 3d cd f2 27 be
       0.1662587 -0.16060969 0.033461586 -0.16401215
000310 9a 62 32 bd da 15 c9 bd b2 4a 45 3e 4f 3d 4b be
       -0.043551065 -0.09818621 0.19266775 -0.19847606
000320 9a f7 66 bd 3c 3a 00 3d a2 39 13 be 91 88 c7 3d
       -0.056388475 0.031305537 -0.14377454 0.09742845
000330 a7 dc 34 be cd c0 20 be e9 43 25 be 04 25 8f 3d
       -0.17662297 -0.15698548 -0.16139187 0.06989482
000340 0b 06 4c bd 47 f8 ec bc e1 e8 8d bc 61 49 2c 3d
       -0.04981045 -0.028926982 -0.01732296 0.042062167
000350 1d d4 2d be 93 38 b6 bd 5b e9 8c bd 47 80 f7 bc
       -0.16975446 -0.088975094 -0.068804465 -0.030212535
000360 7d ac 56 bd 23 b9 c3 3d 48 b1 f6 bd fb 84 94 3d
       -0.05241059 0.095567964 -0.120455325 0.072519265
000370 83 64 81 bd f8 20 0d be 84 2f 29 bd 28 dc a6 bd
       -0.06317999 -0.13782108 -0.04130508 -0.0814746
000380 29 1e 1d bc 4d c3 ad bd c8 a2 27 be 6d 7e 8f 3d
       -0.00958971 -0.08484516 -0.1637069 0.07006536
000390 62 c9 59 be 93 68 a1 bb 6b 39 11 bd 2e cd 82 3d
       -0.21268228 -0.0049257963 -0.03545515 0.06386791
0003a0 b6 54 c8 bd 15 db 7f 3d b6 de 5f bd cb d0 84 bd
       -0.09781782 0.062464792 -0.054655753 -0.064851366
0003b0 85 30 88 3d 7c 18 aa 3c 9c 8a a6 bc b7 51 f5 bd
       0.06649879 0.020763628 -0.020329766 -0.119784765
0003c0 54 0c 14 bd df 46 c3 bd 79 78 9b bd 06 5b 01 be
       -0.03614457 -0.09535002 -0.07591338 -0.12632379
0003d0 94 ff f9 3c 0b 87 87 bd f9 ff f1 bd 6d c5 2e bc
       0.030517377 -0.06617554 -0.11816401 -0.010667187
0003e0 4d 5e b5 bd 03 ae 5c 3d 81 25 85 3d 1c 14 fe 3b
       -0.08855877 0.053876888 0.06501294 0.007753862
0003f0 fd 3f fd bc 2c d8 f9 3b 14 2d 3f 3c b2 ad 5c 3e
       -0.030914301 0.0076246466 0.011668462 0.21550635

network_body._body_endoder.seq_layers.2.bias f4 [128]
000000 b6 26 61 bc 45 38 59 bc 07 ef cc bc fb 04 19 bd
       -0.01374214 -0.013258045 -0.02501632 -0.037358265
000010 f3 86 b0 bc fa e1 cb 3c 12 8e ba bc 8f 2e 03 bb
       -0.021548724 0.024888027 -0.022772823 -0.0020016765
000020 76 a0 17 bd 23 0f bc bc 57 68 e8 3b 23 20 16 bd
       -0.03701826 -0.022956436 0.0070925164 -0.03665174
000030 6f 74 02 bd d5 aa 29 bd 08 11 d0 3b d0 c9 27 bc
       -0.03184932 -0.041422684 0.0063496865 -0.010240987
000040 32 8a 19 bc 27 25 85 3c 96 27 9d bb ad e4 c9 bc
       -0.009371327 0.016253067 -0.004795979 -0.024645174
000050 10 cd a8 bc 23 12 3d 3a 25 1b 9f bc 5f 2a 36 bc
       -0.020605594 0.00072124804 -0.019422123 -0.0111185005
000060 12 7d 87 bc 80 b0 87 bc c2 cb e7 bc 7b 94 81 3c
       -0.01653913 -0.016563654 -0.028295401 0.015817871
000070 68 19 1f be b1 06 ea 3b cf 99 a5 bd 23 ca 19 bc
       -0.15537035 0.007141911 -0.08085977 -0.009386572
000080 73 3a 2b bd 23 dc 88 bc 31 27 8c bc e4 c3 94 bc
       -0.04180379 -0.016706532 -0.017108532 -0.018159814
000090 9f 7e b3 bc 90 46 0a bc 17 d2 4f 3c 77 d8 bc bc
       -0.021910964 -0.008439675 0.012684367 -0.023052437
0000a0 1e 7f fd 3c 67 7a 73 bb 30 20 e0 bb 30 59 e1 bc
       0.030944403 -0.0037151815 -0.0068397745 -0.027508348
0000b0 b0 69 69 bd ea 67 ee bb ad 46 b2 3b 42 49 ad 39
       -0.056985557 -0.007275571 0.005440554 0.00033051713
0000c0 24 d8 0c bc 26 a8 27 3c c9 c3 d1 bb 8f b6 55 bd
       -0.008596454 0.010232961 -0.0064015132 -0.052176055
0000d0 45 6b b7 bc 2d b3 4b bd a4 38 1d bc c7 62 a5 bc
       -0.022390017 -0.049731422 -0.009596024 -0.020188702
0000e0 18 30 87 3c c6 cf 0f bc 17 a0 b1 bc e0 b7 af bd
       0.016502425 -0.008777564 -0.021682782 -0.08579993
0000f0 bf de fd 3b d9 0d 3d bd 15 3d 94 ba 7e 23 02 bb
       0.0077475007 -0.046155784 -0.0011309708 -0.001985758
000100 42 ef 15 bd 26 46 1f bb fe 98 46 bd 2e 0a 62 bd
       -0.036605127 -0.0024303286 -0.04848575 -0.05518549
000110 a0 e6 b5 3c 89 7d 20 bc 0d 2f fc bc 66 da 24 bb
       0.022204697 -0.009795555 -0.030784154 -0.002515459
000120 ec 6b 9a 3b de ac 95 bc 3c 4d 3d ba 9a 64 ba ba
       0.0047125723 -0.018270906 -0.00072212867 -0.0014220655
000130 f2 6e 0a bc 09 a2 92 bc 29 06 82 3c 25 29 86 bc
       -0.008449303 -0.01789953 0.015872078 -0.016377041
000140 3f b0 78 bc 1b 29 ce bc 97 c0 28 bd 10 9b 05 bd
       -0.015178739 -0.025166085 -0.041199293 -0.032618582
000150 7d a4 3c bd ed 0b 0e bb 7a 90 51 bc 9b bf fe bc
       -0.046055306 -0.0021674589 -0.012790794 -0.031097224
000160 8c a0 06 bc 10 eb 55 bd 37 5f c9 3a c3 49 0f bc
       -0.008216988 -0.052226126 0.0015363459 -0.0087456135
000170 7f 7e 33 be de 36 bb bc 8d ef be 3c ce a0 5b bc
       -0.17528723 -0.022853311 0.023307586 -0.013405038
000180 a1 cd d5 3a 1b 8e 67 bc 1b 08 51 bc ce 14 ac bc
       0.0016311893 -0.014133002 -0.01275828 -0.021006014
000190 b8 5b fa bc f6 8c 94 bb 2c 89 a5 bc d8 f7 37 bd
       -0.030561313 -0.0045334054 -0.02020701 -0.044914097
0001a0 bf 37 13 bc 80 ec 94 bc e9 9a 83 bc b5 43 49 bc
       -0.008985459 -0.018179178 -0.016065078 -0.012284209
0001b0 20 2c 14 3c 2e 41 87 3c 6d d3 2d ba b1 2b b6 bc
       0.009043723 0.016510572 -0.0006630931 -0.02223763
0001c0 65 7d b2 3c b9 67 ad bc 8a 45 fd bc 7e 43 a4 bc
       0.021788308 -0.021167623 -0.030916948 -0.020051714
0001d0 2c 82 92 3c 7d bb a3 bc 45 ae dd bc 89 de c5 bc
       0.017884336 -0.019986862 -0.027060637 -0.024153965
0001e0 63 9e 79 bc 8b 6d 18 bd 31 64 99 bc f3 b3 db 3c
       -0.015235516 -0.037213843 -0.018724533 0.026819205
0001f0 66 c7 80 bc 4e 7a 7f bb a9 38 1a bc 50 13 2d bd
       -0.01572008 -0.0038982811 -0.009412923 -0.042254746

action_model._continuous_distribution.mu.weight f4 [1, 128]
000000 59 ee 0c bd 06 28 43 bc 2a ed b7 bc ac 4b dd bc
       -0.034406994 -0.011911398 -0.022451956 -0.027013622
000010 ed 0b 3c bd 3a cc a3 bd c7 72 e0 3c 74 f8 42 3d
       -0.04590981 -0.079979375 0.02739848 0.047600225
000020 aa ba cb 3b 5f ea 2a 3d bc c9 37 bd a5 6c 8a 3c
       0.0062173204 0.04172742 -0.044870123 0.016897509
000030 ae da e6 bc 8d 14 ae bb 01 8e 4f bd 02 f2 6a bd
       -0.028180446 -0.0053125084 -0.050672535 -0.057359703
000040 ee 09 b7 bc c4 17 45 3d 87 47 77 3d 0d 40 24 3a
       -0.022343602 0.048118368 0.06037095 0.0006265648
000050 ec 34 72 3d 8d db e5 bc 16 cf 55 3d 93 b0 17 bd
       0.0591325 -0.028058792 0.052199446 -0.03703363
000060 1b 42 30 bd ce c0 95 bc 2f e4 fa 3b 61 d1 24 3d
       -0.043031793 -0.018280413 0.007656596 0.04023874
000070 62 00 6b bb 1f a6 53 bd e5 97 52 3c 90 d8 2a 3d
       -0.0035858382 -0.051672097 0.012853597 0.041710436
000080 3e 4f 78 3c 19 b2 9b bc e1 a6 05 3d ba a7 30 3d
       0.015155612 -0.019005822 0.03262985 0.043128707
000090 f1 2a 9c bc 4f 34 5a 3d 55 ce cc 3d 0d 88 21 bb
       -0.019063445 0.05327254 0.10000292 -0.0024647743
0000a0 46 ba 87 bd fb 12 d8 3c ab 12 d2 bc 43 ca 36 3d
       -0.06627326 0.026376238 -0.025643667 0.044626486
0000b0 8f 9d 02 3c 20 67 4b 3d c4 38 80 3d d3 e6 4b 3d
       0.007972135 0.049658895 0.06260827 0.049780678
0000c0 e0 81 55 bd b6 ad a7 3d b1 be 41 bd 07 3b c8 bb
       -0.05212581 0.081874296 -0.047300998 -0.006110552
0000d0 61 91 09 3d 41 5b c3 3b 90 39 93 bc 9c 36 7f bd
       0.03358591 0.005961806 -0.017971784 -0.06230794
0000e0 39 93 cf bd 85 80 9e 3c 76 e9 a1 bb c2 51 8b 3b
       -0.10135502 0.019348392 -0.004941161 0.0042516897
0000f0 6f 65 9f 3d 6c 9e ba bc 35 09 2f bd b8 76 8d bd
       0.07783019 -0.02278062 -0.04273339 -0.069074094
000100 99 77 86 bc bb 36 14 3d d2 c7 82 3c fd e8 aa b9
       -0.01641445 0.036185008 0.015964422 -0.00032598517
000110 aa a2 89 bd 6e 45 85 3b e3 9f 8e bc 4b 08 d9 bc
       -0.06720479 0.0040671146 -0.017410224 -0.026493212
000120 93 f7 71 3d ba b9 94 3c 8c b7 4a bd a5 11 5d bd
       0.059073996 0.018154968 -0.04949145 -0.053971905
000130 a8 cb 29 bd 8e e7 f6 bc 47 6f cd 3d 0e cc 47 bd
       -0.041453987 -0.03013971 0.1003099 -0.048778586
000140 09 ec 5d 3d 46 78 23 bd 16 32 1a bb 12 1b bf bb
       0.05418018 -0.039909624 -0.0023528389 -0.0058320845
000150 82 5c d7 3b db 17 d4 3d 0b 16 e3 bc 18 5f 77 bc
       0.006572307 0.103561126 -0.027720472 -0.015098356
000160 35 f9 45 3d 81 95 c6 bb 02 32 8e 3d d5 59 82 3d
       0.048333365 -0.0060603027 0.06943132 0.0636479
000170 ed 3a 4d bb d9 7b 8a 3b 37 5e b0 bd a1 c4 02 bd
       -0.003131564 0.0042261896 -0.0861172 -0.0319258
000180 be e8 73 bb ba c4 0a bd ef 9e 25 bd 29 8c 53 bb
       -0.0037217583 -0.03387902 -0.040434774 -0.0032279587
000190 a5 de a2 bc 00 92 2c 3d ec 3b 7c 3c a7 86 7d 3d
       -0.019881556 0.042131424 0.015395146 0.061895993
0001a0 ce 55 5a bd 31 4a 1c bc 34 dc 28 bd d6 aa 69 3d
       -0.053304486 -0.009539173 -0.041225627 0.057047687
0001b0 ed 56 09 3d 42 c0 d1 bd 87 e9 98 3c a6 63 ef bb
       0.033530165 -0.102417484 0.018666042 -0.00730558
0001c0 6c 50 2f 3e aa ef 0b bd 5f 91 bd 3b 0e 09 3f 3c
       0.17120522 -0.03416411 0.005785152 0.011659874
0001d0 e5 80 3f bd e1 7a ab 3c 00 57 0f 3d 06 e7 74 3c
       -0.046753783 0.020932617 0.03499508 0.014947658
0001e0 26 2f a5 bb 94 ac db bc 75 47 0f bd 7c f0 13 bd
       -0.005041021 -0.02681569 -0.034980256 -0.036118016
0001f0 79 dd 41 3d 2b 90 1a 3d 05 de 92 bc 59 09 6f 3c
       0.047330353 0.037735146 -0.017928133 0.014589631

exp_avg f4 [128, 7]
000000 f6 6d 5e 3a 28 d0 8e b9 e3 df 34 3a 49 a9 86 3a
       0.00084850134 -0.0002723944 0.0006899817 0.001027384
000010 9a 11 88 ba ab 06 63 b9 6e 8f c1 bb 52 4b 0f ba
       -0.0010381222 -0.00021650891 -0.0059069907 -0.00054662407
000020 5f 2b 0e 3a 38 aa 13 ba 6f 3b 67 ba eb 92 82 3a
       0.0005423333 -0.00056329696 -0.0008820807 0.0009961998
000030 c1 6a 8b 3b 71 0f c5 3b 49 83 b7 3b 2a fb bd ba
       0.0042546694 0.0060138036 0.005600367 -0.0014494408
000040 5d de 18 b9 e7 55 35 bc 5d 89 33 3c 68 bd c8 bd
       -0.00014578686 -0.011067844 0.010958043 -0.098017514
000050 cb 98 1f 3d b7 1a ab b9 99 06 bc b9 5a 37 90 b9
       0.038964074 -0.00032635566 -0.0003586307 -0.0002750706
000060 d0 77 c1 b9 ca 1b d2 39 84 48 99 ba 7f d2 db 3a
       -0.00036901096 0.00040075026 -0.0011694585 0.0016771107
000070 7d 64 05 ba 81 8e e7 36 64 76 78 b9 89 3a bc 37
       -0.0005088521 6.900926e-06 -0.00023695227 2.2438604e-05
000080 36 0a 94 b7 7b 0f 70 3b 0b fe 1e 3a a4 13 a1 38
       -1.764773e-05 0.003663032 0.0006065077 7.6807366e-05
000090 c2 98 2e 3a 7d f0 d8 39 fc 04 84 3a 66 64 cd ba
       0.0006660336 0.00041377908 0.0010072286 -0.001567018
0000a0 46 fe 17 3c 44 eb 96 bb 44 33 1e 3a 95 60 66 b9
       0.009276932 -0.0046056826 0.0006034861 -0.00021970489
0000b0 37 28 d7 39 46 7b 4e 39 2e 31 b6 b9 b5 95 82 bb
       0.00041037958 0.00019691614 -0.00034750387 -0.0039851316
0000c0 90 e4 21 bb 81 24 17 3c d2 00 0d bb 90 74 2f ba
       -0.0024702884 0.009225012 -0.0021515382 -0.00066930894
0000d0 71 0e af bc 78 77 9e 3c ee 68 33 be 2e db 94 3d
       -0.02136919 0.019344077 -0.17520496 0.07268368
0000e0 08 d1 8f bb 33 b5 c6 3b 24 e1 12 3b 46 e5 7a 3c
       -0.004388932 0.006064081 0.0022412026 0.015313452
0000f0 45 76 84 bc c4 b3 f7 3d 37 16 5d bd b9 c2 85 bb
       -0.016169677 0.120948344 -0.053976264 -0.0040820506
000100 79 75 f1 b6 25 00 1e b9 30 b1 e1 3b c8 60 de bb
       -7.1960353e-06 -0.00015068108 0.0068875775 -0.0067864396
000110 4b 97 64 3d 1c 9f bd bc 25 98 aa b9 ba 50 94 38
       0.055808347 -0.023147158 -0.00032538283 7.0722264e-05
000120 c2 0d 2c b9 ba ba 8f 39 62 f1 f3 36 68 04 ba 3b
       -0.00016408323 0.00027414208 7.270065e-06 0.005676795
000130 1c a3 f2 38 ad 0e 32 3b d5 dc 6b ba af a8 db 3a
       0.00011569841 0.0027169392 -0.0008997445 0.0016758646
000140 d5 7e a0 39 46 71 85 ba fc e7 92 bc 17 de 15 bc
       0.00030612075 -0.0010180853 -0.017932884 -0.009147189
000150 87 48 fe bb 6c e7 fb ba 41 56 c1 ba 68 5f 12 3c
       -0.007760111 -0.0019218749 -0.0014750437 0.008933879
000160 fe 61 17 bc 1c f3 99 3d ac 5f f7 bc 34 e0 16 bc
       -0.009239672 0.075170726 -0.030196987 -0.009208728
000170 e6 75 02 3b 7d 78 8c 3a 5e 10 99 3c 36 4a 9e bc
       0.0019906699 0.0010717061 0.018684562 -0.019322496
000180 a0 0d 29 3e ce 83 99 bd 67 e9 ea 3a 8e a3 64 b9
       0.16509104 -0.07495843 0.0017922343 -0.00021804703
000190 f2 ad 88 3a 23 79 f5 39 ce 7f f8 b9 20 13 46 bc
       0.0010427816 0.00046820295 -0.00047397468 -0.012089521
0001a0 93 cf a9 bb 8c b6 67 3b bd d8 50 ba a4 56 4f b7
       -0.0051822155 0.003535661 -0.0007966867 -1.2358334e-05
0001b0 21 83 cf bb 5e 18 d5 3b 47 5d 72 bd 90 42 c3 3c
       -0.0063327705 0.006503149 -0.059170987 0.02383545
0001c0 b6 6a 97 ba 08 9f e3 39 f8 a8 14 ba c7 2e 7b b9
       -0.0011552188 0.00043415301 -0.000567093 -0.00023954651
0001d0 0b 28 3b 38 9a be 01 3c e8 40 f6 3a 18 68 ad 3b
       4.4621567e-05 0.007918978 0.0018787654 0.00529195
0001e0 e4 8d 33 ba 70 41 1a 39 5b b7 16 bc 7c 2f 16 3c
       -0.00068494515 0.00014710962 -0.009198989 0.009166595
0001f0 d1 55 b0 bd 36 45 09 3d 3b ed 1c bb ce c4 9a 39
       -0.08610118 0.03351327 -0.0023945111 0.000295198
000200 ba 46 90 ba 6b f6 9b ba f0 2c 1e 38 d1 38 81 3c
       -0.0011007406 -0.0011899 3.7711987e-05 0.015774162
000210 49 4c 1e 3b 7a 0b bd 3b c5 45 07 ba d2 fa 58 38
       0.0024154356 0.0057691904 -0.0005160238 5.1732008e-05
000220 0e 78 26 bc 81 1e 28 3c 6e b6 d8 bd cc a0 28 3d
       -0.010160459 0.010261179 -0.10581671 0.041168973
000230 a0 1c a6 bb b5 1c 67 b9 6e e3 e7 b9 27 7b ff 3b
       -0.0050693303 -0.00022040571 -0.00044229202 0.0077966633
000240 e5 c5 f7 bb 50 78 8c 3d ff a2 de bc 84 4b 2a bb
       -0.0075614327 0.06858885 -0.027177332 -0.0025984952
000250 3f e1 2f 3b f8 49 e7 3a 4d 06 21 3c 98 94 38 bc
       0.0026837138 0.0017645946 0.009828162 -0.011265896
000260 42 6c 9c 3d 9d f6 2a bd 7d 2a 08 3b c8 4a 6b ba
       0.07637836 -0.041739095 0.0020777278 -0.0008975682
000270 5f 93 07 3a e8 ad 0b bb 22 87 f0 3a 51 92 ee bc
       0.00051718013 -0.0021313373 0.001835082 -0.029122503
000280 92 e6 b2 3b 03 95 d9 3a b4 68 8b 39 91 c4 85 38
       0.005459615 0.0016600195 0.00026590156 6.3785476e-05
000290 af 56 5d bb 7a e9 5f 3b 76 7d 32 bd 73 2e 7c 3c
       -0.0033773591 0.0034166262 -0.04357668 0.015391934
0002a0 71 9b 95 3a c0 b5 0d ba 8e 95 28 3a b0 da 35 b9
       0.0011414123 -0.0005405806 0.0006430977 -0.00017342973
0002b0 80 59 3a b9 25 94 1b bc 29 9d 1a bb a9 73 f0 b9
       -0.00017771684 -0.00949577 -0.002359221 -0.0004586254
0002c0 4f 92 61 39 0f 82 a8 b9 5a c3 ce b9 a0 ba 97 39
       0.00021512176 -0.00032140358 -0.0003943693 0.0002894001
0002d0 2f 59 91 3b 17 f1 10 3b 19 97 2c bb 25 19 87 38
       0.0044356803 0.0022116357 -0.0026335178 6.441985e-05
0002e0 50 d8 cd ba 92 63 66 ba 07 81 83 3a 39 de 9a 3c
       -0.0015704725 -0.0008788641 0.001003296 0.018904792
0002f0 15 94 f4 3b be c3 f0 b8 97 8a 36 39 43 ac 23 b8
       0.007463942 -0.000114805516 0.00017408501 -3.902266e-05
000300 18 0a ee 38 65 14 a1 b9 1a d8 a2 39 94 60 80 37
       0.000113506045 -0.00030723508 0.00031060056 1.5303762e-05
000310 4b f4 6c b9 b9 23 bc 3a 9e d3 c3 3a c0 fc b4 3b
       -0.0002259772 0.0014353908 0.0014940386 0.005523294
000320 f1 98 bc bb b2 69 29 3d 1f f6 c9 bc 25 78 39 3b
       -0.0057555367 0.041360565 -0.024653492 0.0028300371
000330 bf 71 d2 ba 22 af d1 b9 9f 71 d6 bb 93 de db 3b
       -0.0016055627 -0.0003999407 -0.0065443064 0.0067098825
000340 04 9e 71 bd f0 78 c3 3c 75 e2 77 ba 0f f5 22 3b
       -0.058988586 0.023861378 -0.0009456047 0.0024865305
000350 40 a2 c5 ba fb 5b d3 bb f0 c4 9e 3b ee 83 97 ba
       -0.0015078261 -0.006450174 0.004845254 -0.0011559704
000360 d2 6d 86 3c b2 1c 52 bb 82 0e bb 3b dc d7 26 3b
       0.016409788 -0.003206056 0.0057085166 0.0025458252
000370 53 fe 61 3c a9 10 79 bc ae e2 d6 3d c9 4c 59 bd
       0.013793546 -0.015201726 0.104924545 -0.053051744
000380 af 70 fd b9 92 a4 02 3a 58 3b a1 b9 10 82 f6 b8
       -0.00048339876 0.00049836293 -0.00030752528 -0.0001175442
000390 f5 a2 29 39 3d 34 b5 3b 9c c8 a9 3a 99 4e e0 bb
       0.00016177802 0.005529909 0.0012953463 -0.006845307
0003a0 30 08 e3 3a 05 51 71 39 d1 5b 53 3c 84 97 5b bc
       0.0017321166 0.00023013733 0.012900309 -0.013402823
0003b0 6b ef e4 3d ad 85 3f bd 20 9d 41 3a fd bc 23 ba
       0.11178478 -0.046758343 0.0007385779 -0.0006246118
0003c0 e5 58 f5 39 13 79 a9 b9 e9 c8 0f b9 c5 84 1b bc
       0.00046796273 -0.000323244 -0.00013712388 -0.009492104
0003d0 a2 7c 10 bb bb 3b 40 bb 6b ff 88 38 f3 19 7b b9
       -0.0022046943 -0.0029332477 6.532561e-05 -0.00023946892
0003e0 63 ed 93 3b d7 e1 96 bb 3a c7 24 3d 8f 55 82 bc
       0.0045143827 -0.004604559 0.04022906 -0.015909938
0003f0 41 38 c8 ba 2f 24 36 3a c5 8c 06 39 18 6b 51 3b
       -0.0015275554 0.0006948141 0.00012831677 0.0031954702

exp_avg_sq f4 [128, 7]
000000 33 27 14 38 25 44 77 38 68 e9 f7 36 d7 22 46 38
       3.5322457e-05 5.8952854e-05 7.3883457e-06 4.7239326e-05
000010 f9 46 de 37 4d c2 9c 3b 9c 73 4d 3a 76 4a 0e 38
       2.6497511e-05 0.0047839046 0.00078373565 3.3924785e-05
000020 e9 82 59 38 01 f4 13 37 6d 67 43 38 0f 27 e0 37
       5.185875e-05 8.818694e-06 4.6587946e-05 2.6721069e-05
000030 f7 67 a8 3b 56 66 5d 3a 5e 19 c2 39 98 00 bb 39
       0.0051393467 0.000844573 0.00037021464 0.00035667862
000040 b7 ca d6 38 75 20 c9 39 d1 95 5f 39 9f 54 43 3d
       0.00010242074 0.0003836189 0.00021322748 0.047688123
000050 c4 c9 f1 3b 6c c1 8b 36 db 81 80 36 7b af 08 36
       0.0073787887 4.16504e-06 3.8298144e-06 2.0367722e-06
000060 2e 6a 4d 36 f8 58 e7 35 95 98 b7 39 d4 61 6f 38
       3.0609185e-06 1.7236734e-06 0.00035018162 5.707315e-05
000070 00 15 b5 37 14 10 d0 37 ed b6 8c 36 a4 13 bf 37
       2.158666e-05 2.480302e-05 4.1936205e-06 2.277812e-05
000080 cf 4b 5d 37 53 ec 2b 3b 41 60 e7 39 74 9f 85 37
       1.3190277e-05 0.002623339 0.00044131468 1.5929087e-05
000090 1e ff 95 37 fc 9c 82 36 a3 c8 b8 37 d4 1e 48 37
       1.7880982e-05 3.8925773e-06 2.2027938e-05 1.1928107e-05
0000a0 6b 8f 23 3b d5 ce cd 39 4a 21 39 37 30 1e 90 37
       0.002495731 0.0003925475 1.103461e-05 1.7180195e-05
0000b0 0c 3f 44 36 bd e0 83 37 8b c0 13 37 c2 30 d4 3a
       2.9242974e-06 1.5721069e-05 8.806713e-06 0.0016188847
0000c0 a4 1c 8a 39 a4 a0 7c 3a 35 e5 81 3a 1a 52 85 39
       0.0002634275 0.00096369744 0.0009910228 0.00025428907
0000d0 b8 4c 80 3a b0 a9 10 3a b3 28 fc 3d c4 f8 9d 3c
       0.0009788489 0.00055184495 0.1231245 0.01928366
0000e0 f7 18 13 3a 77 f2 1e 3a 73 8e 1b 39 1d 04 49 3a
       0.0005611325 0.0006063352 0.00014835018 0.00076681544
0000f0 a2 e9 e4 39 9d 95 cd 3d 05 a0 81 3c 59 df 43 39
       0.0004366162 0.10038302 0.015823374 0.00018679853
000100 6d 8c 2a 39 bb a6 5b 38 41 3e 23 39 32 29 b8 38
       0.00016264776 5.236895e-05 0.00015568083 8.781477e-05
000110 34 f3 97 3c 82 5a 3f 3b f9 4f 93 36 2b 87 a8 36
       0.018548585 0.0029198234 4.3902514e-06 5.022526e-06
000120 97 f6 87 35 82 f4 ad 36 8a cb 2f 36 f5 be 0c 3a
       1.0130051e-06 5.1842662e-06 2.6195507e-06 0.0005369031
000130 ca 2b a9 38 aa f2 47 39 6a 8c 9f 39 85 cd 47 38
       8.066704e-05 0.00019068518 0.0003043146 4.7636702e-05
000140 fa ab 8f 39 bf 2b 23 39 42 54 e6 3c 46 19 97 3b
       0.00027403218 0.00015561188 0.02811635 0.004611167
000150 1c 38 29 3a 24 12 0c 3a 57 f9 4d 39 b2 4a f4 39
       0.00064551993 0.00053432793 0.0001964321 0.0004659496
000160 2a a6 88 39 3e 6e 66 3d 9a 56 10 3c 36 0a 67 3a
       0.00026063743 0.05625748 0.00880971 0.0008813472
000170 13 3c 5a 3a af 07 67 39 ac c0 7d 3a 98 e6 10 3a
       0.0008324992 0.00022032739 0.00096798944 0.0005527525
000180 50 30 eb 3d 5a 90 95 3c 64 d8 b7 38 33 c5 0f 39
       0.11483824 0.018257309 8.766426e-05 0.00013711005
000190 fe e9 a9 37 c0 8d f9 38 88 79 93 38 09 ed 60 3c
       2.0255331e-05 0.00011899648 7.032143e-05 0.013728389
0001a0 88 74 16 3b f3 dd e7 38 0d c2 e7 38 23 f7 fe 37
       0.0022957642 0.000110562796 0.00011051083 3.0394242e-05
0001b0 d9 26 f3 38 2c 19 87 38 ae 0a 6a 3c f8 06 11 3b
       0.00011594379 6.44199e-05 0.014284773 0.0022129398
0001c0 40 1c e4 37 84 1b 39 38 08 9b ae 36 95 22 14 38
       2.7192873e-05 4.4133063e-05 5.203652e-06 3.5318157e-05
0001d0 a6 2b a6 37 af 69 67 3b db db 15 3a 42 d9 7a 39
       1.9809067e-05 0.0035310795 0.000571666 0.00023922793
0001e0 d4 26 73 39 51 ec 8c 38 16 32 77 39 ff d5 08 39
       0.0002318875 6.7197376e-05 0.00023574414 0.0001304969
0001f0 2e e9 eb 3c 0f d7 91 3b 38 fb 46 39 23 79 83 39
       0.028797712 0.004450686 0.00018976338 0.0002507652
000200 78 4d 39 38 b3 00 41 39 f1 ed e0 38 19 3d b3 3c
       4.4179586e-05 0.00018406175 0.000107254724 0.02187972
000210 a7 37 70 3b 17 7c 96 39 03 a3 95 39 1b d6 9f 38
       0.0036654265 0.00028702684 0.00028540948 7.621591e-05
000220 1f 35 a1 39 4c cb 32 39 4f 41 16 3d 20 73 ba 3b
       0.0003074789 0.00017051137 0.036683377 0.0056899935
000230 90 cb 8a 39 76 6f 6d 39 ca 7b b9 38 dc 32 43 39
       0.00026473077 0.00022643604 8.844545e-05 0.00018615596
000240 9b 50 d5 38 8f da b8 3c 7a 9a 64 3b ee 37 51 39
       0.000101716454 0.022565154 0.0034882114 0.00019952629
000250 17 da 8e 39 d4 0d 74 38 c9 c9 9c 39 25 6a 3a 39
       0.0002724684 5.818701e-05 0.0002990498 0.00017777884
000260 80 8f 14 3d 3a 48 c7 3b c4 81 1c 38 31 3c 72 38
       0.036269665 0.006081608 3.7314152e-05 5.7753354e-05
000270 a0 67 1e 37 07 28 5f 38 8a 9e e7 37 e3 82 b9 3b
       9.441661e-06 5.320462e-05 2.7611171e-05 0.005661355
000280 75 27 60 3a 80 f1 ed 39 d8 f5 d6 39 6f c3 10 39
       0.00085508014 0.00045384094 0.0004100043 0.00013805715
000290 6e 1f d6 39 6f de 75 39 ff 3b 4f 3d 98 d8 04 3c
       0.00040840678 0.00023447884 0.050594326 0.008108281
0002a0 5b c7 1a 38 12 ba 6b 38 16 c0 13 37 1a b9 59 38
       3.6902125e-05 5.6201658e-05 8.806606e-06 5.190922e-05
0002b0 75 e7 e0 37 a2 4b a9 3b ea b3 50 3a ed 7a 39 37
       2.6810661e-05 0.005166487 0.00079613796 1.105548e-05
0002c0 7a af 8c 37 d6 4f 2e 36 4b 46 87 37 ab cf 1f 37
       1.6771013e-05 2.597449e-06 1.6125987e-05 9.52549e-06
0002d0 9e 61 e2 3a c1 b3 93 39 ee d4 19 39 e3 26 54 39
       0.0017271524 0.00028171952 0.0001467054 0.00020232382
0002e0 5d 2c 34 38 b1 6e 46 39 54 b4 dd 38 df 99 a7 3c
       4.295666e-05 0.00018923987 0.0001057169 0.020459114
0002f0 23 31 57 3b 1c 2f 8f 36 5d ec 55 36 79 bb 30 35
       0.0032835684 4.2672164e-06 3.1877055e-06 6.583792e-07
000300 b5 7c a1 36 b2 fb 2b 36 01 77 0f 3a 51 b2 b7 38
       4.8126917e-06 2.5627492e-06 0.000547275 8.759334e-05
000310 e3 2b c8 38 5f 42 19 39 c4 9b d3 37 46 1c 0e 39
       9.544918e-05 0.00014615942 2.5225694e-05 0.00013552708
000320 e5 65 ab 38 2e 0b 81 3c 60 8f 32 3b 19 dd cb 38
       8.172895e-05 0.015752401 0.0027246103 9.720977e-05
000330 c3 65 db 38 04 7c da 37 1f 4f 01 39 e3 30 90 38
       0.00010461688 2.6045374e-05 0.00012331874 6.875561e-05
000340 aa 20 7d 3c 84 eb 1c 3b 20 c9 f7 39 06 40 17 3a
       0.015449682 0.002394409 0.0004726136 0.0005769733
000350 b2 19 ce 38 0e 47 0e 3a c5 92 a5 39 0b 28 5e 3d
       9.8276316e-05 0.0005427458 0.00031580604 0.054237407
000360 72 33 13 3c ab b8 b4 39 56 cb ed 39 b2 b5 d2 38
       0.0089844335 0.00034469864 0.0004535566 0.00010047424
000370 19 49 0f 3a 6d 3b a9 39 f2 0a 92 3d a8 c0 3f 3c
       0.00054659095 0.00032278468 0.07130994 0.011703648
000380 fc 2d 3b 37 43 23 75 37 71 9d 37 36 58 7e 80 37
       1.1156775e-05 1.4611348e-05 2.7360768e-06 1.5317622e-05
000390 29 ab 07 37 4b 32 c3 3a 2c 04 6f 39 22 81 16 3a
       8.086478e-06 0.0014892308 0.0002279437 0.0005741288
0003a0 28 62 09 3a fc 00 2c 39 27 01 0f 3a fb c5 9e 39
       0.00052407617 0.00016403565 0.0005455189 0.00030283615
0003b0 9e af 88 3d 85 2f 2a 3c 20 27 c4 37 dd e8 0d 38
       0.06674121 0.010387306 2.338324e-05 3.383389e-05
0003c0 40 e4 e4 36 38 f2 05 38 70 15 8d 37 8a 74 60 3b
       6.8215013e-06 3.1935255e-05 1.6818492e-05 0.003424915
0003d0 d5 19 0b 3a 94 70 67 38 86 5d 5c 38 03 62 58 37
       0.00053062785 5.517954e-05 5.2539188e-05 1.2897423e-05
0003e0 15 b8 58 38 cc 52 f1 37 2c 08 c3 3b 87 d7 72 3a
       5.1669853e-05 2.8767994e-05 0.005951902 0.00092636835
0003f0 ec d3 bb 37 7f 85 c3 37 82 ef b2 36 71 26 e7 37
       2.2390821e-05 2.3307975e-05 5.3326958e-06 2.7555247e-05

exp_avg f4 [128]
000000 6b 7a 3f 3b c3 76 39 bb 7c 06 9f bc af 42 75 ba
       0.0029217254 -0.0028299547 -0.019412272 -0.0009355945
000010 f2 e2 bb 39 30 1a 1b 3b 8f 66 9a 3a 74 2f 14 bd
       0.00035836507 0.0023666732 0.0011779832 -0.036178067
000020 22 42 da 3c 9c db 38 3c 70 40 68 b9 67 f7 85 3b
       0.026642863 0.011282828 -0.00022149249 0.0040883305
000030 af a8 72 3c e6 35 18 3d 0c e6 c3 3a 9d 01 43 bc
       0.014810725 0.037160777 0.0014945879 -0.01190224
000040 9e 11 64 ba 0f 5c 89 bc aa 06 fe b8 0e 42 a8 bc
       -0.0008700135 -0.01676753 -0.00012112905 -0.02053931
000050 28 f2 5d 3c e3 00 ab 3c b6 3b 2d bb 24 50 d1 bb
       0.013546504 0.020874446 -0.0026433296 -0.0063877273
000060 09 6c cc 3a 30 68 6f ba 9c 15 65 bb c3 d6 95 38
       0.0015596162 -0.00091326516 -0.0034955507 7.144876e-05
000070 f2 08 45 3c 2d 2b 43 bc 97 96 e2 bb 46 dc d6 3c
       0.0120260585 -0.011912149 -0.0069149244 0.026228081
000080 94 60 43 ba 3d 74 be 3c 09 06 b2 3a 43 5f 02 3c
       -0.0007453051 0.023248786 0.0013582121 0.0079572825
000090 b2 9c bd 3b 1f 69 47 39 48 0b 93 3a 5b ab 83 bc
       0.005786502 0.0001901728 0.0011218572 -0.01607292
0000a0 0c de e1 3b 7a 28 e0 bb 2f 0a 82 bc 08 ff 8f 3b
       0.006892925 -0.0068407627 -0.015873997 0.0043944158
0000b0 03 a5 9c b8 61 f9 84 bb 9f 51 c0 b8 ff e2 63 3b
       -7.4693955e-05 -0.0040580486 -9.1704766e-05 0.0034772751
0000c0 04 09 8a 3c 0c b8 14 3c 5e d8 e6 b9 0e ab 75 ba
       0.016850002 0.009077083 -0.00044030225 -0.00093714974
0000d0 e2 e5 2c bc b9 09 d2 3b 85 23 02 3c c7 59 a3 3a
       -0.010552855 0.0064098504 0.007943039 0.0012462669
0000e0 37 73 30 bc 8e 9c f1 3b 1f 11 f5 bb d1 b4 9d 3b
       -0.010769657 0.007373399 -0.0074788476 0.0048128148
0000f0 c0 53 26 bb e1 68 13 ba 55 03 b4 3b 8b a3 dc 39
       -0.0025379509 -0.0005623233 0.0054935613 0.0004208352
000100 ee e4 94 bb 6a 81 b2 3c be b7 94 bc 3f e5 a0 39
       -0.004543892 0.021790225 -0.018154021 0.0003068838
000110 1c 7f 3f bc eb 44 bf bc 72 0f 7a ba 9d e2 ed 38
       -0.01168802 -0.023348292 -0.00095390447 0.00011343251
000120 35 b7 5f b9 62 a0 7d 3a 05 89 bb ba b8 1c e5 38
       -0.00021335187 0.0009675083 -0.0014307803 0.0001092492
000130 be 06 94 3c f7 2c cf ba 34 79 60 3c 2f 57 44 3c
       0.018069621 -0.0015806247 0.013700772 0.011983677
000140 d0 a7 02 3c d5 5a a1 ba 49 4a 67 39 e2 f4 44 3a
       0.00797458 -0.0012310395 0.0002205755 0.0007513297
000150 69 26 85 38 3f a3 19 ba f1 3c e7 3b ec 6d c2 ba
       6.349089e-05 -0.00058608124 0.0070568253 -0.0014833785
000160 00 8f 38 39 9b 51 06 bc b6 ce af 3a df ea a5 3b
       0.00017600879 -0.008198167 0.0013413045 0.005063399
000170 04 42 e7 ba 6d bf 41 3c 14 f0 d4 3b 10 a3 fe 39
       -0.0017643576 0.011825425 0.006498346 0.00048568146
000180 ce 17 09 bd aa d4 81 3c 8e ac 33 3a b8 2e 87 bb
       -0.033469968 0.015848476 0.0006854021 -0.0041254424
000190 ec 6b 31 3b 9a 86 3e bb 9b df bb 3b dd 43 ac 39
       0.0027072383 -0.0029071928 0.005733443 0.0003285696
0001a0 0b 7b cc 3a b2 a9 7f b9 ad 7f 64 3c 7b 29 1e 3c
       0.0015600635 -0.00024381911 0.013946456 0.009653444
0001b0 67 eb 2e 3c 51 dc 90 bc d7 c3 51 3c 4b 3b a6 3c
       0.0106762415 -0.01768318 0.0128030395 0.020291945
0001c0 fb 9c 20 3a 3b 44 a5 38 e4 38 59 39 a4 32 20 ba
       0.00061269075 7.880522e-05 0.00020715926 -0.00061110617
0001d0 5a 50 db bc 4a f6 d3 ba a9 5c f4 ba 1a 66 cf bb
       -0.026771713 -0.0016171422 -0.0018643338 -0.00632931
0001e0 c4 cb 9f bb 59 69 e3 bc 6e cc 21 bc 93 b1 1f bc
       -0.0048765857 -0.027760195 -0.0098754 -0.009746927
0001f0 f8 ec 9a ba 49 2d 16 3a 32 44 ac 3b cf b5 c6 bb
       -0.001181989 0.0005728794 0.005257153 -0.0060641537

exp_avg_sq f4 [128]
000000 61 13 4d 39 29 e7 5a 39 0c 24 fa 3a 00 f1 6f 37
       0.00019557543 0.00020876214 0.0019084229 1.4301622e-05
000010 32 81 e1 38 20 b9 d5 38 a4 8b 88 38 b6 0d a3 3b
       0.000107529006 0.00010191114 6.5109954e-05 0.0049759997
000020 a6 5f 86 3b 62 41 43 3a 4c e1 b1 37 c1 99 93 3a
       0.0041007577 0.00074484025 2.1204956e-05 0.0011261032
000030 cc 48 13 3b fb d8 99 3b 03 09 10 3a f8 eb 15 3a
       0.002247381 0.0046950555 0.0005494507 0.0005719061
000040 8c f9 12 39 eb ba 96 3a 5c 55 6c 3a 91 19 c0 3a
       0.00014016608 0.0011499798 0.0009015405 0.0014656057
000050 0f da 6b 3a 69 2c ca 3a 7d ab 5f 39 ee 68 07 3b
       0.0008997032 0.0015424612 0.00021330822 0.0020661908
000060 af ab 58 39 a7 a8 92 38 59 0c 54 3a b4 52 b9 37
       0.00020663322 6.9932365e-05 0.0008088998 2.209223e-05
000070 8f 70 2c 3a 26 59 22 3a 65 cf 0d 3b 1a d8 42 3b
       0.0006578052 0.0006193094 0.002163851 0.0029730857
000080 36 38 7a 38 51 0b 30 3b 08 ba 0e 39 07 c5 78 39
       5.9656995e-05 0.0026862214 0.00013611477 0.00023724521
000090 7b fd 0d 39 66 45 5b 37 b9 78 3b 3a 7b 9b 72 3a
       0.00013541237 1.3069575e-05 0.0007151473 0.0009254736
0000a0 2f 40 b6 39 39 03 87 39 5e 9d a0 3a 86 99 83 3a
       0.00034761566 0.00025751608 0.001225393 0.001004026
0000b0 6a 74 eb 36 07 0b 18 3a 98 f3 97 39 83 65 34 3a
       7.017098e-06 0.0005799983 0.00028982456 0.00068815815
0000c0 0a cc e5 3a 44 17 15 3a d9 05 95 38 00 54 bf 38
       0.0017532122 0.0005687366 7.105963e-05 9.123236e-05
0000d0 05 d8 a1 39 e4 8d 04 39 c9 55 33 3a 70 52 8a 38
       0.0003086926 0.0001264136 0.0006841091 6.595708e-05
0000e0 d4 5e 98 3a 21 35 55 39 a3 63 b4 39 98 8a c8 39
       0.0011624941 0.00020333055 0.0003440651 0.00038250233
0000f0 80 97 10 3a 14 25 3b 3a b1 bd 01 39 5f 90 16 39
       0.00055157393 0.0007139009 0.00012373064 0.00014358897
000100 62 45 87 38 9e df 07 3b 6c 65 c4 3a 6a 75 e1 37
       6.450225e-05 0.0020732651 0.0014983839 2.6876765e-05
000110 4a 0c 6a 3b 4c 11 8d 3b ce 60 fd 38 11 31 1e 37
       0.0035712891 0.0043050405 0.000120820114 9.428958e-06
000120 af cb 38 37 2e e0 f3 37 a9 6a dc 38 58 16 82 38
       1.1014678e-05 2.907225e-05 0.000105102845 6.203045e-05
000130 c5 ab eb 3a 5e d9 c2 37 aa c4 44 3a 22 c6 36 3a
       0.0017980268 2.3227822e-05 0.0007506112 0.0006972273
000140 10 71 9f 39 54 a5 12 3a e1 36 e6 37 c4 a2 d3 37
       0.0003041108 0.0005594094 2.7443692e-05 2.5228954e-05
000150 dd 8d 20 37 70 dd 18 38 87 0b 3d 3a ed 94 39 39
       9.569773e-06 3.6445854e-05 0.00072114955 0.00017698454
000160 87 c2 3c 38 e0 64 9c 39 dc a5 a0 37 49 31 39 3a
       4.500386e-05 0.00029829796 1.915072e-05 0.0007064534
000170 ce 15 6a 37 37 2d 90 3a 0b b3 3f 39 37 c0 d4 38
       1.3952564e-05 0.0010999803 0.00018281878 0.000101447506
000180 80 f8 b3 3b c8 44 a4 3a 67 33 16 39 f0 03 9b 38
       0.00549227 0.0012532705 0.00014324264 7.3917094e-05
000190 a3 42 25 3a f1 72 f7 39 cd 51 2e 39 26 c5 c8 37
       0.000630418 0.0004719715 0.00016624406 2.3933662e-05
0001a0 fb a9 64 39 6d e1 3e 39 f7 a5 3a 3a dc 6a 01 3a
       0.00021807097 0.0001820379 0.00071200676 0.0004936883
0001b0 63 dc 27 3a dc b8 aa 3a d7 51 91 3a f6 44 a7 3a
       0.00064033846 0.0013025063 0.0011087012 0.0012761641
0001c0 49 64 2b 3a 03 3f a5 37 f2 e2 ee 36 37 09 23 39
       0.0006538076 1.9698875e-05 7.1193726e-06 0.00015548324
0001d0 c7 13 26 3b f6 9d 88 38 df aa d0 39 d5 8c ed 39
       0.0025341378 6.514408e-05 0.0003980016 0.0004530909
0001e0 7d 1d 65 39 fc bf 85 3b 3c f8 eb 39 dc 38 d8 39
       0.00021850127 0.004081724 0.00045007642 0.00041241094
0001f0 40 ae 00 39 a1 c0 9f 38 9b f7 41 39 1d e5 68 3a
       0.00012271944 7.617591e-05 0.00018498155 0.0008884238
