Assets/IA/Pruebas/results/Pad08/PadBehavior.onnx (onnx, 75090 bytes, 5 tensors)

network_body._body_endoder.seq_layers.0.weight f4 [128, 7]
-0.19617678 0.29062787 0.18839449 0.58575946 0.56484514 0.46599922 -0.48359016 -0.2936843
0.25745803 0.5749441 -0.08079162 -0.5001622 -0.14141391 -0.6953625 0.0012213311 -0.6205222
0.68539554 -0.21682726 0.63055813 -0.17281684 -0.8945306 -0.2605318 -0.5878439 0.17440894
-0.32819372 -0.012612437 0.99310505 0.10902264 -0.076734565 0.20106462 0.072845176 0.7361651
0.12184461 -0.57569075 -0.1545418 -0.23870477 -0.81878734 -1.0967084 -0.44139293 0.2757596
-0.15017709 0.76402575 -0.151395 0.5658812 0.32371178 -0.28260767 -0.45474577 -0.087005824
0.5775115 -0.15745132 -0.75348175 -0.49584907 0.58045286 0.1175994 0.5770435 -0.11931817
-0.6139545 -0.60424966 0.23295203 0.01497678 0.7104382 0.21255837 -0.09064622 -0.42857516
0.07859891 -0.122512065 -0.37038925 0.153759 -0.027458826 -0.13361682 -0.14632228 0.0465696
-0.12204593 -0.16369912 0.5074735 -0.3092386 -0.18484533 0.48307368 -0.17109111 0.5709205
-0.6327869 -0.032210626 -0.5222318 0.16249324 0.9086727 0.46321255 0.20422027 0.1752733
-0.6015341 -0.057486665 -0.15981281 0.2989137 -0.1813461 -0.47260883 0.13779001 0.6692718
0.3619372 0.13019992 0.29934192 0.10781266 0.15080862 -0.8931341 -0.20211963 0.32259777
0.61681026 0.6963161 0.5252191 0.2394562 -0.0044550663 0.6955854 -0.25705126 0.45380008
-0.060326394 0.09719544 -0.3831127 -0.6661982 0.6111529 0.37276036 0.3248012 -0.39468864
-0.20077394 -0.31870413 0.47317883 -1.0761073 -0.12203733 0.63049054 -0.6208643 0.2748049
-1.10166 -0.038479306 0.081545494 0.12198901 -0.2328513 0.6233097 0.33190835 0.098965555
0.23934248 -0.86430687 0.16615511 0.0047853864 0.13871008 -0.016777292 -0.2708636 -0.3904324
-0.53521734 -0.52897966 0.23686357 0.11628167 -0.24933402 0.1210856 -1.0008831 0.17107181
0.28933594 0.3671917 0.18852843 0.8689383 -0.013881517 0.4279039 0.3395134 -0.15181603
0.7107474 0.35164827 0.024840074 0.45720914 -0.048704617 -0.643176 -0.25717065 -0.068966866
0.2881843 -0.3554748 -0.07078813 -0.576482 -0.60015756 -0.60458964 -0.3938064 0.55364484
-1.3077496 -0.17094873 -0.46116108 -0.28907636 0.50154895 0.057562917 -0.7759414 -0.6391703
-0.35320163 -0.23703052 0.44035646 0.3661035 -0.405681 0.49201074 -0.5565289 0.45976096
0.045692988 -0.5222047 0.326027 0.17219922 -0.6192733 0.559308 -0.21022035 0.46701345
-0.051247563 0.12791555 0.12813626 -0.08610069 -0.04565074 0.2113628 -0.24470544 -0.7304393
0.23234366 -0.22522005 0.25687584 -0.35908785 0.2519042 -0.053424213 0.46150213 0.63006663
0.14112309 -0.68635935 -0.06386485 0.6683298 0.19429006 -0.5553795 0.20084539 -0.6463837
-0.54949176 0.91086215 -0.14026603 -0.246892 0.13384995 -0.18831927 -0.09859287 0.012637326
-0.5863957 -0.17621799 0.49654168 0.04411057 0.30609834 0.5872597 -0.31600347 -0.14302264
0.34754765 -1.0021021 -0.14106567 0.13224335 -0.27158988 1.0049075 0.0068457043 -0.23865125
0.106799826 0.04640681 -0.032983944 0.18506652 0.22955297 0.06957751 -0.10760002 0.24730156
00000000: 91e2 48be 2dcd 943e 7cea 403e 55f4 153f
00000010: b199 103f 7397 ee3e 2199 f7be ca5d 96be
00000020: 8ad1 833e 892f 133f 1476 a5bd a10a 00bf
00000030: cfce 10be 4703 32bf 1215 a03a 8bda 1ebf
00000040: 1576 2f3f f707 5ebe 426c 213f e6f6 30be
00000050: f5ff 64bf 6d64 85be f07c 16bf 4298 323e
00000060: 0209 a8be 65a4 4ebc 223c 7e3f 4347 df3d
00000070: 0327 9dbd e2e3 4d3e da2f 953d 5175 3c3f
00000080: ab89 f93d 7860 13bf 3540 1ebe 066f 74be
00000090: 0c9c 51bf f160 8cbf 41fe e1be 5d30 8d3e
000000a0: 06c8 19be 3197 433f 4a07 1bbe 97dd 103f
000000b0: 8dbd a53e f4b1 90be 70d4 e8be 1c30 b2bd
000000c0: cbd7 133f eb3a 21be 2ee4 40bf eedf fdbe
000000d0: 8f98 143f f4d7 f03d 1fb9 133f 165d f4bd
000000e0: 1f2c 1dbf 1bb0 1abf fa8a 6e3e 2b61 753c
000000f0: 47df 353f e7a8 593e baa4 b9bd 346e dbbe
00000100: 77f8 a03d 9be7 fabd a9a3 bdbe 0073 1d3e
00000110: 55f1 e0bc d9d2 08be 82d5 15be c4bf 3e3d
00000120: 37f3 f9bd bea0 27be c9e9 013f 8654 9ebe
00000130: 1848 3dbe 6f55 f73e 8232 2fbe d927 123f
00000140: 53fe 21bf 4aef 03bd fcb0 05bf a164 263e
00000150: c69e 683f 322a ed3e 1e1f 513e d87a 333e
00000160: 24fe 19bf 2377 6bbd f8a5 23be 370b 993e
00000170: cbb2 39be c9f9 f1be d318 0d3e 6655 2b3f
00000180: d54f b93e 2153 053e 5843 993e e2cc dc3d
00000190: 936d 1a3e 70a4 64bf 73f8 4ebe 892b a53e
000001a0: 47e7 1d3f c641 323f c274 063f 0234 753e
000001b0: cefb 91bb e311 323f 399c 83be 7c58 e83e
000001c0: cf18 77bd 670e c73d 5927 c4be f78b 2abf
000001d0: 8474 1c3f 72da be3e 584c a63e a114 cabe
000001e0: af97 4dbe 302d a3be 7f44 f23e e2bd 89bf
000001f0: b5ee f9bd d467 213f f6f0 1ebf 3ab3 8c3e
00000200: 3203 8dbf 7a9c 1dbd 5301 a73d 60d5 f93d
00000210: 9270 6ebe 3991 1f3f e4ef a93e 74ae ca3d
00000220: 3216 753e 3743 5dbf 9124 2a3e bbce 9c3b
00000230: 040a 0e3e 8870 89bc a2ae 8abe c1e6 c7be
00000240: 0104 09bf 366b 07bf 5d8c 723e 1625 ee3d
00000250: 6b51 7fbe bafb f73d f01c 80bf 732d 2f3e
00000260: d723 943e 8d00 bc3e 990d 413e be72 5e3f
00000270: 4d6f 63bc 3816 db3e b3d4 ad3e a975 1bbe
00000280: 8bf3 353f 3e0b b43e 697d cb3c 5117 ea3e
00000290: 7e7e 47bd 2fa7 24bf dfab 83be 803e 8dbd
000002a0: e48c 933e cb00 b6be 5ef9 90bd 5394 13bf
000002b0: eda3 19bf 63c6 1abf fea0 c9be abbb 0d3f
000002c0: 5764 a7bf 2f0d 2fbe 4e1d ecbe d101 94be
000002d0: 8365 003f 18c7 6b3d 18a4 46bf aaa0 23bf
000002e0: d8d6 b4be 21b8 72be 6776 e13e eb71 bb3e
000002f0: 6cb5 cfbe d5e8 fb3e ae78 0ebf ca65 eb3e
00000300: 9228 3b3d 35af 05bf 03ed a63e fe54 303e
00000310: b288 1ebf cf2e 0f3f 0144 57be 631c ef3e
00000320: f7e8 51bd 4bfc 023e 2736 033e 8f55 b0bd
00000330: 45fc 3abd 7d6f 583e 1094 7abe 12fe 3abf
00000340: 7feb 6d3e 16a0 66be 3b85 833e 5dda b7be
00000350: 96f9 803e 59d3 5abd 024a ec3e 0c4c 213f
00000360: 9282 103e 3fb5 2fbf 93cb 82bd a917 2b3f
00000370: f9f3 463e 5a2d 0ebf 6aaa 4d3e 6779 25bf
00000380: 7eab 0cbf 432e 693f e6a1 0fbe 42d1 7cbe
00000390: f60f 093e c4d6 40be 0feb c9bd c90c 4f3c
000003a0: 071e 16bf 7d72 34be b63a fe3e 49ad 343d
000003b0: ecb8 9c3e a756 163f 35cb a1be 8774 12be
000003c0: c4f1 b13e e244 80bf 8573 10be cd6a 073e
000003d0: d40d 8bbe cfa0 803f ee51 e03b fe60 74be
000003e0: deb9 da3d 1115 3e3d 2c1a 07bd 1482 3d3e
000003f0: ef0f 6b3e a77e 8e3d 665d dcbd 9f3c 7d3e

network_body._body_endoder.seq_layers.0.bias f4 [128]
-0.03899358 -0.027036985 -0.02649107 -0.06821462 -0.020321324 -0.025330918 -0.050656743 -0.022542024
-0.029511493 -0.0059804395 -0.033100825 -0.06561736 0.060216602 -0.044001658 -0.038668443 -0.02948806
-0.009420517 0.027206002 0.07070142 0.02457095 -0.038426347 -0.061037935 -0.0560084 -0.03898169
-0.0431308 -0.02300024 -0.018845698 -0.009686852 0.038108736 -0.024201078 -0.056420665 -0.00030230283
-0.02663392 -0.035215203 0.024837144 0.00047946675 -0.08908345 -0.004192504 -0.03193817 0.013234356
0.014713531 -0.019601256 -0.022554087 -0.081275746 0.010965138 0.055796854 -0.028867668 -0.054101817
-0.020478163 -0.043320443 0.0038725827 -0.019846717 -0.004386408 -0.004093772 -0.051764924 -0.0045846445
-0.016547916 -0.020961566 -0.015203018 -0.0044473587 0.034548692 -0.046190947 -0.05094744 -0.03264302
-0.057773817 -0.008857752 0.020873126 -0.018300846 -0.020969633 -0.026223024 0.06244442 -0.019771919
-0.052568324 -0.011728999 0.05901871 0.002969999 0.0072613396 -0.012884739 0.029978683 -0.04302519
0.03805285 -0.09587622 -0.05322914 -0.008828116 -0.055780128 0.037266947 -0.008241101 0.011308681
-0.01847204 -0.056622043 -0.038446873 -0.028351283 -0.041448843 -0.04650435 -0.022715798 -0.040412135
-0.065051526 -0.030229747 -0.0116904555 -0.07368214 0.007006487 -0.06164725 -0.06759061 -0.026767055
-0.03196352 -0.044627264 -0.035178658 -0.018621746 0.041185234 -0.022482103 0.0095174 0.05968651
0.014094769 -0.034065444 -0.059468616 0.05170983 0.02679314 -0.03301193 -0.042693015 -0.061976887
-0.053301048 -0.01740173 0.012151767 -0.05147858 -0.04238858 -0.07364012 -0.00064821285 -0.04790425
00000000: bbb7 1fbd ab7c ddbc cd03 d9bc 1bb4 8bbd
00000010: e878 a6bc c982 cfbc 727d 4fbd 0daa b8bc
00000020: 16c2 f1bc 90f7 c3bb bb94 07bd 6562 86bd
00000030: afa5 763d 153b 34bd cd62 1ebd f290 f1bc
00000040: 8358 1abc 1fdf de3c e8cb 903d 0449 c93c
00000050: f264 1dbd ea02 7abd 1069 65bd 44ab 1fbd
00000060: eca9 30bd 006b bcbc 4b62 9abc 9ab5 1ebc
00000070: e817 1c3d 5741 c6bc 5b19 67bd 667e 9eb9
00000080: 612f dabc d13d 10bd 4477 cb3c f060 fb39
00000090: 6271 b6bd 4661 89bb 99d1 02bd ead4 583c
000000a0: 0611 713c d092 a0bc 59c3 b8bc e673 a6bd
000000b0: 1fa7 333c 3e8b 643d e37b ecbc de99 5dbd
000000c0: d2c1 a7bc c770 31bd 28cb 7d3b 9595 a2bc
000000d0: dbbb 8fbb 0c25 86bb 7507 54bd c93a 96bb
000000e0: 7f8f 87bc 97b7 abbc 1416 79bc 26bb 91bb
000000f0: ee82 0d3d b832 3dbd 43ae 50bd b0b4 05bd
00000100: 3da4 6cbd 1b20 11bc 1efe aa3c a8eb 95bc
00000110: 82c8 abbc abd1 d6bc b8c5 7f3d b8f8 a1bc
00000120: e251 57bd fd2a 40bc 9abd 713d 51a4 423b
00000130: 88f0 ed3b 831a 53bc db95 f53c 2e3b 30bd
00000140: 4edd 1b3d c05a c4bd cc06 5abd cda3 10bc
00000150: b479 64bd 3aa5 183d af05 07bc 0c48 393c
00000160: ad52 97bc 84ec 67bd 787a 1dbd f340 e8bc
00000170: 43c6 29bd 587b 3ebd 7b16 babc 3287 25bd
00000180: bc39 85bd 60a4 f7bc 5389 3fbc a9e6 96bd
00000190: ac96 e53b d481 7cbd f26c 8abd 9546 dbbc
000001a0: 2eec 02bd 14cb 36bd 7f17 10bd a28c 98bc
000001b0: d9b1 283d 632c b8bc deee 1b3c d879 743d
000001c0: bfed 663c 3588 0bbd 5d95 73bd b0cd 533d
000001d0: 4a7d db3c 8437 07bd dfde 2ebd 7adb 7dbd
000001e0: 3352 5abd 138e 8ebc 3418 473c 34db 52bd
000001f0: a69f 2dbd a2d0 96bd d4ec 29ba 3f37 44bd

network_body._body_endoder.seq_layers.2.weight f4 [128, 128]
0.08097957 -0.008770068 0.1469874 -0.020258773 0.09433069 0.04290885 -0.15000358 0.06065903
-0.08173709 -0.062205017 0.093396515 0.06758185 -0.05844648 0.030364808 0.087974854 0.0029190413
0.01834198 -0.0039414624 0.058039013 -0.006408531 0.13738891 0.06101503 -0.012659618 -0.10146693
-0.029952725 0.01573775 -0.054677818 0.054654785 0.01662328 -0.12476919 -0.009197931 -0.09505536
0.037910067 -0.059448835 -0.09670487 -0.17034905 -0.016131112 -0.18301873 0.01682698 -0.19320147
-0.08418089 -0.03327523 -0.023854224 0.06422393 -0.15413038 -0.27145225 0.053583417 -0.04471005
-0.056835692 -0.051275775 -0.19062851 -0.073389366 6.094519e-05 -0.10406486 0.08621175 0.052355375
-0.08380565 0.07034309 0.06397104 0.08737259 -0.06691496 0.033883445 0.07220219 0.01818279
-0.045583848 -0.062285263 0.18905255 0.0887422 -0.019886855 0.08488952 -0.24175134 0.13697489
0.05616811 0.05783449 0.34301364 -0.03758966 -0.11751716 0.1439244 -0.03539908 -0.14562987
0.07974341 -0.07677412 0.08560529 0.069077544 0.13098288 0.10333656 0.107723445 0.028807977
-0.08874782 0.022013824 0.06739226 0.048675932 -0.22690842 0.04486844 -0.054664347 -0.05288813
-0.016729368 0.023355396 0.040112037 0.037312847 0.20369315 0.016432535 -0.011332937 -0.090075925
0.014670416 0.10106415 0.09564817 -0.048663754 -0.12568541 0.006930133 -0.03821435 0.14358291
0.060314838 0.028487334 -0.09601775 0.13543321 0.09639107 -0.017079324 0.12790577 -0.071129136
0.14076613 -0.14748047 0.009952369 0.05858015 -0.035521507 0.0056780404 0.1282432 -0.06691423
-0.06592239 0.037292235 0.1336824 0.13254744 0.100701846 -0.0738069 0.11942134 -0.04222924
0.012986417 -0.04123988 0.089008726 0.041894905 -0.10685925 -0.016639313 -0.06232318 -0.04682655
0.001790744 0.2285911 0.24259914 -0.13565917 0.08713469 -0.10388408 -0.1492623 -0.055787776
0.053435773 0.11767826 0.050245177 0.039998926 0.26788297 -0.037339132 -0.14786376 0.032696757
0.12499582 -0.0047619254 -0.0855675 -0.1346139 -0.11122296 -0.14769727 -0.111158624 0.0024067645
-0.07091723 -0.12839754 -0.020624673 0.074869655 -0.06706803 -0.25913012 0.082911864 -0.05228029
-0.0066009643 -0.017088648 0.046719372 -0.12117467 0.051332694 0.158809 -0.10543999 0.01629132
-0.0051003736 0.18577917 -0.13151026 -0.042435426 -0.107683636 0.019854551 0.16587527 0.16511765
-0.086821996 -0.095811486 0.17013186 0.03719488 -0.10014789 0.04160909 -0.13647653 0.14127105
0.031194499 -0.13621818 0.12324845 0.06087415 0.052356552 -0.09814447 0.098961115 -0.16654155
-0.055472944 0.031632256 -0.13082732 -0.113716185 0.059759047 0.18544182 0.039601374 -0.17705983
-0.090865314 0.09509852 0.1105916 0.13042858 -0.0375891 -0.04830458 -0.21675225 -0.11202338
-0.010860233 -0.06343243 0.1739554 0.027529012 -0.07446149 0.15220816 0.064630814 -0.0201126
0.010176369 -0.014288538 -0.004858907 -0.036380902 -0.06776354 0.15143393 -0.040286392 0.22472207
-0.15553372 0.013241656 0.010780572 0.24061672 -0.040559463 0.13792826 0.002366056 0.13997813
0.0029174485 -0.0742481 0.035286993 0.004290574 0.005424996 0.08295377 0.04777092 0.1913352
00000000: 9ed8 a53d 55b0 0fbc dd83 163e baf5 a5bc
00000010: 7330 c13d 31c1 2f3d 8a9a 19be 9a75 783d
00000020: c765 a7bd b0ca 7ebd ac46 bf3d 5a68 8a3d
00000030: 9465 6fbd 9ebf f83c 292c b43d 634d 3f3b
00000040: ec41 963c 6227 81bb 51ba 6d3d a8fe d1bb
00000050: aeaf 0c3e e5ea 793d 496a 4fbc e5cd cfbd
00000060: 6b5f f5bc 74ec 803c d9f5 5fbd b2dd 5f3d
00000070: 8b2d 883c fd86 ffbd ebb2 16bc 62ac c2bd
00000080: 9647 1b3d 9f80 73bd 340d c6bd fb6f 2ebe
00000090: 6525 84bc 4369 3bbe bcd8 893c 9bd6 45be
000000a0: 0867 acbd 9c4b 08bd ef69 c3bc d687 833d
000000b0: 5bd4 1dbe cafb 8abe 497a 5b3d e321 37bd
000000c0: 8bcc 68bd 8c06 52bd 1f34 43be 2a4d 96bd
000000d0: 669f 7f38 f51f d5bd c98f b03d 9772 563d
000000e0: 4ca2 abbd 0a10 903d 4003 833d 67f0 b23d
000000f0: b60a 89bd 5ec9 0a3d bede 933d 13f4 943c
00000100: 21b6 3abd d51e 7fbd fe96 413e 78be b53d
00000110: c2e9 a2bc 8fda ad3d aa8d 77be 2543 0c3e
00000120: 8810 663d dce3 6c3d 7c9f af3e 9ef7 19bd
00000130: d6ac f0bd eb60 133e a0fe 10bd ff1f 15be
00000140: 8350 a33d c03b 9dbd d451 af3d 8778 8d3d
00000150: 6020 063e 1ea2 d33d 1c9e dc3d b5fe eb3c
00000160: 6bc1 b5bd 5656 b43c f404 8a3d 6a60 473d
00000170: ae5a 68be f8c7 373d b9e7 5fbd 39a1 58bd
00000180: 070c 89bc d153 bf3c 854c 243d 5bd5 183d
00000190: f094 503e 869d 863c c8ad 39bc ba79 b8bd
000001a0: 2f5c 703c b9fa ce3d 30e3 c33d a553 47bd
000001b0: adb3 00be 2b16 e33b a686 1cbd 6607 133e
000001c0: b10c 773d 455e e93c f4a4 c4bd 01af 0a3e
000001d0: ae68 c53d f0e9 8bbc bbf9 023e 27ac 91bd
000001e0: ff24 103e 1f05 17be 430f 233c bdf1 6f3d
000001f0: 007f 11bd db0e ba3b 2f52 033e 540a 89bd
00000200: 5102 87bd bebf 183d 0ae4 083e 84ba 073e
00000210: c53c ce3d 1228 97bd 2d93 f43d 91f8 2cbd
00000220: fbc4 543c 26eb 28bd 354a b63d fe99 2b3d
00000230: 06d9 dabd 2b4f 88bc 9746 7fbd 32cd 3fbd
00000240: 66b7 ea3a c913 6a3e e96b 783e 3dea 0abe
00000250: ac73 b23d 2dc1 d4bd 37d8 18be b981 64bd
00000260: 78df 5a3d 4d01 f13d e3cd 4d3d ead5 233d
00000270: f527 893e ebf0 18bd 9969 17be 09ed 053d
00000280: cffd ff3d ed09 9cbb 033e afbd 3ad8 09be
00000290: ddc8 e3bd f43d 17be 22a7 e3bd cfba 1d3b
000002a0: 0d3d 91bd a57a 03be 13f5 a8bc 4355 993d
000002b0: f75a 89bd b4ac 84be b2cd a93d db23 56bd
000002c0: e74c d8bb 7efd 8bbc d05c 3f3d 6d2a f8bd
000002d0: 3b42 523d d49e 223e ecf0 d7bd 6075 853c
000002e0: 0921 a7bb e53c 3e3e a0aa 06be c5d0 2dbd
000002f0: 3d89 dcbd 03a6 a23c 35db 293e 9a14 293e
00000300: bbcf b1bd d038 c4bd 0c37 2e3e a959 183d
00000310: 561a cdbd 4b6e 2a3d 81c0 0bbe 5ca9 103e
00000320: 9b8b ff3c c77c 0bbe af69 fc3d 2c57 793d
00000330: d373 563d f8ff c8bd 20ac ca3d de89 2abe
00000340: 9937 63bd d390 013d 99f7 05be 08e4 e8bd
00000350: e7c5 743d 76e4 3d3e 0d35 223d 2c4f 35be
00000360: 9817 babd 03c3 c23d d97d e23d 128f 053e
00000370: 07f7 19bd 06db 45bd 4df4 5dbe 846c e5bd
00000380: 1eef 31bc dde8 81bd 5d21 323e 8684 e13c
00000390: 447f 98bd 75dc 1b3e 295d 843d 2ec3 a4bc
000003a0: c9ba 263c 791a 6abc 7737 9fbb 2404 15bd
000003b0: 9cc7 8abd 7f11 1b3e 5803 25bd 8b1d 663e
000003c0: 3b44 1fbe 88f3 583c ffa0 303c 3b64 763e
000003d0: ae21 26bd 113d 0d3e d50f 1b3b 6d56 0f3e
000003e0: aa32 3f3b 630f 98bd 1889 103d f297 8c3b
000003f0: 2ac4 b13b abe3 a93d 71ab 433d 60ed 433e

network_body._body_endoder.seq_layers.2.bias f4 [128]
-0.005288598 -0.003114308 -0.023386458 -0.039890938 -0.046074037 0.020977478 -0.018852927 -0.021009533
-0.12201838 -0.02174948 -0.003626837 -0.012379807 0.016194763 -0.033704575 -0.030220691 -0.009704802
-0.021449547 -0.022687268 -0.029648688 -0.063703954 -0.01366379 -0.08394272 -0.041632764 -0.060995374
-0.029996602 -0.016887529 0.0065618223 -0.024009865 -0.011380289 -0.025698757 -0.012258502 0.004189886
-0.015064674 -0.025885116 -0.016965818 0.0031357224 -0.05578596 -0.011901621 -0.029035278 -0.033051673
-0.049950123 -0.0031270857 -0.0054440536 -0.028260743 -0.01189609 -0.012877555 -0.00683124 -0.039775614
-0.037112094 -0.08464828 -0.027450973 -0.026637718 -0.0187248 -0.051288895 -0.016302453 -0.04541889
-0.035230517 -0.009860694 -0.03743063 -0.004228527 -0.06347527 0.004962619 -0.035175376 -0.049000442
-0.023403704 -0.018529996 -0.0037289788 -0.02873398 -0.024770077 -0.06970389 -0.02734541 -0.03733162
-0.032946374 -0.015056487 -0.021327524 0.008640897 -0.025077842 0.008444857 -0.027234549 -0.008990784
-0.032366063 -0.03454634 -0.019526202 -0.007593893 -0.14576778 0.0064960434 -0.015202011 0.021484088
-0.014188465 -0.030118255 0.0036814443 -0.044556223 -0.013575876 -0.0129367225 0.00814127 -0.0022547524
0.0022306044 -0.01063236 -0.01727623 -0.019216977 0.0066877506 0.002712963 -0.028469488 -0.028490253
0.008263768 -0.025069108 -0.049676172 -0.014284193 -0.002722904 -0.027967773 -0.09719881 -0.033734452
-0.019392729 -0.077693224 0.0012516018 0.004678159 0.002155281 -0.018436877 -0.014112573 -0.019370217
-0.015485187 -0.016215222 -0.021076716 -0.020082427 0.011822655 -0.023347773 0.0021167614 -0.005419329
00000000: fa4b adbb 6b19 4cbb f594 bfbc ae64 23bd
00000010: 21b8 3cbd f6d8 ab3c 7471 9abc 2f1c acbc
00000020: c6e4 f9bd f72b b2bc 3ab0 6dbb add4 4abc
00000030: e1aa 843c cf0d 0abd 6291 f7bc e400 1fbc
00000040: f6b6 afbc a6da b9bc cee1 f2bc 3877 82bd
00000050: 17de 5fbc 29ea abbd 1e87 2abd 49d6 79bd
00000060: 6fbb f5bc b757 8abc 8e04 d73b 56b0 c4bc
00000070: 6474 3abc 3386 d2bc e2d7 48bc 504b 893b
00000080: d3d1 76bc 060d d4bc e6fb 8abc b180 4d3b
00000090: d27f 64bd 04ff 42bc 64db edbc 3161 07bd
000000a0: 8098 4cbd cbef 4cbb 0864 b2bb 1383 e7bc
000000b0: d1e7 42bc 61fc 52bc 98d8 dfbb c1eb 22bd
000000c0: da02 18bd 145c adbd dde0 e0bc 5837 dabc
000000d0: c064 99bc 4e14 52bd b98c 85bc 2809 3abd
000000e0: e04d 10bd c08e 21bc dc50 19bd 758f 8abb
000000f0: 53ff 81bd 779d a23b 0e14 10bd b0b4 48bd
00000100: 20b9 bfbc 38cc 97bc e261 74bb 8663 ebbc
00000110: 9eea cabc eac0 8ebd 7b03 e0bc 0ae9 18bd
00000120: c7f2 06bd 7caf 76bc 0fb7 aebc 8d92 0d3c
00000130: 0c70 cdbc 4c5c 0a3c fd1a dfbc 154e 13bc
00000140: 4792 04bd 7780 0dbd 6af5 9fbc 31d6 f8bb
00000150: 2644 15be c3dc d43b db11 79bc 66ff af3c
00000160: bc76 68bc 8fba f6bc 6344 713b 9680 36bd
00000170: 5a6d 5ebc 8cf4 53bc f662 053c 78c4 13bb
00000180: 552f 123b 5a33 2ebc e186 8dbc ec6c 9dbc
00000190: eb24 db3b f7cb 313b d838 e9bc 6464 e9bc
000001a0: c164 073c bb5d cdbc 3e79 4bbd 3f08 6abc
000001b0: c072 32bb ac1c e5bc 2b10 c7bd 232d 0abd
000001c0: 80dd 9ebc a01d 9fbd ca0c a43a 3e4b 993b
000001d0: 9d3f 0d3b ef08 97bc 6c38 67bc 4aae 9ebc
000001e0: 95b5 7dbc c9d5 84bc 14a9 acbc e783 a4bc
000001f0: cfb3 413c d443 bfbc 5db9 0a3b a094 b1bb

action_model._continuous_distribution.mu.weight f4 [1, 128]
0.049575966 0.040087916 0.010326954 -0.0110084005 0.011418973 0.07679933 0.00621787 0.0093668895
-0.0022575164 -0.0022142706 0.033158377 -0.042636134 0.072861716 0.019305732 -9.208856e-05 -0.0322439
-0.019613381 -0.025041418 0.012596231 0.015237341 0.015488832 -0.0035654455 -0.005679676 0.00025182226
-0.0042292834 0.023231534 0.046023898 -0.055134654 -0.015481041 0.0015866376 -0.034896202 0.044165127
-0.032827508 0.030689532 -0.0054464904 0.0085871965 0.0060312515 -0.02596127 -0.0032204322 -0.011381101
-0.0033705018 0.04236862 -0.040288474 -0.052601572 -0.032994296 -0.016859725 -0.0017959866 -0.009682738
-0.022900159 -0.012551047 -0.0009423321 -0.014637812 -0.0010823547 -0.010837995 0.037750233 -0.0026839355
-0.013796663 0.01893771 0.0006337075 -0.04063147 -0.007390521 -0.031806625 0.010136798 0.0010634706
-0.003943558 -0.0033677353 -0.036602393 -0.027453937 0.0040256684 -0.025215605 0.006182594 0.007464205
0.033159398 0.023828685 0.0502121 0.05796814 -0.032749582 -0.049126174 -0.030908555 -0.0011511549
0.052683216 0.0065914495 0.000640744 -0.006404434 -0.005196866 -0.08045072 0.013729314 0.047992818
-0.025078578 -0.026517699 0.05578206 -0.017912095 -0.018594546 0.03216838 0.071756236 -0.03070781
0.0591458 -0.06973092 -0.023678541 0.031177342 -0.063275 -0.06381471 -0.0043220297 -0.003622711
0.07316204 0.021386279 -0.007216136 0.02324992 -0.05104011 0.03649023 0.0011616134 -0.0064640944
-0.047936827 -0.0031410244 -0.026844503 -0.04564214 0.03176644 0.018462973 0.00766323 0.04973582
-0.031213606 0.03845044 0.03675132 -0.027971085 0.046759613 0.023528311 0.044286873 -0.037495248
00000000: 2b10 4b3d 3a33 243d 6232 293c 945c 34bc
00000010: a516 3b3c f848 9d3d 46bf cb3b 9577 193c
00000020: d7f2 13bb 4c1d 11bb 14d1 073d 3aa3 2ebd
00000030: 8638 953d 0e27 9e3c ab1f c1b8 2e12 04bd
00000040: 3eac a0bc a923 cdbc 6c60 4e3c 0aa6 793c
00000050: dfc4 7d3c 40aa 69bb 931c babb 0307 8439
00000060: cd95 8abb 0f50 be3c 8e83 3c3d e0d4 61bd
00000070: 31a4 7dbc b9f6 cf3a 52ef 0ebd 7ee6 343d
00000080: 2376 06bd 9d68 fb3c 7978 b2bb 50b1 0c3c
00000090: cea1 c53b bbac d4bc e30d 53bb cc77 3abc
000000a0: a3e3 5cbb b88a 2d3d 8705 25bd bf74 57bd
000000b0: 0725 07bd 681d 8abc 4f67 ebba 59a4 1ebc
000000c0: 1d99 bbbc e8a2 4dbc d606 77ba 6fd3 6fbc
000000d0: ccdd 8dba d991 31bc fd9f 1a3d f7e4 2fbb
000000e0: 660b 62bc 4223 9b3c 641f 263a 2f6d 26bd
000000f0: 2f2c f2bb aa47 02bd d014 263c 2764 8b3a
00000100: f638 81bb 39b5 5cbb 64ec 15bd 14e7 e0bc
00000110: c1e9 833b f590 cebc 5c97 ca3b 4a96 f43b
00000120: 26d2 073d 6034 c33c 34ab 4d3d 0070 6d3d
00000130: 6d24 06bd 8738 49bd f033 fdbc 59e2 96ba
00000140: 5bca 573d 16fd d73b 9af7 273a 49dc d1bb
00000150: 794a aabb 59c3 a4bd ebf0 603c 1e94 443d
00000160: 9771 cdbc a53b d9bc bb7b 643d 63bc 92bc
00000170: 9753 98bc fec2 033d eff4 923d f28e fbbc
00000180: de42 723d 16cf 8ebd 80f9 c1bc a067 ff3c
00000190: 5396 81bd 49b1 82bd d09f 8dbb 016b 6dbb
000001a0: fbd5 953d 4732 af3c 5675 ecbb 9e76 be3c
000001b0: 6f0f 51bd c876 153d 4741 983a c1d0 d3bb
000001c0: 6859 44bd a5d9 4dbb 01e9 dbbc 41f3 3abd
000001d0: 871d 023d a93f 973c d51b fb3b cab7 4b3d
000001e0: adb3 ffbc 357e 1d3d 8d88 163d 9e23 e5bc
000001f0: 0287 3f3d 72be c03c 2766 353d 9e94 19bd
