Assets/IA/Pruebas/results/Pad18/PadBehavior/PadBehavior-20051.pt (torch, 438460 bytes, 30 tensors)

network_body._body_endoder.seq_layers.0.weight f4 [128, 5]
0.5638656 -0.25551966 0.53241605 -0.042489342 -0.09533029 -0.22119965 0.4383675 0.12276719
-0.1871699 -0.39574224 -0.29767302 -0.17280738 0.007156697 -0.736149 -0.3491856 -0.121798135
0.082288265 -0.028860316 -1.2710857 -0.32591242 -0.11378516 0.12781145 -0.13509023 0.25466177
0.11676808 0.35505515 0.13096233 0.38956496 -0.35157737 0.19541216 0.90591294 0.4732412
0.64878654 -0.19530669 -0.36722583 -0.054281075 -0.0971982 0.095295936 -0.65559155 -0.1115577
-0.41570047 1.1563119 0.4362857 0.09760555 0.18212369 0.0017012673 0.33646926 -0.33708167
0.24741222 -0.12980567 -0.20968826 -1.3088204 0.07166224 -0.32240567 0.36348343 0.59547174
-1.2656286 0.10121323 -0.3538448 0.07329511 0.9119806 0.6062115 0.5737552 0.36942458
0.5184487 -0.64558417 0.22776356 0.77465314 -0.14995544 -0.88986295 0.35600016 0.32966033
0.53590417 -0.13734601 0.18999776 0.031567093 -0.4543073 0.22529358 -0.02522174 0.022791658
-0.5983229 0.26861027 0.5641704 0.3158692 -0.3840578 0.10486536 -0.030607302 0.17383084
0.2571159 -0.3779645 0.21395478 0.3003633 0.37960643 0.062357556 0.5201093 -0.8749579
0.13757798 -0.4317356 -0.111473 -1.0468382 -0.21052082 -0.023229418 -0.12921214 0.16555542
0.67589307 -0.5468769 0.45233557 -0.39099163 -0.5827601 0.22772387 -0.20408082 0.18079637
0.2905551 -0.29068914 0.23028879 0.38892424 -0.009810123 0.64101756 -0.06746225 -0.79299706
-0.1032468 0.03466065 -0.22094026 0.13696842 -0.09663972 -0.31403428 -0.46773002 -0.43930122
0.31194547 -0.099538885 0.24642754 -0.1259621 0.14328398 -0.27453575 0.43037227 -0.22353518
-0.12072975 0.14330661 -0.2074366 -0.24872312 -0.16819319 0.07581393 -0.053281415 -0.115336
0.38917494 -0.14013737 -0.2967004 0.5778828 0.77279127 0.35183966 -0.032967843 -0.9068962
-0.4644594 -0.074599266 0.85038483 0.13004678 -0.41999257 -0.33625385 0.11932915 0.17206529
0.22236434 0.114347845 0.28768316 0.46586916 -0.45940733 0.34068212 -0.7956852 -0.21244228
-0.044430204 -0.02338576 0.036887955 -0.051956754 0.066101864 -0.03727229 0.93767977 -0.8537047
0.36816967 0.6494915 0.5758239 1.0884675 0.6289883 -0.12755933 0.39768627 -0.08925488
-0.69588965 -0.020519348 -0.48233482 0.44807845 0.5240678 0.024295492 -0.07132402 -0.012667181
1.1372753 -0.21000332 0.40558013 -0.12135701 0.35612854 0.16418952 -0.12963948 0.8079783
0.47570565 -0.35395533 -0.24933429 -0.12047696 1.1989975 -0.2292739 -0.23386629 -0.63374686
-0.21760547 0.07980142 0.27599427 -0.49557966 0.2965104 1.3400732 0.91227883 -0.23014072
0.8308367 0.027165677 -0.3399038 0.53783935 0.579633 -0.40340358 -0.46815184 -0.32694972
0.15780558 0.29628703 0.60022706 0.3170226 0.41798308 0.430374 -0.12407299 -0.17156467
-0.11756558 -0.23530342 0.08155338 1.0037731 -0.36052048 0.953107 0.055075027 0.7356126
0.4271233 -0.30205697 -0.13949978 -0.43495816 -0.5664698 0.12067939 0.08660629 -0.081000805
0.053646035 -0.34304857 0.16659823 0.345724 -0.006936723 -0.050812423 0.4656052 -1.1074644
00000000: 7f59 103f 79d3 82be 6b4c 083f 4e09 2ebd
00000010: 873c c3bd 2982 62be b471 e03e 5d6d fb3d
00000020: 77a9 3fbe ba9e cabe 9968 98be 6bf4 30be
00000030: ba82 ea3b 4374 3cbf 74c8 b2be 4d71 f9bd
00000040: c086 a83d 786c ecbc f0b2 a2bf fedd a6be
00000050: 3208 e9bd 01e1 023e 1855 0abe 0763 823e
00000060: 1a24 ef3d cac9 b53e fd1a 063e 0f75 c73e
00000070: f301 b4be 201a 483e e9e9 673f ac4c f23e
00000080: e016 263f 7afe 47be 0605 bcbe d555 5ebd
00000090: da0f c7bd 842a c33d d9d4 27bf 5d78 e4bd
000000a0: b1d6 d4be 0702 943f d760 df3e 6be5 c73d
000000b0: a27e 3a3e 0ffd de3a b345 ac3e f895 acbe
000000c0: a159 7d3e c7eb 04be 85b8 56be 6d87 a7bf
000000d0: a7c3 923d 5b12 a5be 801a ba3e d670 183f
000000e0: 1e00 a2bf e248 cf3d 252b b5be bf1b 963d
000000f0: 9077 693f ad30 1b3f 9fe1 123f 3825 bd3e
00000100: 0eb9 043f 0145 25bf da3a 693e ab4f 463f
00000110: eb8d 19be 0fce 63bf a745 b63e 3dc9 a83e
00000120: 0431 093f 6fa4 0cbe c68e 423e 7f4c 013d
00000130: f79a e8be 5cb3 663e d39d cebc 92b5 ba3c
00000140: b12b 19bf 4987 893e 796d 103f 9cb9 a13e
00000150: 39a3 c4be a6c3 d63d 2abc fabc b600 323e
00000160: b2a4 833e 9084 c1be f616 5b3e 38c9 993e
00000170: c65b c23e a36a 7f3d e225 053f 3efd 5fbf
00000180: 3ee1 0c3e 730c ddbe f54b e4bd cbfe 85bf
00000190: c592 57be 9f4b bebc 3050 04be 5c87 293e
000001a0: 5407 2d3f 2000 0cbf 8798 e73e 0e30 c8be
000001b0: c42f 15bf 7230 693e 90fa 50be af22 393e
000001c0: a3c3 943e 35d5 94be d3d0 6b3e 1421 c73e
000001d0: a3ba 20bc ba19 243f a629 8abd db01 4bbf
000001e0: 0f73 d3bd 53f8 0d3d 2a3e 62be 7341 0c3e
000001f0: 0ceb c5bd 1ac9 a0be 4f7a efbe 17ec e0be
00000200: 51b7 9f3e 0bdb cbbd 8057 7c3e 35fc 00be
00000210: 09b9 123e f38f 8cbe c159 dc3e 68e6 64be
00000220: 2941 f7bd f8be 123e 436a 54be 46b1 7ebe
00000230: d63a 2cbe 5544 9b3d 9d3d 5abd 4835 ecbd
00000240: f041 c73e 2c80 0fbe 1de9 97be 21f0 133f
00000250: a6d5 453f 5424 b43e 4a09 07bd 592a 68bf
00000260: 9fcd edbe 80c7 98bd d2b2 593f fc2a 053e
00000270: 4409 d7be 7729 acbe d762 f43d e231 303e
00000280: 7ab3 633e 342f ea3d 354b 933e 6786 ee3e
00000290: 7037 ebbe e36d ae3e 06b2 4bbf 788a 59be
000002a0: 72fc 35bd 7e93 bfbc d317 173d 9bd0 54bd
000002b0: 6a60 873d d4aa 18bd c80b 703f 648c 5abf
000002c0: bc80 bc3e 1345 263f 3269 133f e752 8b3f
000002d0: 6105 213f ea9e 02be 899d cb3e 43cb b6bd
000002e0: d325 32bf 3118 a8bc 97f4 f6be 8a6a e53e
000002f0: 4f29 063f 5707 c73c 5412 92bd 028a 4fbc
00000300: 3d92 913f 1c0b 57be 33a8 cf3e 068a f8bd
00000310: 7b56 b63e 4c21 283e 36c0 04be aad7 4e3f
00000320: b18f f33e a239 b5be 7d51 7fbe a0bc f6bd
00000330: c078 993f c7c6 6abe a57a 6fbe 3c3d 22bf
00000340: f8d3 5ebe ed6e a33d 1f4f 8d3e 9ebc fdbe
00000350: 36d0 973e 8587 ab3f 1b8b 693f 02aa 6bbe
00000360: b7b1 543f 8e8a de3c df07 aebe d7af 093f
00000370: d462 143f ea8a cebe 99b1 efbe f465 a7be
00000380: c997 213e efb2 973e 7ba8 193f c950 a23e
00000390: e101 d63e fb59 dc3e fb19 febd a6ae 2fbe
000003a0: 39c6 f0bd 61f3 70be 7505 a73d a37b 803f
000003b0: 2496 b8be d2fe 733f 5a96 613d 1b51 3c3f
000003c0: e8af da3e 36a7 9abe 08d9 0ebe d6b2 debe
000003d0: 2a04 11bf c226 f73d a35e b13d c0e3 a5bd
000003e0: f2bb 5b3d 10a4 afbe ba98 2a3e bc02 b13e
000003f0: 734d e3bb b020 50bd ce63 ee3e 65c1 8dbf

network_body._body_endoder.seq_layers.0.bias f4 [128]
-0.009176209 0.01385994 0.016044632 -0.021905206 0.004239697 -0.021889305 0.00697138 -0.018445931
0.008698021 -0.017456135 -0.006880198 0.0062897606 0.00036997712 0.009926976 -0.000515951 -0.017804723
-0.00888889 -0.011562192 -0.004282982 -0.00827462 -0.00014743941 0.0050378246 -3.5164892e-05 0.0019148635
-0.012167102 -0.008763797 -0.0017429793 -0.0042363694 0.014910599 -0.0065430566 0.01744874 0.009324798
-0.0023917335 -0.016644422 -0.003837365 -6.9475645e-05 -0.01570152 0.0084975865 -0.011254479 -0.014091066
-0.013270629 0.0014740869 -0.016922506 -0.015161762 0.0020505425 -0.016240638 -0.0005983288 -0.009914771
-0.012049178 0.0116269365 -0.012349113 0.010325837 -0.020839538 0.0020773634 -0.0028025387 -0.0064226785
0.013300529 -0.008446905 0.016950848 0.0043182075 -0.0041580964 -0.0074465624 -0.015800683 -0.014003225
0.0100008305 -0.002510889 -0.016620683 -0.016042395 -0.0115687465 0.0026085153 -0.0143907545 0.0036117255
-0.023818202 -0.010659904 -0.021526022 -0.014853189 0.0036959182 0.023059033 -0.015985793 0.0019515539
-0.018107517 0.018993016 -0.0015912399 -0.008138396 -0.030975793 0.0016048664 -0.005085244 0.0021957043
-0.012851262 -0.017419185 -0.010783792 -0.005391954 0.006301125 0.018199958 0.008214748 0.003396138
0.0048528714 0.002609443 -0.0062159607 0.001714104 0.013230805 -0.0051265904 0.020937223 -0.020140292
0.004755224 -0.002284168 -0.017182244 0.00208935 -0.0023026883 -0.005795571 0.016617268 0.00025226842
-0.00038390793 0.0043665036 -0.0020551342 -0.0047152285 -0.0045655495 -0.0015283932 -0.011941125 0.013557473
-0.023740886 0.00821507 0.010534118 -0.00092006 -0.006580335 -0.013531966 0.004012662 0.0014322178
00000000: cf57 16bc cd14 633c 0870 833c 8c72 b3bc
00000010: 28ed 8a3b 3351 b3bc 2d70 e43b ec1b 97bc
00000020: 2582 0e3c 2b00 8fbc 4973 e1bb 561a ce3b
00000030: 7df9 c139 c1a4 223c e340 07ba 36db 91bc
00000040: b5a2 11bc 596f 3dbc 4258 8cbb 4692 07bc
00000050: f799 1ab9 5614 a53b 047e 13b8 28fc fa3a
00000060: 8658 47bc 0796 0fbc ae74 e4ba 3ed1 8abb
00000070: 964b 743c 2367 d6bb a9f0 8e3c 0ac7 183c
00000080: a1be 1cbb e259 88bc 4d7c 7bbb 74b3 91b8
00000090: 79a0 80bc 7639 0b3c b564 38bc 37de 66bc
000000a0: 0d6d 59bc 2636 c13a 11a1 8abc 0a69 78bc
000000b0: 6562 063b 160b 85bc 2bd9 1cba 9071 22bc
000000c0: ea69 45bc e87e 3e3c ef53 4abc b32d 293c
000000d0: aeb7 aabc 6024 083b ccaa 37bb 5575 d2bb
000000e0: 76ea 593c e364 0abc 81dc 8a3c c07f 8d3b
000000f0: a440 88bb 4b02 f4bb 6f70 81bc c86d 65bc
00000100: 86da 233c ba8d 24bb 1928 88bc 576b 83bc
00000110: d78a 3dbc a0f3 2a3b 33c7 6bbc b3b2 6c3b
00000120: 641e c3bc e1a6 2ebc 5757 b0bc ca5a 73bc
00000130: 3837 723b 4ce6 bc3c a3f4 82bc 48cb ff3a
00000140: 3756 94bc 3e97 9b3c 2791 d0ba e856 05bc
00000150: f2c0 fdbc 615a d23a 1ea2 a6bb cee5 0f3b
00000160: 1a8e 52bc aeb2 8ebc 80ae 30bc fdae b0bb
00000170: ab79 ce3b 1418 953c 2797 063c be91 5e3b
00000180: d604 9f3b 3003 2b3b 42af cbbb c9ab e03a
00000190: 05c6 583c f5fc a7bb 8a84 ab3c 41fd a4bc
000001a0: b6d1 9b3b fbb1 15bb c7c1 8cbc 7aed 083b
000001b0: b3e8 16bb c6e8 bdbb f020 883c e542 8439
000001c0: 4047 c9b9 e314 8f3b 6eaf 06bb 3482 9abb
000001d0: 9b9a 95bb 5e54 c8ba b5a4 43bc 2a20 5e3c
000001e0: 3f7c c2bc 8098 063c 4b97 2c3c 2e30 71ba
000001f0: da9f d7bb 2eb5 5dbc a67c 833b 41b9 bb3a

network_body._body_endoder.seq_layers.2.weight f4 [128, 128]
0.1174231 0.00091577356 0.002347126 -0.15669785 -0.090743914 -0.05998312 -0.06394422 0.031821296
-0.17862642 -0.12659058 -0.16992392 0.079849035 -0.023203341 -0.023877226 -0.09572614 0.0890977
0.10815396 -0.10631454 0.013909298 -0.13927738 -0.0035593014 0.017344587 0.14284068 -0.06504845
0.06864416 0.0057626436 0.0719223 -0.13302885 0.033010237 0.075872846 -0.13055179 -0.15884322
-0.12204688 -0.10178773 0.10315758 0.13594091 -0.1353395 0.14817652 0.16236605 -0.0866746
0.15320987 0.1304068 -0.01013544 0.06975536 0.0066930745 0.08696074 -0.013994078 -0.015628655
0.13455476 -0.08850019 0.03484115 0.11183704 -0.11230874 0.037903856 0.020362766 -0.06463119
-0.09576271 -0.005134705 -0.034977503 0.04324418 0.096440665 -0.14521001 0.010292579 0.010211904
0.048890576 -0.0534693 -0.040378172 -0.03385296 -0.08372177 0.15944135 0.023173496 0.17143121
-0.10141697 0.06944925 0.07744615 0.010493502 -0.023463765 0.12919566 0.056028757 -0.039592296
-0.007653135 -0.026729727 -0.055398766 0.031942096 0.025781116 0.09807893 -0.14116466 -0.0008640525
0.046011444 0.15010378 0.17185244 -0.05298964 0.041601866 0.046537008 0.036888942 -0.030761044
0.0062323217 0.13819163 0.078408234 -0.11297634 0.07078217 -0.06290312 0.13169013 0.07822564
0.09434002 -0.020339588 0.036811955 -0.021191003 -0.08268533 -0.011496379 0.0040435703 0.1754909
0.01855199 -0.001991206 -0.2756004 -0.06290651 0.04741122 -0.060743753 0.16215536 -0.02723625
-0.042144902 -0.08386771 -0.079803824 -0.04223106 0.16316709 0.0017982465 -0.055306327 -0.08732302
0.072461724 -0.053033777 0.20552035 -0.044830423 -0.012596464 -0.15195563 -0.07670054 -0.018163264
-0.0056276 -0.09501327 0.07191491 -0.26866254 -0.021684095 -0.14526927 -0.011618456 0.0565707
-0.023720283 -0.06106711 -0.017241746 -0.05582539 -0.10075212 0.06246426 -0.10343054 0.07902372
0.0042029065 0.0325025 0.027779546 -0.041108143 0.12102784 -0.057761036 0.12351375 -0.035332676
0.1037537 -0.153717 -0.032335185 -0.22469358 0.089708835 -0.007940429 -0.04673045 0.09157748
0.111461155 -0.049992226 -0.028775807 0.016622107 0.009092644 -0.030981185 0.008108768 -0.055664554
-0.15031195 0.11045236 0.056881532 0.06171752 0.019565573 0.020554356 -0.037502494 0.13085493
0.03248291 0.07197354 0.032312848 0.05648323 -0.14010993 0.0065988447 0.07014651 -0.057071947
0.022095177 0.12156551 0.004195667 0.026467187 -0.007075545 0.041231602 0.025044264 0.07400249
-0.18012708 -0.1953359 -0.047812488 -0.061837986 0.062948875 -0.12008096 0.019661475 0.078139186
0.13323513 0.010086559 -0.07860688 0.055382583 -0.0005990746 0.038506716 -0.038842537 -0.07819982
-0.084644675 -0.036699377 -0.13551341 -0.015723528 -0.044575226 -0.093198426 0.01249746 0.124424174
-0.07857302 0.14598255 0.09188677 0.032188088 0.04426566 -0.016756145 -0.054081853 -0.15026918
-0.2434566 -0.08217906 -0.02515652 -0.041440967 0.05113659 0.009780297 0.1564187 0.06286796
-0.039193142 -0.15609337 0.015319046 -0.06961697 0.04133258 -0.13232392 0.09139328 0.053819582
-0.06859799 -0.14493872 0.07016566 0.059848495 0.054788183 0.0038547576 -0.022483163 -0.09348845
00000000: 867b f03d 8610 703a 3dd2 193b 6775 20be
00000010: f2d7 b9bd dcb0 75bd 30f5 82bd 0c57 023d
00000020: d8e9 36be f6a0 01be 8900 2ebe e487 a33d
00000030: ef14 bebc 2c9a c3bc 110c c4bd db78 b63d
00000040: d37f dd3d 70bb d9bd d3e3 633c bb9e 0ebe
00000050: 2b43 69bb 3c16 8e3c d444 123e 1f38 85bd
00000060: 4f95 8c3d 8fd4 bc3b 004c 933d b738 08be
00000070: be35 073d 3963 9b3d 5eaf 05be cca7 22be
00000080: b7f3 f9bd 1676 d0bd 4844 d33d 1834 0b3e
00000090: 7096 0abe 96bb 173e 4943 263e 7482 b1bd
000000a0: 0ce3 1c3e 5c89 053e 1e0f 26bc e6db 8e3d
000000b0: 9451 db3b 7918 b23d 6b47 65bc aa07 80bc
000000c0: b9c8 093e 963f b5bd 98b5 0e3d d10a e53d
000000d0: 2002 e6bd 1341 1b3d d1cf a63c 5b5d 84bd
000000e0: 3d1f c4bd 0741 a8bb 9244 0fbd cf20 313d
000000f0: af82 c53d efb1 14be 35a2 283c d44f 273c
00000100: 7c41 483d a002 5bbd 9563 25bd 67a9 0abd
00000110: 5276 abbd 9844 233e 58d6 bd3c aa8b 2f3e
00000120: b3b3 cfbd 693b 8e3d 169c 9e3d f0ec 2b3c
00000130: 1537 c0bc de4b 043e 697e 653d 882b 22bd
00000140: 26c7 fabb 4df8 dabc d1e9 62bd b7d5 023d
00000150: eb32 d33c 9bdd c83d 788d 10be 9581 62ba
00000160: 7f76 3c3d ceb4 193e 16fa 2f3e aa0b 59bd
00000170: b866 2a3d 979d 3e3d dc18 173d 96fe fbbc
00000180: 8138 cc3b 1b82 0d3e 7f94 a03d 2460 e7bd
00000190: 3ef6 903d 5ad3 80bd c7d9 063e c434 a03d
000001a0: 5735 c13d 359f a6bc 22c8 163d c198 adbc
000001b0: ed56 a9bd 4f5b 3cbc ed7f 843b e3b3 333e
000001c0: 58fa 973c e57e 02bb 7f1b 8dbe 21d5 80bd
000001d0: 4432 423d 71ce 78bd 0e0c 263e 8e1e dfbc
000001e0: 22a0 2cbd d5c2 abbd 3070 a3bd 7afa 2cbd
000001f0: 4615 273e 24b3 eb3a e388 62bd 69d6 b2bd
00000200: d066 943d f239 59bd ed73 523e 1ba0 37bd
00000210: 6661 4ebc 429a 1bbe 2c15 9dbd 20cb 94bc
00000220: bb67 b8bb 5196 c2bd 2048 933d 238e 89be
00000230: d8a2 b1bc 78c1 14be 565b 3ebc aeb6 673d
00000240: 0a51 c2bc 8221 7abd 903e 8dbc 2aa9 64bd
00000250: 2157 cebd 86da 7f3d 64d3 d3bd 30d7 a13d
00000260: 89b8 893b 5721 053d ee91 e33c 0361 28bd
00000270: 72dd f73d d696 6cbd c7f4 fc3d ffb8 10bd
00000280: d27c d43d fd67 1dbe e671 04bd 1316 66be
00000290: 44b9 b73d 9318 02bc 6e68 3fbd f98c bb3d
000002a0: bf45 e43d a6c4 4cbd 3ebb ebbc 162b 883c
000002b0: 50f9 143c 41cc fdbc a3da 043c 8400 64bd
000002c0: 60eb 19be d934 e23d 9cfc 683d 83cb 7c3d
000002d0: fb47 a03c 9c61 a83c 379c 19bd d6fe 053e
000002e0: cd0c 053d dd66 933d 7a5a 043d f65a 673d
000002f0: fa78 0fbe 1f3b d83b f9a8 8f3d 46c4 69bd
00000300: f200 b53c 57f7 f83d ce7b 893b b7d1 d83c
00000310: f9d9 e7bb 78e2 283d a129 cd3c 9e8e 973d
00000320: 3c73 38be 2206 48be 07d7 43bd d449 7dbd
00000330: 57eb 803d 02ed f5bd 1a11 a13c 7007 a03d
00000340: ca6e 083e 1842 253c a5fc a0bd d9d8 623d
00000350: 370b 1dba 38b9 1d3d 5a19 1fbd 3a27 a0bd
00000360: 305a adbd 1652 16bd 07c4 0abe a1ce 80bc
00000370: 8394 36bd d1de bebd 25c2 4c3c 1ad2 fe3d
00000380: e4ea a0bd 737c 153e 222f bc3d a8d7 033d
00000390: e94f 353d 2f44 89bc ef84 5dbd 2ae0 19be
000003a0: b04c 79be 7f4d a8bd 0c15 cebc 01be 29bd
000003b0: 9a74 513d 8a3d 203c 392c 203e ebc0 803d
000003c0: fd88 20bd f1d6 1fbe bcfc 7a3c 5893 8ebd
000003d0: 5a4c 293d ec7f 07be 662c bb3d ec71 5c3d
000003e0: 1a7d 8cbd d16a 14be 03b3 8f3d b223 753d
000003f0: 9369 603d 1aa0 7c3b 9c2e b8bc df76 bfbd

network_body._body_endoder.seq_layers.2.bias f4 [128]
-0.0070497533 0.015926482 0.00046750598 -0.00030117916 -0.004578356 0.0037033488 -0.012518829 -0.0043213246
0.0039920704 0.0024995932 0.0008799782 0.0030726304 0.0015704634 -0.00094227144 -0.001838801 -0.0075328867
-0.008864333 -0.015683003 -0.015108895 0.00045324213 -0.006173104 -0.006997887 -0.011045688 -0.010164123
-0.007009976 -0.0070955534 0.006802073 0.018572535 -0.002099099 -0.015712388 -0.0058570616 -0.012200274
-0.0042301905 -0.0039379145 0.0059631714 -0.012119114 -0.0147564765 -0.0022113333 0.003310198 0.008116807
0.031005546 -0.00034594216 -0.0028000309 0.010853361 -0.011822632 -0.021519737 0.009767393 -0.025573108
-0.002945426 -0.003159421 0.007140355 0.0009706845 0.0011002929 -0.00522453 -0.010413082 -0.0041810684
-0.008714144 -0.001411229 -0.004324613 -0.011749997 0.0018168683 0.003632447 0.025535889 -0.0022371442
0.00051253015 0.008975897 -0.011754849 -0.003635735 -0.0014499737 -0.017944846 -0.007496885 -0.012057775
-0.002892503 0.008220496 -0.011821743 -0.012755374 -0.000970409 -0.03184738 0.0009730492 -0.007701132
-0.005394642 -0.00033984325 -0.010018815 0.0030581215 -0.0095858835 -0.0043317894 -0.0055360547 -0.011999721
-0.008574582 7.1046205e-05 -0.0030434672 -0.0020903847 -0.008408863 -0.010429986 -0.01221434 -0.009466567
-0.0022328722 0.004220939 -0.017695079 -0.01831795 -0.006036627 0.01959131 -0.008245744 0.004592258
-0.009116816 -0.0045889947 -0.008896368 -0.005868709 0.0019373896 -0.005797961 0.0038865593 -0.010336689
0.007905197 -0.0019661721 0.005326141 -0.0027232936 -0.0052273 -0.010152274 -0.00445099 0.0079040285
-0.025234325 0.009590941 0.0054914 -0.0025489435 0.0021595384 -0.016483761 0.0007543975 -0.008812311
00000000: 9e01 e7bb 4178 823c 971b f539 95e7 9db9
00000010: 0906 96bb e2b3 723b c61b 4dbc e699 8dbb
00000020: eacf 823b 37d0 233b 56ae 663a 2f5e 493b
00000030: 02d8 cd3a c402 77ba ec03 f1ba 6fd6 f6bb
00000040: b53b 11bc a479 80bc 4c8b 77bc 21a1 ed39
00000050: c047 cabb 884e e5bb f9f8 34bc 6c87 26bc
00000060: f1b3 e5bb d181 e8bb ede3 de3b 6e25 983c
00000070: 0a91 09bb 44b7 80bc 98ec bfbb a8e3 47bc
00000080: 699d 8abb 9f09 81bb b566 c33b 408f 46bc
00000090: 26c5 71bc 04ec 10bb e8ef 583b 5bfc 043c
000000a0: 58ff fd3c 925f b5b9 b980 37bb 4cd2 313c
000000b0: b6b3 41bc 294a b0bc 6a07 203c b27e d1bc
000000c0: 0c08 41bb 4a0e 4fbb a4f9 e93b 8975 7e3a
000000d0: b437 903a 8932 abbb a29b 2abc 5801 89bb
000000e0: c5c5 0ebc fdf8 b8ba 7cb5 8dbb 0f83 40bc
000000f0: fc23 ee3a 590e 6e3b a430 d13c 0d9d 12bb
00000100: 515b 063a a40f 133c 6997 40bc 8345 6ebb
00000110: 0b0d beba 1201 93bc 6ea8 f5bb f98d 45bc
00000120: 2690 3dbb 42af 063c fcaf 41bc ebfb 50bc
00000130: 0c63 7eba 6672 02bd 3a14 7f3a c759 fcbb
00000140: 89c5 b0bb fd2c b2b9 f525 24bc c46a 483b
00000150: 1c0e 1dbc aff1 8dbb cb67 b5bb 7a9a 44bc
00000160: 677c 0cbc a4fe 9438 e874 47bb d6fe 08bb
00000170: 54c5 09bc 88e2 2abc a81e 48bc a919 1bbc
00000180: 6155 12bb cd4f 8a3b 45f5 90bc 870f 96bc
00000190: e6ce c5bb f47d a03c 2819 07bc a77a 963b
000001a0: b35e 15bc 475f 96bb 12c2 11bc 4d4e c0bb
000001b0: 02f0 fd3a d2fc bdbb a5b5 7e3b 375b 29bc
000001c0: cd84 013c e5da 00bb e986 ae3b 4979 32bb
000001d0: c549 abbb b955 26bc 9cd9 91bb e67f 013c
000001e0: 37b8 cebc 5223 1d3c 34f1 b33b 2d0c 27bb
000001f0: 0b87 0d3b f408 87bc c2c2 453a 8361 10bc

action_model._continuous_distribution.mu.weight f4 [1, 128]
-0.002372625 -0.043885138 -0.018371508 -0.030802142 -0.0067411885 -0.030925734 0.0033018433 0.016629841
0.025117723 -0.023724018 -0.013440793 0.023869844 0.0041758562 0.012231845 -0.014005796 0.00851202
-0.0026115985 0.0032787556 -0.0018602059 -0.028900305 -0.0046266876 -0.0192037 -0.012506955 -0.0026632592
0.028149346 -0.015643133 0.028228184 0.010074155 -0.0017428224 0.007389598 0.0015178357 -0.0056581865
0.009325424 0.017932871 -0.016689302 -0.009774619 -0.004324848 -0.015349343 0.024109453 -0.02274657
0.015083305 0.00592828 0.0057673617 0.043055553 0.0005525516 -0.010454577 -0.02947106 0.0011022566
0.00079933915 0.018041924 0.0012762543 -0.024724038 0.016378174 0.00010166406 0.0014161534 0.0101790065
0.044147268 -0.03648421 -0.019544581 -0.017792242 -0.023435527 -0.017368428 0.0379579 0.01116477
0.0046737054 -0.037451737 -0.010998364 0.00055159803 0.016410045 0.0035827053 -0.0074955593 0.003656598
-0.008734325 -0.022457957 -0.001255692 0.04234021 -0.007967054 0.0021810825 -0.021849701 -0.031691764
-0.042247564 0.026657013 -0.0052694757 -0.018208219 0.0033523627 0.037114628 0.014241013 0.032546893
0.020042198 -0.0051723574 0.0010264694 0.02492643 0.02369677 0.031349 0.0012284715 0.014195847
-0.0050883624 -0.027702104 -0.005428333 0.010784041 -0.017131884 0.029028118 -0.008555392 -0.011572927
0.0066550127 -0.008291375 0.004791405 -0.00880193 -0.046051625 -0.0027277647 0.05901222 0.0062965024
-0.042444013 0.009280767 0.051329203 0.025420675 0.007004541 0.014303419 0.009757626 -0.033575263
0.0027221332 -0.026021183 0.028504577 0.0278821 -0.026084037 -0.0026298063 0.011155224 -0.0012911553
00000000: 0b7e 1bbb e7c0 33bd d87f 96bc c654 fcbc
00000010: 30e5 dcbb f757 fdbc bd63 583b 4e3b 883c
00000020: afc3 cd3c df58 c2bc c636 5cbc b18a c33c
00000030: 9fd5 883b 1468 483c 9178 65bc 0076 0b3c
00000040: 5a27 2bbb 64e0 563b 27d2 f3ba 55c0 ecbc
00000050: 789b 97bb 1451 9dbc f9e9 4cbc 138a 2ebb
00000060: 7599 e63c 0726 80bc cb3e e73c 120e 253c
00000070: 6a6f e4ba 7124 f23b 1df2 c63a 4f68 b9bb
00000080: aac9 183c f5e7 923c 01b8 88bc b925 20bc
00000090: 74b7 8dbb d07b 7bbc 3081 c53c 0457 babc
000000a0: f71f 773c 0442 c23b 23fc bc3b 055b 303d
000000b0: 1cd9 103a ad49 2bbc 4b6d f1bc 9879 903a
000000c0: be8a 513a a8cc 933c fd47 a73a 118a cabc
000000d0: 852b 863c 7a34 d538 399e b93a d9c5 263c
000000e0: c4d3 343d 7870 15bd f51b a0bc 09c1 91bc
000000f0: ddfb bfbc 3c48 8ebc be79 1b3d 71ec 363c
00000100: e225 993b fe66 19bd 7b32 34bc 1e99 103a
00000110: 5c6e 863c d2cb 6a3b 4f9d f5bb 89a3 6f3b
00000120: 6a1a 0fbc c0f9 b7bc 0896 a4ba ee6c 2d3d
00000130: 3f88 02bc 7ef0 0e3b 25fe b2bc 39cf 01bd
00000140: c80b 2dbd cf5f da3c 91ab acbb 6729 95bc
00000150: 50b3 5b3b 8205 183d 2353 693c e44f 053d
00000160: 892f a43c e17c a9bb 998a 863a 8332 cc3c
00000170: bb1f c23c cf67 003d aa04 a13a b395 683c
00000180: 47bc a6bb 86ef e2bc 28e0 b1bb 8caf 303c
00000190: 2a58 8cbc 60cc ed3c ea2b 0cbc 609c 3dbc
000001a0: 4b12 da3b 8cd8 07bc 3801 9d3b f835 10bc
000001b0: a1a0 3cbd 4cc4 32bb ccb6 713d e452 ce3b
000001c0: c6d9 2dbd 5c0e 183c 923e 523d 053f d03c
000001d0: 5986 e53b e358 6a3c 73de 1f3c 3786 09bd
000001e0: d165 323b 602a d5bc 6e82 e93c 0069 e43c
000001f0: 31ae d5bc d458 2cbb 67c4 363c fc3b a9ba

exp_avg f4 [128, 5]
0.002192941 0.006500076 -0.00087021757 -0.031679295 -0.0025155917 -0.00020944925 0.00016524711 0.00050481147
0.020021012 0.0014801106 -0.00033793654 -0.0005483728 0.0011513137 0.03378022 0.0040759877 -0.0008297589
0.0037317867 -0.000957598 -0.029511781 -0.0028529651 -0.0032807416 -0.0013800515 -4.5094836e-05 -0.019924961
0.0009385294 0.0014452656 0.0038401424 0.00023462118 -0.004974174 0.0017322579 -0.003531158 -0.007820963
0.00040726273 0.004702797 -0.0003186074 0.0011662685 0.0024294283 -9.919298e-05 -0.0027477257 -0.00015963786
-0.009117773 -0.015691094 0.00066967413 0.041685216 -0.00090773735 -0.0038931714 4.4237786e-05 -0.00024341412
-0.006522415 -0.00018392592 -0.0014701794 -0.0011958848 -0.0002987141 -0.009678563 -0.0002424499 -0.0016648287
0.003724328 -0.0016162024 -0.049002357 -0.006494768 -0.0035633682 -0.0036902428 0.00016003363 -0.02300356
0.0011892134 0.00052744977 -0.008593587 0.0034522875 0.10714432 0.0067491424 0.00072056206 0.007258413
-0.00067857554 -0.040140156 -0.001423265 -0.0027945132 -0.0052587795 -0.0005149395 -0.0142255565 -0.00074647734
-0.0041512866 -0.0016549425 -0.0004154341 -0.0030449845 0.00018764146 0.0028560539 0.002003078 -0.00012178095
0.022141902 -0.0008591509 -0.00024811085 -0.0005319433 8.6159336e-05 -0.016261479 0.0011016288 0.0031272292
-0.0011168561 0.0017384465 0.043820553 0.004586773 0.0067838626 0.0018007077 0.0002722391 0.011749245
-0.00014576166 0.001971725 0.005556335 -0.0004304793 -0.023535708 -4.229284e-06 -0.0011233321 -0.009092996
0.0018309751 0.05968432 0.0045516584 -0.001277871 0.002782336 -0.0009318586 -0.030544866 -0.0019197114
-0.0052353744 -0.0027024643 -0.00021628325 -0.013337085 -9.614636e-05 0.010885092 0.0048384084 0.00079754356
0.024712123 3.5961435e-05 -0.0018313986 0.002354807 -0.0013133489 -0.0367485 -0.0036018703 -0.0016212945
-0.0062926114 0.00044066948 0.025483618 -0.0013783935 -0.003104979 -0.008155095 0.0005571225 0.027128013
0.00039119276 -0.002001673 -0.005864198 0.00022883047 -0.016990209 0.0012633551 -0.0033537115 -0.0053436058
-0.0008011573 -0.017941633 -0.00054520456 -0.00032705197 -0.00111412 -0.0001487123 -0.002935104 8.11847e-05
0.0041132946 0.002045431 -5.6170928e-05 0.02632797 -0.0011293088 -0.00038156364 0.0008438188 2.8135784e-05
0.002787051 -0.0005263385 0.0022436166 0.014422217 -0.00081681705 -0.068029754 0.0039599617 0.0055023846
0.0011708183 0.00037989276 0.023850126 -0.00034363283 -0.00014736233 0.011121349 -0.0026581225 -0.064111315
-0.007193458 0.010817815 0.0041709086 0.00047122873 0.036701214 -0.000899765 0.0021346917 -5.7076384e-05
0.00014391984 0.011340754 0.00034044223 0.0036408259 0.01067077 -0.0005467599 -0.04359129 0.002447233
-0.00021116364 0.0034621747 -0.00035682722 -0.02957382 0.001672362 -0.00089497416 0.007711623 -0.0013257944
-0.04745307 -0.002044827 -0.000563933 0.00058655697 2.4559187e-05 -0.0011027218 6.503632e-05 -0.0007565359
-0.003077162 0.0003647001 0.01443482 0.0016579753 0.0003395878 0.01695404 -0.0031044604 -0.10516435
-0.007451403 -0.002331774 -0.00088744506 -3.6358986e-05 -0.0076392684 0.00018278418 0.002922206 0.0087812245
-0.0008984494 -0.034790494 -0.0028297473 0.0012433918 0.004177461 -0.00018262405 0.001390558 4.3332635e-05
0.00067228416 -5.4719352e-05 7.967805e-05 0.0054017147 6.684905e-05 -0.0063702213 -0.0014010716 -0.0007229947
-0.027544655 -0.002307284 0.0041559637 0.0068213358 -0.0003073571 -0.0067329183 0.00041570904 0.0025803854
00000000: 72b7 0f3b 97fe d43b 501f 64ba 26c2 01bd
00000010: a0dc 24bb 9b9f 5bb9 2f46 2d39 5355 043a
00000020: 1b03 a43c 4500 c23a 132d b1b9 adc0 0fba
00000030: ade7 963a 215d 0a3d dd8f 853b 2d84 59ba
00000040: fe90 743b 5007 7bba b1c2 f1bc d0f8 3abb
00000050: b601 57bb d8e2 b4ba 3624 3db8 ac39 a3bc
00000060: a407 763a 116f bd3a e6aa 7b3b a504 7639
00000070: 65fe a2bb ee0c e33a 006b 67bb 7f23 00bc
00000080: e185 d539 ec19 9a3b c30a a7b9 7add 983a
00000090: 0b37 1f3b d305 d0b8 3013 34bb 7664 27b9
000000a0: b662 15bc 9c8a 80bc 128d 2f3a 1ebe 2a3d
000000b0: 39f5 6dba 9424 7fbb f68b 3938 fb3c 7fb9
000000c0: fcb9 d5bb 3ddc 40b9 09b3 c0ba 3cbf 9cba
000000d0: ba9c 9cb9 d692 1ebc 263a 7eb9 6236 daba
000000e0: db13 743b c1d6 d3ba b2b6 48bd 10d2 d4bb
000000f0: 6687 69bb 00d8 71bb b3ce 2739 f671 bcbc
00000100: 61df 9b3a 8e44 0a3a 1ecc 0cbc c63f 623b
00000110: 7b6e db3d e927 dd3b 1ae4 3c3a fbd7 ed3b
00000120: 6fe2 31ba 016a 24bd d98c baba 2724 37bb
00000130: d751 acbb 01fd 06ba 4f12 69bc 3faf 43ba
00000140: 8407 88bb a8ea d8ba 9fce d9b9 5d8e 47bb
00000150: 9fc1 4439 a22c 3b3b 1346 033b a664 ffb8
00000160: ef62 b53c a438 61ba e014 82b9 1c72 0bba
00000170: 71b0 b438 cb36 85bc 8764 903a 33f2 4c3b
00000180: 7963 92ba 96dc e33a 2e7d 333d a44c 963b
00000190: 2a4b de3b b905 ec3a 50bb 8e39 e87f 403c
000001a0: 99d7 18b9 0e38 013b eb11 b63b f4b1 e1b9
000001b0: f5cd c0bc 46e9 8db6 c53c 93ba cafa 14bc
000001c0: 54fd ef3a 8c77 743d 1426 953b 3c7e a7ba
000001d0: da57 363b f947 74ba 3a39 fabc d39e fbba
000001e0: 818d abbb d41b 31bb 18ca 62b9 ca83 5abc
000001f0: 2fa2 c9b8 6357 323c 838b 9e3b 3e12 513a
00000200: 1471 ca3c 4cd5 1638 8a0b f0ba 1b53 1a3b
00000210: ad24 acba 9885 16bd 5b0d 6cbb 9e81 d4ba
00000220: 4032 cebb a809 e739 05c3 d03c 36ab b4ba
00000230: e77c 4bbb f39c 05bc dc0b 123a 913b de3c
00000240: 0119 cd39 802e 03bb 7528 c0bb 36f2 6f39
00000250: 0d2f 8bbc 2a97 a53a f1c9 5bbb 6a19 afbb
00000260: c204 52ba 55fa 92bc 0fec 0eba 2c78 abb9
00000270: aa07 92ba a7ef 1bb9 e05a 40bb b441 aa38
00000280: d1c8 863b a30c 063b 1399 6bb8 c1ad d73c
00000290: 5105 94ba 9b0c c8b9 b933 5d3a 2305 ec37
000002a0: f5a6 363b fbf9 09ba a409 133b 2a4b 6c3c
000002b0: aa1f 56ba 2f53 8bbd 91c2 813b 594d b43b
000002c0: 2576 993a 582c c739 5761 c33c 9e29 b4b9
000002d0: 4685 1ab9 5236 363c e533 2ebb cb4c 83bd
000002e0: 19b7 ebbb 343d 313c 1eac 883b 400f f739
000002f0: 0354 163d 35de 6bba 2fe6 0b3b 4d65 6fb8
00000300: 30e9 1639 92ce 393c 627d b239 ec9a 6e3b
00000310: 74d4 2e3c 7054 0fba c88c 32bd c261 203b
00000320: cf6b 5db9 a7e5 623b 8a14 bbb9 cc44 f2bc
00000330: 2833 db3a b39c 6aba c8b1 fc3b 47c6 adba
00000340: 265e 42bd 8102 06bb e7d4 13ba 2cc3 193a
00000350: 7404 ce37 3489 90ba 1c64 8838 4452 46ba
00000360: 36aa 49bb 3835 bf39 0680 6c3c 6b50 d93a
00000370: b40a b239 33e3 8a3c 3474 4bbb 6860 d7bd
00000380: e62a f4bb add0 18bb 6ea3 68ba 2a80 18b8
00000390: d452 fabb c1a9 3f39 7b82 3f3b 20df 0f3c
000003a0: eb85 6bba 7a80 0ebd 4873 39bb 4ef9 a23a
000003b0: 15e3 883b c57e 3fb9 6243 b63a 10c0 3538
000003c0: 3a3c 303a 7582 65b8 d418 a738 de00 b13b
000003d0: 4f31 8c38 4abd d0bb 29a4 b7ba 5a87 3dba
000003e0: 54a5 e1bc cd35 17bb c02e 883b 8385 df3b
000003f0: c624 a1b9 d09f dcbb 86f3 d939 af1b 293b

exp_avg_sq f4 [128, 5]
3.6102985e-05 0.00019214768 3.3205048e-05 0.0023982932 0.00015670825 1.3005242e-05 9.863978e-05 2.322905e-05
0.0007242424 5.2652387e-05 2.8518316e-05 0.00013103944 4.314615e-05 0.0015876852 0.00014052619 1.3002919e-05
7.302384e-05 1.3970545e-05 0.00073455105 4.9653896e-05 2.9626686e-05 0.00015455754 3.285954e-05 0.0023332776
0.00015726453 7.834843e-06 6.665956e-05 1.8265375e-05 0.0004549826 5.4687225e-05 1.1261807e-05 9.850403e-05
9.995653e-06 0.0006802657 5.3854794e-05 2.8294965e-06 2.493596e-05 6.668962e-06 0.0001265409 2.9589894e-05
5.3324886e-05 0.00046484516 5.6038116e-05 0.003850121 0.0003104372 3.1088588e-05 0.00026520874 3.6512818e-05
0.0016597548 0.00011964053 1.0351309e-05 7.273244e-05 1.5759104e-05 0.00050699024 5.275267e-05 0.00010196193
0.0005113208 0.00013858067 0.004560384 0.0005934108 1.8711124e-05 0.00011735237 2.5157296e-05 0.0012929412
0.000119874574 0.00016222833 0.000982159 0.00017029085 0.010588607 0.00055068324 4.778588e-05 0.00022734435
4.9821585e-05 0.0034175413 0.00019615826 2.176226e-05 0.00010527777 3.0895328e-05 0.0008781099 8.569336e-05
4.2603093e-05 0.00029382075 5.604219e-05 0.001877815 0.00019761118 1.7982935e-05 0.00012143319 2.6127022e-05
0.0010543561 8.161022e-05 9.124767e-06 5.789885e-05 1.9671132e-05 0.00044847385 6.150116e-05 5.8624144e-05
0.00035200067 7.871885e-05 0.003304514 0.00022401226 9.882311e-05 0.00072301924 0.00014222504 0.005095283
0.0006421848 6.8895347e-06 3.701328e-05 8.597221e-06 0.00045752403 3.9861578e-05 7.061988e-05 0.00042546168
8.773755e-05 0.00426054 0.00031469273 2.6201425e-05 0.00016899392 3.4462486e-05 0.00126561 0.00013282556
4.4043474e-05 0.00037104267 4.7569287e-05 0.0029648803 0.00020235598 9.838169e-05 0.00071470474 8.123754e-05
0.004917968 0.00034221876 5.679744e-05 0.00037542632 6.950123e-05 0.0029589434 0.0002185636 1.5453164e-05
0.00011647526 3.1123793e-05 0.00076136744 9.299788e-05 1.7013303e-05 0.00015377591 3.208875e-05 0.0008504696
8.586617e-05 1.556712e-05 0.00012607565 2.3167304e-05 0.00051702734 5.3969936e-05 4.8502774e-05 0.0002855233
6.161286e-05 0.002594563 0.00019419844 3.1612612e-06 1.6094626e-05 3.8923154e-06 0.00015475799 1.3348505e-05
4.701512e-05 0.00029039662 6.27527e-05 0.0030205152 0.00020711441 6.0192924e-06 2.3827744e-05 6.694864e-06
0.00020162736 2.1788826e-05 0.00018290717 0.0012425949 0.00020887704 0.009109055 0.0007506559 0.0001199408
0.00068161055 0.00012835783 0.0067808107 0.0005922631 6.3650325e-05 0.0006081977 9.965021e-05 0.0062334323
0.0003379694 0.00014745738 0.00092027575 0.00012741688 0.009655896 0.00059919135 3.669679e-05 0.00030037764
3.7496713e-05 0.0012659854 9.534801e-05 3.7385907e-05 0.00023277118 4.386519e-05 0.002611901 0.00013439372
4.6914913e-05 0.00028984767 5.086263e-05 0.0024302776 0.00013366214 4.2620544e-05 0.00033593483 5.6697205e-05
0.0018613071 0.00020126242 3.5303515e-06 3.3843393e-05 5.728392e-06 0.00010699857 1.4829763e-05 1.5892065e-05
7.5268894e-05 3.5953875e-05 0.0005262182 0.00010889127 0.00017181289 0.0011808438 0.0002169045 0.011524282
0.00088166253 1.1888495e-05 0.00010058911 1.9928015e-05 0.0006686352 4.9541006e-05 1.7757482e-05 0.00012868852
1.8818579e-05 0.0012024047 9.1700495e-05 7.05756e-06 5.2825315e-05 1.1109322e-05 0.00029554244 2.7227892e-05
5.2776786e-06 2.7468805e-05 6.547693e-06 0.0003404155 1.6318421e-05 6.279515e-05 0.00040722277 6.026149e-05
0.0033921872 0.0002831375 1.6994722e-05 0.00010971949 1.5236401e-05 0.001012261 6.0709823e-05 1.188466e-05
00000000: 496d 1738 407b 4939 a645 0b38 af2c 1d3b
00000010: 0d52 2439 1731 5a37 d4dc ce38 01dc c237
00000020: 16db 3d3a 12d7 5c38 9e3a ef37 a267 0939
00000030: d3f7 3438 e019 d03a 365a 1339 1d27 5a37
00000040: 6024 9938 0963 6a37 e38e 403a 7743 5038
00000050: d386 f837 b910 2239 aad2 0938 e7e9 183b
00000060: 60e7 2439 6572 0337 94cb 8b38 9838 9937
00000070: bb8a ee39 f65f 6538 18f1 3c37 f393 ce38
00000080: 01b3 2737 dc53 323a 25e2 6138 61e2 3d36
00000090: 912d d137 f3c5 df36 10b0 0439 d037 f837
000000a0: 29a9 5f38 76b6 f339 780a 6b38 5052 7c3b
000000b0: 2dc2 a239 1e65 0238 b70b 8b39 5725 1938
000000c0: 218c d93a 85e7 fa38 89aa 2d37 ee87 9838
000000d0: 6b32 8437 8ae7 043a c042 5d38 65d4 d538
000000e0: 280a 063a f74f 1139 466f 953b 208f 1b3a
000000f0: d5f5 9c37 131b f638 e208 d337 e877 a93a
00000100: 2c65 fb38 d61b 2a39 cabb 803a 1a90 3239
00000110: d67b 2d3c ba5b 103a b36d 4838 4963 6e39
00000120: 85f7 5038 d4f8 5f3b d5af 4d39 198e b637
00000130: 93c8 dc38 9b95 0138 f530 663a 46b6 b338
00000140: b9b0 3238 f40b 9a39 d80e 6b38 0421 f63a
00000150: d935 4f39 0fda 9637 f3a9 fe38 5a2b db37
00000160: 5232 8a3a 2726 ab38 9316 1937 6bd8 7238
00000170: 6f03 a537 2421 eb39 2ffa 8038 32e3 7538
00000180: bb8c b839 dc15 a538 8c90 583b d5e4 6a39
00000190: 413f cf38 0089 3d3a 3e22 1539 55f6 a63b
000001a0: 4b58 283a a72c e736 b53e 1b38 c83c 1037
000001b0: d6df ef39 0b31 2738 c219 9438 8010 df39
000001c0: bdff b738 009c 8b3b 58fd a439 22cb db37
000001d0: f633 3139 d08b 1038 d3e2 a53a 1747 0b39
000001e0: 52bb 3838 8188 c239 2285 4738 704e 423b
000001f0: 852f 5439 4552 ce38 065b 3b3a 125e aa38
00000200: e826 a13b d36b b339 c939 6e38 ded4 c439
00000210: 30c1 9138 d5ea 413b 382e 6539 6ba1 8137
00000220: 2e44 f438 eb8a 0238 8196 473a db07 c338
00000230: cab7 8e37 e83e 2139 0897 0638 0cf2 5e3a
00000240: 0d13 b438 2396 8237 2d33 0439 6857 c237
00000250: 1e89 073a c75d 6238 756f 4b38 4ab2 9539
00000260: 2736 8138 8b09 2a3b bfa1 4b39 0e26 5436
00000270: f202 8737 bc9a 8236 8846 2239 64f3 5f37
00000280: 1a32 4538 6040 9839 199a 8338 d6f3 453b
00000290: da2c 5939 54f9 c936 b1e1 c737 72a4 e036
000002a0: ef6b 5339 26c7 b637 c5ca 3f39 91de a23a
000002b0: 0106 5b39 253e 153c aac7 443a ba88 fb38
000002c0: 1cae 323a cb97 0639 9031 de3b 1b42 1b3a
000002d0: 027c 8538 756f 1f3a 4dfb d038 d241 cc3b
000002e0: 7c31 b139 ca9e 1a39 a93e 713a 359b 0539
000002f0: c333 1e3c 0d13 1d3a e1ea 1938 017c 9d39
00000300: ca45 1d38 6cef a53a 93f5 c738 d0ce 1c38
00000310: 0a14 7439 e4fb 3738 6d2c 2b3b 0aec 0c39
00000320: 81c6 4438 b2f6 9739 5555 5538 4b45 1f3b
00000330: a827 0c39 76c3 3238 6920 b039 29ce 6d38
00000340: 1af7 f33a f809 5339 faea 6c36 11f3 0d38
00000350: 8336 c036 6b64 e038 59cd 7837 f34f 8537
00000360: aed9 9d38 2ecd 1638 e8f1 093a 8e5c e438
00000370: ac28 3439 8bc6 9a3a dc70 6339 58d0 3c3c
00000380: 5f1f 673a b274 4737 5ef3 d238 162b a737
00000390: 5947 2f3a 40ca 4f38 e7f5 9437 90f0 0639
000003a0: 97dc 9d37 029a 9d3a 544f c038 fbcf ec36
000003b0: c090 5d38 2d62 3a37 09f3 9a39 7467 e437
000003c0: ea16 b136 cf6c e637 41b4 db36 cc79 b239
000003d0: 8be3 8837 e4b0 8338 8480 d539 48c1 7c38
000003e0: 754f 5e3b 1272 9439 e38f 8e37 3419 e638
000003f0: d89f 7f37 d8ad 843a ada2 7e38 3a64 4737

exp_avg f4 [128]
0.0024273596 -0.00075974455 -0.0026237045 0.0020984726 -0.0009410098 7.623448e-05 -0.0012789327 -3.9404356e-05
-0.0026437214 -0.00021972338 0.00070058386 0.0030660105 -0.0011617301 -0.007897904 0.0016968055 0.0010676854
0.0002528217 0.0010192017 -0.0004253999 -0.0038337624 0.0008758283 0.0014239291 -0.0037136932 0.0006786759
-0.00084194343 8.015477e-05 0.0024033287 -0.0014288179 -0.0013565387 -0.00043637436 0.0016505464 0.00022048179
0.0013596112 -0.000106034444 0.0038433105 0.0008559283 0.003429227 0.00089746766 -0.00097146473 0.0023510188
0.0020401299 0.0031697357 -9.310793e-05 -0.0008616569 0.0063181925 -0.00037691518 0.0016780883 0.00060923223
-0.00038075107 -0.00041025985 0.0013911414 0.0006300396 0.001998441 -0.0005559426 -0.0013797603 -0.0010892327
0.0008031072 -7.57031e-05 0.00068553 -0.0007271205 0.00033935346 0.0011553203 0.001437339 -0.0018876182
2.6816506e-05 -0.0032018132 0.00094117626 -0.0011193353 -0.0004513794 3.5158504e-05 0.0006693889 0.00018598068
-0.00045191817 -0.004466078 0.0006644561 0.0036058165 -0.0017672373 0.00060251594 -0.001327459 -0.00071792543
0.00089507515 0.0013335437 0.00055552874 -0.0010309481 5.477838e-05 -0.00053721626 -0.0010853404 0.00028580258
0.00028765548 -8.499771e-05 0.00027439976 -0.0019376975 -0.0004224199 -0.000689641 0.00090205343 -0.00024843568
-0.00072625134 0.003170943 -2.6333211e-05 0.0008827765 0.00048771818 -0.000307344 -0.0007643496 0.0028131825
-0.00021399373 -0.0072077997 0.0012957581 -0.00022004308 -0.0015596863 -0.0026212975 0.0050688963 0.0006885129
-0.005708708 -0.0033752674 -0.0019745461 0.0003094038 0.0011831982 -0.006207335 -4.0252726e-05 -0.00046372568
0.000503828 0.0007067308 0.002604387 -0.0007676088 0.000350938 0.00060635764 -0.0008041457 -0.0021025978
00000000: 5614 1f3b 9829 47ba 75f2 2bbb 8786 093b
00000010: 19ae 76ba 13e0 9f38 dca1 a7ba 1b46 25b8
00000020: 4942 2dbb 8c65 66b9 63a7 373a 1fef 483b
00000030: 3245 98ba 3666 01bc 5867 de3a 94f1 8b3a
00000040: 278d 8439 bc96 853a 3508 dfb9 dc3f 7bbb
00000050: d897 653a 22a3 ba3a 6f61 73bb 2be9 313a
00000060: deb5 5cba c418 a838 2a81 1d3b 2c47 bbba
00000070: e3cd b1ba 2dc9 e4b9 2657 d83a 2131 6739
00000080: fb34 b23a cf5e deb8 0de0 7b3b 6060 603a
00000090: e2bc 603b 0944 6b3a e5a9 7eba 8d13 1a3b
000000a0: b3b3 053b 57bb 4f3b f042 c3b8 d1e0 61ba
000000b0: d708 cf3b b39c c5b9 4df3 db3a e2b4 1f3a
000000c0: 8b9f c7b9 2518 d7b9 f656 b63a 3e29 253a
000000d0: 47f8 023b adbc 11ba 13d9 b4ba 96c4 8eba
000000e0: 9d87 523a cbc2 9eb8 24b5 333a 3b9c 3eba
000000f0: 40eb b139 1e6e 973a 1865 bc3a f569 f7ba
00000100: 02f4 e037 83d5 51bb 45b9 763a a9b6 92ba
00000110: 1ea7 ecb9 2877 1338 ee79 2f3a cf03 4339
00000120: 6eef ecb9 2d58 92bb e52e 2e3a 904f 6c3b
00000130: a5a2 e7ba 29f2 1d3a 22fe adba 2933 3cba
00000140: 7aa3 6a3a 4dca ae3a e7a0 113a e120 87ba
00000150: d6c1 6538 f9d3 0cba fb41 8eba c6d7 9539
00000160: 77d0 9639 cc40 b2b8 50dd 8f39 57fa fdba
00000170: 3d78 ddb9 06c9 34ba c877 6c3a 7940 82b9
00000180: e761 3eba 98cf 4f3b 24e6 dcb7 216a 673a
00000190: 6db4 ff39 0323 a1b9 a25e 48ba 5f5d 383b
000001a0: 8163 60b9 682f ecbb 6dd6 a93a 5dbb 66b9
000001b0: 636e ccba 13ca 2bbb fc18 a63b 527d 343a
000001c0: 1d10 bbbb 9733 5dbb 6367 01bb 7a37 a239
000001d0: 8b15 9b3a e666 cbbb 09d5 28b8 3520 f3b9
000001e0: 5313 043a e743 393a 5dae 2a3b 5b39 49ba
000001f0: 1afe b739 f9f3 1e3a 4ecd 52ba bdcb 09bb

exp_avg_sq f4 [128]
1.0807575e-05 4.2740276e-06 8.413482e-06 4.3517493e-06 1.1660361e-05 2.6668329e-06 3.421906e-06 9.897964e-07
1.7752342e-05 9.6784715e-06 3.3256115e-06 2.896206e-05 6.875484e-06 5.1862175e-05 1.6534605e-05 5.7618613e-06
1.2457398e-05 6.0963316e-06 3.603884e-06 1.851813e-05 3.1309377e-05 2.2837976e-06 2.1471571e-05 7.723289e-06
1.5305874e-05 3.0127016e-05 1.67436e-05 5.411165e-06 5.7221177e-06 4.5271076e-06 1.4632546e-05 9.2427956e-07
1.658201e-05 1.4088076e-06 5.633175e-05 3.9365328e-05 2.7730395e-05 5.0324274e-05 1.0251858e-05 1.1738313e-05
1.4298728e-05 1.3503582e-05 1.1476923e-06 5.3317635e-06 5.855713e-05 4.398567e-06 6.0867433e-06 2.2805204e-06
1.8265822e-06 1.8636356e-05 5.3661365e-06 5.1899806e-06 4.71479e-06 2.5237889e-05 2.6118145e-05 8.968152e-06
1.05639365e-05 1.9573736e-06 2.30083e-06 4.007507e-06 3.6007207e-06 2.6230593e-05 1.23310365e-05 8.058734e-06
2.686192e-06 2.2178778e-05 1.0414243e-05 1.0503104e-05 4.2045654e-06 1.075225e-05 4.6785335e-06 4.746588e-06
3.279673e-06 1.1066978e-05 6.3698853e-06 1.968129e-05 7.3224223e-06 2.3001026e-06 4.122297e-06 1.5478006e-05
2.601301e-06 5.667663e-06 4.2022248e-06 7.235475e-06 1.3086654e-06 2.3293396e-06 3.334635e-05 2.7685742e-06
1.0753887e-05 8.5697235e-07 1.0853887e-05 9.234543e-05 8.660266e-06 8.930987e-06 2.781856e-05 7.5612047e-06
3.6404117e-06 3.2014785e-05 1.3916306e-06 4.722028e-05 2.5638219e-05 1.7299068e-05 2.8518152e-05 8.880961e-06
6.351018e-06 8.858935e-05 3.9760995e-05 1.4817831e-06 2.961468e-05 1.5018731e-05 3.806525e-05 2.3425914e-06
3.088306e-05 1.546034e-05 5.7860802e-06 2.2717504e-06 2.3737644e-05 5.8527472e-05 1.7889913e-06 1.64597e-06
1.7862591e-06 2.815624e-06 1.2695708e-05 2.2631728e-05 2.1892754e-05 1.0474474e-05 7.601062e-06 6.2653003e-06
00000000: 2e52 3537 9e69 8f36 a127 0d37 3e05 9236
00000010: dfa0 4337 d7f7 3236 e6a3 6536 25d9 8435
00000020: ddea 9437 b860 2237 922d 5f36 8df3 f237
00000030: f5b3 e636 9686 5938 cbb3 8a37 0356 c136
00000040: 1e00 5137 178f cc36 41da 7136 6257 9b37
00000050: 3052 0338 5843 1936 d91d b437 4693 0137
00000060: 1d65 8037 46b9 fc37 9b74 8c37 8e91 b536
00000070: 9e00 c036 8fe7 9736 4e7e 7537 021c 7835
00000080: 9819 8b37 4316 bd35 c245 6c38 331c 2538
00000090: 929e e837 4713 5338 65ff 2b37 acef 4437
000000a0: 92e4 6f37 718d 6237 680a 9a35 80e7 b236
000000b0: 3d9b 7538 6797 9336 ba3c cc36 0b0b 1936
000000c0: e328 f535 4555 9c37 c30e b436 9825 ae36
000000d0: bd33 9e36 f4b5 d337 4a18 db37 eb75 1637
000000e0: c33b 3137 6c5b 0336 f567 1a36 3978 8636
000000f0: e9a3 7136 c509 dc37 66e1 4e37 0034 0737
00000100: 6d44 3436 900c ba37 d5b8 2e37 7d36 3037
00000110: f114 8d36 9064 3437 4cfc 9c36 e144 9f36
00000120: 5a18 5c36 4fac 3937 e6bc d536 4019 a537
00000130: 21b3 f536 765b 1a36 4352 8a36 c4d6 8137
00000140: 0392 2e36 db2c be36 d600 8d36 42c8 f236
00000150: 67a5 af35 c051 1c36 5fdd 0b38 becb 3936
00000160: 986b 3437 b10a 6635 1719 3637 93a9 c138
00000170: 8f4b 1137 4cd6 1537 e75b e937 41b6 fd36
00000180: cc4d 7436 9d47 0638 10c8 ba35 640e 4638
00000190: a811 d737 771d 9137 443a ef37 70ff 1437
000001a0: d41a d536 0cc9 b938 0bc5 2638 aee1 c635
000001b0: 0b6d f837 f5f8 7b37 40a8 1f38 6a35 1d36
000001c0: 6f88 0138 d4b0 8137 0d26 c236 6074 1836
000001d0: 3420 c737 657b 7538 461d f035 19eb dc35
000001e0: 65bf ef35 0df4 3c36 a7ff 5437 44d9 bd37
000001f0: 55a6 b737 86bb 2f37 a00c ff36 853a d236

exp_avg f4 [128, 128]
-8.394179e-05 -6.856494e-05 -0.0001088505 -0.00034308957 -0.00040343867 -0.00011367373 -0.00012611835 -0.0001584928
-1.983274e-05 -0.00042114014 0.00016442298 -4.8934067e-05 -0.0008162721 1.7250431e-05 -4.0111372e-05 4.167978e-05
-0.00041502854 -0.0005042679 -0.00012051367 0.00019219833 -0.00015313327 -0.00017181318 -6.941367e-05 -8.026998e-05
-0.0001878048 -0.00035535515 -8.982736e-05 3.2448268e-06 9.257427e-06 -0.0012862704 0.00011638367 -0.00020131687
-0.0008937195 1.0609513e-05 1.3075908e-05 -0.00074303814 -0.00010133967 -0.00090162543 -2.7773545e-05 -3.450371e-05
-9.214779e-05 4.1870597e-05 -0.0024427695 -0.00010724338 -0.00018278716 -0.0007531019 -5.050498e-06 -0.00026739092
-0.00021500452 -0.00013181432 -2.5185607e-05 -0.00025781157 1.1214243e-05 -0.0009141035 -0.00077781663 -9.122423e-05
-0.0008205145 5.2023403e-05 -0.00018407365 -2.4772058e-05 -0.0009476155 -0.00060233846 -4.2577594e-05 -2.4029927e-05
-0.00041196472 -1.2951638e-05 -0.0008176005 0.00018535568 5.1161765e-06 -0.00026891046 -0.0004104982 -3.6631613e-05
-0.0004507312 0.00013614426 -0.0022781692 -0.00029849753 6.3603504e-05 -0.00017717655 -1.0461222e-05 -0.0009008954
-0.00014667782 -0.0012003934 -0.0007196533 -0.0009762007 -8.2306775e-05 -0.00021263736 -0.0008500701 -0.00063568837
-0.0008940086 -0.0005381864 -0.0009344006 -0.00048194485 -0.0005754817 -6.924972e-05 -0.0008474416 -0.0008588002
-0.00076429814 -0.00023152825 -0.00075116084 -0.0016257849 -0.0004502642 -0.0011279922 0.00010379084 -8.997133e-05
-0.00032233546 -0.00019910568 -0.0004890571 -9.004493e-05 -0.00020076653 5.659093e-06 -3.2648215e-05 -1.721936e-05
-2.4081426e-05 3.7021946e-06 -0.00014638282 -0.0011850349 -0.00019371706 -1.2410632e-05 -0.0007517698 -0.0008200848
-0.00089929777 -0.000985714 3.945793e-05 -0.0008603478 -1.6840348e-05 -0.00037754653 -0.00040886167 3.4534205e-05
-0.00056142325 0.024991978 0.07193848 0.12647672 -0.00061940163 0.034871016 0.030735256 0.06302462
0.012418398 -0.0011715146 0.023997994 0.021611473 0.00038947893 0.016353386 0.018678565 0.0027301987
-0.0006001031 -0.00074491807 0.0032141954 0.017722646 3.0784904e-05 0.062305126 0.02843042 0.007209812
-0.0009943045 0.0040453295 0.022876944 0.018608155 0.0104364315 0.0009738968 0.010021675 0.0010986181
-0.0004607686 0.005768168 0.004746902 -0.0005562101 0.008013809 0.0021046475 0.015830535 0.01756443
0.009724398 0.020133285 -0.00014288115 0.044296566 0.027764656 -0.00043421958 0.020703942 -0.0034767608
0.041046448 -0.0002261535 0.011694497 0.0019162615 0.034964364 -0.0004812847 -0.00048637483 0.041187275
0.006473603 -0.0005775847 -0.0014571217 0.010232551 -0.0003561007 -0.00025159714 0.0038632206 0.0005330221
0.0002028957 0.010568895 -0.00034691114 0.009993464 0.0070935157 0.003230711 0.013647321 0.0062998394
-0.00013641697 0.008763459 -3.998306e-05 0.051910885 0.0024583687 0.0023394958 0.035894472 -0.00029007727
0.02938169 -0.0009265688 -0.00066527125 -9.140277e-05 0.011102463 0.060358915 -0.00045210886 -0.00062305445
0.0037705593 0.0004113114 0.0027386106 -0.0010482647 0.00093126623 -0.001368361 -0.00072455354 7.6653065e-05
-0.0004054803 0.0631037 -0.00044402975 -4.9267273e-05 0.00019236108 -0.00020211443 0.004729533 0.026310517
-0.0001560314 0.078007706 0.001307064 0.00011932779 -0.0014287172 0.03476595 0.044258982 0.023852773
0.031371627 0.0031855644 0.04399888 -0.00010362803 0.0031392716 0.019636316 -0.00070888427 -0.002022704
-0.0005332925 -0.00020293734 0.02775763 -0.00029069633 0.0034876487 -0.0006986541 0.0013342408 0.007876018
00000000: e809 b0b8 86ca 8fb8 ab46 e4b8 b4e0 b3b9
00000010: 9f84 d3b9 1e64 eeb8 a33e 04b9 1631 26b9
00000020: 7c5e a6b7 79cc dcb9 f568 2c39 8e3e 4db8
00000030: 18fb 55ba 05b5 9037 423d 28b8 53d1 2e38
00000040: 3098 d9b9 d930 04ba 49bc fcb8 d988 4939
00000050: 6692 20b9 c028 34b9 2e92 91b8 9e56 a8b8
00000060: 78ed 44b9 f64e bab9 b261 bcb8 b3c1 5936
00000070: 5950 1b37 1398 a8ba 0213 f438 9618 53b9
00000080: 8048 6aba 83ff 3137 9960 5b37 72c8 42ba
00000090: 5286 d4b8 0f5b 6cba 3cfb e8b7 14b8 10b8
000000a0: 783f c1b8 369e 2f38 df16 20bb dae7 e0b8
000000b0: 8eaa 3fb9 d06b 45ba 7377 a9b6 9a30 8cb9
000000c0: d672 61b9 a337 0ab9 ae45 d3b7 e22a 87b9
000000d0: cf24 3c37 73a0 6fba 64e6 4bba a34f bfb8
000000e0: cc17 57ba b433 5a38 e503 41b9 97cd cfb7
000000f0: 6669 78ba 40e6 1dba 5895 32b8 e093 c9b7
00000100: f8fc d7b9 dd4a 59b7 3e54 56ba 095c 4239
00000110: 9fab ab36 8dfc 8cb9 2338 d7b9 e5a4 19b8
00000120: 1e50 ecb9 f2c1 0e39 564d 15bb a97f 9cb9
00000130: df62 8538 78c8 39b9 9b82 2fb7 112a 6cba
00000140: 87cd 19b9 8556 9dba 1ea7 3cba b8e7 7fba
00000150: 1d9c acb8 68f7 5eb9 3dd7 5eba 53a4 26ba
00000160: e75b 6aba 1415 0dba 90f2 74ba 8bad fcb9
00000170: ecdb 16ba 293a 91b8 d826 5eba 1b21 61ba
00000180: 2e5b 48ba 64c6 72b9 8de9 44ba 4a18 d5ba
00000190: 7011 ecb9 23d9 93ba 48aa d938 fdae bcb8
000001a0: 22ff a8b9 06c7 50b9 1134 00ba 81d6 bcb8
000001b0: db84 52b9 3de3 bd36 c1ef 08b8 4b72 90b7
000001c0: 7802 cab7 3873 7836 577e 19b9 2c53 9bba
000001d0: 8720 4bb9 4237 50b7 6b12 45ba f6fa 56ba
000001e0: dabe 6bba 1333 81ba a17f 2538 f788 61ba
000001f0: 5f44 8db7 70f1 c5b9 7c5c d6b9 d2d8 1038
00000200: 7a2c 13ba fabb cc3c 7b54 933d 1d83 013e
00000210: 575f 22ba e9d4 0e3d 81c8 fb3c 0d13 813d
00000220: 8976 4b3c 828d 99ba 7197 c43c 8b0a b13c
00000230: fa32 cc39 89f7 853c ca03 993c 22ed 323b
00000240: 3d50 1dba 9b46 43ba 40a5 523b 152f 913c
00000250: 0a1f 0138 a933 7f3d eae6 e83c 4940 ec3b
00000260: 5353 82ba af8e 843b 6e68 bb3c 2170 983c
00000270: 91fd 2a3c 1c4d 7f3a f431 243c 82ff 8f3a
00000280: 5193 f1b9 e602 bd3b e68b 9b3b a1ce 11ba
00000290: 5a4c 033c 20ee 093b 0aaf 813c 48e3 8f3c
000002a0: 1553 1f3c 8fee a43c 5ed2 15b9 5170 353d
000002b0: b472 e33c f7a7 e3b9 509b a93c 5eda 63bb
000002c0: 5220 283d 9e23 6db9 479a 3f3c 112b fb3a
000002d0: cb36 0f3d f054 fcb9 2000 ffb9 fdb3 283d
000002e0: 8520 d43b 0e69 17ba e4fc beba 6ea6 273c
000002f0: 07b3 bab9 cce8 83b9 162e 7d3b 82ba 0b3a
00000300: 66c0 5439 2929 2d3c a0e1 b5b9 a0bb 233c
00000310: b970 e83b 56ba 533b 0399 5f3c e26e ce3b
00000320: 270b 0fb9 9c94 0f3c 7cb3 27b8 82a0 543d
00000330: 951c 213b 3a52 193b 1506 133d 8315 98b9
00000340: dfb1 f03c fbe4 72ba 9965 2eba 7daf bfb8
00000350: 1be7 353c e93a 773d 0609 edb9 7a54 23ba
00000360: 7d1b 773b 48a5 d739 437a 333b ed65 89ba
00000370: 3820 743a 935a b3ba f7ef 3dba cdc0 a038
00000380: a596 d4b9 833c 813d aacc e8b9 55a4 4eb8
00000390: 89b4 4939 aeee 53b9 33fa 9a3b 2789 d73c
000003a0: 5c9c 23b9 81c2 9f3d ca51 ab3a 9f3f fa38
000003b0: cb43 bbba be66 0e3d e848 353d e466 c33c
000003c0: 897f 003d e7c4 503b 2b38 343d e052 d9b8
000003d0: 3dbc 4d3b 57dc a03c 6bd4 39ba 588f 04bb
000003e0: a7cc 0bba 94cb 54b9 f863 e33c 9a68 98b9
000003f0: 0991 643b e225 37ba b1e1 ae3a 6a0a 013c
