Assets/IA/Pruebas/results/Pad0/PadBehavior.onnx (onnx, 75090 bytes, 5 tensors)

network_body._body_endoder.seq_layers.0.weight f4 [128, 7]
000000 53 9e 13 be ac 45 b2 3e 62 20 7d 3e f5 a0 84 3c
       -0.14415865 0.3481878 0.24719384 0.016190032
000010 3b 1a 81 bf 2d 5e da bc 2d 93 b9 be 44 3a 5a be
       -1.008613 -0.026656235 -0.362451 -0.21311289
000020 5a cf 5d be d9 0f 9d be 20 4f a4 3c 39 f4 48 bd
       -0.2166113 -0.30676153 0.020057261 -0.049061034
000030 f4 22 d5 3c 03 96 5d be 3c 77 47 3f fd e8 31 3e
       0.026017644 -0.21639256 0.7791631 0.17374034
000040 48 fa 18 be e7 6e 12 be 80 67 8c 3e 71 31 8d bb
       -0.14939225 -0.14300118 0.27422714 -0.0043088724
000050 f6 32 f3 3e 3c b1 8c be 55 5b 03 be eb 2c 08 3e
       0.47499818 -0.2747897 -0.12827809 0.13298385
000060 c2 b7 b8 3d cb 8b ac 3e a8 2a 27 bf de 57 c5 be
       0.09019424 0.33700404 -0.65299463 -0.385436
000070 e6 6f 3a 3f 1e 9d 7e 3e 5a b9 a8 3c a5 da 5e be
       0.72826993 0.24864623 0.020596195 -0.21763094
000080 03 32 56 3e 4c c9 e8 be f9 c9 81 be 3a ef 1f 3e
       0.20917515 -0.45466077 -0.25349405 0.15618601
000090 ec dd 51 be 7b a2 35 bf 58 90 d0 be 4c 5e 5f 3e
       -0.20494813 -0.7095105 -0.40735126 0.21813315
0000a0 12 4d 99 3d 6a 81 46 bf 82 7d fb be a7 af 9f 3f
       0.07485403 -0.7754122 -0.49119192 1.247548
0000b0 a8 e6 17 3f 44 6b aa bd 2f f1 e1 be db 38 63 be
       0.5933633 -0.083212405 -0.4412932 -0.22189657
0000c0 c8 cc ad bc 64 cd 41 be 20 17 1f 3e 55 69 43 bf
       -0.021215811 -0.18926007 0.15536165 -0.763326
0000d0 ac 56 08 bd b1 2a e0 3e d8 45 a2 bd 9d b4 5e 3f
       -0.03328578 0.4378257 -0.07923478 0.86994344
0000e0 1c d0 fc be 1c 10 8e be 0b 23 e7 3e 3c 3f 17 be
       -0.49377525 -0.27746665 0.45143923 -0.14770216
0000f0 50 42 60 be 2c 78 8e 3e 0f d7 b2 be 0d ba ff be
       -0.21900296 0.2782606 -0.34929702 -0.49946633
000100 3f 1e 20 bf 36 76 66 3e 23 64 cc 3d 39 7a 40 bf
       -0.6254615 0.22506031 0.09980037 -0.75186497
000110 59 9b dd be fc 51 17 3e a9 c5 52 bf 6e c4 b7 3d
       -0.43282583 0.14777368 -0.82332855 0.08973013
000120 fe 66 a7 3e a7 ae b3 bd 6a 6c 0f bf 2f ac e6 3d
       0.32695764 -0.08773547 -0.560248 0.1126331
000130 64 5d 22 bf f5 b6 ac 3e 32 bd 84 3e 54 c2 d3 be
       -0.6342375 0.33733335 0.25925595 -0.41359198
000140 5d 6e 0c 3e e8 aa 20 bf 22 01 71 3d d4 1d 88 be
       0.13713975 -0.6276078 0.05883897 -0.26585257
000150 1f fb 31 bf b9 32 1e bf a9 7d 98 be 74 cf f0 3d
       -0.69523805 -0.61796147 -0.2978337 0.117583185
000160 c0 dd a7 3e 59 9b 8b bd cc 80 e9 be e2 67 79 3e
       0.3278637 -0.068167396 -0.45606077 0.24356034
000170 ee b0 22 be 1d 5d 81 3e 3e d4 d5 3e 0c d3 91 3e
       -0.15887806 0.25266352 0.4176349 0.28481328
000180 d6 e1 81 be 55 50 2e bd fb f7 15 be 4c 4e 40 3c
       -0.25367612 -0.04255708 -0.14645378 0.011737417
000190 98 63 fa 3e 3f d2 19 bf 73 ed 81 be ab 25 17 be
       0.4890411 -0.60086435 -0.25376472 -0.14760463
0001a0 6b 33 86 3e d4 c4 95 3e b8 e4 c4 3e d9 ff 74 bf
       0.26211104 0.2925173 0.3845575 -0.9570289
0001b0 2b 5d 22 be 7b dc 7c 3e 97 a9 3e be 1e a7 b2 be
       -0.15855853 0.24693482 -0.18619381 -0.34893125
0001c0 18 96 ec 3e be 24 c0 be 7a 8e 09 bd 83 1d ba 3e
       0.46208262 -0.37528032 -0.033583142 0.3635064
0001d0 2b bd c6 be 1a b1 90 be 7c 11 8f be 3b b9 93 be
       -0.388162 -0.28260118 -0.27943027 -0.28852257
0001e0 51 e8 21 3f 00 59 83 be ad db f7 3e 88 af 90 be
       0.6324511 -0.2565384 0.48409787 -0.2825892
0001f0 ea c1 92 be e3 a9 dc 3e b7 99 90 be 64 b3 35 bf
       -0.2866357 0.43098363 -0.28242275 -0.70976853
000200 92 35 02 3e 9e 2f 6f be 8a 9f 3c bf 7d b1 81 3e
       0.12715748 -0.23358008 -0.7368094 0.25330725
000210 43 80 83 bf a9 35 80 3e 63 10 51 bf 5a 63 36 be
       -1.0273517 0.2504094 -0.8166563 -0.17811337
000220 e6 6a 76 3e 93 c5 4a 3e 64 32 8c bd 9e 80 37 bf
       0.24064216 0.19801931 -0.06845549 -0.7168063
000230 18 13 2e 3c 46 f5 f5 bd 34 39 1d 3f 2b 56 82 3e
       0.0106246695 -0.12009673 0.6141541 0.25456366
000240 9f 2d 0e be 71 0f ac 3d 0f 1c e5 be ad 50 ee 3e
       -0.1388459 0.08401383 -0.4474797 0.46545926
000250 a1 15 0c 3d a7 53 f0 3e 00 80 2a 3d 85 50 55 3f
       0.034200314 0.46938822 0.041625977 0.8332599
000260 62 ea 27 be 81 6a 23 be 41 4a 12 3f 92 bd 19 3e
       -0.16398004 -0.15958597 0.5714455 0.15013722
000270 6a 7f 95 be 36 b9 9e 3d 37 be 91 bd d3 b3 0f bf
       -0.29198772 0.0775017 -0.07116359 -0.56133765
000280 2e cd 94 be 99 91 3c 3e 1a 6c b2 3d ee 20 1c 3f
       -0.2906279 0.18414916 0.08712025 0.60987747
000290 70 52 0a be 08 34 f1 be 6a 3c ef be b4 7d 56 be
       -0.1350801 -0.4711001 -0.4672578 -0.2094639
0002a0 bd b0 1f 3f 2b 87 8a 3d 9b 10 3a be 1a 3a cd bd
       0.62379056 0.067640625 -0.18170397 -0.100208476
0002b0 63 77 86 be 75 a8 d7 3e 53 5c 86 be d1 f0 97 be
       -0.2626296 0.4212071 -0.26242313 -0.29675916
0002c0 a2 20 cf 3d de 78 5d 3f ee 2f 26 be 8d fe 1d be
       0.10113646 0.86512554 -0.16229221 -0.15429135
0002d0 70 e6 0e 3f 29 e9 12 be d5 42 01 3e 6c d2 5d 3e
       0.5582037 -0.14346756 0.1262315 0.21662301
0002e0 79 55 cc 3e 82 c9 77 be 6a bb ef 3e b6 49 2d bf
       0.3990896 -0.24197963 0.46822673 -0.676906
0002f0 6e fa 0d 3f d2 2a 58 be 7e 52 fb 3e 8b 78 92 be
       0.5546025 -0.21110085 0.49086374 -0.28607592
000300 be 2b f9 3e aa a7 4a bf 3f 15 8a 3e f5 88 17 be
       0.48666185 -0.79162085 0.26969334 -0.14798339
000310 31 f4 3c 3f f6 15 b8 3c 70 a7 b4 be c1 7b 8b 3e
       0.73810107 0.02247141 -0.35283995 0.27242854
000320 de 20 78 be 04 c3 d8 be a8 85 07 3f eb 95 41 be
       -0.24231288 -0.42336285 0.5293832 -0.18904845
000330 16 3a 03 3e 1b fc 60 be 51 bb 26 bd 3e 27 8d be
       0.12815127 -0.2197117 -0.040705983 -0.27569002
000340 f4 77 a4 3e 13 bd 00 bf 03 c2 cb 3d d3 a3 87 3e
       0.32122767 -0.50288504 0.09949114 0.26492175
000350 06 93 77 be a1 c0 2e be 7b ed ac be 12 c1 22 bf
       -0.24177179 -0.1706567 -0.33774933 -0.6357585
000360 c0 c4 58 bf ac 48 22 bd 16 b3 21 3e e5 a6 ef 3e
       -0.84675217 -0.039620087 0.15790972 0.46807018
000370 89 b2 1c 3d 55 44 23 be b9 2d 66 be d5 f3 81 be
       0.038256202 -0.15944035 -0.2247838 -0.25381342
000380 27 97 f9 3d 89 87 87 be 57 c8 43 3f cf 4e 3a bf
       0.12187033 -0.26470593 0.7647757 -0.727765
000390 f4 b8 41 3f c3 c5 0e bf ff dc a6 3e 3b 4a c6 3e
       0.7567284 -0.5577051 0.32590482 0.38728508
0003a0 af 89 09 bf 30 4c 53 be 6f 07 9f 3d 82 b8 f5 3c
       -0.53725713 -0.20634532 0.0776509 0.029995207
0003b0 e4 1d b9 3e c2 49 a8 bd 4e 07 5e bf 3c a0 11 3f
       0.36155617 -0.08217193 -0.86729896 0.56885123
0003c0 72 44 b4 3d 45 ac 57 3f e1 5c c5 bd e9 b7 17 be
       0.088021174 0.8424724 -0.09636856 -0.1481625
0003d0 ab e7 1c 3d 21 6d b0 be 85 45 87 bf cc 4c 03 bf
       0.038306873 -0.3445826 -1.0568091 -0.5128906
0003e0 0f 35 1c be ab f1 bb 3e 8d 17 cd be 3a 59 d4 3e
       -0.15254615 0.36707816 -0.4005703 0.41474324
0003f0 0b 02 b9 3e 19 49 98 3e f6 09 5e 3d e5 f6 22 3e
       0.3613437 0.2974327 0.05420872 0.15914495

network_body._body_endoder.seq_layers.0.bias f4 [128]
000000 ef 4c 1c bb 9c a0 d4 3b 60 9a 83 3b 47 e1 c9 3a
       -0.0023849567 0.0064888727 0.0040162057 0.0015402221
000010 5f f0 3c bc 83 3e 90 3c 2f 89 72 3a 75 06 0f 3c
       -0.011531918 0.017607933 0.00092520093 0.008729567
000020 d1 74 3a bc d2 a1 a0 bb bb 2e 3f bb 45 36 68 3c
       -0.01138039 -0.004902103 -0.002917214 0.014173095
000030 0e b3 98 3b 02 19 3b bb 8c 4b 21 bb f0 0d 10 3c
       0.004660017 -0.0028548841 -0.002461168 0.008792385
000040 e7 dc 75 3b 90 d2 28 bb 2c 87 5d 3c f9 7e 07 3c
       0.0037515701 -0.002576027 0.013520997 0.008270019
000050 1b 52 1c bc 9c d0 28 bc 85 12 14 bc 3c 20 e5 3a
       -0.00954106 -0.010303643 -0.0090376185 0.001748092
000060 4c c7 aa 3b 41 69 1f bb a9 23 d3 ba 3c 1d 8f bb
       0.0052117463 -0.002432421 -0.001610865 -0.0043674987
000070 34 76 16 bc aa 41 13 bc 81 79 90 3b d7 39 b1 bb
       -0.009183455 -0.0089878235 0.0044090156 -0.0054085064
000080 06 69 c7 bb fa 91 7b bc e9 75 23 3c 86 59 57 3b
       -0.006085518 -0.015354628 0.009976842 0.0032859757
000090 15 09 3b bc f1 2b bb ba e7 4d 50 3c 90 87 52 3b
       -0.01141574 -0.0014280063 0.012713886 0.0032124259
0000a0 24 6b 05 3c 61 6d 25 bb aa d2 18 3c 49 45 9f 3b
       0.00814322 -0.0025242197 0.00932757 0.0048605544
0000b0 99 5c 1d 3b d7 be 0d bb c0 13 23 bb eb 35 95 bb
       0.0024011491 -0.0021628642 -0.0024883598 -0.0045535467
0000c0 ca 2a a8 3b 15 32 a0 3a 1d 7d d3 bb 07 fc b8 3b
       0.005132054 0.0012221957 -0.0064541236 0.0056452784
0000d0 aa 95 3c 3b 58 5f 55 3b a7 34 a4 bb 56 dc 8c bb
       0.002877573 0.003255805 -0.0050111595 -0.004298727
0000e0 0e ce 38 bb 0b 1e 82 3c b9 3d 64 bc d8 df 86 3b
       -0.002819899 0.015883466 -0.013930731 0.0041160397
0000f0 ec 77 6b bb f8 6d 45 ba 02 23 1b 3a 7d e9 6b bc
       -0.0035929633 -0.000753134 0.00059179973 -0.01439893
000100 0c 1b c8 ba 7f f5 ae bb b7 e8 8d bc a2 3d 55 bc
       -0.001526685 -0.005339324 -0.017322881 -0.013015183
000110 4b d0 0a bc e9 0d e5 3b 03 09 f3 bb 1a 39 3e bc
       -0.0084725125 0.0069901836 -0.0074168458 -0.011610294
000120 c5 ec 87 bc 65 65 a6 ba d4 d7 14 bc 54 11 9a bc
       -0.016592393 -0.0012695013 -0.009084661 -0.01880709
000130 7b 5e 4c bb 59 de 85 ba 8e 4a 4d bc e0 20 56 bb
       -0.0031184244 -0.001021336 -0.012529982 -0.0032673404
000140 00 da 5a b9 35 65 3b 3c 98 05 bf 3a 12 62 cd 3b
       -0.00020871311 0.011437704 0.0014573811 0.0062677944
000150 20 83 14 bc da 1b 49 bb d6 0a 4d 3b ee 8c bc bb
       -0.009064466 -0.0030686767 0.0031286976 -0.005754105
000160 78 9b 18 3c 79 15 43 3a 6c a0 bf 3b 99 56 4c bb
       0.00931441 0.00074418593 0.005847981 -0.0031179546
000170 de be 16 ba db 0b 1a bb dd ca 19 3b 50 be 49 3c
       -0.00057504873 -0.0023505602 0.0023466863 0.01231344
000180 b0 0f 99 3c bb 69 99 bb 35 f9 e6 bb 77 4a 84 bb
       0.018684238 -0.0046817935 -0.0070487508 -0.004037197
000190 c6 70 2d bc 0f 10 18 bc 86 ad 0c bb f8 3f ea bb
       -0.010585969 -0.009281172 -0.0021465733 -0.007148739
0001a0 91 f1 9b bc 5c 6d d1 3b f8 02 1a bc 8a 1f 4c bc
       -0.019036086 0.0063912105 -0.009400122 -0.012458691
0001b0 cf 8e bb bb a6 6e e1 3b c8 a2 7d bc 3d 3f 94 ba
       -0.005723811 0.0068796454 -0.015480705 -0.001131035
0001c0 5e d1 58 bb f2 15 fe ba 85 31 d3 3b a5 f9 33 ba
       -0.0033083777 -0.0019385202 0.006445112 -0.0006865508
0001d0 d4 c7 8a 39 db 80 c5 3a 53 f2 d4 3b 65 6e 5e 3c
       0.00026470295 0.0015068309 0.006498614 0.013576125
0001e0 c2 de 15 bc e3 af 89 bb d5 bc 4a 3b b0 ff 7a 3a
       -0.009147348 -0.0042018755 0.0030935307 0.00095748436
0001f0 f7 c0 be bb d8 36 a8 3b d9 ac 93 bc 0f bb 4a 3a
       -0.005821343 0.005133491 -0.018026756 0.00077335624

network_body._body_endoder.seq_layers.2.weight f4 [128, 128]
000000 b1 4c 36 be f4 20 d5 bd e9 28 b8 3d 96 59 bb 3c
       -0.17802693 -0.10406676 0.08992178 0.022869866
000010 85 fa fa 3b 68 9c 19 3e a4 1b c7 bd 69 7c 84 bb
       0.007659259 0.1500107 -0.09722069 -0.004043151
000020 fd 02 25 be 9d b1 90 3d 21 ff c5 bd 33 ce 48 3d
       -0.16114421 0.07065127 -0.096678026 0.049024772
000030 7c 30 70 3d 3b b3 09 bd b6 da d2 bc 52 36 fd bc
       0.05863999 -0.033618193 -0.025739055 -0.030909691
000040 1d 2c 66 bd 50 62 46 3c 4d bf 2d 3e da e6 19 be
       -0.056194413 0.0121084 0.16967507 -0.15029469
000050 dc 0b df bc 14 c0 c1 bb 6a 86 6b 3d b3 8c 98 3d
       -0.027227335 -0.00591279 0.057501234 0.07448711
000060 74 aa 34 3d 16 8e 74 3d a6 4c 51 bd fb 76 b5 bd
       0.04410787 0.059705816 -0.05109849 -0.08860584
000070 44 71 11 3e 46 fb da bc 70 9b 25 3e 11 fd 3e 3e
       0.14203364 -0.026731145 0.16172576 0.18651225
000080 67 1d 7b bd f8 2e 04 bb 27 80 c3 3d 45 27 93 bc
       -0.061307337 -0.0020169597 0.095459275 -0.017963061
000090 78 c0 eb 3d 49 93 cd 3d 6a 29 8c bd 94 83 57 bd
       0.1151132 0.10037858 -0.068438366 -0.052615717
0000a0 95 f1 41 bd 5c e4 6c 3b 3c a5 80 3c 72 43 02 be
       -0.04734953 0.0036146855 0.01570379 -0.12721041
0000b0 a8 01 73 bd 63 11 05 be ca b8 72 bd ad 20 8e bc
       -0.05932775 -0.12994914 -0.05925826 -0.017349565
0000c0 78 8d 10 be 29 12 f4 3d 84 e1 f7 bd f3 13 58 3e
       -0.14116466 0.11917526 -0.121035606 0.2110136
0000d0 ef 92 db bb 1a c6 12 3e 75 c9 12 be 7a f8 70 bc
       -0.0067008655 0.14333382 -0.14334662 -0.014707679
0000e0 30 d5 72 3d 97 10 77 bd 2e 80 12 be ef ca d2 bc
       0.059285343 -0.060318556 -0.14306709 -0.025731532
0000f0 0f 9a 3a bd 81 d3 87 3d ab 49 0d be 27 4c df 3d
       -0.045557078 0.06632138 -0.13797633 0.10903197
000100 ef cf 63 3e 6b 5b 0c be 07 ee 83 3d 52 3d 17 3b
       0.22247289 -0.13706748 0.064418845 0.0023077321
000110 a9 95 79 3d b1 48 00 3d ae 77 ac 3d 28 89 f2 bd
       0.060933743 0.031319324 0.084212646 -0.11842567
000120 a4 c0 1e 3d c3 6b 85 bb a6 1c 75 bc 12 e0 0b 3e
       0.038757935 -0.004071684 -0.014960444 0.13659695
000130 fa 08 aa bd ec de a0 3d 5f 6e 5b 3d 38 fd 41 3d
       -0.083024934 0.07855019 0.053572055 0.04736063
000140 77 eb 41 be 25 e7 b3 bd 53 34 43 3d e5 e0 b6 3d
       -0.18937479 -0.08784322 0.047657322 0.08929614
000150 08 c7 dd bd c5 c6 7c 3d 7a 74 06 bc 65 73 62 3d
       -0.10828978 0.061713 -0.008206481 0.05528583
000160 88 8f 14 3c 47 36 71 3c fd 8e 48 be 9c 4a 17 bd
       0.009067424 0.014722413 -0.19585796 -0.036936387
000170 85 ad c7 bd 68 0a 7b bd 5b cf 40 3e e2 a3 98 3c
       -0.09749893 -0.06128922 0.188291 0.018632833
000180 6b 5a 69 bd bd 78 b8 bd 20 d5 38 be a8 ae 0b 3e
       -0.056970995 -0.09007404 -0.1805005 0.13640845
000190 23 04 c8 bc 4c da 00 bd 55 b4 ec 3d 6f 2c 91 be
       -0.024416035 -0.031458184 0.11557833 -0.28354213
0001a0 c4 83 ad 3d d1 82 7e be eb 6a 7b bd 54 b4 fe 3c
       0.08472398 -0.2485459 -0.06138126 0.031091847
0001b0 33 fe 27 bd 73 2f 31 bd c6 3f 6e 3d ed 2c 43 bd
       -0.041013908 -0.04325814 0.058166288 -0.047650266
0001c0 76 e9 3d 3e f7 08 7a 3c 6d cd 73 bd 74 c1 ef bc
       0.1854609 0.015260926 -0.05952208 -0.02926705
0001d0 48 ea 04 bd 09 33 83 bc 05 40 67 3d 20 45 5d 3c
       -0.03244999 -0.016015546 0.05645754 0.01350525
0001e0 46 83 a3 3d 41 db 79 3d 87 31 72 bd ed 9f a6 3d
       0.07984023 0.061000112 -0.059129264 0.08135972
0001f0 ab 9d b3 bd 6d e1 e2 bd 1d d2 e9 bc b7 53 5f bd
       -0.08770307 -0.11078153 -0.028542573 -0.054523196
000200 37 0e 3c 3d b3 8a 92 bd 76 9e d3 bc 26 ef 94 bd
       0.045911994 -0.07155361 -0.025832396 -0.072721764
000210 78 ca 2c be ec d4 f1 3d ba 54 a9 bd a0 aa e6 3d
       -0.1687411 0.1180819 -0.082681134 0.11263013
000220 f2 34 ed 3d 67 fc d2 bd aa d7 aa 3d aa 8d dd 3b
       0.11582364 -0.10302048 0.08341916 0.0067612724
000230 09 d2 e5 ba fb 32 54 3e a5 54 3b bd a2 df 25 3e
       -0.0017533909 0.20722573 -0.04573502 0.1619859
000240 fb 9a 1d 3e 65 95 de 3d 20 37 93 3d 88 a5 15 3d
       0.15391152 0.108683385 0.07188249 0.036534816
000250 4a f1 86 bd 05 4c 72 be ec 44 0c be 91 81 eb bd
       -0.06588991 -0.23661812 -0.13698167 -0.11499322
000260 7e a4 c3 bb 00 19 ab 3d 40 a1 16 bd 1e 74 1f bd
       -0.0059705367 0.08354378 -0.036774874 -0.038929097
000270 18 26 82 3c 11 1a af 3c 63 94 f1 3d 08 59 d3 3d
       0.015887305 0.021374734 0.11795881 0.10319716
000280 6a e5 f1 bc e4 15 74 bc aa 79 5d be 46 ff 66 3c
       -0.029528338 -0.014897797 -0.21628442 0.014098948
000290 6c eb 7e bc 83 05 fc 3c ca f5 33 bd ad 8b e6 3c
       -0.015559059 0.030764347 -0.043935575 0.028142774
0002a0 95 63 87 3d 71 a6 53 bd f6 61 8f 3c f5 6f 8e 3c
       0.06610791 -0.051672403 0.017502766 0.01738737
0002b0 f7 0e fe 3d 14 0b 10 3d 81 8c e1 bc b7 be 16 3c
       0.12405198 0.035166815 -0.027532818 0.009200743
0002c0 dc 2e a1 3d bf 4c f4 bd 07 97 c7 bd 4f 3a bd bb
       0.07870266 -0.11928701 -0.09745603 -0.005774773
0002d0 6b dd c0 3d f4 77 07 be 68 e1 c1 bc bd 03 55 bd
       0.09417232 -0.13229352 -0.023667052 -0.05200552
0002e0 8d af fa 3d 40 da e8 3c 3a d2 8e bd f4 4b 5f be
       0.12240515 0.028424382 -0.06973691 -0.21806318
0002f0 7d 55 06 be 08 00 95 3a 71 b1 ea bd 4b 07 a2 3b
       -0.13118549 0.0011367807 -0.114596255 0.004944717
000300 95 84 96 3c e1 54 ff 3d eb 96 83 3c bd 31 ed 3d
       0.018373767 0.12467361 0.016063174 0.115817524
000310 99 12 ba 3d e3 e2 5a 3b e1 7b 56 be e3 0d 8b bd
       0.090855785 0.0033399395 -0.20945694 -0.06789758
000320 74 d8 4f 3c bd b0 70 bc 53 b8 bf bc 4f e0 ab 3d
       0.012685884 -0.014690575 -0.023403322 0.08392393
000330 c7 a1 4e bd 7e 27 f8 bd 03 1a 26 be 0d 27 7f bd
       -0.05044725 -0.121169075 -0.1622086 -0.0622931
000340 46 6f d0 3d 78 84 3d bd 7f 37 cd 3c 9b e1 37 bd
       0.10177474 -0.04626891 0.025050877 -0.04489289
000350 f8 6c b5 bd 40 75 8d bd 98 00 2f 3d 81 39 57 bd
       -0.08858675 -0.06907129 0.042725176 -0.052545074
000360 6b 4b ac 3d e1 74 4a be 46 c0 8d 3c 49 ad af 3d
       0.08412822 -0.19771148 0.017303597 0.085779734
000370 b5 c5 04 bc 76 cb 02 3e af 35 d3 3d 5c 35 38 3e
       -0.008103778 0.12772927 0.10312974 0.17989105
000380 ac 07 3a 3e e8 c4 af bc 2d 40 90 3d 09 7c 74 3d
       0.18166989 -0.021456197 0.070434906 0.0596886
000390 d1 8e 27 be 8e f9 96 bd 4d 10 30 3d 07 fc c2 3d
       -0.16363074 -0.073718175 0.042984296 0.09520727
0003a0 0e c3 96 bd 80 22 64 bc 9d 37 21 bc 6d cb 9d 3b
       -0.073614225 -0.013924241 -0.009839919 0.00481551
0003b0 db 4f 44 bd 64 d7 f0 bd 4e e0 8c b9 28 6a 09 3e
       -0.04792772 -0.117598325 -0.0002687 0.13419402
0003c0 cd 2d 9f bd c5 2d d1 3c 21 66 a7 bb ef d3 61 3d
       -0.07772408 0.02553452 -0.0051086103 0.055133756
0003d0 2f c9 18 3d 4b 2b c5 3d 69 32 79 bd 37 25 4a bd
       0.03730124 0.09627398 -0.06083909 -0.049351897
0003e0 ca 03 12 3e 5b 18 51 bd cf dd 7b bb 56 59 e8 3d
       0.14259258 -0.051048618 -0.0038431769 0.113451645
0003f0 cd e7 08 be d8 16 ad 3c 30 a8 92 3d e7 9d 39 3e
       -0.13369675 0.021129057 0.071609855 0.18126641

network_body._body_endoder.seq_layers.2.bias f4 [128]
000000 56 db 96 3b b4 6a 29 3b f6 d1 0b bc 6c 57 8b 3b
       0.0046037836 0.0025850954 -0.008533945 0.004252365
000010 b1 a5 42 bb 70 8f 4e bb f6 6f ef bb fc df c2 3a
       -0.002970081 -0.00315186 -0.007307048 0.0014867778
000020 65 ea 82 3a e0 66 c3 bb c6 2b 99 bc b7 f4 20 3b
       0.0009988068 -0.0059631914 -0.01869763 0.0024559924
000030 97 13 04 3c d1 a1 c8 3b 5c 5e 07 bb 02 2b be bc
       0.008061311 0.0061228056 -0.0020655608 -0.023213867
000040 be 41 df bb 6b 0a 48 bb 7a af df bb 4b 3e d2 bb
       -0.006813257 -0.0030523788 -0.0068263384 -0.0064161173
000050 cf d7 d6 39 e6 61 a4 bb 6d 4d 18 3b 23 59 78 ba
       0.0004097805 -0.005016553 0.0023239509 -0.00094737316
000060 ab 11 bb 39 55 a8 03 3b fc 9b 0a bb cc 5e 19 bb
       0.00035680583 0.0020089347 -0.0021150103 -0.002340245
000070 32 43 36 3a 87 21 c3 bb 6f 58 88 bb 8c 23 f5 3b
       0.0006952762 -0.0059549245 -0.0041609327 0.007481044
000080 0a 2e 2a bc 06 4a f2 bb 19 13 e5 bb 0e c4 bf bb
       -0.010386953 -0.007394078 -0.006990802 -0.005852229
000090 9e 1d 1d bb 4b a8 57 bb c5 9f 6e bb a2 3c b8 bb
       -0.0023973952 -0.0032906707 -0.0036411148 -0.0056224624
0000a0 e1 77 b1 3b 33 41 91 bc ed 09 74 bb dc c9 58 3b
       0.005415902 -0.017731285 -0.0037237362 0.0033079302
0000b0 3e b0 a3 3b b6 b9 8b bb ae 7e 20 bc 56 38 f8 bb
       0.004995375 -0.004264082 -0.009795828 -0.007575075
0000c0 38 22 b4 bb 9d a1 cb 3b 36 4a c4 3b 1e 6c 31 bb
       -0.0054972433 0.006214334 0.005990292 -0.00270725
0000d0 4c 36 62 bb 47 0b 48 bb 3d 3e 42 3a fc cb 95 b6
       -0.0034517227 -0.00305243 0.0007409787 -4.464293e-06
0000e0 1c 62 a0 bb 6b 88 80 ba 3c a4 9a ba 12 12 d8 3b
       -0.004894508 -0.0009806281 -0.0011798213 0.006593951
0000f0 4f f8 47 bc 71 df 91 bb 8c c2 81 3a 41 7b 98 bb
       -0.0122051975 -0.004451685 0.0009899898 -0.004653365
000100 6d 1b a0 3b 93 c2 16 3b 52 8f 12 3c 80 9c d2 3b
       0.004886082 0.002300416 0.008945303 0.0064273477
000110 97 ce 98 bb a4 88 08 3c d3 81 87 bb 40 7a c0 3b
       -0.0046632993 0.008333359 -0.0041353493 0.0058739483
000120 4f 67 a8 bb f8 93 96 bb 0d 60 57 3b a6 a2 f4 bb
       -0.0051392685 -0.004595276 0.0032863647 -0.0074656783
000130 af 11 af b9 58 9a d2 b5 40 7f a7 bc d1 f0 8c ba
       -0.00033391776 -1.5691139e-06 -0.02044642 -0.0010752921
000140 ce 0b 3a bb e3 fe e4 3b 65 8b 0f 3c 5a 7e 6d bc
       -0.0028388384 0.0069883927 0.008761262 -0.014495457
000150 18 38 d6 bb 20 c2 aa bb dd 66 b5 bb b6 de 5f bb
       -0.0065374486 -0.00521113 -0.005535944 -0.0034159846
000160 ba f5 ba 3b bf af 4a 3b b6 9a 60 bb 09 d6 0e 3b
       0.0057055624 0.0030927507 -0.0034271902 0.0021795055
000170 d6 dc 1b bc 8e f8 78 ba fe 40 f0 bb 76 4a 41 39
       -0.009513101 -0.0009497487 -0.0073319664 0.00018433653
000180 54 6b 26 bc fe 8c cd 3b 47 58 d8 3b da 15 11 bc
       -0.010157425 0.006272911 0.0066023204 -0.0088553075
000190 45 65 d1 3a 13 dd a1 ba bf e4 64 b9 98 9d b7 bb
       0.0015975615 -0.001234921 -0.00021828989 -0.0056035034
0001a0 df a4 03 bb 15 73 5c 3b fc 03 b1 bb 53 89 91 3b
       -0.0020087285 0.003363793 -0.0054020863 0.004441419
0001b0 04 80 b8 ba d0 dc 68 bb 5a 95 3a 3b ef 6c 27 bc
       -0.0014076238 -0.0035532005 0.0028470368 -0.010218843
0001c0 84 66 17 bb 07 d6 4c bb 36 cd 31 bc 68 6e 1a bc
       -0.0023101876 -0.00312555 -0.010852149 -0.009425737
0001d0 3f eb 81 bb f2 49 2f 3b 31 5e 0a 3c b7 c9 68 3b
       -0.003964811 0.0026746956 0.008445309 0.0035520622
0001e0 d9 76 96 3b 68 19 4f bb 56 be b4 bb 98 52 5e 3b
       0.0045918045 -0.0031600837 -0.005515854 0.0033923741
0001f0 13 83 97 bc 30 ef 3e bb 12 75 3a bc ac 91 91 3b
       -0.018495118 -0.0029134266 -0.011380451 0.0044424143

action_model._continuous_distribution.mu.weight f4 [1, 128]
000000 fc 4f 37 bc 67 8b 7b bc 5e b8 9a 3a 19 49 00 bd
       -0.011188503 -0.01535306 0.0011804213 -0.03131971
000010 1c c8 87 3a f0 db 14 3c ce a5 0c ba 73 1b 66 bc
       0.001035932 0.00908564 -0.0005365283 -0.01404463
000020 8c cc a9 bc 33 dd 15 3c 33 63 4b 39 56 4e 48 bc
       -0.020727418 0.009146976 0.00019396543 -0.012225708
000030 8c 8e c8 bc 98 3d e0 bc e2 8b 41 3d a3 5a c8 37
       -0.024482034 -0.02737312 0.047252543 2.3884064e-05
000040 c9 ff f7 3c a0 06 1d bd dd d4 ab 3c bb a1 67 bb
       0.030273335 -0.038336396 0.020975525 -0.0035344202
000050 45 2a 34 bc 55 7c 4c 3b 1a 0d 20 3c 89 00 26 3d
       -0.010996406 0.0031202037 0.009768749 0.040527854
000060 11 28 0d bc a5 a7 0d bc fa 73 c2 bb 84 c1 32 bb
       -0.00861551 -0.008645927 -0.0059342356 -0.0027275989
000070 46 fc 22 bc 0f c8 d8 bc 89 30 45 3c 1e 41 ef bc
       -0.009947842 -0.026462583 0.012035497 -0.029205855
000080 9e 7c 6a 3a 5d 84 07 3c 8e 88 68 bb db 89 77 b8
       0.0008944961 0.008271304 -0.0035481784 -5.9017777e-05
000090 e4 e9 c8 bb d9 72 83 3c 89 29 c1 bb 0d f3 03 3d
       -0.0061313976 0.016045975 -0.005894844 0.032214213
0000a0 f5 b0 10 bc f9 46 fc 39 f7 49 e2 3b dd 19 48 bb
       -0.008831252 0.00048118064 0.00690579 -0.0030532994
0000b0 06 74 00 bd 4c 02 2e 3d 86 1e 2c 3c 0d 95 db 3a
       -0.03136065 0.04248266 0.010505324 0.0016752795
0000c0 df 2e 85 3b 62 d9 cc bc da 9f 27 bc bc 8d a2 bc
       0.0040644254 -0.025006 -0.010230983 -0.019842975
0000d0 6e ff ff b9 db d0 21 3c 07 ad 33 3d 4b 10 0d 3c
       -0.000488277 0.009876455 0.043866184 0.008609842
0000e0 8e 5b 76 3c 58 4b 56 bc 50 d0 0e bc 13 e8 50 bc
       0.015036477 -0.013079487 -0.008716658 -0.012750643
0000f0 8c 02 73 b9 fb 98 b1 3c 86 5d 0c bc 3f 3a 34 3c
       -0.00023175235 0.021679392 -0.00856722 0.011000215
000100 3f 4a 43 bc 8c 65 c6 bb ae 3f d8 3c 68 9b b0 bc
       -0.011919557 -0.006054586 0.026397552 -0.021558478
000110 64 fc 47 3c ca b5 05 bd 2d 8f 94 3c 8c db 80 bc
       0.012206171 -0.03264407 0.018134678 -0.015729688
000120 d0 a8 09 bc 24 73 48 3c 16 9f 99 3c 48 5e 48 3a
       -0.008402064 0.012234483 0.018752616 0.00076434435
000130 1f 49 b2 37 45 e4 c9 3c df 76 6e 3a a9 45 2d bb
       2.1253303e-05 0.02464498 0.00090966927 -0.0026439226
000140 05 c5 b5 3b c9 1c 66 bd 92 73 45 bc fa 93 b5 38
       0.005547168 -0.056179795 -0.01205148 8.658315e-05
000150 e4 50 4a 3c 81 58 03 bc 0a d3 e4 3c 04 fc 63 3c
       0.012348387 -0.008016706 0.027932663 0.013915066
000160 81 9b c4 3c df a4 05 bc 69 35 72 3c 3e 59 e2 bc
       0.023999931 -0.008156984 0.014783242 -0.027630445
000170 09 08 12 3c 67 51 c9 3c 31 6f c6 3a 8e 29 80 bc
       0.008913049 0.024574948 0.0015139339 -0.015644815
000180 7e f9 57 38 aa 22 d9 bc 0d e3 59 bc b3 d5 0d bb
       5.1492352e-05 -0.026505787 -0.013298762 -0.0021642267
000190 a0 b3 46 bc 36 1f 35 bc 2a fd 30 bc ba d1 ad 3b
       -0.012127787 -0.011054805 -0.0108025465 0.0053045424
0001a0 14 72 2d bb cd ff 99 bc 23 46 fa 3b f5 f8 9b 3c
       -0.00264657 -0.018798733 0.0076377555 0.01903961
0001b0 b7 d8 38 3c 5c 47 f9 3c df 58 d7 bb 44 e9 55 3b
       0.011282138 0.030429535 -0.0065718736 0.0032640258
0001c0 cf 5d 0f bc 00 f0 d5 3b 08 5b e8 3a 56 a9 23 b9
       -0.008750393 0.0065288544 0.0017727325 -0.00015607974
0001d0 f0 86 ed 3b b8 20 a6 bc 04 87 a7 bc f7 cc 5c bc
       0.007248752 -0.020279273 -0.020450123 -0.013476602
0001e0 2b c3 ad bc ea d7 bb 3c 4b d1 a3 3c d6 5a 1c 3c
       -0.021211227 0.022930104 0.01999726 0.009543141
0001f0 8c 1c 52 37 53 36 b9 bc d0 9c 9c b8 45 61 24 bd
       1.2523622e-05 -0.022608912 -7.467868e-05 -0.040131826
