Assets/IA/Pruebas/results/Pad09/PadBehavior/PadBehavior-16128.pt (torch, 444604 bytes, 30 tensors)

network_body._body_endoder.seq_layers.0.weight f4 [128, 7]
000000 0a 34 a2 be e0 52 f9 be b5 a0 5d 3e 5e 2d 08 3f
       -0.31680328 -0.4869604 0.21643336 0.53194225
000010 29 dc f4 3e aa ea 5a be 98 26 62 3e 55 ba 39 3e
       0.4782422 -0.2137858 0.22085035 0.18137486
000020 43 90 90 3e e6 7b 6c 3f 01 ff e4 be 08 9d 93 3d
       0.28235063 0.92376554 -0.44725803 0.07207686
000030 6e c3 1b 3f 04 88 5f bc 3d d9 bc 3e bc 91 8a be
       0.6084508 -0.0136432685 0.3688449 -0.27064312
000040 bc e4 bb 3b b9 36 01 bf ec 67 0c 3d e0 a0 3d 3e
       0.0057340544 -0.50474125 0.034278795 0.185184
000050 b0 95 80 be cb 08 a4 3e fc 4d 3d bf 95 5b 07 3e
       -0.25114202 0.32037959 -0.7394712 0.1321853
000060 a1 d6 eb 3e 77 be 8c be 8c 0f 21 3d cc 1d 30 bc
       0.46062186 -0.27489063 0.039321467 -0.010749292
000070 cb f1 78 be 00 cc b6 3e 34 70 4f be 29 0f 08 bf
       -0.24310987 0.35702515 -0.20257646 -0.5314813
000080 00 ba c6 be d2 14 e4 3e 67 37 b1 3e bf 80 9f be
       -0.38813782 0.44547135 0.3461258 -0.31152913
000090 2b af 58 be c2 cc 03 be 5a 7c 39 3f 47 dc 0b 3f
       -0.21160571 -0.12871078 0.7245537 0.5463299
0000a0 2e 6b 52 3e f2 bf d5 3e 6b 9f 33 3f de 56 38 bf
       0.20548698 0.41748005 0.7016513 -0.7200755
0000b0 99 29 9b 3e 09 c9 c0 bd 17 9b 45 bd bf 9a 96 3c
       0.30305174 -0.094133444 -0.04824361 0.018384336
0000c0 24 55 2a bf 61 30 f2 3e f5 03 08 3f 23 12 a2 3e
       -0.66536164 0.47302535 0.5313104 0.31654462
0000d0 03 ab 66 3e 66 70 93 bc 4b a2 5f bd ae 05 d7 be
       0.22526173 -0.017997932 -0.054598134 -0.4199652
0000e0 96 45 05 3f be c4 d0 bc 75 ef a3 3e 26 84 07 3e
       0.52059305 -0.025484439 0.3201863 0.13234004
0000f0 da d6 99 be 01 39 85 bf e3 05 e2 3d 5c 1c a1 be
       -0.3004673 -1.0408021 0.11036279 -0.3146695
000100 b5 64 f3 3e 6d 0f 55 3d 85 2d 10 bd 97 53 fe 3e
       0.4753777 0.052016664 -0.03519966 0.4967315
000110 87 6c 04 be 9e b5 98 be cb 3c 9e be cf 46 73 be
       -0.12932025 -0.29826063 -0.30905756 -0.2375748
000120 ff 42 9d 3e c2 cb fc be 6b 24 94 3e d2 ce 1b 3f
       0.30715176 -0.49374205 0.28934035 0.6086246
000130 4c bb 8e 3e 66 0e f6 3c 3e ac 88 be bd 93 34 3e
       0.2787727 0.030036163 -0.2669391 0.17634483
000140 66 8e 4c 3e 02 3c 09 bf c7 35 68 bd 10 07 cd be
       0.19976196 -0.5360719 -0.05669191 -0.4004445
000150 f1 46 1b bf 39 fa b6 be 77 ab 5c be 9d 27 20 3e
       -0.60655123 -0.3573778 -0.21549784 0.15640111
000160 f1 39 57 be a2 36 ac bd ad b5 8b 3b 93 7c 32 3e
       -0.21018197 -0.08408858 0.004263601 0.17430334
000170 01 15 e1 3e 37 b0 50 bd a3 37 41 3e 16 53 98 3e
       0.43961337 -0.0509493 0.1886888 0.2975089
000180 4d 78 30 be 62 3a 87 be 93 82 29 bf 3d 0c 01 bf
       -0.17233391 -0.2641173 -0.66214865 -0.504093
000190 64 c0 07 3f a8 60 1b bf 59 31 dc be 4e 1c 03 3e
       0.5302794 -0.6069436 -0.430064 0.12803766
0001a0 2c d9 1c 3f ff c4 d7 3d 3b d3 b0 3e 36 e6 e4 3e
       0.6126888 0.10535621 0.34536156 0.44706887
0001b0 c9 00 76 bd 28 4f 40 bf 7d 91 06 3f 77 6b cd 3e
       -0.060059343 -0.7512078 0.5256575 0.40121052
0001c0 6f 41 ac 3f 55 26 2b bd ec 5e 11 be f4 f3 b8 bd
       1.3457469 -0.041784603 -0.14196366 -0.09030905
0001d0 0f 02 8a 3e cb 32 f7 be 9b ba 55 3e 01 4d 3e bf
       0.26954696 -0.4828094 0.20871966 -0.7433625
0001e0 e1 0d 84 be 05 33 e9 3d 91 4a 09 bf f3 e9 a9 3e
       -0.2579184 0.11386684 -0.53629404 0.33186302
0001f0 4e cf 97 be 52 6a f9 3e 8a 35 1b bb 8c 2b a8 bc
       -0.29650348 0.48713928 -0.0023683035 -0.020528577
000200 23 9d 22 3e a9 87 46 3f 40 0b 4f bd c5 31 43 3e
       0.15880255 0.7755075 -0.05054784 0.19061954
000210 ea b5 02 3f 55 63 5c bd 39 72 0f 3f 11 ad bb 3e
       0.5105883 -0.053805668 0.56033665 0.36655477
000220 0c 5f 12 3f 0d ac 35 bc e0 11 3b 3e 34 e1 a9 3e
       0.5717628 -0.011088383 0.18268538 0.3317963
000230 48 79 ac be 23 6a 26 be f2 38 be be 78 c1 d9 3b
       -0.3368628 -0.16251425 -0.3715282 0.0066453777
000240 51 26 81 3e f3 01 09 3f 17 81 6a 3e c8 9f 95 3e
       0.25224546 0.535186 0.22900806 0.29223466
000250 05 90 9d 3d f8 75 3c bf 8d 9c a7 3e 9a 80 73 bd
       0.07693485 -0.73617506 0.32736626 -0.059448816
000260 5d c2 59 bd 06 c3 26 3e 49 69 a5 be d2 80 bb 3e
       -0.053163875 0.16285333 -0.3230689 0.3662172
000270 a3 12 3b bf cf 0d 04 3f f9 14 5e bf 21 79 47 be
       -0.7307531 0.5158357 -0.8675075 -0.19479801
000280 07 53 a2 bc 69 c3 59 be 22 2d d7 bd 72 c6 26 3e
       -0.019814981 -0.2126595 -0.10506655 0.16286638
000290 ca d2 15 bf 53 36 5a be 9c 7a 67 3e 12 5b f3 3e
       -0.58524764 -0.21309786 0.22605366 0.4753042
0002a0 4c a4 b1 be f5 03 5d 3e 82 a4 bb bf 6b e1 62 3e
       -0.3469566 0.2158354 -1.4659579 0.22156303
0002b0 ef 80 32 be e5 6e f5 3c f4 58 34 3e 99 65 ba 3e
       -0.17431997 0.029960105 0.17612058 0.36405638
0002c0 37 de 8d be 2e 6d b0 3e 62 e8 91 3d 2e d2 af be
       -0.277086 0.34458297 0.07124402 -0.34340042
0002d0 95 77 8a be 2a 70 8a be de e1 98 bd ae d5 7d 3e
       -0.2704436 -0.270387 -0.07464956 0.24788544
0002e0 75 5d 97 3e 91 83 56 3d 23 4d 1d bd 07 fc 36 3d
       0.2956349 0.052371565 -0.03840364 0.044673946
0002f0 57 c4 b2 bd 33 66 95 bd 48 55 2e bf 57 a1 3a 3d
       -0.08728855 -0.072948836 -0.6809888 0.045564022
000300 bd 5c b9 3e 96 31 e0 3d ee de 2e 3d 93 16 47 bf
       0.36203566 0.10946958 0.04269307 -0.7776882
000310 55 7b 26 3f 6d aa 92 3e 61 81 87 3c e3 2c 75 3e
       0.6503194 0.2864565 0.016541185 0.23942904
000320 58 52 12 3e 1c e3 fd 3d 40 c6 c7 3e 1d f1 63 3e
       0.14289224 0.12396833 0.3901844 0.22259946
000330 5b 31 ed be 3a b0 18 3e 95 df e0 be 52 24 42 3f
       -0.46326718 0.14910975 -0.4392058 0.7583667
000340 a9 af aa 3e e1 6b f9 3d 19 86 02 be af 1c a1 3f
       0.33337143 0.121787794 -0.12746467 1.2586879
000350 fa 77 90 be 9a 57 87 3d 6a ad dc bc bc a0 83 bd
       -0.28216535 0.066085055 -0.026938159 -0.06427142
000360 e2 00 30 3e 7e a5 78 3d cb 61 9e be b2 44 9c 3d
       0.17187837 0.0607047 -0.30933985 0.0763029
000370 2f ea a3 3e 3f 5a a4 be 4d 10 c9 3e 47 db 1b be
       0.32014605 -0.32100102 0.3927025 -0.15220366
000380 a9 63 10 3e bd 5d 1b bd 07 9e a6 be f8 41 d0 3e
       0.14100517 -0.037931193 -0.3254244 0.4067533
000390 9e 30 f2 bd a8 f5 32 3d 32 56 f1 3e f3 19 b5 be
       -0.11825679 0.043691307 0.47136074 -0.3537136
0003a0 8f 86 74 3e 85 6a 83 be b6 e5 1d be eb fc 12 bf
       0.23879455 -0.25667205 -0.15419659 -0.5741717
0003b0 9f 6e 53 3e 8f 60 f4 be ec d2 0a bf 48 e9 aa bc
       0.20647667 -0.47729918 -0.5422809 -0.02086319
0003c0 c8 dd b3 3d 54 dd 8d 3e 81 2f 16 3f 36 75 95 3e
       0.08782536 0.27707922 0.58666235 0.29190987
0003d0 21 7a 71 be c5 3a 1a 3e 9f a2 65 3e 03 28 0a bf
       -0.23581745 0.15061481 0.22425316 -0.53967303
0003e0 ed 6d 3b 3e 24 a4 08 bf ed b9 50 3f b1 2e ad 3d
       0.18303652 -0.5337546 0.815337 0.08456171
0003f0 ee 47 8e be 57 0f bf be e5 bd eb be 64 7a 5c be
       -0.27789253 -0.3731639 -0.46043316 -0.21531063

network_body._body_endoder.seq_layers.0.bias f4 [128]
000000 fe 17 dd bb 13 98 01 bd 8c 44 0c bd e2 a0 a7 3c
       -0.006747245 -0.03163917 -0.03424506 0.020462457
000010 d2 f5 c0 bc a0 8c e7 bb 8a b4 63 3c 21 38 6f 3c
       -0.023554716 -0.0070663244 0.013898024 0.0146007845
000020 70 06 0f bd 42 17 1e bc 56 37 9c bb be db 3c bc
       -0.03491825 -0.0096491 -0.0047673387 -0.011527
000030 a8 0e 8d 3c bb 92 81 bc 69 8c 15 3c ac d8 35 bd
       0.017218903 -0.015817037 0.009127715 -0.044396088
000040 ed 33 57 bc cc 16 ed bb f2 b4 c9 bc 8b 8d 81 bc
       -0.013134939 -0.0072353836 -0.024622414 -0.015814563
000050 29 ed 31 bd a2 c2 6f bc 0e ad 0e bc a8 20 df 3b
       -0.043439064 -0.014633806 -0.008708252 0.006809313
000060 97 66 2e 3d 15 98 40 bc 68 2c 9c bc 0d 0c 17 bc
       0.042578306 -0.011755009 -0.019064143 -0.009219182
000070 c5 2b bf bb 4d f0 cd bc 44 ff c1 bc 0a 36 93 bc
       -0.005834075 -0.025138998 -0.02368129 -0.017970104
000080 a1 c8 8e bc a2 06 14 3c 7e b7 ed bb 24 b9 51 bc
       -0.017429652 0.0090347845 -0.00725454 -0.012800489
000090 04 57 71 bc a0 72 75 bc d6 6a 1c bc 7a d0 3a bc
       -0.014730219 -0.014980942 -0.009546956 -0.011402244
0000a0 82 80 8e bb 7d bb a2 bc 50 45 9b 3c 8b 21 9d bb
       -0.0043488154 -0.019864792 0.01895395 -0.0047952584
0000b0 99 ea c6 bc ea 74 c1 bc c4 f0 87 bc 7c 92 19 bd
       -0.024281787 -0.02361532 -0.016594298 -0.037493214
0000c0 7a c9 97 bc 29 a0 8b bd 7e a8 c1 bb b2 f4 a3 bc
       -0.018528689 -0.068176575 -0.0059099784 -0.02001414
0000d0 2f e9 36 3d 7d a4 02 bc b8 50 84 ba 00 6b d5 bc
       0.044655975 -0.007973787 -0.0010094857 -0.026051998
0000e0 23 9d b5 3c 2d d2 b9 bc 46 83 12 bc af 9a bd bb
       0.022169655 -0.022683227 -0.008942431 -0.005786262
0000f0 c6 56 57 bc f7 21 ff 3b a9 16 15 bc cd 0e 44 bc
       -0.013143247 0.0077860313 -0.009099641 -0.011966419
000100 6b 58 78 3d 98 37 a5 bb 4f 2a cb bc 77 65 14 b9
       0.060631197 -0.0050420277 -0.024800448 -0.00014152178
000110 52 5d 7a bc 48 ab 25 3d 7c 65 7f bc 64 3f 7c bc
       -0.015281038 0.04044655 -0.015588161 -0.015395973
000120 78 cc 16 bc cc c3 0c bc bf 59 80 3d c1 cd 85 38
       -0.009204023 -0.0085916035 0.06267118 6.380259e-05
000130 fa 87 28 bc 9a ec 27 38 ca d0 da 3a c4 50 e3 bc
       -0.010286326 4.0036255e-05 0.0016694304 -0.027748473
000140 a6 f9 ec bc 26 c0 3d bc 01 45 c5 bb c6 39 74 bb
       -0.028927635 -0.011581456 -0.006020189 -0.003726588
000150 b5 cd c0 3b 38 b2 cc bb e6 94 68 bc e2 9b b9 bc
       0.005883897 -0.0062468313 -0.014195656 -0.022657339
000160 3e 05 c9 bc 01 be 2f bd 0f e0 4b 3d 82 1a 86 bc
       -0.024538632 -0.04290581 0.049774226 -0.016370062
000170 ef 80 1b bd d2 fa 78 bc 34 5e 00 bd 6e f3 01 bc
       -0.037964758 -0.015196519 -0.03133984 -0.007931573
000180 f9 3d 20 3b 52 63 01 bd 27 18 82 bc 2e 2e 02 bc
       0.0024451 -0.03158886 -0.015880657 -0.00794558
000190 44 43 dc bc 70 82 0b bc d2 6b 74 bc 8b 2c 45 bb
       -0.026887543 -0.008514985 -0.0149182845 -0.0030086364
0001a0 21 fc dd bc 3a 63 93 3b 31 9f b2 bb c9 99 07 bc
       -0.027097763 0.0044979127 -0.005451106 -0.008276411
0001b0 10 5c 2f 3c d0 0f f6 3c de 2d aa bc 0b a8 bf bc
       0.010703102 0.030036837 -0.020773824 -0.023395559
0001c0 16 b3 0e bd cb 6e 80 bc 03 27 ff bc 5e c5 51 bc
       -0.03483876 -0.01567783 -0.031146532 -0.012803404
0001d0 21 42 f2 bc 6f 90 98 bb 8a 1c 7c 3c 27 f9 40 bb
       -0.029572548 -0.0046558897 0.015387664 -0.0029445381
0001e0 72 b7 2f bc b7 c4 4f 3b 9e 05 e9 bb 8e 5d 4f bd
       -0.010724889 0.0031702945 -0.0071112653 -0.05062633
0001f0 ef b4 9f 3c d6 0d 92 bb 38 e6 40 bc d8 95 62 bc
       0.019495456 -0.004457216 -0.011773638 -0.013829671

network_body._body_endoder.seq_layers.2.weight f4 [128, 128]
000000 d2 dc 6c 3d d2 86 40 3c 8f 92 4e 3d 30 d8 e8 bc
       0.05782778 0.011750894 0.050432738 -0.028423399
000010 1e 31 d3 bd c9 b3 34 bd 4e 0d f5 bd 00 32 04 bd
       -0.10312103 -0.04411677 -0.11965428 -0.032274246
000020 f8 96 34 3e 5f 1e 1b 3d 9b cf 5d 3d a9 90 77 bd
       0.17635715 0.03787076 0.054153066 -0.060440693
000030 fa c1 a6 3c 71 0b 51 bc 20 78 ef bc e3 8f 0a bd
       0.020356167 -0.0127590755 -0.029232085 -0.033828627
000040 fd 37 58 bb c4 bf 99 3d 49 ea d3 bc 06 8c 6d bd
       -0.0032992356 0.075072795 -0.025868552 -0.057994865
000050 0d 3d 9d 3d d2 92 bd 39 d9 9f dc bd 38 b1 88 bb
       0.0767766 0.0003615828 -0.10772676 -0.0041715167
000060 35 68 d2 3d 26 2f 65 bd ca 72 f6 3c 46 56 08 3d
       0.10273782 -0.055953167 0.030084033 0.0332854
000070 46 a9 a3 bd 7c ed b3 3c 7e 89 94 3b 23 c3 97 3d
       -0.07991271 0.021963827 0.004532992 0.07410266
000080 d2 39 18 3d c5 f1 1d bd df aa 80 3d b0 f1 0e 3e
       0.037164517 -0.038560648 0.06282591 0.13959384
000090 f2 a2 b6 3d c7 d3 11 bd f5 33 0e be 30 f9 0b 3d
       0.08917798 -0.035602357 -0.13887008 0.03417319
0000a0 b9 81 82 3c 29 41 ae 3c 11 2a b6 bc 12 b1 03 be
       0.015930997 0.021271305 -0.022236856 -0.12860516
0000b0 ef 53 59 3d 8f 93 d8 3c 6a 5b f4 bd a4 e7 b2 3c
       0.05305856 0.026437549 -0.11931498 0.02183897
0000c0 bf a1 1a 3e 08 a1 00 be 0b 9d d4 bd 36 ab 40 3e
       0.15100764 -0.12561429 -0.10381516 0.18815312
0000d0 3f 27 86 3d ba b2 24 3d 5a 8d 3c bd 3d 52 02 bd
       0.06550454 0.04020951 -0.04603324 -0.03181671
0000e0 31 51 a2 bd 5e 3f 93 bd 68 c9 04 3c fd cc 8f 3d
       -0.07925642 -0.07189821 0.00810466 0.0702152
0000f0 84 ae 9f 3d cf 73 73 3d 04 95 8d bd f7 bf ff 3d
       0.07796958 0.059436616 -0.06913188 0.12487786
000100 07 b2 16 3e 06 e5 a7 bd 96 5a b4 3c cb 14 89 bc
       0.1471635 -0.0819798 0.022015851 -0.016733548
000110 d5 e5 fd bd 05 81 83 bc 9c fe ad bd df 42 95 3d
       -0.123973526 -0.016052732 -0.084958285 0.07288145
000120 8b 47 5b 3d b9 02 6f 3e 30 46 22 3e af e1 60 bd
       0.053535026 0.23340882 0.15847087 -0.05490273
000130 bd fe f9 3d d3 9b ab bc 18 ec 76 3d 75 2b 28 3e
       0.122067906 -0.020948326 0.06028375 0.16422828
000140 23 52 0e 3d 9b 07 d9 3d 3f 0d ac bc 18 b7 cd 3a
       0.0347463 0.10597154 -0.02100241 0.0015694825
000150 80 1d 9a 3a 38 69 01 3d fc de 0f be 79 51 06 be
       0.0011758059 0.031594485 -0.14049906 -0.13117017
000160 0c bf 99 bd a7 bd bb 3c 55 25 e1 bd 94 b2 93 3c
       -0.075071424 0.022917582 -0.10993449 0.018029489
000170 94 fe bf 3c fb f9 74 bc b6 b9 6f 3c 6c 12 96 bc
       0.023436822 -0.014952178 0.014631679 -0.018319331
000180 d9 e2 60 3e 4e 0b 86 3c ce a4 f5 bc b0 99 2f 3d
       0.21961536 0.016362812 -0.029985812 0.042871177
000190 f1 a5 33 3d 54 01 60 3e 89 c6 f7 3d 7b 44 d0 3d
       0.043859426 0.21875507 0.120984145 0.101693116
0001a0 1a de 17 bd 3d d0 7c 3d 5b c4 18 be 88 ee 9e bd
       -0.037077047 0.06172203 -0.14918654 -0.0776034
0001b0 37 64 cc bd 89 5a bc bd 0c 9c cc bc 7e 0a 6a be
       -0.09980052 -0.09196956 -0.024976753 -0.22855565
0001c0 df 10 3c bc d2 ef 47 3d e7 30 d9 bc 71 4b 2f 3c
       -0.011478632 0.048812695 -0.026512576 0.010699139
0001d0 6a 1b a9 3c a9 8a 03 3d c7 2a 73 3d b8 b2 eb 3c
       0.020642955 0.03211466 0.059366968 0.028771743
0001e0 39 75 b3 bd 21 fb 37 3e 31 95 47 bd 99 23 0c bd
       -0.08762593 0.17966892 -0.048726264 -0.034213636
0001f0 27 62 3f bc f9 be 7a b9 97 d6 14 bd 70 8b 82 3d
       -0.011681116 -0.00023913001 -0.03633746 0.06374252
000200 bb 92 ce bc ee a4 5d bc 46 dc 1c 3d 6c 36 28 be
       -0.02521645 -0.013528092 0.038296007 -0.1642701
000210 4e a8 73 3d 35 df f5 3c 8d db 9d bd 1a 42 fa 3c
       0.05948668 0.03001366 -0.077078916 0.030549098
000220 73 e1 ca bd 24 a5 63 3e 29 c2 24 3c 7d c7 3d be
       -0.09906282 0.22230965 0.010056057 -0.1853313
000230 c4 81 6b 3d e2 90 90 bc 39 f1 06 3e 80 76 5e 3d
       0.0574968 -0.01764721 0.13177957 0.05431223
000240 21 62 4d bd fd cb 01 3d a6 d5 eb bc 98 82 c7 bc
       -0.05014241 0.03168868 -0.028788399 -0.024354264
000250 a5 39 f0 bc 46 65 9d 3d 22 5c 93 bd 43 4d 87 3d
       -0.029324362 0.07685332 -0.07195307 0.066065334
000260 97 04 03 be 2a f6 b0 bd 99 d0 06 3d b9 95 eb bc
       -0.1279472 -0.08640702 0.032913778 -0.028757917
000270 0a 2e 62 3e 00 44 92 3c 81 79 3c 3d f5 c3 85 bb
       0.22087875 0.01785469 0.046014313 -0.004082198
000280 ce e6 6b 3d 20 8c 8e bd 2a c0 0f 3d ac f9 f7 3c
       0.05759316 -0.069603205 0.03509537 0.03027042
000290 5d 53 5c 3d fb eb f4 3c 92 da 24 be 18 b2 91 3c
       0.05379044 0.02989768 -0.16099003 0.017785117
0002a0 86 1f cd bd a6 72 33 be 25 a5 a2 3d 23 bb 91 bd
       -0.10015778 -0.17524204 0.07941655 -0.071157716
0002b0 06 f9 8b 3d d2 04 c5 3b 37 37 9b 3d 6e 50 a2 bd
       0.06834607 0.0060125375 0.07578891 -0.07925497
0002c0 71 9a b1 3d f6 07 04 3d 03 4b f1 3d 94 f2 42 bd
       0.086720355 0.032234155 0.117818855 -0.04759462
0002d0 c1 5e dd 3c 11 4d 22 bd 3d 17 37 bc 53 de 88 3d
       0.027022721 -0.039624278 -0.011174974 0.0668303
0002e0 1f 72 f7 3b 36 7e 4a 3b f9 3c 39 bd 17 43 b0 3d
       0.007551446 0.0030897981 -0.045224164 0.08606546
0002f0 48 47 a3 3d b2 a2 4a 3c bd ea 9b bc df b1 d8 bb
       0.0797258 0.012367891 -0.01903283 -0.0066130008
000300 b7 c6 f6 bd 26 be 8f bd 11 4c c3 bd f7 30 14 3d
       -0.120496206 -0.0701869 -0.09535993 0.03617951
000310 8a 3c 8f bc d9 73 60 3d 4b 32 b3 3d 4e d4 3b bc
       -0.017484922 0.05479798 0.08749827 -0.011464192
000320 08 f8 8f 3d 09 17 c0 3d 4b 65 05 3d 45 3f 64 bd
       0.0702973 0.093793936 0.032567304 -0.0557244
000330 87 c1 1d 3d c6 3b 3b be 03 4e a3 3c 98 26 6c 3b
       0.03851464 -0.1828452 0.01993466 0.0036033746
000340 49 81 0b bd ab db 91 bc 7e 06 51 3d a5 e8 c1 3c
       -0.034058843 -0.017804941 0.051031582 0.023670504
000350 d0 8d 02 3d 9f 3d 05 3d aa 5e 5f 3d d0 5f 9f bd
       0.031873524 0.03252947 0.054533638 -0.07781947
000360 a3 e0 df bd b1 c5 95 bb d7 db c4 3d eb da ae 3c
       -0.10931518 -0.004570686 0.096122436 0.021344623
000370 29 88 7d bb 4e 2a 75 3b 25 9d 4b 3c d7 c3 b7 bd
       -0.0038685894 0.0037409249 0.012427603 -0.089729
000380 c1 5b f2 ba b8 30 77 bd b4 90 56 3d a5 f2 d8 bd
       -0.001849048 -0.060349196 0.052384093 -0.10593156
000390 43 af 08 be de 52 f1 3d c1 66 fc bc 53 4a a8 3d
       -0.13348107 0.11783384 -0.030810716 0.08217301
0003a0 1d f2 b6 bc 5e f3 93 3d af 48 b5 3d df e2 14 be
       -0.022332245 0.07224153 0.08851754 -0.1453967
0003b0 6c 9e 0d 3e bd 33 60 3a 61 64 af 3d 22 0b 2d be
       0.13829964 0.00085526315 0.08564068 -0.16898778
0003c0 b8 d4 c4 3d 7b fb 5f bd a2 93 f9 3c 86 10 cf bd
       0.096108854 -0.05468319 0.030465905 -0.101105735
0003d0 43 5e 03 3e 07 65 9f bd 43 b4 5e bd d2 cb e0 bd
       0.12828927 -0.07782941 -0.05437113 -0.10976376
0003e0 a9 e6 41 3d be 92 11 3b 3a b7 4d bd 5c 84 fa 3d
       0.047339115 0.002221271 -0.050223567 0.12232277
0003f0 aa 2f 17 bd 0e 42 b6 bd 5c 49 b0 b8 55 ca fd bc
       -0.03691069 -0.08899318 -8.405998e-05 -0.030980268

network_body._body_endoder.seq_layers.2.bias f4 [128]
000000 dd 14 a9 bb c7 a1 78 bc d3 f3 0e bc a6 f3 c9 bb
       -0.005159958 -0.0151752895 -0.008725124 -0.0061630784
000010 72 30 8e bb ea 7b 67 bc 3e dc d4 ba e5 94 b6 3a
       -0.004339271 -0.0141286645 -0.0016239954 0.0013929872
000020 f1 47 99 bc d3 55 b1 bc 18 4a 26 bc fd d3 29 ba
       -0.018711062 -0.02164737 -0.010149501 -0.0006478427
000030 d1 21 49 bc 13 9e de 3b 99 dd 27 bc 3a 92 88 b9
       -0.012276129 0.0067937463 -0.010245704 -0.0002604889
000040 16 bf 31 bc f3 87 28 bc 58 14 70 bc 09 c7 10 bc
       -0.010848781 -0.010286319 -0.014653288 -0.008836516
000050 80 63 c4 bc 09 72 6a bc d6 3f df bc 33 f6 af bb
       -0.023973227 -0.014309415 -0.027252119 -0.0053699254
000060 59 d8 c6 bc 82 3b 86 bb dd 6d be bb 6a 90 81 bc
       -0.024273084 -0.0040964494 -0.0058114366 -0.015815932
000070 b5 a5 39 3b 30 55 d0 bb ca 35 2b bc 9a 53 86 bc
       0.002832753 -0.0063578114 -0.010449836 -0.016397286
000080 23 39 50 bb 53 b0 74 39 d2 25 87 bc b6 ab 90 bc
       -0.0031772337 0.00023335339 -0.016497526 -0.017660003
000090 a5 fb c5 bb 8d d0 fc bb b5 14 e9 3a 53 86 a0 bc
       -0.0060419613 -0.007715291 0.001778266 -0.0195953
0000a0 59 42 95 bb 5c e1 95 bc 99 55 67 bc d3 bc 1b 3c
       -0.0045550284 -0.018295936 -0.014119529 0.009505468
0000b0 61 8c b0 bb d2 13 7a bc 10 93 80 bb eb 17 23 bb
       -0.005387828 -0.015263515 -0.003923781 -0.0024886082
0000c0 c6 13 a7 bc ca bc 32 bc 8f 77 3c bc c3 d2 2c bc
       -0.02039517 -0.010909269 -0.011503114 -0.010548296
0000d0 10 04 0b 3a f1 0b 38 bc 25 08 96 bc b1 1c 43 bb
       0.00053030346 -0.011233316 -0.01831443 -0.002977174
0000e0 e4 f7 f3 bb 71 24 a3 bc d4 97 bb bc a6 e2 43 bb
       -0.0074453223 -0.019914838 -0.022899546 -0.0029889732
0000f0 b4 92 a1 bc d5 d9 1c bc 51 23 5a bc ea bd b4 3a
       -0.019723274 -0.00957342 -0.013314084 0.0013789509
000100 26 01 8f bb 98 12 c6 b9 3a c9 6f bc 18 10 ed bc
       -0.0043641506 -0.00037779356 -0.0146353785 -0.028938338
000110 90 da 8c bb ab 41 d7 bc 55 c7 b1 bb f0 39 6d bc
       -0.0042985156 -0.02627643 -0.0054253736 -0.014479145
000120 ec 4a 12 bc eb fb 10 bb f6 55 f0 bb e6 df af bb
       -0.008928996 -0.002212281 -0.007334466 -0.005367267
000130 81 31 ca 3b ab 85 23 bc ef 50 76 bc 41 4a 1e bc
       0.006170452 -0.009980599 -0.0150339445 -0.009661258
000140 1f cc da 3b 08 72 5e bb d9 c2 05 bc c0 12 47 bc
       0.006677165 -0.003394248 -0.008164131 -0.012150466
000150 a7 1b 20 bc 93 52 68 bc 23 fb b0 bc 76 52 b6 bb
       -0.009772218 -0.0141798435 -0.021604126 -0.0055640293
000160 60 bb 83 bc 92 7e 22 bc 92 d9 b4 bb a1 7f 0e 3b
       -0.016080558 -0.009917872 -0.0055191005 0.0021743553
000170 d9 84 94 bc 75 e5 be 3b c4 63 02 3b 94 2d 08 3c
       -0.018129753 0.0058256933 0.001989589 0.008311648
000180 ae 8d 2a bc a6 b3 38 bc 68 dd fe 3a ac 93 46 bc
       -0.010409756 -0.0112733 0.0019444646 -0.012120169
000190 37 e8 8d bb 13 c0 61 bb 16 d0 05 bc a1 6c 27 bc
       -0.0043306607 -0.003444676 -0.008167287 -0.01021877
0001a0 1b 35 b1 bc f1 9d 8e bb 94 37 4a bc a3 f3 c0 bc
       -0.021631768 -0.004352324 -0.012342352 -0.023553675
0001b0 d9 f2 74 3b 0c 3b 65 bb 78 c1 da bb 67 80 bd bb
       0.0037376194 -0.0034977822 -0.0066758953 -0.005783129
0001c0 9a cf d9 bb 62 10 58 bc 04 16 31 bb 99 cd 6f bc
       -0.0066470625 -0.0131875 -0.002702118 -0.014636421
0001d0 ab 52 f4 bc 54 61 ca bb 40 4a 14 39 3f b2 55 3c
       -0.029824575 -0.006176153 0.0001414204 0.013042985
0001e0 60 77 65 bc 5d 0c fe bb e9 aa 87 bc 41 bd 57 bc
       -0.014005512 -0.0077529387 -0.016560989 -0.01316768
0001f0 2c c3 45 ba 71 d5 4a bb b4 e4 30 bc 37 ce f9 bc
       -0.00075440365 -0.0030949975 -0.010796715 -0.030493839

action_model._continuous_distribution.mu.weight f4 [1, 128]
000000 c5 3f 59 3d 18 f7 05 bb 94 05 c5 bb 25 b4 af 39
       0.05303933 -0.0020441469 -0.006012628 0.0003351282
000010 3b 94 50 3d 83 3f 08 bb 72 0c e0 bc dc 0c f4 ba
       0.050922614 -0.002078981 -0.027349684 -0.0018619555
000020 0c ec 3b bb f2 9f 91 39 ad 7c 33 bb 35 ea bd bc
       -0.002867463 0.00027775724 -0.0027387545 -0.023182968
000030 7f fe fd bb df b8 09 bd f5 b2 7e bc 33 94 05 bd
       -0.0077512856 -0.033623572 -0.015545596 -0.032612037
000040 55 17 9c bc 5f 6b 31 3c ad f6 fd 3b f9 25 b5 bb
       -0.019054094 0.010828822 0.0077503533 -0.0055282083
000050 21 c8 87 3a db 59 08 3d 49 a4 f4 39 67 6a 2c bc
       0.0010359326 0.033288818 0.0004666171 -0.010523415
000060 d4 be b2 ba f9 96 3e 3b cd c4 2f 3d c8 eb de 3b
       -0.0013637193 0.0029081686 0.042912293 0.0068030097
000070 7c 2e bb bc fb 5c ac bc 28 56 70 3b d7 2d ed 3b
       -0.022849314 -0.02104043 0.0036672447 0.0072381306
000080 a1 8b b4 3b 90 72 e1 bc 2f c5 7f ba 82 ef 94 3c
       0.005509809 -0.027520448 -0.00097568607 0.018180612
000090 ad 52 4a bc 4d 6a 4e bb 0c 4e fe bc 53 58 d7 3b
       -0.012348813 -0.0031496466 -0.031043075 0.0065718084
0000a0 28 46 54 bc 39 34 fc 3b e2 e7 f0 ba 12 cb 96 bc
       -0.01295618 0.007696655 -0.0018379653 -0.018407378
0000b0 25 54 80 bc 74 4d eb 3b 33 30 92 bc 14 44 a3 3c
       -0.015665123 0.007180864 -0.017845249 0.019929923
0000c0 6f 3c 38 bb bb b0 9e bc 7a 90 66 bb 86 f4 26 3c
       -0.0028112193 -0.019371381 -0.003518133 0.010190135
0000d0 2a e5 02 bd 3c cf ca bb 4a 8f 22 3c 11 3d be 39
       -0.03195683 -0.006189255 0.009921858 0.00036285122
0000e0 5e 31 70 bc 93 1c cd 3c 08 c3 cf 3b 86 11 4f 3d
       -0.014660208 0.02503804 0.006340388 0.05055382
0000f0 3a 3c bf ba ec 43 aa 3b 0b 6b ee 3b 59 e4 e2 bb
       -0.0014590092 0.005196085 0.007275944 -0.006924194
000100 ae cc 95 3c 77 47 4a ba 27 ad 9d bb 41 fa bd ba
       0.018286075 -0.00077163376 -0.004811901 -0.0014494137
000110 f6 c1 c7 3c 0d bd 95 ba 52 dc d4 bc 4d dd 4d 3a
       0.02438448 -0.0011424139 -0.025983963 0.0007853106
000120 fe e0 c5 3c 6c bc f5 bc 2e b9 b1 3c 8c e4 be 3b
       0.024155136 -0.029997073 0.021694746 0.0058255848
000130 8f 8d 3a 3d bd e9 bb bc e9 fc 81 3c 8a 70 57 bc
       0.045545157 -0.022938604 0.015867667 -0.01314939
000140 43 fc 29 bd 8c 57 92 bc ce ec b1 3a c0 68 9c bb
       -0.04150034 -0.017864011 0.0013574602 -0.0047732294
000150 6f 86 5d 3a cf 3e 05 3a 55 71 3a 3b 2b a9 17 bc
       0.0008450513 0.00050829066 0.0028448899 -0.009256641
000160 5e 5b 59 ba bb e8 73 bc 61 e5 1e bb dd 56 cb bc
       -0.0008291508 -0.01488703 -0.0024245607 -0.024821693
000170 8f f3 25 39 fd 8e 1c bd f5 9e b8 3c c4 21 17 3d
       0.00015826359 -0.0382223 0.022536734 0.036897436
000180 fe 62 85 bc e5 95 d2 bb 21 60 24 bd ac 88 0d ba
       -0.016282555 -0.00642656 -0.04013074 -0.0005399089
000190 66 58 16 3c 2f bf 29 3d a0 42 98 3b 9b ad c4 bb
       0.009176349 0.041442093 0.004646614 -0.0060021407
0001a0 9f 53 37 bc 92 d7 75 39 47 10 62 bc 3f c8 cf b9
       -0.01118937 0.00023445327 -0.013797826 -0.00039631312
0001b0 5f 96 3a 3d bc 06 1d bb 5a bb 12 3c 33 fd 9e bc
       0.04555356 -0.0023960313 0.008955801 -0.019407844
0001c0 70 09 b2 bc 56 d6 55 bb 90 00 11 3c b6 70 68 39
       -0.021733016 -0.0032628975 0.008850232 0.00022167232
0001d0 34 20 1f b9 34 a7 84 bc 96 54 bf bc 34 e3 13 3d
       -0.00015175418 -0.01619301 -0.023355763 0.03610535
0001e0 d4 aa 84 3b 03 ae 89 3b c9 7c 1e b9 5d d1 43 3c
       0.0040486846 0.004201652 -0.0001511454 0.011951772
0001f0 c9 b2 b1 3c 40 0b a4 bb 4a 12 db ba 3a b3 89 ba
       0.021691697 -0.005006224 -0.0016713825 -0.0010505684

exp_avg f4 [128, 7]
000000 26 ed 48 39 05 88 96 b9 14 8c 1f 39 c9 f0 1e 3a
       0.00019161831 -0.00028711572 0.00015215605 0.00060631015
000010 94 c8 fa 39 1f 76 c6 ba 34 e3 65 39 a3 ae a5 b6
       0.00047833158 -0.0015141404 0.00021923782 -4.9377136e-06
000020 56 7c a3 37 a3 61 9c b7 81 f3 93 b9 0e fe dc 38
       1.9489013e-05 -1.8642115e-05 -0.0002821945 0.00010537739
000030 c9 72 1a bb fa 76 18 38 4a 11 6c b7 79 81 a4 b8
       -0.0023566952 3.635043e-05 -1.4070722e-05 -7.8442456e-05
000040 09 37 cc b7 d0 c2 46 39 4d bc 54 38 a6 b5 89 3a
       -2.4344323e-05 0.00018955325 5.0720108e-05 0.0010506406
000050 9d 1c da 39 7c 1e e5 b9 39 92 c3 39 ce c6 cc b9
       0.0004160152 -0.00043700996 0.00037302243 -0.00039058033
000060 39 83 40 bb 05 6c 15 39 39 f3 9f bc 58 0f 17 ba
       -0.002937509 0.00014249988 -0.019525157 -0.0005762479
000070 34 2e 0d b8 d1 7a 9b b8 9b 65 6f 38 e0 03 08 3b
       -3.366005e-05 -7.413852e-05 5.7076668e-05 0.0020754263
000080 34 a4 11 ba 58 64 46 3c f2 d8 05 3a 04 62 1f b9
       -0.0005555779 0.012108885 0.0005105875 -0.00015199935
000090 67 de 1c b8 80 cb bc b8 1f 7a 72 ba 50 a6 3a 39
       -3.7400427e-05 -9.0024434e-05 -0.0009249765 0.00017800299
0000a0 90 6a 06 bc 91 ef ad b9 4c 5c 4a 39 c7 70 5c 39
       -0.008204117 -0.00033175622 0.00019298604 0.00021022848
0000b0 e6 a2 70 b9 a9 ee 3d bb 3e 60 8d 3a 98 7b 04 bc
       -0.00022948868 -0.0028981364 0.0010786129 -0.008086108
0000c0 e0 4c b4 3a 2a 28 4f b9 3a e1 0e 3a 9c 27 9d b9
       0.0013755821 -0.0001975602 0.00054504315 -0.00029974885
0000d0 82 c4 16 bb 58 70 f5 b9 23 25 0a 3a b1 ed 34 b9
       -0.0023005311 -0.00046813744 0.0005269816 -0.00017254685
0000e0 54 2b cc b3 cd d3 5a 38 81 0b 3e b7 2f 08 61 b9
       -9.5073716e-08 5.2172505e-05 -1.1327561e-05 -0.00021460721
0000f0 b2 6c b0 b7 60 97 17 3a 39 71 f3 b8 e7 7f 5d 39
       -2.103145e-05 0.00057827495 -0.00011608232 0.0002112385
000100 1d 9c ae b9 be 65 5e 39 6d 8b c3 3a fa 82 df 39
       -0.0003330418 0.00021209472 0.0014918871 0.0004263146
000110 ff 0f 88 bb 6f cf 35 3a b4 19 c1 36 c3 28 b7 b7
       -0.0041522975 0.0006935512 5.7548405e-06 -2.1834281e-05
000120 a6 7e 11 38 d9 b3 e0 3a c9 55 de b9 ab 26 28 3c
       3.4688645e-05 0.0017143443 -0.00042407055 0.010263125
000130 92 c6 38 3a 2a 25 99 38 6d 33 66 39 9a 68 c6 b8
       0.0007048632 7.302531e-05 0.00021953667 -9.460859e-05
000140 b7 d1 4c ba f8 1f 44 39 be 3d 99 bb 0e 99 78 3a
       -0.00078132324 0.00018703926 -0.0046765497 0.0009483256
000150 b4 05 fd 39 ad 0f 24 ba c5 9a ca 39 6b 09 ba 3a
       0.0004826017 -0.00062584394 0.00038643755 0.0014193481
000160 0e 9e 78 3a df 6d 81 3a 47 c4 9f 39 67 3b 60 b8
       0.0009484001 0.0009874663 0.0003047308 -5.3461084e-05
000170 c5 2d 99 38 33 be 42 b8 bc 8d 7b b9 32 1c d7 b8
       7.304134e-05 -4.643034e-05 -0.00023990026 -0.00010257251
000180 7d 35 51 3a 96 fe b7 b8 bc d7 2b 38 d5 5a 00 b9
       0.00079806877 -8.77354e-05 4.0970495e-05 -0.00012240869
000190 29 56 80 b8 be cb 23 3b 02 46 ff b9 e7 3e 97 3c
       -6.119564e-05 0.0024993266 -0.0004868955 0.018462611
0001a0 e2 f4 2d 3b f9 90 f2 36 5a f1 82 37 c6 1a 58 36
       0.0026543667 7.229039e-06 1.5609596e-05 3.2202092e-06
0001b0 11 7f 94 b9 8d 44 7e 38 60 46 f7 ba 65 b7 2c b9
       -0.00028323432 6.0622162e-05 -0.0018865578 -0.00016471518
0001c0 df b4 82 b9 1e 2e ee 39 5f c6 71 b9 94 35 85 ba
       -0.00024930292 0.00045429257 -0.0002305745 -0.0010163062
0001d0 32 ab 2b ba fc 68 e1 39 dc 40 2c b8 2b 2b 06 39
       -0.00065486424 0.00042993564 -4.10684e-05 0.00012795317
0001e0 84 b2 76 b9 9e 5e f6 38 17 14 fe 39 20 b1 b3 39
       -0.0002352689 0.00011747818 0.00048461623 0.0003427351
0001f0 c4 31 b0 b9 35 5a 5b b6 1e 2a 22 b9 dd d0 ab 37
       -0.00033606414 -3.268605e-06 -0.00015465214 2.0482048e-05
000200 db 13 06 b9 da 7b 84 ba f6 8e 2d 39 89 38 14 bc
       -0.00012786633 -0.0010107711 0.00016551823 -0.009046682
000210 bf fe ee b6 f0 d9 8d 37 68 90 da 38 a4 e7 46 b7
       -7.122609e-06 1.6909995e-05 0.00010421948 -1.1855653e-05
000220 10 41 22 ba fa a4 53 38 b8 53 82 bb 74 3d 45 b9
       -0.00061895046 5.0459967e-05 -0.003977265 -0.00018810277
000230 00 47 9e 38 cd b6 b0 37 ac 2a e5 37 f1 ec c6 39
       7.547252e-05 2.1065958e-05 2.7318798e-05 0.00037942038
000240 eb 9d d7 b8 44 a1 a4 3b ca 32 a1 39 b2 d4 88 39
       -0.000102814134 0.005024107 0.00030746154 0.00026098412
000250 d2 a2 80 b9 96 8d 50 39 21 d7 73 3a 48 23 f5 39
       -0.00024535373 0.0001988917 0.0009301771 0.00046756328
000260 25 14 2f ba e9 4e ec 39 32 32 34 b8 8d 91 68 37
       -0.0006678722 0.0004507222 -4.2962092e-05 1.3862166e-05
000270 19 b0 e4 b7 64 de 77 b8 9c 51 9c b8 17 c0 06 39
       -2.726172e-05 -5.9096506e-05 -7.4538606e-05 0.00012850795
000280 cd d9 51 b8 e2 fc 1d 37 22 b1 04 b8 73 ca 2f 38
       -5.0032326e-05 9.416808e-06 -3.163622e-05 4.1911797e-05
000290 28 4c 8c 3a 12 cf 8c b9 b5 23 d5 3b f7 50 a3 39
       0.0010703849 -0.0002685716 0.0065045008 0.00031150106
0002a0 8a 62 0d 3a 4d 80 bc b9 25 af 96 39 e1 6e 0e 3b
       0.00053934066 -0.00035953746 0.00028740722 0.002173357
0002b0 22 b6 2d 3a f9 5e d2 3c a9 b7 a1 3a a2 e6 6d b9
       0.0006626566 0.025680052 0.001233806 -0.00022687999
0002c0 8a fd bc 39 dc 22 53 b9 8b 9d 97 ba 74 b4 03 ba
       0.00036047056 -0.00020135514 -0.0011567337 -0.0005024143
0002d0 1f f3 14 3b 9b da 02 ba 21 56 0d b6 c3 23 cd b7
       0.002272792 -0.0004991681 -2.106077e-06 -2.4454557e-05
0002e0 6f a3 81 37 cf fd 24 b9 e1 51 8d 38 88 fe c4 ba
       1.5454103e-05 -0.0001573481 6.738655e-05 -0.001502947
0002f0 a6 76 62 b9 c6 6a e9 38 dc f6 bd 38 56 07 2a b8
       -0.0002159724 0.00011130194 9.0582034e-05 -4.053799e-05
000300 38 66 69 ba cc 8b a4 39 dc 32 31 bb 3e 32 dd 39
       -0.00089034764 0.00031384674 -0.0027038371 0.00042189838
000310 d9 4a 39 b9 81 d5 7e b8 04 f1 b4 b8 05 e6 87 ba
       -0.00017670858 -6.075716e-05 -8.6279615e-05 -0.0010368234
000320 cd c5 18 39 f8 08 f7 bb 86 de 47 ba 35 fc 46 b8
       0.00014569536 -0.007538911 -0.0007624406 -4.7441765e-05
000330 cf c6 d2 b8 24 fe 90 b7 3e ee 66 39 fb 3e 67 b8
       -0.00010050611 -1.7284481e-05 0.00022023261 -5.5133347e-05
000340 19 ca 5c 3b 78 22 8b 38 df 78 65 b7 7d d8 9c 38
       0.0033689796 6.634457e-05 -1.3677606e-05 7.478984e-05
000350 e0 43 c1 b7 71 3e 8f b9 21 17 62 b8 56 26 e4 39
       -2.3039e-05 -0.00027321608 -5.390414e-05 0.0004351611
000360 3f 87 06 b9 e5 ae 92 38 c5 8f 3e 38 9a b0 a1 37
       -0.00012829619 6.994399e-05 4.5433426e-05 1.9274932e-05
000370 19 7b bf 38 24 91 c8 b7 b2 ff 28 3b 21 a0 f6 38
       9.1305184e-05 -2.3909444e-05 0.0025787172 0.000117600204
000380 72 25 2a b9 4f d1 0d 39 db a7 fe b8 b2 86 c3 b9
       -0.00016226413 0.00013524781 -0.00012142929 -0.00037293654
000390 67 62 95 b9 d8 05 ac 38 62 11 90 b6 f8 2a 11 38
       -0.0002849281 8.2026876e-05 -4.293558e-06 3.461071e-05
0003a0 07 28 71 38 13 fc 8c 37 f2 fa 9c 3a 0a 29 92 b9
       5.7496156e-05 1.6806682e-05 0.0011976643 -0.00027877867
0003b0 05 50 e7 3b 30 b9 42 3a 82 fb b5 36 31 3f 17 36
       0.0070590996 0.0007428108 5.4234997e-06 2.2537536e-06
0003c0 f4 36 0d b6 a6 9a 67 3a 1e 07 92 b9 37 a3 e3 3b
       -2.1042624e-06 0.0008834995 -0.00027852593 0.006946947
0003d0 47 11 f7 39 45 02 93 38 23 55 4f 37 87 3e 7b 38
       0.00047124384 7.009929e-05 1.2357984e-05 5.9901296e-05
0003e0 3c 33 87 3a 2e bf 8a b9 aa f0 03 3c 6e 8b 95 39
       0.0010314952 -0.0002646385 0.008052984 0.00028523378
0003f0 9f ec bd 39 c7 24 15 ba 56 c1 a3 39 83 fe ba 3a
       0.00036225186 -0.0005689379 0.0003123383 0.0014266524

exp_avg_sq f4 [128, 7]
000000 c0 8e 96 36 ba 6b e3 36 70 2b b1 35 51 1f 9d 37
       4.4869666e-06 6.777668e-06 1.320017e-06 1.8730441e-05
000010 9c c5 36 36 62 dd 1b 3b 28 8e ca 38 bb a5 44 34
       2.7235137e-06 0.0023783077 9.658589e-05 1.8314215e-07
000020 e6 03 00 35 62 d2 8f 33 96 65 58 35 44 18 f5 33
       4.768939e-07 6.697225e-08 8.06141e-07 1.14131154e-07
000030 48 30 f1 38 86 30 92 36 b7 fd 22 34 59 50 8f 34
       0.000115007686 4.356788e-06 1.5179727e-07 2.6694286e-07
000040 94 99 84 33 4d fa 19 35 70 82 b0 33 57 f8 9c 38
       6.174665e-08 5.7361177e-07 8.219365e-08 7.4849166e-05
000050 58 e5 48 36 34 fb 4b 37 3b ad 0a 38 0a 34 93 36
       2.9935818e-06 1.2158231e-05 3.3063097e-05 4.3869995e-06
000060 f5 df 64 38 54 ad fd 36 f0 e8 fe 3b 09 e0 99 39
       5.4568012e-05 7.5601656e-06 0.007779233 0.00029349353
000070 2f 84 6d 36 45 ac 09 37 4d cf ae 35 c8 60 8c 37
       3.5392693e-06 8.205946e-06 1.3024343e-06 1.6734368e-05
000080 56 bf 1f 36 7c fe 12 3b e5 ea b1 38 a4 6d 88 36
       2.3804218e-06 0.0022429517 8.48377e-05 4.0658797e-06
000090 15 ae 2a 37 d1 9c e4 35 92 b8 9e 37 a2 b3 37 36
       1.0173321e-05 1.7032963e-06 1.8921015e-05 2.7373685e-06
0000a0 d7 f6 2f 3b 1b 54 d9 38 74 eb 8c 37 5e bb f0 37
       0.002685001 0.00010363032 1.6798942e-05 2.869748e-05
0000b0 71 ac a1 36 09 1a a1 38 73 40 39 37 ed bc 16 3c
       4.8182487e-06 7.681928e-05 1.1041865e-05 0.009200317
0000c0 fd ff c3 39 1b ad 5a 37 57 c6 ba 37 e3 d1 40 36
       0.00037384024 1.3034117e-05 2.2265287e-05 2.87324e-06
0000d0 82 ba 57 38 d2 01 fb 36 ec 4a c5 3b f6 2b 83 39
       5.1433693e-05 7.480595e-06 0.0060208943 0.0002501902
0000e0 fd 0a 18 34 52 c0 57 34 97 f2 4f 33 fb c8 0c 35
       1.41601e-07 2.0093401e-07 4.8416577e-08 5.244653e-07
0000f0 98 17 a4 33 c9 2e 8b 38 be 9c 32 36 b8 d5 9e 36
       7.641137e-08 6.636751e-05 2.6615303e-06 4.733647e-06
000100 24 76 06 37 a9 c9 ad 35 a8 47 a5 37 78 95 40 36
       8.014529e-06 1.2948195e-06 1.97029e-05 2.8697232e-06
000110 f2 92 1e 3b 0c 4f d4 38 e5 c7 64 36 a5 bf f8 36
       0.0024196473 0.000101236714 3.4091001e-06 7.4132863e-06
000120 c8 61 a7 35 df 05 8a 37 5a 47 1f 36 d1 c3 0b 3b
       1.2470928e-06 1.6453616e-05 2.3734378e-06 0.0021326432
000130 f7 ed ac 38 d8 9f bc 35 a1 7b 1d 36 37 ae c4 34
       8.2459235e-05 1.4053612e-06 2.3466785e-06 3.6634603e-07
000140 ec c9 b8 36 17 c7 5f 35 b5 18 36 3a 08 36 f3 37
       5.507134e-06 8.336369e-07 0.00069464307 2.8993018e-05
000150 34 1e a8 37 50 23 da 37 f3 70 c5 36 3b 72 9f 38
       2.0041225e-05 2.6004069e-05 5.8842065e-06 7.602988e-05
000160 0d a7 35 37 d2 09 1b 3c 62 61 d0 39 1b 17 cb 34
       1.0827335e-05 0.009462791 0.00039745407 3.7828508e-07
000170 d4 b2 f5 34 62 93 ba 33 6c 64 c8 35 39 c9 57 34
       4.576492e-07 8.688109e-08 1.4930388e-06 2.009664e-07
000180 51 c6 2a 39 c7 e6 d5 36 58 25 01 37 0b 4a a1 37
       0.00016286342 6.3747607e-06 7.697694e-06 1.9227175e-05
000190 79 1d 4a 36 04 66 28 38 dc 81 c2 36 d8 ac ae 3b
       3.01175e-06 4.014933e-05 5.796768e-06 0.005330663
0001a0 3c 09 5c 39 dd 97 86 34 39 7b 05 35 4c 23 cc 33
       0.00020984275 2.506994e-07 4.9725674e-07 9.505911e-08
0001b0 12 9e 8a 35 97 35 1f 34 f6 96 0b 39 7f 0c b4 36
       1.0327806e-06 1.4827525e-07 0.0001331231 5.3658728e-06
0001c0 5a 45 7d 37 c6 bf c5 37 57 76 8f 36 ab d3 78 38
       1.5096122e-05 2.3573532e-05 4.2755087e-06 5.932494e-05
0001d0 91 5e 0e 37 9f 3c f3 3b 0b 25 a5 39 b0 cb 81 36
       8.4858775e-06 0.007422998 0.00031498852 3.868212e-06
0001e0 23 66 ce 36 33 9d 88 35 65 4f 82 37 9b 43 13 36
       6.1511687e-06 1.0178541e-06 1.5534179e-05 2.1944059e-06
0001f0 c8 17 fe 3a 4e 4b ae 38 da 01 2a 36 4c 9a da 36
       0.001938575 8.310993e-05 2.5333052e-06 6.514869e-06
000200 3e 7f 8d 35 5f e1 4f 37 fc 71 ec 35 47 54 e6 3a
       1.0542351e-06 1.2390635e-05 1.7616544e-06 0.0017572724
000210 d7 2e 8d 38 92 ac 27 35 c2 1c 99 35 ff b9 61 34
       6.7321285e-05 6.246347e-07 1.1407758e-06 2.1022423e-07
000220 a5 54 21 36 b3 f7 b6 34 ee 59 9f 39 bb 8d 43 37
       2.404014e-06 3.4080367e-07 0.00030393846 1.1655905e-05
000230 47 95 c9 34 24 28 84 35 4a 9c 1c 34 7c 2a 09 36
       3.754778e-07 9.846449e-07 1.458549e-07 2.043932e-06
000240 3b f1 9a 34 7a f2 93 39 5e 42 38 37 4d ae 62 36
       2.8860254e-07 0.00028218684 1.0982707e-05 3.377808e-06
000250 30 76 b8 36 c2 4b 8d 35 d5 f8 6b 37 40 a8 09 36
       5.497386e-06 1.0527367e-06 1.4065027e-05 2.0512525e-06
000260 03 6c ef 3a 4a e5 9b 38 d2 0e 9a 34 53 29 ea 34
       0.0018266443 7.4336844e-05 2.8695518e-07 4.3615964e-07
000270 0f 9c ae 33 1b c8 a1 35 ce bd 3a 34 22 c2 1c 39
       8.130893e-08 1.2053673e-06 1.739165e-07 0.0001494964
000280 9c 6a c8 36 64 9c 75 35 10 eb 20 36 05 b0 b8 34
       5.9728754e-06 9.149719e-07 2.3978682e-06 3.4400742e-07
000290 95 07 9a 36 37 b2 32 35 b6 73 27 3a 58 39 c9 37
       4.5904403e-06 6.6569504e-07 0.00063877867 2.398777e-05
0002a0 d8 39 fc 37 8e ae 50 38 e9 8d 3e 37 34 47 ef 38
       3.0067677e-05 4.975363e-05 1.13579235e-05 0.00011409671
0002b0 02 85 87 37 24 55 7c 3c 91 9e 1c 3a 80 99 c1 36
       1.615519e-05 0.0154011585 0.0005974556 5.769718e-06
0002c0 cb 08 0a 37 d0 c0 ca 35 cb 66 bc 37 9b 31 5c 36
       8.227488e-06 1.5106289e-06 2.2459213e-05 3.2811429e-06
0002d0 b1 bb 33 3b 84 0d ef 38 49 d9 e0 33 03 00 81 34
       0.0027425105 0.000113989256 1.0470337e-07 2.402813e-07
0002e0 d6 46 1f 33 84 e8 1b 35 06 cd ad 33 6c cb 87 38
       3.7084497e-08 5.8080354e-07 8.093234e-08 6.475192e-05
0002f0 79 6b 34 36 1e 08 84 35 ee 4e ad 35 67 c1 8c 34
       2.6884647e-06 9.837129e-07 1.2912476e-06 2.621775e-07
000300 b3 df 6c 36 7a f6 09 35 87 9c e5 39 9e db 97 37
       3.529695e-06 5.139515e-07 0.00043794906 1.810287e-05
000310 56 04 05 36 18 85 a2 36 ed 8b 72 35 49 07 25 37
       1.9821068e-06 4.8434704e-06 9.0355644e-07 9.836463e-06
000320 0b bc be 35 13 76 b5 3a 69 36 60 38 88 db e2 33
       1.4210831e-06 0.0013844393 5.3456435e-05 1.05638776e-07
000330 ce 97 38 34 29 bc 13 33 c4 e7 d9 34 1e 13 70 33
       1.7191562e-07 3.4397235e-08 4.0588031e-07 5.589674e-08
000340 a7 6d 51 38 67 e2 fd 35 c1 0a c2 34 29 e1 1b 35
       4.9931605e-05 1.8915861e-06 3.614314e-07 5.806965e-07
000350 e5 f4 fa 33 fc 8c a6 35 7d b4 3d 34 27 12 29 39
       1.1686078e-07 1.2408996e-06 1.7667658e-07 0.00016123858
000360 92 7d db 36 39 5f 41 35 6f c1 d4 35 33 a9 a0 34
       6.541327e-06 7.203667e-07 1.5851527e-06 2.992543e-07
000370 ee fb 65 36 22 16 05 35 c0 81 ef 39 57 45 96 37
       3.4270302e-06 4.957857e-07 0.00045682304 1.7913682e-05
000380 af 4c f0 34 ac f3 31 35 ba 9b 19 34 54 cc ef 35
       4.4759278e-07 6.629223e-07 1.4305888e-07 1.7866355e-06
000390 66 71 8e 34 71 55 86 39 e6 59 24 37 c2 60 7f 36
       2.653207e-07 0.0002562213 9.796093e-06 3.8054282e-06
0003a0 ca 21 fe 36 76 5c c9 35 51 39 93 37 17 26 30 36
       7.5737235e-06 1.5002577e-06 1.7550456e-05 2.6248215e-06
0003b0 c0 07 17 3b 91 d2 bb 38 e9 90 2f 36 87 ba b5 36
       0.002304539 8.956076e-05 2.616138e-06 5.415935e-06
0003c0 e6 e5 86 35 c7 7c 4b 37 7d 2f e9 35 f2 9e cd 3a
       1.0050687e-06 1.2128795e-05 1.7373674e-06 0.0015687628
0003d0 cc 74 80 38 e6 d4 07 36 cf cf b0 36 87 2e 5e 35
       6.125271e-05 2.024049e-06 5.269401e-06 8.276915e-07
0003e0 1d 8c 2e 37 94 90 c7 35 b0 1a bd 3a 33 72 67 38
       1.0403831e-05 1.4868733e-06 0.0014427509 5.5181048e-05
0003f0 be a9 59 37 0e 3c a5 37 da ef 5e 36 72 e1 58 38
       1.2973729e-05 1.9697498e-05 3.322019e-06 5.1708375e-05

exp_avg f4 [128]
000000 5f d4 9d 38 48 84 75 b9 bb d3 0e 39 e9 51 36 bb
       7.5259006e-05 -0.000234143 0.00013621051 -0.0027819818
000010 5a b2 a0 3a 27 87 81 ba 72 d7 8f ba 6f 9c 11 ba
       0.0012260184 -0.0009882197 -0.0010974242 -0.00055546215
000020 98 f8 73 b8 46 8a af 39 60 59 86 3a 91 fb f5 b9
       -5.8167236e-05 0.00033481623 0.0010250024 -0.00046917473
000030 55 98 70 3a 58 ff 82 b8 08 53 cd 3a f6 f8 48 b9
       0.00091779727 -6.2464445e-05 0.0015665004 -0.00019166232
000040 80 ce c5 b7 24 3d 8f b6 18 cb 89 ba 28 4a d3 b9
       -2.358039e-05 -4.26885e-06 -0.0010512797 -0.00040300307
000050 66 bf 02 3a e9 df ab 39 ca 35 d5 b7 27 6c 37 3a
       0.0004987627 0.00032782488 -2.5416626e-05 0.0006997012
000060 46 55 0b 3b 89 3c 77 b9 79 60 f4 b8 32 18 96 b9
       0.0021260544 -0.00023578307 -0.00011652796 -0.00028628256
000070 4a 96 7f ba 1c e9 a4 39 d1 ce 8c b8 e4 ac 8c 39
       -0.0009749873 0.00031454198 -6.714243e-05 0.00026831694
000080 c0 9a 92 b8 59 4f 40 3a f9 31 2e 3a 12 1b 53 3a
       -6.990647e-05 0.00073360425 0.000664502 0.0008053045
000090 51 14 23 39 77 6e 59 ba f4 52 ba 39 51 87 40 39
       0.0001555246 -0.00082943536 0.0003553849 0.00018360956
0000a0 51 3d c9 b9 fc 6a d0 35 9b 93 bf ba a5 45 55 b9
       -0.00038383392 1.5528344e-06 -0.0014616133 -0.00020339208
0000b0 a8 6a 89 38 13 a3 30 ba b7 19 2b 3a b0 0b 7a b8
       6.552535e-05 -0.0006738167 0.0006526964 -5.961553e-05
0000c0 44 bd 29 39 53 73 d7 b6 8a 98 45 b9 f3 6a 86 ba
       0.00016187603 -6.420925e-06 -0.00018844209 -0.0010255262
0000d0 99 1a 2a 3a 9d 1f e4 3a 39 0d 57 39 fd 52 fc b9
       0.0006488949 0.0017404441 0.00020508924 -0.00048127017
0000e0 81 04 d3 ba 94 5e 07 3a b9 9d da ba 8b ad 00 ba
       -0.0016099365 0.00051639345 -0.0016679085 -0.00049086724
0000f0 bb bc b3 37 fd 1b 1a 39 9f ff 2b b9 fe 52 e1 b7
       2.1426347e-05 0.00014697011 -0.00016403057 -2.6860736e-05
000100 cf bc 9c ba bb 1b bc b9 31 23 99 b8 6b 7c 76 3a
       -0.0011958125 -0.00035878815 -7.3021634e-05 0.0009402695
000110 f2 38 a4 b8 18 2f 72 ba cc 60 00 b8 41 6f 78 b9
       -7.830736e-05 -0.0009238585 -3.0607727e-05 -0.00023692568
000120 1a d6 86 ba 89 ea aa 39 8e e7 96 39 5c 96 a6 ba
       -0.0010287196 0.0003259967 0.0002878275 -0.0012709606
000130 b0 ff 08 39 1f 2e 97 3a 2a d1 37 ba 30 0b c7 b7
       0.00013065222 0.0011534131 -0.0007012064 -2.3727858e-05
000140 26 d2 b9 37 85 93 2a b9 bf 05 7f 39 78 e7 03 ba
       2.2151577e-05 -0.00016267419 0.00024320836 -0.0005031745
000150 11 df 9e ba f2 44 cf 3a a4 18 49 ba 29 e8 ea 39
       -0.0012120922 0.0015813394 -0.0007671213 0.0004480493
000160 d0 b8 1a 39 ff 4f a8 b8 fe cb 3d bb 2a 93 c9 b7
       0.00014755432 -8.025765e-05 -0.00289607 -2.4029596e-05
000170 c7 34 b6 b8 d1 cd b0 3a e2 12 92 38 0c 93 34 38
       -8.688267e-05 0.0013489072 6.96534e-05 4.3052292e-05
000180 06 62 c4 3a fc 04 19 37 67 34 0e b8 cf 7a 0c bb
       0.0014982827 9.120671e-06 -3.390424e-05 -0.0021435504
000190 c5 a7 cf b9 96 65 74 39 3e 63 b5 b7 cf d6 d5 3a
       -0.00039607115 0.00023307497 -2.1623095e-05 0.0016314628
0001a0 31 cd 5d b9 97 ae 48 3a 7b cb eb ba 73 a5 e2 ba
       -0.00021152642 0.00076554104 -0.0017989719 -0.0017291739
0001b0 02 44 bf ba dc fa 21 ba 5c 21 ca 38 3f 45 7c b8
       -0.0014592411 -0.00061790436 9.638324e-05 -6.0145972e-05
0001c0 83 48 fd b9 9a f4 d8 b9 e5 7e 61 39 9c 82 b3 39
       -0.00048309946 -0.00041380973 0.00021504944 0.00034238852
0001d0 b9 7f 85 38 89 a0 d3 3a e3 23 66 ba 37 7c a1 39
       6.3657244e-05 0.0016145866 -0.0008779151 0.0003080086
0001e0 a5 ad 00 39 05 8b 10 3a f3 09 26 b9 a1 e3 9f 38
       0.00012271719 0.00055138796 -0.000158347 7.62411e-05
0001f0 5c ff e8 ba c6 5b 29 ba bd 75 ac b9 18 e7 77 39
       -0.0017776298 -0.00064605137 -0.00032894118 0.00023641845

exp_avg_sq f4 [128]
000000 33 67 c7 37 50 64 9a 35 32 7f 4a 35 9d e8 a0 38
       2.3770705e-05 1.1503089e-06 7.543596e-07 7.672722e-05
000010 5d 87 bc 37 3d cf e1 37 9c a2 c5 38 5c 1b 7d 38
       2.247438e-05 2.6918593e-05 9.4239804e-05 6.034538e-05
000020 20 28 32 35 a5 0a cb 37 0a f6 b2 37 15 f1 f2 36
       6.6368557e-07 2.4204443e-05 2.1333824e-05 7.2402277e-06
000030 f2 e7 c3 38 48 e9 d9 35 3f 44 5e 38 cf 32 b3 35
       9.341528e-05 1.6235654e-06 5.2992484e-05 1.3351327e-06
000040 bb bd 9b 38 aa c8 a2 37 0a 5e 93 37 97 95 4a 36
       7.426316e-05 1.9405346e-05 1.7567556e-05 3.0187418e-06
000050 f9 55 3d 36 b4 ce 98 37 de 00 c9 35 2c 33 d6 36
       2.8213237e-06 1.8216066e-05 1.4975919e-06 6.383654e-06
000060 df 36 19 39 59 09 e6 37 8c a8 30 35 f7 3d 9a 36
       0.00014611658 2.742249e-05 6.581038e-07 4.5967713e-06
000070 a0 7f 69 37 2d 67 04 35 e5 cb da 35 63 3b 9a 36
       1.3917597e-05 4.932397e-07 1.6301607e-06 4.596471e-06
000080 8c a6 24 36 2d 70 c0 37 25 15 84 37 8a 19 72 37
       2.4534847e-06 2.294042e-05 1.5745472e-05 1.443027e-05
000090 8a 53 88 38 2e 4b 4c 37 9e 24 be 36 44 93 30 37
       6.500546e-05 1.2176852e-05 5.666704e-06 1.0524705e-05
0000a0 5b d9 f9 36 5e 5a c9 35 0a c4 72 38 b3 b6 73 36
       7.446082e-06 1.5001967e-06 5.787987e-05 3.6316167e-06
0000b0 ff e0 19 36 8e 10 6c 37 26 61 f0 36 b9 cc 84 37
       2.2929742e-06 1.4070551e-05 7.163867e-06 1.5830958e-05
0000c0 77 b1 9d 37 a1 b2 69 35 bd 2c 1d 39 fb 42 d1 37
       1.8798497e-05 8.7059203e-07 0.00014989353 2.4945932e-05
0000d0 7f 09 d5 38 27 01 9a 38 00 36 80 38 2f 2e 8e 36
       0.000101584 7.343507e-05 6.113574e-05 4.2373063e-06
0000e0 ca a0 0d 39 21 cd 9b 35 d2 c9 99 38 19 f0 ee 38
       0.00013506706 1.16081e-06 7.3332005e-05 0.00011393446
0000f0 61 ea 9a 38 e0 c4 19 38 13 ca ac 38 ca 33 7f 36
       7.386949e-05 3.6661397e-05 8.2392384e-05 3.8028106e-06
000100 df 60 a7 39 e2 81 00 39 1d 6b 00 37 c6 25 73 37
       0.00031924897 0.00012255416 7.654334e-06 1.44927235e-05
000110 d5 3a ac 36 a2 f7 e4 38 18 f5 3d 38 58 e6 fd 35
       5.1328484e-06 0.000109180124 4.5289373e-05 1.8917008e-06
000120 22 ec 82 37 7a 0c da 37 05 94 9f 39 27 8a 9d 37
       1.5607166e-05 2.5993435e-05 0.00030437126 1.878019e-05
000130 ea 32 ed 37 3e 54 04 38 dd e1 93 37 5e cf 58 36
       2.827631e-05 3.154971e-05 1.7628941e-05 3.2307212e-06
000140 c4 b7 2d 37 89 60 9b 35 54 da 8a 36 d0 78 74 36
       1.035439e-05 1.1576495e-06 4.1381372e-06 3.6429155e-06
000150 44 04 60 38 90 ae 33 38 23 46 57 37 12 7b c1 36
       5.3409734e-05 4.28395e-05 1.2831329e-05 5.7661755e-06
000160 ad 1d 0d 37 40 cd 0e 35 ae 4e 46 39 22 6e 15 36
       8.411164e-06 5.31978e-07 0.00018912062 2.2266836e-06
000170 b8 51 93 36 e6 45 00 38 3e 0c 23 35 a4 69 52 36
       4.3904547e-06 3.0582676e-05 6.0740047e-07 3.135393e-06
000180 3e cf 14 38 d7 74 a3 36 a9 cf 62 36 ff bf 93 38
       3.547896e-05 4.8713805e-06 3.3797498e-06 7.045268e-05
000190 82 63 59 36 e0 35 85 38 f2 3d f6 37 e4 4a 4d 38
       3.239344e-06 6.351969e-05 2.935433e-05 4.8945556e-05
0001a0 3f 24 91 37 b7 32 6d 37 4b 7d ad 38 2f bc 85 38
       1.7302225e-05 1.4138109e-05 8.2726205e-05 6.376986e-05
0001b0 6d 5d 59 38 85 74 f5 38 e9 4e 1f 36 9c 37 9e 35
       5.182384e-05 0.00011704214 2.3738778e-06 1.1788102e-06
0001c0 d0 9f 88 36 95 a7 6b 37 bf 3e 2e 36 ec 8d a2 36
       4.0717205e-06 1.404611e-05 2.5964544e-06 4.844498e-06
0001d0 8f f2 43 38 b1 fc 1b 38 4d c7 01 39 f0 a0 2b 37
       4.6717523e-05 3.7190217e-05 0.00012376644 1.0229865e-05
0001e0 75 d7 f6 35 67 7f 12 37 b8 79 47 37 b0 c6 69 35
       1.8391135e-06 8.731941e-06 1.1889664e-05 8.708839e-07
0001f0 ee ce 70 38 85 95 73 37 07 87 1d 37 2d ba 63 36
       5.7413177e-05 1.4518741e-05 9.389368e-06 3.3934004e-06
