Assets/IA/Pruebas/results/Pad12/PadBehavior/PadBehavior-3591.pt (torch, 444539 bytes, 30 tensors)

network_body._body_endoder.seq_layers.0.weight f4 [128, 7]
00000000: 9c45 8f3e a354 713d 3642 a63e 4c2a bd3c
00000010: 5a7e b1be e41f 643e 2c75 0e3f 9e1a 74be
00000020: 3f3f 12bf 7327 6bbe 5a0d 043f 919c 963e
00000030: f92b 6bbe 2611 c0be 2749 88be f20a 1f3d
00000040: ab65 f03e 49aa afbe 8b9c ea3e 81b4 473e
00000050: 3037 4f3e a93e 1bbf d1b0 18be 5953 813e
00000060: 4b8f 7c3e e918 ed3e 615a 0dbe f2d1 80be
00000070: b3d4 653e b672 f7bc 2fa6 bfbe 7823 653f
00000080: f54e 5ebe 87d1 05bf 569e 2abe 4972 78be
00000090: d064 f43e 2f4d 703e 4c04 babe 3572 d6bd
000000a0: a1b6 d1bd 5753 ccbd 6ba8 633e 83e6 813d
000000b0: 7bff 7d3e 290c 4dbe 1296 973d 0aeb dabe
000000c0: 1844 b93e 014b 8b3e 99f7 4e3e d465 98bd
000000d0: fd3a 333e 8301 df3e 6926 033e cd33 21be
000000e0: 8fd2 be3e 2cdf f73e fca0 33bf 328d bebd
000000f0: dedb ba3e cb24 1bbe 3a8f 7dbd 8f51 03bf
00000100: 0cb8 933e a83f debd 57c2 7c3e beda 95bd
00000110: b637 313e cb33 dabe e583 8b3e 2119 f83e
00000120: ab80 e93d 7ccc 70bf 4093 86be 0a02 2ebd
00000130: cb57 edbe b774 9a3e 537e d43e e051 17bd
00000140: 0ef3 273f 664f e83d e112 023f bc62 e5be
00000150: 54f0 b0be 2cbf 063f 9931 863e 7e12 363e
00000160: 15ec 383f a41f 79be dc81 ea3d c10e 9d3e
00000170: 50bc 0c3e 4da1 ff3c 3bef 103e dcc1 c4bd
00000180: e9c6 afbe 1590 6fbe d134 803e f50c 96be
00000190: ffa3 823d 2837 95bc 1876 2d3e 06bf a93d
000001a0: 13ff ffbd 714f 34bf 7a3d a9be 4959 973d
000001b0: 8645 64bd 59f5 25bf cbba 9c3d 2d85 0bbf
000001c0: 324e dbbe 0878 f13e 2783 253f 3417 243e
000001d0: 8fbf be3e b3eb cfbd cdd4 903e aa77 2bbf
000001e0: ccfb a4be bc1f b63e c4a7 8bbd f321 e5bd
000001f0: 8768 0ebe c005 153f 5deb 0fbf 4c60 353f
00000200: a52f 1f3e d43e e9be b5d3 ef3c a153 c03d
00000210: ec2a b9be 1e57 353d 2869 b03e 8891 98be
00000220: 9916 6c3c 7796 2abe 58ec a1be 490f 8abe
00000230: 84f3 d2bd 5d97 8f3e 9217 a03e f196 4bbe
00000240: 527e 2a3e 95e4 aebd 5ced 8f3e 858e 21bf
00000250: 5510 cb3e 7309 57bc 6c6a 573e 8348 ae3e
00000260: 9e10 693e aecb 443e 98c3 0d3f acad 00bf
00000270: 5240 1dbf 6355 82be 972e 9fbe a1b1 723d
00000280: 9edb 583e f1c6 00be 0bfb 613e cdd4 c0be
00000290: 4451 14bf 0b0a 0cbf b1b6 1dbf e16e 14bf
000002a0: 26e3 b0bd 83d0 d9bc 8240 0fbe a3fe 3abf
000002b0: c17a 21bf 6a4c 00bf f24a c53e 1a44 9fbc
000002c0: 9b1d d8bc 633b e0be 54de 643e 2d12 2ebe
000002d0: c76b 38be 7c1d 043e 07ea a63e 08aa 4c3f
000002e0: 7695 0d3f b2c6 35bf 96e1 1cbf fbff 5b3d
000002f0: b6ec 9cbe c54b 5a3e 8896 d7bb 5986 b93d
00000300: 0cd1 4fbe 2907 883e cdc6 c9be db2a 4e3f
00000310: 3909 49be 38b1 183f 1911 92be 0841 0d3e
00000320: 46f1 693e 3afc b03e 1649 e83d 8e66 c93e
00000330: 3920 24bf 26b7 c83e 0a37 dd3e 72f3 11bd
00000340: 1e3c fdbe fbe5 79be 6a21 9cbe 1f6a bd3d
00000350: 43d8 a3be d3d3 1e3e 5ced 783e 8ba2 303e
00000360: 03e7 3c3e 024e a8be 4da9 963e 178d 0abe
00000370: d685 a13d 1e98 91be fffa 303e 77b4 293f
00000380: 0194 30bd 926d f5bd 0867 31bf 3b82 2b3f
00000390: 1c26 c63e 37e0 773d 1779 3e3e fbaa cfbe
000003a0: b14f 393f f6c4 153e 580d f43d 8e94 5bbe
000003b0: 68a8 b83e 70e3 f739 302d be3e 304b 4f3f
000003c0: 0ad6 cbbd 6b92 033f 6925 d0be 8593 52bf
000003d0: 0354 463e 79a9 f03d d3f8 9a3e e279 053f
000003e0: 09ed 6c3f 6ccf 92be 482e 273f b4f7 c43d
000003f0: 1f12 7b3e fa1b 5b3e c370 37bf 3271 d43e
0.27982795 0.058918606 0.3247239 0.023091458 -0.3466671 0.2227779 0.5564754 -0.23838279
-0.57127756 -0.22964267 0.5158287 0.29416326 -0.22965993 -0.37513083 -0.2661831 0.038828798
0.46952567 -0.34309605 0.45822558 0.1950245 0.20235896 -0.60642487 -0.149112 0.25258902
0.24664037 0.46308067 -0.13804008 -0.25160176 0.2244442 -0.030206066 -0.37431476 0.89507246
-0.21709807 -0.5227284 -0.16661963 -0.24262346 0.47733164 0.23466943 -0.36331403 -0.10471002
-0.10239912 -0.09976833 0.22232215 0.06342795 0.2480449 -0.2002417 0.074016705 -0.42757446
0.36184764 0.2720566 0.20211639 -0.07441297 0.17502971 0.4355584 0.12807621 -0.15742417
0.37270018 0.48412454 -0.7016752 -0.093042746 0.3649587 -0.15150754 -0.06190417 -0.51296324
0.28851354 -0.10851985 0.2468351 -0.073171124 0.17306408 -0.4261764 0.27249065 0.48456672
0.114014946 -0.9406202 -0.26284218 -0.042482413 -0.46356043 0.3016717 0.41502628 -0.036943316
0.6560525 0.11343269 0.50810057 -0.4480189 -0.34558356 0.52635455 0.26209715 0.17780492
0.7223523 -0.24328476 0.1145055 0.3067532 0.1374371 0.031204844 0.14153759 -0.09607288
-0.34331444 -0.23394807 0.25040296 -0.2930676 0.06378936 -0.018214777 0.1693958 0.08288388
-0.124998234 -0.7043372 -0.33054715 0.07390077 -0.055730365 -0.64827496 0.076528154 -0.54500085
-0.42833096 0.4716189 0.6465325 0.16024476 0.37255523 -0.10152378 0.28287354 -0.6697947
-0.32223356 0.35571086 -0.06819108 -0.11188116 -0.13907062 0.582119 -0.5621851 0.7085006
0.15545519 -0.45555747 0.029275754 0.09390951 -0.3616556 0.044272535 0.34455228 -0.29798532
0.014409685 -0.1665896 -0.31625628 -0.26964787 -0.10300353 0.2804517 0.31267983 -0.19881798
0.1664975 -0.08539692 0.28110778 -0.6310809 0.39660898 -0.013124811 0.2103669 0.34039697
0.22760245 0.19218323 0.5537658 -0.50265 -0.6142627 -0.2545577 -0.31090233 0.05925143
0.21177527 -0.1257589 0.22068422 -0.37662354 -0.579365 -0.54702824 -0.6160689 -0.5798169
-0.08637075 -0.026588684 -0.13989452 -0.73044795 -0.6307793 -0.501166 0.3853374 -0.019441653
-0.026381304 -0.43795308 0.22350436 -0.16999121 -0.18009864 0.12901872 0.32600424 0.7994695
0.55306184 -0.7100631 -0.61281717 0.05371092 -0.30649346 0.21317966 -0.006579224 0.09058828
-0.20294589 0.26567963 -0.39409485 0.8053414 -0.19632424 0.59645414 -0.2852867 0.13794339
0.22845945 0.34567434 0.11342065 0.39336056 -0.6411167 0.3920223 0.43206054 -0.03563256
-0.49459928 -0.24404137 -0.30494243 0.092487566 -0.32000932 0.15510492 0.24309295 0.17249505
0.18447499 -0.32872015 0.2942604 -0.13530384 0.07886855 -0.2843637 0.17283247 0.6629099
-0.043109898 -0.119837895 -0.6929784 0.6699559 0.3870095 0.060516562 0.1860088 -0.40560135
0.72387224 0.14625916 0.119166076 -0.21443388 0.36065984 0.00047280965 0.3714385 0.809741
-0.09952934 0.5139529 -0.40653542 -0.82256347 0.19367985 0.11751074 0.30267963 0.52139103
0.92549187 -0.28673875 0.65304995 0.09617558 0.24518631 0.21397391 -0.71656436 0.4149261

network_body._body_endoder.seq_layers.0.bias f4 [128]
00000000: 8a8b 10bc 2ede 9abc c1a6 ee3a f964 c7bb
00000010: 8bac babb d258 3cbb 089f b9bb b539 493b
00000020: 83ee efb9 5494 8bbb cafe 3a3c 4573 64bc
00000030: f8fa b9bb a86f 19ba 9416 b8bb 26fd 9fbc
00000040: 98e0 843b d078 df3a 050a 35bc f491 20bb
00000050: d333 cabb 9bf8 a5bb f317 3bbc 65cf 1fbc
00000060: 2dda ebbb dbf3 9cbb 28f9 883b 435e dabb
00000070: d551 4b3c 947e 22bb dd6d f2ba aeeb 10bc
00000080: 3ee7 ca3b 1517 603b d712 4fbc 2752 15bb
00000090: 3824 1c3c 3687 c4ba 1c56 783b 4952 09bb
000000a0: c322 dcbb 17fe 0dbc c726 49bc 542b e1b9
000000b0: d8fd f0bb 32d4 50bb b584 323a d80a 713b
000000c0: 8f4d 9ebb 75dc c63a b340 a83b b973 753a
000000d0: e8ca 98bb fb9e 5d3b 85f1 63bc 487b fbbb
000000e0: 93ad 81bc 4885 4fbc 026d 9cba c94c 9fbb
000000f0: 964c 00bc af39 abba 453f 6ebb 25e0 3bbb
00000100: 8368 493b b1d7 a5bb 8e26 acbc ebcd 843b
00000110: 980a 13bb 0ef9 1fbc 3bb5 fa3b 6bd2 63bb
00000120: 2704 7fbc 1fcd 0bbb a608 b1bb de39 203b
00000130: a570 5dbc 4a8d 483b d945 113a 0376 a9ba
00000140: 30e3 9c3b ccc3 34bc 7982 c0ba 67f4 fcba
00000150: f8e5 363c 7f7b 87bb 6855 1bbc 9d42 19bb
00000160: 6afd 833a 3174 41bb a5c3 53bb 588b a4bb
00000170: 7a53 1ebc 39ee 0abc 8cbf 9c3b b281 8abb
00000180: 05f0 3abb be06 4fbb f4d9 1a3b dd2c 95bb
00000190: 0dee 6cbc 3dcf 61bc ece1 02bc 4b4e 7bbb
000001a0: d01a a33b 2330 19bb 21fa 953b 973c 34bc
000001b0: c4b6 83bb e7df 9fbc 6ae4 063b dfc2 6abb
000001c0: 169d 2239 b905 073b 47a3 abbb a7b8 07bc
000001d0: c391 ffba 65a6 df3a 3fba e3bb 03cc c83b
000001e0: ba9a 553b 85f7 2b3b c5ca 5ebb f8e1 2f39
000001f0: 503c 07bc b047 01bc da46 88bc 379c 90bb
-0.008822331 -0.018904772 0.0018207656 -0.006085035 -0.0056968383 -0.0028739464 -0.00566471 0.0030704562
-0.00045763337 -0.0042596254 0.0114132855 -0.013943498 -0.0056756698 -0.0005853125 -0.005617926 -0.01952989
0.004055094 0.0017049555 -0.011049752 -0.0024501057 -0.0061707287 -0.0050650365 -0.011419284 -0.009754037
-0.0071976394 -0.004789812 0.0041800924 -0.006664069 0.012409647 -0.0024794685 -0.0018495877 -0.008845253
0.006192117 0.0034193445 -0.012638769 -0.0022784562 0.00953012 -0.0014993909 0.0037893122 -0.0020953587
-0.006718011 -0.008666537 -0.012277312 -0.00042947626 -0.0073544793 -0.003186476 0.0006809936 0.0036780145
-0.004831023 0.0015171902 0.005134666 0.00093632523 -0.00466286 0.0033816684 -0.013912563 -0.0076746084
-0.015829837 -0.012666054 -0.0011934342 -0.0048614484 -0.0078307595 -0.0013063456 -0.003635363 -0.0028667536
0.003073246 -0.005061113 -0.021014478 0.0040528676 -0.0022436734 -0.009763969 0.007650999 -0.003476287
-0.015564955 -0.0021331978 -0.0054026423 0.0024448554 -0.013515626 0.0030601793 0.0005541719 -0.0012928847
0.004787825 -0.01103301 -0.0014687321 -0.0019298912 0.011163227 -0.004134595 -0.009480812 -0.0023385652
0.001007003 -0.0029518718 -0.0032312658 -0.005021494 -0.009663457 -0.008479648 0.0047835764 -0.0042268867
-0.002852441 -0.0031589712 0.0023628445 -0.0045524673 -0.014461053 -0.01378232 -0.007988434 -0.0038346227
0.0049775615 -0.002337464 0.004576937 -0.011000774 -0.00401959 -0.019515945 0.0020582923 -0.0035821719
0.00015508043 0.0020602776 -0.00523797 -0.008283771 -0.0019498396 0.0017063139 -0.0069496925 0.0061278357
0.0032593445 0.0026240062 -0.0033995372 0.0001677348 -0.008254126 -0.007890627 -0.016635347 -0.0044131535

network_body._body_endoder.seq_layers.2.weight f4 [128, 128]
00000000: 0773 383d 63a9 c2bd 6f79 f93c 3245 a0bd
00000010: bbf1 6ebd 99d5 113e 4dc3 a5bd e077 3dbd
00000020: d773 df3d bc69 e8bc 47a8 edbd cc77 013e
00000030: d58f 2abd 9542 a8bd 4494 7f38 2de8 633c
00000040: 0ccb 02bd 94d3 b8b8 5ffe 7ebd 4daf 43be
00000050: 41be 01be e832 493b f2a2 9f3c 5658 05bd
00000060: bab6 7f3d dd14 283e 79de 1dbd e4c9 76be
00000070: c558 aabd 4347 95bd a60d 7fbd e71d 2ebc
00000080: 3cd9 e13c f85b 6fbd a221 82bd 5142 26bb
00000090: 9d7b a93c a51d 12be e0a1 803d 4ab6 963d
000000a0: 56a3 e8bd cb8d 54be e3dc 84bd e54c 0fbd
000000b0: b1d9 ef3d e97c 67bd ab0b 8ebc 9897 d33d
000000c0: a2b3 1b3c d1f3 9f3d 5234 853a b394 cebd
000000d0: aeea 32bd 7311 7c3d 2b4c 893d 8b9a d3bc
000000e0: 8296 47bd 637e fbbd a302 eebd e50f 89bd
000000f0: 4737 82ba 826f 8bbd 6cc7 36bc 2abe b8bd
00000100: eedd d8bc 0a15 7e3d f818 b4bd 901e 873d
00000110: 09d6 95bd 1823 8e3d eab1 1f3c d3f7 1b3e
00000120: c489 9f3d addc 3b3d 8e64 89bd 1217 36bd
00000130: 1e20 eabd be09 c1bd 63eb 833c a97d 883d
00000140: 979e 38be edab 3abd a925 8bbc d1f6 3dbd
00000150: fb33 5f3d 96be 54bd 4e14 9abd 77ac d6bd
00000160: 3e8d fa3d 4368 26bd b771 0c3d 595e 343d
00000170: aa77 10be 579b 8ebd 1668 c03d ff9a 813c
00000180: 24ca b53c 9160 79bd 0193 0dbc 07e9 073e
00000190: b076 9d3d bccc 593d 34f2 ab3d b422 f1bd
000001a0: d7b9 20bd 7d87 51bd 4f72 3c3d 1d9d 46bd
000001b0: 002e e4bb 3b8b c4bc bf55 853c a8c9 1fbd
000001c0: 6f34 223d ee28 78bd 525b 9b3d 9de0 db3b
000001d0: 136f 14bc 6b05 76bd 657c 4ebd 53cf ce3d
000001e0: ccb0 893d 6703 483e ba3e e23d 429b 90bd
000001f0: 66ef 8c3c 7ecf 8e3d 1c31 2cbc a027 02be
00000200: 626f 05be 90a3 bdbd d9bd 4ebe 77e4 3abd
00000210: 4908 9bbd ebb4 76bd d313 91bc dfd9 12bc
00000220: feb3 8b3e 10fc ae3d 70a7 6cbc f1e5 053e
00000230: c45a 2bbc 95ee 0fbe 6838 823c 8915 4d3c
00000240: 3d0f b5bd 611c c5bc 49ba 073e 10cd 6dbd
00000250: f3c3 03be ab7e b0bc 51f4 e3bd cdf2 dbbd
00000260: a4d8 d8bc 84a0 1fbd 1d1e e13d 0eff 9cbd
00000270: dce5 9d3c 8231 0cbd 8469 7e3d e8f2 a6bd
00000280: a69f 5fbd c693 103e ddca 96bd 8f06 4abd
00000290: f66e 23be c507 00be 3e14 cb3c e8c1 c5bd
000002a0: 2ca8 e43d 5c39 11bd 49c5 103e d989 283c
000002b0: 7cf2 d23d 98be 86bd 3e3f 303d 1c69 da39
000002c0: 2977 313b 9277 053e 57fa adbd 71de 953d
000002d0: a36c 273e 1f5b 113b 682d 983d ce6e 173e
000002e0: 3c9a e63d 64fb cc3d 8e34 42bd 660f 22bd
000002f0: 5ce1 1f3e d9a7 aabc b2b5 3e3d fe05 8fbc
00000300: 36aa e3bd 14b7 263d 5929 f13c f6f9 a0bd
00000310: cbc9 b8bc fe23 04be 3fff aebd 6e8b 7d3d
00000320: bd91 da3d 0743 fabd 7276 c43d eacd 3f3d
00000330: 97e4 71bd b187 033e a8fb 61bd f26b 383d
00000340: 6016 e83c 8914 043d 44ce 78ba 0b93 b73a
00000350: 6082 d83d dc43 84bd 2b3c 5fbd 4183 8cbd
00000360: 91f2 99bb ca46 e2bc 8962 973d 5bd9 bd3d
00000370: e3ff 413c db5c ca3b ca77 293e e027 cabd
00000380: d4de cc3c 2b25 a7bc 22bd 913d 7868 a43d
00000390: 1bdf 42bc 1707 bf3d ff44 473d c040 64bd
000003a0: 58c6 133e ae22 693d 9688 453d 3276 433c
000003b0: ce88 613d f078 7dbe c1de 8d3b c2aa 0bbd
000003c0: d2fa 313d ba09 9ebc d792 98bc ec72 7b3d
000003d0: 5ede 0cbe 7745 0cbe 3fb8 59bc d2aa f73d
000003e0: a333 9f3c a376 d3bc 8b64 a23c 29f7 d23d
000003f0: b351 f43d c9f9 c3bd b9f0 70bd 3ce7 00bd
0.045031574 -0.09504964 0.030453412 -0.07825698 -0.058336 0.14241637 -0.08093891 -0.0462569
0.109107666 -0.02837073 -0.11604362 0.12643355 -0.041641075 -0.082158245 6.093482e-05 0.0139103355
-0.03193192 -8.813213e-05 -0.062254306 -0.1910984 -0.12670232 0.0030700509 0.019486878 -0.032554947
0.06243012 0.16414209 -0.038542245 -0.24100453 -0.08317713 -0.07288983 -0.062268876 -0.010627246
0.027569406 -0.058437318 -0.06354071 -0.0025369118 0.020688826 -0.14269121 0.06280875 0.07358988
-0.11359279 -0.20757215 -0.06487443 -0.03498544 0.11711443 -0.056515608 -0.017339548 0.103316486
0.009503277 0.07810176 0.0010162687 -0.10086956 -0.04368084 0.06154008 0.06703981 -0.025830528
-0.04872752 -0.12279966 -0.11621597 -0.06692485 -0.0009934687 -0.06808378 -0.011155944 -0.09020646
-0.026473012 0.062031783 -0.08793825 0.06597626 -0.073162146 0.06940287 0.009747008 0.15231256
0.077899486 0.04586475 -0.067086324 -0.044455595 -0.11431907 -0.09425686 0.016103452 0.06664593
-0.18029247 -0.045574117 -0.016985731 -0.04637796 0.05449293 -0.05193957 -0.07523404 -0.10482114
0.12233971 -0.040626775 0.034288134 0.04403529 -0.14108148 -0.069632225 0.09394853 0.015820978
0.022191115 -0.06088311 -0.0086410055 0.13272487 0.076886535 0.053173766 0.08395806 -0.11774197
-0.03923973 -0.051154602 0.04600745 -0.04848968 -0.0069634914 -0.023992172 0.016276238 -0.039010674
0.039600786 -0.06058591 0.07585777 0.0067101256 -0.009059685 -0.06006376 -0.0504116 0.10098138
0.067231745 0.19532548 0.110471204 -0.07060863 0.017203998 0.0697317 -0.010509755 -0.12710428
-0.1303077 -0.09259713 -0.20189609 -0.045628037 -0.0756994 -0.06023113 -0.017709648 -0.008963077
0.2728576 0.08544171 -0.014444217 0.13075997 -0.010458652 -0.14055856 0.015896037 0.012517341
-0.08840797 -0.024061384 0.13254656 -0.05805689 -0.12867717 -0.021544775 -0.11130584 -0.1073967
-0.02647049 -0.03897144 0.10992072 -0.07665835 0.019274645 -0.0342269 0.062112346 -0.081517994
-0.054595612 0.14118871 -0.07362912 -0.04932266 -0.15960297 -0.12502964 0.024789926 -0.09656125
0.11164889 -0.035455093 0.14137758 0.010286772 0.103001565 -0.065793216 0.043029062 0.00041658513
0.0027079082 0.13033894 -0.08495014 0.07317818 0.16350035 0.0022179557 0.074305356 0.14788362
0.112598866 0.100088865 -0.0474134 -0.039565466 0.15613312 -0.02083199 0.046559997 -0.017458912
-0.111164495 0.04070194 0.029438661 -0.07860176 -0.02255716 -0.12904355 -0.08544778 0.06190055
0.106723286 -0.12219816 0.09592904 0.046827234 -0.05905589 0.12844731 -0.05517164 0.04502482
0.028330982 0.032246146 -0.0009491185 0.0014005614 0.10571742 -0.06458256 -0.05450074 -0.06860972
-0.0046981056 -0.027621645 0.07391841 0.09269973 0.011840793 0.00617562 0.16549602 -0.09870887
0.025008596 -0.020403465 0.07116152 0.08027738 -0.011894013 0.09327524 0.048649784 -0.055725813
0.14431131 0.05691784 0.04822596 0.011930035 0.055062108 -0.24753165 0.004329533 -0.034098394
0.04345209 -0.019291747 -0.018624706 0.061388895 -0.13756701 -0.13698374 -0.013288557 0.12093128
0.019433802 -0.025813406 0.019823333 0.10301048 0.119296454 -0.09569127 -0.05882332 -0.031470522

network_body._body_endoder.seq_layers.2.bias f4 [128]
00000000: e006 283b ae50 e63b 07ef 19b9 bc2a d0bb
00000010: dc39 88bb d0cd 0abb d686 e8bb 779f 5bbb
00000020: de32 d2bb fd8a 43bc bebc a2bb 1cb1 61b9
00000030: 846b b5bb f400 84bb a58d f6ba 276a 3dbb
00000040: 87b3 a2bb 7b0d 433a 6bd9 fcbb 6405 8fbb
00000050: 7c9f 35bb 12ec e8ba 3284 b7bb 2182 37bb
00000060: 4fe1 94bc fb8b 07bc b22a 3abc ee1a 1739
00000070: a555 6bb9 f994 c4bb e9b5 82bb 5567 56bb
00000080: cdbd 87bb 0a14 86ba b151 62bb 9d08 bbba
00000090: 3a33 0cbc 61e9 7bba 1dd8 05bb 44f3 07bc
000000a0: 2339 14bb 3e23 be39 048d 9fbb a248 e4bb
000000b0: e190 5b39 7694 e7ba d124 95b8 4116 beba
000000c0: cf0c 08bc 79c8 4fbb a2aa 633b c50e 01bb
000000d0: bb1f b9bb 62f9 a139 3c05 cabb a0e4 3dbb
000000e0: aff2 37bb 42f7 bbba c9ee 853b b8ec 6d3b
000000f0: 9d12 63ba 0021 38bc 5612 afbb 1b48 4838
00000100: fa7d a4bb c39f fdb9 ebe7 fcba 3ef4 3abb
00000110: 16be 4abb 906e 9bbb 6414 b4bb 6d7a 4d3b
00000120: 3ec1 afbb 4740 9fbb 362f dc3a 1ab0 b2bb
00000130: 344b 68bb 9a68 1bbc 8fb6 a4bb 1b94 d0ba
00000140: 0df3 f6bb 4ba4 e6bb 3db0 afbb 43bc 073b
00000150: 5c20 07bb f6c1 ccbb 03bd 56bb c2e2 ff3b
00000160: 14fc 1cba 8109 59bb 2b12 afbb c8ee c8ba
00000170: 9901 16bc 001e 2abc f9ec 17b9 aaac 8abc
00000180: 7ee9 eabb 768a 44bc 3a9c eebb 5c0f c3ba
00000190: a245 3f3a 1649 cabb 238f b8bb ead5 873b
000001a0: f7ea ceba e6e6 803a 8e3c b53b e713 c6bb
000001b0: f770 d6bb 5565 9abb d2d1 1fba a1e5 9bba
000001c0: b2c4 b9bb 2934 3abc 5000 163b 20ed c3bb
000001d0: a62e 81bb 8b2d 19bc 3898 e2bb 3c14 96bb
000001e0: 6341 0ebb d523 bbb8 2cde e6bb 9d3f f9bb
000001f0: daa7 4cbb c09c 40bb ee2f 5d3a aa65 44bc
0.0025638863 0.0070286607 -0.00014680262 -0.0063527506 -0.004157288 -0.0021179803 -0.007096152 -0.0033511797
-0.0064147552 -0.011934993 -0.0049663475 -0.0002152365 -0.0055364985 -0.004028434 -0.0018810524 -0.0028902383
-0.004965249 0.00074406684 -0.007716348 -0.0043646563 -0.0027713468 -0.001777055 -0.0056004757 -0.0028001147
-0.018173842 -0.00827312 -0.011362718 0.00014410514 -0.00022443252 -0.0059992042 -0.0039889705 -0.00327154
-0.004142499 -0.0010229361 -0.0034533555 -0.0014269535 -0.008557135 -0.00096096663 -0.0020423003 -0.008297745
-0.0022617064 0.00036265881 -0.0048691053 -0.0069666663 0.00020939439 -0.0017668146 -7.111731e-05 -0.0014502482
-0.008303835 -0.0031705184 0.0034739156 -0.0019692641 -0.0056495345 0.00030894118 -0.006165175 -0.0028975382
-0.0028068235 -0.0014340656 0.0040873033 0.0036304425 -0.00086621364 -0.011238337 -0.005342762 4.775087e-05
-0.0050199004 -0.00048374952 -0.0019295191 -0.0028526927 -0.0030936054 -0.0047434047 -0.005495595 0.003135349
-0.0053636124 -0.0048599574 0.0016798738 -0.005453122 -0.0035445215 -0.009485388 -0.0050266455 -0.001591328
-0.007536298 -0.007038628 -0.0053615854 0.0020711578 -0.0020618653 -0.006248708 -0.0032766468 0.007809014
-0.00059884903 -0.0033117237 -0.005342742 -0.0015329951 -0.009155654 -0.010383129 -0.00014488761 -0.016928036
-0.0071689477 -0.011995902 -0.0072818073 -0.0014881897 0.0007296448 -0.0061732633 -0.0056322976 0.0041453736
-0.0015786578 0.0009834438 0.0055309003 -0.006044853 -0.006544228 -0.0047117868 -0.00060966343 -0.0011893996
-0.0056692 -0.011364975 0.002288837 -0.0059791952 -0.0039423285 -0.009349237 -0.0069151185 -0.004580049
-0.0021706454 -8.923529e-05 -0.007045528 -0.0076064602 -0.0031227977 -0.0029390305 0.0008437623 -0.011987129

action_model._continuous_distribution.mu.weight f4 [1, 128]
00000000: 1734 e43b 644e f6bc e4d8 18bc 1035 0b3b
00000010: 2ae3 0e3b 4c41 6f3c a908 06bb be41 9f3c
00000020: 9e9d 20bb 723d 8f3b 9971 5fbb 03b5 5f3d
00000030: 04db 933b f77f b4bb a537 96bc 5031 da3c
00000040: 2dd4 883c 61b6 bcbb 3e75 08bb 846c dbbb
00000050: efe5 32bc eb2e 7e3c cacc 8e3c cfb2 1abc
00000060: ce03 133b af86 fa39 8802 dfba d9c2 ba3c
00000070: 639f 083c f553 883c 1e01 6f3c 51a2 c23c
00000080: d148 8bbb 1a68 41bc 2d95 06bb 3b4f aa3c
00000090: 19d7 60bc 4c76 853a 1c17 33bc 904a 133b
000000a0: 1630 293c 80e5 03bd ed95 8e3b ec6c 23bb
000000b0: 2538 dfbc 3006 4ebc 5404 c2bc a7e6 bf3c
000000c0: 6477 823c b975 16bc 2ece f6bc 5f2b 57bc
000000d0: 303f d03c dad6 003c 2f8f db3b 98f5 0b3c
000000e0: aa22 6fbb 5ad8 fc3c e894 08bd c7d1 c03c
000000f0: becd 953a cc8e 1f3a bb6d 933c cf5e aabc
00000100: a65d 153d 5671 223d b4cd 473c d2cc fb3a
00000110: d486 00bc b0c0 913c 092d 46bc eb23 0e3d
00000120: 2e90 96bb 32e5 fbba cb5e 02bd a331 0a3c
00000130: 34db 233c d9ec 283c 962d 3a3c 9997 0a3d
00000140: e246 a33b 064b 0b3b aab5 c13b c2f5 c9bc
00000150: b51c cc3c 3271 79bc 0ef6 4c3b 0c32 37bc
00000160: ef31 ac3c 3b99 543c b9bf d73c 690a 043c
00000170: 5524 203b 21fb 113b d6ee ccbc 6ed8 b33a
00000180: e63f f7bb 3871 f0b9 74b6 263c 5c10 523b
00000190: d539 3c3c 74ee 683b 8434 d8bb 39fe 3cbc
000001a0: 6542 acbc cf40 b03b c1a1 b93c 1023 35bb
000001b0: 15ce f9ba 2c18 873b 45c2 343c a406 3dbc
000001c0: d53f 2c3b c483 e4ba 49d3 7fbc d2e8 82bb
000001d0: 0547 8e3b 8396 8cba 9986 b6bc ab8f 16bc
000001e0: 9c34 16bc 1d76 1738 8a31 f3ba 2e7d 67bb
000001f0: bd06 17bb a6dc 5b3c 25d2 bebc aeea 9bbb
0.0069642174 -0.030066676 -0.0093290545 0.0021241345 0.002180288 0.01460297 -0.002045194 0.019440528
-0.002450801 0.0043713385 -0.003409481 0.054615986 0.0045121927 -0.0055084187 -0.01833708 0.026634842
0.016702736 -0.005759046 -0.0020821835 -0.0066962857 -0.010919078 0.015514116 0.017431635 -0.009442045
0.0022432688 0.00047784063 -0.0017014304 0.022797989 0.008338782 0.016641596 0.014587669 0.02375904
-0.0042506238 -0.011804605 -0.0020535693 0.020789733 -0.013723158 0.001018235 -0.010930803 0.0022474863
0.010326406 -0.03220129 0.0043513686 -0.0024936749 -0.027248451 -0.012574717 -0.023683704 0.023425413
0.01592607 -0.009183341 -0.030127611 -0.013132899 0.025420755 0.007863725 0.0067004184 0.008542441
-0.0036489167 0.030864883 -0.033345133 0.02353753 0.0011429114 0.0006086647 0.01799666 -0.020797161
0.036466263 0.039658867 0.01219504 0.0019210821 -0.0078446455 0.017792076 -0.012095698 0.034702223
-0.0045948243 -0.0019218086 -0.031828683 0.008434686 0.010000993 0.010310375 0.011363408 0.03383598
0.004982815 0.0021254434 0.0059115486 -0.02465332 0.024916032 -0.015224742 0.003127459 -0.011181366
0.021019904 0.012975986 0.026336538 0.008059123 0.0024435718 0.0022274929 -0.02501623 0.0013721117
-0.007545459 -0.00045860722 0.010175336 0.0032053208 0.011488398 0.003554252 -0.006598057 -0.011535221
-0.021027753 0.0053788195 0.022660138 -0.0027639307 -0.001905861 0.0041227546 0.011032646 -0.011537228
0.0026283164 -0.0017434289 -0.015614339 -0.0039950395 0.0043419623 -0.0010726008 -0.022280978 -0.009189527
-0.0091678165 3.6111207e-05 -0.0018554193 -0.0035322416 -0.0023044788 0.013419306 -0.023293564 -0.0047582006

exp_avg f4 [128, 7]
00000000: b642 75b8 c347 5338 503e 31b8 00e1 2cb8
00000010: 8fd1 cdb7 0e4c 13ba 1b0d 79b8 ba4c 9335
00000020: 21dc 5339 961a 8eb8 6759 56b8 ab1d be38
00000030: 91e2 2aba 7280 c439 5fb4 5239 c843 0fba
00000040: 26b1 6e39 141e a339 ca06 05b9 a676 3e3b
00000050: 5a15 20ba e7a7 3db7 1b67 7bb8 e1bd 7a37
00000060: 2689 9837 58af 0db8 442d 7d39 fc7c 7eb9
00000070: 3bb4 2138 277e 61b8 93fc 1838 6970 b538
00000080: 9d3e 4cb8 0f57 0f3a 9cfb fbb8 c89a c237
00000090: d6db c9b7 dbff 2337 ecf9 41b8 c1b8 e637
000000a0: 4235 01b8 123e 1fb9 71ce bd37 cba0 b9b6
000000b0: 4bde d537 6a94 3638 4278 18b8 5479 4739
000000c0: 9048 3139 08cb 7439 6b89 b9ba b2e7 f439
000000d0: e375 e639 732d 45b9 795b a73b f569 b8b9
000000e0: d4a0 04b8 f1da 8f38 d0ae 92b7 4489 24b7
000000f0: 4d53 f2b7 9e34 8238 8be4 c4b9 19f8 17b8
00000100: 0c5a e5b7 3c7b a135 f214 a737 1468 0eb8
00000110: e638 7437 ee69 6439 e708 f2b7 b048 bdba
00000120: 2c74 e339 4371 5d39 9fdb 16ba 5e39 433b
00000130: f720 f4ba 5b89 5b39 a816 a137 57a3 5438
00000140: 491a 3038 7157 6039 0621 593a cfb1 0c3a
00000150: fd58 a5b6 571e 7eb7 c466 d1b5 94ed 1f38
00000160: 1a80 46b7 0b64 2039 d8af d038 e14b f7b7
00000170: 5172 1639 63e3 acb8 24df 8eb8 9d54 d438
00000180: 54e7 f9b9 6e71 5fb8 85ad efb7 3db0 1939
00000190: f9cc 23b8 d52b 33b8 4478 c436 2cd6 02ba
000001a0: 5cc6 2939 d2d0 8f38 4f80 81b9 d2a9 0639
000001b0: 00fc a5b7 5eea 81b8 88cf 2f3a d99e 1bba
000001c0: 928f 0ab9 89d8 41b8 bb18 0bb8 2dee afb8
000001d0: 4dce c6b8 739c 3fba 8446 a6b9 d45a 45b9
000001e0: 0720 55b9 73e3 bdb7 b507 01b8 1c0e 1bb9
000001f0: 3b85 eeb9 d1c5 84b9 0eb1 b4b5 ed76 a5b9
00000200: 941f dc38 ddac f737 07d0 cdb8 eeeb 393a
00000210: 1e62 86b9 2b79 35b8 93dd 2339 47e7 b3b8
00000220: 61cd fab7 d682 a238 0b90 8eb9 518b 2eb9
00000230: 778a 9eb8 1781 f7b8 ff37 0538 ea86 a3b8
00000240: d944 05b9 ffd7 ddb9 1f07 26ba dc38 bbb9
00000250: a8ae de39 0cbd 56b9 d786 8eb8 7379 82b9
00000260: 6f15 f0ba 1c01 0fba d069 e838 29f5 ff37
00000270: 0615 2f38 2f22 7437 3d8d 8138 eef7 db39
00000280: 8541 e3b8 1c1e 3138 4b39 f7b7 d3ea 0c38
00000290: 234c 08b7 244c 4536 b17c 3d39 8fba 84b9
000002a0: 1899 4437 b0f4 95b6 5279 8437 a714 2735
000002b0: b2fa bfb7 4c20 1038 2fa0 1737 b5ea d0b7
000002c0: 63c8 d937 39fa dcb7 3d2f 0236 8e81 ef36
000002d0: b722 bfb8 a50d 4db8 5679 4c38 63ca 7aba
000002e0: 04ae b939 ba43 eb38 6156 ceb9 f923 163b
000002f0: 7ec0 6cba 9077 5db7 9fc8 0438 d8db b2b7
00000300: 7891 1ab7 e768 8337 f3cf 67b9 6ee3 95b7
00000310: c932 edb8 f8c8 fab9 8017 e538 b4ad ff37
00000320: ae96 57b9 ee6b c839 06cd adb9 0ae5 4638
00000330: c4af 90b8 c799 8238 ddf1 5438 c888 6ab8
00000340: f158 f539 30ab 07b8 a6b0 25b9 2041 c438
00000350: bbd9 7db8 407e e2b6 8de5 04b9 05a1 1dba
00000360: 1929 e3b8 10a0 96b8 49bc e7b8 0887 c237
00000370: 069f 8bb7 00e8 f4b8 1468 e1b8 41c2 61b9
00000380: ec22 d2b9 cf8e 5f39 c4b6 3fb9 de18 bb37
00000390: 6601 ceb9 6cb3 cfba 06d5 f1b9 5cdf 8e38
000003a0: 71ac 86ba d3a2 a339 e993 7739 d6bf 8db9
000003b0: d95b 3a3b c232 68ba 2b70 d4b7 28b7 8138
000003c0: 894d 43b8 c937 59b8 b1e6 7e38 658a c3b9
000003d0: 19c3 6fb7 0fb0 d538 c4b6 39b9 4aa7 8738
000003e0: 080a 9338 4ee7 a638 0542 6a3a 4941 8139
000003f0: c63a 63b9 cc6a 3cb9 71fe 65b7 0b0f 6cb9
-5.847468e-05 5.0373153e-05 -4.225812e-05 -4.1217543e-05 -2.4535488e-05 -0.0005618938 -5.937843e-05 1.0974684e-06
0.00020204532 -6.77604e-05 -5.110484e-05 9.065432e-05 -0.00065187464 0.00037479732 0.00020094354 -0.0005465117
0.00022763442 0.00031112193 -0.00012686398 0.002906242 -0.0006106697 -1.1304371e-05 -5.9939088e-05 1.4945371e-05
1.8183677e-05 -3.378032e-05 0.00024144823 -0.00024269888 3.8553244e-05 -5.376167e-05 3.6474852e-05 8.6516906e-05
-4.8695703e-05 0.000546799 -0.000120154786 2.3198678e-05 -2.4063436e-05 9.775128e-06 -4.6247544e-05 2.750417e-05
-3.0805597e-05 -0.00015186545 2.2626687e-05 -5.5321484e-06 2.5495092e-05 4.3530403e-05 -3.6351623e-05 0.00019023317
0.00016907067 0.00023345288 -0.0014155334 0.00046711933 0.0004395685 -0.00018804315 0.00510734 -0.0003517416
-3.1621035e-05 6.8595524e-05 -1.748596e-05 -9.807121e-06 -2.8887438e-05 6.208684e-05 -0.0003755431 -3.6232264e-05
-2.7340859e-05 1.2031301e-06 1.9917705e-05 -3.395237e-05 1.4556781e-05 0.00021783236 -2.8852794e-05 -0.0014441218
0.0004338337 0.00021118396 -0.0005754772 0.0029788832 -0.0018625547 0.00020936636 1.9203246e-05 5.069686e-05
4.198615e-05 0.00021394879 0.0008282814 0.0005367072 -4.927743e-06 -1.5146644e-05 -1.5601622e-06 3.8129816e-05
-1.1831546e-05 0.00015296058 9.950966e-05 -2.9480028e-05 0.00014347701 -8.243953e-05 -6.812651e-05 0.00010124708
-0.00047665334 -5.3272983e-05 -2.8571822e-05 0.00014656871 -3.9053124e-05 -4.2717747e-05 5.855256e-06 -0.00049910205
0.0001619099 6.857667e-05 -0.00024700395 0.00012842499 -1.978688e-05 -6.1948536e-05 0.0006706645 -0.0005936451
-0.0001321419 -4.621645e-05 -3.3163215e-05 -8.389014e-05 -9.479802e-05 -0.00073093845 -0.00031714526 -0.0001882122
-0.00020325194 -2.263647e-05 -3.0763174e-05 -0.00014787208 -0.00045494162 -0.00025324387 -1.3462575e-06 -0.0003155986
0.000104962994 2.952519e-05 -9.81391e-05 0.0007092346 -0.00025631575 -4.326661e-05 0.00015627434 -8.578464e-05
-2.989796e-05 7.749132e-05 -0.0002719167 -0.00016645833 -7.559818e-05 -0.00011801923 3.176182e-05 -7.7975754e-05
-0.00012709516 -0.00042313334 -0.00063334586 -0.00035709783 0.0004247327 -0.00020479056 -6.7962035e-05 -0.0002488602
-0.0018316935 -0.00054551824 0.00011082331 3.051253e-05 4.174283e-05 1.4551492e-05 6.177507e-05 0.00041955657
-0.000108364075 4.222813e-05 -2.9471374e-05 3.3597298e-05 -8.123959e-06 2.9399607e-06 0.00018070896 -0.00025316
1.1718155e-05 -4.4690314e-06 1.579212e-05 6.22424e-07 -2.2885713e-05 3.4362354e-05 9.037597e-06 -2.4904826e-05
2.5961728e-05 -2.6342563e-05 1.9399006e-06 7.137837e-06 -9.114056e-05 -4.8888516e-05 4.8750393e-05 -0.0009566901
0.000354156 0.00011218288 -0.0003935574 0.0022909625 -0.0009031369 -1.3200464e-05 3.1658095e-05 -2.1321626e-05
-9.212985e-06 1.5665266e-05 -0.00022107344 -1.786809e-05 -0.000113105 -0.0004783345 0.00010923948 3.0479256e-05
-0.0002056013 0.00038227387 -0.00033149886 4.7420188e-05 -6.899194e-05 6.227526e-05 5.076999e-05 -5.5917335e-05
0.00046796308 -3.234594e-05 -0.00015801433 9.358139e-05 -6.0522678e-05 -6.7500223e-06 -0.00012674015 -0.00060130685
-0.000108318585 -7.182371e-05 -0.00011050009 2.3189481e-05 -1.6644142e-05 -0.0001167804 -0.00010748222 -0.00021530037
-0.0004008034 0.00021320138 -0.00018283265 2.2303717e-05 -0.00039292424 -0.0015846319 -0.00046125817 6.8126916e-05
-0.001027478 0.00031211096 0.00023610856 -0.00027036545 0.0028436093 -0.0008857661 -2.5324602e-05 6.185315e-05
-4.6563833e-05 -5.1788786e-05 6.0773167e-05 -0.0003729641 -1.4290935e-05 0.00010189425 -0.0001771106 6.468462e-05
7.011375e-05 7.958581e-05 0.0008936229 0.0002465344 -0.00021670302 -0.00017968862 -1.3708705e-05 -0.00022512318

exp_avg_sq f4 [128, 7]
00000000: 7c2f 9c34 3ce1 b034 6eda 7734 60a9 2f35
00000010: 67fd 4835 3741 ed37 5d32 2237 2b0c 2934
00000020: a3c1 9f34 d89f cf33 bc43 0635 4ce6 1a35
00000030: 6225 bd37 2000 da36 77aa 1836 025d 6636
00000040: 6a48 7535 a577 b336 b870 b536 70be 9039
00000050: 9152 c538 17ee 1234 738b 4634 4b86 a433
00000060: dd16 d434 5304 ea34 6aad 7d37 1c45 a436
00000070: eed7 8434 a332 c234 594d 5634 6ded 3b35
00000080: 6f85 4835 73c1 0338 b397 3837 963a 4234
00000090: 96ec 9a34 b93d 1834 3108 1e35 4f3b 3f35
000000a0: 52ea ca37 0278 0b37 8f13 0235 b306 6535
000000b0: c396 fa34 6e1a e235 747c 0336 fef5 8838
000000c0: 69c2 dd37 f09e 6836 5702 9e36 1008 c735
000000d0: c141 0137 5935 0c37 43b6 f739 8b20 2539
000000e0: a7c9 c234 c3b2 3935 b960 9034 f0a3 9635
000000f0: 9e63 a535 9c9c 6538 0218 ac37 92d8 a434
00000100: 55ce 0535 72fb 1334 f094 4235 78e3 6b35
00000110: 6b53 0738 15a7 5837 6a03 0b36 2a1f 4936
00000120: 5aba 8035 8819 9736 8d01 ba36 e682 be39
00000130: 4cd5 0b39 4179 9f34 00ca e634 bddb f133
00000140: 7753 3c35 1f20 3b35 a405 0d38 4716 5437
00000150: 70c9 3934 786c 5d34 cc6e 0334 e234 ee34
00000160: c617 0135 beb2 9337 e60f d636 7024 5235
00000170: 32c8 b935 7a8f 3135 b05f 3a36 e2cc 5836
00000180: af8a e638 ebdd 2d38 1bab 1634 b540 6c34
00000190: df7a c633 8874 e434 79c9 0035 f5b6 9637
000001a0: b7c8 e936 5369 8734 097c ae34 6392 c733
000001b0: 0bd3 1635 1ca1 4835 025c e437 5893 2737
000001c0: c1e2 a934 a8f2 1e35 7da2 6e34 a65f 7d35
000001d0: a9c5 8135 953a 2238 ca5f 6f37 90a9 7935
000001e0: 21d8 c135 ed4f 2e35 648f 3436 8a2a 3536
000001f0: 5a0d d638 c429 2538 69d2 0334 34eb 6634
00000200: 4f12 4333 e797 8634 9081 9734 be87 8d37
00000210: 69da d536 fba3 8435 36cf f835 30ee 5e35
00000220: 4a3b 5b36 7b17 8736 9eab 0d39 183f 5038
00000230: 32fc 9534 ec76 ba34 566b 7f34 ba81 5035
00000240: e4ad 6b35 6814 0538 7523 2f37 5077 0b36
00000250: f764 3036 689c 3e35 f7d8 9536 3eb2 9a36
00000260: 238f 7439 93ae ac38 1f6a 5234 72e9 b034
00000270: b15e 0c34 9af3 2735 8bb7 3235 573b ce37
00000280: 1a9b 1937 b5a6 2b35 f0d4 7535 2006 f634
00000290: 23ea db35 aeeb 0136 e921 a238 826c de37
000002a0: 6af2 0834 e0da 3f34 3038 d733 dc43 c034
000002b0: 7b59 d534 85f2 7437 2f23 c636 5101 0334
000002c0: 76a1 6834 02bf a733 8d2e bc34 903d dd34
000002d0: b2ee 5a37 3bb4 a736 2ee8 7835 7e3e aa35
000002e0: be24 fa34 1110 1436 347e 2e36 a5c9 2239
000002f0: 7756 6c38 7ba8 ea33 888c 7434 5b41 8733
00000300: 4cd1 a834 9ebe ad34 c964 5537 e80e 9836
00000310: 25cf 9434 ed68 0535 d233 2734 a297 5835
00000320: 45d3 6a35 2f92 1438 bffa 6e37 3f36 aa35
00000330: c207 0136 097f 8a35 1fe6 9336 e6a3 a036
00000340: 074e 3139 78b6 8638 cbfa c534 75d4 2135
00000350: 0ffa 1834 6127 8435 967f 8135 edf8 2d38
00000360: 864a 6d37 e38c 3f34 cef5 7d34 7040 2934
00000370: b42a fe34 4779 1335 594c ac37 8544 f136
00000380: 2031 f435 456d 4736 850f 4d35 4613 a336
00000390: 32bf ab36 4295 5b39 e854 9338 d789 8f35
000003a0: 2ef1 ca35 9243 f734 0396 2736 d075 2b36
000003b0: 48cc 2a39 e5e5 6c38 0bcc fc33 18e4 6c34
000003c0: 1737 e933 6dd1 bd34 dfc6 f634 9313 7337
000003d0: d2c7 b936 9056 3634 e04a 8434 71b4 8d33
000003e0: d6ff d534 07ee de34 c4a6 9a37 bb54 d736
000003f0: 81a8 e635 7551 2536 474a 9135 0cbf 9e36
2.9091814e-07 3.2946434e-07 2.3083132e-07 6.5439053e-07 7.4874555e-07 2.828297e-05 9.667679e-06 1.5743778e-07
2.9756947e-07 9.668264e-08 5.0017456e-07 5.7704597e-07 2.2547963e-05 6.496921e-06 2.2748989e-06 3.4326808e-06
9.137499e-07 5.348544e-06 5.4073425e-06 0.00027607707 9.409071e-05 1.3683926e-07 1.8490918e-07 7.661273e-08
3.9504712e-07 4.3589043e-07 1.5120351e-05 4.8956263e-06 2.4744025e-07 3.617216e-07 1.9958442e-07 7.000843e-07
7.469998e-07 3.1412997e-05 1.1002575e-05 1.8088971e-07 2.8856874e-07 1.4178558e-07 5.8871507e-07 7.123935e-07
2.418939e-05 8.312987e-06 4.8457235e-07 8.5318896e-07 4.6675822e-07 1.6846004e-06 1.9592962e-06 6.530805e-05
2.6435782e-05 3.4663208e-06 4.7090393e-06 1.4829002e-06 7.704309e-06 8.357071e-06 0.00047247307 0.0001574775
3.6282037e-07 6.9178003e-07 2.6892465e-07 1.1223583e-06 1.232245e-06 5.474371e-05 2.0515177e-05 3.0704956e-07
4.9846614e-07 1.3781917e-07 7.2487364e-07 8.787533e-07 3.2264197e-05 1.2913505e-05 2.0714601e-06 2.9969474e-06
9.590979e-07 4.503123e-06 5.5434125e-06 0.0003633715 0.00013335532 2.9704282e-07 4.2987813e-07 1.1262407e-07
7.0156915e-07 6.970967e-07 3.3622273e-05 1.26413715e-05 1.730275e-07 2.062169e-07 1.2240633e-07 4.4369432e-07
4.809084e-07 1.7606999e-05 6.379548e-06 7.828412e-07 1.3841839e-06 6.6146424e-07 2.7771857e-06 3.2305766e-06
0.000109930865 4.145309e-05 1.4032086e-07 2.2002753e-07 9.2424436e-08 4.2553097e-07 4.7976897e-07 1.796659e-05
6.9673074e-06 2.5222343e-07 3.2500273e-07 9.293287e-08 5.618646e-07 7.474025e-07 2.7222562e-05 9.988282e-06
3.1643688e-07 5.92127e-07 2.222459e-07 9.438903e-07 9.668776e-07 3.867837e-05 1.4267813e-05 9.3006474e-07
1.4442522e-06 6.493636e-07 2.6905554e-06 2.6995863e-06 0.00010206802 3.9377963e-05 1.2276872e-07 2.1505986e-07
4.5418627e-08 2.5069969e-07 2.822021e-07 1.687172e-05 6.373321e-06 9.882491e-07 1.8537746e-06 8.3048053e-07
3.2668054e-06 4.026047e-06 0.0001351074 4.9649825e-05 2.793691e-07 3.4731727e-07 2.3787774e-07 7.7674815e-07
8.7797366e-07 3.1728676e-05 1.0439068e-05 2.0782063e-06 2.6284813e-06 7.1008117e-07 4.465804e-06 4.6103078e-06
0.00023322976 8.234116e-05 1.959638e-07 3.2952408e-07 1.3072965e-07 6.2566835e-07 6.657726e-07 2.4584746e-05
9.155623e-06 6.3945055e-07 9.1579477e-07 4.5825527e-07 1.6384914e-06 1.9359682e-06 7.731078e-05 2.651499e-05
1.2754177e-07 1.7867887e-07 1.0021938e-07 3.581216e-07 3.9739447e-07 1.4599999e-05 5.9049557e-06 1.2200805e-07
2.1665423e-07 7.8112876e-08 3.50516e-07 4.120925e-07 1.3049388e-05 4.9979694e-06 9.2725065e-07 1.2684175e-06
4.6592862e-07 2.206307e-06 2.600148e-06 0.00015524642 5.634731e-05 1.09271205e-07 2.2775396e-07 6.2983155e-08
3.1444722e-07 3.2362453e-07 1.2719255e-05 4.5316883e-06 2.7717866e-07 4.969905e-07 1.5571939e-07 8.0686925e-07
8.747923e-07 3.5422094e-05 1.4244287e-05 1.2681775e-06 1.9227014e-06 1.0318773e-06 4.407731e-06 4.787452e-06
0.00016909103 6.4236054e-05 3.6876585e-07 6.028634e-07 1.4247074e-07 9.846227e-07 9.648381e-07 4.1478244e-05
1.4143652e-05 1.7839515e-07 2.3651884e-07 1.5762794e-07 4.7342257e-07 5.493825e-07 2.053955e-05 7.1903364e-06
1.8193714e-06 2.9716914e-06 7.6391035e-07 4.8600223e-06 5.118455e-06 0.0002094107 7.025321e-05 1.0694447e-06
1.5120365e-06 4.60565e-07 2.4972258e-06 2.5549562e-06 0.00016288564 5.648089e-05 1.17717796e-07 2.2062193e-07
1.0859929e-07 3.535637e-07 4.5965768e-07 1.4488486e-05 5.536692e-06 1.6981562e-07 2.4641395e-07 6.598646e-08
3.9860487e-07 4.152391e-07 1.8435887e-05 6.4173632e-06 1.7185376e-06 2.463433e-06 1.0824959e-06 4.7310077e-06

exp_avg f4 [128]
00000000: 7a3e 0cb9 9348 2cb9 aff1 153a c35f d138
00000010: de76 1738 55c0 4a38 8c13 98b8 0da5 723a
00000020: 6c2c 2539 aad9 63b8 c0a6 193a 55ce 3639
00000030: 1a31 0a37 0c89 dc38 86bd 0cb9 2c57 0039
00000040: 5721 cdb7 7912 53b4 f51b ef38 7aaa 3539
00000050: 29f9 99b8 62c2 a4b9 0ae6 5038 8742 a8b7
00000060: 08b9 8bb8 0be2 3038 2617 e339 01e8 c337
00000070: 4a37 9e38 11dc 85b8 646b d1b8 fa90 55b8
00000080: 7d13 99b9 d6a8 153a 35fb a138 d06a 3a39
00000090: 2126 5bb8 e124 8d37 4f68 ab39 bad6 bb38
000000a0: 4c7b aa39 982e 59ba 9abc 25b8 6ca6 cd38
000000b0: 542e adb8 786b 5137 c6e2 9938 9f9c 5eb9
000000c0: 02d8 4d39 a486 e0b9 2828 4bb8 867c d139
000000d0: e65d e7b8 a252 70ba 673b 45b9 eb6c 40b8
000000e0: 8268 86b8 e152 16b9 6ea9 7539 0c4d a538
000000f0: 2c88 a1b8 d8f3 9a39 c918 95b9 3afd f3b9
00000100: dd71 b739 1aeb d937 751d a938 037d 0338
00000110: 5237 44ba 4d78 4038 fb0f bf39 9f69 20b9
00000120: 8f01 05b8 9540 8db9 ef60 fb39 193b 8438
00000130: 6fc4 75b8 bf6b 183a 8a78 1cb8 911e a537
00000140: 8940 3039 67ef 3ab9 d81b f539 fed0 2d3a
00000150: 3924 6c37 00ba a6b4 54b2 8db9 e87e a8b8
00000160: eb86 85b8 bd4f 9d39 19ff 9036 f464 78b8
00000170: d2bb 3f39 7426 15ba 8021 7839 73e8 47ba
00000180: b1d3 9238 5519 1339 5f08 04ba ad52 3fb8
00000190: 148a 22b9 c36b 5239 01e1 2539 da26 6cba
000001a0: e987 3a38 853e 75b9 77f3 b339 fba3 443a
000001b0: ce87 b0b8 e7cc 9a39 1af2 17ba 7bf6 7fba
000001c0: 4c4f 6cb8 b34e 6db9 57fc 82ba c390 7639
000001d0: 8634 ef37 2fc5 07b9 2052 a5b8 194f 5f3a
000001e0: 0828 34b9 acdd 30ba ab1a b0b8 adc0 0e39
000001f0: 819d 2d39 7771 743a 0806 0e39 9f91 4c3a
-0.00013374715 -0.00016430234 0.00057199126 9.9837336e-05 3.611191e-05 4.8339676e-05 -7.251566e-05 0.0009256162
0.00015752175 -5.4323733e-05 0.00058613345 0.00017433737 8.236873e-06 0.000105159445 -0.00013422043 0.00012239505
-2.445343e-05 -1.9657627e-07 0.000114016155 0.00017325013 -7.342018e-05 -0.00031425344 4.9805305e-05 -2.005814e-05
-6.662501e-05 4.217219e-05 0.0004331406 2.3353847e-05 7.5443255e-05 -6.382925e-05 -9.9859e-05 -5.0918177e-05
-0.00029196954 0.00057090574 7.723869e-05 0.00017778133 -5.224918e-05 1.6825683e-05 0.00032693378 8.956851e-05
0.0003251679 -0.0008284836 -3.9514714e-05 9.80616e-05 -8.257912e-05 1.2482393e-05 7.3378484e-05 -0.00021229916
0.00019630793 -0.00042824924 -4.843637e-05 0.00039956364 -0.00011032428 -0.00091675867 -0.00018809513 -4.5877805e-05
-6.409084e-05 -0.0001433599 0.00023428138 7.882164e-05 -7.702442e-05 0.00029554847 -0.0002843796 -0.0004653724
0.00034989315 2.5977894e-05 8.064035e-05 3.134926e-05 -0.000748505 4.5888406e-05 0.00036442265 -0.00015298136
-3.1711123e-05 -0.00026941733 0.00047946672 6.305258e-05 -5.8595495e-05 0.0005814395 -3.730556e-05 1.9683766e-05
0.00016808709 -0.00017827527 0.00046750787 0.00066305685 1.407513e-05 -3.1055242e-07 -0.0002702648 -8.0345024e-05
-6.3670646e-05 0.00030004783 4.3212317e-06 -5.9221828e-05 0.00018285148 -0.0005689629 0.00023663603 -0.0007625885
7.001253e-05 0.0001402845 -0.0005036648 -4.5614946e-05 -0.00015500962 0.00020067305 0.00015819447 -0.0009008475
4.4472432e-05 -0.00023388311 0.00034322936 0.00075012416 -8.4176296e-05 0.00029525833 -0.0005796269 -0.00097642065
-5.6340636e-05 -0.00022631399 -0.0009993416 0.00023514316 2.8515478e-05 -0.0001294806 -7.88311e-05 0.00085185614
-0.0001718105 -0.0006746899 -8.397301e-05 0.00013613953 0.0001655724 0.0009324769 0.00013544422 0.00078036817

exp_avg_sq f4 [128]
00000000: 54ed 9335 cce6 5035 9520 3d37 78a1 0c35
00000010: 3a3e a935 6836 7e35 e5da 3436 ded5 9b37
00000020: a55c 1036 d75b c935 fee7 7537 19ce b135
00000030: 3522 4135 a117 9136 0300 5135 6f46 9535
00000040: add5 d635 62b6 9136 be6e 3f35 9604 af36
00000050: d86c 9b35 a1d3 1c37 eb16 8635 3f41 4f36
00000060: 0875 1d35 9028 0c35 faca cc36 0b0a 0f35
00000070: ea22 be35 9016 e336 6aaf de35 58f5 5935
00000080: 3786 0a37 8425 da36 9f2a 1d35 249e 4335
00000090: e8b2 0737 7110 0935 ec2a de35 2b4d 3d36
000000a0: 7d82 7d36 14b7 9d37 1aa3 8035 d19a 8736
000000b0: 9eb2 8c36 cac7 5034 2a0e c435 b083 5036
000000c0: 33e4 4435 efd2 5d37 d55a 3e36 be83 6236
000000d0: b47f 7635 56f3 8837 4774 2735 94d8 ed35
000000e0: 96a3 5d35 eeec 1e36 2e57 1a36 8c71 aa35
000000f0: 62c1 9c35 df9a 9435 8028 6735 3196 7c37
00000100: 712f 3c36 f6de ee35 52e4 f034 7db7 1935
00000110: 680a 6f37 4c17 9c35 153d 7c36 bf4c bc36
00000120: d263 4135 ada1 2736 9e6f d936 391d af36
00000130: c600 3235 3d83 ae36 78ee 8035 a800 1f36
00000140: 7de2 c735 f051 e035 5107 0837 f199 4537
00000150: 7eb9 4a37 6861 9235 b15b 8236 3d35 5735
00000160: a160 a335 4c05 0136 747e 9135 325c ad34
00000170: 8073 cc35 0bc6 1d37 f243 0a36 4b05 8037
00000180: c853 1335 5289 7c35 16f4 9635 9d51 0d36
00000190: 0f05 2e35 31ec 7e35 ae76 ba35 1768 d636
000001a0: 7ec0 8a36 3b8a ba35 d1e2 3a36 092f 1537
000001b0: e40a a435 3be5 9035 b155 6e37 82bf da37
000001c0: 8d9b e534 b074 5d36 1535 1038 23c2 7a35
000001d0: 010f 3035 b86c 1435 1332 bc34 20bf af37
000001e0: 6940 3136 e541 1037 f0e0 5a36 b281 8b36
000001f0: cd87 5535 6d6b 9737 ce43 d234 a313 0c37
1.1021425e-06 7.782189e-07 1.1272864e-05 5.238903e-07 1.2609592e-06 9.4701545e-07 2.6949504e-06 1.857703e-05
2.1511598e-06 1.5002396e-06 1.4657153e-05 1.324751e-06 7.194788e-07 4.3240875e-06 7.7858584e-07 1.1121864e-06
1.600643e-06 4.342569e-06 7.1314196e-07 5.2159403e-06 1.1580078e-06 9.347598e-06 9.990448e-07 3.0883382e-06
5.865736e-07 5.221309e-07 6.1033033e-06 5.3286266e-07 1.4166264e-06 6.767754e-06 1.6591341e-06 8.119582e-07
8.25669e-06 6.5012737e-06 5.854908e-07 7.2873286e-07 8.088282e-06 5.10604e-07 1.6552781e-06 2.8208112e-06
3.7775892e-06 1.880111e-05 9.584212e-07 4.0413365e-06 4.193119e-06 1.9444192e-07 1.460726e-06 3.1071067e-06
7.3347763e-07 1.3221738e-05 2.8365077e-06 3.3753308e-06 9.1827974e-07 1.6325776e-05 6.2381554e-07 1.7720909e-06
8.2566964e-07 2.3681746e-06 2.2998533e-06 1.2699034e-06 1.1679188e-06 1.1071933e-06 8.611314e-07 1.505534e-05
2.8041798e-06 1.7797272e-06 4.4869608e-07 5.726395e-07 1.4247933e-05 1.1629686e-06 3.758648e-06 5.611771e-06
7.204336e-07 2.4979047e-06 6.480098e-06 5.2188084e-06 6.631129e-07 5.2008822e-06 9.606147e-07 2.3693228e-06
1.4892572e-06 1.6713147e-06 8.107935e-06 1.1777957e-05 1.20833265e-05 1.0906197e-06 3.884976e-06 8.0171213e-07
1.2172569e-06 1.922558e-06 1.0840145e-06 3.2290842e-07 1.5232799e-06 9.40404e-06 2.0603152e-06 1.5261254e-05
5.4883685e-07 9.4077143e-07 1.1246909e-06 2.1058142e-06 6.482741e-07 9.496608e-07 1.389262e-06 6.3898146e-06
4.1351295e-06 1.389831e-06 2.7848184e-06 8.892043e-06 1.2222122e-06 1.0795551e-06 1.4205857e-05 2.6076803e-05
4.2767752e-07 3.2999487e-06 3.4381712e-05 9.3414764e-07 6.558694e-07 5.5292503e-07 3.5054163e-07 2.0950625e-05
2.6412547e-06 8.598411e-06 3.2615462e-06 4.1576213e-06 7.95463e-07 1.8050627e-05 3.9164883e-07 8.349222e-06

exp_avg f4 [128, 128]
00000000: b1d6 a2b6 19a9 5437 c6e2 90b6 3e48 1237
00000010: 1c87 a537 6d38 ca36 62c5 be37 ba41 37b6
00000020: 2fda 7237 b80d de36 e121 3337 daa2 4837
00000030: 5365 a837 b62b 4f37 ad3a da36 433f ca37
00000040: 874e cd36 7796 2337 240c 2a36 f391 8a37
00000050: e081 b236 f216 53b7 90f3 33b5 c7c6 1538
00000060: 162a f937 e58a ec36 1d36 a135 5c61 d637
00000070: 8e1c 8fb7 cd3d 1b37 f3ca 14b7 0168 9eb5
00000080: 4bed 1eb7 44ba 14b7 069b 4b38 0ef2 2837
00000090: 1d13 9a37 58a5 0f37 fab6 ff37 4f1e 8a37
000000a0: cd36 0f37 2d5e 0e38 3d4d 1937 3f3f a737
000000b0: 0a54 3138 292e be37 3319 5036 fab9 ebb5
000000c0: 5fd3 2bb7 f1c0 03b7 9832 c237 af34 5fb6
000000d0: 273f 9d36 837a acb6 19c9 dfb6 a287 8935
000000e0: 071a d837 2c4d a837 e6e3 2736 bbcc a734
000000f0: d893 c336 8847 8737 04c6 6936 3261 9d36
00000100: bc69 1337 cb21 9537 cd49 9137 efb1 f637
00000110: 32fe e337 76dc 4ab6 b03a 9a37 6cc6 2737
00000120: f58e 1938 bf85 ffb6 79d7 1d37 01de e534
00000130: ffb7 d8b6 a11e cb37 9189 d536 0c4a 7d37
00000140: fef0 5637 2f23 6f37 4278 4c36 7675 6037
00000150: 116e 8bb6 6160 8137 454c 3038 f2b2 be36
00000160: 2574 c736 1ad7 dab6 380e 0236 51da 27b6
00000170: 4974 da37 af4d 1a38 b236 8c35 4f3e 2db7
00000180: 3c16 1536 83f4 8537 062c 98b4 404f 4e38
00000190: 080c c8b6 ae01 be36 c70a 3ab7 db72 5637
000001a0: 465f ae36 4e79 1c35 a56b 8036 f6c6 4537
000001b0: 0707 a134 f36f bb37 145d 6ab6 ade8 84b6
000001c0: f4de 4b37 dabd f935 5f88 4a37 3b24 e236
000001d0: a1d7 b336 d66e 2e36 2d4a 9f37 382f ca37
000001e0: dda6 11b5 d710 0535 b587 1437 ccbb 1638
000001f0: 9ae2 ce37 fce8 09b7 512b f936 14ec 3c38
00000200: 2dad bb38 9eaf 3339 d0c6 d638 a3aa 76b8
00000210: d3dc aeb9 3777 b2b9 f8ec 34b9 0184 f1b5
00000220: 6deb ceb9 165f f139 e892 afb9 289a b73a
00000230: 552d 6fb9 52a7 b4b9 ae20 1c3a f144 d73a
00000240: 7e92 f8b8 0ec1 0fb9 bf4d f8b9 a3e4 e1b9
00000250: 2a35 08b9 d88d 7cb9 78fc 3139 8912 1eba
00000260: 5c69 49b9 6621 41b9 4466 88b9 cb38 fdb7
00000270: 676f a8b9 e39d 8fb9 ca18 8db8 2da3 7fb8
00000280: bc0c ffb8 bb61 59b8 10a0 9bb9 a903 d33a
00000290: 7a75 70b8 c2a8 45b9 cc2d 113b 732a d0b9
000002a0: bd21 8c3a aada 0d3b 1dec 88b9 f4e4 b8b9
000002b0: 22e8 f0b9 2df0 33b9 b00b fcb8 ae49 bf39
000002c0: 9fe3 b136 c28f a3b8 4edc 4fb9 da40 b838
000002d0: cd32 2f38 9257 f739 082c 1db9 0093 0eba
000002e0: d690 0aba c435 d23a 5aec 753a 3f83 cfb8
000002f0: 198f eeb8 8d03 9d3a 08cf 8839 e219 243a
00000300: ae41 3a3a c229 c4b9 6c83 d6b9 a00a 48b9
00000310: 6250 0c3b fc9e c2b8 a001 7e3a e605 92b9
00000320: 123e 17ba 2221 b039 6841 5d3a cc06 acb9
00000330: 265f ca39 76ce 033b ee3d c9b8 4fa0 8e3a
00000340: 6b20 663a 494b 0c3a a530 263a 0c9d 9f3a
00000350: a4eb 03ba d1ed 9eb9 197f 3a3b 7c16 47b9
00000360: 21af aab8 d6ea 053a e879 cfb8 06f9 18b9
00000370: ca2f 1d3b 8391 2f3b 29bf 6fb9 8d4f 443a
00000380: ea0c beb8 ab33 293a 1f2d 1b3a 99fb 07ba
00000390: 1107 bb39 e997 6d3a 87cb d437 4ce2 bb3a
000003a0: 5fe0 59b9 4705 733a 5c53 073a b8a3 193b
000003b0: 8fc6 1cb9 b5c7 013b c6fc 43b8 ab5d 493a
000003c0: 5507 98b9 3d2d d4b7 0362 da3a 6ea1 443a
000003d0: ee3a 0bb9 4d70 2f39 043c a3b9 b3f3 d93a
000003e0: da47 81b8 0943 103a 866b 8db9 aa5b 01ba
000003f0: f2e7 9b3a 8bc9 223a 3179 8d38 b2a1 6d3b
-4.8529696e-06 1.2675556e-05 -4.3179343e-06 8.719098e-06 1.9732448e-05 6.026638e-06 2.2741679e-05 -2.7307383e-06
1.4475124e-05 6.6177126e-06 1.06771195e-05 1.1958846e-05 2.0074343e-05 1.2348339e-05 6.503737e-06 2.4109735e-05
6.118618e-06 9.75059e-06 2.533904e-06 1.6518845e-05 5.319933e-06 -1.2581922e-05 -6.7037126e-07 3.5709494e-05
2.970271e-05 7.0495175e-06 1.2011184e-06 2.5556124e-05 -1.7060225e-05 9.253109e-06 -8.86874e-06 -1.1802186e-06
-9.472783e-06 -8.864856e-06 4.854335e-05 1.0069938e-05 1.836713e-05 8.561961e-06 3.0483574e-05 1.6464995e-05
8.5362235e-06 3.3943146e-05 9.137494e-06 1.9937403e-05 4.2278356e-05 2.267126e-05 3.1009083e-06 -1.7562991e-06
-1.0241608e-05 -7.853131e-06 2.3150162e-05 -3.3260255e-06 4.6863165e-06 -5.1402617e-06 -6.6693287e-06 1.024677e-06
2.5761326e-05 2.0063097e-05 2.5017594e-06 3.1255135e-07 5.828664e-06 1.6126563e-05 3.4834966e-06 4.6902796e-06
8.786501e-06 1.777792e-05 1.7319713e-05 2.9408342e-05 2.7178878e-05 -3.022867e-06 1.8385559e-05 1.0000174e-05
3.661118e-05 -7.6151623e-06 9.408098e-06 4.2816103e-07 -6.4587216e-06 2.4213748e-05 6.3639095e-06 1.50972155e-05
1.2811504e-05 1.4253702e-05 3.0468368e-06 1.3378789e-05 -4.1553362e-06 1.5422878e-05 4.20327e-05 5.6832732e-06
5.944183e-06 -6.5219474e-06 1.9379786e-06 -2.5012016e-06 2.6041775e-05 3.678881e-05 1.0446731e-06 -1.0326111e-05
2.2215672e-06 1.5968695e-05 -2.8344238e-07 4.9188035e-05 -5.961865e-06 5.662637e-06 -1.1088973e-05 1.2782136e-05
5.1966954e-06 5.829105e-07 3.8272287e-06 1.1788439e-05 2.99937e-07 2.2344268e-05 -3.4922896e-06 -3.9609936e-06
1.2151653e-05 1.86072e-06 1.207189e-05 6.7395426e-06 5.359718e-06 2.5992535e-06 1.8988818e-05 2.4102264e-05
-5.425953e-07 4.9570866e-07 8.853084e-06 3.5937686e-05 2.4662633e-05 -8.220082e-06 7.425821e-06 4.5042558e-05
8.949111e-05 0.00017136193 0.00010241347 -5.880989e-05 -0.00033352393 -0.00034039628 -0.00017254415 -1.7994317e-06
-0.00039466788 0.00046037947 -0.00033488055 0.0014007734 -0.00022809704 -0.0003445694 0.00059557974 0.0016423744
-0.00011852848 -0.00013709461 -0.0004736017 -0.00043085692 -0.00012989776 -0.00024085434 0.00016974087 -0.00060299836
-0.00019208103 -0.00018418356 -0.00026016135 -3.0186397e-05 -0.00032126458 -0.0002739272 -6.728021e-05 -6.0948707e-05
-0.000121617195 -5.182785e-05 -0.0002968316 0.0016099113 -5.7329868e-05 -0.00018850251 0.0022152541 -0.0003970448
0.0010691207 0.0021645227 -0.0002611586 -0.00035265798 -0.0004594932 -0.00017160243 -0.00012018473 0.00036485255
5.3015096e-06 -7.799223e-05 -0.00019823128 8.785883e-05 4.1770563e-05 0.00047176756 -0.0001498909 -0.0005438775
-0.00052858645 0.0016037752 0.00093812274 -9.894976e-05 -0.000113753784 0.0011979208 0.00026094192 0.00062599604
0.0007105124 -0.00037415145 -0.00040915178 -0.00019077444 0.0021410217 -9.280254e-05 0.0009689573 -0.00027851685
-0.0005769442 0.00033594022 0.0008440227 -0.0003281146 0.00038599333 0.0020112074 -9.595962e-05 0.0010881516
0.00087786344 0.00053517945 0.0006339646 0.0012177541 -0.00050323666 -0.00030313295 0.0028457104 -0.00018986495
-8.138852e-05 0.00051085406 -9.893236e-05 -0.00014588618 0.0023984783 0.0026789613 -0.00022864029 0.00074886606
-9.0623114e-05 0.00064545375 0.00059195043 -0.0005187332 0.00035672684 0.0009063469 2.5367144e-05 0.001433441
-0.00020778317 0.0009270501 0.0005162263 0.0023443531 -0.00014951288 0.0019802873 -4.6727037e-05 0.0007681499
-0.00028997162 -2.5293435e-05 0.001666129 0.00075008615 -0.00013278026 0.00016731136 -0.00031134498 0.0016628414
-6.164583e-05 0.0005503153 -0.00026973727 -0.00049346185 0.0011894687 0.0006209842 6.7459776e-05 0.0036259708
