Assets/IA/Pruebas/results/Pad12/PadBehavior/PadBehavior-20003.pt (torch, 438460 bytes, 30 tensors)

network_body._body_endoder.seq_layers.0.weight f4 [128, 5]
000000 1c e5 e5 bd a6 02 36 3c 52 24 3a bf 19 ff a2 be
       -0.1122534 0.01110903 -0.7271167 -0.3183525
000010 84 19 ac 3e 46 29 fd be 17 47 3f 3f a4 5c 3b 3f
       0.33613217 -0.49445552 0.7471785 0.73188233
000020 c3 78 78 be 96 2d 96 3e b8 2b e3 3e a3 a8 5b 3e
       -0.24264817 0.29331654 0.44369292 0.21451049
000030 bd a2 0d 3f 16 29 82 3e 7b a8 84 be 7d c1 e5 be
       0.55326444 0.2542197 -0.2590979 -0.44874182
000040 0b aa c2 3e f0 1c e7 3e 39 dc 20 3f 90 c6 98 3e
       0.38020357 0.45139265 0.62836033 0.2983899
000050 21 b9 62 be a5 9e 9b bd 82 ac 2d 3e 6b 12 7b bd
       -0.22140934 -0.075986184 0.16960338 -0.06129686
000060 b4 dc 41 be d8 38 bc be 43 dd 58 be 1f 46 26 3f
       -0.18931848 -0.36762118 -0.21178155 0.64950746
000070 bb f9 34 3e 80 c1 0d bf 3f c7 9b be 32 1b c7 3e
       0.1767339 -0.5537338 -0.3042545 0.38887936
000080 32 c4 0c 3f 51 ab db 3e 67 c4 93 3e b2 9b 8e 3e
       0.5498687 0.42904142 0.2886078 0.2785316
000090 31 59 01 3f 11 ea 16 bd 8b c1 45 bf 4e 44 de 3d
       0.5052672 -0.036844317 -0.7724845 0.10852872
0000a0 a8 45 2d bf d0 62 20 3e c6 fb 5f be dc 2b c2 be
       -0.6768441 0.15662694 -0.21873388 -0.37924087
0000b0 2e 7b 22 3e a2 90 2e 3e 4d 35 89 be 91 93 74 be
       0.15867302 0.1704736 -0.26798478 -0.23884417
0000c0 18 04 36 3f ae b3 0c bf e2 a6 fe be 7b 81 00 3f
       0.71099997 -0.5496167 -0.49736696 0.5019757
0000d0 84 ec 0b 3e 81 55 5a bf d3 56 91 be 5c bb bf be
       0.13664442 -0.8528672 -0.28386554 -0.3744763
0000e0 29 37 dd 3b 95 06 1d be 85 63 06 bf d7 b3 ab bf
       0.0067509604 -0.15334542 -0.52495605 -1.3414258
0000f0 f7 7d 86 bf 72 fd 8c 3e e0 db e9 3e 23 e1 20 bf
       -1.0507191 0.27537113 0.45675564 -0.6284353
000100 59 9f 0d 3f 97 58 ce 3e 75 25 7e 3f e6 ae a9 bd
       0.5532127 0.40301964 0.99275905 -0.08285312
000110 51 1c f0 bd 0a 32 a6 be 29 df 35 3f 06 cf 17 3e
       -0.11724151 -0.32460052 0.7104364 0.14825067
000120 55 2d c7 3e 46 b1 71 3a 4f 7d a5 be f2 d9 a2 3e
       0.38901773 0.0009219836 -0.32322165 0.31806904
000130 fd 62 6a be ea 72 31 be 30 1d 31 3e 21 ed 13 bf
       -0.22889324 -0.17328992 0.1729629 -0.57783705
000140 f5 8d 07 3f 1f 34 ec bd b0 3f 51 3f 12 19 a2 3f
       0.52950984 -0.11533379 0.81737804 1.2663901
000150 62 98 35 bd 9e 72 f0 3e ee b3 ae be 5c 81 44 be
       -0.044334777 0.46962446 -0.3412165 -0.19189972
000160 3e 7e f7 bd bf 99 07 be df 9d 12 bd d3 73 e6 3e
       -0.12084626 -0.13242243 -0.03579509 0.45010242
000170 6e 6e 94 be 64 83 3b 3f 15 c7 43 be ed 28 36 3e
       -0.289905 0.7324736 -0.19118913 0.1778905
000180 62 b1 d8 bd 2c 53 ae 3d fc 63 2b 3c a5 6d 1c bf
       -0.10580708 0.085119575 0.01046085 -0.61104804
000190 da 2b f8 bd 1f b9 94 3e ee 62 17 3f 24 5b 84 3e
       -0.12117739 0.29047486 0.5913533 0.25850785
0001a0 9f 33 98 3e 18 f8 56 3f 19 51 8a 3d 38 f1 4e 3e
       0.29726884 0.8397231 0.067537494 0.20209205
0001b0 aa f6 c3 3b 8e 2a 64 be 59 fc 1d be c4 ee 26 3e
       0.0059803324 -0.22281858 -0.15428294 0.1630202
0001c0 17 b3 19 3f 40 8a 71 be 5c 84 e1 bc 14 84 d6 3e
       0.60038894 -0.23587894 -0.027528934 0.41897643
0001d0 16 49 b7 bf 64 4c b5 bd 9b b9 92 be 07 02 be be
       -1.4319179 -0.08852461 -0.2865723 -0.37110922
0001e0 92 90 88 be f5 50 0a 3f 39 af 62 be 99 c2 9c 3c
       -0.26672798 0.5402978 -0.22137155 0.01913576
0001f0 ba 63 e1 3e b7 6a a5 be 1e af 74 3d c2 6f c1 bb
       0.44021398 -0.3230798 0.059737317 -0.005903215
000200 a6 29 bd 3c 18 62 b0 3e 34 e9 d6 be 27 5f 15 bf
       0.023091149 0.3444984 -0.41974795 -0.58348316
000210 e1 ad f7 3d 0f 4e 14 3e d7 e1 80 3e c3 32 9b 3e
       0.12093712 0.14482902 0.25172302 0.30312166
000220 54 87 c7 be a5 f6 ff 3e d6 1b 1f 3f 40 aa ea 3d
       -0.38970435 0.49992862 0.6215185 0.11458254
000230 df 78 aa 3e df 2e 77 3e 90 01 c1 3c f1 08 c5 bd
       0.33295342 0.24138974 0.023560315 -0.09620846
000240 84 3b 13 3e 4c d4 32 3f 66 ba 48 be 94 2a 91 be
       0.14378172 0.6985519 -0.19602355 -0.28352797
000250 fb bc f3 3e e8 ca 17 3d 20 03 bf be 86 04 00 3e
       0.47605118 0.03705874 -0.37307072 0.12501726
000260 e2 d4 a3 3d c1 7f 93 be 31 04 73 bf 2f 3e e1 3d
       0.079995885 -0.28808406 -0.9492827 0.10998189
000270 fd 85 25 bd a3 e7 a1 bc 3a 72 e8 bd b9 60 ec be
       -0.040410984 -0.019763773 -0.11349912 -0.46167544
000280 63 27 07 3f ec 61 11 3e e9 e3 27 bd 42 e6 8b 3d
       0.52794474 0.1419751 -0.040988836 0.068310276
000290 6c 60 52 bf 48 3f c6 bd 0a bb f0 3d 77 e5 54 bf
       -0.8217838 -0.09680039 0.11754425 -0.83162636
0002a0 26 bd aa be 9b 89 a6 3e 18 1f de be 3d bf 7f 3e
       -0.33347434 0.3252686 -0.43383098 0.24975295
0002b0 b9 2e 42 bd b2 b3 07 3e fd 4a a3 bf ce ca f5 3e
       -0.04740784 0.13252142 -1.275726 0.4800629
0002c0 4d 98 18 3e 90 91 32 3e cd 42 82 3e 60 2b 13 be
       0.14901848 0.1743834 0.2544159 -0.14372015
0002d0 b1 ef a5 3e 2f 93 2c 3f 8d a5 f6 3d 7a 69 56 3f
       0.32409433 0.67412084 0.12043295 0.83754694
0002e0 65 80 42 bf 96 61 63 3f a9 db 35 bc 6c 15 16 bf
       -0.75977165 0.8882078 -0.011099734 -0.5862644
0002f0 17 22 7e bc 00 a1 b1 be 6c 43 9b 3d 01 5b a7 be
       -0.015511057 -0.34693146 0.07581219 -0.32686618
000300 f0 22 27 3e 9f 53 f3 3d 0e 97 8c 3e 6d 7c d1 3c
       0.16321921 0.11881184 0.27458996 0.025572026
000310 d6 a8 1c bf aa af 01 3f bf 00 db 3e 4a 2a 68 3e
       -0.61195123 0.5065867 0.42774007 0.22672382
000320 02 ab 2e 3e c3 8f c7 bd ea 1f 27 3f ab 04 02 bf
       0.17057422 -0.09744217 0.6528307 -0.5078837
000330 7b 4b 37 3e f4 cd 12 be 29 a5 bd 3d 7b 19 d5 3e
       0.17899887 -0.14336377 0.092600174 0.41621003
000340 3f 83 14 3f 63 54 e2 be 69 a4 4f 3f 48 e7 3f be
       0.58012766 -0.44205007 0.81110245 -0.1874057
000350 32 70 e3 3e b2 e3 90 3e 24 02 72 be f9 8a 11 3e
       0.44421536 0.28298718 -0.23633629 0.1421317
000360 c6 52 45 3f 17 ce a4 3d dc ba 83 be f4 d8 c9 3d
       0.7707943 0.08047121 -0.257285 0.09855834
000370 49 6d 61 3e d3 d4 a4 3d 8e b0 13 3e f8 f9 46 3e
       0.22014345 0.080484055 0.14422819 0.19431293
000380 26 a1 8e 3e 7d 91 02 3f a2 64 ca bd e0 2a 08 bf
       0.27857322 0.5100325 -0.098824754 -0.5319042
000390 e1 fe d6 3c 94 fe be 3e f7 bf f7 3e b2 1d a3 be
       0.026244583 0.37303603 0.48388645 -0.31858593
0003a0 73 5d 70 be 37 bc 8f 3e ea 3c 2c 3f a3 95 58 be
       -0.23473148 0.28073284 0.6728045 -0.21150832
0003b0 f6 c6 36 3f b6 25 63 be ca fe 67 be 60 47 56 3e
       0.7139734 -0.22182354 -0.22655788 0.20925665
0003c0 39 78 b5 be 56 62 49 be b6 4f 37 bf 7a 7f c3 3e
       -0.35443285 -0.19666418 -0.71606004 0.38183194
0003d0 3c 86 6d 3f 1f 5a bf 3b 50 45 fb be 0a 70 bd bd
       0.9278295 0.0058396007 -0.4907632 -0.092498854
0003e0 e7 45 d1 3e fe 6e fe 3e c5 c0 cd be 3b ee bb be
       0.40873644 0.49694055 -0.40186134 -0.36705193
0003f0 b7 73 f4 3e 26 ac e8 bd 4a ca fa 3d 0f 49 0b 3e
       0.47744533 -0.1136096 0.12245615 0.13602088

network_body._body_endoder.seq_layers.0.bias f4 [128]
000000 28 d6 9d 3a 3c 4d 1b 3b c6 d1 49 bc d2 1a 2d bc
       0.0012041973 0.0023697158 -0.01231808 -0.0105654765
000010 a1 d8 06 3b 97 19 c6 bb e9 8a 44 bc bf 60 97 bc
       0.0020575898 -0.006045531 -0.011996009 -0.01847875
000020 81 7f 11 3c 9d cc 4a bc 5d 7a 7b bc 58 9e 45 bc
       0.008880497 -0.012377885 -0.015348998 -0.012061678
000030 07 19 cd 3a e0 e7 1c bc ef 6e 4a 3c 86 67 98 bc
       0.0015647718 -0.009576768 0.01235555 -0.018604051
000040 21 f6 6e bc 72 cc ce ba 12 de 46 bc eb 0c 10 bb
       -0.014585049 -0.0015777482 -0.012137907 -0.0021980356
000050 1f 29 c8 ba f3 0b d9 3c af 69 8e bc 97 00 f5 bc
       -0.0015271044 0.026494956 -0.017384378 -0.029907508
000060 19 d4 c6 ba 96 91 79 bc 17 61 01 bb 53 ef 2b ba
       -0.0015169411 -0.015232464 -0.0019741708 -0.00065587944
000070 14 89 e3 3b e8 23 4b bc b5 4e 3e 3a fc 4f fd b9
       0.006943831 -0.012398697 0.0007259653 -0.00048315513
000080 7c 91 e5 bc ef 98 97 3c 04 59 67 bc 74 32 74 ba
       -0.028023474 0.018505542 -0.014120344 -0.00093153794
000090 43 72 2e bc 21 d3 8a bc 9d 36 e4 bb 84 27 1e bc
       -0.010647359 -0.016946377 -0.006964518 -0.009652976
0000a0 18 0d 6d bc af 3b c8 3b b3 fe 76 3c 45 d2 56 3c
       -0.014468454 0.0061106305 0.015075373 0.013111656
0000b0 6c 74 22 bc 9d 84 f8 3b f7 e5 d7 39 4f 62 2c 3c
       -0.009915452 0.007584168 0.00041179333 0.0105214855
0000c0 63 8c 6a bb 62 1a b2 ba d2 d3 9b bc 80 bd f2 bc
       -0.0035789243 -0.0013588185 -0.019021902 -0.029631376
0000d0 16 0a 03 bd 28 0a c9 bc cc b6 ed 3b f4 f2 f4 3b
       -0.03199204 -0.024540976 0.007254457 0.0074752513
0000e0 98 77 ee 3b a3 77 d5 3c b6 34 11 bb 03 04 c2 3b
       0.0072774403 0.026058024 -0.0022156662 0.0059208884
0000f0 f0 66 43 bb 89 84 b6 3a bf a7 be 3a c5 c8 42 bc
       -0.0029815994 0.0013924997 0.0014545842 -0.0118886875
000100 d7 57 65 bc 49 b3 34 bb 76 c6 1b 3c b6 98 d4 bc
       -0.013997993 -0.0027572683 0.009507766 -0.025951724
000110 22 c1 72 bc af 11 a0 3c 30 18 76 bc 56 97 18 3c
       -0.014816554 0.019539682 -0.015020415 0.009313425
000120 82 f6 86 bc 0b 04 d3 bc 2c dd 9d 3c e1 a9 27 ba
       -0.016474966 -0.025758764 0.019270502 -0.00063958584
000130 ff 77 48 3b d8 b0 86 3c 05 7d 35 3b 73 d6 4d bc
       0.0030589101 0.016441748 0.0027692926 -0.012563336
000140 55 e5 95 bc b2 2d 59 3b 9b 92 c8 bb 8f 53 a6 bc
       -0.01829783 0.0033138809 -0.0061209924 -0.020303516
000150 58 a4 64 bc 4e 43 db bb 49 e6 89 bb 71 7f 80 bc
       -0.013955198 -0.006691373 -0.0042083603 -0.015685769
000160 f2 b2 c6 bb 3c ad 14 bd 19 00 49 3c 49 c6 02 bc
       -0.0060638124 -0.03629802 0.01226809 -0.007981845
000170 f5 af 81 bc b3 27 e0 3a 8c 5b 2d 3c 0a 3a bd 3c
       -0.015830973 0.0017101675 0.0105809085 0.023098964
000180 cb 7a e2 3a a7 60 1f bb c5 c6 5a bc 96 a2 e3 3b
       0.0017279027 -0.0024319084 -0.013353054 0.006946872
000190 9f fd d7 3b 71 1f 51 bb 5d c0 8e 3a cc 2a d1 3a
       0.0065915133 -0.003190961 0.0010891069 0.0015958189
0001a0 f1 81 eb 3b 86 00 aa bc 49 68 68 bc 44 d5 b3 bc
       0.007187121 -0.020752203 -0.01418502 -0.021952279
0001b0 02 b9 94 3c d8 43 ea bb 22 18 17 bc b2 a4 ee ba
       0.018154625 -0.007149201 -0.009222062 -0.0018207042
0001c0 e1 e3 eb ba 30 a8 15 3c 76 e5 00 bc 28 51 5b bc
       -0.001799699 0.009134337 -0.007867208 -0.013386048
0001d0 ff f0 c8 3c 1e ed 0a bc b5 83 b9 ba c9 29 89 3b
       0.024528978 -0.008479385 -0.0014153632 0.0041858894
0001e0 69 6d f5 bb e0 7d f9 bb 95 62 9a bc a8 9a d1 bc
       -0.0074898493 -0.0076138824 -0.018845836 -0.025586441
0001f0 26 9b fb b9 21 ca 8c 3b 76 cd ec bb 6c 66 cd 3b
       -0.00047990045 0.0042965566 -0.0072266413 0.006268313

network_body._body_endoder.seq_layers.2.weight f4 [128, 128]
000000 b0 c6 af bc 1f 01 9f ba 3e 75 1d 3e d3 43 05 3e
       -0.021457046 -0.0012131071 0.15376756 0.13014154
000010 aa a8 b3 3d 2e 45 eb 3c 7e a4 58 bc 58 25 91 3d
       0.087724045 0.02871951 -0.013222812 0.07087201
000020 c4 c3 3d bd 7b fe 83 bd c6 ef c0 3c e6 d8 68 bb
       -0.046329275 -0.06445023 0.023551833 -0.0035529672
000030 e6 10 0c bc 2b 89 21 bd a8 53 17 3e 6b 21 97 bc
       -0.008548951 -0.039437454 0.14778006 -0.018448552
000040 a5 87 1e bb ad 44 04 3e 33 b9 8d bd 6e 32 82 bd
       -0.0024189737 0.12916823 -0.069200896 -0.06357275
000050 ee 5d 1b 3b 48 ef 00 3d 63 b6 73 bd 78 0f 9c bd
       0.002370711 0.031478196 -0.05950011 -0.07620138
000060 c7 13 fc bd b8 4f 1b bd 9f 78 c7 3c 70 80 df 3d
       -0.1230846 -0.037917823 0.024349509 0.109131694
000070 5c dc 8d 3d 09 97 3d bd 4b 20 96 3c 7e 25 0e 3e
       0.06926796 -0.046286616 0.018325945 0.1388149
000080 7f 43 80 3d e0 94 64 bd ee 7a 27 be a6 82 47 3d
       0.06262874 -0.05580604 -0.16355488 0.04870858
000090 84 f0 dc bd 39 90 02 be 9f 1e cf 3d cd 71 3c 3d
       -0.10788062 -0.12750329 0.101132624 0.046006966
0000a0 a0 c5 61 bd 9c 32 23 be 99 45 1b 3d 28 6e ac bc
       -0.05512011 -0.15937275 0.03790817 -0.02104862
0000b0 d9 70 76 3d aa 00 6f 3d c7 8c 18 3e b9 13 53 3d
       0.060166214 0.058350243 0.14897452 0.05153248
0000c0 9e 4e a1 bd 74 fd 00 be 05 57 a4 3d 7a bb 81 bd
       -0.07876323 -0.12596685 0.0802441 -0.063345864
0000d0 a2 c4 0d bd f2 e2 d1 bd 1a 65 fc bc a1 39 3f 3e
       -0.03461135 -0.102483645 -0.030809928 0.18674327
0000e0 60 cb 7a 3c c1 8a 80 3d 00 a0 a0 3c 8c 70 90 bd
       0.015307277 0.06276465 0.019607544 -0.070527166
0000f0 c0 54 2d 3d 6e fe fd 3d 53 09 f8 bd 4a 07 16 be
       0.042317152 0.12402044 -0.121111535 -0.14651218
000100 81 14 08 bd 2f 1a bf bd 72 9a 9e 3d 75 19 64 3c
       -0.03322268 -0.09331166 0.07744302 0.013922085
000110 93 28 ff 3d 3e 8a b8 3c 1e 1e 4b bc 6e 87 7e bc
       0.12458911 0.022526857 -0.012397317 -0.015535219
000120 02 0f 00 3e 09 98 0f bd 24 a5 b1 bc 94 29 08 bd
       0.12505725 -0.0350571 -0.02168519 -0.033242777
000130 8a 7a 84 3d 48 0e 82 3d 4e 97 64 bd 93 cc 23 3d
       0.06468685 0.0635038 -0.055808358 0.03999002
000140 12 6d c0 3c 4c b2 17 bd 61 1a 5a 3d dd 00 aa bd
       0.023489509 -0.03703527 0.053247813 -0.08300946
000150 e8 d6 ca 3d 63 58 47 bd d2 2b 52 bc 85 f8 21 3e
       0.09904271 -0.048668277 -0.01282783 0.15817459
000160 4d a6 60 bd f7 9b df 3b de 21 08 3d e8 eb d2 bd
       -0.054846097 0.0068240124 0.033235423 -0.10298902
000170 4f 4f 4e 3e 9d de 08 3e 82 61 12 bc 4a ae a8 3d
       0.20147441 0.1336617 -0.0089343805 0.08236368
000180 96 c5 62 3d a7 93 b0 bd 40 da bc 3c ce b2 cb bd
       0.055364214 -0.086219124 0.023053288 -0.09946214
000190 fa e4 c2 bd cf 58 84 3b 7d 3c 32 be bd 21 11 3e
       -0.0951633 0.004038907 -0.17405887 0.14173026
0001a0 f0 3d 2d 3c 3b 34 00 be 5b 54 1f be 79 7c 0c bd
       0.010573849 -0.12519924 -0.15559523 -0.034298394
0001b0 4e fd 9b bc 08 59 da bc 4d e4 1c be 7b 36 76 be
       -0.019041684 -0.026653782 -0.15321465 -0.2404422
0001c0 d6 20 e3 3d 33 88 58 3c 37 cc 1b 3c f1 01 32 bd
       0.11090247 0.013216066 0.009509138 -0.043458883
0001d0 d6 ce f2 bc 13 91 67 3d b4 40 f1 3d af a1 8e 3c
       -0.029639643 0.056534838 0.11779919 0.017411081
0001e0 2e 1f b7 3d 55 7a 05 bc 29 8b ca bd e5 26 68 3d
       0.08941494 -0.008146842 -0.09889824 0.056677718
0001f0 a7 ae b4 3c 13 d1 ed 3c 17 4f 0d bd e8 9a 5f 3c
       0.022055937 0.029030358 -0.034499254 0.013647772
000200 57 25 dc bc 84 d9 dd 3d 68 77 23 3c 41 45 fe bd
       -0.026873274 0.108325034 0.009977199 -0.12415553
000210 b9 1f 90 3a a1 e2 4f bd 0c d9 98 3c 58 63 74 3c
       0.0010995782 -0.05075324 0.018658184 0.0149162635
000220 6d aa 21 3d 6a 26 0c 3e 1f b1 83 bd 23 d6 bd bb
       0.03946917 0.13686529 -0.064302675 -0.0057933494
000230 c4 72 e4 bd 26 28 c9 3d 85 33 bf bc ee 8a 07 be
       -0.11154702 0.09822111 -0.023339996 -0.13236591
000240 50 4b 32 3d fe 65 08 bd 8c 33 2d 3c 53 e8 c1 3d
       0.043528855 -0.033300392 0.010571372 0.094681405
000250 b8 eb 50 bd 5f 76 59 3c 83 5f 50 bb fc 41 45 3e
       -0.05100605 0.013272851 -0.003179521 0.19263452
000260 d6 33 a4 3d f0 fe 39 bd 7e 33 a8 bd f0 de 1f bd
       0.080176994 -0.045409143 -0.08212946 -0.03903097
000270 1b e1 4e bd d6 18 31 3e 79 9b 82 bb e4 c7 88 bd
       -0.050507646 0.1729463 -0.003985819 -0.06678751
000280 8b 2f db bd 88 79 2d bd f5 ae 01 3e 15 ab 4f 3d
       -0.107024275 -0.04235223 0.12664397 0.050700266
000290 91 ec 0a 3e 3f 2b c1 3d 7e cd f6 bc 49 3c 26 3d
       0.13566805 0.09432077 -0.030127283 0.040584836
0002a0 f8 be 07 3e ba 58 f3 bc a2 86 e4 3d ae 4d f4 3d
       0.13256443 -0.029705394 0.11158492 0.11928879
0002b0 a2 cf e0 bd e4 79 10 bd 97 97 b1 3d ad 86 ca bd
       -0.10977103 -0.035272494 0.086714916 -0.098889686
0002c0 c9 fb a7 bd 30 f2 29 bd 86 cb 78 bb c3 fa e7 3b
       -0.08202321 -0.041490734 -0.0037963106 0.0070794537
0002d0 02 5f 63 bd 8f 92 54 3d b2 5e b8 3d 6b cc 4f bc
       -0.05551053 0.05189758 0.09002437 -0.012683014
0002e0 e6 e0 86 3d f8 0e d5 3d a1 9a 29 3d b4 54 7c 3d
       0.06585865 0.10403246 0.04140723 0.061604217
0002f0 2e 48 02 3d aa aa ae bd fc c9 dc bd d2 dd 6b 3d
       0.031807117 -0.08528645 -0.10780713 0.05758459
000300 74 45 24 bd 92 f6 47 3d e0 c4 ab bc d9 a1 48 bd
       -0.0401053 0.048819132 -0.0209679 -0.048982475
000310 8b 71 81 bd e9 60 24 39 c3 0e 0e bd 83 33 cf bd
       -0.06320485 0.0001567636 -0.034682047 -0.10117247
000320 82 28 c5 ba cc a2 1f bd 6a 0a 1f be 62 03 86 be
       -0.001504198 -0.038973615 -0.15531316 -0.26174456
000330 9b a8 ac 3c 94 d7 f7 3c c3 f6 b4 bd 9d fd ee bd
       0.021076491 0.030254163 -0.088361286 -0.11669467
000340 1e 7c b0 3d 92 26 21 bd 59 3f 85 bd 99 06 97 3d
       0.086174235 -0.039343424 -0.06506223 0.07374305
000350 a3 1d c3 3d fa 5f e6 38 b7 94 26 3d 40 28 47 bd
       0.09527137 0.00010985132 0.04066917 -0.04862237
000360 98 76 8d 3d a2 9f 19 3d 57 50 a3 3a b7 f3 0c bd
       0.069073856 0.037505753 0.0012459856 -0.034412112
000370 b8 8d 07 bd 2e c8 4e be 5d 9e 8f bd f7 fb e8 3d
       -0.033094138 -0.2019355 -0.07012627 0.113761835
000380 98 1d db 3d cc 18 02 be a0 af 15 3e 74 cc 62 3d
       0.10699004 -0.12704772 0.14617777 0.055370763
000390 c4 39 eb 3d 7d 69 3c be 0f b7 ea bd b0 c5 d9 3d
       0.11485627 -0.18399616 -0.11460697 0.10633409
0003a0 d9 9f be bd be 9b 61 bd 78 2b 87 3d e2 3b 3f bd
       -0.09307832 -0.055080168 0.06600088 -0.046687968
0003b0 25 b6 d0 bd 02 9d 21 3d 3c 23 9f 3d 15 f9 0a 3e
       -0.10190991 0.039456375 0.07770392 0.1357158
0003c0 b0 3a b6 bd 11 14 82 bd 3e c1 31 3d 21 38 f3 3c
       -0.088979125 -0.063514836 0.04339718 0.02968985
0003d0 f8 aa 06 3e dc fa a4 3c 7a 24 aa bd 37 bb 5d 3d
       0.13151157 0.02013915 -0.083077386 0.05413362
0003e0 ce 4e 3e bd b9 31 99 bb 6f 34 98 3c 28 8b 62 bc
       -0.046461873 -0.004675117 0.01857969 -0.013827123
0003f0 86 04 db bd 71 19 8e bd ff 37 00 bc 9a 19 94 3c
       -0.10694222 -0.06938446 -0.0078258505 0.018078614

network_body._body_endoder.seq_layers.2.bias f4 [128]
000000 3d 6a 92 bb ce 5f b8 ba 70 6b 97 b6 d1 6e 39 3b
       -0.004468231 -0.0014066638 -4.512658e-06 0.0028294811
000010 ab ed 33 bc 19 f4 45 3c 24 16 6c bc 8a f7 40 bb
       -0.010981957 0.012082123 -0.014409576 -0.002944442
000020 be 9b 72 3c c8 48 5e bb fe b7 0f 3d a0 db c0 bc
       0.01480764 -0.0033917893 0.035087578 -0.023542225
000030 9c 60 b4 bb 01 32 46 bc 27 7c fd 3a c6 47 4c 3c
       -0.005504681 -0.012096883 0.0019339368 0.012468284
000040 e8 ab 86 3b 1d f8 84 bb 6a 7e e5 38 8a 2c 6c 3b
       0.0041098483 -0.0040578977 0.000109431174 0.003603729
000050 e8 ea 02 3c 1b c8 10 bc 10 5b 83 bc d1 c0 8e b8
       0.007990576 -0.008836771 -0.016034633 -6.8070025e-05
000060 9c 35 1c bc 12 a1 4b 3c 6a 22 48 37 a5 8e 31 bb
       -0.009534266 0.012428539 1.1928942e-05 -0.002709308
000070 02 3f cb bb 34 7f 57 3c 89 6a f3 b9 bf 10 20 bb
       -0.0062025795 0.013152886 -0.00046427947 -0.0024424044
000080 aa 0b b7 bb 1d 85 9e bb 5f 7f 62 3c 95 64 c4 3b
       -0.0055861073 -0.0048376457 0.013824313 0.0059934356
000090 fd ae cd 3a ad 13 41 bc d3 75 97 bc b5 45 fe bb
       0.0015692409 -0.011784476 -0.0184888 -0.0077597746
0000a0 6e 16 ae bb fd fa e6 bb 0c cf 56 bc 81 15 1a 3c
       -0.0053127324 -0.007048963 -0.013110887 0.009404541
0000b0 3f 34 94 bb b5 7d 87 ba b6 76 e9 ba ee 5e d1 bb
       -0.00452283 -0.0010337146 -0.0017811868 -0.0063894903
0000c0 ba 52 a0 3c b2 d7 00 bc d9 d6 5e bb 4d 82 cd bb
       0.019570697 -0.007863926 -0.003400257 -0.0062716366
0000d0 2a cf 4b bb cf 9c 7c bb ed 94 10 3c af 73 5e 39
       -0.0031098821 -0.0038545614 0.008824569 0.00021214665
0000e0 2f c4 d3 3c dd 5e 4a bc 92 fc 0a 3c e2 9a 79 bc
       0.025850384 -0.012351719 0.008483069 -0.015234681
0000f0 92 ea 46 bc 7f ee 0a 3b cc 79 ed 39 d5 93 6e 3b
       -0.012140887 0.0021199284 0.00045294908 0.0036404033
000100 3e c3 1a 3c 75 0e 5a bc 0d 3d a6 bc 62 e4 06 bb
       0.009445963 -0.013309111 -0.020292783 -0.0020582904
000110 fc 0d 96 3c 82 5d 24 ba 97 dd 7b bc 9e 6e 39 bc
       0.018317215 -0.0006270037 -0.015372655 -0.011317877
000120 14 1c 0c bb cb 44 b1 bc 49 a8 79 bc 46 a5 63 3c
       -0.002137904 -0.021639248 -0.015237876 0.013894385
000130 78 77 a0 bc 96 cb 27 3b c8 05 62 ba fc bd 8e bb
       -0.019588217 0.0025603524 -0.00086220773 -0.004356144
000140 8a 28 bb bb 71 c6 b0 3a 0b 7a 82 bc aa 82 67 bc
       -0.0057116197 0.0013486875 -0.015927335 -0.014130274
000150 f3 df c3 ba ce 35 3c bc 92 e6 e2 3b c5 71 80 3a
       -0.0014944061 -0.011487437 0.006924459 0.0009799531
000160 50 08 9a bc bb c7 68 3b e7 5a e6 3a 3b 4c ee bb
       -0.018802792 0.003551944 0.0017574698 -0.007272271
000170 02 1f 12 bc cb fe 32 3c b3 5b e7 3b 25 4d 54 bc
       -0.008918526 0.010925005 0.007060492 -0.012957846
000180 e8 ef 7e bc 74 5f 8f 3a cf 06 c4 3a 1e cd 00 3c
       -0.015560128 0.0010938481 0.0014955642 0.007861404
000190 7b b8 c3 bc b3 4c 62 3b 3c b8 2c 3a ba 72 24 3c
       -0.023891678 0.003453058 0.00065887324 0.010037119
0001a0 38 a3 49 bc 4e 7a a4 bc c1 f0 70 3a a9 41 e1 3c
       -0.012306981 -0.02007785 0.00091911486 0.02749713
0001b0 c2 09 a8 bc 62 f6 52 3c 0a 0f d9 3b 56 08 22 3c
       -0.020512465 0.012876125 0.0066241072 0.009889683
0001c0 58 ec 79 3b 14 97 2e bc 96 c4 1f 3d 2f ae b6 bb
       0.0038135257 -0.010656137 0.03900584 -0.0055749635
0001d0 c3 5b 33 bc 7d 62 ed bc 47 3e 8c bc 91 0c b3 bb
       -0.010947171 -0.028977627 -0.01711954 -0.0054641445
0001e0 24 fe 2e bc 43 c6 29 bc 30 a5 2a bc 91 44 04 bc
       -0.010680709 -0.010362211 -0.01041536 -0.008072988
0001f0 80 ea ea bb d2 de 9e 3c d5 af 06 bc a0 15 0f 3c
       -0.007169068 0.019393358 -0.008220633 0.008733183

action_model._continuous_distribution.mu.weight f4 [1, 128]
000000 08 52 e2 bb 6f cc 9b bc a4 26 0a bc af 38 f0 bc
       -0.0069067515 -0.01901838 -0.008432064 -0.029323904
000010 19 9b f8 bb ad 34 1c bd 19 3a 40 3b f7 3c c6 bc
       -0.0075868485 -0.038136173 0.0029331504 -0.024198992
000020 7b a5 b9 bc 57 03 34 bc d7 c8 2e bd 73 22 20 3c
       -0.022661915 -0.010987124 -0.042672005 0.009773838
000030 d5 96 8e 3c 9e 63 06 3a 8a 3a 82 bc 40 ce d8 3c
       0.017405907 0.00051265385 -0.015897054 0.026465535
000040 23 9c f8 bc 75 18 35 bc c4 c8 34 3c b6 2a 98 bc
       -0.03034789 -0.011053194 0.011034194 -0.018575054
000050 18 ec 74 bc 77 88 88 3b a9 a3 c3 bb 04 70 82 3b
       -0.014948867 0.0041666585 -0.0059704375 0.0039806385
000060 ed b7 19 3c 8e bf fd 3c 12 b8 ed ba ec 15 4e 3c
       0.00938223 0.03097513 -0.0018136522 0.012578469
000070 db c8 99 3c 5d 7c 94 bc c0 91 48 bc 56 16 82 bc
       0.018772533 -0.018125707 -0.012241781 -0.015879791
000080 58 75 ef 3a 8a 9e bf 3c cb 30 e1 bc 16 f7 9f 3b
       0.0018269224 0.023391027 -0.027489087 0.00488175
000090 8a 99 cd bb 61 31 88 3c 56 12 77 bb df 1b 6a 3c
       -0.006274407 0.016625108 -0.0037700138 0.014288872
0000a0 b6 75 99 3c 77 e4 81 3c 94 fd 7e 3b bd 5f 4c 3c
       0.018732887 0.01585601 0.0038908469 0.012473998
0000b0 cd 63 71 3b 18 7a c0 3c 87 3c 97 3b 56 27 b9 3c
       0.0036833168 0.023495719 0.0046153697 0.022601765
0000c0 12 7c 6a 3c a4 1d 08 3d 3e da d2 bb 05 98 e0 3b
       0.014311807 0.033231393 -0.006434708 0.0068540596
0000d0 63 c1 4e 3a d8 4c 8a ba 36 f5 90 bc 8e e5 d2 bc
       0.0007887093 -0.0010551466 -0.01769505 -0.025744226
0000e0 65 1b 04 bd 69 f5 85 3b 89 bc e1 3c b5 9a 0e 3c
       -0.032252688 0.004088093 0.02755572 0.008703877
0000f0 32 06 6d 3c 44 f9 cb 3b 44 2a 80 bc 5e 37 8d bc
       0.014466809 0.006224783 -0.015645154 -0.017238315
000100 9c ac e1 3c 3c 77 9d 3b be 97 e6 3c c7 e4 1b bd
       0.027548127 0.0048054736 0.028148528 -0.038059976
000110 4e cf 84 bc 88 89 5c bc e9 03 91 b9 d8 46 92 3a
       -0.016212132 -0.013460524 -0.00027659468 0.0011160029
000120 af 29 bd bc 72 09 65 3b fc 16 ce 39 19 64 96 bc
       -0.023091165 0.0034948257 0.00039308507 -0.018358277
000130 74 90 39 3c 85 60 86 bc e0 56 fd 3c ac 6c 1d 3c
       0.011325944 -0.016403446 0.030925214 0.009608429
000140 bf 52 ef 3b 15 e9 08 3d 5c 90 86 ba c9 a1 59 3c
       0.0073035653 0.03342541 -0.0010266411 0.0132832015
000150 11 45 a3 3c 6c b7 3c 3b f4 49 fd bc 6f 51 4b bd
       0.019930394 0.0028795851 -0.030919053 -0.049638208
000160 b1 8d 90 bb c9 18 39 bc 1c eb d1 bc e4 98 db 3c
       -0.004411422 -0.011297413 -0.025624804 0.026806302
000170 ec fd 48 bc 70 c3 93 bc b5 7f f7 3c 40 83 88 38
       -0.012267571 -0.018037528 0.030212263 6.5094326e-05
000180 f2 26 80 bb 1e 77 f5 3c fb 55 cc 3b 6b 26 27 bc
       -0.0039108926 0.029964026 0.0062358356 -0.010202031
000190 aa e9 bb ba 4e 69 42 bc 24 12 2c 3c 6c 1f f0 bb
       -0.0014336605 -0.011865927 0.010502372 -0.0073279645
0001a0 ff 84 39 3c 82 d5 d0 bb f5 15 c9 bc 45 a6 4c bd
       0.011323213 -0.0063731084 -0.024546603 -0.049963254
0001b0 21 1a 83 3b 95 ed 94 bc d7 4d 24 bd a9 c4 1d bc
       0.0040009175 -0.018179694 -0.040113296 -0.009629407
0001c0 f5 d8 8d bc 1a d7 8a b9 78 f5 40 bd 03 cf de 3c
       -0.017315367 -0.00026481674 -0.047109097 0.02719832
0001d0 06 83 43 3c e6 dd 6d 39 f8 95 05 3b 91 4a d2 bb
       0.011933094 0.00022684745 0.0020383578 -0.0064175804
0001e0 76 69 b9 3c 3e a5 bc 3b ce 2a 61 bc 3a aa 9a b9
       0.022633296 0.005757003 -0.013743116 -0.00029499998
0001f0 bb 2b 3a bb 39 d7 d6 3c 28 1a a7 3c 9f 7f e9 bc
       -0.0028407413 0.026225673 0.020398214 -0.028503237

exp_avg f4 [128, 5]
000000 e4 a7 85 3a 55 99 e2 bb 52 83 2d 3b 42 45 89 bc
       0.001019713 -0.0069152513 0.0026475978 -0.016756658
000010 65 38 c2 ba 01 0a 83 38 bd 89 f6 38 bd ab 21 3a
       -0.0014817832 6.24843e-05 0.0001175585 0.00061672536
000020 e0 77 2f bb 5e 53 33 ba 8a 43 36 bb ba 8d 69 3b
       -0.0026774332 -0.0006840731 -0.0027811253 0.0035637454
000030 7a 63 15 bb 25 db 86 bb 2d 33 4b 3a 38 2b ae b9
       -0.0022794888 -0.0041154795 0.0007751461 -0.00033220067
000040 a7 cc 3c b8 5a ba fe b8 e3 33 23 bb b2 33 94 3a
       -4.501329e-05 -0.000121463745 -0.0024902753 0.001130691
000050 27 77 0f 3b b7 9a 83 3b ec 9e bc 38 5d f1 e0 3c
       0.0021891089 0.004016246 8.99414e-05 0.027458841
000060 41 43 31 3b 2a 05 fa 3a 02 08 0f bb f7 9e bd 3a
       0.0027048143 0.0019075025 -0.0021824841 0.0014466931
000070 fd 50 d4 3b 48 13 e2 ba 6a 46 e5 b8 86 2d ab b7
       0.006479381 -0.0017248178 -0.000109326866 -2.0405987e-05
000080 b7 07 e0 39 0c d8 9a b9 55 67 82 3a f2 a5 9a ba
       0.00042730357 -0.00029534136 0.0009949008 -0.0011798723
000090 ee 9d 7d bb f4 0b 6a b8 07 02 72 bc 04 24 81 bb
       -0.003869887 -5.580108e-05 -0.014770991 -0.003941061
0000a0 b7 70 cc 39 7f 78 de bb 04 00 1f 3b 51 90 7e bc
       0.0003899389 -0.0067892666 0.0024261484 -0.015537337
0000b0 1a 17 0a bb b9 1e c2 b9 07 07 0f 3a 29 47 63 ba
       -0.0021070899 -0.00037025454 0.0005456064 -0.00086699665
0000c0 1c e4 11 b9 2f f3 98 ba b0 3e 4a 3a 5d c5 06 3b
       -0.00013913255 -0.0011669154 0.00077150296 0.0020564415
0000d0 5c b5 20 b9 92 29 11 3c 59 2d d2 3a 2b d1 16 3b
       -0.0001532635 0.008860009 0.0016035243 0.0023012857
0000e0 29 f0 fa b9 0d b9 42 3a e2 ef 38 3c 23 9c 40 ba
       -0.0004786265 0.00074280874 0.011287661 -0.0007347485
0000f0 d3 61 0b ba e7 b9 91 ba 8b 5a 2a 38 45 c6 df bb
       -0.0005317006 -0.0011118025 4.0615483e-05 -0.0068290555
000100 b4 9f d9 ba b2 b9 47 39 09 fe 56 37 4b 8d c3 b9
       -0.0016603381 0.00019047296 1.2814541e-05 -0.0003729857
000110 75 dc 7a b9 c0 61 a3 b9 33 c5 86 bb b1 73 4c 3b
       -0.00023923985 -0.00031162612 -0.0041128634 0.0031196887
000120 a7 ad 3a bb c9 d0 2e bc cb e7 d8 b9 10 f3 42 3a
       -0.0028484853 -0.010669895 -0.0004137143 0.0007436732
000130 c4 ff 2e ba 72 85 3d 3a e4 88 8a 3b 11 3f e7 b8
       -0.0006675685 0.0007229663 0.0042277444 -0.000110266854
000140 a0 1c 60 ba 11 92 30 3a b7 5d 58 ba 36 ea 78 b9
       -0.00085491873 0.0006735633 -0.00082537107 -0.00023738373
000150 6b 09 e6 b9 fd ca a1 39 9f 7d d1 3a 75 77 24 38
       -0.00043876035 0.0003085955 0.0015982873 3.92119e-05
000160 7e dc 0c 3c 0c d7 4d 3b 2e b8 85 38 af 2c 47 3a
       0.008597491 0.0031408696 6.37624e-05 0.0007597906
000170 e5 b5 8f b9 c0 bf a1 39 01 d7 d4 b9 60 e0 82 3b
       -0.00027410607 0.00030851178 -0.0004059598 0.0039940327
000180 10 4a 11 ba c4 df 18 3b 77 b5 00 3d 09 9b 0a 3b
       -0.0005542347 0.0023326734 0.03142306 0.0021149537
000190 28 a4 29 ba 38 a4 46 3a 28 7e 87 b8 71 69 d7 ba
       -0.00064712996 0.0007577571 -6.4608e-05 -0.0016434622
0001a0 bb 23 92 3a 46 6a 13 bb aa 6a 86 3a 41 c6 e5 ba
       0.0011149565 -0.0022493764 0.0010255177 -0.0017530398
0001b0 1d 84 fd bb 27 a2 f0 39 b1 e9 da 38 c3 f1 45 3a
       -0.0077366964 0.0004589718 0.000104385785 0.0007550979
0001c0 4f 81 23 39 2a 4d 85 3a bd 5c ad 39 0b 8b 63 ba
       0.00015593063 0.0010170091 0.00033066227 -0.0008680082
0001d0 0f 6b e0 3a 8d 2b 13 ba b6 8d b5 bb f6 e6 60 3b
       0.001712175 -0.00056140946 -0.005540575 0.003431735
0001e0 f9 8d 1c 3a 87 72 14 3a 58 ce 74 3a 9c 0b 15 3c
       0.00059720833 0.0005662818 0.0009338609 0.009097006
0001f0 19 49 74 ba f7 7e d8 39 80 bc e5 ba 84 1e 92 3a
       -0.0009318754 0.00041293327 -0.0017527491 0.001114801
000200 86 fc 68 3b 1d 72 3b b8 12 7f 20 3b 4e fd da ba
       0.0035550906 -4.469055e-05 0.0024489802 -0.0016707571
000210 98 03 ad 3a d4 d1 55 3c cb 8f 9d bb 05 5d bc ba
       0.0013199924 0.013050515 -0.004808401 -0.0014370984
000220 a2 92 e5 3a 5f da 82 ba 32 a2 e0 ba 6d 48 0e 3a
       0.0017515013 -0.0009983293 -0.0017138182 0.00054276624
000230 f1 63 75 ba 8d d9 d8 ba a7 96 5c b9 88 9a 54 bb
       -0.0009360901 -0.0016544327 -0.00021036957 -0.003244074
000240 f1 3e d2 ba 37 25 25 ba a2 7a 06 3a 72 01 6b ba
       -0.0016040487 -0.0006299796 0.0005129968 -0.0008964754
000250 0c 82 d3 ba 42 42 3c 37 a9 a9 2a 3a d4 92 12 3b
       -0.001613678 1.12211e-05 0.00065102667 0.0022365348
000260 31 67 b6 3a 23 eb 21 3c aa 09 a8 3b 39 de 29 3b
       0.0013916251 0.009882721 0.005128105 0.0025919809
000270 14 84 80 3b 24 13 17 39 0b 34 d0 3c ba ba 32 3b
       0.003921995 0.00014407613 0.025415441 0.0027271942
000280 3d 8d 98 ba 08 6b 8c 3a a3 a3 f0 b9 00 66 a5 bb
       -0.0011638772 0.001071305 -0.00045898286 -0.0050475597
000290 8b ec 20 3a 89 02 79 3a f9 c2 94 bb 73 a2 2d 3b
       0.0006138763 0.0009498974 -0.004539844 0.0026494532
0002a0 6a dd e5 bb d4 c2 b0 38 20 2d d5 39 a5 30 a9 b9
       -0.00701492 8.4286236e-05 0.00040660147 -0.00032270435
0002b0 53 45 2a 39 90 22 8f ba 1f bb 5d 3a 0f 4c 51 b7
       0.00016238289 -0.0010920335 0.0008458364 -1.24750795e-05
0002c0 4b 03 07 ba 1c 19 e0 39 63 5c 26 39 ce 22 af b9
       -0.0005150332 0.00042743317 0.0001586541 -0.00033404533
0002d0 05 a3 65 b9 38 a5 a7 39 0d 48 07 ba 6c cc 8b ba
       -0.00021899871 0.0003197582 -0.0005160578 -0.0010665781
0002e0 55 4d 01 ba ba c3 8c 39 ec 75 0e 3b 75 6e c3 39
       -0.0004932483 0.00026848709 0.0021737767 0.00037275595
0002f0 d6 7d 6d 3c 12 42 a7 39 65 92 1a 3b ed 71 aa b9
       0.014495334 0.00031901948 0.0023585793 -0.00032509808
000300 bb 93 4e 3a 2a f6 23 3c 00 f6 48 bb 15 2f 80 3b
       0.000788029 0.010007421 -0.0030664206 0.0039118626
000310 8b b5 0e bb 7f 4f f0 3a ec d6 57 3c 1c 94 8a bb
       -0.0021775689 0.0018334239 0.0131738 -0.004229082
000320 fd 53 01 3a c3 9d 2d 39 09 3c b0 b8 3e 12 75 b9
       0.00049334747 0.00016557336 -8.4035164e-05 -0.00023371816
000330 96 2a c9 38 df 24 41 bb 44 52 26 3b 7f 6a 39 b9
       9.592359e-05 -0.002947144 0.0025378624 -0.00017682648
000340 06 1f 67 bc ea fd b2 3b de 28 78 bb 0a c0 59 3b
       -0.014106518 0.005462398 -0.0037866156 0.0033226036
000350 cf 2f 14 bb a9 b3 ea bb 8b 30 e8 3a 72 07 cc ba
       -0.0022611504 -0.0071625304 0.0017714662 -0.0015566184
000360 54 21 e9 ba 79 34 51 3a ec 7a 5b bc 17 4a c6 bb
       -0.0017786422 0.00079805363 -0.013396006 -0.0060513127
000370 f9 3d c4 ba 4a 28 75 3a f6 5f 17 ba c6 a4 84 bb
       -0.0014972083 0.0009352012 -0.0005774492 -0.004047963
000380 4b 24 b8 3a ae fa a2 ba d8 f1 a3 ba 0c ee 4c ba
       0.0014048902 -0.0012434328 -0.0012507988 -0.0007817454
000390 60 cf 7a bb e4 19 02 3a e6 90 01 bb cc 67 7e 3a
       -0.0038270578 0.00049629644 -0.0019770204 0.0009704798
0003a0 c9 a0 33 ba 76 3c dc bb d5 88 05 3b b0 d9 09 b9
       -0.0006852267 -0.0067210747 0.0020375748 -0.00013146433
0003b0 db 7e d6 ba 6c 13 aa 3a cd 5f 99 bb db e1 48 bb
       -0.001636471 0.0012975759 -0.00468061 -0.0030652198
0003c0 88 3d df b9 7a 22 00 b9 e1 9d f8 b9 6c 3a 4e 3b
       -0.0004257972 -0.00012219875 -0.00047419875 0.0031467928
0003d0 8c 1a 80 ba f2 a9 88 3b 87 41 3c bb 92 74 1d 3b
       -0.0009773537 0.0041706497 -0.002872558 0.002402578
0003e0 78 11 73 3c b1 64 84 bb 87 e8 2b b7 72 31 62 ba
       0.014835708 -0.0040403237 -1.0246534e-05 -0.0008628584
0003f0 57 25 7c 39 85 40 04 bb d8 d0 24 3a aa ba 06 bb
       0.00024046503 -0.0020180058 0.00062872237 -0.0020558038

exp_avg_sq f4 [128, 5]
000000 e3 fd e8 38 96 e9 0b 3a 9f a1 57 38 6f a5 bd 3b
       0.00011109912 0.0005337236 5.1410516e-05 0.0057875435
000010 fb a9 b1 39 9a 8d 08 38 aa 70 7f 39 e9 5d 67 37
       0.00033886716 3.2556803e-05 0.00024360666 1.3790538e-05
000020 59 ae cf 3a cb d5 fc 38 1c c9 35 38 93 eb c2 39
       0.0015844806 0.000120561184 4.334106e-05 0.0003717808
000030 1e 7f 01 38 be 68 84 3b 5d 6b 69 39 a6 c9 d3 36
       3.0874384e-05 0.0040408066 0.00022260608 6.311765e-06
000040 8b 0d 2b 38 18 5d d6 36 ac 35 83 39 0e 06 0f 38
       4.078219e-05 6.3885345e-06 0.00025026256 3.4099496e-05
000050 66 1d 5d 39 72 fd 80 3a e5 74 ed 38 f5 ed 25 3c
       0.00021087154 0.0009841158 0.00011322814 0.010127534
000060 57 cd 31 3a 8e 2f d2 37 71 47 21 39 f0 7d d9 37
       0.0006782612 2.5056095e-05 0.0001538077 2.592706e-05
000070 25 04 a4 3a 8b ab ba 38 54 f1 7a 37 ac f8 15 39
       0.0012513442 8.9011235e-05 1.495735e-05 0.00014302385
000080 c6 f5 79 37 05 3b 83 3a b3 72 0c 39 eb 12 af 38
       1.489878e-05 0.0010012096 0.00013394169 8.348174e-05
000090 3b 23 d2 39 17 9f e3 37 55 08 ae 3b 64 fe 82 39
       0.0004008057 2.713459e-05 0.005311052 0.00024985068
0000a0 8a ab 06 39 20 cc 34 3a 63 b4 80 38 d2 67 e1 3b
       0.00012843139 0.0006896872 6.137115e-05 0.0068788314
0000b0 f5 04 d5 39 b9 11 8f 37 c6 78 0f 39 75 f8 98 37
       0.0004063022 1.7055181e-05 0.00013682534 1.8235509e-05
0000c0 1e 44 b7 3a 7a 68 0e 39 5b cf fe 37 ce c2 56 39
       0.0013982092 0.00013581096 3.0375717e-05 0.00020481201
0000d0 ec f0 a6 37 fa ce 88 3a 1a fe bd 38 a6 0d 96 37
       1.990093e-05 0.001043766 9.0595524e-05 1.7887749e-05
0000e0 9d 1b 91 38 cd eb 82 37 59 61 22 3a 45 e2 8e 38
       6.919282e-05 1.5607011e-05 0.00061943155 6.8132336e-05
0000f0 9e 4f 89 37 4c b6 8c 38 f5 23 02 37 90 e5 39 3a
       1.6368747e-05 6.709676e-05 7.756976e-06 0.00070913974
000100 38 bf 74 38 c1 5b c8 36 d9 26 d6 37 52 e9 38 36
       5.835222e-05 5.971146e-06 2.5528878e-05 2.7553947e-06
000110 e0 b9 a0 39 7a b6 b8 37 ef 5e 96 38 0a 6e f8 39
       0.00030656066 2.2019482e-05 7.17024e-05 0.00047384232
000120 c2 8e 54 38 4c b9 af 3b d4 3d 9b 39 46 76 85 37
       5.0677692e-05 0.0053626653 0.0002960997 1.590991e-05
000130 9c 30 9b 38 18 64 dd 36 f3 46 88 39 a5 36 d4 37
       7.40003e-05 6.5979657e-06 0.00025992803 2.5297815e-05
000140 ae 4c 10 37 7a ed d3 38 17 3e 00 37 bd fd fc 39
       8.600922e-06 0.000101054975 7.643851e-06 0.00048254235
000150 90 4c 40 38 98 18 cb 37 84 c9 ba 38 a5 6d 5b 37
       4.584767e-05 2.4210938e-05 8.906706e-05 1.3078946e-05
000160 9c 95 a3 3a a9 81 b2 38 6b 71 d7 36 ac 01 4d 38
       0.00124805 8.5118525e-05 6.420703e-06 4.8877366e-05
000170 84 50 0c 37 1a 90 c0 39 1d 5e 4c 38 55 e5 50 39
       8.363397e-06 0.00036728458 4.872504e-05 0.00019921859
000180 d2 8b 43 3a e7 0d dc 38 b7 50 00 3c 6a 9d 50 3a
       0.00074594945 0.00010493007 0.007831744 0.0007958027
000190 f0 b2 5f 37 af b6 f0 38 41 df 30 37 b7 fe 72 3a
       1.3333498e-05 0.00011478119 1.0542398e-05 0.0009269523
0001a0 15 1b a2 38 f1 31 02 38 ca 65 f6 38 78 9e 98 37
       7.7298064e-05 3.1040927e-05 0.00011749154 1.8193605e-05
0001b0 70 34 c1 3a 9d e3 b6 38 c0 59 f2 36 77 7e 24 38
       0.0014740359 8.7208326e-05 7.2226103e-06 3.9218427e-05
0001c0 b5 df 96 36 56 54 ec 39 39 17 b8 37 f9 39 fb 37
       4.4963913e-06 0.00045076263 2.1945323e-05 2.9948527e-05
0001d0 a6 d5 f9 38 b9 5b b1 37 d8 77 ab 3a d6 0f 03 39
       0.0001191304 2.1142756e-05 0.0013081981 0.00012499033
0001e0 53 f8 8f 38 03 8a d4 39 be 53 40 38 f0 96 98 3b
       6.865025e-05 0.00040538618 4.5854358e-05 0.004656665
0001f0 af 41 a0 39 d0 19 bd 38 57 e0 71 3a 81 92 97 38
       0.00030566516 9.01703e-05 0.00092268497 7.2275296e-05
000200 f4 5d e0 3b 08 65 e4 39 d9 a9 63 38 ae ce 8f 39
       0.0068471376 0.00043562823 5.42792e-05 0.00027429074
000210 5c 3a 0e 38 3f c5 86 3b 48 e7 87 39 50 bd 16 37
       3.390979e-05 0.004112869 0.00025921525 8.9847745e-06
000220 3d b8 42 38 a7 7c df 36 53 3c b8 39 a8 9b 3c 38
       4.642479e-05 6.6604293e-06 0.0003514016 4.496766e-05
000230 11 dd 9c 37 f1 4c a5 38 b7 12 d5 36 22 51 9f 3a
       1.8699591e-05 7.8821446e-05 6.3500734e-06 0.0012154917
000240 4f 70 7e 38 38 1f 02 37 e1 bb 7c 38 e3 e4 ef 36
       6.0662915e-05 7.7558725e-06 6.0256458e-05 7.149401e-06
000250 47 2b a9 39 a2 69 02 38 3b 9b a6 38 86 8c 9d 39
       0.00032266436 3.1092794e-05 7.944411e-05 0.00030050072
000260 ef 3b e9 37 bd 18 7c 3b 25 72 71 39 4e e3 26 39
       2.7803673e-05 0.0038466894 0.00023026073 0.00015915671
000270 22 1b 24 3a df 39 86 38 f4 99 f8 3b 5c 83 f5 39
       0.00062601466 6.400397e-05 0.007586712 0.00046827912
000280 36 18 bc 37 13 a2 d3 38 24 b0 70 37 51 88 bb 3a
       2.242262e-05 0.00010091453 1.4346126e-05 0.0014307593
000290 ea 38 b6 38 f1 c5 1f 38 fa c5 28 39 f1 5d db 37
       8.689037e-05 3.80929e-05 0.0001609548 2.615058e-05
0002a0 f6 97 0b 3b f4 2e 1f 39 2a 39 33 38 aa 11 47 39
       0.0021300293 0.00015180913 4.2730164e-05 0.000189847
0002b0 52 63 bd 37 c3 00 dc 3a a4 70 08 39 48 81 6f 37
       2.2576805e-05 0.0016784895 0.00013011933 1.4275611e-05
0002c0 84 44 d9 38 5c a7 23 37 fa 4f 80 3a af 5f ab 38
       0.00010360128 9.7545235e-06 0.000978946 8.171738e-05
0002d0 af cd 65 37 ee 45 c7 38 99 f4 8d 37 b0 08 7b 3a
       1.3697353e-05 9.502085e-05 1.692241e-05 0.00095761847
0002e0 1c e1 d3 38 35 cb 9c 38 ba 17 a0 39 bf cd 11 38
       0.00010103194 7.47651e-05 0.00030535256 3.476231e-05
0002f0 aa b7 6d 3b 4f 5f 8a 39 7d 56 b7 37 ef d2 28 39
       0.0036272802 0.00026392422 2.1855574e-05 0.00016100307
000300 9c 74 95 37 d4 2f 8b 3a eb ed b3 38 05 3e 90 38
       1.7816485e-05 0.0010619112 8.579701e-05 6.878007e-05
000310 8e 0b df 39 ab a7 63 38 c7 b8 8d 3b 0b 3a b1 39
       0.00042542483 5.427717e-05 0.0043250057 0.00033803316
000320 a8 59 34 37 58 03 5c 38 97 72 ce 36 fe 88 af 39
       1.0749711e-05 5.24552e-05 6.1526184e-06 0.00033480668
000330 e7 d0 f5 37 11 4b 55 39 cd ed ba 3a 62 da 23 39
       2.9303554e-05 0.00020341227 0.0014261544 0.00015626245
000340 df 57 6c 3c db 2b 7f 3a e4 65 0a 38 10 48 66 39
       0.014425247 0.0009734013 3.2996657e-05 0.00021961355
000350 08 89 fd 37 9d 86 19 3b 9e c2 26 39 0b 72 ce 38
       3.022376e-05 0.0023426183 0.00015903494 9.8440876e-05
000360 b2 54 c2 39 47 4e ea 37 b4 17 ca 3b f1 ed a5 39
       0.00037065666 2.7931424e-05 0.0061673764 0.00031648533
000370 b2 c2 92 36 0a fd c8 37 ec 96 b1 36 3f 17 74 39
       4.3738046e-06 2.3959688e-05 5.2925807e-06 0.00023278313
000380 fe d3 0e 38 68 ee 5b 38 bb 95 98 39 43 68 e8 37
       3.405287e-05 5.2435702e-05 0.00029103257 2.7705106e-05
000390 a9 c7 d3 3a 86 ba f8 38 fe 2d 21 37 b7 86 31 38
       0.0016157526 0.00011860304 9.607056e-06 4.232555e-05
0003a0 a3 41 10 37 59 ec b7 39 cc 1b 1b 38 1a 64 ef 38
       8.598351e-06 0.00035080573 3.6980768e-05 0.000114150535
0003b0 6a 9d d4 39 06 ff 32 38 8f 48 c0 3b 01 80 c0 39
       0.00040553074 4.2676016e-05 0.0058680247 0.00036716464
0003c0 51 7e 70 37 43 90 98 38 88 a0 53 37 4a 1d 85 3a
       1.4334525e-05 7.274796e-05 1.2613957e-05 0.0010155824
0003d0 5b 9b a1 38 00 39 36 38 15 b3 a3 39 f1 7b 0a 38
       7.7060155e-05 4.3445267e-05 0.0003122321 3.3017193e-05
0003e0 3c a9 3b 3b b2 f2 38 39 60 52 5d 37 0c a7 ff 38
       0.0028634807 0.00017638018 1.3191806e-05 0.000121904624
0003f0 c0 13 4e 37 65 6e 3d 3a 7e 11 cf 38 d0 49 32 38
       1.2283155e-05 0.0007226228 9.873787e-05 4.250725e-05

exp_avg f4 [128]
000000 9b cd 49 39 57 1c 3b 39 ab f4 a2 b8 f0 f8 24 b9
       0.00019245448 0.00017844267 -7.770335e-05 -0.00015732995
000010 46 f5 66 ba 30 6b 8d 39 ef ef f0 b8 45 60 71 3a
       -0.00088103523 0.00026973477 -0.00011488783 0.00092077657
000020 33 3b a5 39 9a 67 14 39 a5 33 3f ba 41 51 08 39
       0.0003151536 0.00014152974 -0.00072937674 0.0001300024
000030 29 5b d7 39 08 e7 93 39 89 d3 01 b9 19 68 b2 b6
       0.00041075915 0.00028210157 -0.00012381202 -5.316932e-06
000040 ce b0 83 38 aa 28 31 ba e2 57 b8 38 65 5e 4d ba
       6.279499e-05 -0.00067580736 8.790173e-05 -0.0007834195
000050 62 cb 2d b9 a5 70 af b9 55 20 a6 37 4d 32 38 ba
       -0.00016574332 -0.00033462528 1.9803798e-05 -0.00070265384
000060 eb 6a 2f b9 88 28 a1 39 b4 64 40 3a 94 40 9d b8
       -0.0001672913 0.0003073851 0.00073392247 -7.498372e-05
000070 12 4d a8 38 f8 14 fc 36 eb 98 ab ba 86 56 15 ba
       8.02522e-05 7.5126263e-06 -0.0013091838 -0.0005696792
000080 56 f1 6a b9 95 d5 09 ba a6 e4 bc b9 28 a4 27 b9
       -0.00022405884 -0.00052579615 -0.0003602851 -0.00015987514
000090 4c 17 7c b7 c7 35 57 b9 4c d0 06 3a 66 7a 45 3a
       -1.5025795e-05 -0.00020524031 0.0005142733 0.00075331924
0000a0 b3 78 39 b9 0a 82 b0 ba b1 8c f4 b9 e8 c8 2f 3a
       -0.00017687939 -0.0013466489 -0.0004664413 0.00067056576
0000b0 f5 80 a4 b9 77 31 dc b8 41 3a 0e ba f2 95 c8 b7
       -0.00031376598 -0.00010499631 -0.00054255506 -2.3911682e-05
0000c0 28 21 b2 39 85 ff 63 3a 2d e2 b0 39 c8 8f a4 39
       0.0003397551 0.0008697438 0.0003373785 0.00031387643
0000d0 c0 3a c7 b9 d2 13 5d 39 de 91 1c 3a 03 83 21 ba
       -0.0003800001 0.00021083586 0.00059726636 -0.0006161185
0000e0 fe f8 85 ba c5 bc 30 ba c5 a6 ec 38 b6 05 1d 39
       -0.00102213 -0.0006741996 0.0001128442 0.00014974814
0000f0 1b f4 87 ba 57 cb 25 b9 67 a0 13 ba a4 4a ea b9
       -0.0010372432 -0.00015811376 -0.0005631507 -0.0004468757
000100 39 db 07 ba 08 c9 3d 3a ac c9 3a 3a b7 9d c8 39
       -0.0005182508 0.0007239734 0.00071253884 0.0003826448
000110 57 56 78 b8 3d 04 b8 b8 10 fd 55 ba 13 5e bd ba
       -5.9208218e-05 -8.774593e-05 -0.00081630144 -0.0014447592
000120 e1 6c 93 39 e8 22 79 b8 4c 82 c1 39 8a 2b 79 b9
       0.00028119146 -5.9398735e-05 0.00036908907 -0.0002376271
000130 30 41 fc b9 8f eb e4 39 c1 c7 2a 3a ea db 1b 39
       -0.00048113754 0.00043663054 0.0006514751 0.00014863876
000140 14 ca db b9 76 b0 27 ba aa 8f ca 39 fd 3c 54 39
       -0.00041921495 -0.0006396839 0.0003863548 0.00020240615
000150 9e 7c 77 38 a6 41 cf ba 60 8c 9a 39 80 ce 98 3a
       5.9005448e-05 -0.0015812411 0.00029477756 0.0011658221
000160 0c e9 98 b9 f2 dd 61 38 6a 34 2a 39 cc 79 40 b9
       -0.00029165333 5.3850883e-05 0.00016231989 -0.0001835592
000170 7e 0b b3 39 cc 4c 30 3a f9 c5 a9 ba 28 64 43 ba
       0.00034150103 0.0006725311 -0.0012952677 -0.0007453584
000180 ea f4 88 37 e3 21 a1 b9 1b e4 90 b8 74 1d 82 ba
       1.632651e-05 -0.0003073356 -6.908943e-05 -0.0009926991
000190 af d6 35 b9 78 95 36 b8 c3 b2 22 ba a7 eb 85 ba
       -0.00017341481 -4.3531385e-05 -0.0006206447 -0.0010217325
0001a0 8a 57 a6 36 6c df 38 39 79 6c 12 39 16 87 91 37
       4.9573764e-06 0.00017630839 0.00013964054 1.7348251e-05
0001b0 b8 8c 0c ba 09 29 f3 b8 b5 82 7d b9 2d d8 b3 37
       -0.0005361545 -0.00011594786 -0.00024176652 2.1439128e-05
0001c0 3d 2a da 39 08 07 81 b9 71 28 a3 b8 d9 74 57 b9
       0.0004161167 -0.00024610036 -7.7799785e-05 -0.00020547527
0001d0 6a 3f ac 38 e2 fc e5 b9 79 bd b5 37 de ed 67 b7
       8.213411e-05 -0.00043866696 2.1665111e-05 -1.3824056e-05
0001e0 39 8d cb b9 ae 40 14 39 24 9d 4b b6 d4 1a 74 b7
       -0.00038824396 0.00014138475 -3.0340825e-06 -1.454978e-05
0001f0 9d 99 82 ba 88 ea 35 b9 9b 0e 2d 39 5d 33 b1 39
       -0.0009963993 -0.00017348875 0.00016504007 0.0003379834

exp_avg_sq f4 [128]
000000 23 78 01 38 77 56 0e 37 f7 b3 99 37 cf 26 f4 35
       3.0867883e-05 8.483991e-06 1.8322824e-05 1.8190711e-06
000010 84 69 62 38 3e b6 e9 36 30 36 d0 36 2f 6c d5 37
       5.3980868e-05 6.965157e-06 6.2051913e-06 2.5441956e-05
000020 75 33 1a 38 fc 41 00 37 e2 12 23 37 c4 15 9e 36
       3.6764384e-05 7.644758e-06 9.719954e-06 4.711301e-06
000030 50 90 a0 36 75 53 e9 35 9c 94 d1 37 c7 3a 30 36
       4.7851718e-06 1.7384142e-06 2.4983943e-05 2.6260257e-06
000040 10 1a 41 36 51 55 f0 36 27 27 12 36 69 91 5c 38
       2.8774411e-06 7.1624895e-06 2.1778485e-06 5.258751e-05
000050 7f ae a2 36 6b 49 0a 37 79 09 12 36 04 c5 05 37
       4.8482902e-06 8.242535e-06 2.176121e-06 7.973289e-06
000060 21 30 c1 37 d6 33 10 38 35 62 9c 37 d7 f9 29 36
       2.3029805e-05 3.438055e-05 1.864238e-05 2.5328388e-06
000070 48 3e c3 36 20 9e 05 36 c5 64 ad 37 49 08 36 38
       5.8187034e-06 1.9910585e-06 2.0670132e-05 4.3399898e-05
000080 f4 2e ea 36 3e 34 46 37 ff 30 36 37 14 06 a4 36
       6.9792095e-06 1.1813883e-05 1.0859453e-05 4.8882885e-06
000090 85 48 c8 36 36 28 c0 37 e9 bb d3 36 7b ca c1 37
       5.968907e-06 2.2906908e-05 6.3101656e-06 2.310168e-05
0000a0 ef d9 16 36 a1 b4 96 38 85 df 44 37 00 23 f2 37
       2.2478596e-06 7.186202e-05 1.1734553e-05 2.8864946e-05
0000b0 01 55 b9 35 8c 71 3e 37 16 37 19 36 1a b1 fd 37
       1.3808313e-06 1.135132e-05 2.283084e-06 3.024242e-05
0000c0 53 a5 9b 36 32 66 6e 37 f4 4d 8f 36 da 2b 6a 37
       4.6386062e-06 1.42097e-05 4.270807e-06 1.3957697e-05
0000d0 0f 44 c3 35 7f ff c0 35 cf 57 ab 37 8b 97 7f 38
       1.454844e-06 1.4379474e-06 2.0425678e-05 6.0937873e-05
0000e0 8c 0c a1 37 7a 10 64 38 28 8e 62 36 ff c5 b5 35
       1.9198538e-05 5.437478e-05 3.375937e-06 1.3543175e-06
0000f0 5b 44 ff 37 9b 36 ab 37 5a 35 21 36 a3 19 d8 36
       3.04302e-05 2.0410216e-05 2.4021924e-06 6.440286e-06
000100 47 00 6a 37 a3 67 22 38 7f ef 5c 38 23 d3 82 37
       1.3947551e-05 3.872033e-05 5.2675136e-05 1.5595526e-05
000110 a5 92 6b 36 8c 9f c2 36 21 e0 f1 37 eb e7 d5 38
       3.5103087e-06 5.8002242e-06 2.8833807e-05 0.000101998296
000120 ed 41 dc 35 d8 24 23 36 bb fc d4 37 63 47 07 37
       1.6410464e-06 2.4310339e-06 2.5390056e-05 8.063248e-06
000130 7f cd 59 37 2f 29 72 37 ca 09 0c 38 bb f6 4e 36
       1.2982054e-05 1.4433913e-05 3.3387718e-05 3.0840008e-06
000140 4f 27 af 36 a0 31 17 37 cf 0c d7 36 9e af ed 36
       5.2199825e-06 9.011856e-06 6.4089904e-06 7.083595e-06
000150 16 c4 bc 36 61 2c 20 38 67 c9 26 37 90 64 da 37
       5.625664e-06 3.8188304e-05 9.941264e-06 2.6034453e-05
000160 94 27 58 37 54 34 f0 35 d9 da fd 37 ca c7 67 36
       1.2883818e-05 1.7896623e-06 3.026186e-05 3.4537975e-06
000170 38 63 3f 36 56 0c da 37 57 9f 22 38 a6 06 8f 38
       2.851897e-06 2.599337e-05 3.8772207e-05 6.82001e-05
000180 86 57 f3 35 33 01 99 36 cd b0 ac 36 a6 45 a8 37
       1.8130384e-06 4.559895e-06 5.1465818e-06 2.0059593e-05
000190 3e ad 80 36 ca 22 b9 35 b6 90 09 37 17 7d 0b 37
       3.8348653e-06 1.3793699e-06 8.1995295e-06 8.31417e-06
0001a0 68 4d 9c 36 1e b1 85 36 4b 85 c2 36 f8 ac a4 35
       4.6581736e-06 3.984328e-06 5.797168e-06 1.2269293e-06
0001b0 c7 b7 76 36 b1 63 a4 36 45 72 36 36 65 64 24 37
       3.676383e-06 4.8991865e-06 2.7186627e-06 9.798537e-06
0001c0 e6 dc 89 36 39 0a b2 36 53 ac c8 35 1b 29 ce 35
       4.108634e-06 5.3060035e-06 1.4951314e-06 1.5360159e-06
0001d0 a5 bf dc 36 18 28 1d 37 43 3e 0a 36 bc ba b5 35
       6.5788213e-06 9.367264e-06 2.0599844e-06 1.3539898e-06
0001e0 a4 be e0 36 36 e6 05 37 5d cc 6d 35 fd b2 1b 37
       6.6979137e-06 7.981018e-06 8.858677e-07 9.280394e-06
0001f0 98 56 cd 36 ca 67 f7 37 d7 58 ed 35 9b 3c 7a 37
       6.119557e-06 2.9493025e-05 1.7683732e-06 1.4915272e-05
