Assets/IA/Pruebas/results/Pad21/PadBehavior.onnx (onnx, 74066 bytes, 5 tensors)

network_body._body_endoder.seq_layers.0.weight f4 [128, 5]
00000000: 3c24 dc3e c521 313e f751 dd3e a947 28bf
00000010: 993b bcbe 586e b2bd 6b13 f63d 5cfc 993d
00000020: 4143 16bf e2cf 043f 25a3 8cbf 7d4b ccbe
00000030: 716e b13e 9323 c03c 62fa 6cbe 61af e23d
00000040: d941 16be 9b23 ed3e b9bf 35bc 8501 48be
00000050: 8a7f adbe 1fa8 88be 0956 873e 4eb0 b23d
00000060: 0988 be3e 0ad7 863e 4ab9 cfbd 9b3b 43be
00000070: 7f4e 943e 6430 9f3d 70c0 09bf 2c66 0d3f
00000080: b31c 53bf 175c aebd 9ac7 97be cfd4 2e3f
00000090: 63a7 053d f380 19bf d3d6 133e 3a63 ad3d
000000a0: e93b 203f 54d5 eabd f9f6 55bf ef68 9bbe
000000b0: c961 1fbd b145 893e 15ad 79bc 6f4e cd3d
000000c0: f43d 673e eb72 d6be 60bb e3be a8e2 28bf
000000d0: ed64 71bf 7a98 6bbe 5627 1d3f fa09 513e
000000e0: a324 533e 52db 25be b4bb 433f 614c 3ebd
000000f0: 1b26 7e3f 2c2f 2cbe f725 8b3e 7f12 4a3e
00000100: b0f6 d1be adc8 a2be 1a7b 763c e96e 003e
00000110: 57f0 b33d 9956 573f 1d77 69be 4239 603d
00000120: f846 393d f7a4 c43d ba61 c4bf 40fd 16bf
00000130: 5ff6 363e 76d7 bfbe 07bf ae3e b0db adbe
00000140: 5239 2b3f 0181 d33e b3e4 fcbe a468 68be
00000150: ca82 2f3f 530a 28bf a9e1 20be f22b de3d
00000160: 4781 2d3d bb25 b53e 38fd 48bd ff83 923e
00000170: 2a99 883e 2998 76be 1f48 593e 5ec9 ba3e
00000180: 313d 633e 7db7 af3c 09ae dd3e c016 4fbf
00000190: aeff 85be 80f1 cc3e 9ab0 32be 7c3e 77bc
000001a0: ce1e 3c3f 9463 7bbe 23d5 07bd 6e8d 763d
000001b0: b7e4 883f f577 1f3f 87e8 0bbf 3dd5 8dbe
000001c0: 12f0 34be 00cc 533f 9bd3 563e 637a e0be
000001d0: a72c 19bf 1b8a 83bf 33db 313f 54db ef3d
000001e0: 89a1 11ba 76f8 d43d de75 3d3e d73f 603f
000001f0: 62d7 48bd 333f ec3e 231c 43be 3210 04bd
00000200: fe97 bd3e 85a7 c13e 9ade 6f3f bed5 21bf
00000210: 9368 7cbe 4107 983d 5526 0abf f4a8 3f3d
00000220: 84dc 0f3f 1179 e43b f3d7 4dbf 75a6 6dbd
00000230: 49be d23c 4a53 ec3e 2b13 a43e 38e0 aabe
00000240: 2f3e f23e 7ff6 8cbc bf45 843f 853e 33bc
00000250: be78 cfbd 6e9a a23e e75a 473e e7a7 55bf
00000260: 33b6 213e a2bc 44be ec8e 8bbc a3d0 1abf
00000270: 9a1c c1bd 3acf d83c 1829 5fbd f40d 01bf
00000280: 9685 cfbd d843 fcbd 6f8a 253e 8eb8 e83d
00000290: 9e3d ba3e 5ab8 7cbd 4563 173f c1b8 2cbe
000002a0: c007 313f 631b 56be 0b46 2abe 416e 4dbf
000002b0: 4b08 de3e 850e 003f 5e3c b83d 5723 613f
000002c0: a4a1 9dbe 58d0 1b3f ba0b 1c3f c993 2abf
000002d0: 75e2 683f b657 23bf a1e3 7c3e dd34 6bbd
000002e0: bc41 8dbe f00f a2be 1437 123f 65a4 873d
000002f0: f1e5 6c3f 2189 84be 8213 833d e9f9 a5be
00000300: 10d3 a63d 655b 88be 76d5 b9bd 0957 9d3e
00000310: 7d57 003d e512 8cbe 5910 ab3e ab84 453d
00000320: f7c6 b7be 38a3 03bf 6147 82bd 974c 5abe
00000330: 53d7 213f 3fbe 1ebe b8da 92be 472a 85bf
00000340: 1748 a0bf e020 1ebf e6c3 e63e 7d86 0b3f
00000350: ea9b b03e c123 84be 1570 3e3e 88f8 df3e
00000360: b411 7b3e 2490 583f 9a60 9abe 1db9 453f
00000370: 62d2 22be 72ca dcbd 5477 d8be 03ff 953e
00000380: 984f dabe cc5c 2a3e 7565 083e 85b9 8e3d
00000390: 0754 b3be f5e4 07be b43f 20be 2f24 ea3b
000003a0: bd57 58bf 2cb4 ab3e 5016 583e b191 cfbd
000003b0: add0 a8bd 65de 50bd 3235 66be dd82 c83e
000003c0: 4a74 683e 6850 31bf 01c9 94be e811 8dbe
000003d0: b62a 13bf 777d 49be 54bd 49bd e754 e43e
000003e0: 0cd1 53bf b49c 973e 05ee 933e db1e 5ebe
000003f0: cb58 adbe fc89 8f3e a721 67be 3c5e 0bbf
0.42996395 0.17298038 0.43226597 -0.65734345 -0.3676422 -0.08712453 0.120154224 0.07518837
-0.5869637 0.51879704 -1.0987288 -0.39901343 0.34654573 0.023454463 -0.23142388 0.11068607
-0.14673556 0.46316227 -0.0110930735 -0.1953183 -0.33886367 -0.26690766 0.26432827 0.08725034
0.37213162 0.26335937 -0.10142763 -0.19065706 0.28966138 0.07772902 -0.5380926 0.55234027
-0.82465667 -0.085136585 -0.2964447 0.6829347 0.032630336 -0.59962386 0.14437418 0.084661916
0.62591416 -0.1146647 -0.83579975 -0.30353495 -0.038911615 0.26810983 -0.01523902 0.10024726
0.22582227 -0.4188455 -0.44478893 -0.6597085 -0.94294626 -0.23007384 0.61388147 0.20413962
0.20619445 -0.16196945 0.7645829 -0.04645956 0.99276894 -0.1681487 0.27177402 0.19733618
-0.4100852 -0.31793728 0.015043998 0.12542309 0.087860756 0.8411651 -0.22799344 0.054742105
0.045233697 0.09601777 -1.5342324 -0.5898018 0.1786742 -0.3746907 0.34130117 -0.3395667
0.6688434 0.4130936 -0.49393234 -0.22696167 0.68558943 -0.65640754 -0.15711083 0.10848226
0.042359617 0.3538035 -0.049069613 0.2861633 0.26679355 -0.24081482 0.21218918 0.36481756
0.22191311 0.021449799 0.4329684 -0.8089409 -0.2617163 0.40028 -0.1745018 -0.015090581
0.73484504 -0.24549705 -0.033162247 0.06019347 1.0694798 0.62292415 -0.54651684 -0.2770175
-0.17669705 0.82733154 0.20979159 -0.43843374 -0.5983376 -1.0276521 0.69475096 0.117117554
-0.00055553816 0.10398953 0.18501994 0.8759741 -0.04903353 0.46141967 -0.19053702 -0.032242008
0.37030023 0.3782312 0.9369904 -0.6321677 -0.24649267 0.074232586 -0.5396474 0.046791986
0.56195855 0.00697244 -0.8040764 -0.058020074 0.0257255 0.46157295 0.32045874 -0.3337419
0.47313067 -0.017207382 1.0333785 -0.010940199 -0.101304516 0.31758446 0.1946827 -0.83459324
0.1579216 -0.19212583 -0.017035924 -0.60474604 -0.094292834 0.026466 -0.05448255 -0.50411916
-0.10132901 -0.12317628 0.1616609 0.11363326 0.36375135 -0.06169925 0.5913585 -0.16867353
0.6915245 -0.20908885 -0.16628282 -0.8024636 0.43365702 0.50022155 0.08995889 0.8794455
-0.30787385 0.6086478 0.60955393 -0.6663175 0.90970546 -0.6380571 0.24696209 -0.05742346
-0.27589214 -0.31652784 0.5711529 0.06623153 0.9253836 -0.2588587 0.06400205 -0.3241723
0.08145726 -0.26632228 -0.090739176 0.30730465 0.031333435 -0.27358165 0.3341091 0.048222225
-0.35893986 -0.5142093 -0.06361271 -0.21318279 0.63219184 -0.1550226 -0.28682494 -1.0403527
-1.2522 -0.61768913 0.45071334 0.5450209 0.34493953 -0.25808528 0.18597443 0.43744302
0.24518472 0.8459494 -0.30151826 0.77235585 -0.15900567 -0.10780801 -0.4227854 0.2929612
-0.4263885 0.16636962 0.13319953 0.06968979 -0.35025045 -0.13270934 -0.15649301 0.0071454267
-0.8450888 0.33535898 0.21102262 -0.1013521 -0.08242927 -0.050993342 -0.2248123 0.3916234
0.22700611 -0.69263315 -0.29059604 -0.27552724 -0.57487047 -0.19676767 -0.049252823 0.44596025
-0.82740855 0.29611742 0.28892532 -0.21691458 -0.33856806 0.2803496 -0.22571431 -0.54440665

network_body._body_endoder.seq_layers.0.bias f4 [128]
00000000: 1f34 843b fd62 7ebc 0865 0a3b 2419 d3bb
00000010: e527 45bc 6964 80bb 78e6 d9bb 03fa 483c
00000020: c192 21bc 08a5 373b 8541 48b9 8e17 8fbc
00000030: 6d9e 3cbc 4bd4 86bb a14e 6bbc f847 3f3b
00000040: b08d a63b 1c03 5f3b 39fd f83b 3fce 69bc
00000050: 9591 96bc 4bb0 4ebb 4b21 20bb 94a0 8ebc
00000060: 8f36 6ebc 36a1 cebc c9ba c1bc 8f3c 06bb
00000070: 98bc 353c b82f 46bc fbfc d0bb 050a 07bb
00000080: 7424 06bc 9acb 15bc 73b2 823c 8951 b83b
00000090: 6f73 8ebc 9ba7 61bc a908 033c 472a cebb
000000a0: 4f80 123b 8802 7abc 0b20 b73c 63a1 22bc
000000b0: d231 7cbc 8dfb 27bc 8f92 e0ba 0cfa a7bc
000000c0: ab3a 9ebc a804 58bc e066 64bc ea9e 253c
000000d0: 8f9d 70bc 3d4d b5bc 2e1a 9cbc 32a3 bc3c
000000e0: a258 b33b 2591 80bc 028b 6239 9df1 82bc
000000f0: cb6a 8dbb e167 903c 2b90 3fbc 718b 81bb
00000100: 8ecb 30bc 4ab4 a9bb 1089 3b3b 833e 533c
00000110: 408d d3bc 445d 2d39 4f84 17bc c8a5 c5ba
00000120: d228 a6bc 3786 babb e931 2ebc 50ec 64bb
00000130: 1d47 89bc c21b b1bb 30cf 3ebc c8b6 8ebc
00000140: 3053 003b c6cb 17bc 3e28 153c b0d0 ae3c
00000150: bb5d b5bb 683a 7ebb e256 79bc 7570 2a3c
00000160: c197 473c 5183 f9ba e915 36bc 9e1f 193b
00000170: f9d5 39bc 6d9d 3bbc b59a 54bc 9ec4 7f3c
00000180: c83c 40bc 727d d83b f089 0dbc ec72 6bbc
00000190: b365 013c c92b fe3b 50ab a6ba 1562 a8bc
000001a0: 0ac9 8dba 5b4d 5dbc b677 8939 4c10 f53b
000001b0: c8e2 8abc b630 02bc 7ad7 c43a 57c4 e1bc
000001c0: 6d1b 94bc 88df edbb 745a e6bb 75d4 24bb
000001d0: ce9e dfbb 1fe4 a3bb 52ac b4bc 8989 60bc
000001e0: 72bb 313c 7ddd 693a 4ac5 493a 2a53 ecba
000001f0: 8e14 19bd 05a8 8a3b 4817 9fbb 2a45 a3bc
0.0040345336 -0.01552653 0.0021117348 -0.006442206 -0.012033437 -0.00391822 -0.0066497885 0.012266639
-0.009861649 0.002802195 -0.00019097894 -0.017467286 -0.011512381 -0.0041146628 -0.014362008 0.0029187184
0.0050828084 0.0034028953 0.007598546 -0.014270364 -0.018379966 -0.0031538184 -0.0024433907 -0.017410554
-0.014539375 -0.025223356 -0.023648636 -0.0020482873 0.011092328 -0.012096338 -0.006377814 -0.0020605337
-0.008187402 -0.009142781 0.015954232 0.005624954 -0.017389027 -0.01377287 0.00799767 -0.006291661
0.002235431 -0.015259393 0.022354146 -0.009926173 -0.015392737 -0.0102528455 -0.0017133522 -0.020504974
-0.019315084 -0.013184704 -0.013940543 0.010108689 -0.014686002 -0.022131557 -0.019055452 0.023027036
0.0054732123 -0.01569421 0.00021604824 -0.01598435 -0.004315709 0.017627658 -0.011692087 -0.0039533903
-0.010790719 -0.005178963 0.002861563 0.012893322 -0.02582419 0.0001653331 -0.009247853 -0.0015079314
-0.020283137 -0.005692269 -0.010632017 -0.0034930892 -0.016757542 -0.0054049203 -0.011646077 -0.017421141
0.0019580834 -0.009264892 0.009103833 0.021339744 -0.005534855 -0.0038792137 -0.015218468 0.010402788
0.012182177 -0.0019036328 -0.011113622 0.0023364793 -0.011342519 -0.011451107 -0.012976338 0.015610842
-0.011733241 0.006606751 -0.008638844 -0.014370661 0.007897782 0.0077566844 -0.001271585 -0.020554582
-0.0010817361 -0.0135072125 0.00026219868 0.0074787494 -0.01695384 -0.007946184 0.001501783 -0.027559442
-0.018079484 -0.007259313 -0.007029826 -0.0025151048 -0.006824351 -0.0050015594 -0.022054825 -0.013704666
0.010847913 0.0008921249 0.000769694 -0.0018030156 -0.037373118 0.0042314553 -0.0048550703 -0.019930441

network_body._body_endoder.seq_layers.2.weight f4 [128, 128]
00000000: 2607 e33c 8e31 7e3e 502c 36be d9f4 2e3d
00000010: fa13 0fbd ed5d d9bc c609 ac3c aff4 ab3d
00000020: ccec 24bd 3a2f dfbd 9688 cabc 429d 823c
00000030: e9cc 013d 4840 0cbd 2619 8cbb 1cc1 2c3d
00000040: 04da cebd a3fd f8bc d4fa 383e 9217 dd3c
00000050: 0d9a 8abc 2291 34bd b31a 923c 4258 b03b
00000060: 0c71 c43c c067 dfbd dd5d 44bd e6e0 01be
00000070: ac20 943d fa8b b7bd d6b6 1ebc 2b60 ddbd
00000080: b81a 893d b384 053d 92d6 e7bd bacf 9c3c
00000090: e48d ae3c 626c b93d 0e3d 3a3e 23a0 a0bd
000000a0: 7b7e c33d a891 173d 9692 8f3a 9d3f efbc
000000b0: 91c5 653d b4c7 c0bd 3c2e e8bd 62da 12bd
000000c0: a963 943d 3a26 bebd 723e d2bd a89f 3c3d
000000d0: 5467 7ebd 1225 ffbd 943b 9c3d 7e7e d5bd
000000e0: 6aac 42bd ef78 173d deca bd3d 01f7 ff3c
000000f0: a1a2 ab3b ccea 303d 8d70 3c3d 41ee cfbd
00000100: 12b0 b7bc 804e f73a c762 003e 7dde ea3b
00000110: 657b 7bbd 9a0c 03bd 8d28 813d ab76 2f3d
00000120: 3dd2 9e3d 865e ef3d 8f7f 66be 5abb 9e3c
00000130: 8539 85bd a488 08bd e21c 1bbd 88b3 bfbc
00000140: 6e00 493e 8bdf a23d fdd8 adbc 5820 d7bb
00000150: d43c 803e d8d1 1c3e e06a 923d 2be3 c53d
00000160: 4e5d ba3d 6de1 7b3d 0bfd 583d ef94 fcbd
00000170: 5a46 803d fefb fabc 68fc c7bd b613 223e
00000180: 9be7 ce3d db90 db3d 6647 d53c 1ed3 ec3d
00000190: 4bf0 fc3c ebf5 63be f2b6 49bd 81b3 623d
000001a0: b8f0 f1bd 2338 dabc ed84 0b3e 013c 61bd
000001b0: 4b67 8a3d b6bf 813d 15f0 7a3d 0738 373c
000001c0: b623 823d e23b b3bd 2abf 663d 4076 17be
000001d0: bca0 d33d bfce 0cbb 84d6 c5bd ae73 d23d
000001e0: e221 d9bd e535 edbd 3939 683d b7af 803c
000001f0: 5e36 cabd 9d73 8839 9e93 0bbd f910 87bd
00000200: 23b5 873d d22a 97bd 4f61 cd3d fc85 303e
00000210: 0ca9 19bd 6953 9c3d 0c43 a9bc ca39 89bd
00000220: 0c58 47be d4fa 253e c816 103c 2ea4 ccbd
00000230: e366 55bd d10d 273d 224b debd 39db aa3d
00000240: 5886 823d dc0e 8f3d c540 4bbe 0034 293d
00000250: eb39 82bc 59b9 133e a0dd ba3c 1a93 933d
00000260: 0a71 8db8 3b3d 3f3d aa0d 01bd 19a4 fbbc
00000270: de4c 4b3d d2be f8bd cf39 8b3d 316d 18bd
00000280: f95d 69bd 0bbd 3bbd 81d5 b73c c851 2dbe
00000290: 6fff bfbd 68d0 a3bd ea03 3b3e 6542 c4bb
000002a0: 788c 18be 759d c73c 5395 073e e736 233d
000002b0: 879b a9bd 7c86 d7bd 146e 0b3e f979 943d
000002c0: dd0d e33b 93fa 0d3d 129d 583e 739b 9dbc
000002d0: 0d56 b03d b883 093e 1af3 9e3d 52e3 d33d
000002e0: dcc9 afbd a74d 86bd d1ea 06be acd4 a5bd
000002f0: 6b73 c4bd d125 04be 4d62 1a3e 2939 8f3d
00000300: b440 2dbd fe3c 1ebe a03f 73be a363 003d
00000310: d536 b6bc 295a a93d 81ca 05be 6e15 353b
00000320: ef78 15bd e448 08be a940 34be fd87 4cbe
00000330: 7f6f 00be a09e 02bd 2f0d d43c 908d 2b3d
00000340: 2403 223d 7261 803d f629 663e b7a0 593c
00000350: 3d88 673d 5829 29be 275f 68bd b3c9 683d
00000360: 2d56 16bd f7f8 943d f256 8dbc 5956 08bb
00000370: 2f86 8c3c e701 883d e018 9fbd c4b9 f2bd
00000380: a7d2 c1bd 4125 b33c 1ec1 273e 4331 013d
00000390: 0273 29be 1aa1 98bc 8990 c83c 43d7 19bd
000003a0: f63e aabd 70e4 64be ea3f 80bd 5b32 54bc
000003b0: 34a8 1c3d 85fc b33d 7945 453e c688 be3d
000003c0: 3ad1 d2bd 641c 82bd e25a fb3c cca6 efbd
000003d0: ffb0 843b 6041 abbb a342 8e3d 52f8 adbc
000003e0: 16d5 33bd aa76 963d 41b8 c13d cdbc 35bc
000003f0: b4b8 4dbd 0a12 c3bd 34ae 83bc b9db f83b
0.02771337 0.24823591 -0.17790341 0.042713974 -0.03493116 -0.026534045 0.021000754 0.08396279
-0.04026489 -0.108976796 -0.024723332 0.015944127 0.03168956 -0.03424099 -0.004275459 0.04217635
-0.10100177 -0.03039438 0.18064433 0.026988778 -0.01691916 -0.044083722 0.017834997 0.005381615
0.023979686 -0.109084606 -0.047941078 -0.12683448 0.07232794 -0.08962245 -0.009687146 -0.10809358
0.06694549 0.032597255 -0.11320223 0.01914202 0.021307893 0.090538755 0.18187353 -0.07843044
0.095456086 0.037004143 0.001095372 -0.029205138 0.056096617 -0.0941309 -0.113369435 -0.035852797
0.07245571 -0.09284635 -0.10265817 0.046050698 -0.06211026 -0.124582425 0.07628551 -0.10424517
-0.047527708 0.036980566 0.092672095 0.03124571 0.0052378927 0.04319267 0.046005774 -0.10152865
-0.022422824 0.0018867999 0.1253768 0.007167636 -0.061396975 -0.03199444 0.063065626 0.04283778
0.077549435 0.11687951 -0.22509597 0.019376446 -0.065051116 -0.033333436 -0.03786934 -0.023401037
0.1962907 0.07952794 -0.021221632 -0.006565135 0.25046408 0.15314424 0.07149291 0.096624695
0.09099828 0.06149428 0.052975696 -0.12333094 0.062634185 -0.030637737 -0.097649395 0.15827832
0.10102769 0.10720988 0.026035022 0.11563705 0.0308763 -0.22261779 -0.049246736 0.05534697
-0.118134916 -0.026638096 0.13624926 -0.054988865 0.06757983 0.06335394 0.061264116 0.011182792
0.063544676 -0.08751656 0.056334652 -0.14791203 0.10333392 -0.0021485535 -0.09660056 0.102759704
-0.10602166 -0.11582545 0.056695197 0.015708787 -0.09873651 0.0002602608 -0.034076326 -0.06595034
0.06626346 -0.07381214 0.10028326 0.17238611 -0.03751473 0.07633097 -0.020661853 -0.067004755
-0.19467181 0.16208965 0.008794494 -0.09992252 -0.052100074 0.04078466 -0.10854174 0.08342595
0.0637328 0.06985256 -0.19848926 0.041309357 -0.015896758 0.14426173 0.022810757 0.07205792
-6.744459e-05 0.046689253 -0.03150717 -0.030717896 0.049633853 -0.12145771 0.067981355 -0.037213508
-0.056974385 -0.045834582 0.022440674 -0.16925728 -0.09374892 -0.07998735 0.18263212 -0.00598936
-0.14897335 0.024367074 0.13240556 0.03984728 -0.082816176 -0.10523698 0.1361621 0.07249827
0.006929143 0.034662794 0.21153668 -0.019239163 0.08610163 0.13429153 0.07761212 0.10346092
-0.085834235 -0.0655778 -0.13175513 -0.080972046 -0.09592327 -0.12905051 0.15076561 0.06993324
-0.042298034 -0.15452954 -0.2375474 0.03134502 -0.022242943 0.0826915 -0.1306553 0.0027631181
-0.036492284 -0.13309056 -0.17602791 -0.1997375 -0.12542532 -0.031889558 0.025885193 0.04188305
0.039553776 0.06268586 0.22476944 0.013282946 0.05652641 -0.16519678 -0.05673137 0.05683298
-0.036703277 0.07274049 -0.017253373 -0.002080342 0.017153827 0.06640988 -0.077684164 -0.11851838
-0.09464007 0.02186835 0.16382262 0.03154112 -0.16547778 -0.018631507 0.024482982 -0.037558805
-0.0831279 -0.22352767 -0.06262191 -0.012951459 0.03824635 0.08788399 0.19264783 0.09303431
-0.10293813 -0.06353071 0.030682985 -0.11701736 0.00404942 -0.005226299 0.06946304 -0.021236572
-0.043904386 0.07346852 0.09458972 -0.011092377 -0.050224975 -0.09524925 -0.016074277 0.0075945524

network_body._body_endoder.seq_layers.2.bias f4 [128]
00000000: addc 04bc be46 ab3a eb17 10bc bdc4 1a3a
00000010: ff63 75bc dd64 09bb 3498 20bc 2457 d436
00000020: 8090 b1ba 4f76 17bc 8bad 5e3a 2070 06bc
00000030: fd76 713b 5403 933a 209e b13b 55b8 92bc
00000040: fa41 abbc ce57 eb3a 5f95 843b 8c86 7a3b
00000050: 491e 7dbb 1416 a2bc 4c78 a9bb c9f2 ce3b
00000060: 89f2 1ebc 9bc1 febb 1f83 00bc 79a9 61bc
00000070: cde8 49bc 3098 773b f963 aebc 576f 9dbb
00000080: 4a1a 5dbc da54 dabb 838a a2bc 9807 19bb
00000090: 9abc 93bc 0468 76bc 7882 f83b 07c8 ccbb
000000a0: a8a7 bf3a 394e a43a 1f7a 5bbc d6c3 9dbc
000000b0: 1c09 7d3c c442 fbbb e4b6 2d3b f6d9 31bc
000000c0: 879a a23b 5bdd 58bc 3d92 daba 1199 e23b
000000d0: 9e44 cabb 1207 5f3a f61c 6dbb 84b3 07bb
000000e0: 3711 00bd 5149 83bb 5787 6abc 95da 7fbc
000000f0: 2b64 e0ba 18b1 d83c 4795 a2bb e4e9 47bc
00000100: 484e b3bb 1782 77bc abee 54bc e48c fdbb
00000110: e097 9fbc 7918 6b3c 3d4e edbb de24 5dbb
00000120: 110e 2f3b 8bde 60bc f10d 97bb 237f a5bc
00000130: 1b22 87bb 1813 61bb 4b80 27ba 7c61 a6bc
00000140: 3642 52bb 2cac 9c3b 5949 993a d357 6c3c
00000150: e59b 6ebc 8e5e 19bc c00e 89bc 1f92 73bc
00000160: 183f e53b 9208 c2bc fbf3 3dbb 789d 33bc
00000170: 378c bfba 2724 a8bc 3366 063b c1b4 283b
00000180: e7cd 46bc 6616 0fbc 081a 2cbc 9aae 87bb
00000190: 1652 14bb 4197 c1ba 928e 7dbc 8cff 1dbc
000001a0: 255b 6bbb 1cdc 66bc cc3b f9bb 276a 45bb
000001b0: edb5 31bc c488 c9b9 c966 6dbb 3849 8dbb
000001c0: 3154 14bc 8cd1 9e3b f66e 29bc 8a7e 79bc
000001d0: b063 4f3c 9c72 96bc f4cc afbb 58ea 1abc
000001e0: 9ae7 04bb bbbc 7bbc c34e 8fbc 22bd 5abc
000001f0: ccf4 17bc e19d b2bc 1b53 bf3b ef32 cabb
-0.008109254 0.0013067347 -0.008794765 0.000590395 -0.014977454 -0.002096466 -0.009801913 6.328237e-06
-0.0013547093 -0.009244516 0.0008494488 -0.008205444 0.0036844604 0.0011216202 0.0054204613 -0.017910162
-0.020905484 0.0017955245 0.0040461267 0.003822717 -0.0038622788 -0.019785918 -0.005171811 0.0063155633
-0.00970138 -0.0077745444 -0.007843762 -0.013773316 -0.01232357 0.003777992 -0.021287905 -0.0048045325
-0.013495037 -0.006662947 -0.019841438 -0.0023350473 -0.018034268 -0.015039448 0.0075839125 -0.006249431
0.0014622109 0.0012535519 -0.013395815 -0.01925842 0.015444066 -0.007667871 0.0026506716 -0.010855189
0.0049622688 -0.013236369 -0.0016675662 0.0069152196 -0.0061727306 0.00085078285 -0.0036180592 -0.0020706365
-0.031266417 -0.0040065427 -0.014314494 -0.015616079 -0.0017119696 0.026451632 -0.004961643 -0.01220176
-0.0054719783 -0.015106699 -0.012996356 -0.0077377427 -0.0194816 0.014349096 -0.0072419927 -0.0033743898
0.0026711265 -0.013724933 -0.0046098162 -0.020202225 -0.0041239387 -0.0034343656 -0.00063896616 -0.020310156
-0.0032082922 0.0047812667 0.0011694833 0.014425236 -0.014563535 -0.0093609225 -0.016730666 -0.014866381
0.0069960468 -0.023685727 -0.0028984535 -0.010962836 -0.0014613931 -0.020525051 0.0020507693 0.0025742503
-0.012134052 -0.008733368 -0.010504253 -0.004140687 -0.0022631935 -0.0014769809 -0.015475886 -0.009643447
-0.003591248 -0.014090564 -0.0076060053 -0.0030123086 -0.010846597 -0.00038439606 -0.0036224595 -0.004311707
-0.009053276 0.0048467573 -0.010341397 -0.015227923 0.012658045 -0.018365197 -0.0053650085 -0.009455286
-0.0020279647 -0.015364821 -0.017493611 -0.013350757 -0.009274673 -0.021803798 0.0058387644 -0.0061706225

action_model._continuous_distribution.mu.weight f4 [1, 128]
00000000: da1a b3bb 33b6 9cbc ff79 d4bb d454 133c
00000010: 568e 49bb 9f08 d8ba a25f 89ba d9c6 fd3c
00000020: 9ca5 9b3c 440f b5ba 0266 bfbc 7c4e 97bc
00000030: 2b42 acbc 5eca 64bc 03f6 083d 94a0 a2ba
00000040: 0342 f8ba f830 24bd 45f3 e73c 6dd6 dfbb
00000050: efef a43a 7f2c c8bb 8d93 86bc babe 783c
00000060: 5de2 d33c 3655 a83b b027 fdb9 64a5 8d3b
00000070: c31b 3dbb 1afd 353c f471 17bd b0e6 9a3c
00000080: 339b 8dbb 9556 363b 77d4 38b9 d5db dfbc
00000090: e179 2cbc bf2b d7bb f647 9cbc cde2 abbc
000000a0: 589b f2bc 92ca abbc 726c da3b a3e8 b63b
000000b0: 142e 5d3d af1a ab3b fe6d cbbc 9abd a6bc
000000c0: 833f c53c e3c2 79bb 3cee 1fbc b735 fc3b
000000d0: 1dab 1dbd 52d1 e03c 4237 563c b2a1 0e3c
000000e0: fa66 f9ba eddb 073c f381 4ebb b726 383a
000000f0: db8b e33b b259 553c d93d 4f3c f2c2 bfbc
00000100: 19fb 5abc dd5a 363b 690b d73b 44ed 07bc
00000110: cfad 2bbb e9fc f23c 0c81 08bc 96e4 9a3b
00000120: 313e 5839 442b aebb 9658 833c b5e4 00bc
00000130: 11dc e439 7c60 c2ba 920f 38bc 1461 90bb
00000140: 15a8 f2bc 75f9 2e3c 1b6a d33c b707 d53c
00000150: cbae a4ba 041e 68bb 5290 56b8 36d0 5a3b
00000160: 256c a73c 0657 90bb c8e9 94bc f828 e9bc
00000170: 3733 8abc f064 6bbb f2a2 e23c 47a1 933a
00000180: 894c e8bb 34e7 d6bc 7968 9bbb 5f69 ac3c
00000190: a114 bbbc ae5a 04bd e701 82bb d1dc dcbb
000001a0: 32b7 333c 49dc b03b cde0 12bb 3287 debc
000001b0: b153 a83b 3f46 1a3c 9d3f 2a3c ce1f bf3c
000001c0: 7382 813c 1ebf 133d 8d2c b93b 3b78 dbbc
000001d0: 2854 3b3c bd81 d63a 9946 57bb a38a a2bb
000001e0: d262 0c39 6709 81bd e772 4cbc abfb 57bb
000001f0: b0b4 c4bc 6be1 c8bb e925 973b acf8 14bd
-0.0054658474 -0.019129848 -0.0064842696 0.008992393 -0.0030755005 -0.0016482061 -0.0010480771 0.030978607
0.018999867 -0.0013813754 -0.02336407 -0.018470041 -0.021027645 -0.013964264 0.03343774 -0.0012407475
-0.0018940571 -0.040085763 0.028314242 -0.0068309815 0.0012583713 -0.00610882 -0.01642778 0.0151821915
0.025864774 0.005137111 -0.0004828549 0.0043226946 -0.0028855659 0.011107707 -0.03697391 0.018908828
-0.0043214797 0.0027822603 -0.00017626757 -0.027326504 -0.010527105 -0.0065664942 -0.019077282 -0.02098217
-0.02961509 -0.020970616 0.0066657597 0.0055819317 0.05399902 0.005221687 -0.024832722 -0.020354081
0.024078136 -0.0038110546 -0.009761389 0.007696833 -0.038493264 0.027443562 0.013074698 0.008705543
-0.0019027882 0.0082921805 -0.0031510561 0.0007024812 0.0069441623 0.013021873 0.012649023 -0.023408387
-0.01336553 0.0027825155 0.0065626395 -0.008296315 -0.0026196127 0.029661613 -0.008331548 0.0047269566
0.00020622533 -0.0053152163 0.016033452 -0.007867028 0.0004365151 -0.001482978 -0.011234181 -0.004406104
-0.029621163 0.010679592 0.025807431 0.026004655 -0.0012564299 -0.0035418281 -5.1155985e-05 0.0033388264
0.02043731 -0.0044049053 -0.018177882 -0.028461918 -0.016870124 -0.0035918318 0.027665589 0.0011263274
-0.007089202 -0.026233293 -0.0047426787 0.021046339 -0.022836985 -0.03231304 -0.003967512 -0.0067401906
0.01096897 0.005397354 -0.0022411824 -0.027164076 0.00513693 0.009416162 0.010391143 0.023330595
0.015809273 0.036070935 0.005651063 -0.026790729 0.011433639 0.0016365569 -0.0032848476 -0.0049603744
0.00013388254 -0.063006215 -0.012478567 -0.0032956402 -0.02401194 -0.0061303875 0.0046126735 -0.036369964
